results/generalization/1levels-policy.pt (torch, 443935 bytes, 11 tensors)

weight f4 [32, 3, 8, 8]
000000 d2 9a c7 bd 68 cc 67 3e 60 98 41 3e 7f cb f0 bd
       -0.097463265 0.22636569 0.18905783 -0.11757564
000010 36 8f 75 3d 23 e9 86 bd e8 04 fe 3d 88 c1 ec be
       0.05995103 -0.06587436 0.124032795 -0.46241403
000020 34 59 56 bd 2c 14 b0 bd f8 3f aa bd 9f 30 3f be
       -0.052331164 -0.085975975 -0.08312982 -0.18670891
000030 a0 a0 0d 3d d4 04 4f 3e ab b4 a4 be 83 16 09 bd
       0.034577012 0.20216686 -0.3216909 -0.033468734
000040 6d 43 97 3d 61 79 a1 bc 3e b0 4c 3d c3 7b 96 bd
       0.07385907 -0.019711198 0.049972765 -0.073478244
000050 9c cb cd bd 93 b1 73 bb f2 b0 eb bd fa dc 38 3e
       -0.10048601 -0.00371847 -0.11508359 0.18053046
000060 c7 3b 04 3e 0a 39 e5 bb 2b 75 00 be 1d 77 5d be
       0.12913428 -0.006995325 -0.12544696 -0.2162747
000070 8e 1c 2e bd 13 7b 2b be ba cf c0 bd 10 b0 c8 bc
       -0.0425077 -0.16746168 -0.09414621 -0.024498016
000080 ea da 15 3c 08 ec c9 bd eb 68 5d bd e9 c7 59 bc
       0.009146431 -0.098594725 -0.054055136 -0.013292291
000090 36 ce e2 bd ea 06 d2 3c 1c d4 0e 3e dd 56 8b 3e
       -0.11074488 0.025638063 0.13948101 0.2721471
0000a0 c9 5c 0f 3e 18 13 c1 3d 4b 65 e5 3d 4d e8 11 bd
       0.14000238 0.0942747 0.11200961 -0.03562193
0000b0 e2 e0 ee bd f2 0c cd bd 3b 40 0f be cc 04 8c 3d
       -0.11663987 -0.10012235 -0.13989346 0.068368524
0000c0 15 b1 31 3e 38 79 06 3d a0 bb cb bd 38 21 24 bd
       0.17352708 0.032830447 -0.09947896 -0.040070742
0000d0 18 c2 bb bc 6a 51 6d be ba b4 42 be 25 69 00 3e
       -0.0229197 -0.23175588 -0.19014254 0.1254011
0000e0 9a 5b 8a be 28 e3 f8 bd 12 d3 1d 3e 91 26 b1 3c
       -0.2702301 -0.121527016 0.15412548 0.021624835
0000f0 c5 40 07 3e 78 bc 0e 3e 85 6c 98 bd 50 57 5c 3d
       0.13208301 0.13939083 -0.074425735 0.053794205
000100 25 4e 1c be 1d 4a 48 3e 99 07 f7 bc d3 2c 93 3d
       -0.15264185 0.19559522 -0.03015499 0.07186284
000110 16 39 bc bd ae aa 9b 3e bb 7a fc bd d8 b9 3e be
       -0.09190576 0.30403656 -0.123280965 -0.18625581
000120 8e 02 3d be 26 1e 07 be c4 5c 17 be 02 a0 86 3d
       -0.18458006 -0.13195094 -0.14781481 0.06573488
000130 cb 60 89 3c 63 e1 24 3e 2f c0 1d be 8d a8 16 bd
       0.016769787 0.16101603 -0.15405343 -0.036781836
000140 bd 70 0a 3e 45 06 e4 3c fd 7a 95 bd 33 03 72 3d
       0.13519569 0.02783502 -0.07298849 0.059085082
000150 91 d9 1b bd c6 51 79 bc 09 11 67 be 9d 2d a1 bd
       -0.038049284 -0.01521725 -0.22565092 -0.07870028
000160 89 b2 53 3e c3 25 fd bd 05 ba b8 b9 19 9f 35 be
       0.20673575 -0.12360718 -0.0003523381 -0.17736472
000170 7a 41 10 3c d1 2e 4f be 25 ed 66 bd 63 74 db bd
       0.008804673 -0.20232703 -0.056378502 -0.107155584
000180 4b 71 6c 3c f3 76 86 bd 2d 9f 12 bd dc f1 a4 be
       0.014431308 -0.065656565 -0.035796333 -0.32215774
000190 7d b6 92 be a7 08 26 3e 56 db 1a 3c a6 18 29 3d
       -0.28654853 0.16214238 0.009451708 0.041283272
0001a0 5e 2f 94 3d 56 53 28 3e 2d c8 a1 bd ab 20 26 3d
       0.07235597 0.1643804 -0.078995086 0.0405585
0001b0 13 8f b2 bd d8 2f 77 be 31 ea 66 be 21 a2 da 3d
       -0.087186955 -0.24139345 -0.22550274 0.10675455
0001c0 cf 11 db 3d b5 c8 12 bd 53 38 6d bc 2d db f4 bd
       0.10696756 -0.03583594 -0.014478761 -0.11955867
0001d0 c7 02 04 3e 97 7c 8c bd dc 37 e1 bc 32 06 8b bd
       0.12891684 -0.06859701 -0.027492456 -0.06788291
0001e0 11 d8 0f 3d 69 58 61 3d b7 2c 09 bd 33 b9 6d bd
       0.035118166 0.055015955 -0.03348991 -0.058037948
0001f0 ec 89 20 be aa 36 97 bd 76 22 5f 3e 1f b0 bb 3c
       -0.15677613 -0.07383473 0.2179049 0.02291113
000200 2c 97 22 be f3 e2 08 3e 02 ef 3f be 6f 7f fa bd
       -0.1587798 0.13367824 -0.18743518 -0.12231337
000210 6e 1b c2 bc 5e b2 79 3c de 06 f3 bd b9 fe 7a 3e
       -0.02369472 0.01524028 -0.11866544 0.24511231
000220 c3 5c c8 3d ee 70 ed 3d 94 e0 d3 3d b5 14 f3 3d
       0.09783318 0.11593805 0.10345569 0.11869184
000230 f4 78 96 3d 15 f0 9b bd 83 8b 37 be 65 d8 f2 3d
       0.07347289 -0.076141514 -0.17924313 0.1185768
000240 06 d2 1e 3e 8a 35 59 3e 50 13 1c be 38 4e 04 3e
       0.15509805 0.2121183 -0.15241742 0.12920463
000250 ec bc 91 3e 2b 36 67 3d 93 1a d0 bd 51 62 b2 3c
       0.28464448 0.056448143 -0.10161319 0.021775397
000260 ee b4 2a 3e 62 1c bf bb 83 2a 13 bd 55 2b a3 bd
       0.16670582 -0.005832241 -0.035929214 -0.07967249
000270 c2 8a 7c 3e 2d 5f a1 3c ed 99 05 bc 3a 83 76 3e
       0.24662307 0.019698704 -0.008154375 0.24073496
000280 5e a3 bd 3c f1 08 b2 3d 53 9c 9e 3e da 3c 9e bd
       0.023149189 0.08693112 0.3097864 -0.0772645
000290 fc c7 3c be 21 38 68 3d b1 40 3b 3e 45 30 06 3f
       -0.18435663 0.056694154 0.18286397 0.52417403
0002a0 e9 f0 d0 3d be 20 a1 3e bc 20 86 3d dc 3d 04 3d
       0.102022 0.31470293 0.06549212 0.032285556
0002b0 74 7e c8 be 4f bc 01 be 42 49 00 3e 9f af 96 3e
       -0.39158976 -0.1266949 0.12527946 0.29430863
0002c0 c4 f1 78 3b b1 74 98 3d ac 94 d5 bd 5a 58 bb be
       0.00379859 0.07444132 -0.104287475 -0.36590844
0002d0 c1 b4 d7 be f6 a8 f8 3c 6c 93 eb bd b1 fb 07 bd
       -0.42130092 0.030354004 -0.11502728 -0.033199016
0002e0 ea 53 ab 3d 98 81 dc bb c3 22 b1 bc 22 98 14 be
       0.08365615 -0.006729316 -0.021623021 -0.14511159
0002f0 69 e5 8b bd 0f b6 f4 bd 16 27 8a bd 44 28 2a be
       -0.06830866 -0.119487874 -0.06745736 -0.16616923
000300 87 e3 07 3e 14 5a 30 3d d9 13 bf bd d1 a2 e7 bb
       0.13270389 0.043054655 -0.093299575 -0.00706897
000310 e7 2b 63 3d ef 1c 4f be 3c ec 89 bd bc 63 cd bd
       0.05546179 -0.20225881 -0.06734511 -0.100287884
000320 59 1a 2f be 54 eb 1b bd ff 0a d8 bd f6 42 1f 3d
       -0.17099895 -0.038066223 -0.10548972 0.03888222
000330 44 8c a3 bd 9c 14 ec bd 3c 4f 5d 3d 01 ca b8 3d
       -0.07985738 -0.115273684 0.054030642 0.09022904
000340 f2 c6 b2 3c 61 f3 2f 3e c6 d9 d8 bd 27 4f ea bc
       0.02182338 0.17182685 -0.10588412 -0.028602196
000350 02 c5 df bd 68 aa bd ba 84 77 9f 3d 99 3d 0d 3e
       -0.10926248 -0.0014470341 0.07786468 0.13793029
000360 d8 07 eb bc 0f 77 2b be 1c 79 47 be ef f1 9c bd
       -0.028690264 -0.16744636 -0.19479793 -0.07663333
000370 08 7c 3f 3e 5e 28 99 bc 0f d6 ce bd 31 67 2d be
       0.18699658 -0.018696006 -0.10099422 -0.16933896
000380 63 a3 38 3d 3e 59 a0 bd bc 2d 35 3e d2 b9 19 be
       0.045077693 -0.078295216 0.17693228 -0.15012291
000390 00 d3 20 3d 74 bd 36 3e 24 13 e6 3c da 80 6d 3e
       0.039263725 0.17845708 0.028085299 0.23193684
0003a0 05 45 01 3d 3c ff 99 bd 47 6f bc bd 3b 57 0d bd
       0.031559963 -0.07519385 -0.09200912 -0.034507018
0003b0 33 76 de 3b d6 08 be 3c 74 5f 46 bd f4 2f aa bc
       0.006788993 0.023197573 -0.048430875 -0.020774819
0003c0 01 5a f0 bd c9 9f c8 bc 2c 6f 7b be 0b 13 a4 3d
       -0.11735917 -0.024490254 -0.24554127 0.08011445
0003d0 3a 50 9e bd 94 77 f2 bd 22 51 0e bd bc 5d 1e be
       -0.07730146 -0.11839214 -0.034745343 -0.15465444
0003e0 86 18 12 3e fd 40 b6 bd 02 64 c9 bd dd a8 aa bd
       0.14267167 -0.08899114 -0.09833528 -0.08332989
0003f0 65 c6 21 bd 1d ba 1f 3e 29 b3 88 3d 1f 3a fd be
       -0.039495844 0.1559834 0.06674797 -0.49458405

bias f4 [32]
000000 9a d7 48 bc 51 bf 5a 3d 6c e6 f5 ba 1d d6 a2 ba
       -0.012258435 0.05340511 -0.0018760688 -0.001242343
000010 eb 43 6f bd 37 6f 7a bb e8 a6 05 bb 41 fa 8c bb
       -0.05841438 -0.0038213262 -0.0020393673 -0.0043022935
000020 1d 76 0b bb 09 0e 67 bb 9e a2 d3 3c d5 e7 9b bc
       -0.0021280118 -0.0035256168 0.025834378 -0.019031445
000030 63 8b 47 bb 13 1e f8 b9 b9 d3 84 3b 92 18 1c bb
       -0.0030448071 -0.00047324653 0.0040535596 -0.0023818356
000040 55 2b 20 3d e4 a0 52 bb f5 a2 19 bb 46 60 04 3a
       0.039103825 -0.0032139355 -0.0023443077 0.0005049746
000050 6e 03 a4 bb 1d 9f 31 bb b6 26 10 ba 77 bc 07 bc
       -0.0050052917 -0.0027102896 -0.00054989324 -0.00828468
000060 a9 9b f4 ba 19 13 6d 3d 5c f4 87 b9 85 87 05 bb
       -0.0018662113 0.05787954 -0.00025931268 -0.0020374965
000070 45 3c 72 b9 77 f4 a0 3b 19 bb 1c bb 68 59 ef ba
       -0.0002310137 0.004911955 -0.002391523 -0.0018260898

weight f4 [64, 32, 4, 4]
000000 50 e2 05 3d 01 37 04 bc 62 8e ea 3d fa dc 66 bd
       0.03268653 -0.008069755 0.114529386 -0.056363083
000010 f8 d6 02 bd 0f 79 47 bc b5 70 9a 3d e9 ca 5a bc
       -0.03194329 -0.012174859 0.075410284 -0.013354042
000020 ad 2c ca 3d 96 5d 2f bd a5 80 91 bb 89 f1 1e be
       0.098718025 -0.04281386 -0.0044403845 -0.15521826
000030 72 98 b7 bd 5c 0f dc bc 15 9a 7e bd 18 83 3a be
       -0.089646235 -0.026862793 -0.062158663 -0.18214071
000040 b7 6e 49 3d 42 9b 3b bd 91 76 d0 3d 63 8f 9d 3d
       0.04917785 -0.045802362 0.10178865 0.076933645
000050 c3 05 64 bd 77 a4 ec 3d 34 1e 6a 3d f1 5d 02 3d
       -0.055669557 0.11554807 0.05715771 0.03182787
000060 b9 04 09 3d 6c e3 dd 3c d8 94 a1 bd 3b 10 36 3d
       0.03345177 0.027085982 -0.07889718 0.044449072
000070 c5 63 1d 3b ff b2 e7 3c 6c 1d c6 3d d9 75 8b 3d
       0.0024015766 0.028283594 0.096735805 0.06809587
000080 bf 2d 09 3e 5c 86 bf 3d c2 92 64 bd ca 60 93 bd
       0.13396357 0.09351799 -0.05580402 -0.071961954
000090 0e 6b 8d 3c 42 53 bd bd 76 77 ca 3d 97 66 e0 3d
       0.017262962 -0.09244396 0.098860666 0.109570675
0000a0 88 3b cf bd c6 ed d4 bd 9b 5f 79 3e c1 d9 10 3e
       -0.101187766 -0.10396914 0.24352877 0.14145567
0000b0 c0 21 96 3d d6 fe 32 be 6f d2 ea 3d de f7 62 3d
       0.07330656 -0.17480025 0.11465918 0.055412166
0000c0 09 20 8d bd 8a c8 d6 3c 92 bc a1 3d 89 e3 bc 3c
       -0.06890876 0.026218671 0.07897295 0.023057716
0000d0 6c db 23 bd ec a3 4c be 86 e1 c0 bc 34 29 d1 bc
       -0.04000418 -0.19984406 -0.023545038 -0.025532342
0000e0 36 5d 15 be 72 f0 9d 3c 5c 36 43 3e de 7a a7 bd
       -0.14586338 0.019279692 0.19063705 -0.08177732
0000f0 7e a3 82 3d 3f b2 7b bd ac ce 4d 3c d5 18 d9 bd
       0.0637884 -0.061449286 0.012561481 -0.106004395
000100 df 02 0c be 46 a9 81 bd b8 a2 a1 3d ba 36 42 bd
       -0.1367297 -0.063311145 0.07892364 -0.047415473
000110 48 d5 d8 bd 31 aa 56 bd 5f ca 0e bd ea 5f 75 bc
       -0.10587555 -0.0524084 -0.034860965 -0.014976481
000120 33 c7 87 bd 9e 22 13 be a3 13 4a 3d b3 55 bf bd
       -0.06629791 -0.14368674 0.049335133 -0.09342518
000130 d6 3d 34 be 6b 60 62 3a 36 0a de 3d ef 84 32 bc
       -0.17601714 0.0008635583 0.10841791 -0.010895952
000140 d7 d1 1b be 9d f2 50 3c 0d 51 3c 3d c0 62 c0 bd
       -0.15216766 0.012753156 0.045975734 -0.09393835
000150 76 fd 1c 3d 04 4b db 3c 91 66 24 3d 39 67 7a 3d
       0.038327657 0.026769169 0.040136877 0.061133597
000160 c2 00 9b 3d e1 c0 87 be c2 8c ff 39 4a e2 71 3d
       0.07568504 -0.26514342 0.00048742263 0.059053697
000170 1d 41 14 be 37 e6 1b bd 92 25 f1 bc 47 67 b5 bd
       -0.14477964 -0.038061347 -0.02943686 -0.08857589
000180 3d 84 80 bc 80 f1 48 bc ee 28 1b bd b1 ce f8 bb
       -0.015688056 -0.012264609 -0.03788083 -0.007592999
000190 e7 40 56 3d e2 39 ad bc 63 8f 19 be 87 6f f3 3d
       0.05230799 -0.021145765 -0.14996104 0.118865065
0001a0 ed fe 37 bd cf 09 35 3c 85 77 3f bd 6a 50 52 3d
       -0.04492085 0.011049702 -0.046744842 0.05134622
0001b0 92 f8 0c bd bd 1d 75 bd 2c 58 ee bc ec e8 f4 bd
       -0.034416743 -0.059842814 -0.029094778 -0.11958489
0001c0 15 64 5e 3d 17 fb 0a be 98 81 22 bc 24 73 fc 3d
       0.054294664 -0.13572346 -0.009918593 0.12326649
0001d0 6f 49 40 bc 8c cc 04 bd d7 59 c0 3d d9 5e 80 3d
       -0.011736258 -0.032421634 0.093921356 0.06268091
0001e0 24 82 31 bd a2 aa 0c 3e 76 78 e1 3d f9 e0 64 bd
       -0.043337002 0.13736966 0.11009304 -0.055878613
0001f0 95 92 a1 bd 24 5c f6 3c ac 0e 91 bd 43 cf eb 3c
       -0.078892864 0.030073233 -0.070828766 0.028785354
000200 92 12 7d 3d 0f ff 1e 3d b5 f3 52 bc 0a b0 d8 bd
       0.06178529 0.03881746 -0.012875487 -0.10580452
000210 3f 8c f2 3b 0c 6f 9e bd ac 8e 96 bb eb 95 11 3c
       0.0074019725 -0.07736024 -0.0045946445 0.008885841
000220 50 b4 01 be 70 0f 76 bd 62 83 71 3d c7 5c 04 be
       -0.1266644 -0.060073316 0.058963187 -0.12926017
000230 00 82 da bd dc b5 3d bc 09 e4 86 3c dc 8f 0f be
       -0.10669327 -0.011579003 0.016466158 -0.14019722
000240 12 44 2e 3e 79 59 a1 bc 4f 18 a7 3d a4 4f 22 bd
       0.17018154 -0.019695984 0.08158933 -0.039626732
000250 63 e9 0d 3d 9d 97 2a bd 5d 89 82 bd bd b2 2c 3d
       0.034646403 -0.041648496 -0.06373856 0.042162646
000260 e1 5e a3 3d 7f f4 a6 3d 85 42 48 3c 35 68 84 3d
       0.07977081 0.08152103 0.012222891 0.064651884
000270 b5 70 2e be 12 c8 4a bd d7 a4 cf b8 81 ab ff bb
       -0.17035182 -0.04950721 -9.901233e-05 -0.0078024273
000280 d7 fa 11 3c 3c 35 94 3d 8e 46 7e bd b6 1b 3b 3e
       0.008909903 0.07236716 -0.062079005 0.1827229
000290 37 0e a7 3c 3d dc 1a 3d 4c 22 05 3d be 26 50 be
       0.02039252 0.03780769 0.03250341 -0.20327279
0002a0 1a f0 d9 bd 00 84 dd bd e2 c6 da bd 3f d9 9f 3c
       -0.10641499 -0.108161926 -0.10682465 0.01951277
0002b0 4e 4b 6f bd f2 40 de ba bd 45 6c 3d b7 98 a0 3d
       -0.058421426 -0.0016956611 0.057683695 0.07841628
0002c0 ee a2 23 3e 79 e2 5e 3d d6 f2 81 bb 74 0c 6c bd
       0.15980121 0.0544152 -0.003965716 -0.057629064
0002d0 9b 83 4f 3d 9f 1e a5 3b d5 1c a0 bd 92 9b 19 3e
       0.050662618 0.0050390507 -0.07817999 0.15000752
0002e0 2a 70 7f 3d 03 0a cd bc 82 c0 1a be f7 c4 f0 bd
       0.062362827 -0.025029188 -0.15112498 -0.11756318
0002f0 23 56 3c bd 70 e5 1a 3d ca 0e ee 3b c4 d5 c2 3d
       -0.045980584 0.037816465 0.0072649466 0.09513429
000300 1f 9f 29 bc 9d 2f bf 3c ab 1d de 3b 1f 98 a8 3c
       -0.010352879 0.023338133 0.006778439 0.02058035
000310 53 cd 58 3d f1 83 83 bd 67 cd 88 bd 4c 2f a5 bd
       0.052930187 -0.0642165 -0.066798024 -0.08065662
000320 22 cc 26 be a1 12 73 bd 0e 0a d7 3d 05 d8 38 3d
       -0.16288808 -0.059343938 0.10499965 0.045127887
000330 a4 d8 8e bd 06 51 5d 3b 47 7a f4 bc f0 e8 84 3d
       -0.06974915 0.0033770218 -0.029843463 0.06489742
000340 ee ed 5e bd e4 94 d3 3d 82 a3 4a 3b e3 1c aa bb
       -0.054426126 0.10331133 0.0030920212 -0.005191432
000350 b0 51 a1 3d 72 c3 f2 bc 7b 52 e5 3d a4 c3 db 3d
       0.07876909 -0.029634211 0.111973725 0.10730675
000360 bf ce 48 bd 7c 57 80 bd ad bc 09 3d 7a 32 d3 bd
       -0.049025293 -0.06266686 0.0336272 -0.10312362
000370 fd f6 0d 3d 3a 00 ad bd 6d 0e 67 bd 12 e8 90 3d
       0.034659375 -0.08447309 -0.056410242 0.07075514
000380 d5 d9 48 3d d5 b6 75 bd ab b4 46 bd 55 f1 02 3e
       0.049035866 -0.059988815 -0.048512142 0.12787373
000390 08 78 ce bc ff 5e 89 3d 33 5b 37 3d c5 c1 1b bc
       -0.02520372 0.06707572 0.04476471 -0.0095066475
0003a0 04 46 0a bd 7a 1b 89 3d 1d 0d cf 3d 5f 86 3c bd
       -0.03375818 0.06694694 0.10109923 -0.046026584
0003b0 0a 02 a1 bd 38 85 81 bd 79 a7 ca 3d ba 28 16 3d
       -0.07861717 -0.063242376 0.09895224 0.036659934
0003c0 bc 0b 20 bb 28 18 b4 bd 69 4d 6e 3b 84 73 80 bc
       -0.0024421057 -0.0879367 0.0036362058 -0.015680082
0003d0 3e 8b 41 bd c8 1b 72 bd 91 bf 4f bd 83 a2 9b 3c
       -0.047251932 -0.059108526 -0.0507198 0.01899839
0003e0 8f 7a 83 bd 60 b4 dd bc 36 c3 cd 3d 77 7f 35 3d
       -0.064198606 -0.027063549 0.10046999 0.044311013
0003f0 48 64 25 3d 3e 46 1f 3d d8 b4 3b bd 6b 6a 86 bd
       0.04037884 0.038885348 -0.045826763 -0.06563266

bias f4 [64]
000000 6b ef 50 3c c5 65 89 bd 04 c5 ca 3c 65 65 38 bb
       0.012752394 -0.06708864 0.024752147 -0.0028136608
000010 40 38 58 bc 88 9c 86 bd 17 5e e6 3c ad 0f 17 bd
       -0.013197005 -0.06572825 0.028121037 -0.036880184
000020 c3 bf 03 3b 57 96 b1 3c 90 f6 87 3c 65 20 91 bd
       0.0020103313 0.021678133 0.016597062 -0.07086257
000030 18 bf 9d 3d 67 bf 83 3b ab 8e b4 bc 0c ce df bc
       0.07702464 0.0040206197 -0.022040686 -0.02731993
000040 5f 0c b1 bc e2 78 49 bc 8f a1 ee ba 3e 4c c9 3b
       -0.021612344 -0.012296887 -0.0018206107 0.006143122
000050 9e bf 03 3c d9 fa f8 bb 7c 94 76 3d 9b 67 f3 bc
       0.008041291 -0.0075982627 0.0602002 -0.029712489
000060 b4 97 8e 3c 48 37 58 ba 7e 8c 2a 3d 70 d3 45 3d
       0.017406322 -0.00082479836 0.04163789 0.048297346
000070 a8 ff 69 3d 8e 81 19 be 2b 7b 23 3c e9 76 a3 3d
       0.05712858 -0.14990827 0.009978096 0.07981665
000080 e2 d4 e0 bd d6 82 94 bd 50 7c 7d bd 90 0d 38 3b
       -0.10978104 -0.072515175 -0.06188613 0.0028084256
000090 93 7a 11 bd 2c a6 8c bd d4 b8 02 3c 84 10 bf 3d
       -0.035517287 -0.06867632 0.007978637 0.09329322
0000a0 c5 3b 16 bd 3a d3 9a 3d 30 6b ef 3b 7e 37 1f bd
       -0.036678094 0.075598195 0.007306479 -0.03887128
0000b0 32 7e f5 bd 43 84 e4 bc 2a d1 25 bc f1 c6 c0 3d
       -0.119869605 -0.027895099 -0.010120669 0.09412945
0000c0 5c 4a 15 bd 9a 04 34 bd 86 65 c6 3c 7c 7c 25 bd
       -0.036447868 -0.0439497 0.024218332 -0.04040192
0000d0 6e 27 55 ba 95 94 9f 3d d4 c5 50 bc 62 91 18 3c
       -0.00081311807 0.07792012 -0.012742478 0.009312006
0000e0 66 4e 7a 3c 56 da 58 3d df f6 cc bc 20 1f 58 bc
       0.015277481 0.052942596 -0.025020061 -0.0131910145
0000f0 29 68 86 3c b0 30 7e 3c 40 de f1 bc e5 7d 4b bd
       0.01640709 0.015514538 -0.029524922 -0.04968061

weight f4 [64, 64, 3, 3]
000000 cd 7e 8d 3c 15 12 41 bd 68 95 84 3d 64 0f c6 3d
       0.017272377 -0.047136385 0.064738095 0.09670904
000010 53 a5 97 3d b7 25 86 3c e2 81 fb bc 13 2f 50 3d
       0.0740458 0.016375406 -0.030701581 0.050826143
000020 6d 16 1f bd c8 d6 1c 3d 93 aa ce bd 51 c8 72 3d
       -0.038839746 0.03829077 -0.10091128 0.059273068
000030 11 cb 94 bc 7a 2d 77 3c 38 87 44 bd 77 e9 01 bd
       -0.018163236 0.015086526 -0.047980517 -0.03171679
000040 0e 06 10 3d 2b 01 98 3d 83 ca 9f 3d 96 5b ab 3d
       0.035162024 0.07422098 0.07802298 0.08367078
000050 b4 d1 84 3b 6b b9 38 3c b9 74 0c be 68 cf 8a bd
       0.004053319 0.011274676 -0.13716401 -0.06777841
000060 c7 a8 8e 3d 9e fd a7 3c 3e 7c bc 3d bb de 47 3e
       0.069657855 0.020506676 0.09203385 0.19518559
000070 c2 64 1d 3d 65 91 82 3b cd 61 a8 bd 7f 53 26 3d
       0.03842617 0.0039846175 -0.08221779 0.04060697
000080 77 7d 7d bd 24 d5 d4 bd 6e 02 60 bd f1 aa cb bb
       -0.06188723 -0.10392216 -0.054689817 -0.006215446
000090 43 2b 22 3d 00 8b 3a 3d 5e 94 c7 3b fb f6 65 3d
       0.03959204 0.045542717 0.006090685 0.056143742
0000a0 2e e4 41 3e 3d 3a ac bd c2 34 fb bc af 54 b4 3d
       0.189347 -0.084095456 -0.030664805 0.088052146
0000b0 75 cd d8 bc 0b 85 2b bd e0 f4 6c 3d 0b 3c d1 bd
       -0.026465157 -0.041874927 0.05785072 -0.102165304
0000c0 f8 84 46 3d 19 58 75 bd fe 48 84 bd 2e 2f 32 bd
       0.048466653 -0.05989847 -0.06459235 -0.043502025
0000d0 7c 95 80 3d b8 a1 a6 be 60 d3 3c 3e 8c de 62 bd
       0.06278512 -0.32545257 0.18440008 -0.05538802
0000e0 f3 91 4e 3d fa 27 80 3d ee 33 7b 3d 87 27 5f bd
       0.050432157 0.06257625 0.06132882 -0.054481056
0000f0 ce 0d 95 3d 6d c1 30 3e e3 4c 9c bb 0c 00 9b bd
       0.07278024 0.17261286 -0.004769908 -0.07568368
000100 24 95 b4 bd ea 78 ae bd 7c 61 49 bd 6b b7 36 be
       -0.08817509 -0.08519156 -0.049165234 -0.17843406
000110 99 96 29 3c 6b cc 6b bd 60 13 d3 3c 63 95 f7 3b
       0.010350847 -0.057567995 0.025766075 0.00755565
000120 29 fe 4e be 5f a8 f9 bd df fd 9a bd 31 95 9f 3d
       -0.20214142 -0.12190317 -0.07567953 0.07792128
000130 3c 5e 54 bc 44 8a 20 be 58 c4 24 bd 14 3c 37 3c
       -0.01296192 -0.15677744 -0.04022631 0.011183757
000140 2c fc 05 be 20 39 fb bd a9 d2 1c bd 84 45 12 3d
       -0.13084477 -0.12266755 -0.03828684 0.035710827
000150 c1 d2 9e 3d d9 51 3d 3d 1b 4e fd bc ae 8c 18 3d
       0.07755042 0.046220634 -0.030921033 0.037243538
000160 b6 3d 5f bd aa db 74 be 7e 34 a1 3a 72 99 23 3c
       -0.05450221 -0.2391192 0.0012298969 0.009985315
000170 78 f5 88 bd bf ce 0b 3e 4a 0e 90 bd c0 cb ad bc
       -0.066874444 0.13653086 -0.070339754 -0.02121532
000180 f0 1a 30 3d e0 6d d6 bd 6c 64 13 bd 53 2a 2e 3c
       0.04299444 -0.10470176 -0.03598444 0.010630208
000190 af 33 ae bd 32 ee 9b bc 5e 95 e3 3d d5 f1 a2 bd
       -0.085059516 -0.019034479 0.11112474 -0.07956282
0001a0 30 5b be bb 5a 6a 62 3c ec 78 79 bc 1d a9 9a bd
       -0.0058092102 0.0138193015 -0.015226584 -0.07551787
0001b0 c5 9b 2e 3e f0 b3 f6 bd 46 4c e4 3c cb cf 6d 3d
       0.17051609 -0.12046039 0.027868401 0.058059495
0001c0 57 5b 14 bd 47 64 76 3d 68 96 2f 3d 65 9c 80 3b
       -0.03621992 0.060154226 0.042868048 0.0039248937
0001d0 a8 49 2e bc 40 ec 1e bb 62 58 9e bc 37 e2 61 bd
       -0.010637678 -0.0024249703 -0.019329254 -0.055147376
0001e0 31 92 d5 3d a6 55 c1 3c b3 49 ec 3d 3b 7a ce bc
       0.104282744 0.02360041 0.115374945 -0.025204768
0001f0 a3 c9 f9 3c 9f 57 bc 3e da 06 26 be d3 54 19 be
       0.030491656 0.367856 -0.16213551 -0.14973764
000200 dd 11 dc bc ef e1 16 bc f0 03 bb bd 0d c2 a1 bc
       -0.026863987 -0.00920914 -0.091316104 -0.019745851
000210 6f 32 3e 3e 16 f9 22 3c 28 9f ab bd 5c e8 52 bd
       0.18573926 0.009947082 -0.08379966 -0.051491126
000220 fb b6 b9 3c 12 d0 d8 bd e1 e7 bf bd b8 58 de bd
       0.02267026 -0.10586561 -0.09370399 -0.108567655
000230 32 57 5d 3d 04 45 09 3d ea 8d 2a be 2d 04 98 3d
       0.054038234 0.033513084 -0.16655698 0.074226715
000240 64 40 6c 3d 1e ff 97 3c 81 a0 9d bd ba 3d c3 bd
       0.057678595 0.018554267 -0.07696629 -0.09533258
000250 db cf a5 3d 91 f1 a6 bd 94 9e 08 3e 35 a4 f3 3d
       0.08096286 -0.08151544 0.13341743 0.118965544
000260 ed ff 20 be b9 b8 04 3d b1 ed ef bd 17 cd 9a bd
       -0.15722628 0.032402728 -0.11715258 -0.07558649
000270 da 5f 81 3d 14 13 e9 3c 77 50 4d be 7e 26 05 3e
       0.0631711 0.02845148 -0.20050226 0.13002965
000280 39 7d 8a 3d ad ba 3b be 2e 92 0e 3e e6 09 03 3d
       0.067621656 -0.1833293 0.1392295 0.03199186
000290 c7 2d 6b bc 60 77 94 bc 78 9e 61 bd 00 91 47 3d
       -0.014354176 -0.018123329 -0.05508277 0.048722267
0002a0 e9 a9 e7 3d 46 fe 10 3d 31 95 af 3c b4 7e 54 bd
       0.11311705 0.035398744 0.021433445 -0.051878646
0002b0 68 33 7c be ec 38 ce bc 84 bb 89 3d 85 ae a7 3c
       -0.24628985 -0.025173627 0.06725219 0.02046896
0002c0 16 34 00 bd df 42 07 3d 1b da 18 3d 69 9d dc ba
       -0.031299673 0.033022758 0.037317377 -0.001683158
0002d0 0d d8 1e be c9 61 f4 3c 53 8c 81 3d 1b 9c 1d bd
       -0.15512104 0.029831784 0.06325593 -0.038478952
0002e0 07 a5 73 3c d9 ca b5 bc 7e 36 80 3d 46 f2 1b bd
       0.014870889 -0.022191452 0.062603936 -0.038072847
0002f0 f6 9d bb bd 89 3b 28 bd 82 07 07 3c 8b e0 59 3d
       -0.09160988 -0.041072402 0.008241536 0.053192656
000300 61 6c 6d bd 99 d1 a2 bd 1a ab 41 3e e7 e3 7d 3d
       -0.057964686 -0.07950134 0.18912926 0.061984923
000310 db 78 05 be 6f a6 8c bd 17 51 48 3d 8b 6d 32 3d
       -0.13034384 -0.06867682 0.04890546 0.0435615
000320 a4 b8 7a bd 0c 8a 2c be 11 91 91 bd fa c9 40 3c
       -0.061211243 -0.16849536 -0.07107747 0.011766905
000330 e6 58 d8 bc dd a3 42 3d a9 10 01 be 9e 66 31 3c
       -0.026409578 0.047519553 -0.12604012 0.0108276885
000340 7f 6b 36 bd 2b 27 a2 bc 2b 46 f3 3c cb ff 0d bc
       -0.04453611 -0.019794067 0.029696545 -0.008666943
000350 9e 5e f0 3d 36 5b 51 bb 7c 25 f6 bd f2 1e 1c 3d
       0.11736797 -0.0031945235 -0.12018868 0.03811545
000360 e1 08 22 3e ed c0 2e be 2e f8 42 bd b2 e3 39 bc
       0.158237 -0.17065783 -0.047599964 -0.011345791
000370 d3 53 bf bc 96 ab 60 3d 57 35 da bd 37 36 80 bc
       -0.0233554 0.054851137 -0.10654705 -0.015650852
000380 30 62 65 3d 29 26 81 3d 65 75 e9 3d 4a 5f 0f 3d
       0.056001842 0.063061066 0.11399344 0.035002984
000390 37 20 79 bd ce 4e 91 bc a7 df bf bd 08 04 3a bd
       -0.060821738 -0.017737772 -0.0936883 -0.045414
0003a0 d4 e2 71 bd eb 14 d9 bd 1d 1d eb 3b a2 f1 d6 bc
       -0.05905421 -0.10599693 0.0071751014 -0.026238266
0003b0 51 98 6b 3c d9 3a 9a 3d ea dd 15 be 5c 92 f9 3d
       0.014379577 0.075307555 -0.14635435 0.12186119
0003c0 b7 42 f2 3d 28 bb 9d 3b 1d 93 75 3e 97 24 0f 3e
       0.11829131 0.0048135705 0.239819 0.13978802
0003d0 c8 b1 20 3e 1e 25 99 3d b4 4d 13 bb 50 2e 8e 3d
       0.15692818 0.07477783 -0.0022476735 0.06942427
0003e0 c2 10 46 3d 33 f7 06 be 4d 3e 33 bd 0e 89 65 bb
       0.048355825 -0.13180237 -0.043760587 -0.0035024318
0003f0 87 d0 5b 3c 8b c5 7d 3d d6 6b c7 bd bf 05 40 bd
       0.013416416 0.06195597 -0.09737365 -0.04688048

bias f4 [64]
000000 cb 11 71 3c 36 0d 12 bc 80 64 72 3d 16 1b a2 bb
       0.014713715 -0.008914283 0.059177876 -0.0049470766
000010 6b 91 a4 bd 31 b6 9b 3c 9b 03 c0 3d d9 dd 55 bd
       -0.08035549 0.019007774 0.09375688 -0.052213524
000020 3d eb 30 bd d5 9e 13 3d a3 de 37 bb 31 0d 83 bd
       -0.04319309 0.036040146 -0.0028056286 -0.063990004
000030 0c 45 ae 3c 35 77 99 3d ed f4 95 3c b0 80 f1 bc
       0.021273158 0.0749344 0.018305266 -0.029480308
000040 72 6f 9c bd 42 b2 85 3d 5a 61 18 ba 48 97 a4 3d
       -0.07638444 0.065281406 -0.00058128464 0.08036667
000050 98 27 36 bd 29 0a 16 3d 02 c7 87 3d 61 15 30 3d
       -0.044471353 0.036630783 0.066297546 0.04298914
000060 1c 2e 0f bd 33 5f 01 3d 0d 60 a4 bd 42 e0 9c 3d
       -0.034956083 0.03158493 -0.08026133 0.07659961
000070 0d 59 63 3c 84 9f 68 3d 77 db d0 3d bb 47 87 3c
       0.013876212 0.05679275 0.101981096 0.016513696
000080 c3 9a 18 3d 78 7c e1 3c 8f 4b a7 3d 0a eb 22 bd
       0.037256967 0.027525172 0.081687085 -0.039774932
000090 a5 ab 6a 3d ee a5 c6 3d bb 9b fd bb d5 44 fa bb
       0.0572926 0.09699617 -0.007739512 -0.0076376
0000a0 aa 57 28 3d d2 cf 49 ba cf a2 9d bb ea 5a 9f 3d
       0.041099228 -0.0007698509 -0.004810668 0.07781012
0000b0 86 c3 11 3d d8 f8 a3 3b d8 40 42 3d 3d 56 5f bb
       0.035586856 0.0050040297 0.04742512 -0.0034078502
0000c0 53 40 27 bd 54 57 e1 3c 88 84 f6 3c 01 8e e8 bc
       -0.04083283 0.027507462 0.030092493 -0.028388025
0000d0 e0 63 9e bd 2a 36 86 3d 39 8f 1a 3d 1d 6b f6 ba
       -0.077338934 0.065533 0.037734244 -0.0018800233
0000e0 fb 32 cf 3c 11 c1 81 bd c3 33 b7 3c df 04 f8 bc
       0.025292864 -0.063356526 0.02236355 -0.03027576
0000f0 4d 01 d1 3b f1 e3 8e bd 43 c4 30 3c 53 75 88 bd
       0.006378329 -0.0697707 0.01078898 -0.06663003

weight f4 [32, 1024]
000000 ef 5a e0 ba 0a bb b9 3d ee 14 20 bc 45 05 95 3d
       -0.0017116944 0.09068878 -0.009770615 0.07276396
000010 26 77 1b 3d 08 69 75 3d da b5 05 bd 78 21 1a 3d
       0.037955426 0.05991462 -0.03264413 0.037629575
000020 dc 96 98 3c c3 07 c4 bd a1 fb 7e bd da 35 4e 3e
       0.018626623 -0.09571793 -0.06225169 0.2013773
000030 74 ad ae ba 35 24 cb 3d b9 da 57 bd 26 6c b1 bd
       -0.001332684 0.09919015 -0.052698825 -0.08663206
000040 67 f3 2a bd 7d 31 56 bd e2 5c bd 3b da 53 2e 3c
       -0.041736033 -0.05229329 0.0057788948 0.010640109
000050 92 7f 9e 3c 20 f7 7e 3b dc 91 1d bc 57 27 a8 bc
       0.01934794 0.0038904622 -0.009617295 -0.020526571
000060 71 7e 58 3d 5b 51 d0 3d 3a d8 f5 bc f6 23 a9 3c
       0.05285496 0.10171767 -0.030010331 0.02064703
000070 41 eb f7 ba 3d 1c 0d 3d 11 74 f1 3c 8a ce 37 3c
       -0.0018914716 0.03445076 0.02947429 0.011218676
000080 ea cc b5 bc 44 eb 2b bd a1 ae b2 3d b1 86 de bd
       -0.022192437 -0.041972414 0.08724714 -0.10865534
000090 5a e2 5a 3c 29 13 8c bc 0d 03 89 bd c5 f9 1a be
       0.0133596305 -0.01709898 -0.06690035 -0.15134342
0000a0 e4 70 06 3e d6 26 91 3d 0f a4 ad bc 93 a1 83 bb
       0.13129002 0.070874855 -0.021196393 -0.004017064
0000b0 4e 07 98 bd ba 5a 06 bc 6b f0 81 bc 98 c5 a3 3d
       -0.07423268 -0.008200342 -0.01586171 0.079966724
0000c0 f3 14 a2 bd 77 18 8e bd a8 b9 2c 3d 77 08 2b 3d
       -0.07914152 -0.0693826 0.042169243 0.04175612
0000d0 bd 8d 90 bd c5 fe a6 bd 27 d7 54 bd 78 f8 2a 3b
       -0.070582844 -0.08154062 -0.051962998 0.002608804
0000e0 29 da 54 bd 05 16 ae ba 48 da 6d 3d 28 8d 02 be
       -0.051965866 -0.0013281709 0.058069497 -0.1274916
0000f0 f0 6f 2a bc ef 96 00 bb db e0 fd 3c a2 3a 04 3d
       -0.010402665 -0.0019621213 0.030991009 0.03228248
000100 e4 8a 74 bd 70 69 57 bd d3 03 d8 3c ab f8 02 bd
       -0.05970277 -0.052590787 0.026369011 -0.03197543
000110 60 20 07 3e a4 95 1e bd 22 08 0f 3d 30 8f 07 3e
       0.13195944 -0.038716927 0.034919865 0.13238215
000120 1b 39 89 3c 9b ed 0e be dc b9 34 be 3c 47 2d 3d
       0.016750863 -0.13957827 -0.17649025 0.042304263
000130 c0 b9 96 bb 0d 28 a9 3d 9a 2f e1 3d 95 cd a0 3d
       -0.00459978 0.08259592 0.109954074 0.07851712
000140 c3 1d a5 3d b5 0f f5 3d 60 d5 d7 bc 49 86 c2 3c
       0.08062317 0.119658865 -0.026346862 0.023745673
000150 f7 fb a1 bd 93 d9 71 bb ca ef 97 bd e5 c7 57 3b
       -0.079093866 -0.0036903366 -0.07418783 0.0032925543
000160 8f ce 98 3d c7 9e 19 3e 69 85 a4 bd ff e1 8d 3d
       0.07461273 0.15001975 -0.080332585 0.06927871
000170 ee 1a a1 3c 2a 00 ad 3d 74 87 ac 3b ef d8 a5 bc
       0.019666161 0.08447297 0.0052651707 -0.020245044
000180 3c d5 3a be 9d 24 c6 3b b1 89 21 3c 17 33 a5 bd
       -0.18245405 0.006046845 0.009859488 -0.08066385
000190 fa e4 46 bd a0 f2 2b be 5f ff 0b bd 01 a6 bf bd
       -0.048558213 -0.16791773 -0.034179088 -0.093578346
0001a0 cb 6f 50 bd d0 57 53 bd d2 18 73 bd dd f9 36 bd
       -0.050887864 -0.051597416 -0.059349842 -0.044671882
0001b0 8e 13 7f 3d ba 1e 59 3d 19 f8 97 3d 50 f9 84 3e
       0.06227451 0.05300782 0.07420368 0.2597146
0001c0 79 0a 9c 3d d9 d9 3d 3e 03 da 34 3d bb 4c 49 39
       0.07619185 0.18540134 0.044153225 0.00019197438
0001d0 42 3f a5 bb aa f6 b9 3d b8 7d a0 bb e5 38 8e bb
       -0.0050429413 0.090802506 -0.0048977993 -0.0043402785
0001e0 6b 88 8b 3d d8 14 9c 3d cb 8d 2c 3d ad db 7b bd
       0.06813129 0.07621163 0.04212741 -0.061488796
0001f0 c1 ac c4 3c 43 ca 9d 3d 59 8a 45 3d 74 c9 49 bd
       0.024008157 0.07704594 0.04822764 -0.049264386
000200 f6 f1 16 3e c5 93 10 be 2a ad 59 3d 5e 9c 2e 3e
       0.14740738 -0.1411887 0.053143658 0.17051837
000210 47 7e a4 3b fb 87 0f 3d cb 03 10 3e dd 2e 24 3d
       0.0050199362 0.03504179 0.14063947 0.040083755
000220 39 48 a5 3c 4f ca 79 3b e5 3c c3 3c 7c a8 78 3d
       0.02017604 0.003811497 0.023832748 0.060707554
000230 e4 7a 82 bc 50 8a 3a 3a a9 40 4e be c1 a1 32 be
       -0.01592774 0.0007115947 -0.20141853 -0.17444517
000240 3f 43 36 3c e3 76 e6 bd d5 3f bf bd 20 62 04 be
       0.011124431 -0.112531446 -0.09338347 -0.12928057
000250 bf 00 9a bd 14 5a 82 bd 02 4d bb bd 1e 8c a9 3c
       -0.075196736 -0.06364837 -0.091455474 0.020696696
000260 3d 59 82 3d 64 83 df 3c 7a 19 a5 3d fa 3a ea 3d
       0.06364677 0.027284332 0.080615 0.1143703
000270 5f c3 a5 3d d4 25 55 bd 13 4a 6d 3c ef 2d d1 bc
       0.08093905 -0.05203803 0.014482993 -0.025534598
000280 d0 98 94 3d 62 99 98 3d 6e 00 9b bd 0a f4 7f bd
       0.07255709 0.074511304 -0.07568441 -0.062488593
000290 75 a0 32 3d 4a 02 43 ba 49 7d 21 3e 99 39 9e 3b
       0.043610055 -0.0007439001 0.15770449 0.0048286435
0002a0 eb 60 0d bd 0f 99 c8 bb 45 76 d4 3d 65 e6 d2 3c
       -0.034516256 -0.0061217616 0.103741206 0.025744626
0002b0 8f 58 39 bd 18 fd 9d bc 26 5c 85 bb 7d 7b f7 bd
       -0.04525047 -0.019285724 -0.004069823 -0.120841004
0002c0 87 90 f4 bb c7 b0 0c be 61 ad d4 bc 40 93 6c bd
       -0.007463518 -0.1373931 -0.02596158 -0.057757616
0002d0 d2 c0 ee 3c 0d cb 4b bd bd f6 41 bd 3a 67 c9 bd
       0.029144678 -0.04975419 -0.04735445 -0.09834142
0002e0 9e c5 45 3d 39 71 c1 3d 8b d8 d3 bd dd d0 bb bd
       0.048284166 0.09445424 -0.10344037 -0.09170697
0002f0 f1 e2 5f bd 84 cc c3 3c ab 8a 8a bc 67 d6 df 3a
       -0.054659788 0.023901232 -0.016911825 0.0017077447
000300 23 ac 38 3e 74 e2 58 3d 0e 51 57 3d bd 70 e8 3d
       0.18034415 0.052950338 0.052567534 0.11349628
000310 55 ff a1 3c a8 c1 16 3c 87 a8 8e bd a0 59 bd bd
       0.019775072 0.009201445 -0.06965738 -0.0924561
000320 4c a2 b5 3c 61 0d bf 3c 04 4b c3 3d 72 6e 04 3e
       0.022172116 0.02332181 0.095357925 0.12932757
000330 dd 50 f1 3b 68 96 ed 3c 50 66 8e 3a dd e7 16 3d
       0.007364376 0.029002383 0.0010864232 0.036842216
000340 c6 03 69 bd ed 4e 44 3d d0 ed 11 3d 4c 0d 0c be
       -0.056888364 0.047926832 0.035627186 -0.13676947
000350 21 94 a4 bd 5b ef 2b 3e 2e 53 19 3e 98 c1 fb 3c
       -0.08036066 0.16790526 0.14973137 0.030731961
000360 87 3f b1 3c dc f7 2b 3c 4a 67 c6 bc f0 8a 00 3e
       0.021636738 0.010496106 -0.024219174 0.12553
000370 15 55 7f 3d cd ed a1 bb b7 7a 3c bd b4 27 4c 3c
       0.062337 -0.004941678 -0.046015467 0.012460638
000380 57 22 25 3e 1c fd 0e bc c0 4e d2 bd d2 30 d0 bd
       0.16126381 -0.008727338 -0.102689266 -0.10165562
000390 96 7d 11 3d a7 d6 0b bc 8c 69 87 bd d8 1d 20 3e
       0.03552016 -0.008535064 -0.06611928 0.15636384
0003a0 b9 f5 fc 3d ae fb 09 bd e7 61 5a bd e7 67 33 bd
       0.123515554 -0.033687286 -0.053316023 -0.04380026
0003b0 a6 66 0c 3e 70 87 22 3d 46 fb 9b bd be af 99 3d
       0.13711032 0.039679945 -0.07616286 0.07504223
0003c0 ed 44 e2 bc ca 61 03 3e 7b 9c 9d bb ce 67 8b bc
       -0.027620757 0.12830272 -0.0048099137 -0.017017271
0003d0 19 bb 05 bc 70 66 9a bc 03 8c a4 bd ca a3 b7 3c
       -0.008162283 -0.018847674 -0.080345176 0.022416968
0003e0 11 e5 17 be e7 33 39 bd 9e f8 a5 3d 72 86 dc bd
       -0.14833476 -0.045215514 0.081040606 -0.10767831
0003f0 e4 c8 63 bc 49 e7 12 bc 21 b0 ab bc 9c 7c 65 3c
       -0.0139028765 -0.0089662755 -0.020958008 0.01400676

bias f4 [32]
000000 92 93 71 3b bf 2f 78 3d c5 e5 84 3d 47 c0 1f 3c
       0.003686164 0.06059241 0.064891376 0.009750432
000010 72 24 ef 3b 05 db 3c 3d fc db da 3d 9c 93 b2 3c
       0.007298046 0.04610731 0.1068649 0.021798901
000020 68 1d cf 3c 4a 84 49 bd 9e 92 03 3e 13 14 17 3d
       0.025282577 -0.049198426 0.12848899 0.03688438
000030 75 6e 77 3b f1 49 a5 bc da d0 35 3d cc d6 3d 3d
       0.0037755047 -0.02017686 0.04438863 0.046347424
000040 27 a6 ce bc d0 52 10 bb e0 b7 d9 3c fb ce 20 bd
       -0.025225712 -0.0022022016 0.026576936 -0.039259892
000050 0d cb e7 3d 54 b0 cc 3c b0 c1 c9 3b a6 d3 8b 3d
       0.11318026 0.024986424 0.0061571226 0.06827478
000060 72 2d 95 3d ca 38 29 3c 17 10 c9 ba 7c ca 03 bd
       0.07284059 0.010328481 -0.0015339878 -0.032175526
000070 2b c9 b1 3d 3d 63 b3 3c fb b3 53 3d 1f 97 57 bc
       0.08680948 0.021897906 0.051685315 -0.013158589

weight f4 [15, 32]
000000 d8 3b 7b bb 38 0b 15 3e 60 67 cd 3d 7b 15 52 bd
       -0.003833523 0.14555061 0.10029483 -0.051290017
000010 8d 87 c7 3d ed c3 01 bd 83 84 14 be 04 13 a5 bd
       0.09742651 -0.03168099 -0.14503674 -0.080602676
000020 66 33 fb bd 77 db a2 3d 5b b4 9f be e8 c0 59 bd
       -0.12265663 0.07952016 -0.31192288 -0.053162485
000030 82 27 b4 b9 36 ae 3d 3c cf be 53 bc 59 bb 5a be
       -0.0003436171 0.01157718 -0.01292391 -0.2136053
000040 e4 cc 77 3d f4 a8 d3 bc 10 25 aa be f4 80 56 3e
       0.060498133 -0.025837399 -0.332314 0.20947629
000050 a1 f7 66 bd fb 2f 1d 3e a3 82 02 bd d7 15 83 be
       -0.0563885 0.15350334 -0.031862866 -0.256026
000060 d0 09 e9 be 57 04 18 bd fd 6e 9f 3e f8 a4 2d 3e
       -0.455153 -0.037113514 0.31139365 0.16957462
000070 bf ba 8d 3e c3 3e 4f 3d d6 d5 f0 3d 04 9d df bd
       0.27681538 0.050596964 0.11759536 -0.1091862
000080 45 ae 06 be ec 17 5a bd 88 43 73 bd 11 41 12 3e
       -0.13152416 -0.05324547 -0.059390575 0.14282633
000090 98 26 4b bd 0c 92 2f be 65 d1 87 bd 3b 08 e3 bd
       -0.049597353 -0.17145556 -0.06631736 -0.11085554
0000a0 85 62 ef bd 83 5c c1 bc 25 89 72 bd 7a 70 ad bd
       -0.11688713 -0.023603683 -0.059212822 -0.08468719
0000b0 79 f3 38 be 3a de 7a 3d 49 ff a3 bd 9e 13 0b 3d
       -0.18061627 0.061247088 -0.08007676 0.033954255
0000c0 5f e7 c1 3d d9 2c c4 bd a8 bb c3 bd a2 25 87 3c
       0.09467959 -0.095788665 -0.09557277 0.016497437
0000d0 7b bd de bc 1c 85 6c 3d ad b1 a1 bc 77 9b 12 be
       -0.02718996 0.05774413 -0.019738043 -0.14317118
0000e0 1f 91 62 bd 5d 1a 82 bd 0c ee 27 3e aa 46 92 bc
       -0.05531418 -0.06352685 0.16399401 -0.01785596
0000f0 18 07 47 3e 3b f6 03 be 86 0e a5 3c 3d 4a f0 bc
       0.194363 -0.12886898 0.020148527 -0.029332275
000100 96 a6 43 3d 24 93 62 be 21 74 a2 be 25 b1 b0 3e
       0.04776629 -0.22126442 -0.31729224 0.3451015
000110 1e 51 b6 bd 0d 0f db bd f7 14 06 be 75 8e 9f 3e
       -0.089021906 -0.1069623 -0.13093935 0.31163374
000120 7a 25 a8 be 51 73 3a 3c d5 e6 29 3e d2 ad aa bc
       -0.32841092 0.011380033 0.16591962 -0.020834837
000130 9a dc 9d be e0 68 0d 3e 73 e9 b1 3c ee 03 8a bd
       -0.30832368 0.13809538 0.021717763 -0.06739031
000140 fb 28 16 3e 84 79 31 be 53 2c 8a be 6c a1 14 bd
       0.1466407 -0.17331511 -0.26986942 -0.036286756
000150 9b 00 01 be 67 6e aa be 17 c5 ba 3e 9e cb b4 3c
       -0.12597887 -0.33287355 0.36478493 0.022069748
000160 04 ac 49 be fd ee f5 bd a0 a0 98 3e 51 96 95 3e
       -0.19694525 -0.12008474 0.29810047 0.29216245
000170 12 9c ef bd dd 48 1e be fc 59 5e be 8d 31 72 be
       -0.1169969 -0.15457483 -0.21714014 -0.23651715
000180 8b 3e 1f be 90 1c 5a 3e f0 d4 7f 3e 03 38 bf bb
       -0.15551202 0.21299958 0.24983573 -0.0058355345
000190 b9 0b 1d be 17 1c cf 3e d2 bb d9 bd bb bb 78 bd
       -0.15336503 0.40451118 -0.10631527 -0.06072591
0001a0 7f 04 0a 3e 4b 8d 73 3e 26 55 7b be 48 f1 5f bd
       0.13478278 0.23784368 -0.245442 -0.054673463
0001b0 9b f3 8a 3e fa 57 21 be 45 a3 fc bd c2 5d 06 be
       0.2713898 -0.15756217 -0.12335829 -0.13121703
0001c0 02 f2 04 3c 6b 2c 74 b7 54 46 4f be ae 82 f1 3d
       0.00811434 -1.4553875e-05 -0.20241672 0.11792503
0001d0 ac 2d 49 bd 3b 35 95 3d 1b f9 53 be 75 92 5b be
       -0.04911582 0.072855435 -0.20700495 -0.21442588
0001e0 f8 a5 ca bd aa 48 51 3c 62 d8 49 bd 4c 43 c3 be
       -0.09894937 0.012773672 -0.049278624 -0.3813728
0001f0 df 77 18 3e a1 c3 b7 3e 9a 1a 20 3e d4 4d 32 3e
       0.14889477 0.3589144 0.15635148 0.17412502
000200 95 65 01 3e 18 84 e2 bd 22 25 40 bd 28 3b ed bc
       0.12636407 -0.11060351 -0.046910413 -0.028958872
000210 83 ec e7 bd 10 52 70 ba 78 56 73 bd 6a 87 55 bc
       -0.11324408 -0.00091675017 -0.059408635 -0.0130327735
000220 11 18 ea 3c 7f 09 15 be 84 90 19 bd d3 02 43 bd
       0.028575929 -0.14554404 -0.037491336 -0.047610115
000230 e3 3d fd 3c 8e 3e f4 bd 2b d9 01 bd 8b 1d c2 3c
       0.030913299 -0.11925994 -0.03170125 0.023695728
000240 fc 8e be 3d 9b 63 ed bc 43 f1 2d 3d f3 74 1f be
       0.09304616 -0.02897816 0.042466413 -0.15571956
000250 82 2b 86 3d e4 97 c9 bd 0f 62 82 3d 70 8d 21 bd
       0.06551267 -0.09843424 0.063663594 -0.039441526
000260 2b f6 31 3d 2c e9 8d bc c8 ea c5 3d 37 a4 04 be
       0.043447655 -0.0173231 0.096639216 -0.12953268
000270 af a5 d9 bc ef a8 58 bb c7 17 f7 bd 33 6b f3 bc
       -0.026568262 -0.0033059677 -0.12065082 -0.029714203
000280 3e 7e e3 3c 10 81 f9 bd a9 59 90 be 7a c0 80 bd
       0.027770158 -0.1218282 -0.28193405 -0.06286712
000290 3b 7c e6 bd 0b 0a 17 be c7 df d4 bd ec 4d 7c 3d
       -0.11254164 -0.14749925 -0.10394245 0.06159775
0002a0 88 33 1d be 2f d7 24 be a2 18 1d 3e 0f 72 8f bd
       -0.15351689 -0.16097711 0.15341428 -0.07004177
0002b0 cb 7c e9 bd 2b b2 a3 bc 5e 4b f2 bd e8 8a 2c 3c
       -0.114007555 -0.019982418 -0.118307814 0.010531165
0002c0 e3 03 db 3d 83 c6 10 be a5 a8 9c bd 3e 10 0a 3d
       0.10694101 -0.14138226 -0.07649354 0.033706896
0002d0 8c 81 0c be a2 0b 52 be cf 9b 21 3e 2b c9 3a 3c
       -0.13721293 -0.2051225 0.15782093 0.011400501
0002e0 ce e2 7d bd a6 b8 53 be c1 c7 37 3e 42 fd ac 3c
       -0.061983876 -0.20675907 0.17947294 0.021116856
0002f0 fa fc fe bc 54 bc 06 be 56 05 3f be 97 f4 0c 3e
       -0.031126488 -0.13157779 -0.18654379 0.13765179
000300 7c 5f 2e 3e 9b fc 73 39 de d8 e0 3d a3 a8 1d be
       0.17028612 0.00023268389 0.10978864 -0.15396361
000310 a0 46 23 be 9e 2b cf bd 1c 6e f7 bd 50 ec 12 3d
       -0.1594491 -0.10115741 -0.120815486 0.035869896
000320 a1 80 f8 bd 62 f0 24 3e bb 3e cc bd d2 fc 88 bd
       -0.12133909 0.16107324 -0.099729024 -0.06688847
000330 a2 3c 7a 3e 12 a7 07 3e dd 65 2d be 11 0d 3c bd
       0.24437192 0.13247326 -0.16933389 -0.0459109
000340 82 9b 92 bd 2c 35 9b bd 13 1a 51 bd 4c cd 14 bd
       -0.07158567 -0.07578501 -0.051050257 -0.0363286
000350 89 20 a7 bd 9b 33 9d bd 2a 57 44 be 05 a5 b5 3c
       -0.081605025 -0.076758586 -0.19173875 0.022173414
000360 e7 82 9f be 09 e1 c2 ba 94 6e 8a be 75 f1 7d be
       -0.31154558 -0.0014868091 -0.2703749 -0.2479914
000370 9d e5 99 3d d2 a8 03 be f7 88 1c 3d c5 de 1a 3e
       0.075144984 -0.12857369 0.038216557 0.15124042
000380 c3 52 94 3e d6 f5 03 be 61 54 a8 bd 90 3e ae bd
       0.28969392 -0.12886748 -0.08219219 -0.085080266
000390 21 79 70 bd 14 68 ef ba 68 be a7 bc d9 34 a7 bd
       -0.058709268 -0.0018265271 -0.020476535 -0.08164377
0003a0 c3 8e 1d be bf 13 8f 3d 20 dc 12 be 5c c5 15 be
       -0.1538649 0.06986188 -0.14341784 -0.14626068
0003b0 09 ae f4 3d 29 8b f4 bd 1e c9 0f bc e7 0f e9 bc
       0.11947257 -0.11940605 -0.008775977 -0.028449966
0003c0 77 63 aa 3c 31 3f 99 bd 32 e9 f5 bd ff 42 a9 bb
       0.020799382 -0.07482756 -0.12007369 -0.0051654573
0003d0 ae 8a d4 bb d2 ea 34 be c2 e1 13 be 45 3f 93 bd
       -0.0064862585 -0.17667702 -0.14441589 -0.07189802
0003e0 8d 11 44 bb 0c 57 61 bc 87 d8 33 be 28 5e 8e bd
       -0.0029917688 -0.013753664 -0.17563067 -0.06951553
0003f0 e0 96 a0 bd fe 93 6e bd 86 1a 34 be 8f 7f 9e 3d
       -0.07841277 -0.058246605 -0.17588243 0.077391736

bias f4 [15]
000000 16 9d 03 bd 14 e5 05 3d 57 41 9f 3d 82 a1 1f bd
       -0.03213223 0.03268917 0.077761345 -0.038972385
000010 dc 81 f3 ba fd f5 84 bc a6 31 60 bc e7 ea 7d bd
       -0.001857813 -0.016230578 -0.013683712 -0.0619916
000020 07 b5 94 bb c2 bb 7c 3c 46 1d 7e 3c 86 01 fe 3c
       -0.0045381817 0.015425624 0.015509909 0.031006586
000030 81 0e f6 3c 79 7b 3c 3d 6b a6 05 3d
       0.030036213 0.04601619 0.03262941

weight f4 [1, 32]
000000 b9 95 f7 3c 21 90 7e 3d 59 dd 62 3d 55 9a d3 3a
       0.03022276 0.06214917 0.055386875 0.0016144017
000010 de 65 84 3e 7e 11 f5 3d 86 e4 a8 3d 9d 0f 22 3c
       0.25858968 0.11966227 0.082467124 0.009891418
000020 07 56 39 3e 67 74 83 bb bd ea e8 3d db 0e 6a 3e
       0.18099223 -0.004011679 0.11372898 0.2285723
000030 cb 55 25 bc f1 3d 5c 3b af 3c 0a 3d e3 3b 3b 3d
       -0.010091255 0.0033606256 0.03374928 0.04571141
000040 9c bc aa bd 1b e1 0d bc ce 6c 3d 3e 3c d0 fa 3b
       -0.08336756 -0.008659626 0.18498537 0.007654218
000050 f7 09 e6 3d 9b 01 17 bb 73 66 8c 3c ae 06 01 3e
       0.112323694 -0.0023041728 0.017138695 0.12600204
000060 66 7d 59 3d 40 1f d5 bc 60 9a 0f 3d 40 32 8c bc
       0.053098105 -0.026015878 0.035059333 -0.017113805
000070 85 57 54 3d 59 13 84 3e 83 a0 32 3d cb 59 8d bc
       0.051841278 0.2579601 0.043610107 -0.01725473
