results/generalization/30levels-policy.pt (torch, 443935 bytes, 11 tensors)

weight f4 [32, 3, 8, 8]
0	0xbe1b071b	-0.1513943
1	0x3c9d4713	0.01919893
2	0x3dbf1c63	0.09331586
3	0xbdbccfee	-0.09219347
4	0x3c4f9486	0.012669688
5	0x3b56a438	0.003275169
6	0x3e420df9	0.18950643
7	0x3d331311	0.043719355
8	0xbd909e02	-0.070613876
9	0xbe10b4b3	-0.14131431
10	0xbccbc4c4	-0.024874099
11	0xbdea607f	-0.114441864
12	0x3d30851f	0.043095704
13	0x3e4c9070	0.19976974
14	0x3cff107c	0.03113579
15	0x3da494ff	0.08036231
16	0x3d90f6b6	0.070783064
17	0x3d005a91	0.03133637
18	0x3e1a8564	0.15089947
19	0xbd23647c	-0.03989075
20	0xbe1b1648	-0.15145218
21	0xbd71ad7f	-0.05900335
22	0xbe33d411	-0.17561366
23	0xbd3ec251	-0.046572033
24	0x3e3e2824	0.1857
25	0x3e35b807	0.17745982
26	0x3e14e814	0.14541656
27	0xbc36b507	-0.011151559
28	0x3d970e57	0.07375782
29	0x3b1947e1	0.002338879
30	0xbd95cbef	-0.07314288
31	0xbd9d037f	-0.076666825
32	0xbc3e2601	-0.0116057405
33	0x3b832516	0.0040022237
34	0x3d90ff45	0.07079939
35	0x3df9ee20	0.12203622
36	0x3e2d11e8	0.16901362
37	0x3e111ba9	0.14170708
38	0x3e8132dc	0.25234115
39	0x3e62fb30	0.22166133
40	0xbd1e8f4a	-0.03871087
41	0xbdca397b	-0.09874245
42	0xbc936cfd	-0.017996306
43	0x3d6a0353	0.057132076
44	0xbcc58694	-0.024112023
45	0x3d577349	0.05260018
46	0xbdcf166c	-0.101116985
47	0x3da23993	0.07921138
48	0x3e3d4248	0.18482316
49	0x3cc2149c	0.023691468
50	0xbdc8dd62	-0.098078504
51	0x3e341182	0.17584804
52	0x3e60ef07	0.21966182
53	0xbe2fc0b6	-0.17163357
54	0xbd9d9f7b	-0.07696434
55	0x3cdec6c8	0.027194396
56	0xbdbe17c0	-0.09281874
57	0xbe6998ae	-0.22812149
58	0x3dc95b77	0.09831899
59	0x3df01ac5	0.11723856
60	0x3e89ebfa	0.26937848
61	0x3d567e94	0.052366808
62	0xbe114aa3	-0.14188628
63	0x3d8e06fc	0.06934926
64	0x3c7f23c7	0.015572495
65	0x3d7241f4	0.05914493
66	0xbd94d7be	-0.07267712
67	0x3d8c1c40	0.06841326
68	0xbe05be80	-0.13060951
69	0x3e8b40b8	0.27197814
70	0xbd6be793	-0.057593893
71	0x3d5fc216	0.054628454
72	0xbdcf073d	-0.101088025
73	0xbe043b09	-0.12913145
74	0xbd5515ac	-0.05202262
75	0x3e2a6d71	0.16643311
76	0x3ba94518	0.0051657073
77	0x3df24856	0.11830203
78	0x3dd7445a	0.10511084
79	0x3de16c17	0.110069446
80	0x3e37a28e	0.17933103
81	0x3db7a637	0.0896725
82	0xbc17281e	-0.009225873
83	0x3d800739	0.062513776
84	0xbdc47814	-0.095932156
85	0xbd868d4d	-0.0656992
86	0xbe683d3d	-0.2267961
87	0xbde54a83	-0.111958526
88	0x3e5af991	0.21384265
89	0x3bb407d3	0.005494097
90	0x3e8217a4	0.2540866
91	0xbc7f8d1c	-0.015597608
92	0xbb2eec38	-0.002669109
93	0xbc707add	-0.01467773
94	0xbd1de79d	-0.03855096
95	0xbe3b4046	-0.18286237
96	0xbd03fbfa	-0.032222725
97	0xbd7e6a75	-0.062113244
98	0xbd950273	-0.07275858
99	0xbdd66f10	-0.10470402
100	0xbd019ae1	-0.031641845
101	0x3dc0f4bd	0.0942168
102	0x3d4eb774	0.050467923
103	0x3cc0a3a0	0.023515522
104	0xbd8f111f	-0.069856875
105	0xbd87ba61	-0.06627346
106	0xbe7ab240	-0.2448206
107	0x3e0b28f1	0.13589837
108	0x3cda5ea5	0.026656458
109	0xbda2a3c4	-0.07941392
110	0xbe7fd59b	-0.24983828
111	0x3d9e08b8	0.07716507
112	0x3dc0ccdb	0.09414073
113	0xbc79dbe0	-0.015250176
114	0xbca93923	-0.020657128
115	0x3df47076	0.11935513
116	0x3ecab2bd	0.3958949
117	0xbcfc8725	-0.03082616
118	0x3dde36d9	0.10850305
119	0xbdf79eba	-0.120908216
120	0x3d7cd874	0.061729863
121	0xbd9a2280	-0.075261116
122	0xbdcd4bb1	-0.100242026
123	0x3cc548d5	0.02408258
124	0xbd520a8b	-0.051279586
125	0xbde8ae03	-0.11361315
126	0x3e7da79f	0.24770974
127	0x3df3ceb7	0.11904662
128	0x3de9eac5	0.11421732
129	0x3d8cc333	0.06873169
130	0xbe673418	-0.22578466
131	0xbe41aebe	-0.18914315
132	0xbdec9afd	-0.11552999
133	0x3d752919	0.059853647
134	0xbdd50d55	-0.104029335
135	0xbe1f4608	-0.15554059
136	0x3e60e339	0.21961679
137	0x3e2a14f3	0.16609554
138	0x3e015a0e	0.1263201
139	0x3de23ff5	0.11047355
140	0x3d2381f8	0.03991887
141	0xbe3a5bb2	-0.18199041
142	0xbe38fa52	-0.1806424
143	0x3d34d2c4	0.044146314
144	0x3d66cbfc	0.05634688
145	0x3e3ad2b9	0.18244447
146	0xbe9bf1bf	-0.30457875
147	0x3ca944be	0.020662662
148	0x3e151d48	0.14561951
149	0xbdaf8f15	-0.085722126
150	0xbe4a4a81	-0.19754983
151	0xbe7d4a53	-0.24735384
152	0xbd3692a5	-0.044573445
153	0xbe539bb1	-0.2066486
154	0xbdd93daf	-0.10607468
155	0x3d0dd3ed	0.034625936
156	0x3d3fed91	0.04685742
157	0x3d3e2166	0.04641857
158	0xbe0a4e8f	-0.1350653
159	0xbd188ca5	-0.037243504
160	0xbe0c7b33	-0.13718872
161	0xbdf64ec8	-0.12026745
162	0xbdd60dc0	-0.10451841
163	0xbd2df133	-0.042466354
164	0xbe535b69	-0.20640339
165	0xbdda2a82	-0.10652639
166	0x3da05629	0.07828934
167	0x3e7c8f0d	0.24663945
168	0xbe21f44e	-0.15815851
169	0xbce3795d	-0.027767831
170	0xbe85c6a5	-0.26128116
171	0xbd42bca7	-0.047543194
172	0xbe70cf92	-0.23516682
173	0xbdefae11	-0.117031224
174	0xbdc760dd	-0.09735272
175	0x3b884199	0.0041582105
176	0xbe40b6a0	-0.18819666
177	0x3dbeebdb	0.093223296
178	0xbe22b16a	-0.1588799
179	0xbe7f059e	-0.24904487
180	0xbe7231dc	-0.23651832
181	0xbdeea3ab	-0.11652311
182	0xbc6153e6	-0.013752913
183	0xbdd69812	-0.10478224
184	0xbc84bd5c	-0.016203575
185	0xbe1a5993	-0.15073232
186	0xbc3f4839	-0.011674934
187	0xbe1a0469	-0.15040745
188	0xbe2849bb	-0.16434376
189	0xbe7b714c	-0.24554938
190	0x3e1c940f	0.15290855
191	0xbe0acb2d	-0.13554068
192	0x3e4dfce8	0.20116007
193	0x3ccdf971	0.025143357
194	0xbc3fbd5d	-0.011702863
195	0x3c4c9fb1	0.012489245
196	0x3bb0e44a	0.005398308
197	0xbe93c594	-0.28861678
198	0xbe069a5e	-0.13144824
199	0xbe2f734a	-0.17133823
200	0xbe8e2d4a	-0.27768928
201	0xbd881b4e	-0.06645833
202	0xbe0475d6	-0.12935576
203	0xbd8d8a38	-0.06911129
204	0xbe53c165	-0.20679243
205	0xbd91b2e1	-0.071141966
206	0xbda892e0	-0.08231139
207	0x3d5a3a93	0.053278517
208	0xbda2a2cf	-0.079412095
209	0x3c63490e	0.013872398
210	0xbdf453d7	-0.11930054
211	0x3e0af328	0.13569319
212	0xbe1bcebf	-0.15215586
213	0xbc29b87c	-0.010358926
214	0x3deec799	0.11659164
215	0x3b95d5f4	0.0045726243
216	0xbd2c3558	-0.04204306
217	0xbe39c1d3	-0.18140344
218	0xbe4ed5f3	-0.20198803
219	0xbda81a96	-0.08208196
220	0x3e5e4d8e	0.21709272
221	0xbd20a503	-0.039219867
222	0xbdc6770f	-0.096906774
223	0xbe438c56	-0.19096503
224	0x3c82c853	0.015964663
225	0xbd0c3cfd	-0.03423785
226	0x3e5665d5	0.20937283
227	0xbe11b1e0	-0.1422801
228	0x3d5b2ab5	0.053507525
229	0x3e44e249	0.19226946
230	0x3c9c1462	0.019052688
231	0x3cef8dbe	0.029242393
232	0x3d884339	0.06653447
233	0xbd0cc531	-0.034367744
234	0x3c9e009b	0.019287398
235	0xbd35b557	-0.044362392
236	0xbc9d9a4f	-0.01923862
237	0x3d75219a	0.059846498
238	0x3ca73d6d	0.020415032
239	0xbdd39951	-0.10331977
240	0xbd8074f8	-0.0627231
241	0x3db82e03	0.08993151
242	0xbdbe5a27	-0.09294539
243	0x3d83efdf	0.06442236
244	0xbe0d2dc7	-0.13786994
245	0xbe02ee5f	-0.12786244
246	0xbd578c2f	-0.052623924
247	0xbd29560d	-0.04134183
248	0x3d9dc564	0.07703665
249	0xbe2a548a	-0.16633812
250	0xbed02925	-0.4065639
251	0xbe924e74	-0.2857548
252	0xbf040f7d	-0.51586133
253	0xbe93d84c	-0.2887596
254	0xbddb72d2	-0.107152596
255	0xbef6fbf2	-0.48239094

bias f4 [32]
0	0xbba52e28	-0.0050409026
1	0x3cadc6b6	0.021212917
2	0xbb8649b6	-0.0040981425
3	0xbb6987aa	-0.003563384
4	0xbbec1d08	-0.007205609
5	0xbda51298	-0.08060187
6	0xbb472f4c	-0.0030393181
7	0xbbedcdf9	-0.00725722
8	0x3a959136	0.0011411074
9	0x392d81e4	0.00016546954
10	0x3b5d3ffd	0.0033760064
11	0xbc1a7a0c	-0.009428512
12	0x3b576ae3	0.0032870106
13	0xbbd63452	-0.006536999
14	0xbb46bc23	-0.003032454
15	0xbc38aff2	-0.011272417
16	0xbb193c68	-0.0023381952
17	0x3b6d290a	0.0036187791
18	0xb967493e	-0.00022057162
19	0x3d15339b	0.036426168
20	0xbb9c1ef0	-0.00476443
21	0xbc04f40f	-0.008114829
22	0xbb039a98	-0.0020081159
23	0x3cfc4c0e	0.030797984
24	0xbb56a22e	-0.0032750475
25	0xbb986704	-0.0046509523
26	0xbc02cbbd	-0.007983145
27	0xbb03c237	-0.0020104775
28	0xbbbd11d1	-0.005769946
29	0xbbea786a	-0.0071554678
30	0x3b6f6215	0.0036526967
31	0xbbdbefc5	-0.0067119324

weight f4 [64, 32, 4, 4]
0	0x3e1567ff	0.14590453
1	0x3d44714a	0.047959603
2	0x3e074eb1	0.13213612
3	0x3cbf4e33	0.023352718
4	0xbd7bfc68	-0.06152001
5	0x3cbccb41	0.023046138
6	0x3d19aa67	0.037516024
7	0x3c90628a	0.017625112
8	0xbc1a608b	-0.009422432
9	0x3e077f51	0.13232161
10	0xb8b7a523	-8.756879e-05
11	0x3d1e8b7c	0.03870724
12	0xbd9e2f85	-0.077239074
13	0xbd6a5431	-0.057209197
14	0xbb43fe43	-0.002990619
15	0xbd1509b0	-0.03638619
16	0x3ddd0c7a	0.10793395
17	0x3bfe5e84	0.007762732
18	0x3e08ab3c	0.1334657
19	0xbcbe3778	-0.023219809
20	0x3db073d0	0.086158395
21	0x3e396c88	0.18107808
22	0x3e00d1f4	0.12580091
23	0xbc9582af	-0.018250791
24	0xbd917fc8	-0.071044505
25	0x3c74537e	0.014912484
26	0xbcf8f917	-0.030392213
27	0xbd4815df	-0.048848983
28	0xbd0a9631	-0.03383464
29	0x3c8a598e	0.016888406
30	0x3d9fa7fa	0.07795711
31	0xbc6c1e77	-0.01441156
32	0x3e3a25d1	0.18178488
33	0x3e046ae9	0.12931408
34	0x3dcfdbdc	0.10149357
35	0x3be6dcc3	0.00704536
36	0x3cad9f05	0.02119399
37	0x3d8d870d	0.069105245
38	0x3dcaa0bb	0.09893938
39	0x3e31f640	0.17379093
40	0xbe060c95	-0.13090737
41	0xbde9e582	-0.11420728
42	0x3d9ff766	0.078108594
43	0xbc2dfa51	-0.010618762
44	0xbe03f11c	-0.12884945
45	0xbe27c3bb	-0.16383259
46	0x3d62c44f	0.055362996
47	0xbe57c6f9	-0.21071996
48	0x3cc8a11b	0.024490884
49	0x3d014305	0.031558055
50	0x3daadac0	0.083425045
51	0x3cca499a	0.0246933
52	0x3da601d3	0.08105817
53	0xbe007385	-0.12544067
54	0xbd2607db	-0.040534835
55	0x3d85ae6d	0.0652741
56	0xbe3a2f5c	-0.18182129
57	0x3d163d1f	0.036679383
58	0x3e3f5af7	0.18687044
59	0x3d242b2c	0.040080234
60	0xbde2f964	-0.11082724
61	0xbc4be794	-0.012445349
62	0x3c30bb00	0.010786772
63	0xbd605882	-0.054771908
64	0xbca4ae4f	-0.020102648
65	0x3cdc4cb6	0.026892047
66	0x3c8274de	0.015924867
67	0xbcd7c14a	-0.026337285
68	0xbd5ff1ce	-0.054673962
69	0xbe0050fa	-0.1253089
70	0x3cfbf39e	0.030755814
71	0xbc7a1439	-0.0152636105
72	0xbe4ca3a6	-0.19984302
73	0xbe604ff2	-0.21905497
74	0x3dad8c10	0.084739804
75	0xbcbae7f5	-0.022815684
76	0xbea7872b	-0.32720312
77	0x3b8e2f20	0.004339114
78	0x3dda853a	0.10669942
79	0x3cb84f90	0.022498876
80	0xbc9ffbea	-0.019529302
81	0x3d062091	0.0327459
82	0x3d167b82	0.03673888
83	0xbdf2be9b	-0.11852761
84	0xbd88b5bf	-0.0667529
85	0xbc935f85	-0.017989883
86	0xbcae4627	-0.021273686
87	0xbd99d780	-0.075118065
88	0x3cf85237	0.03031264
89	0xbe896259	-0.26832846
90	0x3c6024d0	0.013680652
91	0xbd7a747e	-0.06114625
92	0xbe784282	-0.2424412
93	0xbdb6929d	-0.08914683
94	0xbe4f0949	-0.20218386
95	0xbe8b41fc	-0.2719878
96	0x3dd4db0a	0.10393341
97	0x3e0a981c	0.13534588
98	0x3d81048a	0.06299694
99	0x3e09621f	0.13416336
100	0x3df3b216	0.118992016
101	0x3db8cfb1	0.09023989
102	0xbd49c195	-0.04925688
103	0x3d5dfa22	0.054193623
104	0xbe56d763	-0.20980601
105	0xbdc0d4c6	-0.09415583
106	0xbe0fcb0e	-0.14042303
107	0x3db032c8	0.08603436
108	0xbe15fd6b	-0.14647453
109	0xbd580f5b	-0.05274902
110	0xbd8b2b5c	-0.067953795
111	0xbe55f643	-0.20894723
112	0x3de5041e	0.11182426
113	0xbdbffdd2	-0.09374584
114	0x3cdee44c	0.02720847
115	0x3d7adab3	0.061243724
116	0xbc975e3a	-0.018477548
117	0x3d08c435	0.033390243
118	0x3e13312e	0.1437423
119	0x3d694b13	0.056956362
120	0xbd994a73	-0.07484903
121	0x3dac4958	0.08412427
122	0x3d980cbe	0.074243054
123	0xbd00dcb0	-0.031460464
124	0xbe22fcb7	-0.15916716
125	0xbb6973be	-0.0035621966
126	0xbe5057bf	-0.20345972
127	0xbda4391c	-0.08018705
128	0x3d990c58	0.074730575
129	0x3d0d725f	0.0345329
130	0x3db90c78	0.09035581
131	0xbb37dd0c	-0.0028055338
132	0x3d155a13	0.036462855
133	0x3d462437	0.04837438
134	0xbddf4c2b	-0.109032
135	0x3d0a6adc	0.033793315
136	0xbe8d9945	-0.27655998
137	0xbe655074	-0.22393972
138	0xbe3c4619	-0.18386115
139	0xbe343354	-0.17597705
140	0xbeb28715	-0.34868684
141	0xbd87dc32	-0.06633796
142	0x3c094c69	0.008380034
143	0xbe654731	-0.22390439
144	0x3d989b66	0.07451515
145	0x3c978f4a	0.018500943
146	0x3d31f7c9	0.043449197
147	0xbd972440	-0.07379961
148	0x3ac9212c	0.0015344969
149	0xbe2b19e5	-0.16709097
150	0xbcd1732e	-0.025567617
151	0xbd12700e	-0.035751395
152	0x3d285833	0.04109974
153	0x3e0b2b83	0.13590817
154	0x3c0a7ee1	0.008453102
155	0x3e0dc5c5	0.13844974
156	0xbec19c0f	-0.37814376
157	0xbe341e00	-0.17589569
158	0xbd6ac3e8	-0.057315737
159	0xbdba6244	-0.09100774
160	0xbc805d81	-0.015669586
161	0x3b557029	0.0032568073
162	0xbd81795a	-0.06321974
163	0x3dfa76b5	0.12229673
164	0x3d0e7c68	0.03478661
165	0x3d8c221f	0.068424456
166	0x3e06bc3c	0.13157743
167	0xbc029d53	-0.007972079
168	0xbe0788db	-0.132358
169	0xbe0c2dfe	-0.1368942
170	0x3c98ba46	0.01864351
171	0x3e1b2581	0.15151025
172	0xbdafac5c	-0.08577797
173	0x3e1d0bf8	0.15336597
174	0x3d84e84a	0.06489618
175	0x3d5a519b	0.05330048
176	0x3dbc95a6	0.09208231
177	0x3d55b342	0.052172907
178	0x3cf8c2eb	0.030366382
179	0xbd32fe32	-0.04369945
180	0x3ceef886	0.02917124
181	0xbd1e2992	-0.038613863
182	0xbda15c7a	-0.07878967
183	0x3de952e5	0.11392764
184	0x3e02bb20	0.12766695
185	0x3e46f498	0.19429243
186	0x3c9a459c	0.01883202
187	0x3d2944de	0.041325442
188	0xbe07dd3e	-0.13267991
189	0xbe264d2d	-0.16240378
190	0xbe40cf5e	-0.18829104
191	0x3ce6fc27	0.028196407
192	0xbc453014	-0.0120353885
193	0x3c9cb4c4	0.019129165
194	0xbd3ea357	-0.04654249
195	0x3bf05535	0.007334376
196	0x3d5c6425	0.053806443
197	0x3d81dbad	0.06340728
198	0xbd3966e1	-0.04526413
199	0x3e06b4f6	0.13154969
200	0xbe736f48	-0.23772919
201	0xbdbe054b	-0.09278353
202	0x3b75506e	0.0037431973
203	0xbd870c85	-0.06594185
204	0xbe4fbec0	-0.20287609
205	0xbd81bb5d	-0.06334565
206	0xbd99039c	-0.074713916
207	0xbb8195dd	-0.0039546327
208	0x3e084182	0.13306239
209	0x3e063e3f	0.13109683
210	0x3d9a703e	0.0754094
211	0x3d191af4	0.03737922
212	0x3d9c4260	0.076298475
213	0x3d426433	0.04745884
214	0x3e4f9064	0.20269924
215	0x3e4e697f	0.20157431
216	0xbdef9fff	-0.11700439
217	0xbde5237a	-0.11188407
218	0xbcca0fad	-0.024665678
219	0xbd5cb42b	-0.05388276
220	0xbd0fa562	-0.03506983
221	0xbd845118	-0.0646078
222	0xbe7be984	-0.24600798
223	0x3b73e609	0.003721597
224	0x3de07cee	0.109613284
225	0x3d1b63fc	0.03793715
226	0x3dd78298	0.10522956
227	0x3e31f66a	0.17379156
228	0x3d4ed59d	0.050496686
229	0x3d2216d4	0.03957255
230	0xbda2e457	-0.079537086
231	0x3aea67f3	0.0017883762
232	0xbdb3c63b	-0.08778044
233	0x3d985304	0.07437709
234	0x3da4bc68	0.08043748
235	0xbddc6f02	-0.107633606
236	0xbe28ee63	-0.16497187
237	0xbd0cf5d7	-0.03441414
238	0xbdd837b1	-0.10557497
239	0xbe2ce0ea	-0.16882673
240	0x3bf0dc52	0.007350483
241	0x3d171f70	0.036895216
242	0xbd8cfae4	-0.06883791
243	0x3d711533	0.058858108
244	0x3d57156b	0.05251066
245	0xbb312606	-0.002703072
246	0x3c90a644	0.017657407
247	0x3d3e1093	0.046402525
248	0xbd0eacf3	-0.034832906
249	0x3b37f2e4	0.0028068358
250	0xbd07438c	-0.033023402
251	0x3d33e228	0.04391685
252	0xbde2919d	-0.1106293
253	0xbd1911ba	-0.03737042
254	0xbe08073b	-0.13284008
255	0xbdc00075	-0.09375087

bias f4 [64]
0	0x3c3374c2	0.01095313
1	0x38f7d7e2	0.00011818089
2	0xbcf204a6	-0.029543232
3	0x3cafe1ff	0.021470068
4	0x3c3d34e1	0.011548252
5	0xbb6831e2	-0.0035430123
6	0xbdb97f70	-0.0905751
7	0xbcd8fde5	-0.026488254
8	0xbc2a3952	-0.010389643
9	0xbc6ccb6c	-0.014452796
10	0x3d008ceb	0.03138439
11	0xbbeb94a8	-0.007189352
12	0x3d91c07d	0.07116792
13	0x3b7bf898	0.0038447734
14	0xbdd77097	-0.10519522
15	0xbcb56628	-0.022143438
16	0xbdda30da	-0.10653849
17	0x398f33e8	0.0002731376
18	0x3d897b2f	0.067129485
19	0xbc3bb9c9	-0.011457869
20	0xbce6b71a	-0.028163482
21	0xbc2141ca	-0.0098423455
22	0x3ce2de1c	0.0276938
23	0xbd2ce35c	-0.042209014
24	0xbcc7c2fb	-0.024384966
25	0x3bd7b1c0	0.0065824687
26	0x3d861e6f	0.065487735
27	0x3da5236d	0.080633976
28	0x3dcff74e	0.101545915
29	0xbd298d3f	-0.04139447
30	0xbcc85e85	-0.024459133
31	0x3d693d1d	0.056943048
32	0xbde0eeb5	-0.1098303
33	0xbd05c8a8	-0.032662064
34	0xbbaa1e26	-0.0051915823
35	0x3d07b9f9	0.03313634
36	0xbe0b7bfc	-0.13621515
37	0xbcce3d0d	-0.025175596
38	0xbd23edf0	-0.040021837
39	0x3dae5c08	0.08513647
40	0x3d8d28a1	0.06892515
41	0xbb41b22c	-0.0029555662
42	0xbbc0ee20	-0.0058877617
43	0xbd00ff9e	-0.031493776
44	0xbb346f75	-0.0027532254
45	0x3c88b788	0.016689077
46	0xbd0e0704	-0.03467466
47	0x3bbd471a	0.005776298
48	0x3b8d17d1	0.0043058177
49	0x3bdd05db	0.006745083
50	0x39fe6ca5	0.00048527602
51	0x3d7768d5	0.06040271
52	0xbd1551f3	-0.036455106
53	0x3cf83b63	0.030301755
54	0x3b819e22	0.0039556185
55	0x3d5e9d37	0.05434915
56	0xbb6a7d4d	-0.0035780251
57	0x3d40cab7	0.047068324
58	0x3cb20a7c	0.021733515
59	0xbc621c66	-0.013800716
60	0xbbd5b2b4	-0.006521547
61	0x3bc6a19a	0.006061745
62	0xbd0e3527	-0.03471866
63	0x3c6187c5	0.01376528

weight f4 [64, 64, 3, 3]
0	0xbdd762a5	-0.10516862
1	0x3d6b0d15	0.057385523
2	0x3ddd58e7	0.108079724
3	0x3df2da93	0.11858096
4	0x3df98547	0.12183624
5	0xbdcd6c16	-0.100303814
6	0xbdaf6600	-0.08564377
7	0x3dd7045b	0.104988776
8	0x3d158f6c	0.03651373
9	0xbc45c341	-0.012070478
10	0xbdc24504	-0.0948582
11	0x3d89325f	0.06699061
12	0xbc950a33	-0.01819334
13	0x3d86af5d	0.06576417
14	0xbd445073	-0.047928285
15	0x3c152fbe	0.009105621
16	0x3d933ac0	0.0718894
17	0x35bc42aa	1.4026493e-06
18	0x3e008b55	0.12553151
19	0x3c047c4b	0.008086274
20	0xbdfdb8fe	-0.123888
21	0xbcb98e8c	-0.02265098
22	0xbc9df837	-0.019283397
23	0x3dfd07e1	0.123550184
24	0x3e584edf	0.21123837
25	0x3c1c61ab	0.00954477
26	0x3d513ea1	0.05108512
27	0x3e04e40f	0.12977622
28	0x3d522e67	0.051313784
29	0x3d647eb1	0.055784885
30	0xbe016dc5	-0.1263953
31	0xbdd21171	-0.10257233
32	0xbd709558	-0.058736175
33	0x3d24456f	0.04010528
34	0x3d9b0585	0.07569412
35	0xbde85bee	-0.11345659
36	0x3deaef6b	0.114714466
37	0x3dee63e7	0.116401486
38	0x3dc2c322	0.09509875
39	0x3c571c3c	0.01312929
40	0x3e36692f	0.17813562
41	0xbdc6663a	-0.09687467
42	0xbd151d88	-0.036405116
43	0xbdab1833	-0.08354225
44	0xbda5278c	-0.080641836
45	0xbce3f573	-0.027827
46	0x3dd05dbe	0.1017413
47	0xbd92ed49	-0.07174165
48	0x3d7e385f	0.06206548
49	0xbd504d9c	-0.050855264
50	0xba315f1c	-0.00067661866
51	0xbd8ba8fb	-0.0681934
52	0xbd2a27d6	-0.041541897
53	0xbe6ba70c	-0.23012942
54	0x3d59e4cc	0.053196713
55	0xbd0bd2c1	-0.034136537
56	0xbe418d94	-0.18901664
57	0x3d5c2305	0.053744335
58	0xbc793c00	-0.015212059
59	0x3d802d63	0.06258657
60	0x3d8a34d5	0.06748358
61	0x3d893bbd	0.06700847
62	0x3d178d49	0.036999974
63	0x3c7302dc	0.014832225
64	0x3d868209	0.06567771
65	0xbda30bee	-0.0796126
66	0x3d132f9c	0.035934076
67	0xbde925a8	-0.113841355
68	0xbcb3830b	-0.021913072
69	0x3bc81174	0.006105596
70	0x3dbe4814	0.092910916
71	0xbd4a5b78	-0.049403638
72	0xbe03e835	-0.12881549
73	0x3c55c56e	0.013047559
74	0x3d31a6c2	0.043371923
75	0xbda29412	-0.079383984
76	0xbd24a19f	-0.040193196
77	0xbdaeed7b	-0.085413896
78	0xbd02fad0	-0.031977475
79	0x3ced7078	0.028984293
80	0xbd60ac14	-0.054851606
81	0x3bf2d64c	0.0074108
82	0x3dafec07	0.085899405
83	0x3dab7d5a	0.08373518
84	0xbd87d357	-0.06632107
85	0xbd165401	-0.036701206
86	0xbda7d36e	-0.08194624
87	0xbe02370c	-0.12716311
88	0xbde75406	-0.11295323
89	0xbe20c6c1	-0.15700819
90	0x3dd0e44b	0.101997934
91	0xbcff5bf5	-0.031171778
92	0xbdb4d4e2	-0.08829667
93	0x3c46f6d6	0.012143811
94	0xbddfb49d	-0.10923121
95	0x3e011f9e	0.12609717
96	0xbd768d01	-0.060193066
97	0xbe16aefb	-0.14715187
98	0xbe30bb3d	-0.17258926
99	0xbca578ed	-0.020199263
100	0xbd19b15f	-0.03752267
101	0x3cbdff22	0.023192946
102	0x3d065c13	0.032802653
103	0xbccf8eb2	-0.025336597
104	0xbd0ab884	-0.033867374
105	0xbd710e13	-0.058851313
106	0xbda37308	-0.07980925
107	0xbd8e1724	-0.069380075
108	0x3e3226ad	0.17397566
109	0xbdbefbd3	-0.093253754
110	0x3d24abb5	0.040202815
111	0x3de5df59	0.11224241
112	0xbca9f536	-0.020746808
113	0x3d047e08	0.032346755
114	0x3dac4c1d	0.08412955
115	0x3ce670bc	0.028129928
116	0x3cfa136d	0.030526841
117	0xbda82332	-0.08209838
118	0xbc1ebf4a	-0.009689162
119	0xbd486ebf	-0.04893374
120	0x3cd453fa	0.02591895
121	0xbc9d73a8	-0.019220188
122	0xbdfb4a73	-0.122700594
123	0xbde5d1ba	-0.11221643
124	0x3dfbdbef	0.122978084
125	0x3dc75e43	0.09734776
126	0xbd9a15cf	-0.07523691
127	0xbe3ae568	-0.18251574
128	0xbe243b5d	-0.1603827
129	0xbc353968	-0.01106105
130	0xbd947913	-0.072496556
131	0x3e0136e9	0.12618603
132	0x3cfadcea	0.030622918
133	0x3c3adeb8	0.011405639
134	0x3ddd8025	0.10815457
135	0xbdc9bb97	-0.09850233
136	0xbcf3eea7	-0.029776884
137	0xbc8dcd23	-0.01730973
138	0xbd4bc631	-0.049749557
139	0x3d80b45b	0.062844
140	0x3e3181ce	0.17334673
141	0xbd2fe6f1	-0.042944852
142	0xbd9b95c0	-0.07596922
143	0xbca28bef	-0.019842116
144	0x3cb9a966	0.022663783
145	0x3d13dc59	0.03609881
146	0xbdb395e0	-0.08768821
147	0xbe191d4b	-0.1495258
148	0x3dbe1ad4	0.09282461
149	0xbdabfe81	-0.08398152
150	0x3dcc8293	0.099858426
151	0x3d2e6a16	0.04258164
152	0xbd639c31	-0.055568878
153	0xbc49407b	-0.01228344
154	0xbcb14667	-0.021640016
155	0xbd8ad712	-0.06779303
156	0x3e0b9494	0.13630897
157	0x3d2ec6b9	0.042669985
158	0xbe19c3d6	-0.15016112
159	0x3e110cfd	0.14165111
160	0x3d398445	0.045292158
161	0xbd71b872	-0.05901379
162	0xbca8fadd	-0.020627433
163	0xbd33dfc1	-0.04391456
164	0xbbbc3c9a	-0.005744529
165	0xbe50c8dd	-0.20389123
166	0xbdc53580	-0.09629345
167	0xbe104ced	-0.14091845
168	0x3d634c6e	0.05549281
169	0x3c93d715	0.018046895
170	0x3c653d18	0.013991617
171	0xbdb31dee	-0.08745943
172	0xbe076be0	-0.13224745
173	0x3d6cd450	0.057819664
174	0x3d50236c	0.05081503
175	0x3c8bbac9	0.01705684
176	0xbe068684	-0.13137251
177	0x3cb9e957	0.022694273
178	0xbcf39382	-0.029733423
179	0x3dc78312	0.097417966
180	0xbd9c6525	-0.07636479
181	0x3d9c7a37	0.07640498
182	0x3e4b520c	0.19855517
183	0xbd4ee431	-0.05051059
184	0x3c227fc4	0.009918157
185	0xbd4a656b	-0.049413126
186	0xbda1b590	-0.078959584
187	0xbd9557e2	-0.07292153
188	0xbda3bfa0	-0.07995534
189	0x3d820c38	0.06349987
190	0x3d803dc5	0.062617816
191	0x3e424a5e	0.18973681
192	0xbd40513e	-0.04695248
193	0xbe1aca9e	-0.15116355
194	0x3dfd08ff	0.123552315
195	0x3de79db0	0.113093734
196	0xbe4ff097	-0.20306621
197	0x3ad4dab6	0.0016239497
198	0x3c02e429	0.007988968
199	0x3d264dda	0.04060159
200	0xbd0686f0	-0.03284353
201	0xbdb462fd	-0.08807943
202	0x3d5d4521	0.054021005
203	0x3c19e0ee	0.009392006
204	0x3cd4dca5	0.025984118
205	0x3e313aea	0.1730763
206	0x3dd5962a	0.10429032
207	0xbaca36da	-0.0015427724
208	0xbd2f2b77	-0.04276606
209	0x3c3916a1	0.011296899
210	0xbd9720b3	-0.07379284
211	0xbad99846	-0.0016601167
212	0x3e52ac05	0.20573433
213	0xbb1e2b6b	-0.0024134766
214	0xbd9d7de5	-0.07690028
215	0xbd1e100c	-0.038589522
216	0x3dc99ae5	0.09843997
217	0xbe09432b	-0.13404529
218	0xbdd9e1a3	-0.1063874
219	0xbb1ced06	-0.0023944988
220	0xbc6781e0	-0.014130086
221	0x3dc9bdf4	0.09850684
222	0xbe5fa51a	-0.21840325
223	0xbc9fee2d	-0.01952275
224	0x3d26fa1e	0.040765874
225	0x3de43ffc	0.111450166
226	0xbca04446	-0.019563805
227	0xbde50515	-0.1118261
228	0xbd145453	-0.03621323
229	0x3d3f7e09	0.046751056
230	0xbd59200c	-0.053009078
231	0x3b86f132	0.004118108
232	0xbd6a486a	-0.057197966
233	0xbe4135fb	-0.18868248
234	0xbded9afc	-0.116018265
235	0xbe32233f	-0.17396258
236	0x3c7abccc	0.015303802
237	0x3d34d538	0.044148654
238	0xbd874744	-0.0660539
239	0xbcb011cc	-0.021492861
240	0x3d7b4d6b	0.06135313
241	0x3dccca06	0.099994704
242	0x3d1a6365	0.037692446
243	0x3dd273c6	0.10275988
244	0x3e145317	0.14484821
245	0x3d87a4cf	0.066232316
246	0xbe1b3a3b	-0.15158932
247	0x3dc60100	0.096681595
248	0x3d8dd940	0.06926203
249	0x3d8eefe1	0.06979347
250	0xbdc78b23	-0.09743335
251	0xbd9cc473	-0.07654657
252	0xbe35dc4f	-0.17759822
253	0x3d9ba95c	0.07600662
254	0xbdeb574b	-0.11491259
255	0xbd514cde	-0.051098697

bias f4 [64]
0	0x3d0d356b	0.03447477
1	0x3c8a42e3	0.016877597
2	0x3bd501fe	0.0065004816
3	0x3d7d8fed	0.061904836
4	0x3c96431d	0.018342549
5	0x3c426a1b	0.011866118
6	0x3d5250c3	0.05134655
7	0xbd6e21a3	-0.058137547
8	0x3c967d6f	0.018370358
9	0xbd8318dc	-0.06401226
10	0x3d8c0945	0.068377055
11	0x3bc00cbc	0.005860893
12	0x3d9bab2c	0.07601008
13	0x3cd59962	0.026074115
14	0x3d420c83	0.047375213
15	0x3dc718f7	0.097215585
16	0xbcbb912b	-0.02289637
17	0x3d8b3ae4	0.06798342
18	0x3d16266c	0.036657736
19	0xbcf59283	-0.029977089
20	0x3c5520ef	0.01300834
21	0x3da6ca80	0.081440926
22	0x3d46f570	0.04857391
23	0x3d9a0c4e	0.07521878
24	0xbd71a12b	-0.058991592
25	0xbd6e1fc6	-0.05813577
26	0xbe0659a0	-0.13120127
27	0x3d887918	0.06663722
28	0xbcc59a86	-0.024121534
29	0x3d923f0f	0.07140934
30	0x3dbbca33	0.09169426
31	0x3ce0cac9	0.027440445
32	0xbb8b1847	-0.0042448374
33	0x3db3d387	0.0878058
34	0x3dc54b1f	0.09633469
35	0x3d0435b4	0.032277778
36	0x3dddc6ce	0.108289346
37	0x3c6effc9	0.014587351
38	0x3d8fc2d0	0.070195794
39	0x3d404cf2	0.04694838
40	0xbc77db24	-0.015127931
41	0xbca3aa02	-0.019978527
42	0x3c5b4c25	0.0133848535
43	0x3d19122e	0.037370853
44	0xbcd3814b	-0.025818488
45	0xbc700ab6	-0.014650991
46	0x3d36106b	0.04444925
47	0x3d02b107	0.031907108
48	0x3d51da5d	0.051233638
49	0x3cf1733e	0.029473897
50	0x3d525d89	0.051358733
51	0x3d1dfeb0	0.038572967
52	0x38c0caf4	9.1930764e-05
53	0x3d9d32dd	0.07675717
54	0x3d24a51a	0.040196516
55	0xbc8e16d7	-0.017344875
56	0xbb30afb2	-0.0026960191
57	0x3d6fad9f	0.058515187
58	0xbca4b7b6	-0.020107131
59	0x3d700e99	0.05860767
60	0x3d47dca7	0.048794415
61	0x3ab75c2d	0.0013989263
62	0xbc7ba974	-0.015360225
63	0xbbea8760	-0.0071572512

weight f4 [32, 1024]
0	0xbaa5d4fb	-0.0012651974
1	0x3d972245	0.07379583
2	0xbcc50252	-0.024048958
3	0xbd46b631	-0.048513595
4	0x3c7ec14c	0.015549015
5	0xbd6ca4f3	-0.057774495
6	0xbda64e3c	-0.08120391
7	0x3b99f631	0.0046985378
8	0x3e086df3	0.13323192
9	0xbd32ef66	-0.04368534
10	0xbbafb4f0	-0.0053621456
11	0x3e21606e	0.15759441
12	0xbce819ff	-0.028332708
13	0x3e24a360	0.16077948
14	0xbbed0d1f	-0.00723423
15	0xbdeb44fd	-0.11487768
16	0x3d86f0c0	0.06588888
17	0x3d6cd8a5	0.057823796
18	0xbc8fda98	-0.017560288
19	0x3a2e3204	0.0006645026
20	0xbd1643bb	-0.036685687
21	0xbdc12c21	-0.09432245
22	0x3cf91835	0.03040705
23	0xbc616a93	-0.013758319
24	0xbda55baa	-0.08074124
25	0x3c99f780	0.018794775
26	0xbd6542d7	-0.055971947
27	0x3dde1a48	0.108448565
28	0x3cd02fe8	0.025413468
29	0xbcdf7848	-0.027279034
30	0x3d044d88	0.032300502
31	0xbcceb884	-0.025234468
32	0x38aca139	8.231629e-05
33	0x3d3c259b	0.0459343
34	0x3d3a2f94	0.04545553
35	0x3d6b055c	0.057378158
36	0x3e4d200a	0.20031753
37	0xbc31b622	-0.0108466465
38	0x3d0fdb79	0.035121415
39	0xbbcca9f5	-0.0062458464
40	0x3bb0d735	0.0053967484
41	0xbb1c14e7	-0.002381617
42	0x3d34ec24	0.044170514
43	0xbe0b79d0	-0.13620687
44	0x3d96f573	0.073710345
45	0xbe034a8a	-0.12821403
46	0xbcec684a	-0.028858323
47	0xbe2a29ce	-0.1661751
48	0xbd99cb5b	-0.0750949
49	0xbdbed08d	-0.09317122
50	0x3cd49831	0.025951477
51	0xbd1211d6	-0.03566154
52	0xbab84cec	-0.001406101
53	0x3d98af37	0.074552946
54	0xbbd19ce6	-0.0063968776
55	0xbdcfad81	-0.10140515
56	0xbd803930	-0.06260908
57	0xbd401b3f	-0.046900984
58	0x3da53601	0.08066941
59	0x3d81b2c8	0.06332928
60	0x3bcb5881	0.006205619
61	0x3dbf7a94	0.09349552
62	0x3cb8ebd6	0.022573393
63	0x3e08f57d	0.13374896
64	0xbc20c05a	-0.009811485
65	0x3d04719f	0.03233492
66	0x3cd606b7	0.026126249
67	0x3bf04e02	0.007333518
68	0x3d5c8507	0.053837802
69	0xbdaba748	-0.08381516
70	0xbe16685d	-0.14688249
71	0x3df38125	0.11889867
72	0xbdbf134a	-0.09329851
73	0xbdd37122	-0.10324313
74	0xbd320110	-0.043458045
75	0x3d56a268	0.052400976
76	0x3d2701dd	0.04077326
77	0xbcb13812	-0.021633182
78	0x3d0ab231	0.033861343
79	0xbe3c236b	-0.18372886
80	0x3ddc35da	0.10752459
81	0x3c250ad0	0.010073379
82	0xbcd72d82	-0.026266817
83	0x3c0f37ad	0.0087413015
84	0xbd6e6265	-0.058199305
85	0x3a80d949	0.0009830381
86	0xbe00927c	-0.1255588
87	0xbdf8c73f	-0.12147378
88	0x3d1de3d3	0.03854735
89	0x3de267b7	0.11054938
90	0x3db45a0e	0.08806239
91	0x3dd98858	0.10621709
92	0xbbcb2174	-0.0061990563
93	0x3dbd7970	0.09251678
94	0x3df0c0ff	0.11755561
95	0xbe1625e6	-0.14662895
96	0x3d15a714	0.03653629
97	0x3e13f2ab	0.14448039
98	0xbcaf2431	-0.021379562
99	0x3dbe2bcb	0.092856966
100	0x3d500211	0.05078322
101	0x3cfc45e7	0.03079505
102	0x3c1db91d	0.009626654
103	0xbc011a4b	-0.007879804
104	0x3e091ac2	0.13389114
105	0x3e09f529	0.13472427
106	0x3d5a4a41	0.05329347
107	0xbda9b8b9	-0.08287186
108	0x3e3e6284	0.18592268
109	0x3e04841c	0.1294102
110	0xbd9b7842	-0.07591297
111	0xbd49b0ac	-0.049240753
112	0xbcf1dcec	-0.02952429
113	0x3e08edc9	0.13371958
114	0xbd349747	-0.04408958
115	0xbc9c8a74	-0.019108988
116	0xbdf20f89	-0.11819369
117	0x3bcc651d	0.0062376396
118	0xbd629574	-0.05531831
119	0xbdee3192	-0.116305485
120	0xbd5b2cde	-0.053509586
121	0x3bd290a2	0.006425933
122	0x3b569701	0.0032743814
123	0xbe12b587	-0.1432706
124	0xbdb90abc	-0.090352505
125	0x3cff38ae	0.031154957
126	0x3b62482e	0.0034527886
127	0xbd7efae5	-0.06225099
128	0x3e155a30	0.14585185
129	0x3dbab61d	0.091167666
130	0xbd17edda	-0.037092067
131	0x3d13f7e4	0.03612508
132	0x3bfb06ff	0.007660746
133	0x3d5b9efb	0.053618412
134	0x3cd6a416	0.02620129
135	0xbc3e7f9d	-0.011627105
136	0x3de0c011	0.10974134
137	0x3c70c765	0.014695977
138	0xbbd8a2f9	-0.0066112247
139	0xbd08f8bc	-0.033440337
140	0x3d73555f	0.059407588
141	0x3bb6e3da	0.0055813612
142	0xbdd2b6ce	-0.102887735
143	0x3d84d2ed	0.064855434
144	0x3c9c431c	0.019074969
145	0xbe1e3458	-0.15449655
146	0xbb856d4e	-0.004071868
147	0xbd6b2d7d	-0.057416428
148	0x3cf71518	0.030161425
149	0x3bf2a5e7	0.007405031
150	0xbd0c1149	-0.034196172
151	0x3d01bc71	0.031673852
152	0x3c8c99ed	0.017163241
153	0xbd94eb0a	-0.07271393
154	0x3d9a7b11	0.07543004
155	0x3bad7cea	0.005294432
156	0x3e539f98	0.20666349
157	0x3db3d859	0.087814994
158	0x3daa3075	0.08310024
159	0x3bcf8702	0.006333233
160	0xbdb10bd0	-0.08644831
161	0xbd6befb9	-0.057601664
162	0xbdb1de1a	-0.08684941
163	0x3ce26602	0.027636532
164	0xbd0dbba2	-0.03460277
165	0xbcbb3bec	-0.022855721
166	0x3def8ae6	0.11696415
167	0x3dbeca64	0.09315947
168	0xbc4c6f0d	-0.012477648
169	0xbe0b81f4	-0.13623792
170	0x3ca5993e	0.020214673
171	0xbd592fec	-0.053024217
172	0xbdbd0377	-0.092291765
173	0xbd8054fb	-0.06266209
174	0x3a9d42d7	0.0011998069
175	0xbb6bd66a	-0.0035985955
176	0xbe2306b6	-0.15920529
177	0xbd9dee1d	-0.07711432
178	0xbd917325	-0.0710204
179	0x3c8dfbd9	0.017332004
180	0xbcf41c3f	-0.029798625
181	0x3ce4bfb6	0.027923446
182	0x3dd27ff7	0.102783136
183	0xbd304301	-0.04303265
184	0xbd7d3db2	-0.061826415
185	0xbcf373d5	-0.029718319
186	0x3dc7f00d	0.09762583
187	0x3e3720b1	0.17883565
188	0xbd154cbe	-0.03645014
189	0x3dbd3700	0.09239006
190	0xbbf3acde	-0.007436379
191	0x3e3f2c33	0.18669204
192	0x3e28a437	0.16468893
193	0xbc74dcf8	-0.014945261
194	0xbd0fb9c1	-0.035089258
195	0x3e0c9d62	0.13731912
196	0x3d015806	0.031578086
197	0x3cf1ce28	0.029517248
198	0xbd98adac	-0.07455
199	0xbd8d01f3	-0.068851374
200	0x3d873b48	0.06603104
201	0x3cbe9849	0.023265975
202	0xbd937738	-0.072004735
203	0x3ccc9328	0.024972513
204	0xbd0092e1	-0.031390075
205	0xbdb6296d	-0.0889462
206	0x3bbe9019	0.0058155176
207	0xbdfbe2ac	-0.122990936
208	0xbcc8583e	-0.02445614
209	0xbe363d2c	-0.17796773
210	0xbdb79d96	-0.08965604
211	0xbddd65ed	-0.108104564
212	0xbc16e6b7	-0.00921028
213	0x3d9d7211	0.07687772
214	0x3dd89be3	0.10576608
215	0x3cfea52d	0.031084621
216	0x3db534ee	0.08847986
217	0xbba04d0a	-0.0048919963
218	0x3cd5e22a	0.02610882
219	0xbc678684	-0.014131192
220	0x3d056d76	0.032575093
221	0x3cdef7bc	0.027217738
222	0xbc588d8c	-0.013217341
223	0xbd435675	-0.047689874
224	0x3d20e5d4	0.03928168
225	0x3b1a1350	0.0023510046
226	0x3dbed1ee	0.09317385
227	0x3d86d50f	0.065836065
228	0xbabab690	-0.0014245082
229	0xbd362e5e	-0.044477813
230	0xbdab9764	-0.08378485
231	0xbde1345b	-0.10996314
232	0x3dc702ef	0.097173564
233	0xbd44652b	-0.047948044
234	0xbbe2e6c4	-0.006924482
235	0xbbd9d8a1	-0.0066481386
236	0x3d5c202f	0.05374163
237	0xbdb6cab8	-0.08925384
238	0xbe1e5cb1	-0.15465046
239	0xbd0781b7	-0.03308269
240	0x3dfae9b8	0.122516096
241	0x3e0715b5	0.13191874
242	0x3cecd32d	0.02890929
243	0xbd550c65	-0.052013773
244	0x3decd0a8	0.115632355
245	0x3ca040fc	0.019562237
246	0xbc5a0958	-0.013307892
247	0x3c67e6ff	0.014154195
248	0x3d239807	0.039939906
249	0x3d7a4fac	0.061111137
250	0xbd1fb206	-0.038988136
251	0xbdcb9757	-0.09940975
252	0x3ccc088a	0.024906415
253	0x3e04fe6a	0.12987676
254	0x3c8a2c55	0.016866842
255	0xbe0e8d4d	-0.1392109

bias f4 [32]
0	0xbd961c72	-0.07329644
1	0x3dd274de	0.10276197
2	0x3d82a7e9	0.063796826
3	0xbd87a58c	-0.066233724
4	0x3e35d6a6	0.17757663
5	0x3dcd3426	0.10019712
6	0x3d59c094	0.053162172
7	0xbb1a2512	-0.002352063
8	0x3dbd7ae5	0.09251956
9	0xbc6bb5d5	-0.014386614
10	0x3dfb964c	0.12284526
11	0x3e2abe1b	0.16674082
12	0xbccc306b	-0.024925431
13	0xbcb013f4	-0.02149389
14	0x3d3158dd	0.043297637
15	0x3c6c01d3	0.014404732
16	0xbd49f009	-0.04930118
17	0x3cdf0b2b	0.027227005
18	0x3d5ccad9	0.053904388
19	0x3cde1dbc	0.027113788
20	0x3deef181	0.11667157
21	0x3dbc11fa	0.09183116
22	0xbd4fbc7f	-0.050716873
23	0x3e0dc992	0.13846424
24	0x3d698362	0.057010062
25	0x3db6a368	0.08917886
26	0xbd4497cf	-0.04799634
27	0xbd712ef2	-0.05888266
28	0x3d834430	0.0640949
29	0x3d2eeeb5	0.042708118
30	0x3c8fceea	0.017554719
31	0xbcd58178	-0.026062712

weight f4 [15, 32]
0	0x3d8bfe0e	0.068355665
1	0x3e7ba251	0.24573638
2	0x3d3278d7	0.043572273
3	0x3e8848ce	0.26618046
4	0x3c233060	0.009960264
5	0xbe1b6e5a	-0.15178815
6	0xbe60fe65	-0.21972044
7	0x3ea3dc61	0.32004073
8	0xbdaa40c9	-0.08313138
9	0xbce5bb19	-0.028043317
10	0xbe03b0d4	-0.12860423
11	0x3b99dbfa	0.0046954127
12	0x3e9b5e3b	0.3034533
13	0x3d60286d	0.054726053
14	0xbdd580fe	-0.10424994
15	0xbc5aa799	-0.013345622
16	0x3ea71f05	0.32640854
17	0x3d609765	0.05483188
18	0x3de1da76	0.11027996
19	0xbe23a37a	-0.1598033
20	0xbd911ec5	-0.07085947
21	0x3e356155	0.1771291
22	0xbe65a83a	-0.22427455
23	0xbe01757c	-0.12642473
24	0xbdac8e39	-0.08425564
25	0x3d906b7d	0.07051752
26	0x3c83aaf3	0.016072726
27	0x3d93334c	0.071875185
28	0xbdfdf0d0	-0.12399447
29	0xbd6480a0	-0.05578673
30	0xbe1dbac8	-0.15403283
31	0xbeaf78f1	-0.34271958
32	0xbd888ae4	-0.06667116
33	0x3d07d342	0.033160456
34	0x3bed6ab5	0.0072453865
35	0xbd847f16	-0.06469552
36	0xbdbd3eef	-0.09240519
37	0xbd9b7c75	-0.07592098
38	0x3da8d5d0	0.082439065
39	0xbe19ad0b	-0.15007417
40	0x3d9b1e94	0.07574192
41	0xbc0ee3ec	-0.008721333
42	0xbcaee5a8	-0.021349743
43	0xbd88f45b	-0.06687232
44	0x3d5ad01a	0.053421117
45	0xbd9e046d	-0.07715688
46	0xbcdf4f8e	-0.027259614
47	0x3b45f834	0.0030207755
48	0x3e07f0b5	0.13275416
49	0x3d080f4a	0.033217706
50	0x3e1a8b17	0.15092121
51	0x3dde6e73	0.1086091
52	0xbd389de7	-0.045072462
53	0x3d1aff45	0.0378411
54	0xbd64df7e	-0.0558772
55	0x3d16aa8c	0.03678374
56	0xbd89a253	-0.06720414
57	0x3dbedf2a	0.09319909
58	0xbdf46a2b	-0.119343124
59	0xbe1f2c08	-0.1554414
60	0x3bcf0dfe	0.0063188067
61	0x3d22b4cf	0.039723214
62	0xbd79abd0	-0.06095487
63	0xbafacf8b	-0.0019135339
64	0xbe7330aa	-0.23749033
65	0xbe103bdc	-0.14085335
66	0x3d33e295	0.043917257
67	0xbc06ebe4	-0.008234952
68	0xbd76fd95	-0.06030043
69	0xbe4d2126	-0.20032176
70	0x3e1d0157	0.15332542
71	0xbe2ec46e	-0.1706712
72	0xbe72d458	-0.23713815
73	0x3e64c721	0.22341587
74	0x3e07ff34	0.13280946
75	0xbba52b87	-0.0050405893
76	0xbe187377	-0.14887796
77	0x3d767af9	0.06017587
78	0x3d78d020	0.06074536
79	0x3dd352a2	0.10318495
80	0x3dd4a4b4	0.10382977
81	0x3df75a9e	0.12077831
82	0xbe6e32ef	-0.23261617
83	0x3e4808b2	0.19534567
84	0x3beeca15	0.0072872736
85	0xbe3c8afa	-0.1841239
86	0x3e817e7a	0.25291806
87	0x3dd479b7	0.10374778
88	0xbeb67b21	-0.35640815
89	0x3e2d4aa1	0.16923
90	0x3e953ecf	0.29149482
91	0x3e069a55	0.1314481
92	0x3be9cd2e	0.007135055
93	0xbd79eedf	-0.06101882
94	0xbe5718d3	-0.21005563
95	0x3e43ed85	0.19133575
96	0x3d805fb9	0.06268258
97	0x3c2de0fb	0.010612722
98	0xbd5d1c09	-0.053981815
99	0x3e716725	0.23574503
100	0x3ba58f55	0.005052487
101	0xbd85b4d7	-0.06528633
102	0xbc93f392	-0.01806048
103	0x3d50c17f	0.050965782
104	0xbd0d9e64	-0.03457488
105	0x3c9f467f	0.019442795
106	0xbd9bb143	-0.07602169
107	0xbd0026a6	-0.031286858
108	0x3b2c6553	0.002630551
109	0xbc595356	-0.013264498
110	0xbe000d37	-0.12505041
111	0xbd68c70c	-0.05683045
112	0xbe356201	-0.17713167
113	0xbd7906bd	-0.06079744
114	0xbde17085	-0.110077895
115	0x3d2df4b0	0.04246968
116	0xbd45c15a	-0.048280098
117	0x3d40f802	0.04711152
118	0xbc8aeaf0	-0.01695773
119	0xbe1da89e	-0.15396354
120	0xbd996114	-0.07489219
121	0xbd6e4c25	-0.058178086
122	0x3d665cff	0.05624103
123	0xbe1a8e79	-0.15093412
124	0xbe1caf05	-0.1530114
125	0xbd69c557	-0.057072964
126	0xbd3b7239	-0.045763228
127	0xbdbb2062	-0.09137036
128	0x3cb61a30	0.022229284
129	0xbe1f76ea	-0.15572706
130	0x3d7848ed	0.060616422
131	0x3c3a2109	0.011360415
132	0xbc6acb64	-0.014330719
133	0xbd19ff58	-0.03759703
134	0x3d8a15ab	0.06742414
135	0xbce81095	-0.02832822
136	0xbd191488	-0.037373096
137	0xbd2fc23d	-0.04290985
138	0x3a720c7f	0.00092334294
139	0xbdad89e9	-0.0847357
140	0x3da8ca2f	0.082416885
141	0x3e98423d	0.29738036
142	0xbdd786db	-0.105237685
143	0xbd6f9244	-0.0584891
144	0xbca9f9cf	-0.020749
145	0xbd59bda6	-0.05315938
146	0x3d970830	0.073746085
147	0xbdef094b	-0.11671694
148	0xbdf5245f	-0.11969828
149	0xbd04fb75	-0.03246637
150	0xbd68633b	-0.05673526
151	0x3c9bf925	0.0190397
152	0xbe35f12c	-0.17767781
153	0xbe1b4e11	-0.15166499
154	0x3d4d3ec4	0.050108686
155	0xbe0180d2	-0.12646797
156	0xbde0c1b8	-0.10974449
157	0x3d315649	0.04329518
158	0xbd388b8b	-0.045054954
159	0x392b34da	0.0001632752
160	0xbe4bff37	-0.19921575
161	0xbe06d777	-0.13168131
162	0xbe0e921b	-0.13922922
163	0xbe0e6fa6	-0.13909778
164	0xbcbb2917	-0.022846742
165	0x3d7bb2ee	0.061449938
166	0xbe970244	-0.29493916
167	0xbe20ebba	-0.15714923
168	0xbe18f3f8	-0.14936817
169	0x3e75c000	0.23999023
170	0xbd45a5f0	-0.048253953
171	0xbbd60bdd	-0.006532176
172	0xbe3579f7	-0.17722307
173	0xbc958ac0	-0.018254638
174	0x3d8bc2ad	0.06824241
175	0x388fc285	6.8550034e-05
176	0x3e27b80f	0.16378807
177	0xbcf105f0	-0.029421777
178	0xbe962426	-0.29324454
179	0x3e2fc695	0.17165597
180	0x3d9649a4	0.073382646
181	0xbe1b58fb	-0.15170662
182	0x3e9572b1	0.29189065
183	0x3deb5ad7	0.11491936
184	0xbe466ef1	-0.19378258
185	0x3d2c5d13	0.04208095
186	0x3bff9885	0.007800164
187	0x3e6db368	0.2321297
188	0x3cd383b9	0.025819646
189	0xbe114605	-0.14186867
190	0xbd7122e0	-0.05887115
191	0x3d9774d8	0.07395333
192	0x3d7b495d	0.06134926
193	0x3cf28241	0.029603126
194	0xbc019939	-0.007910066
195	0x3d0a4083	0.03375293
196	0xbe09e600	-0.13466644
197	0x3c4de2d6	0.012566289
198	0xbd8afc19	-0.06786365
199	0x3e0830cd	0.13299866
200	0xbcd29dd0	-0.025710016
201	0xbcf0a894	-0.02937726
202	0xbe8debe0	-0.2771902
203	0xbdb4d617	-0.08829897
204	0x3e3545b7	0.17702375
205	0x3e332563	0.1749473
206	0xbe427c8b	-0.18992822
207	0xbe0be023	-0.1365972
208	0xbbb4a433	-0.005512738
209	0xbe0d7f3b	-0.13818066
210	0xbe2c466b	-0.16823737
211	0x3cae66a3	0.021289175
212	0xbdb9d6a3	-0.09074142
213	0xbd102644	-0.035192743
214	0xbe16ffe8	-0.14746058
215	0xbe3747bb	-0.17898457
216	0xbdd8f1f0	-0.10593021
217	0xbbfbc863	-0.0076838
218	0x3e0ce590	0.13759446
219	0x3c83de0c	0.016097091
220	0xbead17b2	-0.3380714
221	0x3df29bd3	0.11846127
222	0x3b1ecd79	0.0024231358
223	0x3c35e30d	0.011101496
224	0xbd8bdc4f	-0.0682913
225	0xbe4c1f84	-0.19933897
226	0x3d4d765a	0.050161697
227	0x3d44e680	0.048071384
228	0xbd51708c	-0.051132724
229	0x3d8aff80	0.06787014
230	0xbe117a15	-0.14206727
231	0xbd2c0e79	-0.04200599
232	0xbe0bbf01	-0.13647081
233	0xbd3ee6e3	-0.04660691
234	0x3d83f828	0.064438164
235	0xbd40fcc1	-0.047116045
236	0xbd2fc097	-0.042908277
237	0x3e51cd3f	0.20488451
238	0xbe00c862	-0.1257644
239	0xbddc2c2c	-0.107506126
240	0x3cb6bdbb	0.022307267
241	0xbde6a117	-0.11261194
242	0xbcbe388d	-0.023220325
243	0x3c139efb	0.009010072
244	0xbd2ef6a4	-0.042715684
245	0xbde5edca	-0.11226995
246	0xbcc85752	-0.0244557
247	0xbe002da4	-0.1251741
248	0x3c2117e1	0.009832353
249	0xbe03b313	-0.1286128
250	0x3cc68a22	0.024235789
251	0xbdeb2bc7	-0.11482959
252	0xbd3c4e04	-0.04597284
253	0xbda2ad73	-0.07943239
254	0x3da6de61	0.08147884
255	0xbc404d09	-0.011737117

bias f4 [15]
0	0x3d1d4232	0.038393207
1	0x3ca55e5a	0.020186592
2	0xbc322bff	-0.010874747
3	0xbabbe974	-0.0014336542
4	0xbcd5e96c	-0.02611228
5	0x3cf281c9	0.029602902
6	0x3c21dbd8	0.009879075
7	0xbd2fbb06	-0.04290297
8	0x3d402deb	0.04691879
9	0x3c044cec	0.00807498
10	0xbcbba915	-0.022907773
11	0x3bff23fd	0.0077862726
12	0x3d94df0c	0.07269105
13	0x3c213830	0.009840056
14	0xb9bffce5	-0.0003661878

weight f4 [1, 32]
0	0xbd4e53e3	-0.05037297
1	0x3d1246e4	0.035712138
2	0x3daed5bd	0.08536861
3	0xbcaf825f	-0.02142447
4	0x3de8bd88	0.11364275
5	0x3dba22ea	0.090886906
6	0x3cb254e7	0.021769
7	0x3c048e49	0.008090564
8	0x3d59175a	0.053000785
9	0xbbb19c7e	-0.0054202667
10	0x3df77ef8	0.12084764
11	0x3ddcdf6a	0.107848
12	0xbcf4f86f	-0.029903619
13	0xbc86b74a	-0.01644482
14	0xbc1dce41	-0.009631694
15	0xbb77eae9	-0.0037829226
16	0xbc946d44	-0.018118508
17	0x3b0cd4d2	0.0021489155
18	0x3db3afa4	0.08773735
19	0x3c6e7e6c	0.0145565085
20	0x3cf094c6	0.029367816
21	0x3d070b2f	0.03296965
22	0xbd041cc0	-0.03225398
23	0x3d5ba675	0.053625543
24	0x3e2ac13f	0.1667528
25	0x3cff439b	0.031160166
26	0xbcb248b7	-0.021763189
27	0xbcaecf6e	-0.021339145
28	0x3dab03db	0.08350345
29	0x3df1a4b1	0.117989905
30	0xbc515d97	-0.012778661
31	0x3b59e210	0.0033246316
