results/generalization/80levels-policy.pt (torch, 443935 bytes, 11 tensors)

weight f4 [32, 3, 8, 8]
-0.10685238 0.11731533 0.20860963 -0.08138018 0.15993524 0.083677046 0.17992361 0.035995707
-0.05763963 -0.023282852 -0.0081891455 -0.18941252 -0.0046928865 0.1707385 0.056639753 0.09991579
0.013866382 -0.0098050125 0.19463658 0.009382515 -0.099242 0.02675119 -0.13052997 -0.008560893
0.16040239 0.10246056 0.084919356 -0.046102766 0.07059655 -0.026240906 -0.08987251 -0.04242049
-0.02397982 0.00046375985 0.08697139 0.21428843 0.23118544 0.18886487 0.34489232 0.18405093
0.05181317 -0.014329131 0.10560469 0.07128813 0.010458825 0.047676608 0.009776689 0.087661944
0.17494425 0.053744603 -0.011758247 0.17446072 0.21568877 -0.042785175 -0.09947762 0.038715072
-0.21569821 -0.06385554 0.19129787 0.1059279 0.2568462 0.15337068 -0.13535927 0.091190696
-0.06342227 0.044677466 0.031274855 0.03725984 -0.06939093 0.312423 -0.014031877 0.074694075
-0.09925782 -0.16275492 -0.048050605 0.037994023 -0.012100002 0.12122998 0.18647505 0.14814197
0.08629007 0.012232204 0.06596115 0.10152383 -0.05963857 0.037107054 -0.16262531 -0.04033905
0.23582353 -0.005180983 0.20411684 0.027971199 0.013096785 0.0025776853 -0.047782734 -0.121100865
-0.034436606 -0.01994974 -0.0005335267 -0.04461908 0.026751177 0.12146924 0.15224555 0.014258109
0.055270474 0.07490141 -0.10104075 0.1733683 0.058583353 -0.12175567 -0.12289553 0.06572105
0.13109095 0.05328889 0.08478611 0.13416523 0.3833728 0.14105925 0.07491704 -0.04182421
0.05771926 0.09699489 -0.00851066 0.04562098 -0.036591236 -0.014567405 0.20428869 0.14503875
-0.07671175 -0.06621489 -0.16139121 -0.26859215 -0.18964203 -0.06326841 -0.10968986 -0.29079905
0.043064475 -0.15439045 -0.057018034 -0.037778836 -0.19455731 -0.34956926 -0.23343979 -0.06862995
-0.027414162 0.044358045 -0.17576937 -0.031535693 0.1164007 -0.18189955 -0.20512268 -0.35370523
-0.05255381 -0.17929022 -0.20869456 0.0067628957 -0.009105189 0.09913179 -0.26144218 -0.059395567
-0.13895647 -0.0693972 -0.02310803 -0.18898492 -0.2737189 -0.188864 -0.03492922 0.045701146
-0.059351005 0.1475047 -0.24852905 -0.1656247 -0.35362604 -0.2641713 -0.06956433 -0.13614847
-0.14446323 0.028019167 -0.18430242 -0.32125476 -0.37157628 -0.03796417 -0.1560427 -0.114468
0.0010375874 -0.052538782 -0.10435053 -0.26104903 -0.13383482 -0.1970698 -0.013907885 -0.1112007
0.06696433 -0.050569806 -0.29817778 -0.04008081 0.0064122435 -0.20597076 0.032068435 0.011015517
-0.23717766 -0.13697337 -0.19375688 -0.20005451 -0.2112962 -0.1342353 -0.045103516 0.074061275
-0.08241782 0.13076301 -0.090062976 0.0343076 -0.14743905 -0.05749206 0.039413705 0.04565888
-0.0025244607 -0.12002887 -0.25204986 -0.07023459 0.15213582 -0.068622164 -0.10017402 -0.187236
0.018027475 -0.06122177 0.117288284 -0.20018263 -0.047969073 0.10520926 -0.016588364 0.06403469
0.011440573 -0.049548253 -0.016517999 0.013942385 0.052103736 0.021337269 0.024093734 0.024114227
-0.1036081 -0.062388122 -0.14394042 0.05460951 -0.16996717 -0.22161467 -0.08591182 -0.08471384
0.19970885 -0.066005684 -0.3437069 -0.18883434 -0.33162203 -0.10904776 -0.14625977 -0.48439825
00000000: 6cd5 dabd 0543 f03d c39d 553e a7aa a6bd
00000010: 10c6 233e df5e ab3d e53d 383e 3c70 133d
00000020: 8817 6cbd aebb bebc c42b 06bc 5bf5 41be
00000030: c9c6 99bb 13d6 2e3e 16ff 673d a6a0 cc3d
00000040: d22f 633c 34a5 20bc d04e 473e 1fb9 193c
00000050: 643f cbbd 5025 db3c a6a9 05be fd42 0cbc
00000060: 8640 243e d8d6 d13d 33ea ad3d 41d6 3cbd
00000070: ed94 903d 2bf7 d6bc 140f b8bd 1cc1 2dbd
00000080: 5471 c4bc cb24 f339 0e1e b23d 6d6e 5b3e
00000090: e0bb 6c3e cb65 413e ba95 b03e d977 3c3e
000000a0: 0c3a 543d bbc4 6abc 4647 d83d 83ff 913d
000000b0: 7e5b 2b3c 8c48 433d 682e 203c 1b88 b33d
000000c0: 9624 333e 4d23 5c3d aaa5 40bc d5a5 323e
000000d0: 84dd 5c3e 823f 2fbd ecba cbbd b293 1e3d
000000e0: fedf 5cbe b1c6 82bd 97e3 433e baf0 d83d
000000f0: 5881 833e 340d 1d3e 9f9b 0abe 30c2 ba3d
00000100: 89e3 81bd b8ff 363d 101a 003d c69d 183d
00000110: d51c 8ebd e8f5 9f3e f5e5 65bc 35f9 983d
00000120: af47 cbbd 3aa9 26be b6d0 44bd 9f9f 1b3d
00000130: 163f 46bc 6c47 f83d 51f3 3e3e 87b2 173e
00000140: d9b8 b03d 9569 483c a416 873d baeb cf3d
00000150: 9347 74bd 91fd 173d 4087 26be 8f3a 25bd
00000160: b97b 713e 3cc5 a9bb 0104 513e db23 e53c
00000170: e693 563c 62ee 283b d4b7 43bd bb03 f8bd
00000180: 660d 0dbd a36d a3bc 5fdc 0bba 7fc2 36bd
00000190: 4925 db3c ddc4 f83d 42e6 1b3e d89a 693c
000001a0: 4b63 623d e965 993d 74ee cebd 7687 313e
000001b0: 19f5 6f3d 095b f9bd a7b0 fbbd c298 863d
000001c0: b53c 063e 7345 5a3d 57a4 ad3d 9c62 093e
000001d0: 7149 c43e d671 103e 1b6e 993d dd4f 2bbd
000001e0: 086b 6c3d 42a5 c63d 4c70 0bbc 11dd 3a3d
000001f0: b1e0 15bd 20ac 6ebc 0e31 513e 0a85 143e
00000200: 0d1b 9dbd ac9b 87bd bd43 25be e984 89be
00000210: 8531 42be de92 81bd 14a5 e0bd 9de3 94be
00000220: 6064 303d 8818 1ebe be8b 69bd fbbd 1abd
00000230: 083a 47be befa b2be d70a 6fbe dc8d 8cbd
00000240: aa93 e0bc c8b0 353d e3fc 33be 922b 01bd
00000250: 7d63 ee3d e043 3abe ae0b 52be da18 b5be
00000260: aa42 57bd db97 37be 07b4 55be 489b dd3b
00000270: ee2d 15bc 9c05 cb3d c0db 85be c448 73bd
00000280: 9b4a 0ebe 1f20 8ebd 0d4d bdbc 4385 41be
00000290: e224 8cbe 9065 41be f111 0fbd 2031 3b3d
000002a0: 0a1a 73bd 790b 173e 667e 7ebe 8599 29be
000002b0: 790e b5be 7641 87be be77 8ebd 816a 0bbe
000002c0: 2bee 13be 7488 e53c c6b9 3cbe 817b a4be
000002d0: 3f3f bebe 5180 1bbd a8c9 1fbe 336e eabd
000002e0: a8ff 873a e832 57bd bbb5 d5bd 38a8 85be
000002f0: ff0b 09be aacc 49be e6dd 63bc 31bd e3bd
00000300: 9824 893d 4922 4fbd c2aa 98be c72b 24bd
00000310: cc1d d23b 00ea 52be 315a 033d 6d7a 343c
00000320: b3de 72be bf42 0cbe 3468 46be 17db 4cbe
00000330: 085e 58be fa74 09be 77be 38bd 70ad 973d
00000340: adca a8bd bde6 053e f072 b8bd 2086 0c3d
00000350: 43fa 16be cb7c 6bbd 4470 213d ce04 3b3d
00000360: 6c71 25bb b2d1 f5bd ae0c 81be 27d7 8fbd
00000370: 7ec9 1b3e c789 8cbd 0928 cdbd cbba 3fbe
00000380: 5bae 933c aec3 7abd d734 f03d adfc 4cbe
00000390: 387b 44bd f477 d73d 52e4 87bc 9f24 833d
000003a0: 3e71 3b3c 1cf3 4abd c150 87bc 9a6e 643c
000003b0: ba6a 553d 7fcb ae3c 3960 c53c 338b c53c
000003c0: 7c30 d4bd b08a 7fbd 1e65 13be 39ae 5f3d
000003d0: e00b 2ebe f5ee 62be 89f2 afbd 737e adbd
000003e0: 7a80 4c3e fd2d 87bd 5afa afbe ca5d 41be
000003f0: 5dca a9be 6f54 dfbd 1fc5 15be 0c03 f8be

bias f4 [32]
-0.004470921 0.038933557 -0.0012423476 -0.028234111 -0.008113037 -0.0022316764 -0.0038857078 0.00965037
-0.0010386921 0.0064672227 -0.013024293 -0.0065662353 -0.0010248921 -0.003965765 -0.001004033 -0.0069743237
-0.0008957865 0.0028490357 -0.0037741347 0.024672125 -0.002532274 -0.0014124317 0.02776497 -0.0043783938
-0.00094357104 -0.00065895787 -0.0070777745 -0.006590603 -0.0006579319 -0.0026305162 -0.0028108675 -0.0014071498
00000000: ce80 92bb cb78 1f3d 45d6 a2ba 394b e7bc
00000010: 8bec 04bc 5141 12bb 5ca7 7ebb 961c 1e3c
00000020: b924 88ba ffea d33b d863 55bc 9329 d7bb
00000030: ac55 86ba 3ff3 81bb c299 83ba de88 e4bb
00000040: 37d3 6aba e3b6 3a3b 7957 77bb 321d ca3c
00000050: 82f4 25bb 5821 b9ba 5d73 e33c a178 8fbb
00000060: fb59 77ba eabd 2cba adec e7bb fcf5 d7bb
00000070: 1079 2cba bd64 2cbb 8836 38bb 1d70 b8ba

weight f4 [64, 32, 4, 4]
0.18254492 0.04807064 0.15444489 -0.0015466326 -0.064086616 0.07195142 0.12372084 0.037107807
-0.1206999 -0.06982181 -0.16343567 -0.02089233 -0.43296525 -0.25929162 -0.12242061 -0.14668167
0.19571899 0.042270634 0.09526002 0.054640803 0.074635945 0.22170569 0.109867536 0.06482231
0.0718172 0.10982623 -0.045047775 0.002847125 0.040513944 0.055041905 0.17112282 0.084618844
0.12935235 0.17373599 -0.0070584873 0.029697277 0.09037013 0.011986105 0.13915461 0.039732136
-0.16315916 -0.19355494 0.17255732 0.12345688 -0.2870605 -0.17743714 0.07131454 -0.091870636
-0.045442555 0.035336535 0.06429783 -0.040135544 0.078929715 -0.0718719 0.039478727 0.06747882
-0.21327063 -0.07273419 0.1635918 0.09121072 -0.18191367 -0.19806275 -0.024574744 -0.06306015
-0.12554131 -0.10375294 0.06546657 0.05689805 -0.04826805 -0.08088541 0.07330412 0.011547929
-0.076301984 -0.10848417 0.11035724 -0.095178604 -0.42385906 -0.25575608 -0.09243984 -0.1429886
-0.032574203 -0.027548978 0.025904154 -0.06476828 -0.0086186575 -0.031885516 -0.023780162 -0.059130613
0.09449981 -0.22464937 -0.07368005 -0.053251646 -0.30635977 -0.14788148 -0.102834515 -0.19210288
0.10309893 0.074099414 0.036085162 0.040475383 0.13390219 0.06014485 -0.06548334 -0.005960489
-0.11378882 0.07349625 -0.08100031 -0.14298527 -0.16951594 -0.112844214 0.019171303 0.03313014
0.11436332 -0.13129313 -0.0544716 0.01695763 -0.030423844 0.01040409 0.052992396 0.07138134
-0.13235414 0.014738844 -0.0957923 -0.17789164 -0.19680646 -0.048337627 -0.15330678 -0.037767302
0.07885848 -0.002061876 -0.008985056 -0.09390635 0.030032003 -0.017225392 0.022785533 -0.006120588
-0.13936922 -0.2022279 -0.07614575 -0.20509805 -0.2620543 -0.09328934 -0.11705768 -0.22055516
0.20285414 -0.022839367 0.039248068 -0.06994578 0.19672574 -0.02125534 0.027764767 0.033635654
0.08988837 0.04836016 0.038034357 0.14491554 -0.53075624 -0.27846327 -0.099499576 0.042476494
0.06669203 0.017779162 0.01120742 0.057984218 0.21801575 0.19747466 0.09584202 0.070288785
-0.047293905 -0.22944564 0.051201854 0.067408375 -0.19397864 -0.026672281 -0.03320469 0.105697766
0.17971955 0.094442576 0.08949075 0.06501683 0.20473517 0.16161415 -0.010578709 0.05134665
0.031810023 -0.006265035 -0.035648916 0.06151117 -0.04454143 -0.16153106 -0.20564759 0.15851949
-0.020136807 0.030709784 0.044138018 -0.005247923 -0.011155796 -0.028252086 -0.013645126 0.040457096
-0.12086933 0.027673105 0.04869519 0.041083124 -0.0968406 0.040105198 0.019670498 0.0843719
0.029995373 0.075824805 -0.030872853 -0.030503241 0.121380165 0.04829239 0.11377615 0.107445955
-0.05007507 -0.029080678 0.007862173 -0.09970364 -0.061321303 -0.049218047 -0.09470715 0.10994153
0.124859646 0.091654986 -0.06107936 0.058336295 0.09094982 0.08166757 -0.079962 0.020944517
-0.12610036 -0.09529901 -0.012861076 -0.062487006 -0.13342036 -0.20635131 -0.027186068 0.0034799646
0.108667806 0.042414725 -0.020787653 0.032119926 0.10855407 -0.061310846 -0.0112442365 0.0769532
-0.0069426494 -0.058547232 -0.0061442996 -0.04489622 -0.27469677 -0.175636 -0.030784309 -0.016888466
00000000: 0eed 3a3e b8e5 443d cd26 1e3e 61b8 caba
00000010: d83f 83bd 445b 933d 5a61 fd3d 5bfe 173d
00000020: 8231 f7bd bdfe 8ebd ae5b 27be 6426 abbc
00000030: 9fad ddbe dfc1 84be a8b7 fabd b833 16be
00000040: 8f6a 483e f923 2d3d af17 c33d 09cf 5f3d
00000050: bbda 983d d106 633e 3b02 e13d 8fc1 843d
00000060: e514 933d 93ec e03d 0484 38bd d596 3a3b
00000070: f3f1 253d 9f73 613d d23a 2f3e a54c ad3d
00000080: f174 043e d9e7 313e e24a e7bb b447 f33c
00000090: fa13 b93d 5e61 443c 8c7e 0e3e 2abe 223d
000000a0: 3213 27be 4433 46be deb2 303e f6d6 fc3d
000000b0: 98f9 92be 15b2 35be 5c0d 923d ac26 bcbd
000000c0: f921 3abd 0bbd 103d 95ae 833d 2b65 24bd
000000d0: e7a5 a13d 9331 93bd 72b4 213d 5632 8a3d
000000e0: 9e63 5abe aaf5 94bd 9c84 273e b0cc ba3d
000000f0: 9447 3abe f6d0 4abe f950 c9bc ae25 81bd
00000100: e78d 00be 6c7c d4bd 5613 863d ee0d 693d
00000110: b8b4 45bd 40a7 a5bd 7820 963d 8633 3d3c
00000120: 3744 9cbd f32c debd fa02 e23d 00ed c2bd
00000130: 0e04 d9be 76f2 82be 1951 bdbd 9b6b 12be
00000140: 876c 05bd 65ae e1bc f334 d43c 3ba5 84bd
00000150: 4535 0dbc 639a 02bd 9dce c2bc f132 72bd
00000160: 1e89 c13d 7c0a 66be 91e5 96bd 661e 5abd
00000170: 30db 9cbe 3e6e 17be e79a d2bd 9eb6 44be
00000180: 8825 d33d 6fc1 973d 09ce 133d 84c9 253d
00000190: a81d 093e 725a 763d 211c 86bd 3550 c3bb
000001a0: 1d0a e9bd 3485 963d 7ee3 a5bd bb6a 12be
000001b0: 9695 2dbe de1a e7bd 230d 9d3c 78b3 073d
000001c0: 5137 ea3d b571 06be 9d1d 5fbd baea 8a3c
000001d0: 6d3b f9bc eb75 2a3c 8e0e 593d 6130 923d
000001e0: d887 07be 317b 713c c12e c4bd 3a29 36be
000001f0: a287 49be adfd 45bd 74fc 1cbe e3b1 1abd
00000200: 8e80 a13d 8a20 07bb 0e36 13bc f951 c0bd
00000210: ad05 f63c 441c 8dbc baa8 ba3c 378f c8bb
00000220: ceb6 0ebe d514 4fbe 4ef2 9bbd 3905 52be
00000230: fb2b 86be 7b0e bfbd f0bb efbd 36d9 61be
00000240: ffb8 4f3e a019 bbbc 95c2 203d bc3f 8fbd
00000250: 7972 493e ae1f aebc f072 e33c 8ac5 093d
00000260: 6517 b83d 4e15 463d eac9 1b3d bd64 143e
00000270: a4df 07bf bd92 8ebe 6fc6 cbbd d5fb 2d3d
00000280: d595 883d 9ba5 913c 549f 373c dc80 6d3d
00000290: 853f 5f3e cc36 4a3e d248 c43d 91f3 8f3d
000002a0: 41b7 41bd ccf3 6abe 09b9 513d 670d 8a3d
000002b0: 56a2 46be d47f dabc a401 08bd 1278 d83d
000002c0: 6708 383e 1c6b c13d ed46 b73d 8b27 853d
000002d0: 19a6 513e 2e7e 253e 5252 2dbc dd50 523d
000002e0: 3a4b 023d ec4a cdbb 9904 12bd 23f3 7b3d
000002f0: 1371 36bd 6668 25be 4895 52be ef52 223e
00000300: f2f5 a4bc 1693 fb3c 11ca 343d c5f6 abbb
00000310: cdc6 36bc eb70 e7bc ce8f 5fbc 57b6 253d
00000320: 578a f7bd b5b2 e23c 9c74 473d c746 283d
00000330: 5d54 c6bd 5945 243d 0624 a13c 2dcb ac3d
00000340: dbb8 f53c 094a 9b3d 11e9 fcbc efe1 f9bc
00000350: 2a96 f83d 3ece 453d 7803 e93d a00c dc3d
00000360: 841b 4dbd 9a3a eebc 58d0 003c 6c31 ccbd
00000370: 0c2c 7bbd dd98 49bd d2f5 c1bd 0629 e13d
00000380: 6ab6 ff3d 9cb5 bb3d 5a2e 7abd 0af2 6e3d
00000390: e643 ba3d 5441 a73d 1ec3 a3bd d693 ab3c
000003a0: 7420 01be 212c c3bd 43b7 52bc 60f2 7fbd
000003b0: 599f 08be c24d 53be 51b5 debc 1e10 643b
000003c0: 3a8d de3d 10bb 2d3d de4a aabc 2f90 033d
000003d0: 9951 de3d 1521 7bbd bf39 38bc a499 9d3d
000003e0: 2a7f e3bb 39cf 6fbd 1f56 c9bb 19e5 37bd
000003f0: 0ea5 8cbe ecd9 33be 602f fcbc ae59 8abc

bias f4 [64]
0.09518949 0.041473534 -0.03631206 -0.0052083544 0.006165089 -0.015756883 -0.026904996 -0.018605195
-0.025400914 0.066580445 -0.015130685 -0.0045730355 0.056004796 0.012592116 -0.026984746 -0.00090204726
-0.012001179 0.009697433 0.074816845 0.0077248295 -0.061924566 0.02393741 0.08640359 -0.019944176
-0.11370923 0.049567647 0.008538698 0.0025877133 0.08681689 -0.02117954 -0.014840387 0.0034856235
-0.10428207 -0.019237824 -0.027457219 0.019493058 -0.007682419 -0.019848112 0.0012036791 0.0609725
0.030216785 -0.022985332 0.018215086 -0.027871432 0.0068180147 -0.022910584 -0.03125925 0.108636945
0.005220985 0.021035036 -0.030938622 -0.022608759 0.008773321 -0.0006373886 0.0014698915 -0.006373593
-0.017356437 0.05248968 -0.023424007 -0.005388934 0.018763231 0.0007198778 -0.017095122 0.008561206
00000000: b5f2 c23d 27e0 293d f4bb 14bd d8aa aabb
00000010: 8404 ca3b 9414 81bc de67 dcbc ec69 98bc
00000020: 9415 d0bc 545b 883d b1e6 77bc 67d9 95bb
00000030: 4965 653d 2a4f 4e3c 1d0f ddbc 5e77 6cba
00000040: 98a0 44bc fbe1 1e3c 9339 993d 9120 fd3b
00000050: 9da4 7dbd 6318 c43c 5ef4 b03d f861 a3bc
00000060: 63e0 e8bd 7207 4b3d e5e5 0b3c a096 293b
00000070: 0ecd b13d b780 adbc 1825 73bc 0f6f 643b
00000080: d791 d5bd a498 9dbc f6ed e0bc e8af 9f3c
00000090: cdbc fbbb 8298 a2bc c5c4 9d3a 4dbe 793d
000000a0: 3189 f73c bc4b bcbc ce37 953c a152 e4bc
000000b0: a769 df3b faae bbbc b309 00bd 0c7d de3d
000000c0: cc14 ab3b ab51 ac3c fe72 fdbc 0136 b9bc
000000d0: fabd 0f3c 6d16 27ba 60a9 c03a 93d9 d0bb
000000e0: 162f 8ebc 6bff 563d b4e3 bfbc a895 b0bb
000000f0: 59b5 993c 2eb6 3c3a 120b 8cbc 4d44 0c3c

weight f4 [64, 64, 3, 3]
0.012950072 0.07625716 0.021920368 0.16133475 0.11854854 -0.00073216227 -0.044590674 -0.013217695
-0.14533032 0.02956981 -0.111331776 0.15608701 -0.05282611 -0.064911075 -0.13405684 -0.0472076
-0.013097059 0.075587 0.06960467 0.04804038 -0.016273718 -0.08595526 -0.08789671 -0.022301689
0.16248015 0.03842983 0.05055928 0.12968943 0.025726175 0.08567051 -0.12974621 -0.008443944
-0.18448408 -0.007457432 -0.03920847 -0.17236958 0.21001168 0.028790055 0.03460389 0.09168591
0.1461628 -0.2022589 -0.02305572 0.03395337 -0.028549047 0.04519124 0.05053582 -0.10683327
-0.011670963 -0.049120694 -0.09310025 0.022217132 0.06140011 -0.17728981 0.087990314 -0.005864524
-0.011696403 0.09964681 -0.046946928 -0.036462776 -0.09956748 0.009950178 -0.054489695 -0.032273915
0.0255888 -0.1837847 0.16172686 -0.077308044 -0.048744787 0.07217369 0.065913014 0.07864021
-0.20544523 -0.07811803 -0.040122982 0.009535288 -0.08717882 -0.12322818 0.050713025 0.008829388
-0.10482621 0.009748238 -0.0023110844 -0.036242407 -0.20099163 -0.034087032 -0.00011949239 0.0015912751
-0.10861001 -0.044995356 0.09127201 -0.055448506 -0.05501224 0.057200976 -0.08415157 -0.13700312
-0.06349189 -0.06004429 -0.12128754 0.00984005 0.021784186 -0.046069555 0.10216767 -0.09670338
-0.06441705 0.03113278 -0.042064577 0.009610099 0.1444851 -0.121699974 -0.017638177 0.123928845
0.012820198 0.06892731 0.019964188 -0.02653217 -0.036170367 -0.08780746 -0.063501574 -0.099431716
0.20073852 -0.025415268 0.05191253 0.11411083 -0.13457404 -1.3523525e-06 -0.1569987 -0.26678687
-0.08397531 -0.02262317 -0.06050159 0.11176315 0.0949041 -0.058244247 -0.08261528 -0.097552836
0.066613965 -0.08222627 -0.027012082 0.013325239 0.01076735 0.0615832 -0.07732176 -0.02720803
-0.008209122 -0.03915102 -0.1970562 -0.10715469 0.06741553 -0.15570688 0.1886774 0.06416189
-0.13311289 -0.008753238 0.0425522 -0.07090269 0.13922831 0.0019032158 -0.04441179 0.13297988
-0.033829674 -0.08792696 0.066884734 0.034549933 -0.03301175 0.006788625 0.00070934644 0.027980031
0.04848366 -0.051297333 -0.02201808 0.11349808 -0.14385128 0.07563067 0.10089671 -0.022413699
-0.059922732 0.036241002 0.0014845921 -0.08106417 -0.14660867 -0.052002642 -0.012976854 -0.08316934
0.04646678 -0.0043713883 -0.004833291 -0.035852354 -0.1876494 0.1451186 0.09643875 0.19146144
-0.13592143 -0.06890592 0.091703616 0.0980312 0.018997217 -0.030297283 -0.0551247 0.075793006
0.047400866 -0.015536807 -0.01014666 0.12979998 -0.08230888 0.007830247 -0.13212267 0.008496458
0.018858435 0.074343905 -0.1458789 -0.084762275 0.09257861 0.020927541 -0.11533861 -0.023630857
0.053427093 -0.23728217 -0.04729144 0.076369286 -0.01195336 0.0996125 -0.04795458 0.009930291
-0.14201012 0.0072593056 -0.034079857 -0.09871102 -0.17832287 -0.053640947 -0.09932952 0.12019345
0.0072388733 -0.04188108 0.12649728 -0.11319545 -0.097962335 0.044365715 -0.08845204 0.0007876227
0.12824257 0.17437437 -0.020854395 0.14682832 0.1664069 -0.01753738 -0.033908065 0.050814413
-0.08705485 -0.0027320331 -0.10207014 -0.0850169 -0.07719783 0.004715394 -0.106918424 -0.063449204
00000000: 8a2c 543c b72c 9c3d 5892 b33c f034 253e
00000010: 94c9 f23d 94ee 3fba b6a4 36bd 088f 58bc
00000020: 79d1 14be 633c f23c ea01 e4bd 46d5 1f3e
00000030: 3160 58bd 19f0 84bd 3246 09be c25c 41bd
00000040: 0c95 56bc 5bcd 9a3d e58c 8e3d fdc5 443d
00000050: 7650 85bc 5009 b0bd 3103 b4bd 08b2 b6bc
00000060: 3261 263e 9968 1d3d 3f17 4f3d 4ecd 043e
00000070: b3bf d23c 0574 af3d 31dc 04be 7858 0abc
00000080: 65e9 3cbe 795d f4bb 1099 20bd a781 30be
00000090: 4d0d 573e 1fd9 eb3c cfbc 0d3d d3c5 bb3d
000000a0: b3ab 153e f51c 4fbe 59df bcbc b012 0b3d
000000b0: b1df e9bc 731a 393d a6fe 4e3d 67cb dabd
000000c0: 9137 3fbc c832 49bd 58ab bebd b400 b63c
000000d0: af7e 7b3d 768b 35be 4434 b43d 312b c0bb
000000e0: 45a2 3fbc a013 cc3d 6c4b 40bd fe59 15bd
000000f0: 09ea cbbd 1206 233c 9630 5fbd a731 04bd
00000100: 9a9f d13c 0e32 3cbe ba9b 253e ae53 9ebd
00000110: 9da8 47bd cdcf 933d 67fd 863d 1e0e a13d
00000120: 3c60 52be 59fc 9fbd ff57 24bd e639 1c3c
00000130: cf8a b2bd 0e5f fcbd 76b8 4f3d 23a9 103c
00000140: 20af d6bd 13b7 1f3c 9075 17bb eb72 14bd
00000150: c0d0 4dbe d89e 0bbd fd97 fab8 5592 d03a
00000160: ed6e debd 0d4d 38bd d2ec ba3d f91d 63bd
00000170: 8454 61bd 924b 6a3d a957 acbd 8c4a 0cbe
00000180: 0908 82bd 00f1 75bd 9a65 f8bd 2938 213c
00000190: c074 b23c 6eb3 3cbd 493d d13d 6c0c c6bd
000001a0: 16ed 83bd 2c0a ff3c e84b 2cbd ad73 1d3c
000001b0: e7f3 133e d63d f9bd f07d 90bc 68ce fd3d
000001c0: cf0b 523c c329 8d3d f08b a33c fe59 d9bc
000001d0: 6127 14bd 66d4 b3bd 1d0d 82bd dba2 cbbd
000001e0: 668e 4d3e ae33 d0bc 3ca2 543d f0b2 e93d
000001f0: c7cd 09be 7a82 b5b5 44c4 20be 4a98 88be
00000200: 3ffb abbd 3a54 b9bc 84d0 77bd 14e4 e43d
00000210: 155d c23d 8591 6ebd 3332 a9bd c8c9 c7bd
00000220: e76c 883d 3f66 a8bd 7148 ddbc 1a52 5a3c
00000230: 8a69 303c aa3e 7c3d df5a 9ebd 60e3 debc
00000240: 8e7f 06bc d25c 20bd 1ac9 49be eb73 dbbd
00000250: 2711 8a3d a071 1fbe a634 413e 4f67 833d
00000260: bf4e 08be be69 0fbc 374b 2e3d 6e35 91bd
00000270: de91 0e3e 5375 f93a 23e9 35bd e12b 083e
00000280: fc90 0abd 0d13 b4bd ddfa 883d 3b84 0d3d
00000290: 5437 07bd 1d73 de3b 6ff3 393a 6136 e53c
000002a0: cd96 463d 271d 52bd 435f b4bc ae71 e83d
000002b0: c04d 13be 41e4 9a3d efa2 ce3d ef9c b7bc
000002c0: 8a71 75bd 7271 143d a596 c23a f904 a6bd
000002d0: 9520 16be b900 55bd df9c 54bc b054 aabd
000002e0: f353 3e3d dd3d 8fbb 9560 9ebb ebd9 12bd
000002f0: 2a27 40be f899 143e ae81 c53d 780e 443e
00000300: fd2e 0bbe 8c1e 8dbd 1bcf bb3d 95c4 c83d
00000310: 0da0 9b3c 0232 f8bc 70ca 61bd 5d39 9b3d
00000320: 6927 423d 178e 7ebc 2d3e 26bc 49ea 043e
00000330: 8f91 a8bd 704a 003c 2a4b 07be ba34 0b3c
00000340: 017d 9a3c 9e41 983d 4761 15be d897 adbd
00000350: db99 bd3d 3c70 ab3c a636 ecbd 8095 c1bc
00000360: 5ed6 5a3d 19fa 72be abb4 41bd 8067 9c3d
00000370: 07d8 43bc a301 cc3d 066c 44bd a9b2 223c
00000380: 1a6b 11be 78df ed3b 5297 0bbd 0129 cabd
00000390: 459a 36be 9cb6 5bbd 466d cbbd fc27 f63d
000003a0: 1234 ed3b 7f8b 2bbd 8188 013e 04d3 e7bd
000003b0: 7aa0 c8bd d3b8 353d 5826 b5bd 7778 4e3a
000003c0: 0552 033e 328f 323e d6d6 aabc 2a5a 163e
000003d0: 9266 2a3e 8daa 8fbc 2fe3 0abd c622 503d
000003e0: d049 b2bd e90b 33bb 260a d1bd 571d aebd
000003f0: e519 9ebd 9883 9a3b 0cf8 dabd a8f1 81bd

bias f4 [64]
0.023468424 0.011595198 0.031098852 0.02961807 -0.03198593 0.04766485 -0.0012809866 -0.03523459
-0.014712158 -0.023332966 0.09638388 0.011330699 -0.029275618 0.092738956 0.103643395 0.075718634
-0.10677071 0.05864816 -0.06407233 0.02654154 0.036320906 0.060299464 0.098264985 0.083928
-0.06788439 0.053542655 -0.042757876 0.033633035 -0.012641422 0.02580084 0.08686788 0.017979732
-0.004449429 0.052757714 0.10811915 0.04596624 0.0448239 -0.113987006 0.08894088 -0.003328287
0.042546224 0.0149761615 0.059948586 -0.057600513 -0.067480184 0.05862626 0.012308766 0.041259766
0.044070624 -0.02495906 0.06334361 0.06049104 -0.039338965 0.037720248 0.06676323 0.007057126
-0.006751247 0.013092652 0.015224875 0.041859016 -0.06297561 0.03639408 -0.022337595 0.0017748186
00000000: da40 c03c c9f9 3d3c 05c3 fe3c 98a1 f23c
00000010: ae03 03bd 383c 433d c7e6 a7ba 2552 10bd
00000020: 430b 71bc c724 bfbc e964 c53d 65a4 393c
00000030: 6cd3 efbc eced bd3d fd42 d43d 5f12 9b3d
00000040: 9aaa dabd 0e39 703d 5b38 83bd a56d d93c
00000050: 3bc5 143d 92fc 763d 273f c93d 71e2 ab3d
00000060: f906 8bbd 8b4f 5b3d e222 2fbd cbc2 093d
00000070: f81d 4fbc 495c d33c c9e7 b13d 3b4a 933c
00000080: 84cc 91bb 7918 583d 936d dd3d 1947 3c3d
00000090: 4499 373d 0572 e9bd a326 b63d 641f 5abb
000000a0: f344 2e3d 935e 753c a68c 753d 84ee 6bbd
000000b0: 0d33 8abd 1722 703d b5aa 493c 0000 293d
000000c0: 6683 343d f176 ccbc 4bba 813d 74c5 773d
000000d0: e521 21bd 8c80 1a3d 29bb 883d 773f e73b
000000e0: 9139 ddbb 9082 563c c171 793c 5c74 2b3d
000000f0: 5bf9 80bd f511 153d 55fd b6bc 08a1 e83a

weight f4 [32, 1024]
-0.044983044 0.05545881 -0.04736528 -0.037437305 -0.04285249 -0.1400126 0.08677439 -0.094306335
-0.039682258 -0.06749445 0.00552499 0.16740824 0.073147595 -0.083714135 -0.1567763 -0.020542921
0.043354947 -0.04326261 0.057471134 0.12419338 0.068532735 0.011104122 0.03280056 0.02662169
-0.00337534 0.02157713 0.0010876617 0.111710906 0.030857796 -0.043748714 0.0025908623 -0.047097005
0.060221344 0.11046284 0.21065342 0.17157073 0.11271485 0.08003795 0.07805822 -0.084000036
0.011390245 0.068198584 -0.12358682 -0.06893449 -0.06493058 0.017718796 -0.0014871473 0.07983607
-0.017191408 -0.03137028 0.07763581 0.061097246 -0.07020057 0.028868904 -0.10225097 -0.07775312
-0.06523652 0.08981129 0.04649478 0.035873357 -0.030370876 -0.04632428 0.024366772 0.040797852
-0.085898355 0.02948517 0.16861394 0.069107436 0.11380275 0.019919727 0.011159421 0.13898037
0.0382642 0.0467774 0.069217615 0.00834098 0.032159545 0.082879834 -0.05950056 -0.0020519865
0.036003392 0.18201293 -0.016963484 0.038632445 -0.055961657 -0.073575415 -0.010969931 -0.112738155
-0.07434613 0.10259816 0.009146316 0.057077114 0.007488638 0.097745374 0.01560092 -0.14507149
-0.085830316 0.06883048 -0.062323418 0.06389367 0.02323446 0.025885472 0.1075788 -0.06818588
0.08534951 0.026794795 0.049410053 0.13851556 -0.030972926 -0.042273372 -0.073018044 0.09439958
0.08148525 0.11479052 0.14649989 0.111857675 -0.05534224 0.13053764 0.05561824 -0.118741974
0.089225926 0.0804695 -0.021430206 -0.07724323 -0.058015607 -0.06779832 -0.09419243 -0.1392704
0.036088295 0.054061864 -0.018002093 0.036327347 0.1065472 -0.027970089 0.083251305 -0.03919139
0.06975713 -0.03466576 -0.07978985 0.047380056 0.038848203 0.010552736 -0.008921897 0.086507715
-0.19310643 -0.121211864 0.0919868 -0.096194655 0.06908809 0.120001495 0.054804083 -0.037447046
0.06605056 -0.0040327786 0.04731708 -0.13483825 0.010050594 0.00016019262 0.09608139 0.07627932
-0.098618 -0.07737946 0.04145596 -0.024326075 -0.09665861 -0.013182066 -0.035185315 0.084267855
-0.00739 -0.10454453 -0.040887572 0.04091846 -0.01158711 0.027251149 -0.123951726 0.050442345
0.05661284 -0.11021243 0.09375341 -0.08738006 -0.06730089 -0.085434854 -0.02466473 -0.13612631
-0.007578896 -0.055954102 0.056148123 0.1368001 0.106290124 0.12054654 0.03526848 0.1341384
0.18595211 -0.010647958 -0.032478936 -0.03678588 -0.015238586 0.023049895 -0.05039412 0.073685326
0.106438324 -0.13189077 -0.00871372 0.07930583 0.11153994 0.061921198 0.016819552 0.027382469
-0.111785 -0.062360276 -0.085700944 -0.0114282165 0.004929909 0.07586831 0.20624644 -0.04619036
0.03325423 -0.015476059 0.00906897 0.045181498 -0.06722223 0.027177656 -0.0474347 -0.12717667
0.06018141 -0.043608047 0.07661205 -0.20695719 -0.052700493 -0.012657003 0.05650445 -0.028788844
0.04623175 -0.061980486 0.034978997 -0.038133383 -0.04550861 -0.014219207 0.00062710786 -0.07870775
-0.02700349 0.053904217 0.044623327 -0.009002249 0.118133046 0.030184904 -0.030593017 -0.045025863
0.029597217 0.006800131 -0.08080193 0.03332513 0.1326408 0.08347301 -0.0014366003 0.04647355
00000000: 2440 38bd c728 633d 1902 42bd dc57 19bd
00000010: 1886 2fbd 775f 0fbe c5b6 b13d ae23 c1bd
00000020: dd89 22bd 883a 8abd fa0a b53b 116d 2b3e
00000030: 68ce 953d 5172 abbd f789 20be a149 a8bc
00000040: f594 313d 2234 31bd da66 6b3d 1959 fe3d
00000050: e45a 8c3d 10ee 353c e159 063d bb15 da3c
00000060: cf34 5dbb 85c2 b03c df8f 8e3a b0c8 e43d
00000070: 7dc9 fc3c da31 33bd 75cb 293b cae8 40bd
00000080: a8aa 763d 573a e23d 88b5 573e 3db0 2f3e
00000090: 0bd7 e63d f0ea a33d fddc 9f3d 3608 acbd
000000a0: 269e 3a3c b3ab 8b3d 161b fdbd 872d 8dbd
000000b0: 53fa 84bd 0227 913c 62ec c2ba 1881 a33d
000000c0: ffd4 8cbc 1f7e 00bd 86ff 9e3d 1b41 7a3d
000000d0: 51c5 8fbd 7b7e ec3c f568 d1bd 073d 9fbd
000000e0: b99a 85bd fbee b73d 4f71 3e3d f1ef 123d
000000f0: 58cc f8bc 87be 3dbd d39c c73c a61b 273d
00000100: 7aeb afbd e28a f13c 22a9 2c3e 3388 8d3d
00000110: 6b11 e93d b22e a33c 01d6 363c df50 0e3e
00000120: ecba 1c3d a999 3f3d f7c1 8d3d 9ba8 083c
00000130: bab9 033d e7bc a93d dcb6 73bd 9f7a 06bb
00000140: 4b78 133d 9961 3a3e 01f7 8abc 0e3d 1e3d
00000150: 0d38 65bd b5ae 96bd 3abb 33bc 43e3 e6bd
00000160: c942 98bd fc1e d23d 6eda 153c b1c9 693d
00000170: 4063 f53b ba2e c83d 009b 7f3c 9f8d 14be
00000180: cec7 afbd fff6 8c3d d746 7fbd afda 823d
00000190: 3256 be3c c50d d43c 4652 dc3d 0aa5 8bbd
000001a0: b9cb ae3d c280 db3c 3262 4a3d 06d7 0d3e
000001b0: efba fdbc d826 2dbd 7c8a 95bd 9154 c13d
000001c0: bde1 a63d 4b17 eb3d 1104 163e a315 e53d
000001d0: 8bae 62bd a9ab 053e f4cf 633d fe2e f3bd
000001e0: 15bc b63d 31cd a43d 668e afbc b331 9ebd
000001f0: c6a1 6dbd d8d9 8abd f6e7 c0bd e69c 0ebe
00000200: 52d1 133d f96f 5d3d 2079 93bc fccb 143d
00000210: 6b35 da3d 8721 e5bc a97f aa3d 2787 20bd
00000220: d4dc 8e3d affd 0dbd dc68 a3bd 9711 423d
00000230: 4b1f 1f3d 62e5 2c3c 262d 12bc f52a b13d
00000240: b1bd 45be ed3d f8bd 9363 bc3d b401 c5bd
00000250: 0e7e 8d3d 58c3 f53d 3f7a 603d 1362 19bd
00000260: 8445 873d 6625 84bb 8ecf 413d 0a13 0abe
00000270: 3fab 243c 61f9 2739 52c6 c43d 5538 9c3d
00000280: 3cf8 c9bd 1f79 9ebd bacd 293d 7a47 c7bc
00000290: f3f4 c5bd 98f9 57bc 7a1e 10bd a094 ac3d
000002a0: d027 f2bb 711b d6bd ba79 27bd 1d9a 273d
000002b0: ddd7 3dbc cd3d df3c 67da fdbd a29c 4e3d
000002c0: dee2 673d 0eb7 e1bd ca01 c03d 51f4 b2bd
000002d0: 0dd5 89bd 78f8 aebd b00d cabc b264 0bbe
000002e0: 6358 f8bb 2130 65bd 93fb 653d 5315 0c3e
000002f0: a3ae d93d 1be1 f63d af75 103d 945b 093e
00000300: 3b6a 3e3e c674 2ebc a208 05bd caac 16bd
00000310: 43ab 79bc 22d3 bc3c 116a 4ebd 55e8 963d
00000320: 56fc d93d 600e 07be fec3 0ebc 186b a23d
00000330: 0d6f e43d 15a1 7d3d 28c9 893c 3351 e03c
00000340: 89ef e4bd 7d6d 7fbd fa83 afbd 6a3d 3bbc
00000350: 138b a13b d860 9b3d 4432 533e 1a32 3dbd
00000360: 9635 083d 4c8f 7dbc 0496 143c 3c10 393d
00000370: cfab 89bd ada3 de3c e34a 42bd 9a3a 02be
00000380: c880 763d 5a9e 32bd c7e6 9c3d 96ec 53be
00000390: 79dc 57bd 515f 4fbc 3671 673d 95d6 ebbc
000003a0: 815d 3d3d 40df 7dbd 2346 0f3d c031 1cbd
000003b0: 3c67 3abd adf7 68bc 7f64 243a 8731 a1bd
000003c0: 6c36 ddbc abca 5c3d f3c6 363d 2b7e 13bc
000003d0: bdef f13d 5546 f73c 359e fabc 0a6d 38bd
000003e0: dd75 f23c a2d3 de3b 7b7b a5bd ee7f 083d
000003f0: fdd2 073e e6f3 aa3d 4f4c bcba 0d5b 3e3d

bias f4 [32]
-0.039155036 0.09897806 0.024755478 -0.089810885 0.12937568 0.062405523 0.041699015 0.0027654578
0.1377781 -0.047473878 0.17948264 0.13218682 0.002932205 -0.0018229586 0.064020395 0.074776545
-0.030536553 -0.00033286572 0.0820851 0.04512425 0.18318686 0.09978781 -0.015800027 0.16224585
0.06826618 0.06090612 -0.074082226 -0.071950845 0.023590056 0.088740095 0.092415355 -0.020307787
00000000: 0861 20bd 02b5 ca3d 00cc ca3c c5ee b7bd
00000010: 0f7b 043e ef9c 7f3d 96cc 2a3d af3c 353b
00000020: b415 0d3e f873 42bd 4cca 373e fb5b 073e
00000030: 3d2a 403b 57f0 eeba 201d 833d 7224 993d
00000040: cb27 fabc 7b84 aeb9 3c1c a83d 35d4 383d
00000050: 5695 3b3e 8d5d cc3d 0f6f 81bc c723 263e
00000060: 24cf 8b3d b278 793d 6cb8 97bd f75a 93bd
00000070: ef3f c13c 5ebd b53d 4344 bd3d 845c a6bc

weight f4 [15, 32]
0.07977978 0.08539767 0.19970208 -0.064864844 -0.10004634 -0.20667747 -0.08044804 0.28531614
0.024099916 0.16646305 -0.06699846 0.09654661 0.15181518 -0.031372033 0.027572019 -0.16816682
0.35214722 0.05877614 0.08068546 -0.08439525 0.029041773 -0.13678311 -0.05170291 -0.14992413
-0.5159653 0.04871377 0.25319406 -0.08398125 -0.24847716 -0.01847217 0.15410873 -0.016622921
-0.03236757 -0.09981203 0.026782196 -0.017359288 -0.06829217 -0.047790498 0.02049442 0.10836405
0.12648842 0.07989897 0.04004937 -0.04442892 -0.0419174 0.27695763 -0.13061161 0.06205225
-0.12787434 0.05383493 0.047485474 -0.062911466 -0.099394634 -0.029892715 -0.17033656 -0.007149005
-0.0675703 -0.10327439 -0.09805557 -0.02954092 0.0062702047 -0.045221344 -0.1058896 0.02074552
-0.09764022 -0.08309498 -0.19512786 0.171794 -0.041161906 -0.10606874 -0.22163016 -0.17008224
-0.1512186 -0.1730847 0.018302135 -0.0562712 0.19106306 0.11459792 0.035582144 -4.3920692e-05
0.1749366 -0.17480347 -0.3121678 0.368824 0.007829842 0.16113722 0.318511 0.042096026
0.07163261 0.0037930307 -0.11016327 -0.15042968 -0.055338893 -0.23006156 -0.26900482 0.08963036
0.13801052 0.08171053 0.11480961 -0.14656065 -0.046108305 -0.11768786 -0.028873978 0.100464925
-0.13988133 0.20652737 -0.060037725 0.011223734 -0.22676718 0.08021849 0.025026623 0.18940456
0.16984561 0.06834726 0.035205796 -0.28125435 -0.0010065681 -0.3117672 -0.044763293 -0.006914779
-0.16423132 -0.0202481 0.27923438 0.10931913 -0.08975769 -0.16141413 0.13896362 0.22758555
-0.012868211 -0.054888137 -0.037983112 -0.09496388 -0.16699216 -0.024219565 -0.0026210125 -0.12776779
0.035133135 0.22104405 -0.082808815 -0.052026805 -0.011806809 0.1057029 0.01939359 0.1389676
-0.09443965 -0.06832416 0.08771599 -0.0086721415 -0.015695821 0.013729997 -0.0946227 -0.15512128
0.037883636 -0.043324158 -0.009651413 -0.14456789 -0.09144947 0.01678207 -0.08400449 -0.0003807451
0.06318819 -0.2274443 -0.30937898 -0.060154237 -0.12152373 0.014314387 0.023021128 -0.001660646
-0.12710159 -0.07982555 0.052828275 -0.123561084 0.095049314 0.07708894 -0.1484216 0.0398078
-0.01958891 0.03866359 -0.043829296 0.22063443 -0.032877225 0.06803649 -0.08698695 0.08365252
0.1635989 -0.097871326 -0.034840174 0.04510223 -0.03559591 -0.046753593 -0.32792544 0.028362054
-0.052172933 -0.06524264 -0.17780834 0.017577467 -0.08902407 -0.12153505 -0.06182141 -0.13321273
-0.12484558 0.01881018 -0.117427126 -0.02581781 -0.19193421 0.021258079 -0.067591675 -0.09170073
-0.07659378 0.007833116 -0.15638924 -0.14226468 -0.11837505 -0.15613903 0.025119605 -0.0873569
-0.21006253 -0.12830223 -0.009955323 -0.057169057 -0.11110381 0.015570197 -0.04235447 0.015372221
-0.02909637 -0.065339945 -0.20320259 0.13932154 -0.06713194 -0.12776992 -0.0774583 0.051966716
-0.18079868 -0.060863443 -0.06436659 -0.1467503 -0.061943047 0.05056322 -0.007329948 -0.00431718
0.041303575 -0.1363025 -0.20587026 -0.03344623 -0.048588175 -0.1213681 0.03127715 -0.007104526
-0.057858482 -0.057975836 -0.09527767 -0.028024862 -0.10777867 -0.09079865 -0.058439966 -0.010607635
00000000: 9563 a33d f9e4 ae3d b47e 4c3e dcd7 84bd
00000010: 18e5 ccbd 42a3 53be f1c1 a4bd f514 923e
00000020: 306d c53c 4a75 2a3e 7d36 89bd 3bba c53d
00000030: 7075 1b3e f67f 00bd b7de e13c ec33 2cbe
00000040: a44c b43e 40bf 703d 6b3e a53d 6bd7 acbd
00000050: 03e9 ed3c df10 0cbe 6ec6 53bd b685 19be
00000060: 4d16 04bf 1788 473d a7a2 813e 5dfe abbd
00000070: cc70 7ebe f352 97bc aece 1d3e cb2c 88bc
00000080: db93 04bd 406a ccbd 5666 db3c 1135 8ebc
00000090: c4dc 8bbd f8bf 43bd eae3 a73c f9ed dd3d
000000a0: 2e86 013e 12a2 a33d cf0a 243d 19fb 35bd
000000b0: 94b1 2bbd 64cd 8d3e 0dbf 05be 802a 7e3d
000000c0: 7ef1 02be 0482 5c3d 2180 423d bad7 80bd
000000d0: 6a8f cbbd 91e1 f4bc b56c 2ebe 3342 eabb
000000e0: 4c62 8abd 8681 d3bd 5cd1 c8bd cdff f1bc
000000f0: 4a76 cd3b 043a 39bd a6dc d8bd 82f2 a93c
00000100: 98f7 c7bd b32d aabd 99cf 47be c4ea 2f3e
00000110: 6399 28bd 913a d9bd 04f3 62be 0a2a 2ebe
00000120: 0cd9 1abe 1e3d 31be 5cee 953c a17c 66bd
00000130: 09a6 433e 50b2 ea3d 95be 113d 7c37 38b8
00000140: 9422 333e aeff 32be 75d4 9fbe 80d6 bc3e
00000150: bd48 003c 2801 253e e013 a33e e26c 2c3d
00000160: 1eb4 923d 7f94 783b 489d e1bd 3d0a 1abe
00000170: 09ab 62bd 4295 6bbe 00bb 89be 1f90 b73d
00000180: a152 0d3e da57 a73d 4d21 eb3d ff13 16be
00000190: 10dc 3cbd 5506 f1bd 1f89 ecbc 8ec0 cd3d
000001a0: 0d3d 0fbe e97b 533e 1eea 75bd c1e3 373c
000001b0: a835 68be 9749 a43d a204 cd3c 45f3 413e
000001c0: 02ec 2d3e a6f9 8b3d f433 103d 9200 90be
000001d0: d2ee 83ba f39f 9fbe b759 37bd 5f95 e2bb
000001e0: 412c 28be 58df a5bc cff7 8e3e b5e2 df3d
000001f0: e1d2 b7bd bf49 25be 7b4c 0e3e 300c 693e
00000200: 30d5 52bc 62d2 60bd 2e94 1bbd 6c7c c2bd
00000210: feff 2abe 1c68 c6bc 4bc5 2bbb 8fd5 02be
00000220: c3e7 0f3d 5f59 623e ab97 a9bd 0f1a 55bd
00000230: 5971 41bc c37a d83d 4edf 9e3c 864d 0e3e
00000240: 9369 c1bd 8aed 8bbd 71a4 b33d 9915 0ebc
00000250: 8694 80bc c8f3 603c 8cc9 c1bd 1dd8 1ebe
00000260: df2b 1b3d ac74 31bd f620 1ebc 9b09 14be
00000270: dc49 bbbd 8d7a 893c 8c0a acbd be9e c7b9
00000280: cf68 813d 29e7 68be ec66 9ebe 4a64 76bd
00000290: 6fe1 f8bd e486 6a3c ce96 bc3c 09aa d9ba
000002a0: eb26 02be 947b a3bd 7662 583d 980d fdbd
000002b0: 37a9 c23d cee0 9d3d d5fb 17be 810d 233d
000002c0: ec78 a0bc b65d 1e3d 5986 33bd feed 613e
000002d0: 45aa 06bd b756 8b3d 3726 b2bd 0352 ab3d
000002e0: 7886 273e c370 c8bd 92b4 0ebd 1ebd 383d
000002f0: 04cd 11bd b280 3fbd d8e5 a7be 8a57 e83c
00000300: 49b3 55bd ef9d 85bd 6413 36be 9ffe 8f3c
00000310: 4052 b6bd 5ee7 f8bd 7238 7dbd eb68 08be
00000320: 0aaf ffbd ce17 9a3c a27d f0bd df7f d3bc
00000330: 678a 44be 6c25 ae3c 816d 8abd 98cd bbbd
00000340: 33dd 9cbd 7856 003c 8024 20be d5ad 11be
00000350: 9e6e f2bd e9e2 1fbe a1c7 cd3c 2de8 b2bd
00000360: a21a 57be a961 03be a71b 23bc 1a2a 6abd
00000370: 658a e3bd 241a 7f3c e17b 2dbd c5db 7b3c
00000380: 835b eebc f3d0 85bd 5714 50be 4eaa 0e3e
00000390: 787c 89bd 1ed6 02be 75a2 9ebd 0ddb 543d
000003a0: 4a23 39be f24b 79bd a1d2 83bd b645 16be
000003b0: feb7 7dbd 611b 4f3d 0f30 f0bb 2177 8dbb
000003c0: f02d 293d e292 0bbe a7cf 52be eafe 08bd
000003d0: 6504 47bd d78f f8bd 781c 003d 15cd e8bb
000003e0: 04fd 6cbd 1278 6dbd f020 c3bd 6594 e5bc
000003f0: 10bb dcbd a5f4 b9bd bf5e 6fbd a5cb 2dbc

bias f4 [15]
-0.017505588 -0.01423314 0.0505973 0.008076786 -0.0006587272 0.044774365 -0.10367781 -0.07386486
0.0012315179 0.043228094 -0.00023894134 -0.0009290386 0.034172345 0.014671643 0.020102601
00000000: e167 8fbc 1e32 69bc 1d3f 4f3d 7f54 043c
00000010: 6fae 2cba 5365 373d 0855 d4bd 7646 97bd
00000020: e26a a13a f10f 313d 548c 7ab9 ba8a 73ba
00000030: 4df8 0b3d 5561 703c 36ae a43c

weight f4 [1, 32]
-0.0034726642 0.008343378 0.097492725 -0.04525887 0.102445945 0.04117906 0.11993025 -0.0008497781
0.07180774 -0.039517827 0.07282557 0.05773727 0.010599484 0.021552527 0.0024517218 0.032911517
-0.03242692 0.0041210824 0.05594984 0.009814211 0.07698054 0.037044667 -0.015915845 0.09811289
0.103919476 0.002674 -0.025528641 -0.02919882 0.04381233 0.099195346 0.024559407 -0.033965696
00000000: a395 63bb aab2 083c 44aa c73d 5d61 39bd
00000010: 2ecf d13d 60ab 283d fe9d f53d a5c3 5eba
00000020: f00f 933d 72dd 21bd 9325 953d ea7d 6c3d
00000030: 75a9 2d3c ed8e b03c 11ad 203b 3ace 063d
00000040: 17d2 04bd 250a 873b a92b 653d c9cb 203c
00000050: f9a7 9d3d 26bc 173d f261 82bc 69ef c83d
00000060: bcd3 d43d 473e 2f3b 7121 d1bc 5d32 efbc
00000070: 8f74 333d ee26 cb3d cf30 c93c 9d1f 0bbd
