exp/100levels-policy.pt (torch, 443935 bytes, 11 tensors)

weight f4 [32, 3, 8, 8]
-0.07889138 0.09203979 0.18613489 -0.050182033 0.1005975 0.05224659 0.06873224 -0.060727283
-0.090802945 -0.026359303 -0.10950961 -0.2668635 -0.0075624185 0.14028086 -0.034750916 0.048019543
-0.0011204262 0.035671078 0.23163772 -0.03381135 -0.12683402 -0.0034412378 -0.048379783 0.05503203
0.24979931 0.21077932 0.079952665 -0.10210781 0.07023252 -0.04630433 -0.08694345 -0.16052711
-0.14251758 -0.12511152 -0.0793203 0.05552236 0.15901983 0.15535954 0.24198136 0.16539599
0.06354312 -0.108268805 0.042991668 0.100531265 0.02745155 0.10699181 -0.00975006 0.087996885
0.2453864 0.07578805 -0.04412025 0.14124891 0.1688315 -0.19368003 -0.1289155 0.09031229
-0.27633473 -0.07031511 0.18720584 0.01641764 0.25873697 0.19354872 -0.082654655 0.020919442
-0.039045915 0.11237661 0.041738585 0.13235338 -0.06944992 0.32878628 -0.13873444 0.025877764
-0.1148784 -0.11861686 -0.12035806 0.07307463 0.05878342 0.12527841 0.05643042 0.10210797
0.1404779 0.053911954 0.13403618 0.102738805 -0.08753221 -0.0021797249 -0.09551705 0.061659694
0.2713546 0.06044767 0.16039465 6.80984e-05 0.041852016 -0.02261976 0.012404193 -0.18402332
-0.124118656 -0.13616906 -0.17164317 -0.18744104 -0.033246927 0.087263204 0.06306085 -3.9314848e-05
0.08129301 -0.02984558 -0.17026998 0.19991355 0.07722347 -0.089827046 -0.15822352 0.098781146
0.14999296 0.021836624 0.011962369 0.09413151 0.33462754 -0.0014087416 0.05899453 -0.016250223
-0.039890092 0.101723336 -0.024359219 -0.06537028 -0.046981487 0.00603068 0.2700339 0.1501895
-0.12300556 0.11228132 -0.13290219 -0.120371915 -0.09175961 0.062463727 -0.13695121 -0.1219745
0.13603207 -0.024386447 -0.03364725 0.0036504983 0.00456661 -0.23891401 -0.26849648 -0.022238977
0.06710795 0.13358915 -0.14749436 -0.029548025 0.098609984 -0.07673741 -0.13090104 -0.19794981
-0.0144810155 -0.113883585 -0.20603773 0.104695134 0.10873368 0.088070326 -0.0674589 0.022619033
-0.13391815 -0.15278044 -0.14263618 -0.14044096 -0.25197616 -0.15444954 -0.025889976 0.13552982
0.03540344 0.08422157 -0.15241826 -0.09115124 -0.28726932 -0.2606414 -0.07576097 -0.13377419
-0.113085315 0.0011578002 -0.25587648 -0.24247156 -0.32245505 -0.0831166 -0.179682 -0.06707866
-0.05046558 -0.06637338 -0.14191312 -0.47168064 -0.20787102 -0.29388893 0.032534577 -0.1455805
0.0096284235 -0.036880955 -0.051144853 -0.006916078 -0.0032960384 -0.34692705 -0.35327634 -0.22238116
-0.13855748 -0.035307568 -0.05414374 0.029480264 -0.016136214 -0.008117315 0.08587435 0.15321162
-0.083230585 0.1379554 -0.052560054 0.060044173 -0.09116878 -0.030187923 0.06514168 0.024996206
-0.010540279 -0.16634986 -0.07598785 0.0016522205 0.22189721 -0.010415642 0.011160203 -0.11026227
-0.0103874635 -0.022052161 0.1932353 -0.1989675 -0.04683834 0.09700325 0.01263633 0.07644176
0.03163354 -0.11098205 -0.08526581 -0.09051589 -0.016792113 -0.052677244 -0.03311224 -0.09271009
-0.026176706 0.070696644 -0.0473311 0.05471552 -0.10960607 -0.16156185 0.0017250497 0.13992506
0.1802944 -0.013315944 -0.22250843 -0.19460772 -0.11147686 -0.18002972 -0.22644214 -0.5198484
00000000: ce91 a1bd 5b7f bc3d 259a 3e3e ad8b 4dbd
00000010: 1006 ce3d 8500 563d 7dc3 8c3d 2cbd 78bd
00000020: e5f6 b9bd 77ef d7bc 9346 e0bd 55a2 88be
00000030: 2ace f7bb c9a5 0f3e fa56 0ebd 24b0 443d
00000040: 44db 92ba d61b 123d 7032 6d3e c57d 0abd
00000050: c7e0 01be 6486 61bb e129 46bd 4469 613d
00000060: 64cb 7f3e 89d6 573e 39be a33d e61d d1bd
00000070: 11d6 8f3d 9ca9 3dbd 680f b2bd 3861 24be
00000080: 21f0 11be 3c1d 00be ae72 a2bd 6a6b 633d
00000090: 18d6 223e 9216 1f3e f6c9 773e 915d 293e
000000a0: e522 823d 09bc ddbd 0818 303d 56e3 cd3d
000000b0: 13e2 e03c 861e db3d b7be 1fbc b637 b43d
000000c0: 9346 7b3e c436 9b3d 6fb7 34bd 8ea3 103e
000000d0: 2ae2 2c3e 0f54 46be 6d02 04be a6f5 b83d
000000e0: bf7b 8dbe 5e01 90bd e3b2 3f3e 497e 863c
000000f0: 2c79 843e a331 463e d846 a9bd 405f ab3c
00000100: 9cee 1fbd b525 e63d 14f6 2a3d a587 073e
00000110: c23b 8ebd ad56 a83e 6710 0ebe 9bfd d33c
00000120: 5e45 ebbd 65ed f2bd 497e f6bd 27a8 953d
00000130: e2c6 703d fc48 003e 9623 673d fc1d d13d
00000140: 70d9 0f3e c8d2 5c3d c840 093e b968 d23d
00000150: 1644 b3bd b7d9 0ebb 719e c3bd e08e 7c3d
00000160: fdee 8a3e fa97 773d 7f3e 243e 0dd0 8e38
00000170: 056d 2b3d 134d b9bc f53a 4b3c 9c70 3cbe
00000180: ec31 febd e76f 0bbe 3ac3 2fbe 8bf0 3fbe
00000190: ee2d 08bd 0db7 b23d 0c26 813d ffe5 24b8
000001a0: f37c a63d b87e f4bc 415b 2ebe 23b6 4c3e
000001b0: 5727 9e3d 3ef7 b7bd 5905 22be c54d ca3d
000001c0: c197 193e b8e2 b23c d0fd 433c 05c8 c03d
000001d0: 4d54 ab3e 86a5 b8ba 40a4 713d 301f 85bc
000001e0: cb63 23bd 5354 d03d fc8c c7bc dae0 85bd
000001f0: a96f 40bd 039d c53b e241 8a3e 47cb 193e
00000200: 57ea fbbd c0f3 e53d 8317 08be 8d85 f6bd
00000210: 76ec bbbd f7d9 7f3d f03c 0cbe c4cd f9bd
00000220: fe4b 0b3e 16c6 c7bc b3d1 09bd 333d 6f3b
00000230: 80a3 953b e0a5 74be 5f78 89be 842e b6bc
00000240: e56f 893d 98cb 083e c308 17be b30e f2bc
00000250: 08f4 c93d 8128 9dbd ec0a 06be 5bb3 4abe
00000260: c841 6dbc cc3b e9bd 8efb 52be 676a d63d
00000270: c3af de3d 375e b43d e427 8abd 8d4b b93c
00000280: d721 09be 7a72 1cbe 380f 12be c1cf 0fbe
00000290: 0503 81be 0528 1ebe 3717 d4bc 54c8 0a3e
000002a0: 3303 113d 5c7c ac3d 8813 1cbe 80ad babd
000002b0: f714 93be ca72 85be 9128 9bbd 1afc 08be
000002c0: 4699 e7bd 54c1 973a 3e02 83be 774a 78be
000002d0: d418 a5be 0939 aabd 8ffe 37be 8960 89bd
000002e0: ffb4 4ebd c4ee 87bd ac51 11be 2080 f1be
000002f0: 24dc 54be 9c78 96be fa42 053d 0e13 15be
00000300: 89c0 1d3c 7c10 17bd 447d 51bd 44a0 e2bb
00000310: 5902 58bb 6ca0 b1be a3e0 b4be e3b7 63be
00000320: 03e2 0dbe ab9e 10bd d4c5 5dbd 9880 f13c
00000330: 1830 84bc 7dfe 04bc e4de af3d 82e3 1c3e
00000340: cc74 aabd 2e44 0d3e 3649 57bd e1f0 753d
00000350: b3b6 babd aa4c f7bc 0069 853d d8c4 cc3c
00000360: 22b1 2cbc 9e57 2abe 859f 9bbd 528f d83a
00000370: 0639 633e 5ea6 2abc 49d9 363c 2fd1 e1bd
00000380: 2e30 2abc bca6 b4bc 79df 453e 23be 4bbe
00000390: 8fd9 3fbd a4a9 c63d 9c08 4f3c 7f8d 9c3d
000003a0: 2c92 013d 8f4a e3bd d79f aebd 6560 b9bd
000003b0: 9d8f 89bc 18c4 57bd b3a0 07bd cade bdbd
000003c0: 8870 d6bc 67c9 903d 41de 41bd 621d 603d
000003d0: 2679 e0bd 7870 25be 101b e23a 8448 0f3e
000003e0: 189f 383e 1e2b 5abc 40d9 63be 3f47 47be
000003f0: fb4d e4bd b659 38be 73e0 67be c914 05bf

bias f4 [32]
-0.011054967 0.0048566028 -0.0017931584 0.025931682 -0.016518114 -0.01437858 -0.009744917 -0.020226693
-0.0018696791 0.0023439063 0.013116272 -0.0044296877 0.022438997 -0.0003697073 -0.003692259 -0.0039009545
-0.009542527 -8.679572e-05 0.0042735487 0.0010483062 -0.009322985 -0.003152476 -0.008657425 -0.013495865
-0.0023420884 -0.00041177857 0.015082373 -0.006164388 -0.004648041 -0.0013697953 -0.013553234 0.0012382591
00000000: e41f 35bc 2324 9f3b 6908 ebba ae6e d43c
00000010: ff50 87bc 2394 6bbc 25a9 1fbc 73b2 a5bc
00000020: 0510 f5ba 399c 193b a2e5 563c ea26 91bb
00000030: fdd1 b73c 46d5 c1b9 d4f9 71bb 28a7 7fbb
00000040: 4258 1cbc 1906 b6b8 2009 8c3b 5267 893a
00000050: 6fbf 18bc c599 4ebb dfd7 0dbc c31d 5dbc
00000060: b97d 19bb fce3 d7b9 0f1c 773c a2fe c9bb
00000070: 984e 98bb b48a b3ba 620e 5ebc 154d a23a

weight f4 [64, 32, 4, 4]
0.09971111 0.03372212 0.12341178 -0.05442702 0.016606981 0.07775726 0.059175577 0.019287152
-0.01626255 0.14968756 0.019356333 0.09300001 -0.3154627 -0.088156484 -0.10628949 0.08073888
0.0703579 -0.01888821 0.013855892 -0.086606234 0.13887054 0.19697367 0.11117176 0.06475935
-0.010048294 0.020450806 -0.18621115 0.042504545 -0.12542662 -0.16844057 0.1067215 0.024105664
0.16150387 0.19724956 0.09619034 0.088603005 0.03400391 0.100759365 0.107864566 0.1339979
0.041161064 -0.12336643 0.17041795 -0.056150444 -0.21123694 -0.005867175 0.13451636 -0.086791515
0.007733186 0.089699134 0.1370085 -0.04884978 -0.021187188 -0.05670699 0.062644795 0.05231917
-0.067866825 0.020090302 0.03230237 -0.0563998 -0.047473654 -0.05527129 0.012169726 -0.064685114
-0.10997573 -0.07191601 0.018845132 -0.0046551013 0.0025775824 -0.07003652 0.044273145 0.0045314613
-0.06673317 -0.08507144 0.07476783 -0.058851004 -0.51830006 -0.25547504 0.035695277 0.091862984
-0.05405618 -0.027664876 0.049310576 0.00011502356 0.044915233 0.018514823 0.03532622 -0.022643693
0.061572433 -0.23923163 -0.0070526614 -0.03451058 -0.24676865 -0.1421919 -0.09731723 -0.088914216
0.15718465 0.12214036 0.022041006 0.09750073 0.18223107 0.11371164 -0.059040517 0.095632665
-0.20010048 -0.17396744 -0.18545583 0.0035575023 -0.12547496 -0.13706009 -0.065997474 -0.09998589
0.04960432 -0.12478157 -0.037920304 0.0467354 0.07903945 0.008645855 0.12838721 0.06251226
-0.10711678 0.0122034 0.0027448833 -0.087600105 -0.19993317 -0.16906963 -0.12797834 0.047380887
0.045987647 0.11608081 0.05878029 -0.028033838 0.057802916 0.05864046 0.02967703 0.12229568
-0.11444645 -0.031499773 -0.055674843 -0.1920899 -0.23109114 0.008464749 0.098572254 -0.003862451
0.18340848 -0.026197877 0.18339501 0.06346232 0.14370073 -0.088392004 0.021514812 0.002586314
0.06964033 0.11423327 0.039123133 0.13616136 -0.4626626 -0.27081665 -0.19126858 -0.04968183
0.16341817 0.039707147 0.019817233 0.13242663 0.16019629 0.119305395 -0.031356685 -0.028618893
0.028532911 -0.15550494 0.0612901 0.03298819 -0.029461104 -0.030731047 -0.0619957 0.09615165
0.14266351 0.000427569 0.017249009 -0.0566802 0.08069211 0.10277404 0.011421484 0.08067417
0.2170518 0.11047773 0.036608025 -0.014036217 -0.10363518 -0.22759755 -0.10941568 0.09496085
-0.0799679 0.058143914 0.022350574 -0.022697058 0.048591398 0.013225668 -0.002059808 -0.012848484
-0.073840044 0.006430583 0.15467946 0.054536648 -0.32005814 -0.005743819 -0.025419172 0.13821271
0.044369653 0.0481803 -0.027000958 -0.08527776 0.12092652 0.08932277 0.1721568 0.16926126
-0.009225448 -0.017268062 -0.037884623 -0.06299703 -0.15689397 -0.12730575 0.02414758 0.08770213
0.12929974 0.06995245 -0.013433145 0.096083194 0.047620676 0.13597362 -0.0026222437 -0.098600805
-0.08207591 0.08824709 0.033699248 0.10412748 -0.18927523 -0.2256788 0.062357616 -0.02585746
-0.024744004 -0.079815485 -0.03603681 -0.04899802 0.039860554 -0.12538151 -0.039080434 0.033498667
0.007216266 0.004835029 0.08654344 -0.02736213 -0.2488299 -0.022863049 -0.21149522 -0.10300148
00000000: 5735 cc3d 3520 0a3d 51bf fc3d deee 5ebd
00000010: 5d0b 883c 333f 9f3d 1762 723d 1700 9e3c
00000020: 0a39 85bc b247 193e 2c91 9e3c ca76 be3d
00000030: 5484 a1be 638b b4bd 4eae d9bd 6d5a a53d
00000040: cd17 903d 73bb 9abc d303 633c 9c5e b1bd
00000050: 1434 0e3e 77b3 493e 05ae e33d 8da0 843d
00000060: 9aa1 24bc 7388 a73c 23ae 3ebe 3f19 2e3d
00000070: d66f 00be af7b 2cbe cd90 da3d 3e79 c53c
00000080: 4561 253e cafb 493e 71ff c43d 7e75 b53d
00000090: af47 0b3d ed5a ce3d 19e8 dc3d bf36 093e
000000a0: 8198 283d 8aa7 fcbd 0b82 2e3e 02fe 65bd
000000b0: 7f4e 58be 6e41 c0bb a8be 093e c0bf b1bd
000000c0: aa66 fd3b 2eb4 b73d f54b 0c3e b516 48bd
000000d0: c190 adbc 9745 68bd ea4b 803d a04c 563d
000000e0: c3fd 8abd 6b94 a43c 7d4f 043d 7a03 67bd
000000f0: bc73 42bd 2664 62bd 8863 473c a179 84bd
00000100: f53a e1bd b348 93bd 1b61 9a3c d289 98bb
00000110: a8ec 283b 4f6f 8fbd c257 353d a77c 943b
00000120: 66ab 88bd ef39 aebd e01f 993d c00d 71bd
00000130: 50af 04bf a0cd 82be 3635 123d a922 bc3d
00000140: 036a 5dbd 73a1 e2bc e3f9 493d ce38 f138
00000150: 09f9 373d 66ac 973c 3ab2 103d 447f b9bc
00000160: 6033 7c3d 23f9 74be 031a e7bb f75a 0dbd
00000170: ecb0 7cbe c19a 11be 424e c7bd a818 b6bd
00000180: 03f5 203e ba24 fa3d 578f b43c 76ae c73d
00000190: c89a 3a3e a6e1 e83d 78d4 71bd 0fdb c33d
000001a0: 24e7 4cbe 8524 32be 22e8 3dbe fc24 693b
000001b0: 827c 00be 7b59 0cbe af29 87bd 67c5 ccbd
000001c0: e62d 4b3d 7b8d ffbd 5252 1bbd 9e6d 3f3d
000001d0: 6fdf a13d 58a7 0d3c f077 033e 6e06 803d
000001e0: 0b60 dbbd c5f0 473c 80e3 333b af67 b3bd
000001f0: 48bb 4cbe 9720 2dbe c10c 03be 7612 423d
00000200: 8b5d 3c3d c7bb ed3d 9ac3 703d 38a7 e5bc
00000210: c0c2 6c3d fb30 703d 3e1d f33c 2876 fa3d
00000220: e662 eabd e805 01bd 4e0b 64bd 37b3 44be
00000230: 28a3 6cbe bbaf 0a3c 40e0 c93d 2d21 7dbb
00000240: 6fcf 3b3e ee9c d6bc e7cb 3b3e 88f8 813d
00000250: 4926 133e de06 b5bd d53f b03c 267f 293b
00000260: 979f 8e3d 22f3 e93d 943f 203d e26d 0b3e
00000270: 1de2 ecbe 7ba8 8abe e9db 43be 2d7f 4bbd
00000280: 1857 273e f6a3 223d c057 a23c d99a 073e
00000290: 7f0a 243e 6356 f43d de6f 00bd 2b72 eabc
000002a0: dabd e93c b03c 1fbe 540b 7b3d a01e 073d
000002b0: 6a58 f1bc adbf fbbc 34ef 7dbd 28eb c43d
000002c0: 6216 123e 572b e039 cb4d 8d3c 7f29 68bd
000002d0: e841 a53d 327b d23d 2d21 3b3c 8038 a53d
000002e0: d442 5e3e 2642 e23d 4cf2 153d 29f8 65bc
000002f0: ae3e d4bd 550f 69be 5415 e0bd d67a c23d
00000300: 36c6 a3bd 5028 6e3d 8d18 b73c 2eef b9bc
00000310: c607 473d 79b0 583c d8fd 06bb 7382 52bc
00000320: 7339 97bd a4b7 d23b 4b64 1e3e d261 5f3d
00000330: a9de a3be a536 bcbb de3b d0bc a287 0d3e
00000340: f4bc 353d b558 453d 1d31 ddbc 1ba6 aebd
00000350: 53a8 f73d dbee b63d df49 303e d352 2d3e
00000360: 5526 17bc c075 8dbc e82c 1bbd 9604 81bd
00000370: d0a8 20be 705c 02be 25d1 c53c 2d9d b33d
00000380: 2767 043e 3b43 8f3d b216 5cbc 44c7 c43d
00000390: e60d 433d ab3c 0b3e f3d9 2bbb 38ef c9bd
000003a0: 6a17 a8bd e4ba b43d 3908 0a3d ca40 d53d
000003b0: 5ed1 41be 5818 67be b36a 7f3d 06d3 d3bc
000003c0: f0b3 cabc 4d76 a3bd 569b 13bd 26b2 48bd
000003d0: d244 233d 0364 00be ce12 20bd e635 093d
000003e0: 6d76 ec3b 2a6f 9e3b b03d b13d 8c26 e0bc
000003f0: 44cd 7ebe 4a4b bbbc 3492 58be 71f2 d2bd

bias f4 [64]
-0.0027954543 0.065174654 -0.013673272 0.02835329 0.04178689 -0.031258382 -0.029611703 -0.032049
0.025439657 0.051068258 -0.013683321 -0.023222689 0.015112634 0.009909644 0.024355955 -0.012317072
-0.03042431 0.025523381 0.1172887 -0.03193308 -0.044405706 0.005460444 0.10387302 -0.009471891
-0.0960779 0.03636824 -0.0037799939 0.0050940095 0.08004866 -0.06535387 -0.011582952 0.034219306
-0.12063261 -0.0550299 -0.056160603 0.01879804 -0.031304665 0.020255944 0.008060612 0.028426811
-0.0042186305 0.06826904 0.010813225 -0.0061029936 0.0041281194 0.010642854 -0.00989225 0.12671779
0.032692794 -0.006384854 0.07760467 0.0012404382 0.03635205 -0.009592875 0.008658125 -0.020481994
-0.021303136 -0.0070321327 0.0064744977 0.01273507 -0.080443904 -0.02926928 -0.0016610665 -0.020376034
00000000: f133 37bb 4a7a 853d dc05 60bc 2945 e83c
00000010: bb28 2b3d ca08 00bd 3e94 f2bc d045 03bd
00000020: d466 d03c f32c 513d 0230 60bc 823d bebc
00000030: fb9a 773c 0f5c 223c 2486 c73c 8bcd 49bc
00000040: 673c f9bc 6916 d13c 0f35 f03d 43cc 02bd
00000050: c2e2 35bd 86ed b23b 61bb d43d fe2f 1bbc
00000060: 7dc4 c4bd ddf6 143d c6b9 77bb a6eb a63b
00000070: 8df0 a33d 40d8 85bd 6cc6 3dbc 8b29 0c3d
00000080: 3b0e f7bd 0867 61bd a908 66bd 59fe 993c
00000090: 5239 00bd cbef a53c a810 043c 58df e83c
000000a0: 703c 8abb a3d0 8b3d f429 313c 9ffb c7bb
000000b0: 2d45 873b 5d5f 2e3c 1b13 22bc 4fc2 013e
000000c0: e1e8 053d 0a38 d1bb 32ef 9e3d 3396 a23a
000000d0: e3e5 143d 6f2b 1dbc cfda 0d3c dbc9 a7bc
000000e0: ea83 aebc ce6d e6bb 0628 d43b c1a6 503c
000000f0: c6bf a4bd 21c6 efbc 25b8 d9ba a4eb a6bc

weight f4 [64, 64, 3, 3]
0.17550349 0.08911484 0.021669125 0.12544423 0.040103212 -0.046447307 -0.043302678 -0.004808781
-0.078845054 0.0057358625 -0.009468887 0.029050177 -0.08238469 0.03275135 -0.11979894 -0.089742586
0.0366691 0.12442229 -0.011584305 -0.09374964 0.004129788 -0.03296732 -0.016269894 -0.09555535
0.20204997 0.011703078 0.09757575 0.106525384 0.0437989 0.07137204 -0.18117946 -0.00532487
-0.08043981 -0.10585491 -0.06638316 0.028118184 0.19987239 0.10003697 0.049822208 0.03713917
0.07736261 -0.12430496 0.031270538 0.031048972 -0.097804286 0.0756194 0.1170838 -0.047106225
-0.029463269 -0.015808666 -0.0166842 0.04798651 0.013401829 -0.19416115 0.19490774 -0.11463351
-0.08528097 0.23008491 -0.0033867995 -0.008963881 0.100669034 0.08204952 -0.037456803 0.044117905
-0.026481083 -0.053003784 0.05327993 -0.13680312 0.03900843 -0.048387922 0.096500285 0.028259162
0.05335589 -0.11252108 -0.120591916 0.102597326 0.039979637 0.02435365 0.035493024 0.13993156
-0.058557924 -0.029892925 -0.0067060576 -0.16284543 -0.051241793 -0.028575465 -0.112617314 -0.090443395
-0.010486291 0.018536925 -0.02408709 -0.08144739 -0.026730679 0.010259282 -0.17200452 0.0059137125
0.08292831 -0.018591978 -0.026857097 0.051379696 -0.102626145 0.043963145 0.13916074 -0.011016048
-0.009312794 0.07359031 -0.04577502 -0.10210393 0.19646813 -0.03381539 -0.03340529 0.023865376
-0.002709949 0.05814973 -0.0844654 0.020997357 -0.049766965 0.045824133 -0.07936648 -0.04995847
0.17975044 -0.021428073 0.09684602 0.008685336 -0.019302731 0.11404428 -0.14085254 -0.15766083
-0.107689545 0.003504758 0.033887595 0.14920978 0.18008429 -0.0053578387 0.04825708 -0.047752146
0.01649039 -0.08600535 -0.0630234 -0.04908558 -0.01581808 0.12255556 -0.039906025 -0.08095449
0.017685467 -0.14294119 -0.007501663 -0.010436716 0.071522266 -0.07428771 0.12599853 0.13687268
-0.18494149 -0.16731666 -0.14984462 0.00638274 0.11158716 0.12510788 -0.11282621 0.06895119
0.16192411 -0.029216805 0.16777052 0.03199961 0.09227031 -0.04659055 -0.07283813 0.023618082
0.08220278 0.081663 -0.004436025 0.05866916 -0.18359673 0.020531124 0.001523553 -0.11195593
-0.10519547 0.030204637 0.035455264 0.0011597177 -0.163208 0.08530584 0.0672787 -0.1215888
0.06387341 -0.09384333 0.037678875 0.089590564 -0.007502222 -0.1372351 0.046621017 0.13501798
-0.10428398 -0.029855154 0.1829941 0.10182161 -0.100580715 -0.01887315 0.100299545 0.11250421
0.077573135 0.00730108 0.086796105 0.11717247 -0.17445394 0.04389669 0.022254286 0.0058234334
-0.025168853 -0.08034281 -0.105306 -0.021612126 0.17602357 0.015067419 -0.013346864 0.07873914
0.055587552 -0.075511016 -0.00028368397 0.0515906 0.016733533 0.06900114 -0.019770425 -0.018337395
-0.06062555 0.0013874421 0.0154791195 -0.06464594 -0.023358129 0.032104444 0.0014603924 -0.15945703
-0.009619097 -0.14932434 -0.013832178 -0.117339715 0.08398952 0.0417216 -0.17479797 0.20569764
0.07105976 0.027121412 -0.04179039 0.1550737 0.13514346 0.037440047 -0.06383988 0.06826249
0.016965972 -0.06929733 -0.039864387 -0.10499844 -0.029643461 0.0843601 -0.10377828 -0.03475025
00000000: 30b7 333e d781 b63d 7383 b13c 7474 003e
00000010: 4443 243d 883f 3ebd 265e 31bd fb92 9dbb
00000020: 8479 a1bd e7f3 bb3b 6423 1bbc a3fa ed3c
00000030: 4eb9 a8bd 4826 063d 2659 f5bd f6ca b7bd
00000040: 5732 163d 1dd1 fe3d 19cc 3dbc d0ff bfbd
00000050: 2c53 873b be08 07bd 7148 85bc 86b2 c3bd
00000060: 30e6 4e3e 44be 3f3c cbd5 c73d fb29 da3d
00000070: 7a66 333d 812b 923d 1c87 39be 3f7c aebb
00000080: a1bd a4bd 76ca d8bd e5f3 87bd 1b58 e63c
00000090: 59ab 4c3e 2fe0 cc3d 5f12 4c3d 3e1f 183d
000000a0: 4a70 9e3d 9993 febd 8915 003d 6a5a fe3c
000000b0: 9d4d c8bd 58de 9a3d a2c9 ef3d 75f2 40bd
000000c0: f45c f1bc 2d81 81bc 4ead 88bc 818d 443d
000000d0: 5893 5b3c 2ed2 46be e595 473e f9c4 eabd
000000e0: caa7 aebd 619b 6b3e 11f5 5dbb 3edd 12bc
000000f0: 912b ce3d 9409 a83d 4e6c 19bd fab4 343d
00000100: dbee d8bc 7f1a 59bd 0e3c 5a3d 1e16 0cbe
00000110: 4ec7 1f3d 6a32 46bd f1a1 c53d c27f e73c
00000120: b58b 5a3d 7471 e6bd e5f8 f6bd 8c1e d23d
00000130: b0c1 233d 4e81 c73c 2261 113d 384a 0f3e
00000140: 6fda 6fbd 02e2 f4bc 7dbe dbbb f4c0 26be
00000150: eae2 51bd 1817 eabc e8a3 e6bd 633a b9bd
00000160: b1ce 2bbc c0da 973c 4a52 c5bc e4cd a6bd
00000170: 4cfa dabc 8c16 283c f421 30be d1c7 c13b
00000180: 51d6 a93d 344e 98bc 6a03 dcbc 8473 523d
00000190: a82d d2bd b312 343d 2780 0e3e a77c 34bc
000001a0: b094 18bc 84b6 963d 967e 3bbd de1b d1bd
000001b0: f12e 493e 0282 0abd fcd3 08bd 5281 c33c
000001c0: 6699 31bb 692e 6e3d 32fc acbd a602 ac3c
000001d0: 72d8 4bbd 16b2 3b3d e58a a2bd 41a1 4cbd
000001e0: 8010 383e ed89 afbc 3557 c63d f14c 0e3c
000001f0: c320 9ebc 0c90 e93d a63b 10be d771 21be
00000200: 568c dcbd 15b0 653b b8cd 0a3d 73ca 183e
00000210: 0468 383e cf90 afbb 37a9 453d c197 43bd
00000220: db16 873c 9323 b0bd 6a12 81bd f60d 49bd
00000230: eb94 81bc 69fe fa3d 8074 23bd 78cb a5bd
00000240: 1de1 903c 2d5f 12be 83d0 f5bb c2fe 2abc
00000250: 447a 923d 2824 98bd c205 013e 5a28 0c3e
00000260: 4d61 3dbe 0f55 2bbe de70 19be 4e26 d13b
00000270: cf87 e43d 481c 003e 6e11 e7bd 4836 8d3d
00000280: 6fcf 253e 1558 efbc 09cc 2b3e 0612 033d
00000290: 37f8 bc3d bcd5 3ebd 282c 95bd b57a c13c
000002a0: ee59 a83d ee3e a73d 135c 91bb 134f 703d
000002b0: c800 3cbe e330 a83c f5b1 c73a 2749 e5bd
000002c0: b970 d7bd b76f f73c 8a39 113d ab01 983a
000002d0: ff1f 27be d4b4 ae3d 6ac9 893d 8c03 f9bd
000002e0: 10d0 823d ef30 c0bd 2a55 1a3d 427b b73d
000002f0: 33d5 f5bb 5c87 0cbe aef5 3e3d 2742 0a3e
00000300: d792 d5bd cc92 f4bc ce62 3b3e d987 d03d
00000310: 43fd cdbd dd9b 9abc d969 cd3d 9b68 e63d
00000320: aade 9e3d e63d ef3b 28c2 b13d 1ff8 ef3d
00000330: 0ea4 32be 04cd 333d 9f4e b63c 80d2 be3b
00000340: e92e cebc c58a a4bd acaa d7bd ea0b b1bc
00000350: 863f 343e 56dd 763c ceac 5abc fc41 a13d
00000360: c6af 633d 85a5 9abd 6bbb 94b9 aa50 533d
00000370: c314 893c 7850 8d3d 96f5 a1bc 4e38 96bc
00000380: 7f52 78bd d5da b53a 229c 7d3c 1765 84bd
00000390: 8c59 bfbc f37f 033d a36a bf3a b448 23be
000003a0: 6b99 1dbc 7be8 18be 5ca0 62bc ce4f f0bd
000003b0: b302 ac3d 45e4 2a3d 3dfe 32be 67a2 523e
000003c0: c887 913d b92d de3c 662c 2bbd a4cb 1e3e
000003d0: 0c63 0a3e bc5a 193d 7cbe 82bd 34cd 8b3d
000003e0: 39fc 8a3c c2eb 8dbd d748 23bd 6c09 d7bd
000003f0: d8d6 f2bc fdc4 ac3d b589 d4bd 4756 0ebd

bias f4 [64]
0.06673209 0.01997114 0.063132115 0.039622426 -0.062925935 0.032732073 0.03566876 -0.02308289
-0.0054657776 0.020781158 0.052985106 0.0076752584 -0.024533482 0.10307005 0.06835875 0.042397544
0.016576555 0.0439712 -0.0016134613 0.070209764 -0.025952555 0.097432144 0.11489177 0.10896084
-0.041488223 -0.05523249 0.03334236 -0.018347608 0.036043316 0.018218415 0.08018243 0.024365233
-0.03932142 0.02392973 0.07072192 -0.006937516 0.08993529 0.007491317 0.09783666 0.00035211543
0.02496096 0.011846184 -0.043297376 -0.033303984 -0.05740449 -0.049815238 0.0842543 -0.019316956
0.01607431 -0.019698318 0.06282176 0.035941247 0.012279845 -0.05268864 0.04658678 -0.005963264
-0.018627992 0.025734093 -0.0045964215 0.06860864 -0.053633787 -0.031357225 -0.075516306 0.055324238
00000000: d6aa 883d 849a a33c 694b 813d 204b 223d
00000010: 50df 80bd 1112 063d 6819 123d 5418 bdbc
00000020: 441a b3bb 3f3d aa3c e906 593d bc80 fb3b
00000030: 71fa c8bc 6416 d33d acff 8b3d 0ca9 2d3d
00000040: 8ecb 873c 251b 343d c77a d3ba 23ca 8f3d
00000050: 749a d4bc 818a c73d 604c eb3d dc26 df3d
00000060: 8eef 29bd 773b 62bd 0092 083d b94d 96bc
00000070: 28a2 133d c93e 953c b036 a43d 9999 c73c
00000080: 7f0f 21bd 4808 c43c a7d6 903d 1a54 e3bb
00000090: fe2f b83d b979 f53b 965e c83d 229c b839
000000a0: ed7a cc3c 7f16 423c 9758 31bd c269 08bd
000000b0: f820 6bbd 100b 4cbd 858d ac3d 983e 9ebc
000000c0: 45ae 833c 5e5e a1bc b2a8 803d 2137 133d
000000d0: 6731 493c 0bd0 57bd c8d1 3e3d 7c67 c3bb
000000e0: bb99 98bc 4ed0 d23c 949d 96bb b082 8c3d
000000f0: 1aaf 5bbd 6f70 00bd 4ba8 9abd ab9b 623d

weight f4 [32, 1024]
0.015697734 0.062328476 0.01033229 0.11500845 -0.06328772 0.027266188 0.0872582 0.06680267
0.1154105 -0.089719504 0.026033362 -0.002399151 0.11626678 0.021198967 0.042430926 0.0111873355
-0.011062621 0.004588769 -0.029507685 0.11940609 0.12599944 -0.02392953 -0.02098649 -0.109712936
-0.032143526 -0.028694198 -0.094544865 -0.033214547 0.19151618 0.018044714 0.079642855 -0.046728805
-0.010407214 -0.051879108 0.017094387 -0.016390486 0.005197467 -0.027842 -0.025164567 -0.14106467
0.124831736 -0.07721531 -0.120705776 -0.14273609 0.088703945 -0.023304561 0.0013367358 0.012357781
-0.046274215 -0.028630432 -0.037245944 -0.1149695 0.011600943 0.09750591 0.059599027 0.02135417
-0.08253442 -0.1314489 0.0074744006 -0.00874994 0.007775131 0.050890047 0.08999235 0.14133118
-0.047790293 -0.12222677 0.0121416 -0.099334195 0.030307332 -0.0013003304 -0.04804843 0.034151297
0.08101213 0.015058156 -0.06781151 0.045190074 0.057369478 -0.023892563 -0.010442003 -0.061976667
0.10233382 0.037262693 -0.07856001 -0.11452767 -0.0750488 0.08340441 0.060284488 -0.012184316
0.09927752 0.13249642 -0.059377935 0.009711466 -0.10817688 0.037926823 0.054781087 -0.18695764
-0.12180608 -0.026043886 -0.15170793 -0.03368877 0.013752346 -0.0039848266 -0.030933566 -0.006384101
0.037268396 -0.031178677 0.01804241 -0.041045617 0.06595833 0.12152192 -0.015283716 -0.019878773
0.07108064 0.12234371 -0.023909343 0.18509378 -0.030852986 -0.055105317 -0.013151607 -0.02131779
0.025798822 -0.14112441 0.07200389 0.009991077 -0.045548923 0.048449274 -0.06819933 0.009763793
-0.028736083 -0.013228233 0.01999632 0.1738021 -0.036423136 0.06914702 0.08393118 -0.03475769
0.041262697 0.02946673 0.025997784 0.0421405 0.12794757 0.07041821 -0.059266515 0.0384153
-0.029174427 -0.13692129 -0.014433183 -0.042659067 0.02152884 0.035582837 0.09264292 0.11252976
0.12621547 0.033130657 0.040308338 0.005158905 0.011712931 -0.0015886641 0.06793995 0.0760525
0.00068283663 -0.056090243 0.06418366 -0.039390136 0.029788323 0.06148256 0.024355512 -0.021714864
0.0011260851 -0.058875635 0.00023664423 -0.120296404 0.09722224 0.028193017 0.09797083 0.058773734
-0.13311036 -0.16915591 -0.03846754 -0.12031046 -0.049335744 0.022041364 0.00068007654 -0.052954193
-0.034984667 -0.027081363 -0.046679463 0.019642113 0.08481644 0.076224566 0.20301995 0.20253344
0.14601593 0.07393902 0.059113894 -0.020665668 0.12464899 0.01945714 -0.036088772 -0.08346135
0.074388355 0.07709213 -0.0005595033 0.027708977 -0.04014463 -0.028763572 -0.058957703 0.09215672
-0.102707766 -0.0060374034 -0.017774796 0.029629745 -0.09254752 0.0039913813 0.13851045 -0.017948922
0.024913834 0.03806309 -0.031957295 -0.054488722 -0.23688446 -0.09391683 -0.10771516 -0.085493095
-0.16019046 -0.104357146 0.049926426 -0.09113602 -0.13297394 -0.017990343 -0.071964055 -0.13067093
0.017591853 -0.08856013 -0.045603167 -0.04867236 -0.04540109 -0.01475037 0.026196415 0.026057143
-0.02608579 0.059316203 0.020809175 -0.035683826 0.048522178 0.0047202287 -0.044862617 -0.06186207
-0.009420562 0.043105494 0.040996134 -0.15159662 0.100628205 0.025965344 -0.059722483 0.039608255
00000000: 8998 803c 254c 7f3d c448 293c 8d89 eb3d
00000010: fe9c 81bd 575d df3c 6db4 b23d d7cf 883d
00000020: 575c ec3d dcbe b7bd eb43 d53c 133b 1dbb
00000030: 471d ee3d 75a9 ad3c 0dcc 2d3d 164b 373c
00000040: ff3f 35bc 625d 963b 1aba f1bc 2e8b f43d
00000050: ff05 013e dd07 c4bc dceb abbc 2db1 e0bd
00000060: eea8 03bd 1810 ebbc bda0 c1bd fa0b 08bd
00000070: d11c 443e 82d2 933c cb1b a33d b466 3fbd
00000080: 0583 2abc 307f 54bd 8709 8c3c 5745 86bc
00000090: 834f aa3b e814 e4bc ec25 cebc 4273 10be
000000a0: c8a7 ff3d 0f23 9ebd 9734 f7bd 6929 12be
000000b0: 6aaa b53d 35e9 bebc 6935 af3a 4a78 4a3c
000000c0: 088a 3dbd 5e8a eabc 348f 18bd 2175 ebbd
000000d0: e211 3e3c 2eb1 c73d 1c1e 743d f1ee ae3c
000000e0: ce07 a9bd 8a9a 06be d1eb f43b e95b 0fbc
000000f0: 87c6 fe3b 1572 503d e94d b83d 1fb9 103e
00000100: c1bf 43bd 0752 fabd 90ed 463c ba6f cbbd
00000110: 1547 f83c d96f aaba 6ece 44bd 3be2 0b3d
00000120: b0e9 a53d 7cb6 763c c3e0 8abd 3a19 393d
00000130: 42fc 6a3d 56ba c3bc ef14 2bbc 3fdb 7dbd
00000140: 6594 d13d c4a0 183d 12e4 a0bd 7c8d eabd
00000150: 2fb3 99bd eecf aa3d deec 763d baa0 47bc
00000160: 0352 cb3d 24ad 073e 4736 73bd d71c 1f3c
00000170: d78b ddbd 2859 1b3d 2262 603d d371 3fbe
00000180: 7775 f9bd fd59 d5bc 5359 1bbe 3cfd 09bd
00000190: 8551 613c 2693 82bb 6468 fdbc b931 d1bb
000001a0: bfa6 183d 6d6a ffbc adcd 933c 731f 28bd
000001b0: 2915 873d 7ce0 f83d 8d68 7abc cfd8 a2bc
000001c0: ba92 913d 578f fa3d 87dd c3bc 3989 3d3e
000001d0: 67bf fcbc 1db6 61bd d679 57bc a5a2 aebc
000001e0: 0d58 d33c eb82 10be c776 933d 9db1 233c
000001f0: 8291 3abd bf72 463d 17ac 8bbd 51f8 1f3c
00000200: ef67 ebbc 3bbb 58bc 53cf a33c 2df9 313e
00000210: 6d30 15bd f49c 8d3d 1ce4 ab3d 145e 0ebd
00000220: 1303 293d 3664 f13c 4ef9 d43c 849b 2c3d
00000230: b004 033e 6c37 903d 72c1 72bd 5d59 1d3d
00000240: 35ff eebc 1835 0cbe 2879 6cbc 46bb 2ebd
00000250: 405d b03c 4fbf 113d 92bb bd3d 0176 e63d
00000260: a13e 013e 03b4 073d 5b1a 253d 080c a93b
00000270: 98e7 3f3c b93a d0ba 1a24 8b3d 6ac1 9b3d
00000280: 6400 333a e2be 65bd b972 833d 8d57 21bd
00000290: a406 f43c 23d5 7b3d 3685 c73c 5fe3 b1bc
000002a0: 2599 933a 9427 71bd b423 7839 f65d f6bd
000002b0: 741c c73d 0bf5 e63c eea4 c83d babc 703d
000002c0: 154e 08be 3537 2dbe 2490 1dbd 5565 f6bd
000002d0: 4714 4abd 1790 b43c 2a47 323a 7fe6 58bd
000002e0: 154c 0fbd bcd9 ddbc f732 3fbd 7fe8 a03c
000002f0: 3eb4 ad3d a01b 9c3d 76e4 4f3e ed64 4f3e
00000300: 3385 153e 576d 973d 6921 723d 0c4b a9bc
00000310: f847 ff3d 9464 9f3c d2d1 13bd c9ed aabd
00000320: ec58 983d 7be2 9d3d a2ab 12ba f0fd e23c
00000330: b26e 24bd 95a1 ebbc a27d 71bd aabc bc3d
00000340: 7358 d2bd 69d5 c5bb 739c 91bc 14ba f23c
00000350: 8e89 bdbd 22ca 823b afd5 0d3e 9e09 93bc
00000360: 1918 cc3c 0be8 1b3d a7e5 02bd 912f 5fbd
00000370: d791 72be 7857 c0bd c499 dcbd 0117 afbd
00000380: f808 24be 33b9 d5bd a77f 4c3d 86a5 babd
00000390: 522a 08be 7c60 93bc e461 93bd 9ace 05be
000003a0: ca1c 903c 035f b5bd 63ca 3abd ab5c 47bd
000003b0: 7ef6 39bd 89ab 71bc dd99 d63c ca75 d53c
000003c0: deb1 d5bc 8cf5 723d 0178 aa3c 3429 12bd
000003d0: 31bf 463d 26ac 9a3b ddc1 37bd 1563 7dbd
000003e0: b358 1abc 638f 303d 90eb 273d 253c 1bbe
000003f0: 2916 ce3d 46b5 d43c 909f 74bd 443c 223d

bias f4 [32]
-0.04919267 0.04684805 0.04865067 -0.04893166 0.051700156 0.06450875 0.079990454 -0.013899081
0.13664661 -0.091927975 0.08483021 0.12866873 -0.021613147 -0.0173548 0.10683846 0.004419847
-0.03308784 0.048601195 0.09645358 0.047942836 0.18105903 0.09600572 0.00795974 0.13446109
0.057846554 0.01329295 -0.10341744 -0.06832089 0.120964564 0.14174773 0.04720105 -0.026607703
00000000: 417e 49bd bee3 3f3d ed45 473d 906c 48bd
00000010: 8bc3 533d 2a1d 843d 09d2 a33d f9b8 63bc
00000020: 17ed 0b3e bc44 bcbd 76bb ad3d bcc1 033e
00000030: 0e0e b1bc a72b 8ebc 1fce da3d 5dd4 903b
00000040: 1d87 07bd 0c12 473d 7489 c53d b55f 443d
00000050: 8a67 393e a69e c43d 9269 023c 2bb0 093e
00000060: 82f0 6c3d acca 593c 86cc d3bd d3eb 8bbd
00000070: 45bc f73d 5126 113e e355 413d 66f8 d9bc

weight f4 [15, 32]
0.23785503 -0.18784498 -0.41414085 -0.16479582 -0.20002624 -0.18618591 -0.037120618 0.26325208
-0.013333312 -0.09055071 -0.19248891 0.19720249 0.109237485 0.14477436 0.12719798 0.07188776
-0.12354689 0.11207559 0.14871657 0.15950364 0.093900405 -0.29410842 0.07176766 -0.08680981
-0.33507186 -0.009418709 0.14553578 0.13678005 -0.074603476 0.055647515 0.010060341 0.1628943
-0.049607478 -0.07254237 -0.026379146 -0.034297485 0.04547199 -0.06442854 -0.03019956 -0.17202209
0.028703261 0.2593446 -0.050005533 0.005327044 -0.025983475 -0.032893326 0.0137289 0.08462585
0.22907421 0.046689037 -0.15005958 0.07194582 0.013502339 -0.07866909 0.08099127 -0.12075534
-0.18908642 0.06931717 0.10372637 -0.17081933 -0.0017667776 0.0013673274 -0.027575094 0.115049906
-0.05722674 0.22257967 0.05892994 0.18272388 0.0067691794 -0.30889732 -0.12011115 -0.055680234
-0.03429598 0.018106 0.016982917 -0.11397603 -0.027614456 -0.20573488 0.012949651 -0.04241958
-0.19268134 -0.03729465 -0.3978151 0.18640088 -0.012728078 0.24868141 0.21244448 0.04977799
-0.12948026 -0.0043121865 -0.064267926 -0.111686215 0.027660387 -0.24336757 -0.29362231 -0.36172882
-0.0035731469 -0.23851426 -0.18683432 0.01595498 -0.14526409 -0.084498525 -0.004525744 -0.08075667
-0.10420731 -0.10075868 0.06633238 0.007887852 -0.14238249 0.34443325 0.08451744 0.017366286
0.14618993 0.06894599 -0.05812968 0.0015760304 0.09236401 -0.15065159 -0.18593049 -0.12149064
-0.11440765 0.089866154 -0.11328918 0.17900632 -0.15709649 0.1187947 0.12832722 0.26694253
0.04489696 -0.12195799 -0.058067355 -0.08826325 -0.061132602 0.054228388 0.04894955 -0.17990656
-0.0771266 0.05011024 -0.06620477 -0.009814899 -0.05212808 -0.0009275492 0.0232864 -0.012887263
-0.11559648 -0.008689365 -0.041159093 -0.014546282 -0.029199896 -0.071267 -0.053619094 -0.050459683
-0.13234201 0.033802964 0.04120972 -0.098858304 -0.08828955 0.002516946 0.025768973 0.14948386
0.004134221 0.08678647 0.15592638 0.050578386 -0.18821262 -0.1263383 -0.1405137 -0.044118043
-0.12624593 -0.017268214 -0.09397499 -0.18295655 0.103232704 0.057197254 -0.1374607 0.052545495
0.1743142 -0.015029474 -0.36326277 0.13215815 -0.011092749 0.15379125 0.14478277 0.15061225
0.103443235 -0.22384962 -0.00023340191 -0.10931183 -0.17721727 -0.13658597 -0.19693162 -0.018530391
-0.083543755 -0.10723897 -0.107047 0.16032927 -0.17972848 -0.08936194 -0.08454678 0.05159473
-0.20398977 -0.018779986 -0.032004096 -0.13946858 -0.0724073 0.13493626 -0.08890507 -0.043705937
0.032878093 -0.018510174 -0.045385517 -0.14883693 -0.108648814 -0.115136996 -0.20181262 -0.09813503
-0.107640564 -0.046108935 -0.071563736 0.08960629 -0.11595653 -0.025208484 -0.06493161 0.08550036
-0.078152485 -0.11837554 0.02393923 -0.06889264 -0.09521592 -0.046253726 -0.040040243 -0.055589657
-0.050887767 -0.053039547 -0.08191612 -0.052085076 -0.092467465 0.07340512 -0.12598015 -0.12221419
0.008022448 -0.12907322 -0.04690584 -0.1541682 -0.117017604 -0.14771116 -0.06877382 -0.061376393
-0.05568108 -0.08375519 0.01827483 -0.062272407 -0.10964723 -0.12935185 -0.048520725 0.017389046
00000000: 4590 733e 6f5a 40be 450a d4be 3cc0 28be
00000010: aed3 4cbe 85a7 3ebe ca0b 18bd fac8 863e
00000020: f773 5abc a772 b9bd d01b 45be 73ef 493e
00000030: e7b7 df3d bb3f 143e 3040 023e e439 933d
00000040: 2706 fdbd e387 e53d 2849 183e ec54 233e
00000050: db4e c03d 6195 96be ecfa 923d 57c9 b1bd
00000060: 8a8e abbe ee50 1abc 5507 153e 1210 0c3e
00000070: b5c9 98bd a6ee 633d 21d4 243c c3cd 263e
00000080: 3631 4bbd 1891 94bd 1419 d8bc 857b 0cbd
00000090: d640 3a3d 1cf3 83bd 1165 f7bc 8f26 30be
000000a0: 1a23 eb3c d1c8 843e 9ad2 4cbd 7c8e ae3b
000000b0: 4cdb d4bc 27bb 06bd 2eef 603c 5150 ad3d
000000c0: 6e92 6a3e 013d 3f3d 38a9 19be 5458 933d
000000d0: ea38 5d3c 431d a1bd c0de a53d 934e f7bd
000000e0: df9f 41be 29f6 8d3d 7e6e d43d 43eb 2ebe
000000f0: 3893 e7ba e537 b33a 2ae5 e1bc 499f eb3d
00000100: 9666 6abd edeb 633e 8560 713d f81b 3b3e
00000110: fecf dd3b ca27 9ebe d6fc f5bd f510 64bd
00000120: f179 0cbd 0953 943c c21f 8b3c 446c e9bd
00000130: b637 e2bc 2aac 52be c62a 543c 27c0 2dbd
00000140: 424e 45be 46c2 18bd 6cae cbbe dfdf 3e3e
00000150: 6e89 50bc 57a6 7e3e 0c8b 593e 01e4 4b3d
00000160: 7996 04be 3e4d 8dbb e79e 83bd bebb e4bd
00000170: 0998 e23c 5935 79be aa55 96be 8534 b9be
00000180: 752b 6abb 153d 74be 7f51 3fbe 05b4 823c
00000190: 1cc0 14be 900d adbd b14c 94bb c163 a5bd
000001a0: a46a d5bd 915a cebd 45d9 873d 0d3c 013c
000001b0: b7cc 11be 8e59 b03e 7b17 ad3d be43 8e3c
000001c0: d0b2 153e 8e33 8d3d 6319 6ebd ce92 ce3a
000001d0: 5829 bd3d 6944 1abe 9064 3ebe 16d0 f8bd
000001e0: 8f4e eabd bf0b b83d 2804 e8bd 6f4d 373e
000001f0: e7dd 20be a34a f33d 3668 033e b1ac 883e
00000200: e0e5 373d 1cc5 f9bd 09d8 6dbd 5dc3 b4bd
00000210: 2e66 7abd 961e 5e3d 537f 483d 6d39 38be
00000220: 8df4 9dbd 6540 4d3d 5e96 87bd acce 20bc
00000230: 4184 55bd c626 73ba 1fc3 be3c 1925 53bc
00000240: d9bd ecbd d75d 0ebc 7096 28bd 8753 6ebc
00000250: 9f34 efbc 6ff4 91bd b29f 5bbd d0ae 4ebd
00000260: aa84 07be fa74 0a3d 86cb 283d 3976 cabd
00000270: 27d1 b4bd 59f3 243b 7419 d33c 4c12 193e
00000280: 5c78 873b 1bbd b13d 2aab 1f3e 482b 4f3d
00000290: cfba 40be d45e 01be d3e2 0fbe 1fb5 34bd
000002a0: 9d46 01be 1276 8dbc f675 c0bd f658 3bbe
000002b0: ab6b d33d ab47 6a3d 7fc2 0cbe f239 573d
000002c0: 6c7f 323e 2f3e 76bc 94fd b9be 7754 073e
000002d0: 5dbe 35bc 747b 1d3e ef41 143e 193a 1a3e
000002e0: 0cda d33d d638 65be 59bd 74b9 e1de dfbd
000002f0: 7278 35be 31dd 0bbe 71a8 49be 0ccd 97bc
00000300: fd18 abbd 1ba0 dbbd 753b dbbd 5b2d 243e
00000310: be0a 38be 6503 b7bd dd26 adbd ff54 533d
00000320: b2e2 50be 7cd8 99bc ba16 03bd dad0 0ebe
00000330: 474a 94bd bb2c 0a3e dd13 b6bd ff04 33bd
00000340: 2eab 063d a6a2 97bc 2ae6 39bd b568 18be
00000350: 4583 debd f2cc ebbd f8a7 4ebe 05fb c8bd
00000360: a872 dcbd b9dc 3cbd 0290 92bd 8183 b73d
00000370: 9e7a edbd 0682 cebc ddfa 84bd d01a af3d
00000380: 690e a0bd e06e f2bd 341c c43c 9617 8dbd
00000390: 9000 c3bd 8c74 3dbd 3d01 24bd fbb1 63bd
000003a0: b16f 50bd ff3f 59bd a4c3 a7bd 2957 55bd
000003b0: 955f bdbd 6c55 963d f100 01be 6f4b fabd
000003c0: 9670 033c c52b 04be 5720 40bd 45de 1dbe
000003d0: eda6 efbd 9841 17be 4ad9 8cbd d065 7bbd
000003e0: d811 64bd d787 abbd 19b5 953c 5a11 7fbd
000003f0: ba8e e0bd d074 04be abbd 46bd 7973 8e3c

bias f4 [15]
0.054297954 0.025625952 0.0956086 0.04216557 -0.02926642 0.016827235 -0.083526716 -0.094639406
0.030905932 0.05857569 -0.06340658 0.018136527 0.0103285415 -0.042294547 -0.029181536
00000000: 8867 5e3d 84ed d13c 71ce c33d ceb5 2c3d
00000010: 22c0 efbc 45d9 893c 0e10 abbd 4ed2 c1bd
00000020: 702e fd3c 10ed 6f3d 4fdb 81bd 0e93 943c
00000030: 0b39 293c 0c3d 2dbd 1e0e efbc

weight f4 [1, 32]
-0.019413164 0.019871669 0.06385449 -0.06518835 0.059030313 0.041953765 0.15415283 -0.0142579
0.09859953 -0.010308833 0.01994415 0.097863965 -0.0018609321 -0.032700278 0.017886877 0.015781265
-0.06170233 0.017225027 0.06922259 0.007231165 0.09057313 0.065739214 0.0040586344 0.083336346
0.026086504 -0.0022112362 -0.120009005 -0.03959253 0.079457656 0.09851091 -0.0010902877 -0.0002575249
00000000: 5b08 9fbc e9c9 a23c 25c6 823d 7881 85bd
00000010: c5c9 713d b6d7 2b3d 3dda 1d3e f899 69bc
00000020: 8dee c93d 61e6 28bc ea61 a33c e76c c83d
00000030: 85ea f3ba baf0 05bd 8087 923c b647 813c
00000040: 95bb 7cbd 801b 8d3c 93c4 8d3d 69f3 ec3b
00000050: 687e b93d 48a2 863d 4bfe 843b 3fac aa3d
00000060: 5db3 d53c 63ea 10bb 48c7 f5bd c72b 22bd
00000070: b2ba a23d 17c0 c93d fce7 8eba 6804 87b9
