exp/10levels-policy.pt (torch, 443935 bytes, 11 tensors)

weight f4 [32, 3, 8, 8]
0	0xbd0a9aae	-0.03383892
1	0x3c3b78d1	0.011442379
2	0x3e12cc27	0.1433569
3	0xbd1e190d	-0.03859811
4	0x3cb4e0ac	0.022079788
5	0xbd0d7c32	-0.03454227
6	0x3c332a77	0.010935417
7	0xbdf29293	-0.11844363
8	0x3d406efe	0.04698085
9	0xbda45bf1	-0.08025349
10	0xbdb78999	-0.089617915
11	0xbe6df690	-0.23238587
12	0xbdd44066	-0.103638455
13	0xbbc612bd	-0.0060447142
14	0xbd9a70e7	-0.07541066
15	0x3e69fb0e	0.22849676
16	0xbd9f7406	-0.077858016
17	0xbd8244f4	-0.06360808
18	0x3d5a6a35	0.053323943
19	0xbe6a4778	-0.22878826
20	0xbdc5d983	-0.09660628
21	0x3b86fdd8	0.004119616
22	0xbe1fece3	-0.15617709
23	0x3e3771c9	0.179145
24	0x3e3367be	0.17520043
25	0x3e2cb9dc	0.16867775
26	0x3de068f7	0.109575205
27	0xbdcf4030	-0.10119665
28	0x3e0ce8a3	0.13760619
29	0xbc1b801e	-0.009490995
30	0x3be3155d	0.006930037
31	0x3cefd5a9	0.029276686
32	0xbe0b5d80	-0.13609886
33	0xbdbd07cb	-0.09230002
34	0x3ca583ce	0.020204451
35	0x3d768f25	0.060195107
36	0x3e2224ac	0.15834302
37	0x3ddd1ffd	0.10797117
38	0x3e6e294b	0.2325794
39	0x3e7cc304	0.24683768
40	0x3d386776	0.045020543
41	0xbcc4abfb	-0.024007788
42	0x3ba9cd2d	0.0051819296
43	0x3c0ac31c	0.008469369
44	0xbdc7adce	-0.097499475
45	0xbdd9828d	-0.10620604
46	0xbd64df31	-0.055876914
47	0x3dfaa36d	0.12238202
48	0x3e69f2a9	0.22846474
49	0xbc6f7eaf	-0.014617606
50	0xbd9a1394	-0.075232655
51	0x3e3b372e	0.18282768
52	0x3df1347e	0.1177759
53	0xbeb0ee8e	-0.34557003
54	0xbe27a101	-0.16370012
55	0x3d7d9d4a	0.06191758
56	0xbe3b2c51	-0.18278624
57	0x3c274bab	0.010210912
58	0x3e54437f	0.20728873
59	0x3d91d7f9	0.07121272
60	0x3e7e4bb4	0.24833566
61	0x3d950870	0.07277
62	0xbe62827f	-0.22120093
63	0xbd1bfa65	-0.03808059
64	0x3c8f1577	0.01746629
65	0x3cc699a9	0.024243193
66	0xbb8c0300	-0.0042728186
67	0x3da7d6fd	0.08195303
68	0xbddd5e56	-0.10809009
69	0x3e935130	0.2877288
70	0xbe1fae49	-0.15593828
71	0xbd00b54a	-0.03142289
72	0xbdb90558	-0.09034222
73	0xbe560661	-0.20900871
74	0xbe2f6571	-0.1712854
75	0x3d86e0ef	0.065858714
76	0xbde92432	-0.11383857
77	0x3d15da9c	0.036585435
78	0xbc11e2c9	-0.008904167
79	0x3e5664b3	0.20936851
80	0x3e17df73	0.14831333
81	0x3cf59f2c	0.029983126
82	0x3c81bd5a	0.01583736
83	0xbe3c72fb	-0.18403237
84	0xbcb3e03e	-0.021957513
85	0xbd3f516d	-0.046708513
86	0xbe1c3ab6	-0.15256771
87	0x3d8fa282	0.07013418
88	0x3e3bbe37	0.1833428
89	0x3bc7ceef	0.0060976665
90	0x3e6c5d82	0.23082545
91	0xbdc6547f	-0.09684085
92	0x3d9a1112	0.07522787
93	0x3aacd8a9	0.0013187128
94	0x3d8d045a	0.068855956
95	0xbd71f69d	-0.05907308
96	0xbdf18b41	-0.11794139
97	0xbdbc102f	-0.09182774
98	0xbd5187d5	-0.05115493
99	0xbe04cb2e	-0.12968132
100	0xbcf9e427	-0.0305043
101	0x3ddb94b8	0.10721725
102	0x3db0e862	0.086380735
103	0x3d1163e8	0.03549567
104	0x3cadb0fe	0.02120256
105	0xbcbe884d	-0.023258353
106	0xbe70a8e7	-0.23501931
107	0x3e0f5b51	0.13999678
108	0xbd95236e	-0.07282148
109	0xbeacd980	-0.3375969
110	0xbe6d993e	-0.23202989
111	0x3d7d7aa5	0.06188454
112	0x3e4c0fdd	0.19927926
113	0xbc2a0549	-0.010377237
114	0xba7e5c0b	-0.00097030465
115	0x3e1bc740	0.15212727
116	0x3e945166	0.28968352
117	0xbe1c6e92	-0.15276554
118	0xbbc8b5db	-0.0061251945
119	0xbdc4bce8	-0.096063435
120	0x3da78d05	0.08181194
121	0x3e27cf9d	0.16387792
122	0x3d78dd44	0.06075789
123	0xbd40b09f	-0.04704344
124	0xbd424d4b	-0.047436994
125	0xbda3be59	-0.0799529
126	0x3dae7867	0.08519059
127	0x3d02dd28	0.031949192
128	0xbcbf16b4	-0.023326255
129	0x3d0cf39a	0.034412004
130	0x3c01a1d6	0.00791212
131	0xbe4de4d7	-0.20106827
132	0x3b783c9f	0.003787793
133	0x3e1a5152	0.15070084
134	0xbd2ccfc3	-0.042190325
135	0xbe40179c	-0.18759006
136	0x3df34834	0.11879006
137	0x3b045cc0	0.0020196885
138	0x3d1f3e80	0.038877964
139	0x3dc44a57	0.09584492
140	0xbcbf52fd	-0.023355002
141	0xbe257dec	-0.16161317
142	0xbe8530e6	-0.2601387
143	0x3e8fe229	0.28102234
144	0x3e5bf2c1	0.21479322
145	0x3e6e0b02	0.23246387
146	0xbd7481ed	-0.05969422
147	0xbe0cbc25	-0.13743646
148	0x3ea19fbb	0.31567177
149	0xbcde8d89	-0.027167099
150	0x3a68284c	0.00088561024
151	0x3d7ebeeb	0.062193792
152	0x3cba8ff5	0.022773722
153	0xbd7e90e8	-0.062149912
154	0xbd021234	-0.03175564
155	0x3b9fab33	0.0048727035
156	0x3e25538f	0.16145156
157	0x3e3fbc4e	0.18724176
158	0x3dd59879	0.104294725
159	0x3e76f8d7	0.24118362
160	0xbdf07d71	-0.11742676
161	0x3d024d61	0.031812076
162	0x3dc29456	0.09500949
163	0x3c1b6e81	0.009486795
164	0xbb8fc42a	-0.0043873983
165	0x3dace5d2	0.08442272
166	0x3e5b9588	0.2144376
167	0x3edb998f	0.42890593
168	0x3cb23c67	0.021757318
169	0x3e297340	0.1654787
170	0xbe131fc4	-0.14367586
171	0x3de6cf2b	0.11269983
172	0xbe9092a3	-0.28236875
173	0xbe9099bb	-0.28242287
174	0x3c1fa9df	0.00974509
175	0x3db1edfa	0.086879686
176	0xbdba7f9c	-0.09106371
177	0xbb42f6e7	-0.0029749216
178	0xbe5c6ea3	-0.2152658
179	0xbe5eba5f	-0.21750782
180	0xbec63110	-0.38709307
181	0xbe290d25	-0.1650892
182	0xbe4edeb4	-0.20202142
183	0x3ce40929	0.0278364
184	0x3d34b689	0.04411939
185	0x3dca1551	0.09867347
186	0x3e0c71bd	0.13715263
187	0xbe6c1a8b	-0.23057
188	0x3db62884	0.088944465
189	0xbdbb3443	-0.091408275
190	0xbd235112	-0.039872237
191	0xbdf94b84	-0.121726066
192	0x3e010528	0.12599623
193	0x3ce136d5	0.027491966
194	0x3c82a651	0.015948446
195	0xbd102ac9	-0.035197053
196	0x3d02c2ee	0.03192418
197	0xbdb507fe	-0.08839415
198	0xbd4a7112	-0.04942424
199	0xbe97e5da	-0.2966755
200	0xbe7f8fd8	-0.24957216
201	0xbc7bd73d	-0.015371141
202	0xbe0b121b	-0.13581125
203	0xbc79d932	-0.015249537
204	0xbe0088ae	-0.12552139
205	0xbd1d2e00	-0.038373947
206	0x3d85862a	0.065197304
207	0x3e0b7490	0.13618684
208	0xbdffbff3	-0.12487783
209	0xbcce9296	-0.025216382
210	0xbe0ecded	-0.13945742
211	0x3cfa8b8c	0.03058412
212	0xbe3397d6	-0.1753839
213	0xbd1925c1	-0.03738952
214	0x3d8164e7	0.06318074
215	0x3d756f7f	0.059920784
216	0xbe137f6d	-0.14404078
217	0xbeb006ac	-0.3438009
218	0xbe5fea56	-0.21866736
219	0xbd85509d	-0.065095164
220	0x3e86a86c	0.2630037
221	0xbc08036c	-0.008301597
222	0xbd8918d5	-0.066941895
223	0xbe48be3a	-0.19603816
224	0xbe31e42a	-0.17372194
225	0xbe56a695	-0.20961984
226	0x3d21dfcb	0.039520066
227	0xbe1ff920	-0.15622377
228	0xbd4fd7d8	-0.050742954
229	0x3df14f85	0.11782745
230	0xbdb58195	-0.088626064
231	0x3d1dd02a	0.0385286
232	0xbe426cf9	-0.18986882
233	0xbe1124e5	-0.1417423
234	0xbe150855	-0.1455396
235	0xbd202432	-0.03909702
236	0xbc7b2c54	-0.015330393
237	0x3c874b87	0.016515506
238	0xbd9759e2	-0.07390191
239	0xbddd7150	-0.10812628
240	0xbe11d15d	-0.14240022
241	0xbd6a5edd	-0.057219375
242	0xbd85bf8f	-0.065306775
243	0xbbae24f1	-0.0053144624
244	0xbe389c32	-0.18028334
245	0xbe9cc320	-0.3061762
246	0xbd74ad42	-0.059735544
247	0x3d6a4572	0.057195134
248	0x3e5540a3	0.20825438
249	0x3c5fbe00	0.013656139
250	0xbe2e502d	-0.17022772
251	0xbc372e80	-0.01118052
252	0xbdf058a6	-0.11735658
253	0x3d964192	0.07336725
254	0xbce7f98e	-0.02831724
255	0xbeadab51	-0.33919767

bias f4 [32]
0	0xbabcc144	-0.0014400859
1	0x3c8b0df4	0.016974427
2	0xba51a93d	-0.0007997936
3	0xbaac4450	-0.0013142917
4	0xbd180c59	-0.03712115
5	0xbd1c189c	-0.038109407
6	0xbc751e5b	-0.014960851
7	0xbb975faa	-0.0046195583
8	0xbbbc2ab6	-0.005742396
9	0xbb5f33f0	-0.0034058057
10	0x3ba5271e	0.0050400635
11	0xbb379f5f	-0.0028018577
12	0x3cf75908	0.03019382
13	0xbb228d1f	-0.0024803353
14	0xbaaaf00d	-0.0013041511
15	0xbae56d79	-0.0017503939
16	0xbb4d3030	-0.003130924
17	0xbb04456a	-0.0020182976
18	0xbb95433a	-0.004555133
19	0x3cbee718	0.023303553
20	0xbc872d4d	-0.016501093
21	0xbb3756ba	-0.0027975277
22	0x3b8ffcec	0.0043941643
23	0x3c997ab1	0.018735262
24	0x3a2791e0	0.00063922815
25	0x3ca8ed99	0.020621108
26	0xbb2c660b	-0.002630594
27	0x3b51e824	0.0032029236
28	0xbc115c6f	-0.008872136
29	0xbb209bd9	-0.0024506955
30	0xbb284cbd	-0.0025680505
31	0xbd0bb89d	-0.034111608

weight f4 [64, 32, 4, 4]
0	0x3df62f56	0.12020747
1	0xbb4b0e94	-0.003098403
2	0x3e1927d1	0.14956595
3	0xbdab8693	-0.08375277
4	0xbbe49884	-0.006976189
5	0xbd273906	-0.040825866
6	0x3cb2bf3f	0.021819709
7	0x3c64c0e4	0.013962004
8	0x3baf7e68	0.005355645
9	0x3e4afd5c	0.19823211
10	0x3d8c0964	0.068377286
11	0xbb690fc7	-0.0035562383
12	0xbcc12947	-0.023579253
13	0xbe098f3d	-0.13433547
14	0xbe5ac09b	-0.21362536
15	0xbe7b636e	-0.24549648
16	0x3e291212	0.165108
17	0xbcc3a387	-0.023881687
18	0xbd509404	-0.05092241
19	0xbc6c7ebb	-0.014434512
20	0xbd682e4c	-0.056684777
21	0x3e125b27	0.14292584
22	0x3db99b4b	0.09062823
23	0x3d1f9116	0.038956724
24	0x3cd316c3	0.02576769
25	0x3d017c61	0.031612758
26	0xbdbf5f5b	-0.093443595
27	0x3cacad60	0.021078765
28	0x3e16fb45	0.14744289
29	0xbdb4111b	-0.08792325
30	0x3d121c23	0.035671365
31	0x3c24f633	0.010068464
32	0x3d67143a	0.056415774
33	0x3da61be9	0.08110792
34	0x3aa393d9	0.0012479975
35	0xbdb4b4c7	-0.08823543
36	0x3d8b8f94	0.06814495
37	0xbd893ea6	-0.06701402
38	0x3d55d09b	0.052200895
39	0x3e544356	0.20728812
40	0x3ddef59a	0.108866885
41	0xbdb6561f	-0.08903145
42	0x3d59155f	0.052998897
43	0x3e4c4695	0.199488
44	0x3db1fd16	0.086908504
45	0xbc5da74a	-0.013528654
46	0x3e0b1c0f	0.13584922
47	0x3cc4e6b7	0.024035795
48	0xbda9e4cb	-0.08295592
49	0x3d1519e7	0.036401656
50	0x3e1c34ce	0.15254518
51	0xbd1f34f6	-0.038868867
52	0x3e0d1f33	0.13781433
53	0xbe1d4519	-0.1535839
54	0xbdd9b184	-0.106295615
55	0xbc5f1a5b	-0.0136171235
56	0xbd9cb1ad	-0.076510765
57	0x3cea2676	0.028582793
58	0x3cda1430	0.026620954
59	0x3db6bd6c	0.08922848
60	0x3d4c68f3	0.049904775
61	0x3d7c6784	0.061622158
62	0xbe01fd57	-0.12694298
63	0xbc815866	-0.015789222
64	0xbe30751e	-0.17232177
65	0xbdc9b4d8	-0.09848946
66	0xbd0e3a85	-0.034723777
67	0xbd6fb999	-0.05852661
68	0xbc1f1d99	-0.0097116465
69	0xbcb43fa0	-0.022002995
70	0x3c94c7c3	0.01816166
71	0x3da2f905	0.07957653
72	0xbd1dc980	-0.038522243
73	0xbddc8575	-0.107676424
74	0x3af44655	0.0018636683
75	0xbdeec60b	-0.116588674
76	0xbcaefdfa	-0.02136134
77	0x3873ca0e	5.8123893e-05
78	0x3dc4e742	0.096144214
79	0xbd7d4c80	-0.061840534
80	0xbd94e3e6	-0.07270031
81	0xbd4c810a	-0.04992775
82	0xbce27b02	-0.027646545
83	0xbe00028d	-0.12500973
84	0x3d5163a3	0.05112041
85	0x3d4fbc08	0.05071643
86	0xbd42f9ff	-0.047601696
87	0x3c6deb8c	0.014521491
88	0x3de94deb	0.11391815
89	0xbe83d786	-0.2575037
90	0xbdcab4c9	-0.09897763
91	0xbdc62c96	-0.09676473
92	0x3dabf8c3	0.08397057
93	0x3d97b393	0.07407298
94	0x3c20473a	0.009782607
95	0xbd8e40b9	-0.069459386
96	0x3deba90c	0.115068525
97	0x3ce1768a	0.027522344
98	0xbc86f5c2	-0.016474608
99	0xbcc5ccd5	-0.024145523
100	0x3dcd184c	0.100144
101	0x3d7073f1	0.05870432
102	0xbdaa125f	-0.08304285
103	0x3d0bdff5	0.03414913
104	0x3dc7a0d0	0.097474694
105	0x3e041f08	0.12902462
106	0xbe1847a3	-0.14871077
107	0xbdf3acd5	-0.118981995
108	0x3e13258e	0.14369795
109	0x3dde54c3	0.10856011
110	0x3db1c504	0.08680156
111	0x3d8abfe9	0.06774885
112	0x3e141189	0.14459814
113	0xbdfeaf27	-0.124357514
114	0xbd730c35	-0.059337813
115	0xbb6dc1f2	-0.003627893
116	0xbc6ab0a3	-0.01432434
117	0xbc2ca5cd	-0.010537577
118	0x3dfc09a6	0.12306528
119	0x3d431ef3	0.047636937
120	0x3d8cc2b9	0.06873078
121	0x3dc4debd	0.096127965
122	0xbd87d3b2	-0.066321746
123	0xbdd10f03	-0.102079414
124	0x3e28fad6	0.16501936
125	0x3e0bc276	0.136484
126	0x3be69d01	0.0070377593
127	0x3cef25d9	0.029192852
128	0x3d424b2a	0.047434963
129	0x3e08ea19	0.13370551
130	0x3d104486	0.0352216
131	0xbcda105d	-0.02661913
132	0x3d84547f	0.06461429
133	0x3d1fed38	0.03904459
134	0xbcc67ea2	-0.024230305
135	0x3d1038ac	0.035210297
136	0xbdeecafd	-0.11659811
137	0xbda72d64	-0.081629544
138	0xbda534d0	-0.08066714
139	0xbddbc648	-0.107311785
140	0xbd186dc6	-0.037214063
141	0xbbe3319e	-0.006933405
142	0x3cb9285e	0.022602256
143	0xbdf10c9a	-0.11769982
144	0x3e2c9a40	0.16855717
145	0xbd2c021f	-0.04199421
146	0x3d569d4a	0.052396096
147	0x3d62a540	0.055333376
148	0x3d4ed38a	0.050494708
149	0xbe4233fd	-0.18965144
150	0xbdd7e7d9	-0.10542268
151	0xbd01e677	-0.03171393
152	0x3e09428c	0.13404292
153	0x3da45ea9	0.080258675
154	0x3d389728	0.04506603
155	0x3db01f7a	0.08599754
156	0xbd8bf3af	-0.06833588
157	0xbda318c7	-0.0796371
158	0xbdf2541f	-0.11832451
159	0xbd38799f	-0.045037862
160	0xbda1376f	-0.07871901
161	0xbdd8b6ca	-0.10581739
162	0xbdc16913	-0.094438694
163	0x3e1a15bc	0.15047354
164	0x3dd21a58	0.10258931
165	0x3da1d366	0.07901649
166	0x3e13ea88	0.14444935
167	0x39aab3e0	0.00032558944
168	0x3e2c4969	0.16824879
169	0xbdceb042	-0.10092212
170	0x3e01f6bc	0.12691778
171	0x3e2b00c0	0.16699505
172	0xbd58ad2d	-0.05289953
173	0xbda7d87d	-0.08195589
174	0x3c830d3e	0.015997525
175	0xbd0c306b	-0.034225862
176	0x3e07ca53	0.13260774
177	0x3c83b7da	0.016078878
178	0xbdbb7864	-0.09153822
179	0xbd9ca029	-0.076477356
180	0x3d82ca6e	0.06386267
181	0x3dbdc2e1	0.09265686
182	0x3ca343d7	0.01992981
183	0x3d4efc1a	0.05053339
184	0x3e33d494	0.17561561
185	0x3dfae821	0.12251306
186	0xbde94968	-0.11390954
187	0x3d96af72	0.07357682
188	0x3d0e22a9	0.034701023
189	0x3dc207bd	0.09474132
190	0xbe0c71f2	-0.13715342
191	0x3e1ad222	0.15119222
192	0xbdd6dbc5	-0.104911365
193	0x3d3bd844	0.045860544
194	0x3c545115	0.012958785
195	0x3ddefc3e	0.10887955
196	0x3d8dd1f9	0.06924815
197	0xbcc57b3c	-0.024106614
198	0xbc504da8	-0.012713827
199	0x3da5006e	0.080567226
200	0xbd694bab	-0.05695693
201	0x3daa5f37	0.08318942
202	0x3c587d94	0.013213534
203	0xbd642be0	-0.055705905
204	0xbdbdb926	-0.0926383
205	0x3d1b0bc1	0.037853006
206	0x3d29342c	0.04130952
207	0x3da0b9b2	0.078479186
208	0xbc38d1cb	-0.011280487
209	0x3d7bbe64	0.061460868
210	0x3dc758b4	0.09733716
211	0x3dadd099	0.084870525
212	0x3e09c64b	0.13454549
213	0x3de02239	0.109440275
214	0x3e1914c2	0.14949325
215	0x3d96e79d	0.073683955
216	0x3d4f46b4	0.050604537
217	0xbdfb4912	-0.122697964
218	0x3bedc4ff	0.00725615
219	0xbe47f4f6	-0.19527039
220	0x3db7cc20	0.08974481
221	0x3d7e2031	0.06204242
222	0x3d39264e	0.045202546
223	0x3e20e4a9	0.15712227
224	0x3d4f9439	0.050678466
225	0xbcaa6b3a	-0.020803083
226	0xbe2305d9	-0.159202
227	0xbc3fe518	-0.011712335
228	0x3db0baac	0.08629355
229	0x3d6e86fe	0.058234207
230	0xbda899fa	-0.08232494
231	0x3cce7c53	0.025205767
232	0x3ce2d6e1	0.027690353
233	0x3d8727d9	0.06599397
234	0xbd74bc1f	-0.05974972
235	0xbdf671bb	-0.12033411
236	0x3cbb39e7	0.022854758
237	0x3de7bd67	0.113154225
238	0x3d73a90c	0.059487388
239	0x3d515eac	0.051115677
240	0x3d460264	0.048342124
241	0xbd6e201b	-0.058136087
242	0xbcc68eda	-0.024238039
243	0x3dba41bb	0.09094568
244	0xbc037f6d	-0.008025986
245	0xbd20e7b9	-0.039283488
246	0xbe127742	-0.14303306
247	0x3d87c14a	0.06628664
248	0x3dfbd0c7	0.122956805
249	0x3d949041	0.07254077
250	0xbadbaf80	-0.0016760677
251	0xbd01403a	-0.03155539
252	0x3e0907c9	0.13381876
253	0x3d94516d	0.07242093
254	0xbd937f87	-0.07202058
255	0xbccc0ec4	-0.024909385

bias f4 [64]
0	0xbc8616c1	-0.016368272
1	0x3cf389c6	0.029728781
2	0x3c8a16a0	0.016856492
3	0x3ca13255	0.01967732
4	0xbd115462	-0.035480864
5	0x3c2f7704	0.010709528
6	0x3cd47e7b	0.025939217
7	0x3c08c992	0.008348839
8	0x3bdd204f	0.0067482363
9	0xbc18c77d	-0.009324905
10	0xbd41988c	-0.04726462
11	0x3c3a59d2	0.011373954
12	0x3cf5a53c	0.029986016
13	0x3c30e2d2	0.010796266
14	0xbc612220	-0.013741046
15	0xbcdf3d49	-0.027250903
16	0xbd616304	-0.05502607
17	0xbd0098b4	-0.03139563
18	0x3d8a41e6	0.067508504
19	0xbc92c8d7	-0.017918034
20	0xbc7c8541	-0.01541263
21	0xbc8909e0	-0.016728342
22	0x3d9ee61f	0.07758736
23	0xbd347719	-0.044058893
24	0xbd28898d	-0.041146804
25	0xb9f3f666	-0.00046532153
26	0x3d351054	0.044205025
27	0x3d95860d	0.07300959
28	0x3da2d116	0.07950036
29	0xbd3f90b7	-0.04676887
30	0x3ba74d27	0.005105633
31	0x3d71fec7	0.059080865
32	0xbe1b73d2	-0.151809
33	0xbd1f5da4	-0.038907662
34	0xbcda61e1	-0.026658
35	0xbc2fab2c	-0.010721963
36	0xbd91e107	-0.07122999
37	0x3b844f6c	0.004037788
38	0x3d74f6d9	0.059805725
39	0x3d894e4d	0.06704388
40	0x3d299646	0.041403078
41	0x3d2bcb65	0.04194202
42	0x3cca143b	0.02466785
43	0x3b828399	0.003982973
44	0xbd9243ff	-0.071418755
45	0x3c685dd1	0.014182524
46	0x3a9f7c3c	0.0012167762
47	0x3cbbf7b3	0.02294526
48	0x3cee6ab4	0.029103614
49	0xbd5ba87b	-0.053627472
50	0x3cf6acb0	0.03011164
51	0xbc74b70e	-0.014936222
52	0xbc55498e	-0.013018025
53	0x3d18c200	0.037294388
54	0x3d6dfc2a	0.05810181
55	0xbc958208	-0.01825048
56	0x3a86bfa9	0.0010280508
57	0x3da599f0	0.08086002
58	0xbbaf93e2	-0.005358205
59	0xbc3385cb	-0.010957192
60	0x3c545238	0.012959056
61	0xbdd841ab	-0.105594
62	0xbd0401cd	-0.03222828
63	0xbc296e72	-0.010341274

weight f4 [64, 64, 3, 3]
0	0xbcc9996f	-0.024609296
1	0xbca813b3	-0.020517206
2	0x3c5cede7	0.013484455
3	0x3e1283cb	0.14308088
4	0x3d0b171d	0.03395759
5	0x3d510bda	0.051036693
6	0xbdaeddbd	-0.08538387
7	0xbd92f39e	-0.071753725
8	0xbe065321	-0.13117649
9	0x3c6f7d7c	0.01461732
10	0xbdfc3a60	-0.12315822
11	0x3cdd3a0f	0.027005224
12	0xbda88752	-0.08228935
13	0xbd38ddf6	-0.045133553
14	0xbdb221b7	-0.08697837
15	0xbcd94d5c	-0.026526146
16	0x3d4a1d5f	0.049344417
17	0x3dd6f50c	0.10495958
18	0x3d8ea44e	0.069649324
19	0x3d58eb90	0.052959025
20	0x3cbbae29	0.022910194
21	0x3db01552	0.085978165
22	0xbd8b86b8	-0.06812805
23	0x3c1e1353	0.009648162
24	0x3e5bead1	0.21476294
25	0xbc0d5143	-0.008625331
26	0xb782a900	-1.5575904e-05
27	0x3db32020	0.08746362
28	0x3d4ca67a	0.049963452
29	0x3e0a336d	0.1349618
30	0xbc352dc3	-0.011058274
31	0xbd093025	-0.03349318
32	0xbe1840f6	-0.1486853
33	0xbd81d757	-0.06339901
34	0xbde43325	-0.111425675
35	0xbdc18f30	-0.09451139
36	0x3e455771	0.19271637
37	0x3d13687b	0.035988312
38	0x3e171462	0.14753869
39	0xbdaded30	-0.084925056
40	0x3e3397b0	0.17538333
41	0x3d363f63	0.044494044
42	0xbc8b522a	-0.017006952
43	0x3de5f373	0.11228075
44	0xbda3ffa6	-0.080077454
45	0xbd5cf603	-0.053945553
46	0x3de81b8c	0.11333379
47	0xbe19c37b	-0.15015976
48	0x3a9db0ff	0.0012030898
49	0x3c07fd2b	0.008300106
50	0x3cb914c4	0.02259291
51	0xbb70380d	-0.0036654503
52	0x3da22cd3	0.07918706
53	0xbdb942d8	-0.090459526
54	0x3da6e21a	0.08148594
55	0xbca0b414	-0.019617118
56	0x3b8c9fc2	0.0042915056
57	0x3e37e4a5	0.17958315
58	0x3ce5587d	0.027996296
59	0xbcc53c6a	-0.02407666
60	0x3dc8ad3a	0.09798665
61	0x3d484bee	0.048900537
62	0x3d1165d4	0.0354975
63	0xbe085b1f	-0.1331601
64	0xb9919e5f	-0.0002777455
65	0x3d364482	0.044498928
66	0x3c8e8f29	0.017402248
67	0xbcc84ad3	-0.024449741
68	0x3d8d69ff	0.06904983
69	0x3d8a2d4d	0.06746922
70	0x3d7e7d49	0.0621312
71	0xbc6c812f	-0.014435097
72	0xbd2f90ef	-0.04286283
73	0xbd75e1f0	-0.060029924
74	0xbd0f0bc0	-0.034923315
75	0xbdc305d4	-0.09522596
76	0x3b2677ca	0.002540099
77	0xbd925615	-0.07145325
78	0xbcbdfeb4	-0.023192741
79	0xbdaaedce	-0.08346139
80	0xbd937c9f	-0.07201504
81	0x3c851d02	0.016249184
82	0xbdd969f9	-0.10615916
83	0xbcbf2109	-0.023331182
84	0x3c978694	0.018496789
85	0x3a25d76f	0.00063263526
86	0x3c45961b	0.012059714
87	0xbdc26f76	-0.09493916
88	0xbccf7614	-0.025324859
89	0xbd6d7b04	-0.057978645
90	0x3df1b1d8	0.11801499
91	0xbd11dc8d	-0.035610724
92	0xbcbcbb60	-0.023038566
93	0x3ce17a5c	0.027524166
94	0xbda0f08b	-0.0785838
95	0x3c5872c6	0.013210958
96	0xbcc7008d	-0.024292255
97	0x3c4f95c1	0.012669981
98	0xbcd434d0	-0.02590409
99	0xbc8e2973	-0.017353749
100	0xbdb5885a	-0.088638976
101	0xbd49609c	-0.0491644
102	0x3d71bebf	0.0590198
103	0xbd3b5438	-0.045734614
104	0x3d87e756	0.06635921
105	0xbca174ad	-0.019708956
106	0xbd4eb6b3	-0.050467204
107	0x3d6421d2	0.055696316
108	0x3de05e65	0.10955504
109	0xbdbffa5b	-0.093739234
110	0x3e0d3657	0.1379026
111	0x3dee6513	0.11640372
112	0xbda060e9	-0.07830984
113	0x3c894020	0.01675421
114	0x3d2a5dca	0.04159335
115	0xbd98397e	-0.07432841
116	0xbce69610	-0.028147727
117	0xbd5d926e	-0.054094724
118	0xbd5bfc7d	-0.05370759
119	0xbe34eef3	-0.17669277
120	0x3de2e1d8	0.110782325
121	0xbcb69ea8	-0.02229245
122	0x3e2634c8	0.16231072
123	0x3db0de94	0.086362034
124	0x3d0e365e	0.034719817
125	0x3d6921ea	0.05691711
126	0xbdc160d9	-0.094423
127	0xbe125c51	-0.14293028
128	0x3de81471	0.11332024
129	0x3c9df120	0.019280016
130	0x3c422d68	0.011851646
131	0x3e0f37cb	0.13986127
132	0x3db2646e	0.08710562
133	0xbc5ac3a6	-0.01335231
134	0xbd5f823b	-0.054567557
135	0xbe0c0da8	-0.13677084
136	0xbc8c77ce	-0.017146971
137	0x3ace4ee8	0.0015740069
138	0xbe21f1c9	-0.1581489
139	0x39a93f05	0.00032281145
140	0x3cc81553	0.02442423
141	0x3cb8d801	0.022563936
142	0xbe2942de	-0.16529414
143	0xbdb845eb	-0.08997711
144	0xbd87c215	-0.06628815
145	0xbb961521	-0.0045801555
146	0xbc115f57	-0.008872828
147	0xbe244574	-0.1604212
148	0x3c97c9c4	0.018528827
149	0xbdb03a6d	-0.08604894
150	0x3dd52072	0.10406579
151	0x3da757ba	0.081710294
152	0xbe12cbeb	-0.14335601
153	0xbd4fa5ec	-0.050695345
154	0x3b77db1a	0.0037819804
155	0x3da0108d	0.07815657
156	0x3d81b749	0.06333787
157	0x3da0904e	0.07840024
158	0xbdc8da45	-0.098072566
159	0x3e325e5e	0.1741881
160	0x3d091f84	0.03347732
161	0xbe153a7e	-0.14573094
162	0xbc0a40e3	-0.008438322
163	0xbe010575	-0.12599738
164	0x3c80b003	0.015708929
165	0x3c9dea69	0.019276815
166	0xbc84c3d9	-0.016206669
167	0x3cb403d4	0.021974482
168	0x3e2cafe1	0.16863967
169	0xbdb3a15b	-0.087710105
170	0x3d7704bf	0.06030726
171	0xbd8a385f	-0.06749033
172	0xbe863721	-0.26213935
173	0xbd557d8e	-0.05212169
174	0x3c8ebdcc	0.017424487
175	0xbd96b031	-0.073578246
176	0xbd955d08	-0.07293135
177	0x3df13da6	0.11779337
178	0x3cff0c04	0.03113366
179	0xbc8d1094	-0.01721982
180	0xbe38d076	-0.18048272
181	0x3ce1bc45	0.027555594
182	0x3e1f6e1a	0.15569344
183	0xbd8373b3	-0.06418552
184	0x3dc22b9a	0.094809726
185	0xbd871f37	-0.06597751
186	0xbd677add	-0.056513656
187	0x3c0daf21	0.008647711
188	0xbce6045a	-0.028078247
189	0x3dabca9b	0.08388253
190	0x3da50752	0.08058037
191	0x3e41058c	0.18849772
192	0x3d7a84bd	0.061161745
193	0x38dbad40	0.00010475004
194	0x3e088953	0.13333635
195	0xbce66ab6	-0.028127056
196	0xbd688e29	-0.0567762
197	0xbde4f393	-0.111792706
198	0xbd922a18	-0.07136935
199	0xbcb55c6d	-0.022138799
200	0xbdb432bc	-0.08798739
201	0xbce3cd51	-0.027807863
202	0x3b100cdf	0.0021980328
203	0x3e4159c9	0.18881907
204	0xbe02e0ca	-0.12781063
205	0x3da9ff65	0.08300666
206	0xbd859c3f	-0.06523942
207	0xbdb34152	-0.08752693
208	0x3c803f4b	0.01565518
209	0x3ce0cbcc	0.027440928
210	0xbce271b1	-0.027642103
211	0xbc88b22c	-0.016686521
212	0x3df2d90c	0.11857805
213	0x39dda68c	0.00042276492
214	0xbd275064	-0.04084815
215	0xbda868e3	-0.082231306
216	0xbc5b9bf8	-0.013403885
217	0xbdd133d1	-0.10214961
218	0xbda16e46	-0.07882361
219	0x3c979596	0.018503945
220	0xbd8e7c6a	-0.06957324
221	0x3d899ea2	0.0671971
222	0xbd162f58	-0.036666244
223	0xbb0ad34c	-0.0021183072
224	0x3db1d490	0.08683121
225	0xbdeaa108	-0.114564955
226	0xbde85b22	-0.11345507
227	0xbc0f6cca	-0.008753965
228	0xbdee40a2	-0.116334215
229	0x3cb01ccf	0.021498112
230	0x3e00f239	0.125924
231	0xbd4f1af3	-0.05056281
232	0xbd0c0ee7	-0.0341939
233	0xbd304284	-0.043032184
234	0x3d9f6051	0.07782043
235	0xbe1beb25	-0.1522642
236	0x3db037b3	0.08604374
237	0x3d86bbac	0.06578764
238	0xbddc04e1	-0.10743118
239	0xbc32902e	-0.010898633
240	0xbccd3225	-0.025048325
241	0x3e3c7c3c	0.18406767
242	0xbd85e13d	-0.065371014
243	0x3c0d34ee	0.008618576
244	0x3debf04f	0.115204446
245	0x3d038378	0.0321078
246	0xba543a96	-0.0008095888
247	0xbd32ca90	-0.04365021
248	0xbcbc4214	-0.022980727
249	0x3b84ca0a	0.0040524052
250	0xbe2e1240	-0.1699915
251	0xbd9ad5aa	-0.075602844
252	0xbdbdd6a0	-0.09269452
253	0xbc506deb	-0.012721519
254	0xbdcf1fa2	-0.10113455
255	0xbd02b632	-0.031912036

bias f4 [64]
0	0x3cec40d5	0.028839508
1	0x3c51b8a5	0.01280037
2	0x3d6a38de	0.05718314
3	0xbcabef21	-0.020988049
4	0xbc9d8d0c	-0.019232295
5	0x3d2d5b18	0.042323202
6	0x3d118f82	0.03553725
7	0xbd16e1db	-0.036836486
8	0x3beba854	0.007191697
9	0xbd65babe	-0.056086294
10	0x3d9ad0a2	0.07559325
11	0x3d16750b	0.036732715
12	0x3d6a72a3	0.057238232
13	0x3de08318	0.10962504
14	0x3d8ad279	0.06778426
15	0x3d8dc66d	0.06922612
16	0xbcbdeae3	-0.023183292
17	0x3d58e8e5	0.05295648
18	0xbd4d57dc	-0.050132617
19	0x3d148cf8	0.03626725
20	0x3c8f0add	0.017461235
21	0x3dd3a07c	0.10333344
22	0x3db61830	0.08891332
23	0x3d8fe6bd	0.07026432
24	0xbd43a58e	-0.047765307
25	0xba8ba9af	-0.0010655428
26	0xbca98577	-0.020693524
27	0x3d4d764e	0.050161652
28	0x3c6c8e67	0.014438248
29	0x3db7499f	0.08949589
30	0x3d7b7a5a	0.06139598
31	0x3c280380	0.010254741
32	0xbbe0f7b0	-0.006865464
33	0x3a79c55f	0.0009528007
34	0x3d1a4fc5	0.03767373
35	0xbd4f62ef	-0.05063146
36	0x3db15806	0.08659367
37	0xbc948129	-0.018127995
38	0x3d019f17	0.03164586
39	0xbd87280c	-0.06599435
40	0x3c516ec7	0.012782759
41	0xbcdb3969	-0.026760774
42	0x3c403a54	0.0117326565
43	0xbd31cf6e	-0.04341071
44	0xbbe361db	-0.0069391555
45	0x3d922713	0.07136359
46	0xbc89ea55	-0.016835371
47	0xbde21ec2	-0.11041023
48	0xbc4314bf	-0.011906802
49	0xbb94113a	-0.004518655
50	0x3d43d8b4	0.047814086
51	0x3b3822aa	0.0028096833
52	0xbde22f3e	-0.11044167
53	0x3d3ae09b	0.045624357
54	0x3d70d063	0.058792483
55	0x3c126a84	0.008936528
56	0xba410d12	-0.00073643134
57	0x3d168e10	0.036756575
58	0xbd3fdc29	-0.04684082
59	0x3c27d376	0.010243287
60	0xbd799f59	-0.06094298
61	0x3d04d8a7	0.03243318
62	0xbd94ac88	-0.0725947
63	0x3bdabf5d	0.0066756443

weight f4 [32, 1024]
0	0x3c8a6a97	0.01689653
1	0x3de07690	0.10960114
2	0xbdd77171	-0.10519684
3	0x3b9a207f	0.004703581
4	0xbd0e2356	-0.034701668
5	0x3ba13da1	0.004920677
6	0xbded6c80	-0.1159296
7	0xbc63d855	-0.013906558
8	0x3dafa22e	0.08575855
9	0x3c2a1b4f	0.010382487
10	0x3df3b854	0.11900392
11	0x3df700a1	0.12060667
12	0xbc92a881	-0.017902615
13	0x3da2adcf	0.079433076
14	0xbc68f6de	-0.014219014
15	0x3d352183	0.044221412
16	0x3d2ab080	0.04167223
17	0x3d9a4346	0.07532363
18	0xbd832c3f	-0.06404924
19	0x3d063cb2	0.032772727
20	0x3d9579e6	0.07298641
21	0x3cea7c17	0.028623624
22	0x3d349ad8	0.044092983
23	0x3c1b9371	0.009495602
24	0xbcb32420	-0.021867812
25	0x3db9e5b5	0.09077016
26	0xbd0933c6	-0.03349664
27	0xbbb3fc55	-0.005492727
28	0x3dc5fe36	0.096676275
29	0x3cc5d245	0.024148116
30	0x3d2eaf8c	0.042647883
31	0x3cb7c3a4	0.022432156
32	0x3ca5f0f4	0.020256497
33	0xbd1fe5e4	-0.0390376
34	0xbc8e77d6	-0.017391127
35	0xbba818f7	-0.005129929
36	0x3ce009e0	0.027348459
37	0x3c9e1d69	0.019301133
38	0x3cf97bea	0.030454595
39	0xbcd74cb7	-0.026281698
40	0x3e00ce87	0.12578784
41	0x3e212eb7	0.15740477
42	0x3e016aa2	0.12638333
43	0x3d9df0cc	0.07711944
44	0x3d30a45c	0.043125495
45	0xbd193cd9	-0.037411544
46	0x3da55ff0	0.08074939
47	0x3e78d3cd	0.24299546
48	0xbc525068	-0.012836553
49	0xbd7c35a5	-0.061574597
50	0x3ac81231	0.001526421
51	0xbce96724	-0.028491564
52	0x3ba3dd77	0.005000766
53	0x3dbf5c5f	0.0934379
54	0x3d4734ab	0.048634212
55	0xbd76e956	-0.06028112
56	0xbd0116f0	-0.031516016
57	0x3d7e3c8e	0.06206947
58	0x3cd60a4c	0.026127957
59	0x3d1ff59e	0.0390526
60	0x3c1f8b30	0.009737775
61	0xbb727000	-0.0036993027
62	0x3d04666a	0.032324232
63	0x3dcf3f7e	0.10119532
64	0xbcf5924c	-0.029976986
65	0xbc0e5c33	-0.008688974
66	0x3d370e22	0.044691212
67	0xbd53dc75	-0.051723916
68	0x3dd08791	0.10182107
69	0xbd29b4c3	-0.041432153
70	0xbc3a5219	-0.011372113
71	0x3d1ec31a	0.038760282
72	0x3d045147	0.032304075
73	0xbcbbbb1f	-0.022916375
74	0xbcdcbb9b	-0.026944926
75	0x3cf30381	0.029664757
76	0xbd7827a3	-0.060584676
77	0x3c89f8bd	0.01684224
78	0x3d04f45f	0.032459613
79	0x3d055013	0.032547068
80	0x3d3b04ac	0.045658752
81	0x3d224fa8	0.039626747
82	0x3c59afce	0.013286544
83	0xbc9d8853	-0.019230044
84	0xbc95e603	-0.018298155
85	0x3d0ca566	0.034337424
86	0xbd3d62c4	-0.04623677
87	0xbd2ae281	-0.041719917
88	0x3bd6b6f7	0.006552573
89	0x3d967d43	0.073481105
90	0xbd4c5b00	-0.049891472
91	0x3e226e0d	0.15862294
92	0xbd57be2d	-0.0526716
93	0x3cbb1ccd	0.022840882
94	0xbd0d1080	-0.034439564
95	0xbe2d6001	-0.16931154
96	0xbd7149fd	-0.05890845
97	0xbd5a3c7a	-0.05328033
98	0x3caf0c16	0.021368068
99	0x3d21e1dc	0.039522037
100	0x3d152eff	0.036421772
101	0xbca5659b	-0.02019005
102	0xbd73df6d	-0.059539247
103	0xbe163cc8	-0.14671624
104	0x3cd5871a	0.026065398
105	0x3d195cbc	0.037441954
106	0x3ca757da	0.020427633
107	0xbd40dd1a	-0.04708586
108	0x3d40b0a5	0.04704346
109	0x3dccc30d	0.099981405
110	0x3cef9458	0.02924554
111	0x3ddbcc85	0.107323684
112	0x3d93ab9a	0.07210465
113	0x3e4a0c41	0.19731237
114	0x3d929e7d	0.071591355
115	0x3d2b3c71	0.04180569
116	0x3ca0c503	0.019625193
117	0x3c1fb15b	0.009746875
118	0x3d208da4	0.03919758
119	0xbd35ca6e	-0.044382505
120	0x3be8ce6a	0.0071046846
121	0x3d775226	0.060381077
122	0x3d6f4895	0.05841883
123	0xbcba9cb2	-0.022779796
124	0xbcb5e727	-0.022204949
125	0xbca1394d	-0.019680643
126	0x3d6c2f6f	0.057662424
127	0xbc25fb7e	-0.010130761
128	0x3cd9089d	0.026493365
129	0xbd88004f	-0.06640684
130	0xbd5f806c	-0.054565832
131	0x3d048a38	0.03235838
132	0x3b947441	0.00453046
133	0x3c97e76c	0.018542968
134	0x3d2241ab	0.039613407
135	0x3d2bee8b	0.04197554
136	0x3d100fb9	0.035171244
137	0x3d02827f	0.031862732
138	0x3d79127b	0.06080864
139	0xbc4768e7	-0.012171007
140	0xbd1b68af	-0.03794163
141	0x3bd35f67	0.006450582
142	0xbcd52245	-0.026017318
143	0xbc5c1251	-0.013432101
144	0xbcce26ac	-0.025164925
145	0x3a6de2c6	0.00090746244
146	0x3d425faa	0.047454514
147	0x3d69a489	0.05704168
148	0x3d189522	0.0372516
149	0x3db2ecdc	0.087365836
150	0xbcb5823b	-0.022156825
151	0x3cfbd154	0.030739464
152	0x3d981923	0.074266694
153	0xbba80be7	-0.005128372
154	0x3b66520a	0.0035144114
155	0xbc85b46a	-0.01632138
156	0x3d914c89	0.07094676
157	0x3deedd7e	0.1166334
158	0x3d847f68	0.06469613
159	0x389b5bba	7.408061e-05
160	0xbd55f8e6	-0.05223932
161	0x3d05ec7f	0.032696243
162	0x3c0ce2bd	0.0085989805
163	0xbd749c7d	-0.05971955
164	0x3c643650	0.013928965
165	0x3c0d5254	0.008625586
166	0x3d90638e	0.070502385
167	0x3e03ea1d	0.12882276
168	0x3d3f4a54	0.046701744
169	0xbdb72c8c	-0.089440435
170	0xbe1ca01e	-0.15295455
171	0xbd0f29ed	-0.034952093
172	0xbd2ff440	-0.042957544
173	0xbcf0ac5b	-0.02937906
174	0xbd75404c	-0.05987577
175	0xbd02dad5	-0.031946976
176	0xbda3cd86	-0.07998185
177	0xbc9f1976	-0.01942132
178	0xba92ef66	-0.0011210262
179	0xbce15509	-0.027506368
180	0xbbac2581	-0.0052534943
181	0xbace9b5c	-0.0015762853
182	0xbd1b0869	-0.037849817
183	0x3d45ddb9	0.048307154
184	0xbcb151bd	-0.021645421
185	0x3c379578	0.01120507
186	0xbc663846	-0.014051503
187	0xbdf5c008	-0.11999518
188	0xbcf121ff	-0.029435156
189	0x3dc10f4e	0.09426747
190	0x3d8039a4	0.06260994
191	0x3d14931c	0.036273107
192	0x3e166420	0.14686632
193	0x39cb12c3	0.00038733156
194	0x3d3473f6	0.0440559
195	0x3d635139	0.05549738
196	0xbd76223d	-0.060091246
197	0x3b4bf011	0.0031118433
198	0xbcf50429	-0.02990921
199	0xbce754fa	-0.028238762
200	0x3d970b98	0.07375258
201	0xbd81ea40	-0.06343508
202	0xbd8fb097	-0.07016104
203	0x3d318d86	0.043347858
204	0x3c07a1ea	0.008278349
205	0x3c1ead07	0.009684808
206	0x3cfb8766	0.030704211
207	0xbca6620a	-0.02031042
208	0xbd15b503	-0.03654958
209	0xbcd8d296	-0.026467603
210	0x3c6b0c3d	0.01434618
211	0x3c9785b1	0.018496366
212	0x3d4bf108	0.049790412
213	0x3e04c6af	0.12966417
214	0x3dd50e22	0.10403086
215	0xbe46029f	-0.19336937
216	0x3c44cadd	0.012011257
217	0xbd0c8f2c	-0.034316227
218	0xbd71f766	-0.05907383
219	0xbd978dc0	-0.074000835
220	0xbd42330d	-0.047411967
221	0x3d7182d4	0.058962658
222	0x3ca5c532	0.020235632
223	0x3bd40423	0.0064702197
224	0x3dc45854	0.0958716
225	0x3cad78c2	0.021175746
226	0xbd2eadfb	-0.04264639
227	0xbc2a723c	-0.010403212
228	0xbd30a7e7	-0.043128874
229	0xbd169781	-0.03676558
230	0xbc11f541	-0.008908571
231	0xbddb91c3	-0.10721161
232	0x3da5a631	0.08088339
233	0xbd34d013	-0.044143748
234	0x3df3d874	0.119065195
235	0x3cf03b7d	0.029325241
236	0xbd31b422	-0.04338468
237	0xbc93b8a9	-0.018032389
238	0xbd758bd0	-0.05994779
239	0x3d2917d7	0.0412825
240	0xbcec1fc6	-0.028823745
241	0xbc0f267a	-0.008737201
242	0xbd8cba35	-0.06871454
243	0xbd864740	-0.065565586
244	0xbda151be	-0.07876919
245	0x3d1296a4	0.035788193
246	0xbda488ea	-0.08033927
247	0xbd70e810	-0.058815062
248	0xbc911476	-0.017709952
249	0xbcaeb37e	-0.021325823
250	0x3ae37a5f	0.0017355195
251	0xbd02f9db	-0.031976562
252	0x3d65fb1e	0.056147687
253	0x3dc6915d	0.096956946
254	0xbb16361e	-0.002292044
255	0x3ce0599f	0.027386485

bias f4 [32]
0	0xbdc00c2a	-0.0937732
1	0x3dbcbca6	0.09215669
2	0x3c5f3ae0	0.013624877
3	0xbd4a2e15	-0.049360353
4	0x3d76b93b	0.060235243
5	0x3db7961e	0.089641795
6	0x3ce881ed	0.028382266
7	0xbd11c87e	-0.035591595
8	0x3d09e416	0.033664785
9	0xbd849c3a	-0.0647511
10	0x3d078c62	0.033092864
11	0x3e187387	0.1488782
12	0xbbc0b564	-0.0058809984
13	0x3c6470f5	0.013942947
14	0xbbb26614	-0.0054442976
15	0x3c98879e	0.018619355
16	0xbcac8001	-0.02105713
17	0x3dadbd82	0.08483411
18	0x3d13ff81	0.03613234
19	0x3ba864dc	0.0051389765
20	0x3dfcc397	0.12341993
21	0x3d9d0eb4	0.0766882
22	0xbd28eb9d	-0.041240323
23	0x3da972c1	0.08273841
24	0x3c19522c	0.00935797
25	0x3da69a82	0.08134939
26	0xbc8b5fbc	-0.017013423
27	0xbd3a0ca9	-0.04542223
28	0x3d41751d	0.04723083
29	0x3d8bfea4	0.06835678
30	0x3d1f7c20	0.038936734
31	0x3d207c4d	0.039181042

weight f4 [15, 32]
0	0x3e2e29c8	0.17008126
1	0x3d71aebc	0.05900453
2	0xbdc5e4e1	-0.09662796
3	0x3d2a758a	0.041616
4	0xbd1dbc7f	-0.038509842
5	0xbe0bbfaa	-0.13647333
6	0xbeb5c54a	-0.35502082
7	0x3e82b819	0.2553108
8	0x3d5e80af	0.05432194
9	0xbd927b5d	-0.07152436
10	0x3d0941c2	0.033509977
11	0x3cdd1b31	0.026990505
12	0x3dc878f8	0.09788698
13	0x3e6ee9ea	0.23331419
14	0x3c670c74	0.01410209
15	0x3e126d82	0.14299586
16	0xbe7e961d	-0.24861951
17	0x3dd83c86	0.10558419
18	0xbe487427	-0.19575559
19	0xbe498359	-0.19679011
20	0xbca3194c	-0.019909523
21	0xbeb23bc0	-0.3481121
22	0xbe70f84e	-0.2353222
23	0xbe874cc9	-0.2642577
24	0xbe191470	-0.14949203
25	0x3df3a234	0.11896172
26	0x3ea31b78	0.31856894
27	0xbdb6b9d3	-0.08922162
28	0x3d7778a2	0.06041778
29	0xbe4a0568	-0.19728625
30	0x3dc30ed7	0.09524315
31	0x3eb8579b	0.36004338
32	0xbd6c3bdf	-0.057674285
33	0xbd8fa3c2	-0.07013656
34	0xbe4ecf43	-0.20196252
35	0xbe510151	-0.20410658
36	0x3e094166	0.13403854
37	0xbdb5142b	-0.08841737
38	0xbd51f9d3	-0.05126364
39	0x3e22b998	0.15891111
40	0x3dd85894	0.1056377
41	0xbe7afcf6	-0.2451056
42	0x3c962bd8	0.018331453
43	0xbdbfe428	-0.09369689
44	0xbe050150	-0.12988782
45	0x3e0e4b8f	0.13896011
46	0xbd8c0e26	-0.06838636
47	0xbd1349df	-0.03595912
48	0xbbfafb4b	-0.007659351
49	0x3d9709a4	0.07374886
50	0xbe077e87	-0.1323186
51	0x3d9ff227	0.07809859
52	0xbd8eca50	-0.06972182
53	0x3c243ff8	0.010025017
54	0xbd1c7161	-0.038194064
55	0x3c3ca4f3	0.011513936
56	0xbe21b7d6	-0.15792784
57	0x3d53a68e	0.05167251
58	0x3dc6008b	0.09668072
59	0x3c40fbfa	0.011778826
60	0xbe46a963	-0.19400553
61	0xbca37896	-0.01995496
62	0xbdf109ba	-0.11769433
63	0xbddaf32d	-0.10690913
64	0x3cc82b17	0.02443461
65	0xbdad78a4	-0.08470276
66	0xbeca3185	-0.39490905
67	0xbc311201	-0.010807515
68	0xbd7d432a	-0.06183163
69	0xbda9ae8b	-0.082852446
70	0xbe1039e4	-0.14084584
71	0xbe4ffd18	-0.20311391
72	0xbda19b27	-0.07890921
73	0x3e38af89	0.18035711
74	0xbeb21791	-0.34783605
75	0xbcc3e45e	-0.023912605
76	0xbe974f9f	-0.29552934
77	0x3c9da1c1	0.01924217
78	0xbd82c5b3	-0.063853644
79	0xbe8c0f16	-0.2735526
80	0x3ec7b991	0.39008763
81	0x3e489cc4	0.19591051
82	0xbeb8efd6	-0.3612048
83	0x3e94ce39	0.29063585
84	0xbc28a856	-0.010294041
85	0x3e28ab32	0.16471556
86	0x3e194d49	0.14970888
87	0x3d3569b6	0.044290267
88	0xbea7f9c7	-0.32807752
89	0x3e0b55fc	0.13607019
90	0xbd5e24b7	-0.054234233
91	0xbdc6c5be	-0.09705685
92	0xbee883b1	-0.45412973
93	0xbe67d535	-0.22639926
94	0xbe9084f2	-0.2822643
95	0x3d9408e1	0.07228256
96	0xbc852a07	-0.016255392
97	0x3d500f3f	0.05079579
98	0xbd46e896	-0.048561655
99	0xbdda1654	-0.1064879
100	0xbd8b893c	-0.06813285
101	0xbe08c86b	-0.13357703
102	0xbcfd09ff	-0.030888556
103	0x3e0c2188	0.13684666
104	0x3e10608c	0.1409933
105	0xbd8740cd	-0.06604157
106	0xbd86ee19	-0.06588382
107	0xbd022bfa	-0.03178022
108	0x3df9aa8a	0.12190731
109	0x3ebb700e	0.36608928
110	0xbcd7309c	-0.026268296
111	0x3d0a9cda	0.03384099
112	0x3c26107b	0.010135765
113	0xbdf28633	-0.11842003
114	0xbd49c230	-0.049257457
115	0xbe066508	-0.13124478
116	0xbdbfd4c0	-0.09366751
117	0xbe865f90	-0.26244783
118	0x3e0a0d2a	0.13481584
119	0xbdf9b3b9	-0.121924825
120	0xbe1dde5a	-0.15416852
121	0xbe742baa	-0.23844782
122	0x3daefb65	0.085440435
123	0x3df2a6b5	0.11848203
124	0xbd0c933b	-0.034320097
125	0x3dcc30c6	0.0997024
126	0xbcab9c2c	-0.020948492
127	0x3e8b81e9	0.2724755
128	0x3dc0110f	0.09378254
129	0xbd526095	-0.05136164
130	0x3d836908	0.064165175
131	0x3e0f1ad9	0.13975085
132	0xbd789d7c	-0.060697064
133	0xbd387640	-0.045034647
134	0xbcebba7c	-0.028775446
135	0x3d1c1d4e	0.038113885
136	0xbcbce86e	-0.02306005
137	0x3ccd8c28	0.025091246
138	0xbd0376ef	-0.032095846
139	0xbcbedb9b	-0.023298075
140	0xbd792434	-0.06082554
141	0x3c8d4c7c	0.017248385
142	0xbdb97625	-0.090557374
143	0xbd674ca8	-0.05646959
144	0xbcae25ff	-0.021258352
145	0xbd79f712	-0.06102664
146	0xbde01f73	-0.109434985
147	0xbce971b6	-0.028496604
148	0xbd9e3028	-0.07724029
149	0xbb9abf83	-0.004722537
150	0xbce68b5e	-0.028142627
151	0xbd492025	-0.04910292
152	0x3cedb857	0.029018564
153	0x3af1b1f1	0.0018439871
154	0xbe5c3099	-0.21502914
155	0x3d68eb89	0.05686525
156	0x3cdf3d43	0.027250892
157	0x3d262b0f	0.040568408
158	0xbb86cb50	-0.004113592
159	0x39e743e4	0.00044110336
160	0x3e1ac458	0.15113962
161	0xbdd303da	-0.10303469
162	0xbc583846	-0.01319701
163	0x3e11bce8	0.14232218
164	0xbe363d0e	-0.17796728
165	0xbc8dd0a3	-0.0173114
166	0xbe23b757	-0.15987907
167	0xbe10dedc	-0.14147514
168	0xbceb7439	-0.028741943
169	0x3e3c9d66	0.18419418
170	0xbe92ee73	-0.28697547
171	0xbbdb522e	-0.006693146
172	0xbe579da0	-0.21056223
173	0xbe15a090	-0.14612031
174	0xbd284df7	-0.041089978
175	0xbdd02770	-0.10163772
176	0xbdff159b	-0.12455293
177	0x3c675b15	0.014120837
178	0xbe7d0d0f	-0.24712013
179	0x3d89f333	0.0673584
180	0xbd00224c	-0.031282708
181	0x3e0d5322	0.13801244
182	0x3e9c3749	0.3051093
183	0x3c83cb1d	0.016088063
184	0xbe01722b	-0.12641208
185	0xbd67d8c2	-0.0566032
186	0x3e5adf9f	0.21374367
187	0x3c106200	0.0088124275
188	0xbdf1380c	-0.11778268
189	0xbd7229c5	-0.059121866
190	0xbdde8407	-0.10865026
191	0xbe162a75	-0.14664634
192	0x3d75878f	0.059943732
193	0xbe6f3c03	-0.23362736
194	0xbc3e8705	-0.011628871
195	0x3e309e22	0.17247823
196	0xbdfd5081	-0.123688705
197	0xbeb257e5	-0.34832683
198	0xbca9a716	-0.020709556
199	0x3e498082	0.19677928
200	0x3d457e91	0.048216406
201	0xbe195171	-0.14972474
202	0x3e254521	0.16139652
203	0xbcd7b8ca	-0.026333231
204	0x3e938a84	0.28816617
205	0x3eaea6d8	0.34111667
206	0xbd696112	-0.05697734
207	0x3d8794f9	0.06620211
208	0x3db283ab	0.0871652
209	0xbe6339d5	-0.2219003
210	0xbe3373d8	-0.1752466
211	0x3aef235a	0.0018244789
212	0x3b93e5bd	0.004513471
213	0xbe497584	-0.19673735
214	0x3da22335	0.079168715
215	0xbe86d656	-0.263354
216	0xbd8cb757	-0.06870907
217	0xbe864a04	-0.26228344
218	0x3cf4d42a	0.029886324
219	0x3d902f24	0.07040241
220	0x3db46b52	0.08809532
221	0x3dd478e8	0.103746235
222	0xbcae52eb	-0.021279773
223	0xbd2ab517	-0.041676607
224	0xbd5df996	-0.0541931
225	0xbd9b2fd1	-0.0757748
226	0xbb670810	-0.0035252608
227	0x3bee6f06	0.0072764186
228	0xbd8c3b1f	-0.06847214
229	0xbd34fdd5	-0.044187386
230	0xbdb6a78d	-0.089186765
231	0x3dba98aa	0.091111496
232	0x3c552d99	0.01301136
233	0x3db2add4	0.08724561
234	0xbd9d5582	-0.07682325
235	0xbda26175	-0.07928745
236	0xbd27288a	-0.040810145
237	0x3dc60a23	0.09669902
238	0xbdbf1d45	-0.093317546
239	0xbce3155c	-0.027720146
240	0xbd93cd2b	-0.07216867
241	0xbdd97234	-0.10617486
242	0xbd1d32da	-0.038378574
243	0xbe17b053	-0.14813356
244	0xbdb19ca9	-0.08672459
245	0xbd6f4b38	-0.058421344
246	0xbd509254	-0.0509208
247	0xbc62e73e	-0.013849078
248	0x3a332214	0.0006833386
249	0xbda7680e	-0.08174144
250	0xbe2799cb	-0.16367261
251	0x3adce235	0.0016852083
252	0x3cb0832f	0.021546928
253	0xbd9483fc	-0.072517365
254	0xbc7c23de	-0.015389411
255	0xbe3f6d8b	-0.18694131

bias f4 [15]
0	0x3c71531e	0.014729289
1	0xbc08c00d	-0.00834657
2	0x3d754610	0.05988127
3	0xbcbf4539	-0.023348438
4	0xbc8f6305	-0.01750327
5	0x3c9b049e	0.0189231
6	0x3d2ea6f5	0.04263969
7	0xbd67cab1	-0.056589786
8	0xbdd2d48f	-0.102944486
9	0x3cc4640e	0.023973491
10	0xbda452cd	-0.080236055
11	0x3cb6d252	0.022317085
12	0x3c61f0c7	0.013790316
13	0x3d0547f6	0.03253933
14	0x3d39c93b	0.045357924

weight f4 [1, 32]
0	0xbd426b47	-0.04746559
1	0x3d2dbd1b	0.042416673
2	0x3de602ab	0.112309776
3	0xbd246fb8	-0.040145606
4	0x3dc8c936	0.09804003
5	0x3de42626	0.11140089
6	0x3cadc420	0.021211684
7	0xbba8e000	-0.005153656
8	0x3e3af1d7	0.18256317
9	0xbd5396b3	-0.05165739
10	0x3bfb32b0	0.0076659545
11	0x3e105e05	0.14098366
12	0xbc7a11bb	-0.015263016
13	0xbb64cdc2	-0.003491268
14	0xbc673b69	-0.014113286
15	0xbc5f4093	-0.013626236
16	0xbd175250	-0.036943734
17	0x3ccb3d37	0.024809463
18	0x3d749dd7	0.05972084
19	0xbc85ec9e	-0.01634818
20	0x3d89453d	0.06702659
21	0x3d23b6fb	0.039969426
22	0xbd0fc00b	-0.035095256
23	0x3dcf8c1a	0.10134144
24	0x3e27f49d	0.16401906
25	0x3c94c50f	0.018160371
26	0xbc03d82a	-0.008047143
27	0xbcb2bf28	-0.021819666
28	0x3e3886b6	0.18020138
29	0x3dd342bf	0.10315465
30	0xbc869a96	-0.016431134
31	0xbbfba74f	-0.007679857
