exp/700levels-policy.pt (torch, 443935 bytes, 11 tensors)

weight f4 [32, 3, 8, 8]
000000 23 7f 4a be 03 a1 f4 bc 9d b7 9c 3d be ff b9 bd
       -0.19775061 -0.029861933 0.07652209 -0.09081982
000010 08 60 4c 3d 02 65 6e bd 1e 1c 09 3e 86 94 f3 bc
       0.04989627 -0.058201797 0.13389632 -0.029733907
000020 fe 77 98 bd ec 62 52 bd ac 8b 08 bd 84 d8 2f be
       -0.07444762 -0.05136387 -0.033336326 -0.17172438
000030 44 93 05 3e 03 43 2d 3e 23 c5 06 bd 3a f9 c1 3d
       0.13044459 0.16920094 -0.032902848 0.09471364
000040 94 a2 29 bd e2 9a 02 3d 5a e2 76 3e 53 5e 7c bd
       -0.041414812 0.03188599 0.24109784 -0.061613392
000050 73 99 e9 bd 59 8f 31 3d dc 34 89 bd e8 ff 1e be
       -0.11406221 0.043349598 -0.06699535 -0.15527308
000060 12 2c 35 3e d8 c5 5a 3e d6 b2 3c 3e 63 29 51 bd
       0.17692593 0.21364534 0.18427595 -0.05106486
000070 31 ab d5 3c 4f cd 4f bd a1 d5 b4 bd 92 1e 17 be
       0.026082607 -0.050732907 -0.08829809 -0.14757755
000080 54 57 dc bd f6 7d c4 bd 96 18 7c 3d aa 2e 2d 3e
       -0.10758844 -0.09594338 0.061546884 0.16912332
000090 fd 91 30 3e 14 b2 07 3e 3a 1d 89 3e 0f 10 fc 3d
       0.1724319 0.13251525 0.2678011 0.123077504
0000a0 38 95 32 3d eb 04 c1 bd 8f fe f1 3c fe 4e 0e 3d
       0.043599337 -0.09424766 0.029540328 0.0347433
0000b0 61 45 06 3d b3 cb 57 3d 67 64 ac ba dc da ed 3d
       0.03278101 0.052684497 -0.0013152481 0.1161401
0000c0 4d 80 29 3e 5a d7 93 3c 38 40 82 bd 25 2c 43 3e
       0.16552849 0.018047024 -0.06359905 0.19059809
0000d0 5a f2 24 3e 48 74 43 be bc 39 ca bd 6f e0 ca 3d
       0.16108075 -0.19087327 -0.09874293 0.099060886
0000e0 ee 5c 13 be f3 80 8f bd 0d 46 1f 3e c7 3b 75 3d
       -0.14390919 -0.07007017 0.15554066 0.05987146
0000f0 ff 2a 3d 3e d3 8e c9 3d d3 18 f9 bd d9 dc e8 3c
       0.18473433 0.09841695 -0.12162938 0.02842562
000100 1e 49 34 be e0 8a 7b bd 1a e6 cb bd 87 ee 6a 3d
       -0.17606017 -0.06141174 -0.09955998 0.057356384
000110 82 c0 ce bd 9e 22 44 3e f8 93 79 bd f5 be 4f 3d
       -0.10095312 0.1915383 -0.06093213 0.05071922
000120 02 95 28 be 6c ab e1 bd 4a 44 97 bd 36 62 da 3d
       -0.16463092 -0.11019024 -0.07386072 0.106632635
000130 60 ce 06 3e be fc 22 3e 75 dc 94 3d 15 e5 fb 3d
       0.13164663 0.15916726 0.07268611 0.12299553
000140 e5 14 82 3d 60 f7 21 3d 6c 9d 0f 3e 28 25 d6 3d
       0.063516416 0.039542556 0.14024895 0.10456306
000150 2f 51 1e bd bf 6b 9a 3d 24 d4 67 bd 3f 53 d7 bd
       -0.03865164 0.07540082 -0.056598797 -0.10513925
000160 ce 9f 54 3e f0 09 9c 3d 09 fc 6d 3e 2e c0 a1 39
       0.20764086 0.07619083 0.23240675 0.00030851498
000170 59 43 35 bd 5c fa f2 bc f4 3a da 3b 11 8e 21 be
       -0.04425368 -0.029660396 0.00665986 -0.1577685
000180 8b 9e 96 bd 89 9a 8e bd d5 81 09 bd 02 66 27 bd
       -0.073544584 -0.06963069 -0.033571083 -0.040868767
000190 1a fb 78 3c fa 44 bf 3d 14 53 03 3e 7f 37 10 3b
       0.015196586 0.09339328 0.1282466 0.0022005734
0001a0 0c 10 97 3d a8 f1 c1 3c 33 8f 2c be cf 8d 10 3e
       0.073761076 0.023674801 -0.16851501 0.14116596
0001b0 26 43 a5 3d e3 2f a9 bd 2d 1b f8 bd d7 8c 0f 3e
       0.08069448 -0.08261087 -0.12114558 0.1401857
0001c0 73 8b f1 3d 72 27 c1 bc 2c 5b e7 bb 6c a0 21 3e
       0.11794176 -0.02357838 -0.007060429 0.15783852
0001d0 54 12 99 3e 79 d3 4d bd c8 ff b3 3d 59 ae 80 3b
       0.29896796 -0.050250504 0.08789021 0.003927034
0001e0 fc bd f4 3d 25 a7 00 3e b3 ee 53 bd b0 a7 8a bc
       0.11950299 0.1256376 -0.051741313 -0.016925663
0001f0 21 5c 8f bd 55 2b 89 bd 42 2a 66 3e 7d 67 be 3d
       -0.06999994 -0.06697718 0.22477058 0.092970826
000200 d7 39 52 be 8e df 7b bd 81 96 86 be dd c4 a7 be
       -0.20529877 -0.061492495 -0.262867 -0.32767382
000210 a9 3e 44 be f8 be 64 bd e0 ba e6 bd 47 1d 80 be
       -0.19164528 -0.055846184 -0.11266112 -0.25022337
000220 eb 3e 26 3d e8 9c 16 bc d4 f4 55 3d 1d 4a a6 3c
       0.040587347 -0.009192683 0.05223544 0.020299012
000230 56 01 53 3d a5 24 6f be 66 b1 16 be cd d3 8a ba
       0.051514946 -0.23353823 -0.1471611 -0.0010591686
000240 ba ce 22 bd 21 17 a2 3d b0 b2 3a be d6 84 03 bd
       -0.03974793 0.07914568 -0.18232226 -0.032109104
000250 30 01 8a 3d 0d 00 3b bd 62 05 d5 bd 9f 95 96 be
       0.06738508 -0.045654345 -0.10401417 -0.29411027
000260 2e 92 02 be 2c 55 05 be 8a 71 88 be 30 dd dd bd
       -0.12751076 -0.13020772 -0.26649123 -0.10833204
000270 f8 ba 16 be ae 64 c3 3c 0e 68 6f bd 3e 77 8e 3c
       -0.1471976 0.023851719 -0.058448844 0.017390843
000280 bc ea 36 be f8 5c 34 bd bb e5 e6 bd de 41 44 be
       -0.17862982 -0.044033974 -0.11274286 -0.19165751
000290 fc cd 65 be 9f 8b 4e be f6 4f 10 3d a7 fb 16 3e
       -0.22441858 -0.20170449 0.035232507 0.14744435
0002a0 f4 51 3f bd 92 6a fd 3d 67 9f 81 be f0 f9 15 be
       -0.046709016 0.12373842 -0.25316927 -0.14646125
0002b0 36 4e af be 5a aa 2e be ed a4 49 bd f3 26 e4 bc
       -0.34239358 -0.17057171 -0.04922955 -0.027850604
0002c0 d4 5e fa bd e2 cd 6b 3d 1c 69 82 be c3 f4 a3 be
       -0.12225118 0.057569392 -0.25470817 -0.32022676
0002d0 bd 78 d2 be 7c a2 31 be 3f ff 69 be 3b ce fb bd
       -0.4110774 -0.17347139 -0.22851275 -0.12295195
0002e0 54 03 c0 3d 42 ce 40 bd 91 21 17 be 98 84 a1 be
       0.09375635 -0.047071703 -0.14758898 -0.31546474
0002f0 9b 2e 19 be b9 b4 59 be aa 1b 89 3c e9 8b 09 be
       -0.14959185 -0.21260346 0.016736824 -0.13432278
000300 ae 29 95 3c 20 5a 4a 3d 76 17 1f be e8 5f c6 bd
       0.018208351 0.049402356 -0.15536293 -0.096862614
000310 a3 4b 40 bd da ce 90 be 7e c9 e4 bc f0 66 d4 bd
       -0.046947133 -0.28282815 -0.02792811 -0.10371196
000320 55 a0 67 be a5 15 20 bd 29 37 0b be 23 57 84 bd
       -0.22619756 -0.03908314 -0.1359526 -0.064619325
000330 59 ee 82 bd 2e 1e 4a be 07 58 69 be c1 f9 af bd
       -0.063931175 -0.19738075 -0.22787486 -0.08592559
000340 72 99 44 be c3 b4 2c 3d 78 ca b7 bd 0f 05 b0 bc
       -0.1919916 0.042164575 -0.08974165 -0.021486787
000350 a6 f3 16 be a3 2a c2 bd fa 22 83 3d 94 5d 98 3c
       -0.14741382 -0.094807886 0.064031556 0.018599309
000360 f7 10 db bd 6c ab 85 be e7 93 c5 be c4 a0 93 be
       -0.10696595 -0.26107347 -0.38589403 -0.28833592
000370 28 35 53 3d 7b a2 21 be 32 c3 17 be 4b ac 4a be
       0.051564366 -0.15784638 -0.14820555 -0.19792287
000380 f2 e5 f5 bc 2b a4 26 bb 95 c7 1b 3e f7 e1 3d be
       -0.030016873 -0.0025427442 0.15212853 -0.1854323
000390 b2 c1 a9 bc 29 6c cc 3d d3 18 e9 bd 59 42 94 bd
       -0.020722244 0.099815674 -0.11381688 -0.07239217
0003a0 b5 1a 80 3d 27 d7 28 bc 95 73 d4 3c 7f bc b0 3a
       0.06255094 -0.010305203 0.02593402 0.0013483911
0003b0 f3 53 4d 3c b5 4f cd bc 45 a8 2d bd b1 7c 04 bd
       0.012532222 -0.025062421 -0.042396802 -0.032345477
0003c0 81 3a f5 bd 8c 70 a0 bd d3 e3 4f be 0b e5 b4 bb
       -0.11974049 -0.078339666 -0.20301752 -0.005520468
0003d0 a6 95 67 be a7 e6 52 be e6 68 52 3c 5d fd 6b bd
       -0.2261568 -0.205958 0.012842393 -0.057614673
0003e0 45 30 3d 3e b6 ce 41 bd 43 f3 59 be f6 b9 03 be
       0.18475445 -0.047316276 -0.21284203 -0.12863907
0003f0 74 ac 10 be cb b3 d3 3c ea ff b7 bd 68 8c f8 be
       -0.14128286 0.025842568 -0.089843586 -0.4854462

bias f4 [32]
000000 7d f9 8e bc c8 55 04 bc 10 30 77 bc b9 c1 ee 3c
       -0.01745295 -0.0080770925 -0.015087143 0.029145109
000010 78 5e 93 bc 91 6c e1 b8 80 2c 0d ba 4a d8 f1 bb
       -0.017989382 -0.00010749058 -0.0005385354 -0.00738052
000020 5c 77 53 bb 19 ab 06 bd b1 99 4d bc 41 49 5f bb
       -0.0032267189 -0.032878015 -0.01254885 -0.0034070762
000030 f2 86 ff bb b5 3f c3 bb 86 78 82 b9 2d b8 84 ba
       -0.007798069 -0.005958522 -0.0002488533 -0.001012569
000040 10 ba c4 bb e6 cc 2a bc 97 7f 1e bb 98 42 b5 3b
       -0.0060036257 -0.010424828 -0.0024184936 0.0055316202
000050 f4 50 6a bc 95 ac eb 3b a1 b3 34 3c 4a 0d 97 bc
       -0.014301527 0.0071922042 0.011029155 -0.018438954
000060 ee 56 9e 38 8e b9 53 bb af a6 e1 3c 51 40 5f bb
       7.550219e-05 -0.0032306644 0.027545301 -0.0034065435
000070 d5 e0 c4 bb 7b 0a 60 bb 2d 81 72 3b f6 07 35 bb
       -0.0060082474 -0.0034185934 0.0037003264 -0.0027623153

weight f4 [64, 32, 4, 4]
000000 4e a0 f4 3d 10 e5 29 3d 66 dd 15 3e 72 1a e6 3d
       0.11944638 0.041478217 0.14635238 0.11235513
000010 39 01 82 bc 30 18 09 3d 81 75 93 3d 55 21 3d bc
       -0.015869724 0.033470333 0.072001465 -0.0115435915
000020 78 e1 d1 bb 49 7a 00 be ce fe 66 be 85 5e 0e bd
       -0.006405052 -0.12546648 -0.22558138 -0.03475811
000030 51 c7 c6 be 61 01 21 be bb 61 c3 bd 81 a2 78 bc
       -0.3882394 -0.15723182 -0.09540125 -0.015175463
000040 be 7f 44 3e 55 ab b9 3d 3b 5d 39 3e 71 34 ae 3d
       0.19189355 0.09065882 0.18101971 0.08506096
000050 13 53 48 3e e9 0d 4d 3e dc b9 10 3d 4d 65 64 3c
       0.1956294 0.20024838 0.0353335 0.013940168
000060 58 a0 98 3d e5 56 45 3c c5 5f 2e be 37 93 0d be
       0.07452458 0.012044643 -0.1702872 -0.1382569
000070 1b 38 a2 bc 4d 0b c3 3d 17 c3 bd 3d 09 b6 c5 3d
       -0.019802144 0.0952364 0.09265726 0.09653861
000080 f9 f5 0f 3e 02 f0 14 3e 59 31 90 bc 5a 31 02 bc
       0.14058675 0.1454468 -0.017601656 -0.007946337
000090 14 62 65 3e ac 98 7c 3d c7 84 02 3e 3c 11 c3 3d
       0.22400695 0.061669037 0.12745963 0.095247716
0000a0 22 40 49 3d 33 ab c0 bd 91 20 e9 3d 2b 11 3b 3e
       0.049133427 -0.09407654 0.11383165 0.18268268
0000b0 e3 14 0e be 4e 15 a2 be 3f 9c ea 3c 0a f5 a5 bc
       -0.13875155 -0.3165688 0.028638957 -0.020258445
0000c0 ae e1 b8 3c 83 7e af 3c 0e ce 3c 3e 9a 38 a5 3d
       0.02256855 0.02142263 0.18437979 0.080674365
0000d0 57 1f 2b 3e 9d c2 ad bd e9 a6 88 3c 63 92 85 3d
       0.16711174 -0.08484385 0.016681151 0.06522062
0000e0 09 f5 9c bd c3 f3 be bd d6 2e 6e 3d 78 21 03 be
       -0.07663924 -0.093238376 0.058150135 -0.12805736
0000f0 18 1c bb bd 4b 34 f6 bd 54 4a 43 bd 52 29 f3 bd
       -0.09136218 -0.12021693 -0.047678307 -0.118731156
000100 e4 c1 e4 bd d1 5b ee bc ba a1 e6 bc 10 c7 a1 3c
       -0.11169794 -0.029096516 -0.02815329 0.01974824
000110 01 11 96 bd e5 8b 9f bd 01 8b 5b 3d 7c 79 a0 3d
       -0.07327462 -0.07790355 0.05359936 0.07835671
000120 92 6a 29 be e9 31 e3 bd c8 3d 15 bd 05 ca 29 be
       -0.1654456 -0.11093504 -0.036435872 -0.1658097
000130 b2 29 13 bf 09 c2 89 be fe fa 35 bd 7d a9 4d 3d
       -0.57485497 -0.2690585 -0.044428818 0.050210465
000140 03 fb 0e bd e0 e2 8f bc a5 4a 8e bb 5f c1 f4 bd
       -0.034907352 -0.017564237 -0.0043423944 -0.11950945
000150 c3 90 96 3b 4a a7 86 3c cb 7c 8b bc 8f b2 28 3c
       0.0045948937 0.016437192 -0.01702728 0.010296478
000160 14 4e fe bb 23 a6 c4 be 87 81 5f be ef 4c 18 be
       -0.0077607725 -0.38408002 -0.21826755 -0.14873098
000170 06 1b 5d be a5 db 57 bd f5 18 3b 3d f3 1f 26 be
       -0.2159234 -0.052699704 0.045678098 -0.16223125
000180 65 a0 62 3d aa d9 a3 3d 95 a1 89 ba 3f c8 cd 3c
       0.055328745 0.080005005 -0.0010500426 0.025119899
000190 78 0f 3b 3e 3f 61 56 3d 50 b6 21 be d6 26 0f 3d
       0.1826762 0.052338835 -0.15792203 0.034949146
0001a0 4d 0e 14 be b0 6d 82 bd 6a f5 90 be f2 1b 77 3a
       -0.1445858 -0.063685775 -0.28312236 0.00094264664
0001b0 8f 1c df bd df a1 04 bd 74 6b a0 bc ec e1 a7 3d
       -0.10894119 -0.032380935 -0.019582488 0.08197388
0001c0 42 a5 f3 3d fe 61 a8 bb 52 27 c9 bc 83 ae 53 3d
       0.11896755 -0.0051386347 -0.024554882 0.0516801
0001d0 6c a0 c5 3d 04 23 58 3d da 14 ca bb 10 33 14 bd
       0.09649739 0.05276777 -0.0061670365 -0.03618151
0001e0 10 f8 b9 bc 71 ce ae bc 8c e4 e9 bb c0 55 36 be
       -0.022701293 -0.021338673 -0.0071378406 -0.17806149
0001f0 2b 83 67 bd 99 76 e0 bd c6 ce 00 be 20 26 55 3d
       -0.056521576 -0.10960121 -0.12578878 0.052038312
000200 8d d1 c2 bc 2e 4a fb bc 48 2d bd 3c c8 56 86 bd
       -0.023781562 -0.03067502 0.02309288 -0.06559521
000210 7a 9c 85 3d 82 be 47 bc 8c dc d8 bd dc a9 64 3d
       0.06523986 -0.012191417 -0.10588941 0.055826053
000220 d7 7c 74 be ce c3 90 be 16 a1 17 bd 7d 20 a2 be
       -0.23875748 -0.28274387 -0.037018858 -0.31665412
000230 ca 5c 76 be cb 23 dc bd 84 05 ec 3c 8f b9 3c be
       -0.24058834 -0.107490145 0.028811224 -0.1843016
000240 34 a3 42 3e 76 ca 30 3c 25 d7 cc 3d ec f8 6b bd
       0.1900757 0.010790458 0.10001973 -0.057610437
000250 e9 a2 eb 3d b2 3e a9 bd cf a4 36 3d db c6 c8 3d
       0.11505682 -0.08263911 0.044590767 0.09803554
000260 c2 cc c3 3d 09 4f fd 3d bc 4d 1f bd 7c 3e cc 3c
       0.09560539 0.123685904 -0.038892493 0.024932139
000270 c4 e2 c6 be 27 b0 1a be cb d0 91 bc 73 ad 77 3d
       -0.38844883 -0.1510626 -0.017799756 0.06046815
000280 b4 e5 6c 3d 98 c2 ee bc c4 73 02 3c 6c 13 4b 3e
       0.05783625 -0.029145524 0.007962171 0.19831628
000290 f2 06 72 3d 40 61 4a bc bb 72 8b bb a5 4e bb 39
       0.059088655 -0.012352288 -0.0042556203 0.00035726014
0002a0 8c 4f 5b be ed 92 d3 be c3 a0 4b be c4 e7 df bc
       -0.21417063 -0.41323033 -0.19885544 -0.027332194
0002b0 ec 51 53 be 22 91 2c be d8 7e 8f bc 44 15 2f 3e
       -0.2063672 -0.16852239 -0.017516539 0.17097956
0002c0 a2 81 4e 3e c2 01 1f 3e a4 aa 57 3d d1 3d d5 3c
       0.20166638 0.15528014 0.05265297 0.026030453
0002d0 0b 61 da 3d 59 0b 67 3d 10 e9 cb bc 00 95 17 3e
       0.10663041 0.056407306 -0.024891406 0.14802933
0002e0 05 83 3e 3e 96 63 c0 3d 4b 25 05 3b 33 06 88 bd
       0.18604667 0.093939945 0.0020316418 -0.066418074
0002f0 b7 d3 10 be 7b 48 f2 bd d4 a5 16 be fc 47 23 3e
       -0.14143263 -0.11830231 -0.14711696 0.15945429
000300 62 85 46 bd 34 96 1f bc 0a d7 39 3d 4e cd b2 bc
       -0.048467048 -0.009740401 0.045371093 -0.021826413
000310 ec 7f 76 3b 87 50 73 bc 3d 80 57 bc a7 dc e6 3d
       0.0037612868 -0.014850742 -0.013153133 0.11272555
000320 a1 e6 15 be 82 9f 75 bd 53 e1 bc bb 08 a4 7d bd
       -0.14638759 -0.05996657 -0.0057641654 -0.06192401
000330 57 a8 b7 be 4b 9a 22 be ec 01 d9 bc d6 a5 1d ba
       -0.3587062 -0.1587917 -0.026490174 -0.0006013786
000340 90 f4 cb 3d 59 e8 0c 3e e0 76 8b 3c ae ae 65 3b
       0.09958756 0.13760509 0.017024457 0.0035046744
000350 81 58 da 3d 3b 11 0e bc e4 7d 4b 3d 77 53 16 3d
       0.10661412 -0.0086711 0.049680606 0.036700692
000360 d3 00 1f bd 9c 84 ef bd 4c 76 26 bd ec 96 5d bd
       -0.038819145 -0.11695215 -0.04064016 -0.05409901
000370 ce 45 7b bd fb 1f a6 bd 5a 99 4d bd 46 af 2a 3e
       -0.061345868 -0.081115685 -0.050195076 0.16668424
000380 3d 96 12 3e 2c db b4 3d 48 67 96 bd b4 f6 25 3d
       0.14315124 0.08830866 -0.07343918 0.040518478
000390 0e 16 0f 3e 45 ec 6b 3d c3 81 da bd 91 49 27 bd
       0.13973257 0.05759837 -0.10669281 -0.040841643
0003a0 e6 9b 04 be 11 4f 46 bc a4 46 dd 3c 7b 79 17 be
       -0.12950096 -0.012103812 0.027011223 -0.14792435
0003b0 e2 fa c9 bd ce 71 f2 bd be f8 9d bd 55 e0 18 be
       -0.09862305 -0.11838113 -0.077134594 -0.14929326
0003c0 c0 d3 9d 3d 00 4e 77 3d 48 6a 54 3d 90 d0 93 3c
       0.07706404 0.06037712 0.05185917 0.018043786
0003d0 06 6e 9e 3d 4d da d9 bd e5 9c 2e bd 43 4d b0 bb
       0.07735829 -0.10637341 -0.042630095 -0.005380304
0003e0 b8 7d 9c bd ba ff ac 3c 9d 64 3a bd e7 2f 22 3d
       -0.076411664 0.021118034 -0.04550611 0.039596464
0003f0 5e 11 ff bd 28 e7 1c be ff a1 14 be 8f 15 f4 bd
       -0.124544844 -0.15322554 -0.14514922 -0.119181745

bias f4 [64]
000000 7f 60 30 bc b0 b8 64 bc e6 99 6c bc d0 90 58 ba
       -0.010765194 -0.013960049 -0.014440989 -0.0008261325
000010 5d c4 a5 3d f3 9f df bc 46 e5 23 3c 91 62 29 bc
       0.08094094 -0.02729795 0.0100033935 -0.0103384415
000020 d9 72 f0 ba 1e e8 17 3d ad cc 60 bc 5e 4e 2c bd
       -0.0018344774 0.0370866 -0.0137206735 -0.042066924
000030 4a b6 7d 3c 46 85 b1 3d d2 fe d9 3c c3 a4 8a bb
       0.015485356 0.08667998 0.026610766 -0.004231067
000040 e9 cd 25 bd ef d1 09 bc 15 59 ae 3d 38 e6 14 bd
       -0.040479574 -0.0084118685 0.08513085 -0.036352366
000050 b2 e6 7a bd b6 47 18 bd ff 4e d0 3d 27 e1 a7 3b
       -0.061255164 -0.037177764 0.10171317 0.005123276
000060 3f c2 cc 3b 39 08 b4 3c 23 11 af 3b 49 2c 95 3d
       0.006248742 0.021976577 0.005342619 0.07283837
000070 ef f9 d0 3d a0 4c ba bb d8 d9 46 3d 6d b6 ab 3d
       0.10203921 -0.005685404 0.048547596 0.08384404
000080 14 e1 3c bc ba 04 43 3d f4 f1 1f bd 45 5a a3 3d
       -0.011528272 0.04761193 -0.039049104 0.07976202
000090 b9 5c e2 bb 98 37 19 bd 98 17 92 3c ff 5b 98 3d
       -0.006908026 -0.037406534 0.017833516 0.07439422
0000a0 44 0e 31 3a 7f ae d5 3d a0 f5 20 3d 55 94 85 bc
       0.000675414 0.10433673 0.039296746 -0.016306082
0000b0 44 13 9b 3b 83 63 c4 3a 5c 9d b8 3c 02 8e f1 3c
       0.0047325213 0.001498327 0.022535972 0.02948666
0000c0 2d 29 34 bc 35 f9 a2 bc 1c 4e 10 3d 35 87 b2 3b
       -0.010996145 -0.019894222 0.03523074 0.005448247
0000d0 27 c4 41 3c c1 b8 08 bd 0b af c7 3c 48 2a 1a bc
       0.0118265515 -0.03337932 0.02437546 -0.009409495
0000e0 60 ff 64 3c 78 8b 6f 3d b5 88 92 bb fa 4e 8e 3d
       0.013976902 0.058482617 -0.004471863 0.06948657
0000f0 be f5 4d 3d b5 2e bb bc 5f 19 11 bd ec 7d ac 3d
       0.050283186 -0.02284942 -0.035424586 0.08422455

weight f4 [64, 64, 3, 3]
000000 06 63 ef bd 24 64 54 bc b4 c0 25 bd 72 cc 4c 3d
       -0.11688809 -0.0129633285 -0.04046698 0.04999966
000010 57 a1 88 3c a0 00 09 be a9 73 81 bc 3d cf 33 3c
       0.016678495 -0.13379145 -0.015802221 0.010974702
000020 cb 43 b4 bd 43 cf a5 bc f7 61 7b bd ac 13 f8 3d
       -0.08801993 -0.020240432 -0.061372723 0.12113127
000030 e5 f4 b5 bc f0 88 81 3c 2a c6 e0 bd 12 2e 48 bd
       -0.022211501 0.015812367 -0.10975297 -0.04887206
000040 fc 19 77 bd 41 a5 0f 3e fe 28 2c bd a1 c6 1e be
       -0.060327515 0.14027883 -0.04203128 -0.15505458
000050 05 70 09 be 14 52 ee bd 07 19 c3 bd 9d 14 1f be
       -0.13421638 -0.11636749 -0.09526258 -0.15535207
000060 af 35 53 3e 52 f8 9f 3d 2b 26 2c 3d 8f 59 3b 3d
       0.20625947 0.07811035 0.042028587 0.045739707
000070 2f f2 d5 3c 60 f1 1b 3d 82 48 d3 bd 4c 7a 9c 3d
       0.026116459 0.03807199 -0.10316564 0.07640514
000080 89 e8 d4 bd 13 ca 62 be f0 55 28 bd 7c b5 04 be
       -0.10395915 -0.22147398 -0.04109758 -0.12959856
000090 f4 b6 18 3e 4d 4c 9a 3d 99 8c 5f bd 58 7f 51 3d
       0.14913541 0.075340845 -0.054577444 0.051146835
0000a0 c1 71 cc 3d e9 94 0a 3b b1 3c 11 3d 0c 07 9f 3c
       0.09982634 0.0021145886 0.03545827 0.01941254
0000b0 71 54 82 bb cb 50 c7 bd 2c 1d d3 3d bd b0 e8 bd
       -0.0039773514 -0.09732207 0.103082985 -0.11361835
0000c0 7f 7e c7 3d 1f fe 10 bc a3 47 50 bd bb 09 86 bd
       0.09740924 -0.00884965 -0.050849568 -0.06544825
0000d0 ad d4 80 3d 72 89 c3 3c ae 78 b4 3d ad ee 3d bd
       0.06290565 0.02386925 0.0881208 -0.046370197
0000e0 fe 73 43 3d 05 df 94 3d 95 61 8c bd 33 fb 2f bd
       0.04771804 0.072691 -0.0685455 -0.04296417
0000f0 60 a9 d3 3d cf c3 a3 3d 7d dd 91 3d 82 23 c7 bc
       0.1033504 0.07996332 0.07122324 -0.024308924
000100 be 84 6b bd f4 33 12 be c7 98 10 3d ed 5d 50 bd
       -0.05749964 -0.14277631 0.03530195 -0.050870825
000110 88 e7 ba 3c 70 27 dc bd e3 b6 a9 3d 03 60 e4 3c
       0.02281548 -0.107497096 0.08286836 0.027877813
000120 6a 4a fa bd 53 98 e6 bd 6e 96 57 3c 96 20 22 bc
       -0.122212246 -0.11259522 0.013158424 -0.009895464
000130 fd 6a cd bd 4f 38 ab bd 41 fc 9f 3b 4b 39 f9 bc
       -0.10030172 -0.083603494 0.004882366 -0.030422827
000140 27 83 66 be 17 8d fd 3b e2 12 71 bd bd 63 29 bd
       -0.22510968 0.0077377665 -0.0588559 -0.041354883
000150 33 80 4b bd 69 ec 8c bd ba 5f 78 bd 6a ec 12 bd
       -0.049682807 -0.06881029 -0.060638167 -0.035869993
000160 6a fb 1c be bc 06 a0 bc 57 78 a1 3d b2 28 7d bd
       -0.15330282 -0.019534461 0.07884281 -0.06180639
000170 f1 95 a6 bd 8e 73 dd 3c 06 f5 e4 bd 7d a4 93 bc
       -0.08134068 0.02703264 -0.11179547 -0.01802277
000180 09 23 2e bd 7d 1f 3a 3d 5d 77 1d 3e 74 38 4f bd
       -0.04251388 0.045440186 0.15377565 -0.050590947
000190 5d a3 eb bd 59 0c 8f 3c c7 82 b3 3d 5e c0 c2 bc
       -0.115057684 0.017461943 0.08765178 -0.023773368
0001a0 c3 c4 8d bd a3 9a ef bd 5f 15 15 bd df 4f 7f 3d
       -0.06922295 -0.116994165 -0.036397334 0.06233203
0001b0 9b fa 0e 3d 85 9a 8d bd 84 0c bf bd 96 0e 09 3e
       0.034906965 -0.06914238 -0.09328559 0.1338447
0001c0 45 d3 56 bc c0 3b a9 3d bf f4 9e 3c ed 13 23 bd
       -0.013111894 0.082633495 0.019403813 -0.039813925
0001d0 bc 14 dc bc 89 b6 3a bd 60 b8 88 3d d0 6f 90 bc
       -0.026865356 -0.045584235 0.06675792 -0.017631441
0001e0 7d c0 fa 3d 57 a6 7e 3d 87 1f 96 bc d6 1a 61 3d
       0.122437455 0.062170353 -0.01832558 0.054957233
0001f0 85 29 65 bd b2 0b 4d 3d a7 13 49 be 02 46 49 be
       -0.0559478 0.05005998 -0.19636403 -0.19655612
000200 9d 21 87 bc ea 76 a4 3c b1 d0 13 bd 09 82 41 3d
       -0.01649552 0.020076234 -0.036087696 0.04724315
000210 44 05 2f 3e 2a 60 89 3d 3a e5 26 3d 02 40 f6 bd
       0.17091852 0.06707795 0.04074595 -0.12023927
000220 99 cb 9a 3d 87 bb 86 3d 24 5c 2d bc db fe ab 3d
       0.075583644 0.06578737 -0.01058105 0.08398219
000230 f6 5f 62 3d 27 e2 bc bc 8a 62 2a be cd 36 ea bc
       0.055267297 -0.023057057 -0.16639152 -0.028590584
000240 43 fb 65 3b 21 48 84 3c ca e6 2b 3c 6b 71 4f bd
       0.003509239 0.016147675 0.010492036 -0.050645273
000250 df e4 0a 3e 6a 53 00 be d2 af 17 3d 6c 87 db 3d
       0.1356387 -0.1253182 0.03703291 0.10719189
000260 ba b9 55 bd f1 37 c5 bd 95 c4 08 bd 2b 60 fd bd
       -0.052179076 -0.096298106 -0.0333906 -0.12371858
000270 d3 92 f7 3d 3d a5 84 3c 13 d1 eb bd d1 73 9f bc
       0.12088551 0.016192073 -0.11514487 -0.019464405
000280 5d e2 5d 3d 84 95 c7 bd 1f cf 59 3d 20 22 c7 3a
       0.054170955 -0.09745315 0.05317604 0.0015192665
000290 6f 9a 82 3d 4e 52 dd bd f9 71 ad bd ad ac 39 3c
       0.06377112 -0.10806714 -0.08469004 0.011332673
0002a0 11 02 e5 bc 02 6e 12 bd 78 52 2f 3c 2c 0a f9 bd
       -0.027955087 -0.035749443 0.010700814 -0.12160143
0002b0 34 06 a3 be 43 df e7 bd b0 94 1e 3d a5 a7 a8 bd
       -0.3184067 -0.11321881 0.03871602 -0.08235101
0002c0 5e f0 b5 bd 0d 03 69 3d 33 a3 04 bc e9 bd 39 3c
       -0.08883737 0.056887675 -0.00809555 0.011336782
0002d0 66 8e 8c be 03 e3 81 3d 3b 0c c7 3d 06 08 01 be
       -0.2745239 0.06342127 0.0971913 -0.12600717
0002e0 e1 5d ec 3c 97 cb e5 bd 32 d1 e4 bd f3 9b 04 bd
       0.028853359 -0.11220472 -0.11172713 -0.032375287
0002f0 08 c0 11 be 56 28 2c bb 55 3e 95 3d 21 79 bd 3d
       -0.1423341 -0.002626916 0.072872795 0.09251619
000300 20 62 97 bd dc 69 1a bd 7b 8d ca 3d d5 27 b2 bb
       -0.07391763 -0.03769861 0.098902665 -0.0054368773
000310 5e 61 11 be a4 db a2 bd 8e 73 95 3d 25 3f d5 3d
       -0.14197299 -0.079520494 0.07297431 0.104124345
000320 da 0a ef 3c 68 88 81 bd 4d fe 88 bc 53 20 80 3d
       0.02917998 -0.063248456 -0.016722823 0.06256165
000330 1d eb 05 bd 87 1c b9 3c 4b 35 20 be 7c 31 f0 bc
       -0.032694925 0.02259661 -0.1564533 -0.029320471
000340 ba 37 4a 3d ba ab 92 3b b1 7f ca bd 62 aa 80 3d
       0.04936955 0.004476038 -0.098876365 0.06282498
000350 6d fd 05 3e f3 25 82 bd d8 40 44 bd 17 47 65 3d
       0.13084956 -0.063548945 -0.047913402 0.055976
000360 46 09 1e 3e a1 34 3e bd 9b 80 2c 3c e1 bb 9a 3d
       0.15433225 -0.04643691 0.010528709 0.07555366
000370 8f 9d 08 3c 60 b2 0c 3e 64 60 a8 bd 45 de 7a bd
       0.008338346 0.1373992 -0.0822151 -0.06124713
000380 97 ab 03 bd 17 d0 2a 3c c8 98 4e bd 1d e0 b7 bd
       -0.032146063 0.010425589 -0.050438672 -0.08978293
000390 37 84 da bd f6 01 a4 3d e8 78 3a be 97 ad 4b bc
       -0.10669749 0.080081865 -0.18210185 -0.012431524
0003a0 a7 5f 05 bd b2 0c da bd 00 e7 b7 bd b6 eb 20 be
       -0.032561924 -0.10646953 -0.08979607 -0.15714917
0003b0 41 f7 02 3e c3 3f 8d 3c f5 3b 30 be 7c 18 18 3b
       0.12789632 0.017242318 -0.17210372 0.0023207953
0003c0 01 30 c9 3c 14 2b 8d 3c f1 41 16 3d 03 ff 80 3d
       0.024559023 0.017232455 0.03668398 0.062986396
0003d0 52 b5 3a 3e f2 d0 d9 3d bd f7 4d bd 4a cf 44 3a
       0.1823323 0.10635556 -0.05028509 0.0007507695
0003e0 8a 17 dc 3c 85 06 52 bd 73 1d af bd 9e 43 92 3d
       0.026866693 -0.05127575 -0.08550539 0.07141803
0003f0 7d 32 93 3c 11 71 2f 3d 8b 69 80 bc 3e 00 5a 3d
       0.01796841 0.042832438 -0.015675327 0.053222887

bias f4 [64]
000000 36 3a 96 3d 7e 93 23 bd 00 fb 8a 3c dd d3 8e 3d
       0.073353216 -0.03993558 0.01696539 0.069740035
000010 c2 8d a4 3a 86 90 65 3d 81 66 a5 3d 77 18 2a 3d
       0.0012554454 0.05604603 0.08076192 0.041527238
000020 0e 81 ec 3c 06 b1 28 bd 65 d1 c5 3d 23 40 ac bc
       0.028870132 -0.041184448 0.096590795 -0.021026677
000030 e2 8a a8 3b b9 e8 61 3d 64 b0 c7 3d a2 82 84 3d
       0.0051435092 0.055153582 0.09750441 0.06470229
000040 ff de 1c bd 0d 4e c4 3d 62 93 82 bc 00 6e 2c bc
       -0.038298603 0.095851995 -0.015939418 -0.010524273
000050 19 7c 98 3d be 57 f2 3d 19 2a 39 3d e0 f1 cd 3d
       0.07445545 0.11833142 0.045206163 0.100558996
000060 15 ce d2 bd b1 b3 18 be 21 ca 01 3d 1f 41 19 bd
       -0.10293213 -0.14912297 0.031686906 -0.03741562
000070 3a 4e 26 bd 37 1a c2 3d ca 6d 46 3d 8c 55 7b 3d
       -0.040601946 0.09477656 0.048444547 0.06136088
000080 ee 01 c2 3c 83 47 28 3d 76 fa 09 3e 9e c1 bd bd
       0.02368256 0.041083824 0.1347445 -0.09265445
000090 4c 76 59 3d 46 95 b5 3d e6 34 ef 3d a9 b9 4d 3d
       0.053091332 0.08866362 0.116800115 0.050225887
0000a0 6a a5 d5 39 15 a4 82 bb 03 70 a5 bc 55 d6 15 3d
       0.0004074977 -0.0039868453 -0.020195013 0.036581356
0000b0 a4 de 82 3d 8a b6 9d 3d 1b 98 8d 3d f8 a1 f8 3c
       0.063901216 0.07700832 0.069137774 0.03035067
0000c0 78 a0 18 3d 65 98 01 3d 5d 7f 5e 3d 5a 9c ea 3c
       0.03726241 0.031639475 0.05432068 0.028639007
0000d0 c6 c2 9d bd 3e cf 40 bb 9d 49 e5 3d 6f cc 97 3c
       -0.07703166 -0.00294204 0.11195681 0.018530099
0000e0 e7 1d 38 bd 18 a6 91 bd 4b 9f b4 bc 1a 37 49 3d
       -0.044950392 -0.07111758 -0.022048613 0.049124815
0000f0 29 e7 71 bd b5 6d b4 bc 7b 34 db bc ba 33 91 bc
       -0.059058342 -0.022024969 -0.026758423 -0.01772486

weight f4 [32, 1024]
000000 44 55 0a bd 8c 66 b9 3d 84 79 d0 3c d3 3d 02 3c
       -0.033772722 0.090527624 0.025448568 0.00794931
000010 c1 a8 9f bd 96 df 65 bd cc 76 31 3c 30 3a 2a 3c
       -0.07795859 -0.05612143 0.010831546 0.01038985
000020 d3 00 c4 3c a7 75 03 bb 67 5b a9 3d 34 cd 45 3e
       0.023926174 -0.002005914 0.08269387 0.1931656
000030 f3 6f 24 be ea b7 b3 3d 2a 04 bb 3c fd 39 82 bd
       -0.1605833 0.08775313 0.022829134 -0.06358717
000040 82 2d 8f 3d e4 8e 9b 3d 38 75 4a 3d 40 d4 af 3d
       0.06991102 0.075956136 0.049428195 0.08585405
000050 25 ce d1 3b ca e6 73 3d 6d ba 89 3d 83 66 51 3d
       0.006402748 0.05954627 0.06725011 0.051123153
000060 2d 1a a0 bd 50 4a 6e 3d 54 f1 ba bd 18 00 c3 bd
       -0.07817493 0.05817634 -0.09128061 -0.09521502
000070 15 cd 53 3d 5e f4 dc bb 97 d8 ec bb e8 2c 17 be
       0.051709253 -0.006742998 -0.007227968 -0.14763224
000080 71 d3 06 3d 4d d4 6e 3d 4e 6b ab 3c 15 4b 28 3d
       0.03291649 0.058307935 0.02092519 0.04108723
000090 90 7a 30 3d ca ca f3 bb b2 fd 69 bd ee 48 83 3d
       0.043085635 -0.007439946 -0.05712671 0.064103946
0000a0 3b 53 91 3c 71 72 11 3d 2b 57 38 bc 65 87 93 bd
       0.017739883 0.03550953 -0.011251251 -0.07203559
0000b0 44 11 cd bd e7 55 2c bd f8 47 35 3d c4 7c 1b 3d
       -0.10013059 -0.04207411 0.044258088 0.037960783
0000c0 89 d7 67 bc aa 8e 1b 3d e0 f8 55 3b 4c 21 1e b8
       -0.014150509 0.037977852 0.0032649562 -3.7701146e-05
0000d0 57 e9 8e 3d 9b 3f a7 3d 99 2e d5 39 97 66 e4 3c
       0.069781 0.08166429 0.00040661244 0.02788095
0000e0 31 a7 ac bd 9d 33 90 bc d5 f0 71 3d ca 10 fb bc
       -0.08430327 -0.017602736 0.059067566 -0.030647654
0000f0 2d 9e d4 bd e6 6a 20 be 34 12 3b bc 20 96 54 bb
       -0.10381732 -0.15665779 -0.011417914 -0.0032438114
000100 a8 ca 5c bd 10 c0 08 be fb 3a 00 bd bd 57 e6 3d
       -0.053904206 -0.13354516 -0.03130625 0.112472035
000110 8c 34 4f 3d 48 5d a0 bd 0c e6 3b 3d 6b 74 0c 3e
       0.050587222 -0.07830292 0.045873687 0.13716285
000120 6e 34 2b bd 7e 92 b5 bb 5b 36 6e bd 9a d1 91 3d
       -0.041798048 -0.005541145 -0.058157306 0.071200565
000130 71 41 e0 3c 10 87 95 3b 09 6e 58 3d e3 9c 03 be
       0.027374955 0.00456322 0.052839313 -0.12852816
000140 07 6b 86 3d e9 fe de 3d 8b be 3d bd 53 d3 b4 bb
       0.065633826 0.10888464 -0.046324294 -0.005518356
000150 16 13 d5 3b 57 61 c5 3d 0e 26 db bc c8 f4 8e 3d
       0.0065025194 0.09637707 -0.026751544 0.06980282
000160 ce 30 17 bd 37 df 2e 3d 1e 5d 2b bd f6 97 41 3e
       -0.03691178 0.042693343 -0.04183685 0.18905625
000170 83 41 2d bd bf c3 68 bd ca 98 0b be e0 3b 03 be
       -0.042298805 -0.056827303 -0.13632503 -0.12815809
000180 b6 88 1c be 81 83 6c 3d 48 bf 9d bd 25 bc 46 3d
       -0.15286526 0.0577426 -0.077025 0.048519272
000190 ba a5 b7 3c 55 88 1b bd e0 33 1e bd 15 57 00 be
       0.022417892 -0.037971813 -0.03862369 -0.12533219
0001a0 86 ba 1d bd 3b 87 12 3e d9 20 05 3e 5b 10 95 bc
       -0.03850796 0.14309399 0.13000812 -0.018196275
0001b0 b2 41 ca 3d ab c4 af bc f1 04 2d 3c 10 d6 8f 3d
       0.09875812 -0.021456083 0.01056026 0.07023251
0001c0 da 3b e5 3c c8 35 18 3e dc f5 0b 3d 96 57 ac 3d
       0.027982641 0.14864266 0.034170017 0.08415143
0001d0 c0 2c ee bc 28 3a d7 3d 3a 1b d1 3d 31 e6 18 3c
       -0.029074073 0.10509139 0.10210271 0.009332226
0001e0 b0 ca 90 bd 4e c5 9c 3c b1 37 05 3d 68 65 2b bd
       -0.070699096 0.019137051 0.032523815 -0.041844755
0001f0 a2 3c d1 bd 83 88 04 be 3b 88 0d be 67 4b 8e be
       -0.10216643 -0.129427 -0.13821499 -0.27791902
000200 09 14 92 3d f1 90 d1 3d ea 68 4b 3d 0b bf 1e 3e
       0.07132728 0.102327235 0.0496606 0.15502565
000210 d4 ee 4c 3d 07 94 a4 3d af 7e 92 3d ca 78 33 3d
       0.05003245 0.080360465 0.07153069 0.043816365
000220 5e aa c6 3d 54 55 de 3c 91 e7 7d bd ce 59 5c bd
       0.09700464 0.027140297 -0.061988417 -0.053796582
000230 83 7e 5a 3d d9 c0 0a 3d 05 82 81 be 76 51 f8 bd
       0.053343307 0.03387532 -0.2529451 -0.121249124
000240 95 54 38 3e 73 a4 03 be d3 39 02 bb dc 50 aa ba
       0.18001015 -0.12855701 -0.0019870892 -0.0012994069
000250 0b 45 e9 bc 77 8f 89 3c be d4 1a 3d 0f 5c 68 bc
       -0.028475305 0.016792042 0.037800543 -0.014182105
000260 97 b2 7d 3d 97 47 9e bd 55 e3 4a bd 7f ee b2 bd
       0.061937895 -0.077284984 -0.049533207 -0.08736896
000270 c8 0b 13 3e d6 b6 d6 3d b3 65 b0 bd 4e 83 5a bc
       0.14359963 0.10484092 -0.086131476 -0.01333697
000280 00 ba 4f bd 9e 79 88 3c c9 ae 68 3d fd 31 cf bc
       -0.050714493 0.016659554 0.056807313 -0.025292391
000290 94 2b 6b bd 0d 98 09 bc 01 39 ac 3d f6 0e bb 3c
       -0.057414606 -0.008398068 0.0840931 0.022834282
0002a0 41 16 99 3d 22 29 14 bc dc a9 7f bc 9e 57 a5 b8
       0.07474948 -0.00904301 -0.0156044625 -7.884133e-05
0002b0 a8 07 a0 bd 51 e5 ed bc ed e4 ae 3c 1a 1c 0a be
       -0.0781396 -0.02904001 0.021349395 -0.13487282
0002c0 c4 d5 48 bd 0c d7 2d be e9 ac c8 bd af 39 98 bd
       -0.049031988 -0.16976565 -0.09798605 -0.07432877
0002d0 6c a3 ed bd fe 3b 44 bd 85 6f 49 3d 5d e3 18 3c
       -0.11603436 -0.047908776 0.04917862 0.009331551
0002e0 58 49 1a be ed 82 56 3b 70 1e a9 bd bf 52 9e bd
       -0.15067041 0.0032731846 -0.082577586 -0.07730626
0002f0 96 23 13 3d de f5 b7 3d 04 55 88 3c 62 0c 17 3d
       0.03592261 0.08982442 0.016642101 0.036877044
000300 9b 35 1f 3e da dc df 3c 03 bb 1b 3d 6c 07 b6 3d
       0.15547793 0.02732699 0.038020145 0.08888134
000310 04 bd 49 3c 92 ba 4d bd 5d 47 f3 bc cb 07 b1 3d
       0.012313131 -0.050226755 -0.029697115 0.086440645
000320 88 55 88 bd 9a 1f 88 bc 53 6f ff 3c 29 88 6d 3d
       -0.06656939 -0.016616631 0.031181013 0.05799118
000330 60 2a 0f 3d 32 80 31 bd 8b 19 66 3c 70 76 0b be
       0.03495252 -0.043335147 0.014044176 -0.13619399
000340 33 64 f4 3d 04 8d 1e 3e 68 8d fc 3d 1d 87 c3 3d
       0.11933174 0.1548348 0.123316586 0.09547255
000350 7b ae 88 3d 43 ec 82 3d f8 5d d9 3d 17 4f 25 bd
       0.066739045 0.063927196 0.10613626 -0.04035863
000360 bf be 12 bd 66 29 52 3b 91 c9 a7 3c b1 a7 c5 3c
       -0.03582644 0.0032068132 0.020481857 0.024127813
000370 fb fc 30 bd 02 d2 28 3d d8 66 d9 ba e6 e2 1d 3d
       -0.04321001 0.041215904 -0.0016586436 0.038546465
000380 dc ff bd 3d 28 6e 50 3d 6a 18 11 3e 40 37 a5 3d
       0.09277317 0.050886303 0.1416947 0.08067179
000390 ce 7f 92 3c 06 30 8f 3c 61 a6 ff 3d fb 7b fc 3c
       0.017883208 0.017478954 0.12482906 0.030820837
0003a0 db ba a6 3d e2 81 10 bc 0f 1a 0d bc 0f 0a be bc
       0.081411086 -0.008820029 -0.00861217 -0.023198156
0003b0 6d cd 5f 3c fd e7 80 3c b2 66 95 bc 5b 13 62 bd
       0.013659817 0.01573562 -0.018237446 -0.05519424
0003c0 09 8b d3 3c 8f 5b 9f 3d e9 69 1f 3d 69 7f 39 bc
       0.025823133 0.07781135 0.038919363 -0.011321881
0003d0 96 58 c6 bc 76 43 55 3d f0 41 2d 3b 05 b0 e0 3d
       -0.024212163 0.05206629 0.0026437007 0.10971073
0003e0 8a fa b2 bd f7 bb 3b bd 6c 79 86 3d 2b 50 be bd
       -0.08739193 -0.045833554 0.06566128 -0.092926346
0003f0 a8 2c 6f 3d 91 ab 11 3d af 04 ff bc 35 8c 8c bd
       0.058392197 0.03556401 -0.031130163 -0.0686268

bias f4 [32]
000000 c2 6f 45 bd f1 1b ce 3d be 44 73 3d 20 58 93 bd
       -0.048202284 0.10063923 0.05939173 -0.07194543
000010 ce 65 d2 3d 99 eb 0d 3d 01 5d a0 3d 93 bd 02 bd
       0.10273324 0.03464851 0.07830239 -0.031919073
000020 3c b7 44 3e e3 3f 84 bc 0a a6 e5 3d e5 0e 23 3e
       0.19210523 -0.016143745 0.1121331 0.1592365
000030 49 73 87 3c 81 35 9f bd c2 a1 81 3d af 37 d4 3c
       0.016534464 -0.07773877 0.06329681 0.025905458
000040 4b 4d e4 bd 4f 37 30 3d de ec a7 3d e0 36 5a bc
       -0.11147555 0.043021496 0.08199476 -0.013318747
000050 06 f9 35 3e 0c 81 8d 3d 94 07 3a bd ae 4b d1 3d
       0.17770776 0.06909379 -0.045417383 0.10219513
000060 85 3e a1 3d 35 85 56 3d 48 44 03 3d d9 da a5 bd
       0.07873253 0.05237313 0.03204754 -0.080983825
000070 11 4d fe 3d 40 8b e0 3d c4 61 63 3d a0 0a 57 ba
       0.12417043 0.1096406 0.05551316 -0.00082031824

weight f4 [15, 32]
000000 35 a9 70 3e 42 32 be 3d e6 2a 56 be d6 cf 27 3e
       0.23502047 0.0928693 -0.20914802 0.16387877
000010 51 a3 ec bd 18 21 e8 bd 05 f5 65 be 12 8d 6f 3d
       -0.11554588 -0.11334437 -0.22456749 0.058484145
000020 5c 01 9c 3d a1 05 8e be 22 fe 7d be 48 29 83 3d
       0.07617447 -0.2773867 -0.24803975 0.06404358
000030 53 6f e7 3d cf 64 5b be 31 40 b2 3d 67 42 99 3d
       0.1130053 -0.21425174 0.0870365 0.07483368
000040 2d 74 2b 3e e3 0d 97 3d d9 43 44 3d 0b f1 c1 3d
       0.16743536 0.073756956 0.047916267 0.094698034
000050 72 57 37 bc 28 b4 34 3d 01 c5 04 3e a0 54 da bd
       -0.011190282 0.044117123 0.12965776 -0.10660672
000060 9c 54 0d 3d 88 dc 02 3e 61 70 df 3d 5c 68 17 3e
       0.034504518 0.12779438 0.109101065 0.14785904
000070 de c9 1b be 5e b8 77 be a9 34 1e 3d 6e 46 f5 3d
       -0.15213725 -0.24191424 0.03862444 0.11976324
000080 b4 06 5a be d4 ce bf 3b 96 fc 55 be a9 40 98 3d
       -0.2129162 0.0058535133 -0.20897135 0.07434208
000090 28 75 5a bd 39 72 ab bd 07 f5 ae bd 5e 2d 5a 3d
       -0.053334385 -0.083713956 -0.08542829 0.05326592
0000a0 40 93 1a bd 0d df 00 be 77 4c 87 3d 47 77 af bc
       -0.037738085 -0.12585087 0.066063814 -0.02141918
0000b0 f8 e1 46 bd 83 ed eb 3b 99 47 67 3d 33 9c 28 3d
       -0.048555344 0.0071999445 0.056464765 0.04116459
0000c0 2e 4f f3 bd 1b dd ec 3d 7d 19 a0 bd a9 a2 5d 3e
       -0.11880337 0.1156561 -0.078173615 0.21644081
0000d0 4a a4 a9 3c 2b 6f b7 3c de 3e ac bd 4a 05 69 be
       0.020708222 0.022391876 -0.084104285 -0.22755924
0000e0 fe a7 e0 bd 07 4c 1c 3d a7 20 52 3d 0c ba dd 3d
       -0.10969542 0.038158443 0.05130067 0.10826501
0000f0 fc 6c c4 bc 9a 9f 98 3b 25 b2 b6 bd 38 c4 1f be
       -0.023977749 0.004657698 -0.08920697 -0.15602195
000100 3f fe e1 bd 53 43 82 be a4 5d e0 bb 51 ba 55 bd
       -0.11034822 -0.2544199 -0.0068471003 -0.05217964
000110 99 df 02 be 71 33 b1 bd a0 2e 10 bc 16 1c f1 bd
       -0.12780608 -0.0865239 -0.008800179 -0.11772935
000120 6d bb 98 bd 66 8b 83 3e b8 be 04 3d 61 2c aa bb
       -0.07457624 0.2569229 0.032408446 -0.0051932787
000130 2f 8e 2a 3d 23 00 00 3e 85 16 5e 3c 0c d7 2d 3e
       0.041639503 0.12500052 0.013555174 0.16976565
000140 cf b6 26 be 84 c3 14 3e 22 90 24 be ea 62 d6 3d
       -0.16280673 0.14527708 -0.16070607 0.10468085
000150 e6 0a 13 3d 54 74 05 bc cf 21 95 3d 42 3d 91 be
       0.035899065 -0.008145411 0.07281839 -0.28367049
000160 b6 28 65 be 3a 48 53 bc d6 ab cf 3e 27 18 61 be
       -0.22378811 -0.012895638 0.40560788 -0.2198187
000170 ff 7b 09 3e 78 62 d1 3d c6 e9 47 be c4 63 c4 be
       0.13426207 0.102238595 -0.19522771 -0.38357365
000180 8c 79 8d bd 85 95 01 3d 45 42 71 bd ab 89 86 3e
       -0.06907949 0.031636734 -0.05890109 0.26276907
000190 21 e8 40 bd b4 39 09 be 09 5d 05 be e9 06 13 be
       -0.047096375 -0.13400918 -0.13023771 -0.14358105
0001a0 17 13 39 3d 9f 9f 20 be 81 b9 6c be 39 87 90 3c
       0.04518422 -0.1568589 -0.23117639 0.017642604
0001b0 d2 a7 85 3e 2b 73 a1 3d 68 23 ee bd 70 0b 8e 3d
       0.261046 0.07883295 -0.11627847 0.06935775
0001c0 a6 b3 07 3e 9a 32 4a be ee 8c 38 be 74 2b 98 bd
       0.13252124 -0.19745865 -0.1802251 -0.07430163
0001d0 09 b0 cf 3c f8 ce 5f bd 33 5b 9b 3c c3 aa ba 3d
       0.025352495 -0.05464074 0.018964386 0.091146015
0001e0 99 57 19 bc 17 09 c3 bd 44 ff d6 bd 0f 76 dd 3d
       -0.009359264 -0.09523218 -0.10497907 0.108135335
0001f0 f9 32 a9 be 31 30 6b be 51 76 96 3d 53 8f 90 3e
       -0.33046702 -0.22967602 0.07346786 0.28234348
000200 52 b5 3a 3d 19 0b 97 bd 8f ea 8e 3d 1f 03 e8 bd
       0.045583077 -0.073751636 0.06978332 -0.1132872
000210 63 4b 9c bd cd 17 20 3e 09 5e c9 bd d9 cb fd 3c
       -0.076315664 0.1563408 -0.09832389 0.030980991
000220 a4 2c 6e bd f4 f0 6f bc 64 1f 60 3b 54 90 32 bd
       -0.05814804 -0.01464485 0.0034198398 -0.043594673
000230 89 69 34 bd 55 25 8e 3b 47 56 24 be 21 dd fd bc
       -0.04404596 0.0043379464 -0.16048537 -0.030989232
000240 f4 f9 44 3e bc ba 16 be 9b c9 fb bd 2e 26 68 bc
       0.19235975 -0.14719671 -0.122943126 -0.014169259
000250 53 81 3f bd 04 26 7f bd 75 2c 01 3e 6d 9b 34 bd
       -0.046754193 -0.062292114 0.12614615 -0.044093538
000260 de 57 80 bd 1f 5d 9a bd 13 36 f8 3d c4 8b b0 3c
       -0.06266759 -0.07537293 0.12119689 0.02155102
000270 cd 42 5a bc 67 82 18 bd f2 b8 b2 bd 70 34 54 3e
       -0.013321591 -0.037233736 -0.08726682 0.20723128
000280 c8 56 57 bd 19 7a 18 be 6d 1f fb 3d e2 2a 50 3d
       -0.052572995 -0.14890327 0.12261853 0.050822146
000290 23 84 d2 bd a8 5c e0 3b 83 c0 b1 3d fb b0 ab 3d
       -0.10279109 0.006846983 0.08679297 0.08383366
0002a0 f8 1d 36 3c 1f 0f 8b 3e df 72 84 3d 02 c7 9f bb
       0.011115544 0.27159974 0.064672224 -0.0048760185
0002b0 69 a1 64 bc 19 93 64 3e e6 24 19 be f1 fb e4 3b
       -0.013954499 0.22321738 -0.14955482 0.0069880416
0002c0 92 3f f1 bc 29 1f de bd 55 1c d0 bd 1c 87 03 3d
       -0.029449258 -0.10845787 -0.10161654 0.032111272
0002d0 56 1e 99 3a c8 c1 08 be fa b2 67 3d bf 88 01 be
       0.0011682014 -0.13355172 0.05656717 -0.1264982
0002e0 4e ee 50 bd fb 2e 24 be e3 9e 81 bd c4 86 c4 be
       -0.051008515 -0.16033547 -0.06329133 -0.38384068
0002f0 b2 a1 b6 3d fe 2b 18 3e 0f 9a dc bd d3 e8 20 bd
       0.0891756 0.14860532 -0.10771572 -0.03928454
000300 00 d8 ec bc c9 16 07 bd 76 55 c7 bd 35 b4 84 3e
       -0.02891159 -0.032980714 -0.09733097 0.25918737
000310 89 83 f8 bd d7 8a 7b bd d4 5d 3e be 7a 65 85 bd
       -0.12134463 -0.061411705 -0.1859048 -0.06513496
000320 48 59 33 bd 38 26 da bd 3d 5d 30 be 29 b5 fb bd
       -0.043786317 -0.10651821 -0.17223068 -0.12290413
000330 1c b5 e0 bc d5 13 7b bd 93 eb ed bd 1c b4 a7 3d
       -0.02743011 -0.06129821 -0.11617198 0.0818865
000340 ae 3e f0 bd ce 8e ec bd 4f 5e 46 be 40 78 76 bd
       -0.11730705 -0.11550675 -0.19371913 -0.060173273
000350 38 bd 83 bd d7 cc 18 bd 7d 64 87 ba f7 ee 50 3e
       -0.06432575 -0.037304725 -0.001032963 0.20403658
000360 64 c6 39 bd b9 b0 f3 bd f4 86 36 bd de 46 37 3e
       -0.045355216 -0.118989415 -0.044562295 0.17898127
000370 b2 c5 85 be ea 46 7b be bd 73 bc bd fc 7f b3 3d
       -0.26127392 -0.2453877 -0.09201763 0.087646455
000380 4e 2e 8f bd 8e 3f d1 bd 48 98 07 3d f5 50 02 3d
       -0.06991254 -0.102172 0.03310421 0.031815488
000390 de f7 23 be dd 45 27 bd 6c f2 a9 bd 09 4f b0 3c
       -0.16012523 -0.04083811 -0.082981914 0.021522062
0003a0 8a 5f ac bd 19 08 01 ba ca 42 cd bd f2 02 09 be
       -0.0841666 -0.0004922166 -0.10022505 -0.1338003
0003b0 a6 9c 8f bd 56 50 37 3d 42 b6 aa bd 8c a1 6b bd
       -0.070123 0.04475435 -0.08335544 -0.05752711
0003c0 11 9e a5 bd 89 16 36 3c 8c 2a 50 bd ed 14 d9 bd
       -0.080867894 0.011113771 -0.050821826 -0.105996944
0003d0 71 78 e6 bd 7b 41 6b be 1c 26 a3 3c fd 1f aa 3d
       -0.11253441 -0.22974198 0.019915633 0.083068825
0003e0 de 64 a7 bd b2 43 00 bd 78 96 46 3c 5e 74 b3 3d
       -0.08173536 -0.03131456 0.0121208355 0.0876243
0003f0 01 76 c2 bd 18 a0 21 bd 73 6d 8d bd 28 2c 94 3d
       -0.09495164 -0.039459318 -0.069056414 0.07234985

bias f4 [15]
000000 57 2d 29 bc e9 2b 12 ba 42 31 22 3d a9 7e cb 3b
       -0.010325751 -0.0005576001 0.039597757 0.0062101674
000010 8e d2 cc bc 0f 20 45 3d be 75 1f bd 22 5e 80 bd
       -0.025002744 0.048126277 -0.038930647 -0.062679544
000020 33 a1 5c 3d d5 67 fa 3c c2 67 9d bd e3 f6 4e 3d
       0.05386467 0.03056709 -0.07685806 0.05052842
000030 8e 2b 11 3c 71 d6 60 3c ea 6a 97 3b
       0.008860482 0.013723002 0.0046208994

weight f4 [1, 32]
000000 c5 74 08 bc bc ee 00 3d 54 06 0f 3d 91 6b f6 bb
       -0.008328621 0.031477675 0.034918144 -0.007520147
000010 b0 3b 0d 3d 68 92 b0 3d c6 64 86 3c 37 aa 58 bb
       0.03448075 0.08621675 0.016405474 -0.003306044
000020 be cd f6 3d 94 d5 a3 bc a6 1d 7b 3c 93 eb a3 3d
       0.12050961 -0.019999303 0.015326893 0.080039166
000030 d8 d2 33 3c c5 09 ed bc 48 9c 11 3c 94 70 30 3c
       0.010975562 -0.028935323 0.008887358 0.010769028
000040 8b f5 52 bd 34 55 c8 3a 13 2b e5 3d 34 0c 9e bb
       -0.0515037 0.0015284182 0.111898564 -0.004823232
000050 93 64 70 3d fd 3d 74 ba f6 d8 9a bc eb 6c 62 3d
       0.058689665 -0.00093170983 -0.018902283 0.055279654
000060 32 c6 cf 3b 52 c0 52 ba 55 78 db bc b2 9b e5 bc
       0.0063407654 -0.0008039522 -0.026790777 -0.028028343
000070 d0 e1 b2 3d f0 6d 17 3d 4e 14 56 39 0c a4 05 3c
       0.087344766 0.03697008 0.00020416194 0.008156788
