results/encoder/impala-1000-32fd-policy.pt (torch, 676768 bytes, 35 tensors)

weight f4 [16, 3, 3, 3]
0	0xbf223f5c	-0.6337793
1	0xbdcb7a1e	-0.099354014
2	0x3ee747e2	0.4517203
3	0xbdbad548	-0.091227114
4	0xbb86aa59	-0.0041096625
5	0xbeb09653	-0.34489688
6	0xbe6c2b11	-0.23063304
7	0xbea27b6b	-0.31734785
8	0x3e92bbbc	0.28658855
9	0xbe0e7446	-0.13911542
10	0x3ded616f	0.115908496
11	0xbf2bc738	-0.6710086
12	0xbe857d81	-0.26072314
13	0x3e5d4692	0.21608952
14	0x3e9d630f	0.30739638
15	0x3e013908	0.12619412
16	0x3dadfaad	0.08495078
17	0xbeb88f67	-0.36046907
18	0xbe4efaa3	-0.20212798
19	0x3ed2727d	0.41102973
20	0x3ec66b88	0.38753915
21	0x3dafc2eb	0.085820995
22	0xbe146078	-0.14489925
23	0xbde73cdc	-0.11290905
24	0x3dc28e87	0.09499841
25	0x3ecbf2cb	0.39833674
26	0xbe592f07	-0.21209346
27	0x3de95e58	0.11394948
28	0x3d9446ac	0.07240042
29	0x3f0e419b	0.55568856
30	0xbc6f7de8	-0.014617421
31	0x3d8e3486	0.06943612
32	0x3f019ec4	0.5063288
33	0xbec97dc2	-0.39353758
34	0xbd532ee9	-0.05155841
35	0xbe909886	-0.28241366
36	0x3e889c02	0.26681525
37	0x3e706bf1	0.23478676
38	0xbc8509e1	-0.016240062
39	0xbe2dfcb5	-0.16990931
40	0x3eab47b1	0.33453134
41	0x3e2a8dca	0.1665565
42	0xbefd0838	-0.49420333
43	0x3a1419be	0.0005649588
44	0x3e03c7f9	0.12869252
45	0xbea5e21b	-0.32399067
46	0x3cb67a88	0.022275224
47	0x3ccf1176	0.02527688
48	0x3e050973	0.12991886
49	0xbd105177	-0.03523394
50	0xbd8e84d3	-0.06958928
51	0x3ea79ff6	0.32739228
52	0xbf1b04e3	-0.6055433
53	0xbe24a1cc	-0.16077346
54	0x3d49e930	0.04929465
55	0x3d0adecc	0.033903882
56	0xbe04c772	-0.12966707
57	0xbef8ae5a	-0.4857052
58	0xbd564e4a	-0.052320756
59	0xbed53ff7	-0.41650364
60	0xbd9f3671	-0.07774056
61	0x3f1ce40f	0.6128549
62	0xbe7fcd98	-0.24980772
63	0xbe239da1	-0.159781
64	0xbdcb79c6	-0.09935336
65	0x3da3752d	0.07981334
66	0xbdbee1e5	-0.0932043
67	0xbdf64d90	-0.120265126
68	0x3da05825	0.07829312
69	0xbe849454	-0.25894415
70	0xbf26ce3c	-0.6515844
71	0x3e1b158e	0.15144941
72	0x3ed1fb5a	0.4101208
73	0x3e92e4f8	0.28690314
74	0xbe0b7fa9	-0.13622917
75	0x3efcf217	0.4940345
76	0xbd9fcee5	-0.07803134
77	0xbeea95a8	-0.45817304
78	0x3e15aee5	0.14617498
79	0x3e8a7e6d	0.2704958
80	0x3b98bac5	0.0046609365
81	0x3eb5bcea	0.35495692
82	0x3eb08cd7	0.34482452
83	0xbeb12df9	-0.34605387
84	0x3dcda291	0.10040773
85	0xbd731ac5	-0.0593517
86	0xbddb59c9	-0.107104845
87	0xbec7870f	-0.3897023
88	0xbe3c1051	-0.18365599
89	0x3e1e85c5	0.15480717
90	0x3d53c117	0.051697817
91	0xbd896052	-0.06707825
92	0x3d2667f0	0.040626466
93	0x3d51b101	0.051194195
94	0x3e84c31e	0.25930113
95	0x3deee3f3	0.116645716
96	0x3f2e306f	0.68042654
97	0x3e995992	0.2995115
98	0xbe33fa9d	-0.1757607
99	0xbe06b867	-0.13156281
100	0xbd82ee0c	-0.0639306
101	0xbeb62519	-0.35575178
102	0x3eecdaa5	0.46260563
103	0xbe1ea135	-0.15491183
104	0xbe581f3d	-0.21105666
105	0x3e060907	0.13089381
106	0xbb61bc6f	-0.003444459
107	0xbd917886	-0.07103066
108	0xbef6d9ae	-0.4821295
109	0xbe14819d	-0.14502569
110	0xbd5ebef2	-0.05438132
111	0x3da9aaac	0.08284506
112	0xbe358ece	-0.17730257
113	0xbe16bc04	-0.1472016
114	0xbbd23bc7	-0.0064158174
115	0xbde0ec81	-0.109826095
116	0x3e2ffae8	0.17185557
117	0x3eee6847	0.46563932
118	0xbe94c1d1	-0.2905412
119	0x3efe5891	0.49676946
120	0x3dc82b29	0.09773857
121	0xbdaba247	-0.08380561
122	0x3eae6ee9	0.34068993
123	0xbe0320d0	-0.12805486
124	0xbdf8c1d2	-0.12146343
125	0x3f293c11	0.6610728
126	0xbe8d635f	-0.27614877
127	0xbe9ccd60	-0.3062544
128	0xbaf57cb9	-0.0018729187
129	0x3cce2541	0.025164248
130	0x3e221bb4	0.1583088
131	0x3d0c39ff	0.034234997
132	0x3e4f3205	0.20233925
133	0x3eae5165	0.34046474
134	0x3e37daa2	0.17954496
135	0xbea4343d	-0.32071105
136	0xbd25af86	-0.040450595
137	0xbe4d7d9a	-0.20067444
138	0xbd97807a	-0.07397552
139	0x3e91d41c	0.2848214
140	0x3f087850	0.5330858
141	0x3e49a928	0.19693434
142	0xbe167cf1	-0.14696099
143	0xbf0d8f2c	-0.5529659
144	0x3cd8f101	0.026482107
145	0x3cfd537f	0.030923603
146	0xbede98e0	-0.4347601
147	0xbe8d21a5	-0.2756473
148	0x3e2d150b	0.16902559
149	0xbd0527d3	-0.032508682
150	0x3ee2379a	0.44183046
151	0xbe87fb15	-0.26558748
152	0x3e7508c5	0.23929127
153	0x3d5abbbd	0.053401697
154	0xbead449b	-0.33841404
155	0xbe0aff50	-0.13573956
156	0x3e3fb24a	0.18720356
157	0x3e17eee0	0.14837217
158	0xbc8a30fe	-0.016869064
159	0xbe94c465	-0.29056087
160	0x3eaddbec	0.3395685
161	0xbea0962d	-0.31364575
162	0xbe7477c4	-0.23873812
163	0xbb818e99	-0.0039537665
164	0xbdc07ac4	-0.09398416
165	0x3e5f114e	0.21783945
166	0xbeaf330a	-0.34218627
167	0x3e35db8a	0.17759529
168	0x3dbc916c	0.092074245
169	0xbf125807	-0.5716557
170	0xbdba6dff	-0.09103011
171	0x3cce22e2	0.025163118
172	0x3f1f0321	0.6211415
173	0x3eb03949	0.34418705
174	0xbea2012e	-0.31641525
175	0xbec58b04	-0.38582623
176	0x3eb02005	0.3439943
177	0xbe9a5128	-0.30140042
178	0xbd89aa1f	-0.06721901
179	0xbe4e81e4	-0.20166737
180	0xbe6a3eaa	-0.22875467
181	0xbdb437a1	-0.08799673
182	0xbed2cf16	-0.4117362
183	0xbd487125	-0.048936028
184	0xbefd6d9f	-0.49497697
185	0xbf180766	-0.5938629
186	0x3ccbef2b	0.024894318
187	0xbe91cde3	-0.28477392
188	0x3e3e765a	0.18599835
189	0x3e0f5b46	0.13999662
190	0x3ea41d3a	0.32053548
191	0xbdeb09fa	-0.11476512
192	0x3ef81e98	0.4846084
193	0x3ed117a3	0.40838346
194	0xbeb1dd2e	-0.3473906
195	0x3d424e5b	0.047438007
196	0xbe99ec39	-0.30063036
197	0xbe10891c	-0.14114803
198	0x3c2237b2	0.009900974
199	0xbd8af333	-0.06784668
200	0xbdd6da8c	-0.10490903
201	0xbf045188	-0.51686907
202	0xbe55456c	-0.20827264
203	0xbe6ccc97	-0.2312492
204	0xbe7ef7fa	-0.24899283
205	0xbeb3cfc3	-0.35119447
206	0xbda46aaa	-0.08028157
207	0x3e2682e9	0.16260876
208	0x3d1fb543	0.038991224
209	0xbd0649c5	-0.032785196
210	0x3e3be7cb	0.18350141
211	0xbdc89b74	-0.09795275
212	0x3eadb7a6	0.33929175
213	0x3da8fdc7	0.08251529
214	0x3ec5e62d	0.38652173
215	0x3e9b5c97	0.30344078
216	0x3e2c30ce	0.16815493
217	0xbf134893	-0.57532614
218	0xbf07ba80	-0.5301895
219	0x3e6d4c2c	0.23173589
220	0x3e776dfb	0.24163048
221	0xbed42d56	-0.4144084
222	0xbd96377d	-0.07334802
223	0xbea77ba2	-0.32711512
224	0xbebd0341	-0.36916545
225	0x3e1b75b7	0.15181623
226	0x3ec2bba8	0.38033795
227	0xbe171c93	-0.14756994
228	0x3ee137e8	0.43987966
229	0x3e016c89	0.12639059
230	0xbcd4dd2c	-0.02598437
231	0xbde8ccd9	-0.113671966
232	0x3d1d3f36	0.03839036
233	0x3dbf5037	0.09341472
234	0xbd898c72	-0.06716241
235	0xbe45ee6d	-0.19329233
236	0xbe3b8775	-0.18313392
237	0xbdac9691	-0.08427156
238	0x3e14f499	0.14546432
239	0xbe2340be	-0.15942666
240	0xbea49223	-0.32142743
241	0xbe95ffc8	-0.29296708
242	0xbf210c12	-0.6290904
243	0xbeb2fb8b	-0.34957537
244	0x3da64f9e	0.081206545
245	0xbec0c004	-0.37646496
246	0x3d13496a	0.035958685
247	0xbf2e3c66	-0.6806091
248	0xbdce40a3	-0.10070922
249	0xbedfb37c	-0.43691623
250	0x3e170dd0	0.14751363
251	0x3eabaf99	0.33532408
252	0xbdbd8639	-0.092541166
253	0x3ed80ef6	0.42198914
254	0xbe28b5b3	-0.16475563
255	0xbe548216	-0.20752749

bias f4 [16]
0	0xbb7b09b0	-0.0038305335
1	0xbda0377f	-0.07823085
2	0xbc5a18ab	-0.013311545
3	0xbd9a6ba9	-0.07540066
4	0xbc280caf	-0.01025693
5	0xbd8056c8	-0.06266552
6	0xbd6a6226	-0.057222508
7	0x3c8dfefd	0.017333502
8	0xbd0bb595	-0.034108717
9	0xbd915afe	-0.070974335
10	0xbd27817a	-0.040894963
11	0x3aa3617e	0.0012464968
12	0xbdc0b9ec	-0.09410462
13	0xbd1e8d92	-0.03870923
14	0xbb8ffea2	-0.0043943683
15	0xbba3402b	-0.0049820147

weight f4 [16, 16, 3, 3]
0	0x3e61ee16	0.22063479
1	0x3da29a1c	0.0793955
2	0xbdefe8a0	-0.117142916
3	0xbd453d73	-0.048154306
4	0xbe3cd1fb	-0.18439476
5	0x3d24a44b	0.040195744
6	0xbdf904b3	-0.121590994
7	0xbd88aef3	-0.06673994
8	0x3dcdd430	0.10050237
9	0x3e2c8701	0.16848375
10	0x3d7274e7	0.059193518
11	0xbe7f6787	-0.24941836
12	0xbda2e64c	-0.07954082
13	0xbe94a5f0	-0.2903285
14	0x3ddd21a3	0.10797431
15	0x3e0d616c	0.13806695
16	0xbd1e391e	-0.03862869
17	0x3d7d65b3	0.061864566
18	0x3e08b9dd	0.13352151
19	0x3ddbdfe3	0.107360624
20	0xbd941bef	-0.072318904
21	0xbe119aa8	-0.14219153
22	0x3d34d63a	0.044149615
23	0x3e668c69	0.225145
24	0xbb950158	-0.0045472793
25	0x3d97fbfe	0.074211106
26	0xbd16777e	-0.03673505
27	0x3d88364c	0.06650981
28	0x3c59887b	0.013277168
29	0x3d4cb634	0.04997845
30	0xbe85047d	-0.25979987
31	0xbead941c	-0.3390206
32	0x3cf0dd51	0.029402407
33	0xbe542d2d	-0.20720358
34	0xbda72574	-0.081614405
35	0xbd15ca1d	-0.036569703
36	0xbe000d4c	-0.12505072
37	0xbd7929f7	-0.060831036
38	0x3e85a0f7	0.2609937
39	0x3d053843	0.03252436
40	0xbd31de09	-0.04342464
41	0x3d5c5b8f	0.053798255
42	0xbe747650	-0.23873258
43	0xbc0c334d	-0.008557153
44	0xbdbc1ce6	-0.091851994
45	0x3db20936	0.08693163
46	0xbcd4dddc	-0.025984697
47	0x3e2e198c	0.17001933
48	0xbd7b3bd3	-0.06133635
49	0xbdc1da50	-0.09465468
50	0x3e6971c8	0.2279731
51	0xbd81bb9f	-0.06334614
52	0xbe29276b	-0.16518943
53	0xbd5b725c	-0.05357586
54	0x3d27c3d1	0.04095823
55	0x3e06f98e	0.13181135
56	0xbec21ba2	-0.37911707
57	0x3d17c8f5	0.037056882
58	0xbd229417	-0.03969201
59	0x3cc305ca	0.023806471
60	0xbd8d003a	-0.06884809
61	0x3dc99acb	0.098439775
62	0x3d67b107	0.05656531
63	0xbcc459dc	-0.02396863
64	0xbd02b7bb	-0.0319135
65	0x3e400e7d	0.18755527
66	0xbd5ec19f	-0.05438387
67	0xbe1e5631	-0.15462567
68	0xbe02cd7a	-0.12773696
69	0xbcedc93a	-0.029026616
70	0xbe13e626	-0.14443263
71	0x3c69b0ba	0.014263326
72	0x3e7b4c56	0.24540839
73	0xbe158126	-0.14600047
74	0xbae8d401	-0.0017763377
75	0xbe8aace5	-0.27085033
76	0xbe23031d	-0.15919156
77	0xbd52bf7c	-0.051452145
78	0xbdc1ddcf	-0.09466135
79	0xbe50f7c8	-0.20407021
80	0x3e2367ce	0.15957567
81	0x3dcaa2db	0.098943435
82	0xbe471ee4	-0.19445378
83	0x3e0a214a	0.13489261
84	0xbddb2858	-0.10701054
85	0xbd0565fb	-0.03256796
86	0x3e819b85	0.25313964
87	0xbd228d9f	-0.03968584
88	0xbe6f5958	-0.23373926
89	0x3c00f4b4	0.007870842
90	0xbd306e33	-0.043073844
91	0x3e38e970	0.180578
92	0x3e0794f9	0.13240422
93	0x3dc70a19	0.09718723
94	0xbd8d1998	-0.06889647
95	0x3dbbf86c	0.09178242
96	0xbe04d224	-0.12970787
97	0xbe446884	-0.19180495
98	0xbe8dcd48	-0.2769568
99	0xbdb51b9f	-0.08843159
100	0x3c09e076	0.008415332
101	0xbe518ddb	-0.2046427
102	0xbc26c81d	-0.010179547
103	0xbd89274d	-0.06696949
104	0x3e2ab93f	0.16672228
105	0xbe1e3e3a	-0.15453425
106	0x3b00a408	0.001962902
107	0x3e64730b	0.2230951
108	0x3e5d20e5	0.2159458
109	0x3dca902d	0.098907806
110	0xbd98e1da	-0.07464953
111	0xbe2ae6a2	-0.16689542
112	0x3d8ee184	0.069766074
113	0xbd149672	-0.03627629
114	0xbdecdc59	-0.115654655
115	0xbe9949a4	-0.29938996
116	0x3d0f610c	0.03500466
117	0x3def2ef4	0.116788775
118	0x3d6c3a01	0.057672504
119	0xbe65f031	-0.22454907
120	0xbe54e4f2	-0.2079046
121	0xbe593ff0	-0.21215796
122	0x3df7b050	0.12094176
123	0xbe78169c	-0.24227375
124	0xbdd7da55	-0.105396904
125	0xbbc93bb3	-0.00614115
126	0xbcf184a7	-0.029482199
127	0x3d2621ec	0.040559694
128	0x3ded0a82	0.1157427
129	0xbe0f4b25	-0.13993509
130	0xbcef66bf	-0.029223798
131	0xbd8ebdcb	-0.06969794
132	0xbe5296ab	-0.20565288
133	0xbdeccfb3	-0.11563053
134	0x3daaf32d	0.08347163
135	0x3e3117ce	0.17294237
136	0x3e26ce32	0.16289595
137	0xbe485838	-0.19564903
138	0x3ced30f5	0.028954009
139	0xbbf15e81	-0.007366002
140	0x3cd640d7	0.026153965
141	0xbe070b9f	-0.13188027
142	0xbdddef0a	-0.10836609
143	0x3eb40d10	0.35166216
144	0x3ad26de8	0.0016054483
145	0xbc32d6fe	-0.010915516
146	0xbe5e7346	-0.21723661
147	0xbe3384f0	-0.1753118
148	0xbe632c83	-0.22184949
149	0x3e13620c	0.1439287
150	0xbdc18b1f	-0.09450363
151	0x3cb38ee9	0.02191873
152	0xbdcb011f	-0.09912323
153	0xbd07c8a6	-0.033150338
154	0xbc9d2f7b	-0.01918768
155	0x3bc5ec81	0.0060401564
156	0xbe0f11c1	-0.13971616
157	0xbdcc5cbd	-0.09978626
158	0xbd4ecb03	-0.050486576
159	0x3d343d5b	0.044003826
160	0x3c844110	0.016144305
161	0x3c9037b9	0.017604696
162	0x3d3b8146	0.04577758
163	0xbda21ca3	-0.07915618
164	0xbc86e95b	-0.016468694
165	0x3cca8709	0.024722593
166	0x3d0b2661	0.033972148
167	0xbeb2f3f4	-0.34951746
168	0xbc65c833	-0.014024782
169	0xbd55e9c1	-0.05222488
170	0xbd83a38d	-0.06427679
171	0xbd9e65f6	-0.07734291
172	0xbd0c1ce3	-0.034207236
173	0xbe21ba55	-0.15793736
174	0xbec45b32	-0.38350827
175	0xbbd01903	-0.006350638
176	0xbd80a256	-0.06280963
177	0x3d18a36b	0.037265223
178	0x3cb1146b	0.021616181
179	0x3d01062f	0.031500038
180	0xbe0fef98	-0.14056242
181	0xbe0cb4fc	-0.13740915
182	0x3dbc50ad	0.09195075
183	0xbe2ac60c	-0.16677111
184	0x3e2161b6	0.1575993
185	0xbe397300	-0.18110275
186	0x3cb4965b	0.022044351
187	0x3dbafc5a	0.091301635
188	0xbc7adf68	-0.015312053
189	0x3ca31c62	0.019910995
190	0x3e646771	0.22305085
191	0x3e0c6671	0.13710953
192	0xbe882082	-0.26587301
193	0x3e673db6	0.22582135
194	0xbe0b1dcc	-0.13585585
195	0xbd32429b	-0.04352055
196	0xbd9de7d2	-0.07710232
197	0x3ccce41c	0.025011115
198	0x3de8a3e1	0.113593824
199	0x3e81964d	0.25309983
200	0x3da1377d	0.07871912
201	0x3d2af5a9	0.041738186
202	0xbdf4a1c5	-0.119449176
203	0x3dabd40e	0.083900556
204	0xbc902289	-0.017594593
205	0x3ddc5dee	0.10760103
206	0x3d857db1	0.06518114
207	0x3cc08664	0.023501582
208	0xbe516cfc	-0.2045173
209	0xbe2ec415	-0.17066987
210	0xbebdcf44	-0.37072194
211	0x3e0218cb	0.1270477
212	0x3dd0df28	0.10198814
213	0xbdbac512	-0.091196194
214	0xbd2ec0a3	-0.04266418
215	0x3cff3579	0.031153427
216	0xbdcc619b	-0.09979554
217	0xbeb5d570	-0.35514402
218	0x3eb4d5f3	0.3531948
219	0xbe306619	-0.17226447
220	0x3be31b40	0.0069307387
221	0x3e592c4e	0.21208307
222	0xbdc545f2	-0.09632482
223	0x3d615b8c	0.055018947
224	0xbe157e3a	-0.14598933
225	0xbe361182	-0.17780116
226	0x3d285cf7	0.041104283
227	0xbdda5796	-0.10661237
228	0xba5a3b1a	-0.0008324847
229	0x3c2bd707	0.010488278
230	0xbd811a3d	-0.06303833
231	0x3d8812a0	0.066441774
232	0x3e473d03	0.19456868
233	0xbebc8340	-0.36818886
234	0x3dae09c3	0.08497956
235	0xbd3560d0	-0.04428178
236	0xbe075ab7	-0.13218199
237	0xbe33053b	-0.17482464
238	0xbd6d7d5d	-0.057980884
239	0x3cc8e6b0	0.024524063
240	0xbd89b73b	-0.067244016
241	0xbdf79852	-0.120896
242	0xbdd3a476	-0.10334103
243	0xbd879d7f	-0.06621837
244	0xbe77ffbe	-0.24218652
245	0xbbe710ad	-0.0070515485
246	0xbd472cca	-0.0486267
247	0xbd52db29	-0.05147854
248	0xbd09df40	-0.033660173
249	0x3c2d9955	0.010595639
250	0x3e15bdf4	0.14623243
251	0x3e2c93c9	0.1685325
252	0x3de01ff7	0.10943597
253	0xbdebad50	-0.11507666
254	0xbe630b85	-0.22172363
255	0xbe7fa5eb	-0.24965636

bias f4 [16]
0	0x3b54c80d	0.0032467872
1	0xbd80f033	-0.06295814
2	0xbdb86322	-0.09003283
3	0xbd79c1a1	-0.060975675
4	0xbd66667a	-0.056250073
5	0xbd592df9	-0.05302236
6	0xbd8123d6	-0.06305663
7	0x3d19c060	0.03753698
8	0xbc14c594	-0.009080309
9	0xbd8d0323	-0.06885364
10	0xbd5465d1	-0.051854912
11	0xbd0a4370	-0.03375572
12	0xbd65f30c	-0.05613999
13	0xbcbbb96a	-0.02291556
14	0xbda4413f	-0.08020257
15	0xbd8c0991	-0.06837762

weight f4 [16, 16, 3, 3]
0	0x3dde2018	0.10845965
1	0xbe3963c4	-0.18104464
2	0xbcbacaa1	-0.0228017
3	0x3df178fb	0.11790653
4	0xbeb17a75	-0.3466374
5	0xbbfd93f8	-0.0077385865
6	0xbe507b7a	-0.20359603
7	0x3dc49ade	0.09599851
8	0xbe0a4207	-0.1350175
9	0xbda4b3b4	-0.08042088
10	0xbdc7a22b	-0.09747728
11	0x3e5ae463	0.21376185
12	0xbe22252e	-0.15834495
13	0xbcf084b6	-0.029360157
14	0xbd95ca17	-0.07313936
15	0xbd94fd5c	-0.07274887
16	0xbb8c2981	-0.0042774086
17	0xbe31bdd0	-0.17357564
18	0xbda1ab2a	-0.07893975
19	0xbded8626	-0.115978524
20	0x3d51b288	0.05119565
21	0x3deb5b3f	0.11492013
22	0xbd379c66	-0.044826888
23	0x3d9bc719	0.07606334
24	0x3dbd7ef5	0.09252731
25	0x3b837f33	0.004012966
26	0xbd09ef26	-0.033675335
27	0xbdd0aa3a	-0.10188718
28	0x3c3e6cef	0.0116226515
29	0xbe0f9e78	-0.14025295
30	0xbe875983	-0.2643548
31	0x3ce17b51	0.027524622
32	0xbea564f3	-0.3230358
33	0x3cdd451d	0.027010495
34	0xbdde3b14	-0.10851112
35	0xbcb2fec4	-0.021849997
36	0xbe7d4dab	-0.24736659
37	0x3e0b9c3c	0.13633817
38	0x3e20aa23	0.15689902
39	0xbd258776	-0.04041239
40	0x3e2f8d78	0.1714381
41	0x3e0cc32a	0.13746324
42	0x3c95dcce	0.018293764
43	0x3d8dfce5	0.069330014
44	0x3c00d305	0.007862811
45	0xbe7018da	-0.2344698
46	0xbcce8929	-0.025211887
47	0x3e19ac51	0.1500714
48	0xbe3e17d8	-0.18563783
49	0xbe580c39	-0.21098413
50	0xbe3a98db	-0.18222372
51	0xbe73f278	-0.23822963
52	0xbe5c075f	-0.21487187
53	0x3e0a3d9a	0.13500062
54	0xbe1e30f9	-0.15448369
55	0xbd769bdb	-0.06020723
56	0xbe93159a	-0.28727418
57	0x3b94d7c6	0.0045423238
58	0x3cb3cefb	0.021949282
59	0xbda10fa8	-0.07864314
60	0xbb3ce6f1	-0.0028824175
61	0x3db992c0	0.090611935
62	0x3bbbd8d9	0.0057326374
63	0xbe5a76b8	-0.2133435
64	0xbde720ae	-0.1128553
65	0xbcc06472	-0.023485396
66	0xbe19c737	-0.150174
67	0xbd7aab03	-0.061198246
68	0xbc5d8776	-0.013521066
69	0xbdd2c554	-0.102915436
70	0xbe162f35	-0.14666446
71	0xbe5b4ae6	-0.2141529
72	0xbcbb395a	-0.022854496
73	0x3cf6e885	0.03014017
74	0xbe5a6dad	-0.213309
75	0xbdd6c474	-0.10486689
76	0x3dc9b72d	0.09849391
77	0x3e016dec	0.12639588
78	0x3e1ab04f	0.15106319
79	0x3cc2106e	0.023689475
80	0xbdcaf937	-0.09910815
81	0xbe032d2f	-0.12810205
82	0xbdd88c6e	-0.1057366
83	0xbe495e47	-0.1966487
84	0x3d50b7de	0.0509566
85	0x3d4733d4	0.04863341
86	0x3e621125	0.22076853
87	0x3e100d58	0.1406759
88	0x3c3d4c3b	0.011553819
89	0xbd662a16	-0.05619248
90	0x3c78c128	0.015182771
91	0x3d900858	0.070328414
92	0x3e60667d	0.21914096
93	0xbe09996a	-0.13437429
94	0xbdccc591	-0.0999862
95	0x3e2472ba	0.1605939
96	0xbdefea23	-0.1171458
97	0xbe515129	-0.20441116
98	0xbc95ed8a	-0.018301744
99	0x3c41c403	0.011826518
100	0xbbf1e948	-0.0073825456
101	0x3bcf4680	0.006325543
102	0x3d3e6d34	0.046490863
103	0x3ad7d1a0	0.0016465671
104	0x3cbed6a7	0.023295714
105	0xbd09d403	-0.033649456
106	0xbd26007a	-0.0405278
107	0x3d93be15	0.0721399
108	0x3c3d74c5	0.011563485
109	0xbe2fa796	-0.17153773
110	0x3dcb73fa	0.0993423
111	0xbe6ab22a	-0.22919527
112	0xbde20f6c	-0.11038098
113	0xbe471d04	-0.19444662
114	0x3b9058d4	0.0044051204
115	0xbd9f89b0	-0.07789934
116	0xbe05e371	-0.13075043
117	0x3e95d9ae	0.2926764
118	0x3d11348a	0.035450496
119	0x3e716212	0.23572567
120	0xbda90750	-0.08253348
121	0x3e0395df	0.1285014
122	0x3df7a3eb	0.12091812
123	0xbd8ed8d2	-0.06974949
124	0xbd3e6a42	-0.046488054
125	0x3dfc304b	0.12313899
126	0xbd2d6b6d	-0.042338777
127	0x3d06ec5e	0.03294026
128	0xbe011fbf	-0.12609766
129	0xbceff0e3	-0.029289668
130	0x3d6900d0	0.05688554
131	0x3e6e0688	0.23244679
132	0xbdeac44c	-0.11463222
133	0xbd641f4c	-0.05569391
134	0x3e2a2970	0.1661737
135	0xbdf6e9b5	-0.12056295
136	0x3e0c599f	0.13706063
137	0x3e1fdc29	0.15611328
138	0xbeaabe27	-0.333482
139	0x3d2ec915	0.042672236
140	0x3e4a0f37	0.19732367
141	0xbe6bcf52	-0.23028305
142	0x3c49e31c	0.0123222135
143	0xbe4fed46	-0.20305356
144	0xbe950baa	-0.2911046
145	0x3ce19124	0.027535029
146	0xbe1b916b	-0.15192191
147	0xbd8c0b8d	-0.06838141
148	0x3d8c381e	0.06846641
149	0xbd3b93d9	-0.045795295
150	0x3ce08c29	0.027410584
151	0xbd3fbea3	-0.046812665
152	0xbc60a0ee	-0.013710244
153	0x3d930f0b	0.071806036
154	0x3e7ba380	0.24574089
155	0xbeb52950	-0.3538308
156	0xbcbdb559	-0.023157762
157	0x3e046fad	0.12933226
158	0xbe6c0e85	-0.23052414
159	0x3c9b1178	0.018929228
160	0xbe614c19	-0.22001685
161	0xbdaea1bd	-0.08526943
162	0xbe963903	-0.2934037
163	0xbdb5023c	-0.08838317
164	0xbdc674d3	-0.09690251
165	0xbcdb9572	-0.02680466
166	0x3e3b1627	0.18270169
167	0xbda5b4c6	-0.080911204
168	0xbcf3cb4e	-0.02976003
169	0x3e4aec23	0.19816642
170	0xbe2c1a5a	-0.16806927
171	0x3b5bdee0	0.0033549592
172	0x3cb44148	0.022003785
173	0xbde075b3	-0.10959949
174	0x3e405977	0.18784128
175	0xbdc4d321	-0.09610582
176	0xbe7de1b9	-0.24793138
177	0xbd744f59	-0.059645984
178	0x3e46c02c	0.19409245
179	0x3d7c7cfd	0.061642636
180	0xbd33cf74	-0.043899015
181	0xbe31636e	-0.17323086
182	0xbe3e7f1a	-0.18603173
183	0x3d9359cc	0.07194862
184	0xbe8c4623	-0.2739726
185	0x3e729321	0.23688938
186	0x3c15f7c8	0.009153314
187	0xbe58a0cf	-0.21155094
188	0x3ebd76e4	0.3700477
189	0x3e83430d	0.25637093
190	0xbda8f228	-0.08249313
191	0x3ddced58	0.10787457
192	0xbdca6a38	-0.09883541
193	0x3dc6ca45	0.097065486
194	0xbd6a85cd	-0.05725651
195	0x3c8535fb	0.016261091
196	0x3cc3ea92	0.023915563
197	0xbdbfd439	-0.0936665
198	0xbd1bbe21	-0.038023118
199	0xbc943fdf	-0.018096862
200	0x3c3b1962	0.011419626
201	0x3ce5ae42	0.028037194
202	0xbde96962	-0.11397053
203	0x3c4a1a72	0.012335407
204	0x3e3ac393	0.18238668
205	0xbdc5b259	-0.09653158
206	0x3dc802e6	0.09766178
207	0xbe00b94b	-0.12570684
208	0x3e0d3786	0.13790712
209	0x3e27d07b	0.16388123
210	0x3de5188a	0.11186321
211	0x3dad53c2	0.08463241
212	0xbd996a97	-0.074910335
213	0xb8209b43	-3.829157e-05
214	0xbd9f22be	-0.077702984
215	0xbdab427c	-0.0836229
216	0x3c3d4004	0.011550907
217	0x3cd97fc6	0.026550185
218	0x3e464f9e	0.19366309
219	0xbe705e62	-0.23473504
220	0xbdffb529	-0.124857254
221	0xbd9ebaa6	-0.07750444
222	0x3e4dc516	0.20094714
223	0xbda63340	-0.08115244
224	0xbe421c5f	-0.18956135
225	0x3c467a32	0.012114095
226	0xbdc9b8fc	-0.09849736
227	0xbe6154d0	-0.2200501
228	0x3dd18c11	0.10231794
229	0xbdf7427a	-0.12073226
230	0xbd84f6ac	-0.064923614
231	0xbd96ad61	-0.07357288
232	0x3da56d5b	0.080774985
233	0xbc5b7376	-0.013394227
234	0xbe12095b	-0.14261381
235	0x3e16a308	0.14710629
236	0xbdb369e8	-0.087604344
237	0xbe4bb7da	-0.19894353
238	0xbe489656	-0.19588599
239	0x3d434ec5	0.047682542
240	0x3d7a8063	0.061157595
241	0xbd8377df	-0.06419348
242	0xbe593b20	-0.2121396
243	0xbd827e27	-0.06371718
244	0x3de47b2b	0.11156305
245	0xbc919945	-0.01777328
246	0x3d3cfa4d	0.046137143
247	0x3cd29332	0.025704954
248	0xbc8e873f	-0.017398475
249	0x3db4ca3e	0.08827637
250	0xbe558e56	-0.20855078
251	0x3cc36837	0.023853404
252	0x3b1ca387	0.002390118
253	0x3e02e7cf	0.1278374
254	0xbe441ebf	-0.19152354
255	0xbda1e12a	-0.07904275

bias f4 [16]
0	0x3d27a413	0.040927958
1	0xbcb6aa3a	-0.022297967
2	0xbd133cc2	-0.035946615
3	0x3afa9591	0.0019118061
4	0xbcd406ba	-0.025882114
5	0xbc803d83	-0.015654331
6	0xbd35975c	-0.0443338
7	0x3d152891	0.03641564
8	0xbcf6069b	-0.030032447
9	0xbb404b60	-0.0029341802
10	0x3ccef618	0.025263831
11	0x3cae0dba	0.02124678
12	0xbcfd598b	-0.030926486
13	0x3d05d855	0.032677013
14	0xbc7d88d5	-0.015474518
15	0x3ce8b2f9	0.028405653

weight f4 [16, 16, 3, 3]
0	0x3d5f465e	0.054510467
1	0xbd756c20	-0.05991757
2	0x3c9f0ddd	0.01941579
3	0x3e2810a9	0.16412605
4	0x3dfd8ed8	0.12380761
5	0x3ce1479c	0.027499966
6	0xbd3469d8	-0.044046253
7	0xbd9c9ae6	-0.07646732
8	0x3e94851b	0.290078
9	0x3e035cb6	0.12828335
10	0x3dad3d15	0.08458916
11	0x3e3c5aff	0.18394087
12	0xbc9416d2	-0.018077288
13	0xbd9767f8	-0.07392877
14	0xbe45e17c	-0.19324297
15	0xbc82f54a	-0.015986104
16	0xbe0d979d	-0.13827367
17	0x3c3ef1e0	0.011654347
18	0x3e855287	0.26039526
19	0xbdf34e9e	-0.118802294
20	0xbd00361f	-0.031301614
21	0xbda7158f	-0.08158409
22	0x3cdc94c5	0.026926408
23	0xbd924be2	-0.0714338
24	0xbdfa7bd1	-0.12230647
25	0xbef609dc	-0.48054397
26	0xbe2ae809	-0.16690077
27	0xbd6e1970	-0.058129728
28	0xbcf7e376	-0.030259829
29	0x3d4b086b	0.049568575
30	0xbdcb8ea1	-0.09939314
31	0xbeb17f26	-0.3466732
32	0xbe306efd	-0.17229839
33	0x3e28837b	0.16456406
34	0xbe1429fe	-0.14469144
35	0x3c796ada	0.015223229
36	0x3d949b72	0.07256211
37	0xbe93de41	-0.28880504
38	0x3e07f306	0.132763
39	0x3c9c6007	0.019088758
40	0xbd04cf98	-0.03242454
41	0xbe04999b	-0.12949221
42	0x3e328fc4	0.17437655
43	0xbe51f225	-0.20502527
44	0x3c27191b	0.010198857
45	0xbc723b18	-0.014784597
46	0xbd5150e2	-0.051102526
47	0xbd636672	-0.05551762
48	0x3ddc3f86	0.10754304
49	0xbd83fdcb	-0.064448915
50	0xbd534aa0	-0.05158484
51	0x3e717ed4	0.23583537
52	0x3d961a4e	0.07329236
53	0xbe81a1cc	-0.25318754
54	0xbe0e8bfd	-0.13920589
55	0x3ccb3764	0.024806686
56	0xbd1b3728	-0.037894398
57	0x3deb0084	0.11474708
58	0xbe362226	-0.17786464
59	0x3e676388	0.22596562
60	0xbb57a351	-0.003290374
61	0xbd842c5d	-0.06453774
62	0x3de5aab2	0.11214198
63	0x3e2d0461	0.16896202
64	0xbe0ccb7d	-0.137495
65	0xbdf67a2c	-0.12035021
66	0x3e1d88ab	0.15384166
67	0xbdfe02f0	-0.12402904
68	0x3e1f8144	0.15576655
69	0xbb858837	-0.004075076
70	0xbd8cbcd5	-0.06871954
71	0xbe0d5f40	-0.13805866
72	0x3dc7a543	0.09748318
73	0x3e0a20cd	0.13489075
74	0x3db66f17	0.089079075
75	0x3dbdf41c	0.09275076
76	0xbcca7a01	-0.02471638
77	0x3dc8644e	0.097847566
78	0xbd176783	-0.03696395
79	0x3c9ea485	0.019365558
80	0x3dc6023e	0.096683964
81	0x3e3a7eb3	0.18212394
82	0xbda0562e	-0.078289375
83	0xbdfe4d96	-0.12417142
84	0x3df7de3d	0.121029355
85	0x3d71c215	0.05902298
86	0xbe629f8a	-0.22131172
87	0xbe52582a	-0.20541444
88	0x3dacf1bf	0.08444547
89	0xbe2dc1b3	-0.16968422
90	0x3de55192	0.11197199
91	0xbd871d4c	-0.06597385
92	0x3c63e0a4	0.013908539
93	0x3e3c8e35	0.18413623
94	0xbe2f9d18	-0.1714977
95	0xbd5ed384	-0.054400936
96	0x3dbe9d9f	0.093074076
97	0x3dd0bb38	0.10191959
98	0x3e6e8673	0.23293476
99	0xbda2be76	-0.07946484
100	0xbddb451b	-0.1070654
101	0xbe0e1019	-0.13873328
102	0x3db114bd	0.08646534
103	0xbddef33a	-0.108862355
104	0x3e448b9b	0.1919388
105	0xbce9e612	-0.028552089
106	0xbe27c52d	-0.1638381
107	0xbdee1d61	-0.11626697
108	0x3d4dead1	0.050272767
109	0xbe07430a	-0.13209167
110	0xbe051185	-0.12994964
111	0xbd4be69c	-0.049780473
112	0xbd78bbd3	-0.060725998
113	0xbe1b36ed	-0.15157671
114	0xbc1f096b	-0.009706835
115	0x3d24e1ed	0.040254522
116	0xbd6c94c8	-0.057759076
117	0x3dd1e56b	0.10248836
118	0x3d02e847	0.0319598
119	0x3da0bcd0	0.07848513
120	0x3e8660fd	0.2624587
121	0xba498d8e	-0.0007688635
122	0x3dcac804	0.09901431
123	0x3df964db	0.1217744
124	0x3e71e8a9	0.23623909
125	0xbe362c47	-0.17790328
126	0x3e90eed6	0.28307217
127	0x3e654c94	0.22392493
128	0x3d9f62e3	0.07782533
129	0xbea4d84a	-0.32196265
130	0xbdcbf13b	-0.099581204
131	0xbe0402c7	-0.12891684
132	0x3d35a4ff	0.044346806
133	0x38cab208	9.6652715e-05
134	0x3c8fec56	0.017568748
135	0xbbddcb5c	-0.006768627
136	0xbe60aadb	-0.21940176
137	0x3e2c8950	0.16849256
138	0x3e6737f0	0.22579932
139	0xbea6fd12	-0.32614952
140	0xbe21f98d	-0.15817852
141	0xbd0f9f66	-0.035064124
142	0xbd04bcbe	-0.03240656
143	0x3d8beac4	0.06831887
144	0xbe11a1ae	-0.14221832
145	0x3de79478	0.11307615
146	0x3d752d5e	0.05985772
147	0x3ca4585f	0.02006167
148	0x3e896a35	0.26838842
149	0x3d79875e	0.06092011
150	0xbce96e01	-0.028494837
151	0x3dc351c2	0.095370784
152	0xbdaf51ff	-0.085605614
153	0x3def3860	0.116806746
154	0xbdd99e1c	-0.1062586
155	0x3d78fbc7	0.06078699
156	0xbd693f14	-0.05694492
157	0xbd694eee	-0.05696004
158	0xbd30594f	-0.04305392
159	0xbe602af2	-0.21891382
160	0x3d688426	0.05676665
161	0x3dee6732	0.11640777
162	0x3e53f24d	0.20697899
163	0x3dd7b01e	0.105316386
164	0xbe5a4ef6	-0.21319184
165	0xbd6613c7	-0.056171205
166	0xbd7eacd1	-0.06217653
167	0xbe42149c	-0.18953174
168	0x3e9e7603	0.3094941
169	0x3bd0a882	0.006367744
170	0xbd8e4dfa	-0.069484666
171	0xbd448b7d	-0.04798459
172	0xbe598338	-0.21241462
173	0xbe01cffb	-0.12676995
174	0xbc9bf2c6	-0.019036662
175	0x3d020702	0.031744964
176	0xbd8a8135	-0.067629255
177	0x3d34b526	0.04411807
178	0x3e68d512	0.2273753
179	0xbdc817c0	-0.09770155
180	0x3d02d3de	0.031940334
181	0x3d7bd642	0.06148363
182	0xbd5ca684	-0.05386974
183	0xbe98f751	-0.29876187
184	0x3e1db079	0.1539935
185	0xbba775f6	-0.0051104976
186	0x3ea4264c	0.32060468
187	0x3d2256fb	0.039633732
188	0xbde7d8cc	-0.113206476
189	0xbd9176d9	-0.071027465
190	0xbdf437a5	-0.11924676
191	0x3d5d5dec	0.05404465
192	0x3db6a2ad	0.08917747
193	0xbc1791eb	-0.009251098
194	0xbb0d14ed	-0.0021527365
195	0x3d6ca3a1	0.057773236
196	0x3c4950a0	0.012287289
197	0xbc8968ff	-0.016773699
198	0xbe31dfd2	-0.17370537
199	0x3e31fcf1	0.17381646
200	0x3e07b205	0.13251503
201	0xbdeb7878	-0.11497587
202	0x3d3828d8	0.044960827
203	0xbe3ee395	-0.18641503
204	0xbdf0cb4d	-0.117575265
205	0x3dcdf7c5	0.10057024
206	0x3def602d	0.11688266
207	0x3e8db50a	0.27677184
208	0x3c3382bf	0.010956465
209	0x3d97f940	0.074205875
210	0x3e0fa0be	0.14026162
211	0x3e77ec79	0.24211301
212	0xbde12bbe	-0.10994671
213	0x3d22927d	0.039690483
214	0x3d99d9d9	0.07512254
215	0xbe8c6c50	-0.27426386
216	0x3e07db82	0.1326733
217	0xbb3b2d27	-0.0028560848
218	0x3d419f34	0.04727097
219	0xbdefcbbc	-0.11708781
220	0xbde49a68	-0.11162263
221	0x3cb865ad	0.02250942
222	0x3d86bd51	0.06579078
223	0xbd05f591	-0.032704893
224	0xbd852920	-0.065019846
225	0x3cd1f47b	0.025629273
226	0x3e698544	0.22804743
227	0x3b2fab75	0.0026805077
228	0x3e14bc7c	0.14525026
229	0xbdfa2d3e	-0.122156605
230	0xbe299d5d	-0.16563936
231	0xbd71f905	-0.059075374
232	0x3ab7895b	0.0014002727
233	0x3c7c4f37	0.015399746
234	0xbe6c3d55	-0.23070271
235	0xbe6bf20d	-0.23041554
236	0xbe0441ec	-0.12915772
237	0x3d8e1eb8	0.06939453
238	0x3d95e93f	0.07319879
239	0xbdabebb9	-0.0839457
240	0xbcbdbb46	-0.023160588
241	0x3e0132ed	0.12617083
242	0x3ccfd355	0.025369326
243	0x3e899ca1	0.2687731
244	0x3deb198a	0.114794806
245	0xbe8ba9e7	-0.27278063
246	0xbe596f59	-0.21233882
247	0x3e235a54	0.15952426
248	0xbe5d80c8	-0.21631157
249	0x3e31adc8	0.17351449
250	0x3ca27dec	0.019835435
251	0xbdeaeb8e	-0.1147071
252	0xbbb610d2	-0.0055562044
253	0xbcf2db38	-0.029645547
254	0x3de90ec3	0.11379769
255	0xbe0a7f4a	-0.1352512

bias f4 [16]
0	0xbd04c1da	-0.032411434
1	0xbbfd119e	-0.0077230474
2	0xbd139627	-0.03603187
3	0xbdb015bd	-0.08597896
4	0xbda460ef	-0.08026301
5	0xbccc03df	-0.02490419
6	0xbcfe1fe5	-0.031021068
7	0xbca6e224	-0.020371504
8	0xb98a6a9b	-0.00026400838
9	0xbd75573b	-0.059897643
10	0xbbfb96a3	-0.0076778694
11	0x3d03e56e	0.032201223
12	0xbcc10c4e	-0.023565438
13	0xbc5882b2	-0.013214754
14	0xbc120ae1	-0.008913727
15	0xbc7c03dc	-0.0153817795

weight f4 [16, 16, 3, 3]
0	0xbe2b26f5	-0.1671408
1	0xbdec317c	-0.11532876
2	0xbe3665dd	-0.17812295
3	0xbda4fda6	-0.08056192
4	0xbdf020ef	-0.117250316
5	0xbca90f60	-0.020637214
6	0xbd966c5f	-0.07344889
7	0x3e6fb143	0.23407464
8	0x3e91129c	0.2833451
9	0xbcc74803	-0.02432633
10	0x3d76ca25	0.060251374
11	0x3daeba8d	0.085316755
12	0xbc487df8	-0.012237065
13	0x3e81e4f3	0.25369987
14	0xbd77d2ec	-0.060503885
15	0xbddd09c5	-0.10792879
16	0xbd42c4f4	-0.04755111
17	0xbd0ccf0a	-0.034377135
18	0xbdc7a1d3	-0.097476624
19	0x3e89d3d2	0.2691942
20	0x3e1395c7	0.14412604
21	0xbe62e213	-0.22156553
22	0x3dac6dac	0.08419356
23	0xbe437a7b	-0.19089691
24	0x3ddbf938	0.10740894
25	0x3d3aefc2	0.045638807
26	0xbdb420e3	-0.08795335
27	0xbdbf8457	-0.09351414
28	0xbe59b4de	-0.21260402
29	0xbd2304c9	-0.039799485
30	0x3d328e5f	0.043592807
31	0xbe0c2d93	-0.1368926
32	0xbd13ab6c	-0.036052153
33	0xbe0b99f6	-0.1363295
34	0x3d456437	0.048191275
35	0x3bce6b4d	0.0062994123
36	0x3d81995f	0.06328081
37	0xbe491636	-0.19637379
38	0x3b578e30	0.0032891147
39	0x3cd02734	0.025409319
40	0xbe724395	-0.23658593
41	0xbe937482	-0.28799826
42	0xba417665	-0.0007380008
43	0x3b717f48	0.0036849547
44	0xbe25e2b5	-0.16199763
45	0xbe91d2b8	-0.28481078
46	0x3de60ed6	0.112332985
47	0xbe5fb8bd	-0.21847816
48	0x3e14132e	0.14460441
49	0x3df8dbbc	0.12151286
50	0x3d813522	0.063089624
51	0xbd1f39d0	-0.038873494
52	0x3df14c1e	0.11782096
53	0x3d2158b2	0.039391227
54	0xbd11bb75	-0.035579164
55	0xbe3ba6b8	-0.18325317
56	0x3ce57347	0.02800907
57	0xbe1e73c4	-0.15473849
58	0x3df275b0	0.11838853
59	0x3d328a63	0.043589007
60	0xbe504218	-0.20337713
61	0xbe15229a	-0.1456398
62	0xbe089c58	-0.1334089
63	0x3dae7445	0.085182704
64	0xbdc77c5d	-0.09740517
65	0x3e558c33	0.20854263
66	0x3e89177f	0.2677574
67	0xbd935628	-0.071941674
68	0x3c33ccd2	0.010974126
69	0xbd20a29a	-0.03921757
70	0xbe73e8d6	-0.23819289
71	0xbdce237b	-0.10065361
72	0xbdb36b0c	-0.08760652
73	0x3d51b6f8	0.051199883
74	0xbd75bc42	-0.05999399
75	0x3e02b810	0.12765527
76	0xbe41e369	-0.18934406
77	0x3dcbfb73	0.099600695
78	0x3d8ada27	0.067798905
79	0x3e683bda	0.22679082
80	0xbe0e0848	-0.13870347
81	0xbc935663	-0.017985528
82	0xbe7a2946	-0.24429807
83	0xbdb3f15f	-0.08786272
84	0x3e291fb3	0.16515999
85	0xbd7d62a3	-0.061861645
86	0xbe0f61ee	-0.14002201
87	0xbd85578c	-0.06510839
88	0x3e179a71	0.14805008
89	0x3c58481b	0.013200785
90	0xbd8c72c7	-0.068578295
91	0x3d438198	0.047731012
92	0xbd961166	-0.07327537
93	0xbd36a9de	-0.04459559
94	0x3d34052c	0.043950245
95	0xbcb8cea4	-0.022559471
96	0x3dd45d9d	0.10369418
97	0xbce0d1ba	-0.027443755
98	0x3ddf7750	0.10911429
99	0x3d2214f6	0.03957077
100	0x3e8e0afa	0.2774275
101	0x3d18b51c	0.037282094
102	0x3d7c4218	0.06158647
103	0x3d728e5a	0.05921779
104	0xbd9701ae	-0.07373367
105	0xbd3cbce5	-0.04607858
106	0x3e00df24	0.12585121
107	0xbe0c9275	-0.13727744
108	0xbd2e8ae5	-0.04261293
109	0x3ededd82	0.43528372
110	0x3d70e544	0.058812395
111	0xbc2960ff	-0.010338067
112	0x3d6773db	0.056506973
113	0xbdb7e7fb	-0.08979794
114	0x3d215a52	0.039392777
115	0xbd930551	-0.071787484
116	0x3d5e5992	0.05428464
117	0x3e5488b6	0.20755276
118	0x3e1f5099	0.1555809
119	0x3d8743ba	0.06604715
120	0x3e9a4add	0.3013524
121	0xbbc4b63c	-0.0060031693
122	0xbd0e8c4a	-0.03480176
123	0x3d66769c	0.05626546
124	0xbddf9778	-0.10917562
125	0xbcde062b	-0.02710255
126	0x3ecd6444	0.4011556
127	0xbd101a9e	-0.035181634
128	0x3c153111	0.009105937
129	0x39963f87	0.0002865756
130	0x3d1a5bf3	0.037685346
131	0x3da0b8fc	0.07847783
132	0xbdd6f3cf	-0.104957215
133	0x3d16d915	0.03682812
134	0x3d9e9849	0.0774389
135	0xbe32876c	-0.17434472
136	0xbdcd5947	-0.10026794
137	0xbca29786	-0.019847643
138	0x3df79855	0.12089602
139	0xbe1ad689	-0.15120901
140	0x3e2f798f	0.17136215
141	0xbdbb0021	-0.09130884
142	0x3d00d33b	0.031451445
143	0xbc365749	-0.011129209
144	0x3e409323	0.18806128
145	0xbddce03d	-0.107849576
146	0xbd69c410	-0.057071745
147	0x3de967cb	0.1139675
148	0xbe12a03c	-0.14318937
149	0xbc8cbcad	-0.017179811
150	0x3de1c092	0.11023058
151	0xbe0f4071	-0.13989426
152	0xbdbcea80	-0.09224415
153	0x3cde2979	0.027119385
154	0xbe88d318	-0.26723552
155	0x3e494f14	0.19659072
156	0x3e02e9a7	0.12784444
157	0x3e35acad	0.17741652
158	0x3dad3b75	0.08458606
159	0xbde63577	-0.11240666
160	0xbe109a23	-0.14121298
161	0x3e667452	0.2250531
162	0xbe87d46a	-0.26529247
163	0xbe63be14	-0.22240478
164	0x3ea3e223	0.32008466
165	0xbcfcbb5a	-0.030851055
166	0x3abe23d3	0.0014506526
167	0x3ede7c2e	0.43454117
168	0x3dca404f	0.09875547
169	0xbea33134	-0.31873477
170	0xbdc92fe1	-0.09823585
171	0x3d381f76	0.04495188
172	0xbd3b1da1	-0.045682553
173	0x3dd130d9	0.10214395
174	0xbe05840d	-0.13038655
175	0xbe77f9dd	-0.24216409
176	0xbe27b9b0	-0.16379428
177	0xbd550cca	-0.05201415
178	0xbd2675fd	-0.040639866
179	0x3e1c8506	0.1528512
180	0xbe706ec1	-0.2347975
181	0xbdfad6c6	-0.12247996
182	0xbd5cac4d	-0.053875256
183	0xbe1b7ca1	-0.15184261
184	0xbe2f61fa	-0.17127219
185	0xbd89a928	-0.06721717
186	0x3cfdacdc	0.030966215
187	0x3e00acaa	0.12565866
188	0xbd4788aa	-0.048714317
189	0xbcf397e5	-0.029735515
190	0xbd66b539	-0.05632517
191	0xbe56b270	-0.20966506
192	0xbe4e5281	-0.2014866
193	0xbc9ffc9e	-0.019529637
194	0xbb849275	-0.0040457794
195	0xbeaabd76	-0.33347672
196	0x3d32e068	0.04367104
197	0x3deadf6e	0.11468397
198	0x3d8cde13	0.06878295
199	0xbd8db79c	-0.06919786
200	0xbd9457e9	-0.0724333
201	0xbe650df7	-0.22368608
202	0xbe18da96	-0.14927134
203	0x3d351548	0.04420975
204	0x3a074021	0.0005159397
205	0x3e29362f	0.16524576
206	0xbd14470c	-0.036200568
207	0x3e004772	0.12527254
208	0x3d7e5fd7	0.06210312
209	0x3db2ac36	0.08724253
210	0xbc0ba77f	-0.008523821
211	0xbc4f6b24	-0.012659822
212	0xbd287c73	-0.04113431
213	0x3dacfed8	0.08447045
214	0xbc50755b	-0.012723292
215	0x3d11e5c0	0.035619497
216	0x3bdc23a3	0.0067181154
217	0xbe542e11	-0.20720698
218	0xbcf11026	-0.029426645
219	0xbea40576	-0.32035416
220	0x3d93a991	0.072100766
221	0x3e34ab59	0.17643489
222	0xbe399ecc	-0.18126982
223	0xbce88fde	-0.028388914
224	0x3dcf6c4e	0.10128079
225	0xbdc352ac	-0.09537253
226	0xbe5e0f76	-0.21685585
227	0xbce68659	-0.028140234
228	0x3d45c707	0.04828551
229	0x3ded4283	0.11584952
230	0xbe0480d6	-0.12939772
231	0xbd9c88de	-0.07643293
232	0x3e009c37	0.12559591
233	0xbddc079f	-0.10743641
234	0xbd23456c	-0.039861128
235	0xbd57cd35	-0.052685935
236	0xbe3bca7b	-0.18338959
237	0x3d8271ff	0.06369399
238	0x3d710c52	0.05884964
239	0x3dd5e94d	0.10444889
240	0xbe5706a3	-0.20998625
241	0xbdbacd30	-0.09121168
242	0x3d9639b9	0.073352285
243	0xbe51f376	-0.20503029
244	0x3d2a3e1a	0.04156313
245	0xbe0660cc	-0.13122863
246	0xbd82f3f4	-0.063941866
247	0x3d0743d3	0.033023667
248	0x3e787117	0.2426189
249	0x3dfd15a5	0.12357644
250	0x3e214835	0.15750201
251	0x3c90cba2	0.017675225
252	0xbd87a8a5	-0.06623963
253	0xbae0416a	-0.0017109339
254	0xbd89d75f	-0.06730532
255	0x3cbce7be	0.023059722

bias f4 [16]
0	0x3c5ff203	0.01366854
1	0x3b521661	0.0032056796
2	0xbc3173aa	-0.010830799
3	0x3da44569	0.080210514
4	0x3b9f26c6	0.004856917
5	0x3d001519	0.03127012
6	0x3aac5479	0.0013147733
7	0x3d688993	0.056771826
8	0x3d126dfb	0.035749417
9	0x3b929501	0.004473329
10	0x3c6447d7	0.013933144
11	0xbd08ecfa	-0.033429123
12	0x3adedf02	0.0017003717
13	0x3da4c1d8	0.08044785
14	0xbbc005a3	-0.005860047
15	0x3b24d56d	0.0025151626

weight f4 [32, 16, 3, 3]
0	0x3cfbb3b5	0.03072534
1	0xbd85fe1b	-0.065426074
2	0x3e4a87c5	0.19778354
3	0xbc60c88e	-0.013719691
4	0x3db7c4a9	0.08973057
5	0xbe44edab	-0.19231288
6	0x3ec4ee57	0.3846309
7	0xbe00e925	-0.12588938
8	0x3de08044	0.10961965
9	0x3e13b308	0.14423764
10	0xbdb23125	-0.0870078
11	0xbd3433ab	-0.043994587
12	0xbd3f0581	-0.04663611
13	0x3e0a338c	0.13496226
14	0xbd985491	-0.07438005
15	0x3e2223c8	0.15833962
16	0x3e7441db	0.23853247
17	0xbe89caa0	-0.26912403
18	0x3d9b5713	0.075849675
19	0x3d549d7f	0.051908012
20	0xbdab0bd0	-0.083518624
21	0xbd2ddf4e	-0.042449288
22	0xbcab8a04	-0.020939834
23	0xbd1de7ae	-0.038551025
24	0xbdf5ec59	-0.1200797
25	0xbd98f534	-0.07468644
26	0xbd97cc13	-0.07411971
27	0x3d892ea7	0.06698351
28	0xbde6fe82	-0.11279012
29	0xbea7e4c7	-0.3279173
30	0x3de69be1	0.112602
31	0x3dd27601	0.10276414
32	0xbdaa01f7	-0.08301156
33	0xbdd5605c	-0.1041877
34	0x3cffb0e8	0.031212285
35	0x3e112882	0.14175609
36	0xbe10de44	-0.14147288
37	0x3ea6674b	0.3250068
38	0xbe5338f4	-0.20627195
39	0xbc4defb3	-0.012569356
40	0xbd88701b	-0.066620074
41	0xbdd8b42e	-0.105812415
42	0x3ea44ca9	0.32089737
43	0xbe02d333	-0.12775879
44	0x3d68ef79	0.056869004
45	0xbe8a28ca	-0.26984245
46	0x3df19b0a	0.117971495
47	0xbcfa0bc3	-0.030523187
48	0xbe85a302	-0.26100928
49	0x3e325aad	0.17417403
50	0x3bf82aca	0.00757346
51	0xbe030396	-0.12794337
52	0xbd483442	-0.048877962
53	0x3e070cd8	0.13188493
54	0x3e15d2b4	0.14631158
55	0xbd5d784a	-0.054069795
56	0x3e259541	0.16170217
57	0x3e11dd46	0.14244565
58	0x3e3d6622	0.18495992
59	0xbd41fd2b	-0.04736058
60	0x3c53b64c	0.012921881
61	0xbd3d65df	-0.04623973
62	0xbdf08e7f	-0.11745929
63	0x3d32210e	0.043488555
64	0x3e1be60e	0.15224478
65	0xbdc2c5a6	-0.09510355
66	0x3d378825	0.044807572
67	0xbe84ca52	-0.25935608
68	0x3e093fe9	0.13403286
69	0xbe3c8858	-0.18411386
70	0xbe27e27f	-0.16394995
71	0xbba177de	-0.0049276194
72	0x3e3296ac	0.1744029
73	0x3d64ec62	0.055889495
74	0x3d880718	0.06641978
75	0x3e0f7925	0.14011057
76	0xbdee7377	-0.11643117
77	0xbe0cbfac	-0.13744992
78	0xbd5acf3f	-0.0534203
79	0xbd86f79e	-0.06590198
80	0x3de2ffd8	0.110839546
81	0x3da01722	0.07816912
82	0x3d9d03c4	0.07666734
83	0xbd719967	-0.058984187
84	0x3df05100	0.117341995
85	0xbdc57316	-0.096410915
86	0xbd2c2209	-0.042024646
87	0x3eab1377	0.33413288
88	0x3e0bba79	0.13645352
89	0x3dd26455	0.10273043
90	0x3d6c6fa6	0.057723664
91	0x3d038cce	0.032116704
92	0xbbd5bc5b	-0.006522698
93	0xbc75ba7f	-0.014998077
94	0x3e108cb0	0.14116168
95	0x3e385cd2	0.18004158
96	0x3e1ea1a1	0.15491344
97	0xbe1e4708	-0.15456784
98	0x3d29f100	0.0414896
99	0xbd955048	-0.07290703
100	0x3e0f9db0	0.14024997
101	0xbddacdb0	-0.10683763
102	0x3d85c253	0.06531205
103	0x3df1c3b8	0.118049085
104	0x3e17f009	0.1483766
105	0xbd1b4001	-0.037902836
106	0x3dff47f6	0.12464897
107	0x3c493d5e	0.0122826975
108	0x3deafeae	0.114743575
109	0x3e0babd1	0.13639762
110	0xbd57752a	-0.05260197
111	0x3d6f381a	0.058403112
112	0xbd8e2a48	-0.06941658
113	0xbdf9f4e0	-0.12204909
114	0x3e0411f9	0.12897481
115	0xbcec6375	-0.028856019
116	0x3c8b0658	0.016970798
117	0xbc4feb2a	-0.012690345
118	0x3ca8f78a	0.020625848
119	0x3d54f52d	0.05199163
120	0xbd192182	-0.03738547
121	0xbde6fab3	-0.11278286
122	0x3daedbd1	0.085380204
123	0xbe21a87c	-0.15786928
124	0x3c3984ce	0.011323167
125	0xbe033702	-0.12813953
126	0xbc4de6a9	-0.012567201
127	0x3ea5c714	0.32378447
128	0x3e09887d	0.13430972
129	0x3da57b57	0.08080166
130	0x3c902819	0.017597245
131	0x3c2fffe0	0.010742158
132	0x3e4990f9	0.19684209
133	0x3da95c20	0.082695246
134	0xbd351e89	-0.044218574
135	0x3e4685e8	0.19387019
136	0x3def17b8	0.11674446
137	0x3db02db3	0.086024664
138	0x3d8cd251	0.06876052
139	0xbe343438	-0.17598045
140	0x3bc9c697	0.006157707
141	0x3dc13e7c	0.09435746
142	0xbe360809	-0.17776503
143	0xbe13bd99	-0.14427795
144	0x3d3ff032	0.046859927
145	0x3e985df5	0.29759184
146	0x3e1d795e	0.15378329
147	0xbc3738ae	-0.011182947
148	0x3ea23b23	0.31685743
149	0xbb87b80b	-0.0041418127
150	0xbd0d0008	-0.034423858
151	0xbc4325f3	-0.011910903
152	0xbe1ba3a7	-0.15199147
153	0x3e0c6f86	0.13714418
154	0xbd9782ad	-0.07397971
155	0x3e59054c	0.21193427
156	0x3e096a16	0.13419375
157	0x3dfdcedb	0.1239297
158	0xbd7c48e2	-0.061592944
159	0x3df86cd7	0.121301346
160	0x3e32301e	0.17401168
161	0x3e565e45	0.20934398
162	0x3b47bf1b	0.0030478898
163	0xbc3ce58c	-0.011529338
164	0xbcbc017d	-0.022949928
165	0x3d910977	0.070818834
166	0xbcdc443b	-0.026888004
167	0x3db6a130	0.08917463
168	0xbd4d245b	-0.0500835
169	0xbcb0ff5b	-0.021606138
170	0xbd8aeb75	-0.06783191
171	0xbe11a7db	-0.14224188
172	0xbdf49722	-0.11942889
173	0xbd7cf093	-0.061752867
174	0xbe4334b2	-0.1906307
175	0xbe84562e	-0.25847
176	0xbe12fab5	-0.1435345
177	0xbd88ebd5	-0.066856064
178	0x3d934a47	0.07191902
179	0xbe1a869a	-0.15090409
180	0x3a9cbffb	0.001195907
181	0xbcf98820	-0.030460417
182	0x3bfec173	0.007774526
183	0x3ddccc3e	0.107811436
184	0xbe069dc6	-0.13146123
185	0x3e172785	0.14761169
186	0x3de02cbe	0.10946034
187	0x3dc4876c	0.09596142
188	0x3e281256	0.16413245
189	0xbcdd7be7	-0.02703662
190	0xbde49bc7	-0.11162525
191	0xbdd32255	-0.10309283
192	0xbd33bee9	-0.043883238
193	0xbd6b13b6	-0.057391845
194	0x3d062c28	0.032756954
195	0x3e1d98df	0.15390347
196	0x3c582c02	0.013194086
197	0x3e2cb689	0.16866507
198	0xbc7b4e27	-0.015338457
199	0x3b17de60	0.0023173317
200	0x3ceea79b	0.029132655
201	0x3c5a8647	0.013337678
202	0xbc3092f9	-0.0107772285
203	0x3e503a7a	0.20334807
204	0x3e064d58	0.13115442
205	0xbcc15cc2	-0.0236038
206	0x3dcad431	0.099037535
207	0xbe05d64f	-0.13070033
208	0xbe97f6d2	-0.29680496
209	0x3e089f1b	0.13341944
210	0xbd0c93a1	-0.034320477
211	0x3e217fda	0.15771428
212	0x3b5ff150	0.0034170933
213	0x3da2d278	0.079503
214	0x3d22f8a9	0.039787922
215	0xbe091f9b	-0.13390963
216	0x3db49d4c	0.088190645
217	0x3e38af20	0.18035555
218	0x3e82fd01	0.25583652
219	0xbdbdcad5	-0.09267203
220	0x3c9ad700	0.018901348
221	0xbe13d46c	-0.14436501
222	0x3d7cc7ca	0.06171397
223	0xbdd64808	-0.104629576
224	0x3d8ec2ff	0.06970786
225	0x3e7d6e0e	0.24749014
226	0x3d8ecdfb	0.069728814
227	0x3d1ee359	0.038791034
228	0xbe103349	-0.14082064
229	0xbd379ee6	-0.04482927
230	0x39709b87	0.00022946122
231	0x3e7a5985	0.24448211
232	0xbd46c48a	-0.048527278
233	0x3d902307	0.07037931
234	0xbe087587	-0.13326083
235	0x3e1e1583	0.15437894
236	0x3d7f5d1b	0.06234465
237	0xbd806495	-0.062691845
238	0xbdd3a835	-0.10334817
239	0xbdb8bc91	-0.09020341
240	0xbcd9072d	-0.02649268
241	0x3c338839	0.010957771
242	0x3d79585d	0.060875285
243	0x3d9994c9	0.07499082
244	0x3e10d0a1	0.14142086
245	0xbcdf83b0	-0.027284473
246	0x3d14ff6f	0.036376413
247	0x3dfa9271	0.12234963
248	0xbcb5857c	-0.022158377
249	0xbc19a165	-0.009376858
250	0x3e13d14f	0.14435314
251	0x3dec4799	0.11537094
252	0x3dabbd4e	0.083857164
253	0x3c6277cf	0.01382251
254	0xbdcc74ff	-0.09983253
255	0x3e50df3c	0.20397657

bias f4 [32]
0	0xbd9c2123	-0.07623508
1	0xbdbc5c9f	-0.091973536
2	0x3b959052	0.0045643235
3	0xbd83ce3f	-0.06435823
4	0xbd8e3aa1	-0.06944776
5	0xbd9ae563	-0.07563283
6	0xbd9c32dc	-0.07626888
7	0xbda9562f	-0.08268391
8	0xbdc12715	-0.094312824
9	0xbdd7871f	-0.10523819
10	0xbd834238	-0.064091146
11	0x3c7499e5	0.014929269
12	0xbdb9e677	-0.09077161
13	0xbdbbe928	-0.091753304
14	0xbdc0f10d	-0.09420977
15	0xbd2a7e4e	-0.04162436
16	0xbd1a9d0b	-0.037747424
17	0x3ce034d3	0.027368939
18	0xbd9e80c0	-0.07739401
19	0xbdbbc677	-0.091687135
20	0xbdf38531	-0.118906386
21	0xbe04f9f6	-0.12985978
22	0xbd807c6b	-0.06273731
23	0xbd5943d3	-0.053043198
24	0x3cb93d53	0.02261225
25	0xbda8ef3c	-0.08248755
26	0xbd2fc285	-0.042910118
27	0xbd8dae4c	-0.0691801
28	0xbe06b1c9	-0.13153757
29	0xbd064883	-0.032783996
30	0xbd8c2b5e	-0.06844209
31	0xbdc53c9b	-0.096307
