results/encoder/nature-1000-32fd-policy.pt (torch, 443935 bytes, 11 tensors)

weight f4 [32, 3, 8, 8]
-0.05637594 0.063790746 0.074126735 -0.10098452 -0.020778505 -0.005754315 -0.027716376 0.03643806
-0.23515065 -0.33223417 -0.23807961 -0.28805766 0.01466716 0.2017268 -0.10281082 0.17023896
-0.06474468 -0.046543982 0.085022785 -0.12488899 -0.08603698 0.09663454 -0.06650424 -0.07045587
0.21658638 0.31793526 0.10988092 -0.15916713 -0.05126288 -0.067873895 -0.14383928 -0.24674974
-0.09813451 -0.13266349 0.060452577 0.21662518 0.15255284 0.08069507 0.24665321 0.12248004
-0.042364866 -0.10744649 0.072984934 0.025892539 0.018634992 0.011886267 -0.00023404218 0.14874741
0.17212124 0.05149854 -0.066494316 0.2182572 0.11898127 -0.16263111 -0.087557696 0.0654655
-0.23074989 -0.11941537 0.15404317 0.07115821 0.25430608 0.20678096 -0.22836551 0.017902462
-0.0042361454 0.0016285321 -0.08153392 0.08356451 -0.1402586 0.21163039 -0.23037489 0.09418649
-0.23619208 -0.27889478 -0.13996744 0.05268646 0.07806743 0.14402665 -0.028813465 0.1366761
0.0726792 0.028308015 0.06256936 0.10319879 -0.04542455 0.13316366 -0.037591193 -0.023025353
0.26075402 0.1929024 0.1715983 -0.066809766 -0.06433407 -0.09205656 -0.107922465 -0.32867306
0.0065152408 -0.03096253 -0.030572252 -0.06512832 0.036623575 0.045051098 0.065552175 -0.02914452
0.0185805 0.010964771 -0.10332223 0.09728268 0.037366793 -0.18863852 -0.13136335 0.12900393
0.10678273 0.018918416 0.047334008 0.17140946 0.248606 -0.00032753465 0.07836835 -0.00044109492
0.057364468 0.07535858 -0.06258577 -0.038306594 -0.04353664 0.0062734243 0.17252119 0.12803695
0.04768375 -0.13616118 -0.24346785 -0.23782313 -0.07298276 -0.045069803 -0.09954143 -0.009272978
0.0042162556 -0.07784325 0.13490316 0.031476896 0.11979467 -0.21541162 -0.2830206 -0.07167312
-0.0010826999 0.07851942 -0.19286531 0.16882609 0.12435953 -0.114644535 0.009620224 -0.31181368
-0.13279352 -0.101168625 -0.20666842 -0.06467052 0.004133833 -0.07304115 -0.17587666 -0.11911875
-0.038577575 0.06043813 -0.14035152 -0.19597398 -0.17073186 -0.2311739 -0.0067211003 0.1701553
-0.053050797 0.08042281 -0.16014212 -0.27949223 -0.25336313 -0.17984591 -0.030593885 -0.020284737
-0.23082119 -0.017274266 -0.19170481 -0.20050757 -0.5027023 -0.17704563 -0.21978448 -0.08460901
0.026257424 -0.086307034 -0.18850836 -0.37836498 -0.33686802 -0.16182694 0.040342607 -0.03408228
0.05102899 -0.20798084 -0.3801648 -0.32607028 -0.22984552 -0.3991855 -0.33527067 -0.08827791
-0.7528375 -0.3195753 -0.4388813 -0.37901494 -0.4579316 -0.39618298 -0.11972233 0.003005136
-0.39382753 -0.17037927 -0.12184615 -0.13032547 -0.28951755 -0.22663856 -0.12938647 0.08005622
0.075471506 -0.13048306 -0.22565044 -0.12149855 0.19880936 -0.13740121 -0.05574938 -0.15115269
0.016255986 -0.041295428 0.14005908 -0.24214767 -0.12222274 -0.0011438398 0.012188461 -0.0348383
0.06146353 -0.06493983 0.009584027 -0.03847548 -0.04316199 -0.098084986 0.035376836 -0.009101458
-0.1407967 -0.011282938 -0.032588687 0.054221444 -0.23059142 -0.20757979 0.019218279 -0.008590531
0.13087456 -0.015441065 -0.31261414 -0.121045984 -0.13102421 0.08856725 0.10776597 -0.12958847
00000000: 75ea 66bd b9a4 823d c2cf 973d f9d0 cebd
00000010: af37 aabc b18e bcbb 740d e3bc 1340 153d
00000020: 55cb 70be 991a aabe 24cb 73be 4b7c 93be
00000030: 874e 703c 7891 4e3e 7b8e d2bd 1f53 2e3e
00000040: dc98 84bd e7a4 3ebd 6d20 ae3d ccc5 ffbd
00000050: 2834 b0bd 54e8 c53d 6033 88bd 2b4b 90bd
00000060: d2c8 5d3e 69c8 a23e 3f09 e13d b5fc 22be
00000070: 07f9 51bd 7801 8bbd 9b4a 13be f7ab 7cbe
00000080: bffa c8bd f0d8 07be 1f9d 773d fed2 5d3e
00000090: d036 1c3e 7543 a53d a992 7c3e d1d6 fa3d
000000a0: c886 2dbd e80c dcbd 2079 953d 971c d43c
000000b0: 69a8 983c 9ebe 423c 3869 75b9 3e51 183e
000000c0: 8d40 303e 22f0 523d 2c2e 88bd d17e 5f3e
000000d0: 74ac f33d c588 26be 7351 b3bd c712 863d
000000e0: b349 6cbe 0c90 f4bd 7ebd 1d3e 65bb 913d
000000f0: 6834 823e 63be 533e a6d8 69be 2fa8 923c
00000100: 5dcf 8abb 7874 d53a 41fb a6bd df23 ab3d
00000110: f39f 0fbe a3b5 583e 65e7 6bbe d9e4 c03d
00000120: 56dc 71be 4ccb 8ebe a053 0fbe c2cd 573d
00000130: d1e1 9f3d b97b 133e 370a ecbc d2f4 0b3e
00000140: d5d8 943d 36e6 e73c 5d24 803d e359 d33d
00000150: 180f 3abd 0e5c 083e 39f9 19bd aa9f bcbc
00000160: 8d81 853e 3588 453e 77b7 2f3e 8fd3 88bd
00000170: 95c1 83bd 2688 bcbd 7406 ddbd d647 a8be
00000180: cd7d d53b 22a5 fdbc a972 fabc ff61 85bd
00000190: 9a02 163d 8087 383d 3840 863d 7dc0 eebc
000001a0: 2236 983c 95a5 333c 9b9a d3bd 243c c73d
000001b0: ec0d 193d 752a 41be 1d84 06be 9b19 043e
000001c0: e7b0 da3d cbfa 9a3c 4ee1 413d f685 2f3e
000001d0: 9292 7e3e f5b8 abb9 967f a03d c242 e7b9
000001e0: 01f7 6a3d 9955 9a3d f82c 80bd 60e7 1cbd
000001f0: 7a53 32bd 4c91 cd3b 65a9 303e 1e1c 033e
00000200: 0950 433d d66d 0bbe a34f 79be e887 73be
00000210: fc77 95bd 1d9b 38bd 61dc cbbd b0ed 17bc
00000220: 8428 8a3b 486c 9fbd 0e24 0a3e ebed 003d
00000230: e856 f53d dd94 5cbe 13e8 90be 5bc9 92bd
00000240: 61e9 8dba cace a03d 7c7e 45be bfe0 2c3e
00000250: 36b0 fe3d c1ca eabd 259e 1d3c 0ba6 9fbe
00000260: 06fb 07be 7f31 cfbd e3a0 53be fa71 84bd
00000270: 1b75 873b 9996 95bd 0319 34be 88f4 f3bd
00000280: 8503 1ebd f98d 773d 4fb8 0fbe 67ad 48be
00000290: 55d4 2ebe dab8 6cbe ad3c dcbb 313d 2e3e
000002a0: cb4b 59bd b7b4 a43d 4cfc 23be 9b19 8fbe
000002b0: d0b8 81be 8729 38be 07a0 fabc 2d2c a6bc
000002c0: 645c 6cbe c382 8dbc 444e 44be db51 4dbe
000002d0: 19b1 00bf 734b 35be 2f0f 61be 7d47 adbd
000002e0: cf19 d73c bec1 b0bd 5608 41be 0eb9 c1be
000002f0: f779 acbe f6b5 25be 4a3e 253d dc99 0bbd
00000300: c603 513d eef8 54be f6a4 c2be aff2 a6be
00000310: a05c 6bbe 0b62 ccbe 99a8 abbe 0dcb b4bd
00000320: f5b9 40bf 609f a3be 0db5 e0be 3f0e c2be
00000330: 0376 eabe 7fd8 cabe fb30 f5bd d1f1 443b
00000340: c3a3 c9be e777 2ebe 798a f9bd 0a74 05be
00000350: a53b 94be f013 68be e37d 04be 84f4 a33d
00000360: ce90 9a3d 5a9d 05be e910 67be 3bd4 f8bd
00000370: ae94 4b3e e7b2 0cbe 7659 64bd c5c7 1abe
00000380: 462b 853c 6525 29bd a66b 0f3e 8ff5 77be
00000390: ea4f fabd e5ec 95ba 1cb2 473c 9bb2 0ebd
000003a0: 2fc1 7b3d 2cff 84bd 5306 1d3c 7798 1dbd
000003b0: a0ca 30bd c8e0 c8bd 4de7 103d 481e 15bc
000003c0: 032d 10be 12dc 38bc b77b 05bd 4e17 5e3d
000003d0: 2820 6cbe cc8f 54be a76f 9d3c 4cbf 0cbc
000003e0: fb03 063e 85fc 7cbc f60e a0be f5e6 f7bd
000003f0: 362b 06be bf62 b53d 68b4 dc3d d7b2 04be

bias f4 [32]
-0.018733095 0.015252949 -0.008079392 -0.003081856 -0.0061440165 -0.022214077 -0.009242749 -0.007894401
-0.015711354 -0.028250448 -0.006495012 0.018758686 -0.011012725 0.00878498 -0.0098217055 -0.0010648209
-0.012081408 -0.009072818 -0.0017881717 -0.00661974 -0.0019309585 -0.016355842 -0.0023509068 0.004007894
-0.011574708 -0.005834619 -0.017494714 0.002891568 -0.0034213518 -0.013229227 0.004367459 -0.0037913795
00000000: 2676 99bc 81e7 793c 6d5f 04bc f7f8 49bb
00000010: bf53 c9bb 4cfa b5bc e66e 17bc 8557 01bc
00000020: 19b5 80bc 7c6d e7bc 1cd4 d4bb d1ab 993c
00000030: b76e 34bc e0ee 0f3c 38eb 20bc 7691 8bba
00000040: 19f1 45bc 28a6 14bc 1661 eaba 67ea d8bb
00000050: 3718 fdba b0fc 85bc ac11 1abb a754 833b
00000060: d8a3 3dbc 5530 bfbb 1351 8fbc 7680 3d3b
00000070: c238 60bb 66bf 58bc e71c 8f3b cb78 78bb

weight f4 [64, 32, 4, 4]
0.028661063 -0.0014389134 0.08088134 0.047049865 -0.0076377685 -0.06516965 -0.03458728 -0.17626524
-0.17255305 -0.25721723 -0.25473714 -0.047489803 -0.29348457 -0.041633084 -0.18973152 -0.20058866
0.17805222 0.013418201 0.08071737 -0.031004073 0.22426304 0.13707255 -0.004216311 -0.123347566
0.012645385 -0.06181572 -0.19569063 0.024168206 0.16711248 0.060097534 0.13626477 -0.07072926
0.20310572 0.28434786 0.10418104 -0.017284606 0.19294417 0.11373156 0.14088675 0.11882341
0.09613519 -0.101264164 0.0046691424 0.08003781 -0.03918138 -0.17927548 0.055666756 -0.10585549
-0.11859403 0.077509575 0.32574758 0.08829015 -0.12588069 -0.0794738 0.042547856 -0.0606284
-0.4223815 -0.081168436 0.037714038 -0.081805274 0.029515864 -0.07312388 -0.0961962 -0.2144345
-0.15872648 -0.13226537 0.02006978 0.05635819 -0.29095235 -0.13562971 -0.019838411 -0.018202275
-0.5871264 -0.4367919 -0.28594717 -0.24527505 -0.4428353 -0.15210919 -0.012735314 -0.15990515
-0.05006955 -0.1480224 -0.041678414 -0.055380635 0.053416323 -0.056829814 -0.039301105 -0.15959904
0.12514372 -0.62664706 -0.25109667 -0.09123566 0.039932813 -0.002400097 -0.21463633 -0.13958345
0.13906305 0.20365515 0.053497404 0.06424387 0.25196072 0.03797892 -0.21204665 0.0521146
-0.037703842 0.027324716 -0.133398 -0.032283824 0.10680469 0.058654167 -0.16197558 -0.19310233
0.15585382 -0.26131752 -0.046182677 -0.02698173 0.10055759 -0.022317505 -0.007413296 -0.010493451
0.08408373 -0.0027057761 -0.21345462 -0.19965051 0.10062783 -0.062451757 -0.16706392 0.03409857
0.14908785 -0.051593218 0.08506793 -0.03214639 0.12430149 -0.065196805 -0.092188776 -0.040423647
-0.109015815 -0.24259132 -0.0438626 -0.18747549 -0.1191649 -0.13909683 -0.04470881 -0.107828625
0.1605588 0.10254838 0.12157649 -0.062396165 -0.0571 -0.19082099 0.10683069 0.053082976
-0.50764436 -0.3057444 -0.28115755 0.017574634 -0.38423312 -0.28526968 0.04182512 -0.10053544
0.17243896 0.033330828 -0.02258412 0.16781594 0.2146691 -0.011771984 0.04799139 -0.0089258775
-0.25441384 -0.28597695 -0.18755025 -0.21229225 -0.31099054 -0.1809404 -0.07964942 0.20246722
0.27381977 0.07558683 0.13613541 0.1321352 0.34834778 0.14456122 0.030975262 0.09523087
0.20033284 0.12822562 -0.15674134 -0.039099995 0.23018496 0.05852061 -0.119552776 -0.082999356
-0.027653605 0.090560295 0.011077761 -0.030982345 -0.14985871 0.025887584 -0.027918423 -0.06161775
-0.5647483 -0.16528521 -0.22559918 -0.14962369 -0.26601222 -0.09427973 -0.12107163 0.010048098
0.1466366 0.095143005 0.070274174 -0.011490892 0.12136804 0.046910193 0.10241089 0.010182152
-0.08924271 -0.36246425 -0.3125382 -0.23579091 -0.0094618015 -0.105664365 -0.004537349 0.16058148
0.23043694 0.107915856 -0.052931946 -0.010853233 0.10390313 0.008963581 -0.14742619 -0.18625271
-0.22702035 -0.06604958 -0.25974783 -0.24064304 -0.0439789 -0.09886542 0.14871307 -0.020694615
0.05390847 -0.11804707 -0.045478214 0.031964563 0.020887714 -0.07391958 -0.02888956 0.00066369434
-0.1781115 -0.39886904 -0.09609002 -0.17923656 -0.02424267 -0.11903631 -0.13885216 -0.1509353
00000000: 9bca ea3c ec99 bcba 1ea5 a53d 5cb7 403d
00000010: 3f46 fabb aa77 85bd 64ab 0dbd e07e 34be
00000020: bfb1 30be fab1 83be e86c 82be ab84 42bd
00000030: 9c43 96be 7487 2abd fb48 42be 1d67 4dbe
00000040: 5253 363e 04d8 5b3c 264f a53d 41fc fdbc
00000050: 36a5 653e bf5c 0c3e fb28 8abb a69d fcbd
00000060: 972e 4f3c 7b32 7dbd 2063 48be 67fc c53c
00000070: 891f 2b3e d528 763d fe88 0b3e 81da 90bd
00000080: f2fa 4f3e 0b96 913e de5c d53d 7298 8dbc
00000090: 2893 453e 18ec e83d 9e44 103e b059 f33d
000000a0: 87e2 c43d 9663 cfbd 9bff 983b ddea a33d
000000b0: a87c 20bd fe93 37be d302 643d c3ca d8bd
000000c0: 6de1 f2bd 57bd 9e3d 63c8 a63e 77d1 b43d
000000d0: dee6 00be 29c3 a2bd a946 2e3d 7c55 78bd
000000e0: 6342 d8be a33b a6bd 097a 1a3d 8689 a7bd
000000f0: 41cb f13c f9c1 95bd 8302 c5bd b894 5bbe
00000100: 3289 22be 9370 07be 6169 a43c d8d7 663d
00000110: b5f7 94be 84e2 0abe 2a84 a2bc f01c 95bc
00000120: ea4d 16bf 30a3 dfbe ab67 92be 6229 7bbe
00000130: 4fbb e2be 83c2 1bbe c7a7 50bc 2dbe 23be
00000140: ba15 4dbd 2f93 17be fcb6 2abd ced6 62bd
00000150: 13cb 5a3d 61c6 68bd 32fa 20bd ee6d 23be
00000160: ad25 003e f16b 20bf be8f 80be c3d9 babd
00000170: 9790 233d f24a 1dbb a0c9 5bbe f7ee 0ebe
00000180: 8b66 0e3e fa8a 503e 1820 5b3d 4a92 833d
00000190: ff00 813e c98f 1b3d c222 59be 1e76 553d
000001a0: 586f 1abd 15d8 df3c 7c99 08be 0b3c 04bd
000001b0: 6bbc da3d 5a3f 703d eddc 25be 9ebc 45be
000001c0: 2598 1f3e 69cb 85be 0c2a 3dbd ca08 ddbc
000001d0: 23f1 cd3d 33d3 b6bc 3ceb f2bb b9ec 2bbc
000001e0: 1734 ac3d 6453 31bb d993 5abe 2f71 4cbe
000001f0: f715 ce3d 6acd 7fbd ce12 2bbe f1aa 0b3d
00000200: 7caa 183e 6953 53bd 1838 ae3d efab 03bd
00000210: c891 fe3d e785 85bd 78cd bcbd 4493 25bd
00000220: af43 dfbd dc69 78be 45a9 33bd 93f9 3fbe
00000230: ba0c f4bd 666f 0ebe 9620 37bd 41d5 dcbd
00000240: 8769 243e e304 d23d 18fd f83d 1f93 7fbd
00000250: b1e1 69bd 9466 43be 0cca da3d 896d 593d
00000260: fbf4 01bf 888a 9cbe e2f3 8fbe aef8 8f3c
00000270: 34ba c4be de0e 92be d150 2b3d 86e5 cdbd
00000280: d793 303e e885 083d 5502 b9bc f1d7 2b3e
00000290: 37d2 5b3e 48df 40bc 9f92 443d d83d 12bc
000002a0: 8842 82be 926b 92be 2c0d 40be 2463 59be
000002b0: 273a 9fbe 7148 39be 3c1f a3bd 9153 4f3e
000002c0: 1b32 8c3e 45cd 9a3d 1567 0b3e 734e 073e
000002d0: a45a b23e db07 143e d5bf fd3c 6708 c33d
000002e0: 0d24 4d3e 944d 033e cd80 20be 5127 20bd
000002f0: 9bb5 6b3e 4fb3 6f3d 16d8 f4bd 91fb a9bd
00000300: d089 e2bc ad77 b93d 7f7f 353c b0ce fdbc
00000310: 9074 19be 3312 d43c 2db5 e4bc e562 7cbd
00000320: 5893 10bf 8740 29be 7903 67be f436 19be
00000330: c132 88be bb15 c1bd 67f4 f7bd c7a0 243c
00000340: e827 163e 56da c23d e8eb 8f3d 4b44 3cbc
00000350: cf8f f83d e724 403d cdbc d13d 0ad3 263c
00000360: e2c4 b6bd ea94 b9be 0205 a0be 2c73 71be
00000370: ac05 1bbc 8f66 d8bd 0bae 94bb 796f 243e
00000380: a9f7 6b3e fd02 dd3d 2bcf 58bd c2d1 31bc
00000390: 2acb d43d fcdb 123c e4f6 16be 08b9 3ebe
000003a0: 0678 68be 0145 87bd abfd 84be 216b 76be
000003b0: 3823 34bd f479 cabd 3d48 183e c187 a9bc
000003c0: 21cf 5c3d aac2 f1bd 5d47 3abd 46ed 023d
000003d0: b61c ab3c 2663 97bd cca9 ecbc c6fb 2d3a
000003e0: dc62 36be 9038 ccbe d8ca c4bd ca89 37be
000003f0: 9098 c6bc 4fc9 f3bd 432f 0ebe c98e 1abe

bias f4 [64]
0.09484365 0.047993816 0.050529115 -0.046364587 0.05172647 0.0153204 -0.041410245 -0.08719469
-0.03514359 0.006572707 -0.022839727 -0.043876823 0.10454451 0.12899202 -0.069751665 0.0064351303
-0.018932126 -0.04749253 0.088701725 -0.015770776 -0.06771695 -0.13463409 0.12009193 -0.012887028
-0.011364164 -0.09940886 0.0859883 0.04342338 0.12340628 -0.05835415 0.06105854 0.06291391
-0.11396909 -0.08133293 -0.056953937 0.12869538 0.021427887 0.010046496 -0.05700303 0.13885379
0.052266337 -0.0043909047 -0.015110254 -0.075058535 -8.413028e-05 0.080054834 -0.03967935 -0.044843152
-0.10313728 0.06933198 -0.05435364 0.021171402 -0.05160659 0.011637763 -0.044953924 0.026128981
-0.0065663485 -0.012505023 -0.007009367 -0.07379945 -0.009351938 -0.011651769 -0.026351545 -0.021130595
00000000: 633d c23d 2a95 443d 9ef7 4e3d cbe8 3dbd
00000010: 23df 533d 6a02 7b3c ca9d 29bd 2193 b2bd
00000020: baf2 0fbd dd5f d73b 611a bbbc 2fb8 33bd
00000030: 6f1b d63d 7c16 043e f6d9 8ebd c9dd d23b
00000040: 8c17 9bbc 8787 42bd 40a9 b53d b731 81bc
00000050: 2faf 8abd 85dd 09be c2f2 f53d 1d24 53bc
00000060: c230 3abc df96 cbbd a21a b03d b7dc 313d
00000070: 6fbc fc3d c304 6fbd 8518 7a3d 02d9 803d
00000080: a068 e9bd e191 a6bd 8848 69bd b9c8 033e
00000090: 8989 af3c 0f9a 243c 027c 69bd b02f 0e3e
000000a0: 3a15 563d 94e1 8fbb 0091 77bc 4ab8 99bd
000000b0: 1a6f b0b8 caf3 a33d d086 22bd 74ad 37bd
000000c0: a339 d3bd edfd 8d3d eca1 5ebd a66f ad3c
000000d0: 6f61 53bd 51ac 3e3c 9b21 38bd 720c d63c
000000e0: 862a d7bb dee1 4cbc d5ae e5bb 2b24 97bd
000000f0: df38 19bc 10e7 3ebc 32df d7bc 121a adbc

weight f4 [64, 64, 3, 3]
-0.10657345 0.018407864 -0.0764463 0.09812348 0.14938004 -0.026934505 -0.051662493 -0.0011364762
-0.12295513 -0.020808216 -0.21760397 0.10900072 0.05559241 0.039946243 0.023034656 0.07831545
0.11068199 0.19079407 -0.09117945 -0.11093808 -0.03128408 -0.13839766 -0.113207094 0.0344727
0.06470415 -0.022040293 0.039604105 0.0388719 -0.08812339 0.08248916 -0.118532896 0.02585804
-0.08184947 -0.036502495 0.115279175 -0.123926185 0.21880719 0.08882024 0.14549601 -0.12203878
-0.006522379 -0.10187141 0.020863883 -0.019363463 -0.036744043 -0.13527986 0.15604387 -0.096222706
-0.02402725 -0.048474386 -0.045470145 -0.08275539 0.051896665 -0.10064826 0.0802145 -0.15372151
-0.018104978 0.15281887 0.07533067 0.010280548 0.102087915 -0.10383525 -0.13210237 -0.17990324
-0.10499322 -0.03842743 0.014796119 -0.17163077 0.13305564 -0.035081904 0.20440942 0.073983274
-0.21239114 -0.044544347 -0.030907366 0.014029442 0.08953359 0.041647214 -0.08073254 -0.019779555
-0.1613339 -0.11215872 0.14883798 -0.034510378 -0.22673537 0.12590225 0.03338407 0.010924932
-0.15959936 -0.1223899 0.045533936 -0.060855836 -0.09044208 0.14615367 -0.027244719 0.008785611
0.123075 0.0015031128 0.08566246 -0.14773302 -0.043903243 -0.05829652 0.11656568 -0.18964265
-0.052497767 -0.18968064 0.0031107208 -0.12615556 0.16695786 -0.26509935 0.051701214 0.13450162
-0.05518204 0.19235879 0.05296103 -0.055211723 -0.12805389 -0.110833675 -0.14498712 -0.029864259
-0.010462645 -0.016848538 -0.043812655 0.00821604 -0.08200095 -0.0340477 -0.13403429 -0.014728583
0.01157386 -0.035582636 -0.076957874 0.09861166 0.154528 -0.0029387546 -0.059540574 -0.17616664
-0.022531256 -0.11278279 0.0027738002 0.014079415 0.16877733 0.050282814 -0.06321944 -0.14206316
-0.091530114 0.00890972 -0.06893828 -0.07750314 0.0230761 -0.0676136 0.031131022 0.07264473
-0.09558983 -0.21655658 0.025186405 -0.08034251 0.09534265 0.09367987 -0.19087057 0.17681982
0.039427754 -0.1881088 0.0074170954 -0.22197774 -0.11130143 -0.052713342 -0.013619926 0.113404915
0.23986237 0.09208012 -0.0434527 -0.10187374 -0.03247854 0.13588372 -0.040599234 0.059153855
-0.14693667 -0.039318826 -0.052892517 -0.16057678 -0.25163105 0.03389721 0.060789127 -0.24321197
0.065135695 -0.013584391 0.052944694 0.008974725 -0.082512625 -0.0034331048 0.12536177 0.18691938
-0.13540961 0.092781484 0.10126031 -0.01337074 0.061298646 -0.08482546 -0.17144929 -0.06441208
0.016146852 -0.14908351 0.04461963 0.105314374 -0.09869898 0.044257715 -0.037231356 -0.18237127
-0.06523377 0.029030299 -0.02820046 0.040740628 0.20117618 0.12831834 -0.019190429 0.087246284
-0.036857285 -0.18845783 0.042143364 0.17033243 -0.05437289 0.081267476 -0.07075831 -0.011782855
0.030557454 -0.06138712 0.15531354 -0.05966542 -0.43485835 -0.065906055 -0.00957687 0.0020654905
0.12305266 0.039557293 0.012698005 -0.21494767 -0.02971465 0.049836665 -0.11512943 0.056723226
0.08808244 0.03284802 0.13434684 0.08737932 -0.0031831586 -0.03561026 -0.19464107 -0.023144769
-0.030801428 -0.004213262 -0.10500279 0.16069391 -0.2129044 -0.08491622 -0.13912599 -0.1628399
00000000: 2e43 dabd 17cc 963c e18f 9cbd f7f4 c83d
00000010: 15f7 183e c0a5 dcbc 0d9c 53bd d0f5 94ba
00000020: e6cf fbbd fe75 aabc 93d3 5ebe c53b df3d
00000030: deb4 633d ac9e 233d 2db3 bc3c da63 a03d
00000040: 3dad e23d 855f 433e 4bbc babd 8133 e3bd
00000050: bc23 00bd 1eb8 0dbe 1fd9 e7bd 3f33 0d3d
00000060: 9c83 843d d88d b4bc ea37 223d 2438 1f3d
00000070: 097a b4bd 14f0 a83d 60c1 f2bd 3ed4 d33c
00000080: b2a0 a7bd a483 15bd 7d17 ec3d 03cd fdbd
00000090: fe0e 603e 63e7 b53d e8fc 143e 78ef f9bd
000000a0: aeb9 d5bb f5a1 d0bd bcea aa3c 20a0 9ebc
000000b0: ec80 16bd ce86 0abe f7c9 1f3e 6910 c5bd
000000c0: ccd4 c4bc 148d 46bd e73e 3abd a87b a9bd
000000d0: 9991 543d ad20 cebd 8047 a43d 2c69 1dbe
000000e0: e450 94bc 8d7c 1c3e f746 9a3d be6f 283c
000000f0: 7813 d13d 93a7 d4bd d845 07be 8e38 38be
00000100: af06 d7bd 1566 1dbd 6c6b 723c fabf 2fbe
00000110: bd3f 083e 0bb2 0fbd b450 513e 8b84 973d
00000120: 107d 59be 2274 36bd 7231 fdbc bfdb 653c
00000130: 635d b73d 4596 2a3d 1a57 a5bd bc08 a2bc
00000140: b734 25be 79b3 e5bd fc68 183e c15a 0dbd
00000150: 512d 68be 85ec 003e bcbd 083d 7cfe 323c
00000160: 046e 23be 8ea7 fabd cb81 3a3d f843 79bd
00000170: b239 b9bd 4fa9 153e 5130 dfbc 86f1 0f3c
00000180: bf0e fc3d 1904 c53a cd6f af3d 5347 17be
00000190: e3d3 33bd 55c8 6ebd fdb9 ee3d af31 42be
000001a0: e607 57bd a43b 42be 3cdd 4b3b ec2e 01be
000001b0: 00f7 2a3e 1abb 87be a7c4 533d cbba 093e
000001c0: 9006 62bd b4f9 443e aaed 583d b025 62bd
000001d0: 8f20 03be c4fc e2bd 8177 14be e4a5 f4bc
000001e0: 846b 2bbc f205 8abc e674 33bd 929c 063c
000001f0: 1df0 a7bd 9a75 0bbd 4940 09be 2850 71bc
00000200: 4aa0 3d3c 19bf 11bd 179c 9dbd e9f4 c93d
00000210: 973c 1e3e 1f98 40bb d1e0 73bd 0765 34be
00000220: 7893 b8bc aafa e6bd a5c8 353b 59ad 663c
00000230: f7d3 2c3e 5af5 4d3d 3279 81bd 0179 11be
00000240: 2474 bbbd 13fa 113c 832f 8dbd f7b9 9ebd
00000250: 170a bd3c 0079 8abd 7c06 ff3c c3c6 943d
00000260: 9ac4 c3bd 02c1 5dbe b853 ce3c 9d8a a4bd
00000270: 0243 c33d 3bdb bf3d 9373 43be 4110 353e
00000280: ff7e 213d 989f 40be 1b0b f33b 224e 63be
00000290: 01f2 e3bd f2e9 57bd 1c26 5fbc d640 e83d
000002a0: 7b9e 753e 8194 bc3d 75fb 31bd 2ea3 d0bd
000002b0: 3808 05bd 1a25 0b3e 624b 26bd 504b 723d
000002c0: 9176 16be c70c 21bd d3a5 58bd 3d6e 24be
000002d0: c9d5 80be cdd7 0a3d 05fe 783d 8f0c 79be
000002e0: dd65 853d 1191 5ebc 89dc 583d ba0a 133c
000002f0: 61fc a8bd f1fd 60bb d65e 003e cb67 3f3e
00000300: d1a8 0abe 3804 be3d 9161 cf3d f310 5bbc
00000310: 4a14 7b3d f9b8 adbd 6790 2fbe 7bea 83bd
00000320: 6746 843c 59a9 18be 13c3 363d 10af d73d
00000330: b122 cabd 9447 353d e87f 18bd 89bf 3abe
00000340: 4899 85bd f3d0 ed3c a704 e7bc a5df 263d
00000350: 2101 4e3e e265 033e 3f35 9dbc 2eae b23d
00000360: aaf7 16bd 17fb 40be 859e 2c3d a06b 2e3e
00000370: 1cb6 5ebd 906f a63d bce9 90bd e00c 41bc
00000380: a053 fa3c 1071 7bbd 830a 1f3e ba63 74bd
00000390: c1a5 debe c1f9 86bd 4ee8 1cbc 2e5d 073b
000003a0: 0803 fc3d d406 223d 4b0b 503c 3e1b 5cbe
000003b0: 236c f3bc 8821 4c3d fbc8 ebbd 9d56 683d
000003c0: 9164 b43d a58b 063d 3892 093e eef3 b23d
000003d0: 8a9c 50bb 10dc 11bd fd4f 47be 199a bdbc
000003e0: 4753 fcbc 670f 8abb b40b d7bd f28c 243e
000003f0: 9c03 5abe 8ee8 adbd 0b77 0ebe 81bf 26be

bias f4 [64]
-0.04878929 -0.007932422 0.053337265 -0.05545279 -0.14102446 0.01783581 0.050944313 -0.040778343
0.00067823764 -0.06524451 0.04127837 -0.06281072 0.013952578 -0.025421757 0.14737244 0.14563006
0.022107305 0.09354532 0.0302581 0.05253013 0.085222945 0.012093657 0.06962 0.083808
0.043408222 0.04770063 -0.06525043 0.0828293 0.12314688 0.07380379 0.025790859 0.0006984392
0.037040167 0.029997595 0.10116161 0.022150477 0.07746697 0.017769117 0.058846794 -0.073446706
-0.021084957 0.033197697 0.1958496 0.017746883 0.012328426 0.051869083 0.08338991 -0.034900017
-0.03906647 0.016204743 0.040376723 0.029073833 -0.13798901 -0.04036179 0.08293697 0.12209146
0.008103351 -0.070093594 -0.11488567 0.08670341 -0.03273559 -0.028432693 0.015078785 -0.04101492
00000000: 47d7 47bd fdf6 01bc 2d78 5a3d 7722 63bd
00000010: b768 10be 681c 923c fcaa 503d 3107 27bd
00000020: c2cb 313a ea9e 85bd 8213 293d e8a2 80bd
00000030: 5b99 643c 4a41 d0bc cde8 163e 0c20 153e
00000040: 611a b53c b094 bf3d d6df f73c d529 573d
00000050: 5e89 ae3d 7924 463c ee94 8e3d 87a3 ab3d
00000060: d2cc 313d bc61 433d 04a2 85bd 68a2 a93d
00000070: 6e34 fc3d 7126 973d 5a47 d33c 7617 373a
00000080: 6eb7 173d 84bd f53c d12d cf3d eb74 b53c
00000090: 01a7 9e3d 8a90 913c 5609 713d 3a6b 96bd
000000a0: 5cba acbc 4ffa 073d cc8c 483e e961 913c
000000b0: 2bfd 493c ad74 543d 54c8 aa3d 52f3 0ebd
000000c0: 2a04 20bd cfbf 843c 1062 253d 3f2c ee3c
000000d0: fe4c 0dbe 6852 25bd dcda a93d 160b fa3d
000000e0: ebc3 043c 3b8d 8fbd 2e49 ebbd 8f91 b13d
000000f0: c115 06bd aeeb e8bc 020d 773c 43ff 27bd

weight f4 [32, 1024]
0.045066945 0.10975248 -0.04990749 0.040398862 0.051776394 0.00839456 0.037353408 0.08056575
0.19039239 -0.051979747 -0.10465526 0.14788875 -0.15618305 0.07621914 -0.067506135 -0.035185486
-0.029044863 -0.043039456 -0.012806978 -0.0280142 -0.038597148 0.051980346 0.046963345 0.13615009
0.07073302 0.054414403 -0.073203176 0.20903867 0.014641598 0.07279847 0.09716486 0.08081067
0.03500805 0.05990748 0.0451354 -0.020570714 0.09760587 -0.03611405 0.096878484 0.06691461
0.08296148 0.043768983 -0.081345476 -0.026559612 0.011303076 0.12453092 -0.007696085 0.13817577
0.0049031666 0.0014657633 0.007992295 0.10805643 -0.0348969 -0.060371067 0.095681086 0.040424578
-0.019818531 -0.19140548 0.0457564 -0.03805423 0.045149136 -0.13903856 -0.0545308 0.10412607
0.06459865 -0.010192457 0.1332523 0.07282226 0.15573114 -0.08109517 -0.07696295 0.10449035
0.07689758 0.093446285 0.030590862 0.080439806 0.22690243 0.057205435 -0.11936544 0.04248772
-0.03314395 -0.029297916 0.03940814 0.047293145 0.058880154 0.041137736 -0.040243946 -0.08483461
0.06792108 0.006898148 0.001306604 0.10925083 0.14865689 0.099471256 0.067097954 -0.039749518
-0.014553919 0.07306364 0.04060883 0.12687345 0.18614963 -0.03189172 -0.0604859 -0.12986611
0.055025734 -0.031022426 0.064292 0.06743113 -0.1398541 -0.09416779 -0.061251223 0.19700848
0.2868565 0.25265878 0.060052577 0.053268846 -0.0604169 0.054321334 0.024472885 -0.11229872
0.023506096 -0.008693507 0.09118189 -0.08157083 0.019048685 -0.01876184 0.0144 -0.019975035
0.08195749 -0.012114091 -0.062971644 -0.23353326 -0.09609611 0.0070279525 -0.035327002 -0.086575516
0.006574258 -0.04700903 -0.014533372 0.15151863 0.05133037 0.048728444 0.05099845 -0.022787185
0.06022182 -0.07266137 0.11071257 -0.010320094 0.0018356972 -0.18585227 -0.13991624 -0.12090615
0.06351613 -0.05094485 -0.06090123 -0.121481024 0.15448967 0.11853825 0.08110392 -0.015822537
-0.07717996 -0.044167947 0.08041632 0.0056189066 0.0064841644 0.04402375 0.081204474 0.050185625
0.07823331 -0.11236955 -0.09699951 -0.081822954 -0.004257616 0.018227162 -0.052267224 0.25063592
0.030620584 -0.08116719 0.009332993 0.06841651 0.036182724 0.056982543 0.10490077 0.026503175
0.005279825 -0.063056424 -0.02439525 0.06146504 -0.19235952 0.05708663 -0.043606937 0.14923324
-0.12873764 -0.104794964 -0.04437295 -0.059298396 -0.023354562 -0.046462033 -0.070051454 -0.023672638
0.021252107 -0.031056412 0.050763793 -0.089573614 0.13610098 -0.054580793 0.024899147 -0.054774683
-0.14005996 -0.10322295 -0.042292565 -0.11526872 -0.117752664 0.17052604 0.17336771 -0.078565165
-0.049751163 -0.16061005 0.035820432 0.1264137 0.06254887 0.05074522 0.036779173 -0.020517988
0.07575389 -0.08540195 -0.050820146 0.0627375 0.11894183 -0.079563975 -0.065628976 -0.21643493
-0.17042062 -0.15815403 0.0021115423 -0.075575426 0.0008658707 0.015332203 0.022365822 -0.05618488
-0.040202346 0.09594647 -0.07897935 -0.06500356 0.13435715 0.08715826 -0.040287588 0.08066347
0.08569448 0.055312846 0.052906577 -0.0070397574 0.062295947 0.06517273 -0.094247535 -0.029085511
00000000: 1e98 383d e9c5 e03d cc6b 4cbd 4779 253d
00000010: 7c13 543d 5689 093c e3ff 183d a8ff a43d
00000020: 39f6 423e b7e8 54bd 7f55 d6bd 2670 173e
00000030: 73ee 1fbe c818 9c3d a840 8abd a81e 10bd
00000040: 7eef edbc 244a 30bd 5cd4 51bc 097e e5bc
00000050: 0b18 1ebd 58e9 543d a35c 403d ee6a 0b3e
00000060: 79dc 903d a3e1 5e3d 8ceb 95bd 3c0e 563e
00000070: 50e3 6f3c 5d17 953d 5ffe c63d 1180 a53d
00000080: 9a64 0f3d 8c61 753d e6df 383d ea83 a8bc
00000090: 96e5 c73d 53ec 13bd 3a68 c63d 870a 893d
000000a0: b5e7 a93d 1b47 333d 7598 a6bd 8b93 d9bc
000000b0: 8930 393c 110a ff3d 712f fcbb f37d 0d3e
000000c0: beaa a03b db1e c03a 1df2 023c b14c dd3d
000000d0: 0df0 0ebd a747 77bd 72f4 c33d 3e94 253d
000000e0: 795a a2bc ccff 43be 106b 3b3d c1de 1bbd
000000f0: 4dee 383d 2060 0ebe b05b 5fbd 0d40 d53d
00000100: 4c4c 843d 43fe 26bc 4a73 083e d623 953d
00000110: fc77 1f3e 3915 a6bd c09e 9dbd 09ff d53d
00000120: 7a7c 9d3d c460 bf3d b099 fa3c a0bd a43d
00000130: 1c59 683e 3f50 6a3d de75 f4bd 9a07 2e3d
00000140: f3c1 07bd 2f02 f0bc 6e6a 213d 75b6 413d
00000150: 512c 713d 0b80 283d d6d6 24bd c5bd adbd
00000160: 351a 8b3d dc09 e23b 5b42 ab3a e6be df3d
00000170: 8339 183e 96b7 cb3d a76a 893d 64d0 22bd
00000180: 9073 6ebc 64a2 953d 7255 263d 1deb 013e
00000190: 029e 3e3e e4a0 02bd 10c0 77bd 9ffb 04be
000001a0: aa62 613d be22 febc 86ab 833d 5519 8a3d
000001b0: ea35 0fbe 0bdb c0bd 90e2 7abd 97bc 493e
000001c0: dbde 923e 7e5c 813e b1f9 753d 6f30 5a3d
000001d0: b677 77bd 0c80 5e3d 5c7b c83c dffc e5bd
000001e0: db8f c03c 366f 0ebc 92bd ba3d 9b0e a7bd
000001f0: fd0b 9c3c 6eb2 99bc faed 6b3c afa2 a3bc
00000200: 54d9 a73d 2e7a 46bc 47f7 80bd 5823 6fbe
00000210: 0ace c4bd bd4a e63b 0cb3 10bd 814e b1bd
00000220: e06c d73b 8a8c 40bd 611d 6ebc b327 1b3e
00000230: cb3f 523d 7a97 473d c0e3 503d 31ac babc
00000240: 28ab 763d 7ccf 94bd 46bd e23d 9d15 29bc
00000250: c79b f03a 0f50 3ebe 3446 0fbe a59d f7bd
00000260: bf14 823d 8cab 50bd 9173 79bd 0bcb f8bd
00000270: 8a32 1e3e 2fc4 f23d d019 a63d 449e 81bc
00000280: 8710 9ebd 73e9 34bd 50b1 a43d ce1e b83b
00000290: 1d79 d43b 3f52 343d 884e a63d 718f 4d3d
000002a0: c938 a03d 0222 e6bd aea7 c6bd cb92 a7bd
000002b0: 7983 8bbb 2151 953c 2816 56bd 5a53 803e
000002c0: 05d8 fa3c fc3a a6bd 69e9 183c f51d 8c3d
000002d0: 5634 143d 8766 693d 37d6 d63d 301d d93c
000002e0: 6202 ad3b ba23 81bd 8cd8 c7bc c4c2 7b3d
000002f0: e5f9 44be acd3 693d 309d 32bd 99d0 183e
00000300: cdd3 03be be9e d6bd 69c0 35bd e0e2 72bd
00000310: 1152 bfbc f94e 3ebd 2377 8fbd 1fed c1bc
00000320: e618 ae3c 046a febc b2ed 4f3d 5f72 b7bd
00000330: 0e5e 0b3e 1c90 5fbd 4cf9 cb3c 6b5b 60bd
00000340: e16b 0fbe 8e66 d3bd f83a 2dbd 0212 ecbd
00000350: 4f28 f1bd 619e 2e3e 4e87 313e c6e6 a0bd
00000360: e0c7 4bbd f676 24be 72b8 123d 9872 013e
00000370: 9f19 803d 38da 4f3d c2a5 163d 5715 a8bc
00000380: db24 9b3d 38e7 aebd c928 50bd 857c 803d
00000390: c697 f33d 70f2 a2bd 7c68 86bd 1ea1 5dbe
000003a0: be82 2ebe 21f3 21be cd61 0a3b 4ac7 9abd
000003b0: 99fb 623a ec33 7b3c 8738 b73c 1e22 66bd
000003c0: 37ab 24bd 957f c43d edbf a1bd 9620 85bd
000003d0: ec94 093e 0880 b23d 9904 25bd e432 a53d
000003e0: 9680 af3d b98f 623d 91b4 583d c4ad e6bb
000003f0: 092a 7f3d 4879 853d da04 c1bd bd44 eebc

bias f4 [32]
-0.11515206 0.160426 0.13211825 -0.035460167 0.19306043 0.069207944 0.081459336 -0.007587744
0.08309814 -0.0226343 0.12729034 0.41069183 -0.023836505 -0.09348824 0.034101143 0.00037144613
-0.22676648 0.06310228 0.09876084 -0.05319831 0.16971572 0.14689359 -0.052560944 0.062047668
0.17547704 0.024462067 -0.05533065 -0.05370116 0.062975116 0.15586163 0.086721756 -0.033653352
00000000: d8d4 ebbd b746 243e 024a 073e ae3e 11bd
00000010: a2b1 453e e5bc 8d3d 27d4 a63d 9ca2 f8bb
00000020: 5c2f aa3d 916b b9bc 6658 023e 3346 d23e
00000030: c644 c3bc c376 bfbd a4ad 0b3d a8be c239
00000040: 7935 68be c53b 813d 2043 ca3d 79e6 59bd
00000050: f5c9 2d3e 466b 163e 254a 57bd b225 7e3d
00000060: 41b0 333e ac64 c83c 64a2 62bd bff5 5bbd
00000070: 19f9 803d 319a 1f3e 2d9b b13d 19d8 09bd

weight f4 [15, 32]
0.24980801 0.081702776 0.16358292 0.26457196 -0.04023028 -0.2196862 -0.015036013 0.37228444
-0.3050039 -0.08796131 -0.33243197 -0.03530943 0.11733645 0.32805863 0.065087125 -0.21439701
-0.021225117 -0.039704885 -0.12563008 0.06373577 0.03241889 -0.18395042 -0.096352436 -0.32165164
-0.13048069 0.034345187 0.24514721 0.046398662 -0.038991332 0.032356907 0.20360409 0.321878
-0.059664793 -0.07482121 -0.035661716 -0.03428257 0.077560596 -0.122304216 0.22297233 -0.04763057
0.028539978 -0.14486094 0.023121798 0.0042808224 -0.07633402 0.23025788 0.11242396 -0.20040995
0.03987952 0.045500252 -0.04649106 -0.04738318 -0.004975203 0.12340576 0.20842454 -0.17648293
-0.30573514 0.090865254 0.06963943 0.13805656 0.017863017 -0.09204102 0.035263307 0.0372741
0.14509065 -0.13843116 -0.4234795 -0.14376298 0.16727896 -0.23734444 -0.4515544 -0.09873881
-0.2295568 0.23211837 0.19731073 0.17777704 -0.21996501 -0.022201674 0.054619413 0.09909234
0.025418798 0.17210433 -0.39064848 -0.40376043 0.13232869 0.22114325 0.071101844 0.006527109
-0.052763317 -0.2126517 0.0011584611 0.037198067 -0.07584657 -0.36812153 -0.36742342 0.22828911
0.18562195 0.13932653 0.107045986 0.13754864 -0.15705542 -0.0237442 -0.025358634 0.16185679
-0.039175387 0.06421534 -0.21002467 0.0135905575 0.2783722 0.16073264 -0.29701868 -0.120169975
0.11533713 -0.32495266 0.07871501 0.11476149 0.015500398 -0.38500646 -0.056781996 -0.04315099
-0.22389384 -0.15744095 -0.008321822 0.01458306 0.02459724 0.15754226 -0.10662837 -0.25659928
-0.030708708 -0.07372011 -0.1200914 -0.06266392 -0.035876375 -0.16740428 -0.16993402 0.048100945
-0.11862194 0.17334683 -0.21671928 0.07107878 -0.06441369 -0.12562963 -0.15875632 -0.03417736
0.052495416 -0.055736206 -0.04863062 -0.06995391 0.012590142 -0.02412927 0.21346787 -0.055711657
0.09064809 -0.065357864 0.1641605 -0.04384886 -0.14694834 -0.005005355 -0.0210081 0.16299433
0.29376072 -0.058588184 -0.49291387 0.07405756 0.010944603 -0.15034297 -0.024829507 -0.3315395
0.1090952 0.17463933 0.08665529 0.091713056 -0.14050706 0.14165589 -0.23589349 0.2017785
0.02792725 0.116121486 -0.25952506 -0.3314136 -0.18736547 0.21398507 0.050696753 0.25679186
0.037679292 -0.11503173 -0.0652631 0.16030376 0.19888243 -0.21240732 -0.11765049 -0.12936634
0.11672787 0.023753915 0.06266213 0.124737434 -0.062117238 0.016410863 -0.050749045 -0.1101888
-0.10909755 -0.17720151 -0.110830314 -0.08678255 0.12045496 -0.071150884 -0.16438381 0.02992325
0.0043033697 -0.11524013 -0.009814988 0.013540712 -0.17717126 -0.21055543 -0.21691123 -0.109148726
-0.05999717 -0.20865859 0.25791943 -0.26252308 0.09308477 -0.06764324 0.052355103 0.15441431
-0.15637125 0.028129663 -0.10360126 0.1396951 -0.10228165 -0.06708673 -0.11805949 0.045835648
0.022105044 0.115515366 0.05833106 -0.04590858 0.018377025 -0.07274969 0.017614026 0.009958918
-0.04396721 -0.07712213 -0.00868556 -0.12871292 -0.14392781 -0.117744744 -0.109274104 -0.017449705
-0.03535701 -0.10193291 0.20054641 -0.070890464 0.0770886 -0.063723154 0.009600645 0.15140912
00000000: accd 7f3e c953 a73d 4882 273e fa75 873e
00000010: 82c8 24bd 6bf5 60be 9c59 76bc 119c be3e
00000020: 7929 9cbe 0f25 b4bd 8634 aabe 9fa0 10bd
00000030: 184e f03d 4df7 a73e 664c 853d e48a 5bbe
00000040: 4ce0 adbc 97a1 22bd 2ca5 00be e687 823d
00000050: acc9 043d 805d 3cbe 6d54 c5bd 86af a4be
00000060: bb9c 05be 8aad 0c3d df07 7b3e 860c 3e3d
00000070: 60b5 1fbd ad88 043d 977d 503e 31cd a43e
00000080: 1263 74bd dd3b 99bd 0512 12bd e16b 0cbd
00000090: 17d8 9e3d a27a fabd dc52 643e 4618 43bd
000000a0: accc e93c 6d56 14be ed69 bd3c 2446 8c3b
000000b0: 0355 9cbd b9c8 6b3e 883e e63d 4438 4dbe
000000c0: b558 233d 795e 3a3d 696d 3ebd de14 42bd
000000d0: 0707 a3bb 29bc fc3d 3e6d 553e f1b7 34be
000000e0: 5189 9cbe 9017 ba3d 1e9f 8e3d b35e 0d3e
000000f0: 7655 923c 0180 bcbd 4270 103d baac 183d
00000100: a592 143e e6c0 0dbe 4ed2 d8be 9a36 13be
00000110: 2d4b 2b3e 6c0a 73be 2332 e7be 9337 cabd
00000120: f010 6bbe 70b0 6d3e d30b 4a3e 2f0b 363e
00000130: 823e 61be 49e0 b5bc 9bb8 5f3d edf0 ca3d
00000140: 153b d03c 1e3c 303e 1403 c8be b0b9 cebe
00000150: 2c81 073e 6073 623e d89d 913d 5ce1 d53b
00000160: 591e 58bd 5ec1 59be 81d7 973a 005d 183d
00000170: 7255 9bbd 6d7a bcbe ec1e bcbe 9fc4 693e
00000180: ae13 3e3e 9dab 0e3e ed3a db3d 8dd9 0c3e
00000190: 23d3 20be 3283 c2bc e9bc cfbc c9bd 253e
000001a0: 5f76 20bd 5583 833d b510 57be eeaa 5e3c
000001b0: cd86 8e3e 1997 243e d512 98be ad1b f6bd
000001c0: e035 ec3d 3260 a6be 5635 a13d 1208 eb3d
000001d0: 62f5 7d3c 911f c5be 3d94 68bd 18bf 30bd
000001e0: 6d44 65be 3338 21be 4058 08bc c9ed 6e3c
000001f0: 2780 c93c c252 213e fa5f dabd fb60 83be
00000200: d490 fbbc 92fa 96bd 7bf2 f5bd f155 80bd
00000210: 1bf3 12bd 076c 2bbe 2f03 2ebe 7f05 453d
00000220: 0ff0 f2bd d581 313e a9eb 5dbe c091 913d
00000230: 53eb 83bd 0ea5 00be 0491 22be 8ffd 0bbd
00000240: 6f05 573d a64b 64bd e730 47bd ff43 8fbd
00000250: e246 4e3c bfaa c5bc 5297 5a3e e831 64bd
00000260: b5a5 b93d 58da 85bd b119 283e dd9a 33bd
00000270: a079 16be f603 a4bb 2e19 acbc fce7 263e
00000280: ce67 963e 2afa 6fbd 355f fcbe 7dab 973d
00000290: fe50 333c 82f3 19be 4067 cbbc 8cbf a9be
000002a0: 4e6d df3d a7d4 323e 5478 b13d 0ed4 bb3d
000002b0: 15e1 0fbe 3e0e 113e 108e 71be 069f 4e3e
000002c0: b0c7 e43c 1ad1 ed3d 78e0 84be 0baf a9be
000002d0: bcdc 3fbe e71e 5b3e 66a7 4f3d 397a 833e
000002e0: 9a55 1a3d c195 ebbd a9a8 85bd ab26 243e
000002f0: d6a7 4b3e 4e81 59be bdf2 f0bd 9c78 04be
00000300: 060f ef3d 9297 c23c 0155 803d 5776 ff3d
00000310: a56e 7ebd 1370 863c 3bde 4fbd aaaa e1bd
00000320: 896e dfbd 5074 35be 01fb e2bd 0dbb b1bd
00000330: 17b1 f63d 8eb7 91bd 3b54 28be 9b21 f53c
00000340: 4803 8d3b 0403 ecbd 0bcf 20bc ddd9 5d3c
00000350: 626c 35be d89b 57be fa1d 5ebe 5e89 dfbd
00000360: 98bf 75bd 99aa 55be 040e 843e 6d69 86be
00000370: 3aa3 be3d 8a88 8abd 4e72 563d c91e 1e3e
00000380: c91f 20be 2e70 e63c e62c d4bd 3b0c 0f3e
00000390: 0b79 d1bd c464 89bd 2dc9 f1bd 29be 3b3d
000003a0: a315 b53c 5293 ec3d 8dec 6e3d a30a 3cbd
000003b0: 6a8b 963c cafd 94bd 4a4b 903c bb2a 233c
000003c0: f616 34bd 35f2 9dbd e14d 0ebc 52cd 03be
000003d0: d061 13be 2824 f1bd 1acb dfbd aff2 8ebc
000003e0: 83d2 10bd 34c2 d0bd 0a5c 4d3e 052f 91bd
000003f0: a1e0 9d3d 4981 82bd 064c 1d3c fe0a 1b3e

bias f4 [15]
-0.042794023 -0.012553995 0.11437272 0.025371239 0.070639096 0.08721231 -0.08030889 0.0027927966
0.00532005 -0.016501153 0.03372185 0.03139064 0.0012417508 0.041381136 0.005317431
00000000: c948 2fbd 45af 4dbc 3f3c ea3d 58d7 cf3c
00000010: 3bab 903d 5e9c b23d fd78 a4bd 5a07 373b
00000020: d053 ae3b 6d2d 87bc ec1f 0a3d 7993 003d
00000030: 3ec2 a23a 447f 293d d83d ae3b

weight f4 [1, 32]
-0.02445922 0.018269423 0.03775008 -0.0053724516 0.02185365 0.02854158 0.0034657805 0.007085139
0.0135996025 -0.0117013 0.007909472 0.10037273 0.009584392 -0.016163526 0.0003221843 0.0026724117
-0.04229177 0.0058804154 0.032669067 0.0022545368 0.0010871006 0.017731737 -0.009739022 0.0014600462
0.02887262 -0.00027266404 -0.002816565 -0.018085457 0.037106 0.028082848 0.005467441 -0.0031705026
00000000: b45e c8bc c2a9 953c d49f 1a3d 640b b0bb
00000010: 6d06 b33c 08d0 e93c 2622 633b 742a e83b
00000020: ded0 5e3c cfb6 3fbc bb96 013c 3890 cd3d
00000030: db07 1d3c 5f69 84bc d8ea a839 a123 2f3b
00000040: 233a 2dbd 80b0 c03b 00d0 053d dac0 133b
00000050: 0b7d 8e3a 2642 913c 6b90 1fbc 055f bf3a
00000060: 4686 ec3c 59f4 8eb9 1f96 38bb f427 94bc
00000070: 76fc 173d 000e e63c 3828 b33b 35c8 4fbb
