results_final/generalization-128fd/10levels-128fd-policy.pt (torch, 843679 bytes, 11 tensors)

weight f4 [32, 3, 8, 8]
000000 73 93 0f 3d 9c 58 01 3e ca af 3b 3d aa 32 99 bd
       0.035052728 0.12631458 0.045821942 -0.074803665
000010 c9 f8 63 bd 16 69 06 be 1a 4a 7b bd d3 ab 2d bc
       -0.055657182 -0.13126025 -0.061349966 -0.010600048
000020 99 c1 97 be 92 83 d8 bd 43 58 c8 bd c7 d5 98 bd
       -0.2963989 -0.1057197 -0.097824596 -0.0746265
000030 ff 79 10 bd b9 1f d1 bc b2 ea a9 bd 91 27 36 bd
       -0.035272595 -0.025527822 -0.08296718 -0.044471327
000040 23 bb 97 3d c8 ad e2 3d 20 b3 5b bd dc 3b 10 3d
       0.0740874 0.110683024 -0.053637624 0.035213336
000050 ea a6 d5 bb 13 e9 ca bd cf 2c 07 3c 48 84 16 3e
       -0.006520142 -0.09907737 0.008250429 0.14698899
000060 8f ad db 3d b3 5b bc 3d 1d 91 e3 3d 0d 13 8d 3d
       0.10726463 0.09197178 0.111116625 0.06888399
000070 88 64 57 3e 59 6d f9 bd fa 9b 35 be b9 cb 0d be
       0.21034443 -0.121790595 -0.17735282 -0.13847245
000080 85 10 c0 bc b0 84 cf bd a0 41 d2 bd ee c6 da bc
       -0.023445377 -0.1013273 -0.10266423 -0.026706185
000090 f6 26 a8 3d 5d d2 2f 3d 08 b1 e1 bd ad 34 8b bd
       0.08210556 0.042925227 -0.11020094 -0.067971565
0000a0 6d a4 de bd 2e 94 80 bb 8e 3b 79 3d 1a 06 15 3b
       -0.108712055 -0.0039239144 0.06084781 0.0022739233
0000b0 ce fb 24 bd 7a be 01 3d bd 07 e1 bb 7f 9c 10 be
       -0.040279202 0.031675793 -0.0068673776 -0.14122199
0000c0 0f 14 ab bd f0 d2 31 3d c8 a0 ea 3d 47 43 41 be
       -0.08353435 0.043414056 0.11456448 -0.1887332
0000d0 fb 97 2d 3d 67 40 79 bc 75 41 86 3c c0 23 16 be
       0.042381268 -0.015213109 0.016388634 -0.14662075
0000e0 21 85 8e 3d 48 71 9c 3d fc 0b 83 bd 65 f1 a9 be
       0.06958986 0.07638794 -0.0639877 -0.33191982
0000f0 5a e9 97 bc 1a 11 14 bd 6a 07 fc 3d 46 28 76 3c
       -0.018543888 -0.03614912 0.123061016 0.01502425
000100 5a a6 26 be e7 11 81 3b cf ff 38 3e 26 49 28 be
       -0.16274396 0.0039389017 0.18066333 -0.16434154
000110 15 ea 9c bd 64 1b 8c 3d 96 d7 cc bd aa eb f9 3d
       -0.07661835 0.06841162 -0.10002057 0.122031525
000120 03 f8 ce bd fc 7c 47 3d d2 d6 3f 3e a8 7c ca 3d
       -0.10105898 0.04870318 0.18734291 0.098870575
000130 69 9c 02 bd eb 5a 6b bd e3 03 ac be 58 fe bd bd
       -0.031887446 -0.057459753 -0.33596715 -0.09277028
000140 d3 a4 ab 3c 63 d5 d0 3d 12 87 40 3e 2b d0 07 be
       0.020952618 0.1019695 0.18801525 -0.13263004
000150 2e 1c 5a 3d 36 5e ae bd 8d b5 64 be 46 53 03 3a
       0.05324953 -0.08514063 -0.22334881 0.0005009662
000160 46 d7 10 3e 4a c1 2d 3e 13 67 7d bd 44 7d 2d bb
       0.1414462 0.16968265 -0.061865877 -0.002647237
000170 49 57 9d bc 0b ce f8 bd 12 46 96 be 52 29 b7 bd
       -0.01920666 -0.121486746 -0.29350334 -0.08943428
000180 04 2e 98 3c 6c 82 8c bd 8d c4 b8 bd ef 9c a6 3e
       0.01857663 -0.068608135 -0.09021864 0.32541606
000190 48 fa 99 3c 0a 5f cc 3d 4d 64 6b bd 10 46 95 bc
       0.018796101 0.09979065 -0.0574687 -0.018221885
0001a0 88 47 09 be 0f 2b 3a bc 4d 6e 4e be 0e 54 41 3e
       -0.13406193 -0.011362805 -0.20159264 0.1887972
0001b0 c6 e9 76 bd 68 16 7e bc fc a4 19 3e 34 0c 17 be
       -0.060281537 -0.015508272 0.15004343 -0.14750749
0001c0 74 95 d2 3d c8 5a 68 3e 7c b6 11 be 54 68 89 3c
       0.10282412 0.2269088 -0.14229769 0.01677338
0001d0 5e ea 31 bd 7e 63 d5 bd c3 96 25 bd 65 3b 82 be
       -0.0434364 -0.10419367 -0.04042698 -0.2543594
0001e0 bc 96 b7 3d c5 5f 9d bc f9 9e 5a be c6 5b d1 bd
       0.08964297 -0.019210706 -0.21349706 -0.102225825
0001f0 91 ef 85 be 6a 1e a5 bd f3 fa 0b 3e 51 b6 49 3c
       -0.26159337 -0.08062442 0.13669948 0.012311534
000200 a1 9c 56 bd 67 ed 3c bd 55 cf ba 3e 97 a5 d9 3d
       -0.052395467 -0.046124842 0.36486307 0.10627287
000210 f5 2d cd bd e4 00 3e be a5 ae 82 be 1d a4 3e 3e
       -0.10018531 -0.18555027 -0.25523868 0.18617292
000220 61 4d 67 3d f8 dd a4 3e d2 8e 1b 3e 11 97 31 3e
       0.05647028 0.322006 0.151912 0.17342784
000230 f9 05 58 3d 1d 76 01 3d eb 49 53 3e 9d 7b 2a 3e
       0.05274007 0.031606782 0.20633666 0.16648717
000240 ff 75 11 3e 8f d1 6f 3e 96 64 7d 3e 0e 86 2b 3e
       0.14205168 0.23419784 0.24745402 0.16750357
000250 a5 9e 25 3e f2 6d c2 3d 42 32 5b 3d 0f b6 8d 3e
       0.161738 0.09493627 0.053514726 0.27677962
000260 e6 79 3f 3e e7 fb 48 3e ee cd 39 3e 67 01 cf 3e
       0.18698844 0.19627343 0.18144962 0.40430757
000270 8a a8 02 3e 3c c6 4b be bd b2 07 bc 89 89 8c 3d
       0.12759605 -0.19899839 -0.008282361 0.0686217
000280 4f 43 1d 3e db f0 51 3e 77 36 80 3d ed ea 55 3e
       0.15357707 0.20502035 0.06260388 0.20890398
000290 c4 da 97 3e 53 78 f8 3d 85 08 11 be cc f7 85 3c
       0.29659092 0.12132325 -0.14163406 0.01635351
0002a0 45 d2 42 be 39 87 59 3d 05 9a 34 be 27 9d 83 3c
       -0.19025524 0.053107474 -0.17636879 0.016066147
0002b0 b7 05 82 3c f2 6a 84 3e 39 bf 66 be a1 bb cf bd
       0.015871866 0.25862843 -0.22533883 -0.10143209
0002c0 2e e3 df bd 3f 0d 02 3e 7c 69 8e bd bc f1 b9 3d
       -0.10932003 0.12700365 -0.06953713 0.0907931
0002d0 15 53 10 be d9 46 a9 bb 6d 88 d8 bd 79 07 8c 3d
       -0.14094193 -0.0051659164 -0.10572896 0.06837363
0002e0 a0 f1 6d bc 59 4b a2 bd 18 9a 7b bc 8a a7 d3 bd
       -0.01452294 -0.07924528 -0.015356563 -0.1033469
0002f0 87 46 92 3c 5b aa b2 3d b9 8c 8c 3e 6d 5e 2d 3e
       0.017855896 0.08723899 0.27451113 0.16930552
000300 cf 94 c3 3d 09 f7 07 be 9a f5 de 3d d5 71 c4 3d
       0.09549867 -0.1327783 0.108866885 0.09592024
000310 0c 2e 27 3d 30 f8 79 be 8e 41 c4 bd d1 1a e4 bc
       0.040815398 -0.24411082 -0.09582816 -0.027844818
000320 7c 75 4b bd 23 63 42 3d 82 81 26 bb 10 7f 74 3e
       -0.04967259 0.047457825 -0.0025406783 0.23876595
000330 63 c5 46 3d 62 25 85 bd 76 48 5b 3e 5b da ac 3e
       0.048528086 -0.06501271 0.2141436 0.33760342
000340 e2 ea 71 3d 1e 11 be bd 27 9a bf bd 52 20 85 bd
       0.059061892 -0.092806086 -0.09355574 -0.06500305
000350 4e 85 0d bd ad c8 b6 3d 24 78 ba bc d2 85 97 bd
       -0.034550957 0.089249946 -0.022762366 -0.07398571
000360 7b a4 4e 3e 0b 69 d3 bc 9f 85 87 bd f1 e9 ef bd
       0.20179932 -0.025806924 -0.06617283 -0.11714543
000370 3e 7a 90 bd 59 72 5c be fe 69 04 be 6b 2c ba 3c
       -0.07054566 -0.21527995 -0.12931058 0.022726258
000380 a0 67 58 be a8 c0 0e be 5b ee d6 bd 1f a5 d4 bc
       -0.2113328 -0.1394068 -0.104946814 -0.025957642
000390 d3 ba 37 be 00 fa f3 3c 6f d4 b2 3d 85 73 38 3e
       -0.17942362 0.029782295 0.08731925 0.18012817
0003a0 6f 28 0c 3e 44 6c 1c bd b8 2f 8a bd b8 b1 c2 3d
       0.13687299 -0.038189188 -0.06747383 0.095065534
0003b0 a9 4b fa 3c ea f5 0b be 5b ba 0b be 20 02 3a 3c
       0.030553656 -0.13668028 -0.13645308 0.011353046
0003c0 cf 81 95 3e ae 91 ab 3d d1 13 4f 3c c5 0b f9 bd
       0.292006 0.083773956 0.012639002 -0.12160448
0003d0 94 e6 00 3e 35 72 36 3e 40 1e 53 3d 89 fb 28 3e
       0.12587959 0.17817004 0.05154252 0.16502203
0003e0 15 ff 26 be c5 4f a1 bd cd 6b 3e be 3d 6c 12 bd
       -0.16308244 -0.07876543 -0.1859581 -0.035747755
0003f0 5c d8 2f 3d b0 f3 b6 bd f5 80 5b be 35 fd a7 bc
       0.042930946 -0.089331985 -0.21435912 -0.02050648

bias f4 [32]
000000 a6 3e 6f 3b 98 dc 5e bb 95 15 1a 3d 90 98 3e bc
       0.0036505847 -0.0034005996 0.03761824 -0.011633053
000010 c5 20 68 bd 4a e8 33 3b 22 46 64 bc 94 2f c5 bc
       -0.056671876 0.0027451687 -0.013932737 -0.024070539
000020 a0 a4 93 ba ec 4b a0 bb 97 95 cb bb 8b b5 67 3c
       -0.0011264272 -0.004891863 -0.006212901 0.014142404
000030 f1 03 14 bc 7c 61 fe bb bd d1 55 39 66 b0 59 ba
       -0.009034143 -0.007763086 0.00020391397 -0.00083041785
000040 f9 18 6b 3c b8 fe 0b 3d 8e 4b 77 bb ee 23 c8 bb
       0.014349216 0.034178466 -0.0037734243 -0.006107799
000050 e3 f7 8f bb fe ca 6b bb 18 c2 00 3d 9d fe 56 bc
       -0.004393564 -0.0035979147 0.031435102 -0.013122228
000060 87 71 5f bc 64 f7 91 bc 21 27 3f 3d 5d 4e ad bb
       -0.013637907 -0.01781816 0.046668176 -0.0052888826
000070 28 a5 59 bb 9d de 07 bc f3 08 bf ba f5 70 4b b9
       -0.0033210013 -0.008292821 -0.0014574811 -0.00019401668

weight f4 [64, 32, 4, 4]
000000 61 4a 78 3d 33 e8 1f 3d d7 61 01 3d 96 43 75 bd
       0.06061781 0.0390398 0.031587448 -0.059878908
000010 83 3d bc bb 7e ba 46 3d aa 6d 85 bd 3b 91 2d 3e
       -0.0057446375 0.048517697 -0.065150574 0.16949932
000020 31 6b b9 3c c9 7a 35 bc 92 e5 89 3d c7 0e b7 3d
       0.02263412 -0.011076638 0.0673324 0.089383654
000030 51 65 4c 3e 79 1c cc bc e5 00 9a bc 4d 09 91 bd
       0.19960524 -0.02491592 -0.018799255 -0.07081852
000040 14 75 bc bc ed 92 64 3c ed 25 6a be 01 19 e7 bd
       -0.023005046 0.013951045 -0.2286603 -0.11284066
000050 c7 36 5e be 19 c3 48 bd 3f 41 95 3c bd 89 67 bd
       -0.21700583 -0.049014185 0.018219588 -0.05652784
000060 53 b6 c6 bd fa ad c4 3d e9 c3 95 bd c1 74 60 bd
       -0.09702744 0.09603496 -0.073127575 -0.054798845
000070 59 86 36 3d 7f f1 d1 bd 01 ff d6 bb 5a e5 e9 ba
       0.044561718 -0.1025114 -0.0065611606 -0.0017844841
000080 77 a2 ab bd df 18 b4 3d 94 62 80 3d 0f b8 12 be
       -0.08380597 0.08793806 0.06268802 -0.14328025
000090 65 aa 05 bc cc 94 70 bb 50 03 b4 3c 43 44 38 3d
       -0.008158301 -0.0036709784 0.021974236 0.044986974
0000a0 65 a0 c7 bd 79 48 3c 3d 5a cd a6 bd 21 70 18 bd
       -0.0974739 0.045967553 -0.081446365 -0.03721631
0000b0 a0 70 a7 3e 26 89 37 3e 9b a1 14 bc 94 18 03 3e
       0.32703114 0.17923412 -0.009071733 0.12802345
0000c0 90 17 99 3c 87 82 93 bd 2c d8 36 be 1a e5 4e bd
       0.018687993 -0.072026305 -0.178559 -0.050511457
0000d0 52 a1 f7 3d d4 ba 37 3d 39 de 53 3a 27 36 39 3c
       0.12091316 0.044855908 0.0008082125 0.011304415
0000e0 c9 e0 97 3d ba 9f 07 3e 57 ba 09 3e 7f 62 de 3d
       0.07415921 0.13244525 0.1344999 0.108586304
0000f0 d0 79 78 3e 84 3f d0 3d fa 14 0c bd 8d 5a 94 3d
       0.24265218 0.10168365 -0.034199692 0.07243834
000100 ce 72 05 be 26 35 ec bd a5 84 22 be 2b 46 c6 bd
       -0.13032076 -0.11533575 -0.15870912 -0.09681352
000110 70 e5 bb 3b f8 7a 6d bc ef 0a fa 3c 60 99 fa 3d
       0.005734138 -0.01449465 0.030522792 0.12236285
000120 f5 5b 05 bd 2c e7 de 3d 91 a2 9a 3d ba 2f 24 3e
       -0.0325584 0.10883936 0.07550538 0.16033831
000130 a4 a2 e2 3d 77 d0 a8 3c 9e 2e e3 bd 99 68 8c bd
       0.110661775 0.020607216 -0.11092876 -0.06855888
000140 e1 48 1a 3d 19 ef 6c bd 9d 63 cf bd b3 be 38 3c
       0.03766716 -0.05784521 -0.101264216 0.011275935
000150 e0 7c 77 3d 4f 21 64 3d d9 be dd 3c cf 0b 09 3e
       0.060421824 0.055695828 0.027068542 0.13383411
000160 d8 44 b5 bc 4a 9b 4a 3e ac b3 b9 bb ee bf 00 3e
       -0.022127554 0.197858 -0.0056671705 0.12573215
000170 f9 5b 20 bd 12 e4 d3 bd cc ad ed 3d a4 7d 98 3d
       -0.039150212 -0.10346235 0.11605415 0.07445839
000180 0b 07 4e 3d 85 b1 2f 3d 1d a2 04 be 3e 1c 02 be
       0.050299685 0.042893905 -0.12952466 -0.12706086
000190 52 19 67 bd 2c 6f 2c be 4b 92 b3 bd 00 82 7e bd
       -0.05642063 -0.16839284 -0.087681375 -0.062135696
0001a0 60 8e 5c 3d c1 93 c5 3c 7a 72 85 bc ec 92 14 3c
       0.053846717 0.024118306 -0.016289938 0.009068232
0001b0 4f 59 31 bd 3e 44 1c ba be 6d 1f 3e 37 9c 16 bc
       -0.043298062 -0.00059610966 0.15569207 -0.009192518
0001c0 09 67 fb 3c 9b 2d 31 bd 33 e7 a9 bc 18 a9 82 3b
       0.03068878 -0.043256383 -0.020740127 0.0039874427
0001d0 45 90 ff 3d 79 0b 9b 3d 46 99 9e 3d d2 ae df bc
       0.12478689 0.075705476 0.07744078 -0.02730504
0001e0 86 22 a2 3c 6e 11 09 3e 56 38 3b 3e e0 76 ae 3d
       0.019791853 0.13385555 0.18283209 0.08518767
0001f0 59 86 c7 3d 60 c3 42 3e 62 e4 3f bd e1 2f 51 be
       0.09742422 0.19019842 -0.046848662 -0.2042842
000200 5c 08 39 3b d5 a3 e7 bd 34 da 1b be db 44 05 be
       0.0028233742 -0.11310545 -0.15219957 -0.13014548
000210 58 e8 2d 3d 36 63 9a bd ee 17 ca 3d 0b 37 17 3e
       0.04245791 -0.07538454 0.098678455 0.14767091
000220 c3 50 37 bd 38 20 cd bb 33 b1 77 bd f4 ee b1 3d
       -0.044754755 -0.0062599443 -0.060471725 0.08688155
000230 67 11 62 ba 76 6c c1 bd d1 96 a2 bd c5 30 c8 bc
       -0.0008623809 -0.094445154 -0.07938922 -0.024437318
000240 f3 2b bb bc 00 65 1d 3d 77 07 64 be 7c 43 6b bd
       -0.022848105 0.0384264 -0.22268473 -0.057437405
000250 fc 2b e0 3d 7a b9 55 3d 9c 7f 83 3d c2 13 75 bd
       0.10945889 0.052178837 0.06420824 -0.059833296
000260 34 4a a4 3c b9 e9 59 bd 49 42 e3 3c 96 32 2f 3d
       0.020054914 -0.05320141 0.027741568 0.042772852
000270 78 49 2a 3d 21 11 77 3d 3d ac dd 3d aa 82 0b be
       0.04157397 0.06031907 0.108238675 -0.13624063
000280 53 f9 4d bd 8d 68 b8 bd e4 6a e9 3c 3f dc b3 bb
       -0.050286602 -0.090043165 0.028493352 -0.005488902
000290 16 af 03 be fa 43 e0 3b 42 93 c1 bd 8f cf 57 bb
       -0.12859759 0.006844041 -0.09451915 -0.003293011
0002a0 00 5c d4 3d 45 c5 e0 3b 12 40 86 bd 89 b6 6b 3b
       0.1036911 0.006859454 -0.06555189 0.0035966954
0002b0 8b 05 96 bd aa 4d 03 bd 4d 03 dd 3d b4 02 ef bd
       -0.07325276 -0.032056488 0.10791645 -0.116704375
0002c0 4c 8c e7 bc 8c 42 03 be 07 9f 1a bc 4d 55 92 3d
       -0.028265141 -0.12818354 -0.009437329 0.07145176
0002d0 b4 39 1c be 95 cc b7 bd 1c 5c 68 3d 9a 40 75 bd
       -0.15256387 -0.08974568 0.056728467 -0.059876062
0002e0 34 ea 39 bd d8 0b ff bd cf f2 bb ba 63 e2 a5 bd
       -0.04538937 -0.12453431 -0.001433933 -0.080998205
0002f0 a0 92 f0 3d ef 19 12 3e b2 cb 31 3e d5 21 1d bc
       0.117467165 0.14267705 0.1736286 -0.009590586
000300 75 f2 fc bd 12 fd ac bd e6 8f 75 bc 8c bf 27 3d
       -0.123509325 -0.08446707 -0.014987921 0.040954158
000310 88 e5 c1 3d 3a b1 60 bc a3 62 8e 3d e1 32 de bb
       0.09467608 -0.013714129 0.06952407 -0.0067809676
000320 36 d1 89 3d da 2e 35 bc eb e3 16 bd 57 9f 99 3d
       0.06729357 -0.011058534 -0.036838453 0.07501095
000330 52 2c 00 3e 46 f9 38 bb 76 7e 23 be 75 c3 3e be
       0.12516907 -0.002822475 -0.1596621 -0.18629248
000340 b7 5f ac 3d a8 af 9f bc d3 22 f4 38 d4 49 51 bd
       0.08416694 -0.01949294 0.00011641313 -0.0510958
000350 a4 00 b9 3d 5a 28 e4 bd 2b 12 20 be b9 e5 d0 bc
       0.09033325 -0.11140509 -0.1563193 -0.025500165
000360 d9 f7 55 bd 3a 33 7b 3d 72 45 a7 bb 04 69 e2 bc
       -0.05223832 0.06132815 -0.005104714 -0.027637966
000370 65 2b b6 3d 2d 37 00 3e 5b 53 bb 3d a3 65 fd 3d
       0.088949956 0.12521048 0.09146758 0.12372901
000380 08 a5 9e 3b cf ab ea bd 85 54 14 bd 86 b1 c9 3d
       0.0048414506 -0.11458551 -0.036213417 0.09848313
000390 99 40 3f be 64 f3 82 3d 2f 16 9b bd 21 98 d4 3d
       -0.18676986 0.06394079 -0.075725906 0.10380579
0003a0 c5 04 0c 3d a9 2b 06 3c d2 d3 61 bd 64 a0 96 3d
       0.034184236 0.00818912 -0.05513365 0.07354811
0003b0 e4 56 22 3e 42 fd 7e 3c c1 33 a1 bd f6 e0 22 be
       0.15853459 0.015563311 -0.078711994 -0.15906128
0003c0 10 41 e0 3c be 52 8c bc 88 7c b9 bd 26 87 95 bd
       0.027374774 -0.017129298 -0.090569556 -0.07301168
0003d0 9b 76 77 bd 79 bd 47 bd 7f 6a 18 bc 51 26 0b bc
       -0.060415845 -0.04876468 -0.009302734 -0.008493022
0003e0 c8 90 ae 3c f4 9e 74 bd c6 2e ae 3d f7 75 41 bd
       0.021309271 -0.059721902 0.08505015 -0.04723164
0003f0 50 22 0b 3e b2 15 06 be 42 87 9f 3d 27 18 02 3c
       0.13587308 -0.13094214 0.0778947 0.007940329

bias f4 [64]
000000 d1 bc 28 bc 4f 06 6e bc 48 2a 86 3c d7 96 95 3d
       -0.010298924 -0.014527871 0.016377583 0.07304161
000010 f8 c3 0a bd a3 09 ab bc 3e e9 75 3d c5 64 1f bd
       -0.033878297 -0.020878619 0.06003689 -0.03891446
000020 8f 66 89 bc f9 ca b0 3d 09 ee 70 3d bd 40 90 3d
       -0.016772537 0.08632464 0.058820758 0.07043598
000030 a7 fe 87 3d 61 68 97 bd 38 8e 9e 3d 4d 0e 90 bc
       0.06640368 -0.073929556 0.0774197 -0.017584944
000040 b7 33 83 3b 08 24 22 be 14 a3 01 be 23 6c 94 bd
       0.0040039676 -0.15834057 -0.12659866 -0.07247188
000050 ed 6c 7c bd c6 dd a6 3b f5 69 c5 bb f2 ec fe ba
       -0.061627317 0.0050923554 -0.006024594 -0.0019449277
000060 11 d8 a3 3d bd a9 d6 3d 61 d3 46 3d 4b 1e 4f 3c
       0.08000196 0.10481594 0.04854143 0.0126415
000070 52 fb 3e bc 04 80 e1 3d 3e 8c cc bc 54 4a a4 3c
       -0.011656599 0.11010745 -0.024969216 0.020054974
000080 bf 33 41 3d 47 4f df bc 71 ae 90 3d 6c db 7c bd
       0.04716849 -0.027259482 0.07064522 -0.061732695
000090 38 ff 9a bc 03 ad 18 bd 01 4c ec bc 43 68 11 bd
       -0.018920526 -0.03727437 -0.028844835 -0.035499822
0000a0 6b da 8b bd be c1 1b bd c8 79 f2 bd 56 fe 0a 3c
       -0.06828769 -0.038026564 -0.11839634 0.00848349
0000b0 f0 bc 62 bd cd 76 1a bd 66 a4 96 bc bf 0e b1 bc
       -0.055355966 -0.037710954 -0.018388938 -0.021613477
0000c0 ef 63 70 bd f1 7d c3 3c 8a 67 bd 3d 78 34 b5 bc
       -0.058689054 0.023863764 0.09248264 -0.022119746
0000d0 d2 e1 39 3d e9 3e 01 be fa bd bd 3d f1 91 d8 bc
       0.045381375 -0.12621655 0.09264751 -0.026436778
0000e0 27 70 e6 3c eb ce 35 3b d4 ed 6c bd f0 b1 bb bc
       0.02812965 0.002774174 -0.057843998 -0.022911996
0000f0 98 0a 62 bc 29 0e 96 bc 0b 84 85 3d f5 7f b5 3b
       -0.013796471 -0.018317299 0.06519326 0.0055389353

weight f4 [64, 64, 3, 3]
000000 b1 90 08 be f5 ba fa 3d 73 dd d2 3d d1 4d 9a 3d
       -0.13336445 0.122426905 0.10296144 0.075343736
000010 89 9c 19 3d de 29 a5 3d 98 f6 32 be a0 0d d5 bd
       0.0375028 0.08064626 -0.1747688 -0.104029894
000020 69 be ee bd 8e 85 97 bc 7e 1b 2b 3d ee 01 22 3c
       -0.116574116 -0.018496301 0.041774265 0.009888155
000030 a8 ab 94 3d 94 a9 19 bd 7c f8 f5 bc 6b fa 87 3b
       0.07259303 -0.037515238 -0.030025713 0.004149725
000040 75 ce a2 3d 0b f6 07 bd e8 6f 02 3e 1a 7c 2f bb
       0.07949535 -0.03319363 0.12738001 -0.002677685
000050 b1 6b 05 be 1a ef 03 bd 7f ba 3d bd 4f 47 e2 bd
       -0.13029362 -0.032210447 -0.046320435 -0.11048757
000060 f1 e1 93 3d 19 c5 45 3c 25 b6 6f 3d f2 59 bc 3c
       0.07220829 0.0120709175 0.058523316 0.022992108
000070 72 e9 96 bd bf 1d ae bd 9e 2a 66 bd 9b fc 07 3d
       -0.07368745 -0.08501767 -0.056192987 0.033199888
000080 33 ba 25 3d 72 af b3 3c e6 77 1f bd a8 c0 33 bd
       0.040460777 0.021934245 -0.038932703 -0.043884903
000090 74 2b 2d bc 61 13 17 3e 60 7b 32 3d 02 41 3b bd
       -0.010569442 0.14753486 0.04357469 -0.045716293
0000a0 b7 5c 3f bd 88 8c 5e bd 82 0a 1a 3e 5b 7f 1e bd
       -0.04671928 -0.05433324 0.15043071 -0.038695674
0000b0 9a a7 b9 bd bf c4 04 bd 1a 22 bf bc 97 94 fa 3a
       -0.090651706 -0.032414194 -0.02333169 0.001911777
0000c0 a0 f9 c3 3d d8 0f 80 bd b5 92 69 bd 23 1a 12 bd
       0.095690966 -0.06253022 -0.057024676 -0.035669457
0000d0 1b da fc bb 6e 77 cd bd 76 f0 f5 3b 59 dd 58 3d
       -0.00771643 -0.10032545 0.007505472 0.05294547
0000e0 e4 7c 15 3d 8c 5f 61 bc bb c1 83 bd 6b f9 19 be
       0.036496058 -0.01375569 -0.064334355 -0.15036552
0000f0 f8 ce 05 3e e8 67 15 3d 59 11 f4 3d ff d4 32 3c
       0.13067234 0.036476046 0.11917371 0.01091504
000100 3d cf c8 bb 82 80 45 3d a7 29 6d 3d 11 26 05 3e
       -0.0061282204 0.048218258 0.05790105 0.13002802
000110 fb f6 c3 3c e0 58 20 3b 92 14 2c bd 54 5e 9e 3d
       0.02392148 0.0024467036 -0.042011805 0.077328354
000120 72 b7 44 be c6 76 52 3d 28 05 c5 3c 81 21 2a 3a
       -0.19210604 0.051382802 0.02405031 0.0006489978
000130 aa 58 e6 bc a0 d2 e3 bd e1 c1 06 be 5d fb 1c 3d
       -0.02811845 -0.11124158 -0.13159896 0.038325656
000140 82 72 bb 3c 43 4d 97 bd 6b e3 01 3e 47 ed a7 bc
       0.02288175 -0.073877834 0.1268441 -0.020498885
000150 75 32 d4 3d 4f bb b2 bd 14 4b e2 bc e3 5d 70 be
       0.103611864 -0.087271325 -0.02762369 -0.23473315
000160 0f e5 da 3d 54 9c 7b 3d 99 2c 6a bd 31 bb 8f 3d
       0.10688221 0.061428383 -0.057171438 0.07018126
000170 c7 bc fa bd 6a d5 c8 bc 36 2a 25 bd f7 06 ed bc
       -0.12243038 -0.024515826 -0.04032346 -0.028933985
000180 12 88 e6 bc a5 59 7a 3d a1 22 e9 3c c9 67 f3 bc
       -0.028141055 0.061120648 0.028458895 -0.029712575
000190 6b a2 9c 3c 43 ed 0c 3e 73 0d 4f bd 17 3f e6 bd
       0.019120416 0.13762383 -0.050549936 -0.11242502
0001a0 17 b7 20 be a0 d2 3f be cd 9e 62 bd 93 32 f7 3c
       -0.15694843 -0.18732691 -0.055327225 0.030175483
0001b0 55 4d 1b bd f3 21 18 bd 22 c0 fc 3c bb 69 a2 bd
       -0.037915546 -0.03714175 0.030853335 -0.07930323
0001c0 c3 2d 04 3e e0 d4 bd 3c ec d2 41 bd c6 83 3b bd
       0.12908082 0.023172796 -0.04732029 -0.045779966
0001d0 d1 7e c4 bd d3 52 e8 3c 24 85 44 bb 08 a3 bc bd
       -0.09594501 0.028359806 -0.0029986585 -0.09210783
0001e0 64 2e ea 3d 83 5b a9 3d d7 3e d0 3d 83 f8 1c 3d
       0.114346296 0.082694076 0.10168236 0.038322937
0001f0 78 0b 82 3b 8f e8 c7 3d 89 68 32 be c8 05 b1 3c
       0.0039686523 0.09761154 -0.1742269 0.021609202
000200 c4 8b 68 be db bb a8 bb 33 a4 8a bc 2a be 00 be
       -0.22709566 -0.0051493472 -0.016924 -0.12572542
000210 9e 79 ab bd 28 0a 15 be b6 1e 12 ba 0d 0f 8b bd
       -0.08372806 -0.14554656 -0.00055740343 -0.0678998
000220 5c d7 ee bb f8 7b 0b be c9 bb 91 bd c6 a9 ed bc
       -0.0072888564 -0.13621509 -0.07115895 -0.029011618
000230 4e 87 f9 3b 86 85 94 3d 59 60 4e 3c 9e 96 7a bd
       0.0076150065 0.0725203 0.012596213 -0.061178796
000240 5c 13 45 bd d7 cd be bd 1b 86 de 3c 9f 7c 1a be
       -0.048114166 -0.093166046 0.027163556 -0.15086602
000250 68 7f c3 bd 8d 27 13 3c 6b e2 51 be b1 58 85 3b
       -0.09545785 0.008981598 -0.20496528 0.0040694107
000260 ba 82 81 3d 43 db 33 3d b7 87 5f bd 61 26 5e bd
       0.06323762 0.043910276 -0.054572787 -0.05423582
000270 d9 3f 9b 3d 6f 99 3e 3d 67 d7 87 3d 80 a2 9d bd
       0.07580537 0.046533044 0.066328816 -0.0769701
000280 29 71 bb bb 26 40 70 3c 4f 1a 32 bd 0e a4 42 3c
       -0.005720277 0.014663732 -0.04348212 0.011879934
000290 ad d0 2b be 1f 51 e1 3c 3a 45 14 3e 58 d6 2f bd
       -0.16778822 0.027504502 0.14479533 -0.042929024
0002a0 7c 35 9d bd 3e 4c b0 bd 51 52 10 3e a7 98 35 bd
       -0.07676217 -0.08608292 0.14093901 -0.044335034
0002b0 18 cb 07 bd 81 dc 33 3d c4 29 fe 38 e4 e0 43 be
       -0.03315267 0.04391146 0.00012119443 -0.19128758
0002c0 f9 39 ca bd a9 2c cb 3b 0e 2e 39 3d f6 9b 1a 3e
       -0.09874339 0.0062003923 0.045209937 0.15098557
0002d0 03 6c 8e 39 6b 2b 66 3d ab 79 8a 3d ab 1e e6 3d
       0.00027164826 0.05619375 0.067614876 0.11236318
0002e0 87 5a ec 3b 11 6e 10 bd e9 15 a7 3d 9b ac 05 3d
       0.00721294 -0.035261218 0.08158476 0.032635313
0002f0 35 5d 8f 3d f6 aa 64 3d 08 26 db 3b fe dd 9a ba
       0.070002 0.055827104 0.0066878833 -0.0011815426
000300 89 70 23 be 8e d0 03 be 6e 1e 24 bb d7 fe 5b bd
       -0.15960898 -0.12872526 -0.0025042552 -0.05370983
000310 54 36 f7 bd 96 26 f7 bc 66 2b 32 bd fb df dd 3d
       -0.12070909 -0.030169766 -0.04349842 0.108337365
000320 dd ca e0 3d cf ab e5 bd 36 63 c5 3c 47 9c 97 bd
       0.10976193 -0.112144105 0.024095159 -0.074028544
000330 c1 17 62 3d f4 5b 82 3d d6 27 3d 3e 05 a6 88 bd
       0.055198435 0.06365195 0.18472227 -0.06672291
000340 41 35 ce 3d da 49 8d bd a4 ad 80 bc 97 ec 03 bd
       0.10068751 -0.06898852 -0.015707798 -0.03220805
000350 c2 3e fd bd 56 29 aa bd 4a 08 59 3d bb 89 4a 3d
       -0.12365486 -0.083086655 0.05298642 0.049447756
000360 b8 4e 65 bd e0 c4 aa 3d 83 6e b5 bd 35 39 48 bd
       -0.055983275 0.08338332 -0.08858969 -0.048882682
000370 90 a2 8c bd 5d 7e 88 3d 2b 8f 33 bd 1a 72 bc bb
       -0.06866944 0.06664727 -0.043837707 -0.0057509067
000380 99 e3 18 3d 82 87 93 bd 89 ae 84 bd 02 6d d9 3c
       0.03732643 -0.072035804 -0.064786024 0.026541237
000390 ad 74 49 be 8a 3d 7f 3c fc a2 b7 bd 64 44 d3 bc
       -0.19673415 0.015578637 -0.08966634 -0.025789447
0003a0 da 75 24 3d 2b 80 28 3d ae 59 7c 3d 61 ce 93 3d
       0.040151455 0.041137855 0.061608963 0.07217098
0003b0 e7 8f 12 bd a2 f7 f6 3d e5 74 98 3d 4d 60 e7 bd
       -0.035781767 0.12058951 0.07444171 -0.11297665
0003c0 f6 9e ae 3d be ad f2 3d 43 7b 12 3e 55 7b b4 bb
       0.08526413 0.11849545 0.14304833 -0.0055078664
0003d0 e2 39 65 bc 06 50 02 bd 65 7f be bd e9 90 17 3d
       -0.013990851 -0.031814598 -0.09301642 0.03700343
0003e0 b2 26 1d bd 45 ca a2 bd 3b 94 cc bd 30 3a c9 bc
       -0.03836698 -0.07948736 -0.0998921 -0.024563879
0003f0 f8 a0 03 3d 5a a8 4b bd 84 71 02 3e f7 72 91 3d
       0.032135934 -0.0497211 0.12738615 0.07102006

bias f4 [64]
000000 df b5 32 bd 03 38 b4 3c 28 f1 1e 3c aa b2 92 bd
       -0.043630477 0.021999365 0.009701051 -0.07162984
000010 32 ac 4c bd 13 c0 08 bd 5d ad 30 3d 29 93 44 bd
       -0.049968906 -0.0333863 0.043134082 -0.047991905
000020 b4 7d 75 bc d1 9d f0 ba 88 e4 6f bb ed 29 18 3d
       -0.014983583 -0.001835758 -0.003660472 0.03714936
000030 31 91 0b 3e b4 6c 5e 3c 8e 79 5d 3d a4 c1 c2 bd
       0.13629605 0.0135757215 0.054071 -0.0950959
000040 3c 36 96 bd fb 4e 04 bd 65 55 bc 3d c6 b6 eb bb
       -0.07334563 -0.032301884 0.09195975 -0.007193419
000050 78 78 a7 3d 96 b8 f5 bd fa 79 08 3d 5b 12 4d ba
       0.081772745 -0.119980976 0.03331945 -0.00078228646
000060 41 54 08 3d b1 b5 f2 3c 07 10 03 3e fa 52 dc bd
       0.033283476 0.029627653 0.12799083 -0.10758014
000070 34 81 92 3c 69 1b b9 3d 1f 3a 9c 3d 92 16 55 3d
       0.017883874 0.09038431 0.07628273 0.052023478
000080 38 8d b2 3d 98 52 db bb 0f 43 d2 3c 44 66 ca 3b
       0.087183416 -0.0066931956 0.025666742 0.006176742
000090 a4 8c 98 bc 64 0d 92 3d 9e 78 0d bd 29 e3 98 bd
       -0.01862175 0.0713146 -0.034538858 -0.07465202
0000a0 d5 cb 7a 3d 1c 82 b5 3b 86 95 89 3d e0 a0 59 bc
       0.061229546 0.005539192 0.067179725 -0.0132829845
0000b0 be 46 8b 3c 74 c6 16 3d 0b 23 b5 bd 4e 28 1f 3d
       0.017001506 0.036810353 -0.088445745 0.038856797
0000c0 a7 26 4a bd 98 88 0f bb dc 39 ff bc 9a 46 ba 3c
       -0.049353268 -0.0021901485 -0.03115552 0.022738744
0000d0 7b 9f 69 bc b2 9b 75 3d e4 4e b3 bd c5 23 66 3d
       -0.0142592145 0.059962936 -0.087552816 0.056186456
0000e0 9c 17 ee 3d dc 10 9e 3c eb 83 8c 3d b0 d5 bc 3c
       0.11625597 0.019295149 0.06861099 0.023051113
0000f0 6e 3c 81 3d 7e a0 03 3d 1c 1c 2c bc a5 66 70 3c
       0.06310354 0.03213548 -0.010504749 0.01467291

weight f4 [128, 1024]
000000 af 24 69 3c ed 39 6c bc 05 1c 96 3d a2 0c 29 3e
       0.014229937 -0.014418107 0.07329563 0.16508725
000010 ec 71 5f bc bd 94 19 bb 1b 5d 02 3d 0c f6 b1 3d
       -0.013638001 -0.0023434602 0.031827074 0.08689508
000020 b3 f2 53 bd bf 72 25 3c 7f 57 bd 3d af c4 a1 bd
       -0.051745128 0.010098158 0.09245204 -0.078988425
000030 60 c1 4a 3d ec 36 8b 3d 88 1c cc bd bd d9 ff bc
       0.049500823 0.06797585 -0.099663794 -0.031231755
000040 42 cf 20 be 0f 7d d1 bd 66 79 65 bc 26 b8 21 3b
       -0.15704063 -0.10228931 -0.014005994 0.0024676411
000050 5e 47 59 3d 31 09 15 3e d5 57 ae 3d c1 e4 86 3c
       0.053046577 0.14554287 0.085128464 0.0164665
000060 da 22 ef 3c 31 d5 d3 bd a5 f9 21 be 88 16 97 3c
       0.029191423 -0.103433974 -0.15817888 0.01844336
000070 4b f8 a4 3d e1 fa 0a 3d 1a 8e dd bd b8 fb 4f 3d
       0.080551706 0.033930663 -0.10818119 0.050777167
000080 7b bd f9 bd 68 96 ba bd 67 bc 89 3d 8a a8 36 3e
       -0.12194344 -0.09110719 0.06725388 0.1783773
000090 d5 50 48 bd 7b 91 5b 3a f6 46 15 bc 16 f9 0a bd
       -0.048905212 0.0008375865 -0.009111157 -0.033928953
0000a0 f1 83 8a 3d 47 80 a9 bb f2 c0 a7 bd 4d 53 bd 3c
       0.06763447 -0.0051727626 -0.08191098 0.02311101
0000b0 47 bf 30 3d 64 fb 01 3d 1c c4 a9 3d bc c9 01 3e
       0.043151166 0.031733885 0.08289358 0.12674612
0000c0 2a 79 7e bd e0 03 ca 3b ff cd ed 3d 1c aa 49 3e
       -0.06212727 0.0061650127 0.11611556 0.19693798
0000d0 8f 3c d8 3d 51 76 ef bd 7d b9 a1 bd 5a 22 1f 3d
       0.10558426 -0.11692489 -0.07896707 0.03885112
0000e0 fc 43 1b 3d bb d5 53 bc b2 ca ae 3d ca d3 b9 3d
       0.03790663 -0.012929375 0.08534755 0.09073599
0000f0 6b a2 69 3d 32 b0 16 bc f8 a9 2f bd 06 93 bc bd
       0.05703966 -0.009197282 -0.042886704 -0.0920773
000100 28 05 33 be 01 6a 1f be db 1f 26 bd 09 3c e6 3c
       -0.17482436 -0.15567781 -0.040557723 0.028104799
000110 0f 9a d7 3c 26 e9 30 bd ca 10 ce bc 26 dc 45 bd
       0.026318578 -0.043191098 -0.02515449 -0.048305653
000120 0a 83 9f bc 2e a6 0d bd b2 73 17 bd eb d1 30 bd
       -0.019471664 -0.03458231 -0.03697557 -0.043168943
000130 d5 07 c8 bc 3b e6 b5 bd 18 bc 29 bd bf da b9 3d
       -0.024417797 -0.088818036 -0.041439146 0.09074926
000140 15 50 5c bd b3 76 53 bc 2f e6 bf 3d e3 50 89 3d
       -0.05378731 -0.012906718 0.09370076 0.06704881
000150 2c bd e2 bd 49 ac b9 3d 4c 03 cb 3d 37 3d 45 be
       -0.11071238 0.09066064 0.09912738 -0.19261633
000160 82 d6 1c be d8 bf 05 bd a0 1a 88 3d bf 39 5a 3d
       -0.15316203 -0.03265366 0.06645703 0.053277727
000170 03 2e a2 3c df 6a ff bc b5 e2 38 bc e1 24 00 3d
       0.01979733 -0.03117889 -0.01128452 0.03128517
000180 1f e7 37 bd e8 b9 09 be 6b a6 b6 3c 9f b7 cb 3c
       -0.04489815 -0.13449824 0.022296151 0.02486783
000190 f4 07 f7 bd 4a a4 00 be 7e bc 8e 3d ca 56 15 3c
       -0.12062064 -0.12562671 0.06969546 0.00911493
0001a0 02 d7 8e bd eb 60 a7 bd 69 8e cf bc 2c 0e 9f bd
       -0.06974603 -0.081727825 -0.025336461 -0.07766375
0001b0 59 9a e5 3d 9a 0c 8e 3d 00 f3 d6 3d da cf 46 3c
       0.1121108 0.06935997 0.10495567 0.012134517
0001c0 b4 d5 4a 3d 5a 9f 19 3d 59 af ba 3d a4 e0 3a 3d
       0.04952021 0.037505485 0.09115476 0.04562439
0001d0 75 0d e9 3c e2 05 4d bd c2 58 39 3d ce cd d4 bc
       0.0284488 -0.05005444 0.04525066 -0.025977042
0001e0 d3 ce 81 3d c2 9f 76 bd ae 0f 9f bd e4 ab 73 bd
       0.06338277 -0.06021095 -0.077666625 -0.0594901
0001f0 a0 b9 cb 3c 04 11 2d bc 92 15 1a 3c ba 64 1f 3e
       0.024868786 -0.010563139 0.009404557 0.15565768
000200 95 25 1c be 87 82 08 bd 86 2a 79 3d 91 9f 86 bd
       -0.15248711 -0.033327606 0.06083157 -0.065734036
000210 d9 b2 30 3d 2d 2a 18 3e c3 ae c6 3d bd fc 45 3d
       0.043139312 0.14859839 0.09701302 0.048336733
000220 00 08 87 3d b3 cb cd bb 52 b4 2e be 24 9c f4 3d
       0.06593323 -0.0062803864 -0.17060974 0.11943844
000230 e1 e7 a8 3d f8 70 a2 bc da f0 1d bc 5f 72 13 3e
       0.082473524 -0.019829258 -0.009639943 0.14399098
000240 b4 09 62 bc 94 e7 d9 bb 31 3d b8 3d 49 ae 5c 3d
       -0.013796259 -0.0066499207 0.08996046 0.05387715
000250 fa 95 84 bd 84 b6 39 bc b7 9b bb 3b 23 d9 53 3d
       -0.06473918 -0.011335019 0.0057253498 0.05172075
000260 89 40 ea bd 97 45 b1 bc 89 d4 a8 3d dc 04 0b bc
       -0.1143809 -0.021639628 0.08243663 -0.008485045
000270 81 e1 33 3e 83 e2 45 3c b0 12 d4 3d b5 74 9a bd
       0.17566492 0.01207793 0.10355127 -0.07541791
000280 d0 77 b9 bd 14 8e b4 bc 75 bf a3 3d 9e 33 99 3d
       -0.090560555 -0.022040404 0.07995502 0.07480548
000290 45 2f d0 bc fa 17 89 3c b0 c3 d1 3c 66 a0 54 bd
       -0.025413165 0.016735066 0.025606006 -0.05191078
0002a0 11 58 fc 3d ba 65 2b bd 44 4d eb bc 6e 9e 82 bc
       0.12321485 -0.04184506 -0.028723367 -0.015944686
0002b0 79 81 92 3c be 97 39 3d 64 0e 1d 3d eb 4c 34 bd
       0.017884003 0.04531073 0.038343802 -0.044018667
0002c0 f9 2a b7 3d ed 56 45 3d 06 9f 03 3d 31 10 6f 3d
       0.08943743 0.048178602 0.03213408 0.05836505
0002d0 7d 47 64 bc 38 df 9f bd 28 d6 c6 3c b2 f3 29 3d
       -0.01393306 -0.078062475 0.02427204 0.04149217
0002e0 75 47 a2 3d d7 3b 17 3e 98 63 87 3d ae b7 1c 3e
       0.079237856 0.14768921 0.06610793 0.15304443
0002f0 fe d2 df 3b 13 fe 24 bd c8 ab 2a bd 1b 3c 85 bd
       0.006830572 -0.040281367 -0.04166773 -0.06505605
000300 ca bd 68 3d bf 19 07 bd 98 51 e8 3d a3 7d 40 3d
       0.056821622 -0.032983538 0.11343688 0.046994817
000310 42 91 76 bc 46 f9 e1 bc 02 c8 f6 bc 04 17 3d bc
       -0.015049281 -0.027584683 -0.030124668 -0.011541132
000320 4b a1 a4 bd 99 4a 25 bd b5 35 94 3c b2 c2 0c bc
       -0.08038577 -0.040354345 0.018092016 -0.008591341
000330 aa 0d 38 bd 03 07 5d bd e5 cf f1 3d 42 8e 07 3d
       -0.044934906 -0.053961765 0.11807231 0.033094652
000340 4c 01 81 bc b8 9f cb 3a 84 d8 9e bb 4b 34 b5 3d
       -0.015747689 0.0015535271 -0.004847588 0.08847865
000350 7f 04 c2 bc 5f 44 2d bd 8c 24 65 bd e4 98 17 3e
       -0.023683785 -0.042301532 -0.055943057 0.14804417
000360 2e b5 0e 3d 51 0c d8 3c 7e 8e fe 3d 49 ba 78 3d
       0.034840755 0.02637306 0.12429522 0.06072453
000370 d6 10 fe 3d 55 31 ff 3c 98 f5 a0 bc 3c ea fd 3b
       0.12405555 0.031151453 -0.019648358 0.00774887
000380 c3 08 a6 3c b8 44 f6 3b e1 67 4d bd 06 ee a7 bc
       0.02026785 0.007515516 -0.050147895 -0.02049924
000390 5c 8f 9f 3d af 55 99 3d b6 c1 db bc 06 8a 0c 3e
       0.077910155 0.07487046 -0.026825767 0.13724527
0003a0 e7 11 55 3d 08 d5 b5 bc ca 00 06 be e5 8e 3b 3d
       0.052019026 -0.022196308 -0.13086239 0.04579057
0003b0 8c 7c 9d 3d 69 02 8e bd 3e 27 b9 3d ea a6 49 bd
       0.07689771 -0.069340535 0.09040688 -0.049231447
0003c0 2d ba 86 3d 79 3f 8e 3d 13 95 aa bd 51 ba 81 3c
       0.06578479 0.069457 -0.08329215 0.015835913
0003d0 6b 3b 5c bd 46 86 bd bc fc 2c a9 3d 21 91 2f 3e
       -0.053767603 -0.023135316 0.08260533 0.17145206
0003e0 3b 1b fd 3d 89 ba 11 3d 50 cc 90 3d 40 67 e8 ba
       0.123587094 0.035578284 0.070702195 -0.0017730966
0003f0 05 b0 0d 3c 4e da 84 bd 96 ee 36 bd ef 91 96 bd
       0.008647923 -0.06486951 -0.044661127 -0.073520534

bias f4 [128]
000000 b5 e2 16 3d 74 02 8f bc 7f 1a 91 bd 0b 76 48 3d
       0.0368373 -0.017457224 -0.07085132 0.0489407
000010 76 03 55 bd ef 06 04 3d 4a ab d8 3c 76 6a 2e bd
       -0.052005254 0.032233175 0.026448864 -0.042581998
000020 44 62 62 3e 74 b7 d1 bc 68 9e 46 bd 89 83 8c bc
       0.22107798 -0.025600173 -0.04849091 -0.017152565
000030 90 90 f1 3d 20 dd b4 3b 82 79 98 3d b6 0c 68 bb
       0.11795151 0.005519524 0.07445051 -0.0035407967
000040 08 2f 21 3d b2 c7 c1 3d 3f b9 74 bd 1e e5 30 3d
       0.039351493 0.09461917 -0.059746977 0.043187253
000050 46 1b 0a 3d 28 5b 21 bd 0a f7 3f bd 9e c7 eb 3d
       0.033717416 -0.039393574 -0.046866454 0.11512683
000060 c2 50 d7 bc c1 4d 8b bd 40 3c 47 3e ba 2e 56 bd
       -0.026283626 -0.0680194 0.19456577 -0.052290656
000070 f6 dc e9 bc ed f5 0f 3d 8b 7b dc 3c c8 61 3a bc
       -0.028547745 0.035146642 0.026914379 -0.011375852
000080 43 1f 47 3d 5d c1 83 3d 36 f2 10 bc 29 c1 31 bd
       0.048613798 0.064333655 -0.00884681 -0.043397103
000090 dd d1 c5 3d 01 71 98 3d c1 15 0d 3e 50 5c aa 3d
       0.09659169 0.07443429 0.1377783 0.083183885
0000a0 c2 95 03 3d e7 67 40 bd d0 f4 d7 bc cc 23 b0 3d
       0.032125242 -0.04697409 -0.026361853 0.08600578
0000b0 53 d6 19 bd fc c5 9a 3d f4 91 2d bd f4 99 d8 3d
       -0.03755791 0.07557294 -0.04237552 0.10576239
0000c0 f7 0b b1 3d cd 08 a9 3c be cf ba 3c 43 f7 99 bc
       0.0864486 0.02063408 0.022804137 -0.018794661
0000d0 78 80 ca 3d 1e d0 fb 3b af 28 57 bd 90 97 05 3d
       0.09887785 0.0076847216 -0.052529033 0.032615244
0000e0 32 fe 0e 3e 48 df 2d bc 05 c7 7f bd b3 d1 cf bd
       0.13964155 -0.010612316 -0.06244566 -0.10147419
0000f0 76 c0 b8 3d 4e 86 27 bc c7 0a 4b bd fa 27 de 3d
       0.09021084 -0.010224892 -0.049570825 0.10847469
000100 c1 8f 60 3d a2 63 e4 3d dd e3 d9 3d 34 50 44 bd
       0.054824594 0.11151816 0.106391646 -0.04792805
000110 e3 f9 aa ba 10 a1 8d bb 1a a4 25 bd c9 9f 4e bd
       -0.0013044443 -0.0043221787 -0.040439703 -0.05044535
000120 66 47 d0 3d 93 54 81 bd 55 39 cc bc 6d 90 f4 bc
       0.10169868 -0.063149594 -0.024929682 -0.029854024
000130 29 ea b5 3c 7a 56 5c 3c ec a8 fd 3d e3 96 0a 3e
       0.022206383 0.013448352 0.12385735 0.13534121
000140 1e f3 af 3d 09 d4 9f 3d 4d 1b bb bd 5a 45 53 3d
       0.08591293 0.07804114 -0.091360666 0.05157981
000150 58 72 42 3d 70 cb af bc e3 f9 39 3c 00 09 d4 3d
       0.047472328 -0.021459311 0.011351082 0.10353279
000160 52 c3 88 3d bc ad a7 bd e1 dd c9 bd 4e e9 b7 3d
       0.066778794 -0.08187434 -0.09856773 0.08980046
000170 22 17 94 3c 0f c6 c0 3d 81 c2 88 3d 16 86 a6 bb
       0.018077437 0.09412777 0.06677724 -0.0050819023
000180 09 54 89 bc 36 76 52 3d a3 f1 4b 3b f9 c8 69 3d
       -0.016763704 0.051382266 0.0031119369 0.057076428
000190 06 b8 77 3d d4 0e 79 3e f5 f1 a6 bc 0c 22 94 3d
       0.060478233 0.24322063 -0.020379046 0.072330564
0001a0 d3 5a 0e 3d 20 73 43 3c 63 1b 7d bd 9e 6d 7b 3d
       0.034754585 0.011929303 -0.061793696 0.061383836
0001b0 80 61 8e 3d 89 ed a9 3d ad 11 94 3d f8 c5 3a 3d
       0.069521904 0.08297259 0.07229934 0.045598954
0001c0 1d 50 26 bd b0 0e de 3d 5a 00 8b bd 65 43 d1 bc
       -0.040603746 0.10842645 -0.067871764 -0.025544832
0001d0 28 12 c0 3d e1 e3 5d bc 29 01 bf 3d c5 ca de 3d
       0.09378463 -0.0135431 0.09326393 0.10878519
0001e0 a7 a4 1a 3d 5b 66 02 bc 7f fa 35 bc ed 5a 02 3e
       0.03775468 -0.007958974 -0.011107086 0.12729998
0001f0 92 1e 8f 3c 96 90 49 3c 1b 5f 36 3d 30 6c 62 3d
       0.017470632 0.012302538 0.044524293 0.055278957

weight f4 [15, 128]
000000 50 14 7a bd 27 cd 87 3e 9c 7f 80 bd 57 ff e4 3d
       -0.061054528 0.26523706 -0.062743396 0.11181515
000010 a8 80 dc 3d bc 7e 52 be 1a 2d 59 3d e4 62 a2 3d
       0.10766727 -0.20556158 0.053021528 0.07929018
000020 40 16 55 bd 47 33 a5 3d b0 3e 9f 3d 2d 63 ff 3d
       -0.052023172 0.08066421 0.077756286 0.12470088
000030 89 0a 28 be 22 aa 9f 3d fe 15 37 3e ee 39 99 3d
       -0.16410269 0.07796122 0.17879483 0.07481752
000040 1d 1a d2 3d 24 99 a6 bd 77 07 1a bd 0a 6b bc bc
       0.10258887 -0.08134678 -0.037604775 -0.023000259
000050 34 13 84 3c f6 71 bd bd 2a 9f 76 bc c5 2a 22 be
       0.016122438 -0.09250252 -0.015052596 -0.15836628
000060 da fa cb 3d 7e 67 4f bb 9a ce f5 bc f9 e6 9a 3b
       0.099599555 -0.003164738 -0.030005742 0.004727241
000070 17 c9 98 bd bb 3d e6 3d 23 41 0c 3d f1 44 2b 3e
       -0.0746023 0.11242243 0.034241807 0.16725518
000080 0e 28 3a bd a7 cb ef bd 6c 8f eb 3d 94 d4 06 3e
       -0.045448355 -0.117087655 0.11501965 0.1316703
000090 56 2c ea bd 70 e6 e6 3b dd de 2c bd b9 e0 44 3d
       -0.11434238 0.0070465133 -0.042204726 0.048065875
0000a0 51 6a 0b be 4c 38 71 3e 3c 5b 33 bd 36 e9 f5 bd
       -0.13614775 0.23556632 -0.04378818 -0.12007372
0000b0 fc a8 ce 3d ef cd 4c bd fb a2 82 3e 67 72 f3 bd
       0.10090825 -0.05000108 0.2551497 -0.11887055
0000c0 72 7b 60 be af c6 43 bd 76 b9 fe 3d df b5 2d bd
       -0.2192209 -0.0477969 0.124377176 -0.042409774
0000d0 66 61 b0 3c cf ee 1a 3e ee a5 a1 bc 6a ca 7f be
       0.021530818 0.15130161 -0.019732442 -0.24979559
0000e0 64 8f 42 be 9d cc e2 3d cb 68 44 3e c3 97 78 bd
       -0.19000012 0.11074183 0.191806 -0.060691606
0000f0 ca 7a 35 3c a2 8a 47 bb 3c 03 34 3c 1a 65 42 3e
       0.0110766385 -0.0030447622 0.010987099 0.1898388
000100 05 04 2c 3d e7 d6 04 be 20 ed fe bd 6e 41 ac 3d
       0.04199602 -0.12972604 -0.12447572 0.08410917
000110 d2 35 2b 3e e6 e1 ab bc 73 21 dc 3c eb c5 6c 3e
       0.1671975 -0.02098174 0.026871419 0.23122375
000120 38 63 e1 bd 4c 01 69 3d e8 d1 5f 3e 49 8d 1f bd
       -0.110052526 0.056886002 0.21857417 -0.0389531
000130 c9 54 11 3d b7 fa c8 3d f9 8d 7b bd b9 73 d2 bd
       0.035481248 0.09813445 -0.061414693 -0.102759786
000140 b6 4e 2b be 32 17 b3 3c f0 89 b0 3d 65 41 e0 3c
       -0.16729245 0.021861646 0.086200595 0.027374933
000150 f9 e1 82 be c9 0a 3d 3e 58 b6 da bd 1a d0 a9 bc
       -0.25563028 0.18461145 -0.106793106 -0.020729113
000160 09 c9 23 be fb aa 9e 3d e5 0b 78 be 34 57 4e 3d
       -0.15994658 0.07747456 -0.24223287 0.050376132
000170 dc 2c c9 3d 94 ee 8c be b0 1b 02 3e 4b 01 4b 3e
       0.09823009 -0.2752577 0.12705874 0.19824712
000180 a6 ff 39 3e bf ef 1a 3d ef 3e 2d 3d a1 18 ec 3c
       0.18163928 0.037826296 0.042296346 0.028820338
000190 5a 2c 2a be 9d 4d ab bb 8b 5a ac 3c 40 bd ea bd
       -0.16618481 -0.005227758 0.021039268 -0.11461878
0001a0 54 dc a4 bd 91 d3 89 3e e9 ca 6c 3d 2d 39 13 3c
       -0.08049837 0.26919225 0.057810698 0.0089858
0001b0 2e b3 e6 bc 22 03 d2 3c 91 1e 42 be 48 0f bd 3d
       -0.028161611 0.02563626 -0.18956973 0.0923143
0001c0 c2 81 2b be fe cf 59 be 20 2c 42 39 51 6b ed bc
       -0.16748717 -0.21270749 0.0001851772 -0.028981837
0001d0 4a fa ad 3d f3 dc f2 3c ab 1b 1a be af 27 29 3e
       0.084950045 0.029646372 -0.15049617 0.16519044
0001e0 a5 82 85 3d 5a 02 d2 3d 9a c8 db bd 5a 11 0f be
       0.06519059 0.10254355 -0.10731621 -0.13971463
0001f0 f5 29 7b 3e 26 58 fc 3d 2d 1a 80 3d 0c bc 13 be
       0.24527724 0.123215005 0.06254993 -0.14427203
000200 a3 62 23 3d 12 2b 3d bd 33 85 44 bd a1 bb e8 3d
       0.03988899 -0.046183653 -0.04797859 0.113639124
000210 fb 9b 0c 3d 8f 3a f3 bc 2f 31 7a 38 ef 52 38 3d
       0.034328442 -0.029691009 5.965045e-05 0.045000967
000220 76 c7 bc ba f7 ea 8f 3d 27 a8 04 be 19 ea d6 3d
       -0.0014402706 0.07027238 -0.1295477 0.10493869
000230 db aa 02 bd e9 06 cc bd 92 c7 79 3d bf ba 12 bd
       -0.03190122 -0.099622555 0.06098134 -0.035822626
000240 df 22 07 be 26 31 ca bc 2d 2b 79 3d b6 29 05 be
       -0.13196896 -0.024681639 0.06083219 -0.13004193
000250 24 dc 0e 3d 24 52 0e 3d 55 bc d9 bd 64 7d a3 bd
       0.03487791 0.034746304 -0.106316246 -0.07982901
000260 91 28 ff bb b0 30 c2 bc ae 3b a1 3d 58 d6 4d 3d
       -0.0077868183 -0.023704857 0.07872711 0.050253242
000270 a1 cf f6 bb d2 22 34 3d ab 13 66 bd 28 23 3c 3d
       -0.0075320755 0.04397852 -0.0561711 0.045931965
000280 aa 35 96 3d b1 cb 41 3c d3 6b c8 3c e7 89 71 3d
       0.07334454 0.011828349 0.024465477 0.058969405
000290 db 69 11 be cf 5e e4 bc 48 ef 6d 3d 07 a6 5c be
       -0.14200537 -0.02787724 0.058089525 -0.2154771
0002a0 d4 cc 05 be 8a 52 70 bd 13 f0 78 be 73 71 71 3d
       -0.13066417 -0.058672465 -0.24310331 0.058946084
0002b0 b9 af 26 3e 6c 6b ae bc 39 c9 6f bd cd 2a a6 3b
       0.1627797 -0.021291457 -0.05854151 0.00507102
0002c0 97 09 0e bc 72 8c e5 3d 9c 5a 5f bc 21 3d 5b be
       -0.008669279 0.112084284 -0.013632443 -0.21410038
0002d0 f3 a2 ce 3c 02 d4 af 3d 42 57 80 3d 8c 1e c2 3c
       0.025224185 0.08585359 0.06266643 0.023696207
0002e0 a4 7e 2a 3d 32 c4 31 3d 8b b7 e5 bc a3 f4 eb 3c
       0.04162468 0.043399997 -0.028041622 0.028803175
0002f0 55 1a 98 bd 91 42 32 bd f3 f0 2a be eb db 1c be
       -0.074268974 -0.043520514 -0.16693477 -0.15318267
000300 63 71 fc bc 17 5e ef bd fc 36 ae 3c 24 ea 88 3c
       -0.030815786 -0.11687868 0.021266453 0.01671321
000310 a8 45 aa 3d 2f e0 be bd 27 38 06 3e 3f 35 52 3c
       0.08314067 -0.093201034 0.13107358 0.012830078
000320 61 70 2a 3c f0 14 c7 bc 53 f8 72 3b ad ae 17 bd
       0.01040277 -0.024301976 0.0037074282 -0.03703182
000330 a3 2e a4 bd 36 c5 41 be 7b 8a 2c 3d a9 4a 06 3d
       -0.08016708 -0.18922886 0.042124253 0.032786045
000340 2f a5 00 bd b7 f6 22 be 91 6e 96 3d fd 90 07 be
       -0.03140753 -0.15914427 0.073453076 -0.13238902
000350 c5 4f 1a be e5 6d 4c bd 3f 11 6b be 8e ec 2f 3d
       -0.15069492 -0.04990949 -0.22955798 0.042950206
000360 3d 89 8d bd 02 ad a9 3d 38 d0 79 3d 4b 5a 58 3c
       -0.06910942 0.08284952 0.06098959 0.013205121
000370 05 4c 8d 3d 4d c6 2a be 8d 71 b8 bd 41 b8 f4 bd
       0.06899265 -0.16677208 -0.09006033 -0.11949206
000380 f5 0f b7 bc 86 d9 71 bd 8b 08 16 bb 65 bf 27 3d
       -0.022346476 -0.059045337 -0.0022893276 0.040954012
000390 74 d0 de bd 94 3e 31 bc 8f 09 99 bd 08 3e 4a 3d
       -0.10879603 -0.010818142 -0.07472526 0.049375564
0003a0 66 cd 77 3b 57 ab 71 bb b4 65 0b 3d c4 0a 55 be
       0.0037811636 -0.0036875808 0.03403254 -0.20804888
0003b0 98 80 de bd 9f 2b db 3d e3 92 47 3d 85 43 ee bc
       -0.10864371 0.107016794 0.048724066 -0.02908493
0003c0 37 83 09 3e 67 c8 cd 3c 4b b0 b4 bd f6 a3 69 3d
       0.1342896 0.025119973 -0.08822688 0.05704113
0003d0 7b cc ce 3c 15 b5 b0 bd 12 a4 fe 3d 6a 0e a3 bd
       0.025243988 -0.08628289 0.12433638 -0.07961734
0003e0 cb 84 c2 3b 23 46 cb bd ba 95 12 be a5 86 02 be
       0.0059362403 -0.09925487 -0.14314929 -0.12746675
0003f0 fe 0f b1 bb a9 cc 1d be 96 3f a8 3d b7 67 2f be
       -0.0054035177 -0.15410103 0.08215253 -0.17129408

bias f4 [15]
000000 52 0e 9a bc f8 a9 22 bc d6 0c e5 3c b6 f0 c8 bb
       -0.018805657 -0.009928219 0.027960222 -0.0061322106
000010 36 0b 06 3c 00 37 0d 3c b2 a9 50 3b f6 09 78 3b
       0.008181384 0.00861907 0.0031839428 0.0037847734
000020 16 8e 93 3c 3d a4 1f bc 91 75 fe bc 5e 30 3d 3c
       0.018012088 -0.009743747 -0.03106192 0.011547176
000030 40 d1 a8 3c 2e c4 7f 3c 11 44 2d 3c
       0.02060759 0.015610738 0.01057531

weight f4 [1, 128]
000000 5f 80 81 3b 5d 1f 4f 3b 91 da 9a bc 47 95 fe 3c
       0.0039520706 0.0031604387 -0.018903049 0.03107704
000010 56 fa e7 bb c8 4d 19 bc 2d c8 8a 3a a4 56 14 3b
       -0.007079403 -0.009356923 0.0010588221 0.002263465
000020 3c f6 4e 3d 09 03 64 3b 82 2d 55 bc 9a 6d 80 bd
       0.050527796 0.0034791848 -0.013011338 -0.06270905
000030 40 9f 3f 3d 8b 4f 95 bc d5 1b 42 3c b8 7e 92 3c
       0.046782732 -0.018226406 0.011847456 0.01788269
000040 74 9a 25 3b 64 14 18 3e 4e b4 90 bc df b8 ae 3c
       0.0025269063 0.14851528 -0.017664101 0.021328388
000050 3c 44 55 3c 77 05 56 bd 7b fd 0e bd 93 24 0a 3d
       0.013016757 -0.052251305 -0.034909707 0.033726286
000060 af 48 61 bc 74 b0 29 bc 51 47 54 3d cf 7c 97 bc
       -0.013750239 -0.010357011 0.051825825 -0.01849213
000070 c2 ee 18 bc d9 64 ea 3b d0 65 31 3e 13 bf b3 3b
       -0.009334268 0.0071531353 0.17323995 0.0054854243
000080 cd d8 79 bb 83 9e 9c 3d 65 f8 d3 bb bf 18 fa bc
       -0.0038123608 0.07647421 -0.00646882 -0.030529378
000090 77 bb 92 3d cf e9 41 3c 71 00 8b 3d cc 30 cd 3c
       0.07164662 0.0118355295 0.067871936 0.025047682
0000a0 a8 0e 34 39 47 23 1a 3c 37 69 a5 3b ee c8 8e 3b
       0.00017171598 0.009407825 0.005047943 0.004357449
0000b0 a1 cd 9e 3c 50 1f c4 ba b0 51 ba bb 09 cc 4c 3d
       0.01938516 -0.0014962945 -0.0056860074 0.04999927
0000c0 b2 58 93 3d 79 52 4b bc df 16 86 3b fc af 01 bc
       0.07194652 -0.0124098 0.004092082 -0.007915493
0000d0 5b 54 14 3d fa 7f d6 ba 5c c0 c1 bc 08 89 04 bc
       0.03621326 -0.0016365044 -0.023651294 -0.008089311
0000e0 c2 46 18 3d 1a 45 d1 3a de 96 ab bc b3 c4 42 bd
       0.037176855 0.0015966028 -0.020945963 -0.04755087
0000f0 75 f0 0e 3d a4 be f9 3c e3 ba 7f bb 3e 8d 88 3d
       0.034897286 0.030486412 -0.0039021305 0.06667565
000100 74 c7 0c 3c 93 7a 53 3d 5e b4 8e 3d 05 d1 8a 3b
       0.008592475 0.051630568 0.06967996 0.004236343
000110 df 30 9b 3b af 08 18 3d 16 f3 32 3c 98 4d 05 bd
       0.0047360505 0.037117656 0.010922214 -0.032544702
000120 2b 63 d3 3d e7 66 08 bc 32 37 5b 3b c3 42 d0 bb
       0.10321649 -0.008325315 0.0033449647 -0.006355615
000130 67 53 00 3c 3e e0 86 3e 3c 10 8d 3d 60 1e 1c 3d
       0.007832385 0.26342958 0.06887862 0.038114905
000140 a3 b3 07 3c b7 40 13 3d ca 7f 53 bc 32 da c9 3b
       0.008282575 0.03595039 -0.012908885 0.006160044
000150 61 96 11 3d c5 74 40 3c b6 fe b4 bc 95 c1 f0 3c
       0.035543803 0.01174659 -0.022094112 0.029389182
000160 0d a1 ca 3b 4a f8 b4 bc 4c 0f bd bb a2 63 be 3b
       0.0061837495 -0.02209105 -0.005769646 0.005810217
000170 26 e8 ba 3c 2c 03 96 3c ba cf e1 3c 1c 52 37 bc
       0.022815775 0.01831206 0.027564872 -0.01118901
000180 6b e2 2c bd 65 80 2a bc 06 a0 4f 3b 54 0b 08 3c
       -0.042208117 -0.010406588 0.0031681075 0.008303482
000190 8e 4f 93 3d 0d 2f bc 3d 68 02 14 3b 33 05 a2 3c
       0.07192908 0.09188662 0.0022584442 0.01977787
0001a0 34 e9 2f 3c 59 c0 0c 3d 7e 2e d9 ba cc 5c 8c bc
       0.010736752 0.034363125 -0.0016569642 -0.017134093
0001b0 e1 90 60 3d 16 55 ac 3b 0f 6a 68 3c e3 fe a6 bb
       0.054825667 0.0052591665 0.014185443 -0.005096303
0001c0 de 1b 98 3b 3f 3f 82 3c 61 fd 3c bd 9d 01 d5 3b
       0.004641994 0.015899299 -0.04614008 0.0065004365
0001d0 2d 1b 25 3d 18 90 8d bc 5f 0b 39 3d bb 27 9b 3d
       0.04030912 -0.017280623 0.04517686 0.07575937
0001e0 4e 94 80 3c 9e 85 3d ba b4 91 13 bd c5 94 69 3c
       0.015695717 -0.00072296883 -0.036027625 0.014256661
0001f0 12 3e 98 3c cb 40 e7 3c c2 cd ed 3c 9e d0 1f 3c
       0.018584285 0.028229138 0.029028777 0.009754328
