results_final/generalization-128fd/200levels-128fd-policy.pt (torch, 843679 bytes, 11 tensors)

weight f4 [32, 3, 8, 8]
0	0x3e11c3ae	0.14234802
1	0x3d44d758	0.04805693
2	0xbca481f0	-0.02008149
3	0x3c6a586f	0.014303311
4	0xbcb9dbcb	-0.022687813
5	0xbe289b75	-0.16465552
6	0xbda385d7	-0.07984512
7	0x3c98c7ad	0.0186499
8	0xbe805118	-0.2506187
9	0xbe0b1d3b	-0.1358537
10	0xbe2ab31e	-0.1666989
11	0xbd4edcd8	-0.05050358
12	0x3d614c3c	0.055004343
13	0x3d32d360	0.043658614
14	0x3b8f41b4	0.004371846
15	0xbc531f2e	-0.012885852
16	0x3e0aa349	0.13538851
17	0x3dc2c4a7	0.09510165
18	0xbd58d824	-0.052940503
19	0x3d754016	0.05987557
20	0x3cb247e4	0.021762796
21	0xbcc0fd8e	-0.023558404
22	0x3e030db6	0.12798199
23	0x3e0cc32e	0.1374633
24	0x3cef49aa	0.02920993
25	0xbc0c8b82	-0.008578183
26	0xbb950e8b	-0.004548853
27	0xbd339b45	-0.04384925
28	0x3dfef505	0.124490775
29	0x3c19cbf2	0.009387003
30	0x3a0c9091	0.0005362118
31	0xbda84d25	-0.08217839
32	0xbcc2f6f2	-0.023799393
33	0xbe18d0a6	-0.14923343
34	0xbd7f7848	-0.06237057
35	0xbd5f1e4a	-0.054472245
36	0x3c76ec45	0.0150709795
37	0x3d66eb9e	0.056377046
38	0xbd2270c6	-0.03965833
39	0xbc16bedf	-0.009200781
40	0xbe0d8c85	-0.13823135
41	0xbe2fb77e	-0.1715984
42	0x3e09b94b	0.1344959
43	0x3bde1820	0.0067777783
44	0xbd29aa07	-0.041421916
45	0xbc8f8758	-0.017520592
46	0xbcdd83a6	-0.027040314
47	0xbd4036c7	-0.04692724
48	0xbe147bc6	-0.14500341
49	0xbcf9495f	-0.030430494
50	0x3e14c03f	0.14526461
51	0xbd5564fc	-0.05209826
52	0x3deecb6a	0.11659892
53	0xbe2ceaf5	-0.16886504
54	0xbda45029	-0.08023102
55	0x3d325560	0.04353845
56	0x3b7346fe	0.0037121172
57	0xbdf6d37a	-0.12052055
58	0xbe68c281	-0.22730447
59	0xbeaf0d1a	-0.34189683
60	0xbc5e465e	-0.0135665815
61	0xbe242fa3	-0.16033797
62	0xbd87312d	-0.066011764
63	0xbd965f21	-0.07342363
64	0xbd4fd9f4	-0.050744966
65	0xbd39f96f	-0.045403894
66	0x3d9bc192	0.0760528
67	0xbe141657	-0.14461647
68	0xbe03e391	-0.12879778
69	0x3da7066f	0.08155524
70	0xbe1bb8a2	-0.1520715
71	0x3d4d8c0f	0.0501824
72	0xbd3eac61	-0.046551112
73	0x3d2430a3	0.040085446
74	0x3d1544d3	0.03644259
75	0x3d911a4d	0.070850946
76	0x3d81a67e	0.06330584
77	0x3ce942b8	0.028474197
78	0xbe63d44f	-0.22248958
79	0xbd27e573	-0.040990304
80	0x3dce4a1e	0.100727305
81	0x3e24d7ad	0.16097899
82	0x3e7cf845	0.24704082
83	0xbd83a6f3	-0.064283274
84	0x3c89ebc0	0.016836047
85	0x3d484ae7	0.048899557
86	0xbe403480	-0.18770027
87	0xbd949fcf	-0.072570436
88	0x3e2cbc1f	0.16868638
89	0x3dfdf8a2	0.124009386
90	0xbe041aec	-0.12900895
91	0xbd9e4364	-0.077276975
92	0xbd2fa8e8	-0.04288569
93	0x3c1e862f	0.009675547
94	0xbe26462e	-0.16237709
95	0xbd7f3970	-0.062310636
96	0x3d873667	0.06602173
97	0xbd9d04bf	-0.07666921
98	0xbd998466	-0.07495956
99	0x3e9f0891	0.31061223
100	0xbd91b641	-0.0711484
101	0x3d859cb3	0.06524029
102	0x3c90c046	0.017669808
103	0xbd88c357	-0.06677883
104	0xbdf55eb9	-0.119809575
105	0xbd97e834	-0.07417336
106	0xbdce1e83	-0.100644134
107	0x3e795249	0.24347796
108	0xbcc55e6d	-0.024092877
109	0xbdd7adfd	-0.105312325
110	0x3e2cab85	0.16862305
111	0xbda26468	-0.07929307
112	0x3ddd467f	0.10804462
113	0x3e03ca5d	0.12870164
114	0xbe03d249	-0.12873186
115	0x3e2f6645	0.17128856
116	0xbc4f355f	-0.012647002
117	0xbe57c2fb	-0.21070473
118	0xbe04db08	-0.12974179
119	0xbdaf3949	-0.08555848
120	0x3d8a90cc	0.06765899
121	0xbe2fcbf8	-0.17167652
122	0xbeaf0656	-0.3418452
123	0xbda3f0f1	-0.0800494
124	0xbe9df9fb	-0.30854782
125	0xbe07341c	-0.13203472
126	0xbd10eb3c	-0.035380587
127	0xbdf09dff	-0.11748885
128	0x3d1957fe	0.03743743
129	0x3c9cbacd	0.019132042
130	0x3ea388fb	0.31940445
131	0x3e2aa1cf	0.16663288
132	0xbd8b9403	-0.0681534
133	0xbd9c1ba7	-0.07622462
134	0xbe6a7f81	-0.22900201
135	0x3e1cd333	0.15314941
136	0x3e09fa9b	0.13474505
137	0x3eb31acd	0.34981385
138	0x3ddbb2c6	0.10727458
139	0x3de2d7db	0.110763274
140	0x3e5582c8	0.2085067
141	0x3e6c2b49	0.23063387
142	0x3e881171	0.26575807
143	0x3e675c75	0.22593863
144	0x3e42d6c1	0.19027235
145	0x3ead5dc2	0.33860594
146	0x3e97931c	0.29604423
147	0x3e98caed	0.2984232
148	0x3e4da8ec	0.2008397
149	0x3ebcfa33	0.36909637
150	0x3b9d58fe	0.0048018685
151	0x3e2182c2	0.15772536
152	0x3e6cfe4b	0.2314388
153	0x3e394655	0.18093236
154	0x3de81bc0	0.11333418
155	0x3ea91ef0	0.33031416
156	0x3e320a8c	0.17386836
157	0xbdd2b2f3	-0.10288038
158	0xbca2622f	-0.019822208
159	0x3db7cb2f	0.08974301
160	0x3e523b17	0.20530353
161	0x3e2d6d64	0.1693626
162	0x3dcf588d	0.101243116
163	0x3e7e7dd9	0.24852695
164	0x3ea69f21	0.3254328
165	0x3e032646	0.12807569
166	0xbda94094	-0.082642704
167	0xbd181fde	-0.037139766
168	0xbde96e89	-0.11398036
169	0x3de08a74	0.10963908
170	0xbd09639d	-0.033542264
171	0x3e309750	0.17245221
172	0x3e36e6ee	0.1786153
173	0x3e5577e0	0.2084651
174	0xbe09399e	-0.13400885
175	0xbd663421	-0.056202058
176	0xbc5da573	-0.013528216
177	0x3e072f5a	0.13201657
178	0xbd87cbba	-0.06630655
179	0x3ea20fbc	0.3165263
180	0xbd3e418e	-0.046449237
181	0xbd0900d1	-0.033448044
182	0xbe3f3082	-0.18670848
183	0x3e5c6125	0.21521433
184	0xbd7bc0cb	-0.06146316
185	0xbe7b514d	-0.24542733
186	0xbdf2aa94	-0.118489414
187	0xbbdd86cf	-0.006760455
188	0xbd96f0e2	-0.073701635
189	0x3d9123a9	0.0708688
190	0x3dd973c6	0.10617785
191	0xbdb73932	-0.08946456
192	0x3e6605c9	0.22463144
193	0xbde4b272	-0.11166848
194	0x3e26ec98	0.16301191
195	0x3e3c15e9	0.18367733
196	0x3e134718	0.14382589
197	0xbe070ed3	-0.13189249
198	0xbd80c984	-0.06288436
199	0x3d622abd	0.05521654
200	0xbdbf9eec	-0.09356484
201	0x3d029aba	0.03188584
202	0xbdd88bac	-0.10573515
203	0x3e364f78	0.17803752
204	0x3d1152fd	0.035479534
205	0xbe1819fe	-0.14853665
206	0x3e84b641	0.259203
207	0x3ebbcc6e	0.36679405
208	0x3c91526b	0.017739495
209	0xbe1f4f03	-0.15557484
210	0xbe5b6641	-0.21425726
211	0xbdf07d2b	-0.11742624
212	0xbd4f6114	-0.05062969
213	0x3cf168c0	0.029468894
214	0x3dd5e18a	0.10443409
215	0xbd871867	-0.06596451
216	0x3e875fcb	0.26440272
217	0xbe05697f	-0.13028525
218	0xbd0c9326	-0.03432002
219	0xbcf30f57	-0.0296704
220	0xbdbb7385	-0.09152893
221	0xbe6bb4ed	-0.23018236
222	0xbe2be1a4	-0.16785294
223	0xbe7f6239	-0.24939813
224	0x3d34636b	0.044040125
225	0x3dfa6230	0.12225759
226	0x3ce0c9f6	0.027440052
227	0x3e4c6f9f	0.19964455
228	0xbda55dde	-0.08074544
229	0xbda5f236	-0.08102839
230	0xbdd14303	-0.102178596
231	0x3b2e97ef	0.0026640852
232	0x3dd8c094	0.10583606
233	0xbc8eff75	-0.017455796
234	0xbdc00374	-0.09375659
235	0x3dc956a8	0.098309815
236	0x3e0613d8	0.13093507
237	0xbe09f45c	-0.13472122
238	0xbe18aa77	-0.14908777
239	0xbb8b6185	-0.0042535686
240	0x3e5b58b2	0.21420553
241	0xbc1435e7	-0.009046054
242	0xbd438f5f	-0.04774415
243	0xbe9448a6	-0.28961676
244	0x3dd48996	0.10377805
245	0x3dfd25aa	0.123606995
246	0xbce40833	-0.027835941
247	0x3e009e07	0.12560283
248	0xbdac3d84	-0.08410171
249	0xbd138da7	-0.036023762
250	0xbe8036c5	-0.25041786
251	0xbe45e7de	-0.19326732
252	0x39cb7f45	0.00038814
253	0xbca9e3c9	-0.0207385
254	0xbe5e60c0	-0.21716595
255	0x3e32169b	0.17391436

bias f4 [32]
0	0xbc0afaa0	-0.008482605
1	0xbb4ac4a0	-0.0030939952
2	0xbb8f8260	-0.0043795556
3	0xbaf066bf	-0.0018341168
4	0xbc1e9d9e	-0.009681134
5	0xbc00c634	-0.007859755
6	0xba68a3c0	-0.00088744983
7	0xbaad3e6c	-0.0013217456
8	0xbb0114cf	-0.001969624
9	0x3d047e7e	0.032347195
10	0xbbb0ed85	-0.0053994083
11	0xbb3afc8e	-0.0028531882
12	0xbc195c7a	-0.009360427
13	0xbc31e4b9	-0.010857754
14	0xba02a239	-0.00049832795
15	0x3bb08468	0.005386878
16	0xbb798950	-0.003807623
17	0xbb7f4c6c	-0.0038955463
18	0xbc28321c	-0.010265853
19	0xbc58c050	-0.013229445
20	0xbcb5c6d7	-0.02218954
21	0xbc2630cd	-0.010143471
22	0x3c82be2d	0.015959824
23	0xbba5dd7c	-0.0050618034
24	0xbb6c623f	-0.0036069301
25	0xbbaa59c0	-0.0051986873
26	0x3cf32505	0.029680738
27	0xbbecaff5	-0.007223124
28	0x3d439cf5	0.047757108
29	0xbcd1b21a	-0.02559762
30	0xbc3597ea	-0.011083582
31	0xbc1c544f	-0.009541585

weight f4 [64, 32, 4, 4]
0	0x3c74158b	0.014897714
1	0x3e0b6e3b	0.13616268
2	0x3b1e0d22	0.0024116714
3	0xbe64f448	-0.22358811
4	0xbbb5ecc8	-0.005551908
5	0x3e03b3ec	0.12861603
6	0xbc9e12b8	-0.019296035
7	0x3de2c060	0.11071849
8	0x3dc45b46	0.095877215
9	0x3af72289	0.0018854897
10	0x3d2643cd	0.040592004
11	0x3d8388b0	0.064225554
12	0x3e16f2e7	0.14741097
13	0xbd1a84cb	-0.037724297
14	0x3ca487ab	0.020084223
15	0xbdeddab3	-0.11613979
16	0xbd8fc23c	-0.07019469
17	0xbccd3e92	-0.02505425
18	0xbe70f8c1	-0.23532392
19	0xbc8ef9f8	-0.017453179
20	0x3c15feee	0.009155018
21	0x3ca01b42	0.019544248
22	0x3dc27c48	0.09496361
23	0x3d2392c3	0.039934885
24	0x3dded21d	0.1087992
25	0x3de725ef	0.11286532
26	0xbd298f5a	-0.041396476
27	0xbd4ac28a	-0.049501933
28	0x39d97388	0.00041475543
29	0x3d29d9ab	0.04146735
30	0x3d677b3c	0.05651401
31	0xbc8d4e96	-0.017249387
32	0xbe271780	-0.16317558
33	0x3c39e84d	0.011346889
34	0x3df1fc81	0.118157394
35	0xbd1b4ede	-0.03791701
36	0x3d42a54b	0.047520917
37	0xbd73fe43	-0.059568655
38	0xbdb609f4	-0.08888617
39	0x3cc86186	0.024460565
40	0xbdc557c2	-0.09635879
41	0xbd8029fe	-0.062580094
42	0xbccbf347	-0.024896277
43	0xbd2614c8	-0.040547162
44	0x3e80e0f5	0.2517163
45	0x3e0f9db6	0.14025006
46	0x3d30fa04	0.043207183
47	0x3daf5c70	0.08562553
48	0x3d3e88c8	0.046517164
49	0xbde215ba	-0.110393
50	0xbe3e58bf	-0.18588541
51	0xbe01b8a8	-0.12668097
52	0x3c83213f	0.016007064
53	0xbd42b716	-0.047537886
54	0x3cfb8516	0.030703109
55	0x3d78b4e7	0.060719397
56	0x3bca235b	0.0061687655
57	0x3e2d7479	0.16938962
58	0x3d699089	0.057022605
59	0x3d0de1cd	0.03463917
60	0x3e64b56a	0.22334829
61	0x3d8e111b	0.06936856
62	0xbd7a4157	-0.06109747
63	0x3ce8e2f9	0.028428541
64	0xbd8e6ec6	-0.06954722
65	0x3cbd1129	0.023079472
66	0xbe4c4c9d	-0.199511
67	0xbe016115	-0.1263469
68	0x3bd947a7	0.006630856
69	0xbce90d3f	-0.028448699
70	0x3cf212cb	0.029549977
71	0x3cc27379	0.023736702
72	0x3dfe43e4	0.12415293
73	0x3dd183cc	0.102302164
74	0x3d5b129e	0.05348455
75	0x3cc26479	0.02372955
76	0x3e088a59	0.13334025
77	0x3dce48b7	0.10072463
78	0xbdf740be	-0.120728955
79	0xbe11822b	-0.14209811
80	0x3c0a2f2e	0.0084341
81	0x3c09d904	0.008413557
82	0xbd5eb3a7	-0.05437055
83	0xbc348a21	-0.011019261
84	0x3ca6b094	0.02034787
85	0x3d09622b	0.033540886
86	0x3d897b4a	0.06712969
87	0x3de13e1d	0.10998175
88	0xbd86e4c1	-0.065866
89	0x3da08aa0	0.078389406
90	0xbe41d2de	-0.18928096
91	0x3e15d6bf	0.146327
92	0xbd031e17	-0.032011118
93	0x3d20196f	0.039086755
94	0xbd6b1e16	-0.05740174
95	0x3d5391ca	0.051652707
96	0x3d285b6d	0.041102815
97	0x3cad1539	0.021128284
98	0xbdeb500f	-0.11489879
99	0xbd7eee3f	-0.062238928
100	0xbc9cbcb5	-0.019132951
101	0x3ce5a34b	0.028031966
102	0xbddd4080	-0.10803318
103	0x3d9ab228	0.07553512
104	0xbca66022	-0.020309512
105	0x3d170009	0.036865268
106	0xbe0ddb0e	-0.13853094
107	0x3d9a74cd	0.07541809
108	0xbde2017a	-0.11035438
109	0xbd07b3d7	-0.033130493
110	0x3dbc059f	0.0918076
111	0x3dbcba13	0.09215178
112	0x3d46bb0c	0.048518226
113	0xbdb49738	-0.08817905
114	0xbd27a57e	-0.04092931
115	0xbd24353b	-0.040089827
116	0x3e38bda9	0.180411
117	0x3e3100da	0.17285481
118	0x3d97640e	0.07392131
119	0xbd3917cf	-0.04518872
120	0x3d8ff46e	0.07029043
121	0x3d84e3a8	0.064887345
122	0x3dd0a549	0.10187776
123	0x3d6de74e	0.058081917
124	0x3d9adeb7	0.07562011
125	0x3df67248	0.12033516
126	0xbe05c650	-0.13063931
127	0xbd200a37	-0.03907224
128	0x3cea408b	0.02859523
129	0xbc80e439	-0.015733825
130	0x3cdb3ab4	0.02676139
131	0x3ad5430c	0.0016270592
132	0x3e447b9b	0.19187777
133	0x3ce2c6ff	0.02768278
134	0xbd48da58	-0.049036354
135	0x3e0fae04	0.14031225
136	0xbcc99f54	-0.024612106
137	0xbd9617e7	-0.07328778
138	0xbe24cce6	-0.16093788
139	0x3d9cdfd7	0.076598816
140	0xbe4832ef	-0.1955068
141	0xbd0ec416	-0.03485497
142	0x3da722db	0.08160945
143	0xbce37a63	-0.02776832
144	0x3deb5755	0.11491267
145	0x3d400da0	0.046887994
146	0xbe15727a	-0.1459445
147	0xbdfa0865	-0.122086324
148	0x3dbef306	0.09323697
149	0x3e112772	0.14175203
150	0x3c2834de	0.010266511
151	0x3c3bde23	0.011466536
152	0x3c6b7491	0.014371053
153	0x3dd4300a	0.10360725
154	0xbd229519	-0.03969297
155	0x3b823eda	0.0039747776
156	0xbd24bf5c	-0.040221557
157	0xbc92fab9	-0.01794182
158	0xbdf51dd9	-0.119685836
159	0xbe07f7bf	-0.13278101
160	0xbcb5250a	-0.022112388
161	0xbd4308d3	-0.047615837
162	0xbc4402d0	-0.011963561
163	0xbd6d3b67	-0.05791798
164	0xbd97b4dd	-0.07407544
165	0xbc88acb7	-0.01668392
166	0xbe49f402	-0.19721988
167	0xbd68c6c0	-0.056830168
168	0x3e3649fe	0.17801663
169	0x3db43d88	0.08800799
170	0xbd814926	-0.0631278
171	0xbd4ab7ee	-0.049491815
172	0x3e154f2d	0.14580984
173	0x3d04921f	0.032365914
174	0x3e16bf13	0.14721327
175	0x3d59ac6d	0.053142954
176	0xbe466b76	-0.1937693
177	0xbdda3ec3	-0.10656502
178	0x3c244987	0.010027296
179	0xbd230176	-0.039796315
180	0xbcb83f39	-0.022491084
181	0xbdbc6f40	-0.09200907
182	0x3db31a4d	0.08745251
183	0xbda08b46	-0.07839064
184	0x3d74408c	0.05963187
185	0xbdf19d80	-0.11797619
186	0xbc9a1851	-0.018810423
187	0xbbd5c3b1	-0.0065235724
188	0xbd646eae	-0.055769615
189	0xbc568372	-0.013092862
190	0x3dacb1e4	0.084323674
191	0xbbeacb8e	-0.007165379
192	0xbd80660c	-0.06269464
193	0xbd2e6736	-0.0425789
194	0xbe2f8439	-0.17140283
195	0x3cbe5624	0.023234434
196	0x3e31641e	0.17323348
197	0x363bd20a	2.798743e-06
198	0x3d9cd061	0.076569326
199	0xbd39561d	-0.04524814
200	0x3d6bc233	0.05755825
201	0xbda291a2	-0.079379335
202	0xbe1f2881	-0.15542795
203	0x3cce4ec2	0.025184039
204	0x3d946862	0.07246472
205	0x3bdb28ff	0.0066882367
206	0xbd84eb39	-0.06490178
207	0xbdd744e9	-0.105111904
208	0x3dbbc591	0.09168542
209	0xbc942db5	-0.018088201
210	0xbc45b0b9	-0.01206606
211	0x3c121420	0.008915931
212	0x3d83bc9b	0.06432458
213	0x3b9869d4	0.0046512876
214	0xbe205c7c	-0.1566028
215	0x3c9ae0ea	0.018906076
216	0x3d473454	0.04863389
217	0xbd85838d	-0.06519232
218	0x3d06e79c	0.032935724
219	0x3d888125	0.06665257
220	0x3dc487b9	0.095961995
221	0x3de3d6b0	0.11124933
222	0x3d444561	0.047917727
223	0x3d8ff878	0.070298135
224	0xbbd568ba	-0.0065127285
225	0x3c78a61d	0.015176323
226	0xbe013789	-0.12618841
227	0x3d88a49a	0.0667202
228	0xbc99a7bf	-0.018756745
229	0xbbb4273f	-0.0054978426
230	0xbb8f75c7	-0.004378054
231	0x3d7f860c	0.062383696
232	0x3d635fb1	0.05551118
233	0xbdce3a5a	-0.100697234
234	0xbd9559e7	-0.07292538
235	0x3c9cf871	0.019161435
236	0x3e8d5bd7	0.2760913
237	0xbb66438d	-0.0035135478
238	0x3ddaf3b5	0.10691015
239	0xbdb5a581	-0.08869458
240	0x3de676d1	0.11253131
241	0x3d1cbe1e	0.038267247
242	0x3c521b6e	0.012823923
243	0xbd2c77b8	-0.04210636
244	0xbd67cee9	-0.05659381
245	0xbda55778	-0.08073324
246	0xbe498839	-0.19680871
247	0xbcbce4f8	-0.0230584
248	0x3c9424b0	0.0180839
249	0xbd65daf4	-0.056117013
250	0x3d440678	0.04785773
251	0x3d4f77a7	0.05065122
252	0x3e31f26d	0.17377634
253	0xbc9ff59c	-0.019526295
254	0xbd93d8a2	-0.07219054
255	0xbc8fff20	-0.017577708

bias f4 [64]
0	0x3c749570	0.014928207
1	0xbd4a3f8e	-0.049377017
2	0x3c6c2309	0.01441265
3	0xbd1d747b	-0.038441163
4	0x3c6bf96a	0.014402727
5	0x3c8da89c	0.017292313
6	0x3d84d7ae	0.0648645
7	0xbc34bfd9	-0.011032068
8	0xbddf633d	-0.109076
9	0xbd5038bc	-0.050835356
10	0x3dacb394	0.08432689
11	0xbd2504e0	-0.040287852
12	0x3d0e90a6	0.034805916
13	0xbcf256fc	-0.029582493
14	0x3d37dfd6	0.0448912
15	0x3d22e057	0.03976473
16	0xbd947f34	-0.072508246
17	0xbd8c06a7	-0.06837206
18	0xbd89c0d3	-0.067262314
19	0xbb34d233	-0.0027591109
20	0xbda45eaf	-0.08025872
21	0x3c2a1f90	0.010383502
22	0xbc319fca	-0.010841319
23	0x3cd312ab	0.025765738
24	0xbd8fcda5	-0.070216455
25	0x3ceac89c	0.028660111
26	0x3da88c17	0.08229845
27	0xbcf8be8b	-0.030364295
28	0xbd785608	-0.06062892
29	0x3d589db3	0.05288477
30	0x3a7c8d90	0.00096341316
31	0xbcf62901	-0.030048849
32	0x3d17e289	0.037081275
33	0xbdaa325e	-0.08310388
34	0xbc10c39e	-0.008835701
35	0xbd6a7cf2	-0.057248063
36	0xbd0443f1	-0.032291356
37	0xbc87b6bc	-0.016566627
38	0xbd31c48e	-0.04340034
39	0xbccf5f57	-0.025314016
40	0xbde8321d	-0.11337683
41	0xbcd3fb2c	-0.025876604
42	0x3ca86816	0.020557445
43	0xbc076261	-0.008263201
44	0xbd6b9239	-0.057512496
45	0xbc9fb237	-0.01949416
46	0x3d2898fe	0.04116153
47	0xbca05e44	-0.0195762
48	0xbd7ea674	-0.06217046
49	0x3d9fe105	0.07806591
50	0x3c8e08a7	0.01733811
51	0x3d0d733d	0.034533728
52	0xba4e2cd4	-0.0007864956
53	0xbd942c94	-0.07235065
54	0x3c43cd1a	0.0119507555
55	0xbccc5e67	-0.024947358
56	0x3da6647b	0.08124634
57	0xbc04ba4b	-0.008101056
58	0xbc2c844d	-0.01052959
59	0xbd21e992	-0.03952939
60	0x3daa77b9	0.083236165
61	0xbd1acce4	-0.037793055
62	0x3d676699	0.05649433
63	0x3c2b485e	0.010454265

weight f4 [64, 64, 3, 3]
0	0xbdaf8f87	-0.085722975
1	0x3d91ecad	0.071252204
2	0x3cdc00c0	0.026855826
3	0xbdb16c16	-0.08663194
4	0x3d1ff461	0.039051417
5	0x3dc49a38	0.095997274
6	0xbdcd5008	-0.100250304
7	0x3b2f3158	0.0026732292
8	0x3cd70f1b	0.02625232
9	0xbc7d7a17	-0.015471003
10	0x3d68388f	0.056694563
11	0xbe17c88b	-0.14822595
12	0xbd8c16dc	-0.068402976
13	0xbcf4dbb0	-0.029889911
14	0xbdaf6167	-0.085635
15	0xbca8ca34	-0.02060423
16	0x3d333ef1	0.043761197
17	0xbd239880	-0.039940357
18	0x3c97ce3b	0.018530956
19	0x3d99eb4f	0.07515585
20	0x3d416966	0.047219656
21	0xbdfbecdf	-0.12301039
22	0xbdabcd4d	-0.083887674
23	0xbe029104	-0.12750632
24	0x3d9f9258	0.07791585
25	0x3dc245eb	0.09485992
26	0x3cad6197	0.021164699
27	0x3cec00b3	0.028808927
28	0x3d3fdcc9	0.046841417
29	0xbd286f2b	-0.041121643
30	0xbddb8ccc	-0.10720214
31	0xbd4e7980	-0.05040884
32	0xbd3538f7	-0.04424378
33	0x3d93469f	0.07191204
34	0x3dd7e9c7	0.10542636
35	0x3be4a925	0.0069781714
36	0xbd5f1529	-0.05446354
37	0x3d92f82d	0.07176242
38	0xbd331019	-0.043716524
39	0xbc53bdfe	-0.012923716
40	0xbda50770	-0.08058059
41	0xbd770e8f	-0.06031662
42	0x3d9e2e95	0.077237286
43	0xbc865e42	-0.016402368
44	0x3d576f80	0.05259657
45	0xbdc14849	-0.094376154
46	0xbd9ed447	-0.077553324
47	0xbdd60c52	-0.10451569
48	0x3ce25dca	0.027632613
49	0xbd90dd21	-0.07073427
50	0xbdb2c3b0	-0.08728731
51	0x3decbdf5	0.11559669
52	0x3d877c3b	0.06615492
53	0xbcb5629a	-0.022141743
54	0x3cf7b19d	0.03023606
55	0x3db78788	0.089613974
56	0x3c7c04ed	0.015382034
57	0xbdec58b3	-0.115403555
58	0xbcc29d01	-0.023756506
59	0x3cf13598	0.0294445
60	0x3d547b43	0.051875364
61	0x3e023dc8	0.1271888
62	0x3e3efd09	0.18651213
63	0x388f9ac5	6.8475994e-05
64	0xbd7e3cf7	-0.06206986
65	0xbd5a42b1	-0.053286258
66	0xbd745d3a	-0.05965922
67	0x3e275517	0.16341053
68	0x3d58bcd8	0.05291447
69	0xbd2c7803	-0.04210664
70	0xbdec9ff3	-0.115539454
71	0x3ce134ae	0.02749094
72	0xbe4533d8	-0.19258058
73	0xbc24f21e	-0.010067491
74	0xbdbb63ba	-0.09149881
75	0xbd9aceef	-0.07559001
76	0x3cd803d2	0.02636901
77	0xbe28f5ae	-0.1649997
78	0xbba8250d	-0.00513137
79	0xbd37814f	-0.044801053
80	0x3d03376d	0.03203528
81	0xbe65e8eb	-0.22452132
82	0x3e01e729	0.12685837
83	0xbd1e6182	-0.03866721
84	0x3dc7f551	0.09763587
85	0x3d541fda	0.05178819
86	0x3d14ba72	0.03631062
87	0xbdf12de2	-0.117763296
88	0xbc0ed98a	-0.008718858
89	0x3c7f72ac	0.015591305
90	0xbc7dca60	-0.0154901445
91	0x3dc80594	0.09766689
92	0x398163a2	0.0002467903
93	0x39a2165f	0.00030915716
94	0x3c6f6ae6	0.014612889
95	0x3e1232d8	0.14277208
96	0xbdbf9f22	-0.09356524
97	0x3d99559c	0.07487032
98	0x3e08d304	0.13361746
99	0xbe11042c	-0.14161748
100	0x3d623432	0.05522556
101	0x3b751563	0.003739678
102	0xbdcfa7b7	-0.10139411
103	0xbde6a1dd	-0.11261342
104	0xbe120b28	-0.14262068
105	0xbe2b1db3	-0.16710548
106	0x3d446e45	0.047956724
107	0xbca57452	-0.020197067
108	0xbc928aa8	-0.017888382
109	0xbd276156	-0.04086431
110	0x3d797023	0.060897958
111	0xbdae7f63	-0.08520391
112	0x3db189b8	0.08668846
113	0x3d5c8ce4	0.0538453
114	0x3b6920c5	0.003557251
115	0xbc15320e	-0.009106172
116	0x3d4b22d2	0.049593754
117	0xbd47714f	-0.048692044
118	0xbdf3f683	-0.11912253
119	0xbe011b79	-0.12608136
120	0x3b2ae95e	0.002607904
121	0x3d28c1f9	0.04120061
122	0x3d1cfc12	0.03832633
123	0xbdaf84bb	-0.08570238
124	0xbd235f05	-0.03988554
125	0xbd4bd1a0	-0.04976046
126	0xbc9e6e21	-0.019339623
127	0x3c89a8c8	0.016804114
128	0xbda61158	-0.08108777
129	0xbd644c29	-0.055736694
130	0xbb925906	-0.004466179
131	0xbdd634c2	-0.104592815
132	0xbca59bc4	-0.020215876
133	0x3ace10b2	0.0015721528
134	0xbd8e8e09	-0.06960685
135	0xbb2b0af4	-0.0026099058
136	0x3d9ba60a	0.07600029
137	0xbc297b93	-0.010344404
138	0xbcae0cb5	-0.021246294
139	0xbda67ebc	-0.081296414
140	0x3cfd38e1	0.030910911
141	0xbd80112a	-0.06253274
142	0x3da71c54	0.081597
143	0xbe4d8ca9	-0.20073189
144	0xbcb72aef	-0.02235934
145	0xbe20ad09	-0.15691008
146	0xbe0968b9	-0.13418855
147	0xbe0d2f7c	-0.13787645
148	0xbcdfca74	-0.027318217
149	0x3d159063	0.03651465
150	0xbd9e7c76	-0.07738583
151	0xbbdcc006	-0.006736758
152	0xbb610a57	-0.0034338438
153	0xbd8eea5c	-0.06978294
154	0x3d17b058	0.03703341
155	0xbc7ea6f5	-0.015542735
156	0xbdb0c5ce	-0.08631478
157	0x3c921a3b	0.017834773
158	0xbc31c90f	-0.010851159
159	0xbdfd32a8	-0.123631775
160	0x3d02d597	0.031941976
161	0xbbb5eaae	-0.0055516576
162	0x3dd9a884	0.10627845
163	0x3c9ca31c	0.019120745
164	0xbde29a7c	-0.11064622
165	0xbcc69f51	-0.02424589
166	0x3e1406a4	0.14455658
167	0x3d74ce2c	0.059766933
168	0xbdbf3a1e	-0.09337257
169	0xbc980aab	-0.018559774
170	0xbc0c33d3	-0.008557278
171	0xbdcfd7af	-0.1014856
172	0xbd2ecc9f	-0.04267561
173	0xba45aedb	-0.0007541009
174	0x3b0be760	0.0021347627
175	0xbd70211c	-0.058625326
176	0x3d5f0436	0.054447375
177	0x3c9eecbb	0.019399991
178	0x3d28fbe5	0.04125585
179	0x3e07b6ca	0.13253322
180	0xbd82340c	-0.063575834
181	0xbc36865f	-0.011140435
182	0xbc4ea0f7	-0.012611619
183	0x3df3732d	0.118872024
184	0xbd7b765b	-0.06139217
185	0xbddf18f9	-0.10893435
186	0x3cfb8840	0.030704618
187	0xbd0aa35f	-0.03384721
188	0xbcf2d45d	-0.029642278
189	0x3dc5463c	0.09632537
190	0xbc938a92	-0.018010411
191	0x3bbc280c	0.0057420786
192	0xbd27b3c9	-0.04094294
193	0xbde238e2	-0.11046006
194	0x3d6f067b	0.05835579
195	0x3e4e79d1	0.20163657
196	0x3c4e3d9d	0.012587932
197	0x3d6edad9	0.05831418
198	0xbdfaf2f1	-0.12253369
199	0xbdcd7477	-0.100319795
200	0xbdd0e780	-0.10200405
201	0xbdad9ed6	-0.08477561
202	0x3d969189	0.073519774
203	0xbd0ac1cc	-0.033876225
204	0x3d657408	0.05601886
205	0x3c9116cb	0.017711064
206	0x3e20225a	0.15638104
207	0xbcb69885	-0.022289524
208	0xbc1af7a2	-0.009458454
209	0xbe648fc4	-0.22320467
210	0x3cd0d317	0.02549128
211	0xbdaf4f5d	-0.08560059
212	0x3cca4a44	0.024693616
213	0xbdbf935a	-0.09354277
214	0x3afb79b3	0.001918605
215	0x39908c62	0.00027570414
216	0xbdab2f5a	-0.08358641
217	0x3cbba30c	0.022904895
218	0xbe32eb0c	-0.17472476
219	0x3b5aa882	0.0033364599
220	0xbdc095e5	-0.0940359
221	0x3c383399	0.011242771
222	0xbde20172	-0.11035432
223	0xbc244de7	-0.010028339
224	0xbbea2540	-0.007145554
225	0xbc5c35c3	-0.013440552
226	0xbcbb1098	-0.022835061
227	0xbc6cf7e3	-0.014463398
228	0xbd6c7e90	-0.057737887
229	0x3d82faab	0.06395467
230	0xbd898d02	-0.06716348
231	0x3cbbf649	0.022944586
232	0xbd8aa07b	-0.067688905
233	0x3d9c501a	0.07632466
234	0x3d3a8d7c	0.045545086
235	0x3d6391a8	0.05555883
236	0xbd973a0b	-0.07384118
237	0x3dcba1ac	0.09942946
238	0x3d548e0b	0.051893275
239	0x3d629703	0.055319797
240	0x3d1ab6d7	0.037772026
241	0x3dff528d	0.12466917
242	0x3e4ce43d	0.20008941
243	0x3cb118a8	0.021618202
244	0xbd5e384b	-0.054252904
245	0x3bf37c63	0.0074305995
246	0xbdbab824	-0.09117153
247	0x3daf892e	0.08571087
248	0xbc4cb573	-0.012494433
249	0xbe1a83f7	-0.15089403
250	0xbde2a8a4	-0.11067322
251	0xbd94c02d	-0.07263217
252	0xbd45b49e	-0.048267953
253	0xbe3451e2	-0.17609361
254	0xbd9f4904	-0.077775985
255	0xbcf64782	-0.030063394

bias f4 [64]
0	0x3d69bd30	0.05706519
1	0x3c50429b	0.0127111925
2	0x3d42a510	0.047520697
3	0x3c512b2e	0.0127666425
4	0x3ae4d2bf	0.0017457827
5	0x3db1ab12	0.08675207
6	0xbd1a81cf	-0.03772145
7	0x3cffea75	0.031239728
8	0x3d3ae10c	0.045624778
9	0xbc0fc871	-0.008775816
10	0x3d8b1c58	0.067925155
11	0x3db65eed	0.089048244
12	0x3df758d5	0.1207749
13	0x3d351064	0.044205084
14	0x3c67da5d	0.014151183
15	0xbc7d8ff3	-0.015476215
16	0x3d1f7c71	0.038937036
17	0x3c898ffc	0.01679229
18	0xbd4cefd1	-0.050033394
19	0xbc7b83e5	-0.01535127
20	0x3d7cc896	0.06171473
21	0xbcc824d3	-0.024431622
22	0x3d522b49	0.05131081
23	0x3d956dbf	0.07296323
24	0x3d94de1b	0.07268926
25	0xbd176aff	-0.036967274
26	0x3c9f36de	0.019435342
27	0xbd24c101	-0.040223125
28	0xbd6fa412	-0.05850608
29	0x3d94f38e	0.07273017
30	0xbcdd3fe6	-0.027008008
31	0x3d4bb0a8	0.04972902
32	0xbc6db88e	-0.014509333
33	0x3c0d9a46	0.008642739
34	0x3d753d24	0.05987276
35	0x3d594298	0.053042024
36	0xbc519afa	-0.012793297
37	0x3cf03a21	0.029324593
38	0xbd280d79	-0.041028474
39	0x3d922e60	0.071377516
40	0x3d9db759	0.077009864
41	0xbc3fea7b	-0.011713619
42	0x3d4b839b	0.049686056
43	0x3b4088fb	0.0029378522
44	0x3d365622	0.044515736
45	0xbd8ec800	-0.06971741
46	0x3b026946	0.0019899174
47	0x3cb64ad1	0.022252472
48	0x3c40fc2f	0.011778875
49	0xbced6269	-0.02897759
50	0xbddc0f23	-0.107450746
51	0xbcc273c3	-0.02373684
52	0xbcf73f4d	-0.030181551
53	0x3ca3e5b3	0.02000699
54	0xbdae399e	-0.08507083
55	0x3d5c445f	0.05377614
56	0xbda5b828	-0.08091766
57	0x3c236472	0.0099726785
58	0x3ddf7fab	0.109130226
59	0xbdb14fbc	-0.08657786
60	0x3d59226f	0.053011354
61	0x3d0cdaf6	0.034388505
62	0x3d12d5af	0.035848316
63	0x3dc1d472	0.09464349

weight f4 [128, 1024]
0	0xbca1a36a	-0.019731242
1	0xbddae3ea	-0.106880024
2	0x3d40a88d	0.047035743
3	0x3db94faa	0.09048398
4	0x3a3e0155	0.00072481233
5	0x3d48e29b	0.049044233
6	0xbd22f89d	-0.039787877
7	0x3d273328	0.04082027
8	0xbb659530	-0.003503155
9	0xbbb644be	-0.005562394
10	0x3ded44fb	0.115854226
11	0xbd602f37	-0.054732528
12	0xbdca3e16	-0.09875123
13	0x3db374a6	0.08762483
14	0xbbbbf341	-0.0057357852
15	0xbc5cb2b8	-0.013470344
16	0xbe0b1163	-0.13580851
17	0xbd9e58c5	-0.07731775
18	0x3dbb5ef3	0.091489695
19	0x3c137825	0.009000813
20	0x3cec274f	0.028827338
21	0x3bce0fb1	0.0062884917
22	0x3da64a97	0.08119696
23	0xbc71befd	-0.014755008
24	0xbd6f97d2	-0.058494397
25	0xbd412eaa	-0.047163643
26	0xbd205407	-0.039142635
27	0x3da4969e	0.080365404
28	0x3db01bf2	0.0859908
29	0xbde02c57	-0.10945957
30	0xbd49ebe3	-0.049297225
31	0x3ae3e374	0.0017386512
32	0x3e002383	0.12513547
33	0xbd4c8e14	-0.049940184
34	0x3c63a143	0.013893428
35	0x3db66ebe	0.08907841
36	0x3c6b725a	0.014370525
37	0x3bec365c	0.0072086286
38	0xbd256a85	-0.040384788
39	0xbd83d77c	-0.06437585
40	0x3dd27726	0.10276632
41	0xbc8085b0	-0.015688747
42	0xbd7684c1	-0.060185198
43	0x3d91c046	0.071167514
44	0x3db078bf	0.086167805
45	0xbd65cbd4	-0.05610259
46	0x3db1c68b	0.08680447
47	0x3c82a9b2	0.015950058
48	0xbd8daada	-0.06917353
49	0xbd5e2833	-0.054237556
50	0x3dcf8d2c	0.10134348
51	0x3e308692	0.17238835
52	0xbaddfd25	-0.0016936405
53	0xbe8311f7	-0.25599644
54	0xbd885e14	-0.06658569
55	0xbb9acb6d	-0.0047239573
56	0x3d015899	0.031578634
57	0xbd861bde	-0.06548284
58	0x3c354608	0.01106406
59	0x3cd9267d	0.02650761
60	0x3e36c3ae	0.17848083
61	0x3868cc91	5.5503628e-05
62	0x3dae9d84	0.085261375
63	0xbe0408c6	-0.12893972
64	0xbe075bd7	-0.13218628
65	0xbd8dfb69	-0.06932718
66	0xbdef786c	-0.116928905
67	0x3d69311e	0.056931607
68	0xbd62adbe	-0.055341475
69	0x3c1843c3	0.009293499
70	0x3dd1a15f	0.10235857
71	0x3d3706f3	0.04468436
72	0x3cdbc423	0.026826924
73	0xbc2e4897	-0.010637424
74	0x3dd18592	0.10230555
75	0x3d6ec29e	0.05829107
76	0xbc545bfe	-0.012961386
77	0xbd9bc76b	-0.07606395
78	0x3d5c7f0c	0.0538321
79	0x3b214cbd	0.002461239
80	0xbe02748a	-0.12739769
81	0xbd68644a	-0.056736268
82	0x3c33d5dc	0.010976281
83	0x3dc0d71b	0.09416028
84	0x3de151e7	0.1100195
85	0x3e2cdcb5	0.16881068
86	0x3b995726	0.0046795784
87	0xbdccf5f4	-0.10007849
88	0x3d99138d	0.07474432
89	0xbda91fe6	-0.08258037
90	0xbc0e04a1	-0.008668096
91	0xbc7bc076	-0.0153657105
92	0x3d5225c1	0.051305536
93	0xbd1c244f	-0.038120564
94	0xbd324865	-0.043526072
95	0xbdbb5f3e	-0.091490254
96	0x3dd6c327	0.10486441
97	0xbd94c6c9	-0.07264478
98	0x3c02d328	0.007984914
99	0xbd00f0bd	-0.031479586
100	0x3d7b6ced	0.061383177
101	0xbdb00992	-0.085955754
102	0xbc89955f	-0.016794859
103	0xbd26920b	-0.04066662
104	0x3cb6dbad	0.022321546
105	0xbb06611b	-0.0020504657
106	0xbd5e5cf4	-0.054287866
107	0xbdd698ed	-0.10478387
108	0x3db2bcd3	0.087274216
109	0x3cafad75	0.021445015
110	0xbcadf1e4	-0.021233507
111	0x3cdc4991	0.026890548
112	0xbda9e73c	-0.082960576
113	0xbd00eed5	-0.031477768
114	0xbd81b16a	-0.06332667
115	0x3b88cb12	0.0041745985
116	0x3cf0b900	0.02938509
117	0xbd94539d	-0.072425105
118	0x3c79535b	0.015217627
119	0xbe129ca1	-0.14317562
120	0xbbeafbca	-0.007171129
121	0x3c892e97	0.016745849
122	0xbd4d536f	-0.050128397
123	0xbd396adb	-0.04526792
124	0x3d9d6691	0.076855786
125	0xbdabcb1c	-0.083883494
126	0x3d1f9d90	0.038968623
127	0x3e2c06dd	0.16799493
128	0xbcf365b7	-0.029711587
129	0x3d8f029e	0.06982921
130	0x3d02536b	0.031817835
131	0xbdb7edb6	-0.08980887
132	0xbd4742dc	-0.048647746
133	0x3cdfd0cd	0.027321244
134	0x3b42ba8a	0.0029713237
135	0xbd9180b2	-0.07104625
136	0x3de105b7	0.10987418
137	0x3d8142d8	0.063115776
138	0xbdbc58e2	-0.091966406
139	0x3cc0529d	0.023476893
140	0x3e1f29a3	0.15543227
141	0x3d081a82	0.033228405
142	0xbcc2c758	-0.023776695
143	0xbd60838e	-0.05481296
144	0x3d7e1a76	0.062036954
145	0xbcf6951e	-0.030100401
146	0x3da24d7d	0.07924936
147	0x3d8233f3	0.06357565
148	0x3dd52b49	0.104086466
149	0xbd38bd5b	-0.04510246
150	0xbe15ed10	-0.14641213
151	0x3d44a992	0.048013277
152	0xbc62c4f6	-0.013840904
153	0xbe157369	-0.14594807
154	0xbd43210a	-0.04763893
155	0x3cf36383	0.029710537
156	0xbd8f8328	-0.07007438
157	0xbd903428	-0.07041198
158	0x3c4d26b5	0.0125214355
159	0x3dd0e4d0	0.101998925
160	0xbd8749fb	-0.066059075
161	0xbda7caa4	-0.081929475
162	0xbda4f635	-0.08054773
163	0x3ddf129d	0.10892222
164	0xbdbf56d5	-0.09342734
165	0xbcebcb38	-0.028783426
166	0xbdd62f4c	-0.1045824
167	0xbdc4c754	-0.09608331
168	0x3db506c3	0.0883918
169	0x3d791b7b	0.060817223
170	0xbd532695	-0.051550467
171	0x3dc0f8bd	0.09422443
172	0xbe1681a7	-0.14697896
173	0xbd9ecc82	-0.077538505
174	0xbdda31ab	-0.10654005
175	0x3d8fc0ab	0.070191704
176	0x3da16328	0.07880241
177	0x3d870057	0.06591862
178	0xbcc0ea17	-0.023549123
179	0x3dddbffb	0.10827633
180	0x3d9addcf	0.07561838
181	0x3d0d17c2	0.034446485
182	0x3d9a1999	0.075244136
183	0x3c2d5efb	0.010581727
184	0x3e1a4202	0.15064242
185	0x3ce39035	0.027778724
186	0x3dab2a97	0.08357733
187	0xbcc86768	-0.02446337
188	0x3a70a3aa	0.0009179661
189	0xbe04af2e	-0.12957451
190	0xbdba737e	-0.0910406
191	0xbdad28f5	-0.084550776
192	0xbc46cb79	-0.012133473
193	0x3b8b5963	0.004252599
194	0xbcaafbc0	-0.020871997
195	0xbbd75f5e	-0.006572648
196	0xbd885719	-0.066572376
197	0xbd2996ee	-0.041403703
198	0xbcdb9c14	-0.026807822
199	0x3c21fde5	0.009887193
200	0x3d3b4473	0.045719575
201	0xbd2905e1	-0.041265372
202	0x3c254832	0.0100880135
203	0xbd7eea88	-0.062235385
204	0xba41e8cb	-0.00073970546
205	0xbcac5695	-0.02103738
206	0x3dcaa5c1	0.09894896
207	0xbd496df7	-0.049177136
208	0x3da39736	0.079878256
209	0x3d90f3a5	0.070777215
210	0x3d878933	0.066179655
211	0x3d33c90d	0.04389291
212	0x3d1ab546	0.037770532
213	0x3d0eee24	0.034895077
214	0x3c44c6eb	0.012010316
215	0x3dd00678	0.10157484
216	0x3baf3ee1	0.005348072
217	0x3cb0d2cb	0.021584889
218	0x3d9d7738	0.07688755
219	0x3d956b81	0.07295895
220	0xbe1b5b0e	-0.15171453
221	0xbe094c05	-0.13407905
222	0x3dba4b9f	0.09096455
223	0x3cb78ec0	0.022406936
224	0xbd1ee96c	-0.038796827
225	0xbd7293dc	-0.05922304
226	0xbc3ad019	-0.011402153
227	0x3d09b5ec	0.03362076
228	0x3d04891d	0.032357324
229	0x3d1fbd7c	0.038999066
230	0x3c8417d7	0.016124649
231	0x3e2fcc6e	0.17167827
232	0xbc95e26c	-0.018296443
233	0xbcf50c83	-0.029913193
234	0xbd94826c	-0.072514385
235	0x3de6f8ca	0.112779215
236	0xbe1a586e	-0.15072796
237	0xbe1df822	-0.15426686
238	0x3d89f304	0.06735805
239	0xbd83b0b8	-0.06430191
240	0xbd657906	-0.05602362
241	0x3d70af0b	0.058760684
242	0xbd27bbcf	-0.040950593
243	0x3d95bfb3	0.07311954
244	0x3d2a647a	0.04159973
245	0xbd0dfa0c	-0.03466229
246	0xbd13d461	-0.036091212
247	0xbd89eade	-0.067342505
248	0xbd87f21c	-0.066379756
249	0x3d3ee250	0.046602547
250	0x3d517656	0.051138245
251	0xbdacc5f2	-0.084361926
252	0xbd8c5e38	-0.06853908
253	0xbe0d1390	-0.13776994
254	0xbbcd603a	-0.0062675746
255	0x3e11647a	0.14198485

bias f4 [128]
0	0x3adb9045	0.001675137
1	0xbd815864	-0.06315687
2	0xbcb612f1	-0.022225829
3	0x3c99f4b4	0.018793441
4	0xbcde12de	-0.027108606
5	0x3da302a8	0.07959491
6	0x3d01dc5b	0.031704288
7	0xbc88ad36	-0.016684156
8	0x3ddaf8d5	0.10691992
9	0x3cd7590a	0.026287574
10	0xbd6f8f9f	-0.058486577
11	0xbd9c6c1a	-0.07637806
12	0x3d862abb	0.06551119
13	0xbd7ea7cf	-0.062171753
14	0x3ccab2ea	0.024743516
15	0xbc77016b	-0.015076022
16	0x3d9889db	0.07448169
17	0x3daf257a	0.0855207
18	0xbcbd0d48	-0.023077622
19	0x3d287949	0.04113129
20	0x3c69d206	0.014271265
21	0xbd78465d	-0.06061398
22	0xbdf90bd6	-0.12160461
23	0x3d836be3	0.06417062
24	0xbd0319f6	-0.03200718
25	0xbd80f91a	-0.06297512
26	0x3de9afef	0.1141051
27	0xbd6cdf2e	-0.05783003
28	0xbbaa6a0c	-0.00520063
29	0x3d02769d	0.0318514
30	0x3e27959f	0.1636567
31	0x3cfb5cd1	0.030683907
32	0x3c9d95f8	0.01923655
33	0x3d84e2cd	0.06488571
34	0x3cd10b52	0.025518093
35	0xbceb6396	-0.02873401
36	0x3e1a7589	0.15083899
37	0x3d8a6723	0.06757953
38	0x3e844668	0.25834966
39	0x3d70f110	0.058823645
40	0x3cc32161	0.023819627
41	0x3a963256	0.0011459093
42	0xbafd2b58	-0.0019315286
43	0x3dae9279	0.08524031
44	0xbce48a48	-0.027897969
45	0x3db683f3	0.08911886
46	0xbdc12241	-0.094303615
47	0x3d4c96fb	0.049948674
48	0x3d9105c6	0.07081179
49	0x3cfaf72e	0.030635443
50	0xbd1e9f1e	-0.038725965
51	0x3c0a70d3	0.008449751
52	0x3d00246a	0.031284727
53	0x3cce0a69	0.025151448
54	0xbd4efe55	-0.05053552
55	0x3d72c03a	0.059265353
56	0x3e03096c	0.12796563
57	0xbc99bd86	-0.01876713
58	0xbb845917	-0.0040389406
59	0xbd10e27e	-0.03537225
60	0x3d77b2e8	0.060473353
61	0xbb305b7e	-0.0026910002
62	0xbd23443f	-0.039860006
63	0x3d1dcf1e	0.0385276
64	0x3d623148	0.05522278
65	0x3dd4a1ed	0.103824474
66	0x3dfc70ae	0.123261794
67	0xbd9fba8a	-0.077992514
68	0xbd442ccd	-0.047894288
69	0x3d07d3a7	0.03316083
70	0xb8317121	-4.2305448e-05
71	0xbd40294b	-0.04691438
72	0x3deaefa2	0.114714876
73	0xbd24a217	-0.040193643
74	0xbd14d86c	-0.03633921
75	0xbcdc9bee	-0.026929822
76	0x3cbacc3f	0.02280247
77	0x3e1dd819	0.15414466
78	0x3dad07ec	0.084487766
79	0x3e01f18a	0.12689796
80	0x3d1ed015	0.03877266
81	0x3d4e38e1	0.050347213
82	0xbd96ce65	-0.073635854
83	0x3d47b2a1	0.04875434
84	0x3df525a3	0.11970069
85	0xbd99bdab	-0.075068794
86	0x3c9c330b	0.019067308
87	0x3ce15c84	0.027509935
88	0x3d9453e0	0.072425604
89	0xbce2dd95	-0.02769355
90	0xbc8c0e34	-0.017096616
91	0x3dc77931	0.09739912
92	0xbcdfd1af	-0.027321665
93	0x3db2256c	0.08698544
94	0x3dfa5b10	0.122244
95	0xbd5577fb	-0.052116375
96	0xbcd0dcea	-0.025495965
97	0x3d2a8f4d	0.04164057
98	0x3d07f9ff	0.0331974
99	0x3c2a307e	0.010387538
100	0x3d83e343	0.06439831
101	0x3e63d88d	0.22250576
102	0xbc909e3d	-0.017653579
103	0x3d5693bc	0.052386984
104	0x3c65d154	0.0140269585
105	0xbc56d93a	-0.013113314
106	0xbdbd3527	-0.09238654
107	0x3ce9a6ec	0.028521977
108	0x3e31ab47	0.17350493
109	0x3d9a3f97	0.0753166
110	0x3d915721	0.07096697
111	0x3d8afcd5	0.06786505
112	0xbd2ae57b	-0.041722756
113	0x3d9ad4ec	0.07560143
114	0xbd3dc4a2	-0.0463301
115	0xbd4beff5	-0.049789388
116	0x3db44323	0.08801868
117	0x3db61709	0.08891112
118	0x3d92654f	0.07148229
119	0x3d83bbfa	0.06432338
120	0xbbf5007a	-0.0074768635
121	0xbd53c5a9	-0.051702175
122	0xbd8922f6	-0.066961214
123	0x3d25021f	0.040285226
124	0xbdba83e8	-0.0910719
125	0x3deeb616	0.11655824
126	0x3c2ff075	0.010738482
127	0x3e0e5aa8	0.1390177

weight f4 [15, 128]
0	0x3db1a67c	0.086743325
1	0x3e1ab44d	0.15107842
2	0x3daba587	0.08381181
3	0xbdcf6dc7	-0.1012836
4	0xbcc0f90d	-0.023556257
5	0x3d8e4600	0.06946945
6	0x3a62b608	0.00086483406
7	0x3bfeddae	0.007777891
8	0xbd31aee5	-0.043379683
9	0x3d4ae46d	0.04953425
10	0x3df40c72	0.11916436
11	0x3e2273b8	0.15864456
12	0xbdf16ce5	-0.11788348
13	0x3c8acc51	0.016943129
14	0xbdbcc301	-0.092168815
15	0xbde9b4d3	-0.114114426
16	0xbe0972e3	-0.13422732
17	0xbc2f94e4	-0.010716651
18	0x3d0092ef	0.031390127
19	0xbcb0f044	-0.021598943
20	0xbe134cb4	-0.14384729
21	0x3d80e11a	0.06292935
22	0x3d71eaa2	0.059061654
23	0x3d956b96	0.07295911
24	0x3e04bf38	0.12963569
25	0x3b978d4b	0.0046249977
26	0x3dd60e3e	0.10451935
27	0xbd4c47c6	-0.049873136
28	0x3e0d44f1	0.1379583
29	0xbd085959	-0.033288334
30	0xbe4ce851	-0.20010497
31	0xbe08916e	-0.13336727
32	0xbe01b958	-0.1266836
33	0x3dab3ae9	0.083608456
34	0x3ca070dd	0.019585067
35	0xbcae0807	-0.021244062
36	0xbd937e3c	-0.07201812
37	0x3dbf16c4	0.09330514
38	0x3d54665f	0.05185544
39	0x3df69103	0.120393775
40	0xbe65817c	-0.22412676
41	0x3d5775d1	0.052602593
42	0x3e7b3b40	0.24534321
43	0xbe743086	-0.23846635
44	0x3db57683	0.08860495
45	0xbd259d4c	-0.040433213
46	0xbd12b221	-0.03581441
47	0xbd9ae6ba	-0.07563539
48	0x3a72eed3	0.0009267155
49	0xbca5d760	-0.0202443
50	0xbe0c84fa	-0.13722602
51	0x3bc51f83	0.0060157194
52	0x3e08933c	0.13337415
53	0x3deea4c6	0.11652522
54	0x3deb588c	0.11491498
55	0x3bcacfb5	0.0061893114
56	0x3e03a38a	0.12855354
57	0xbdf7abc5	-0.12093309
58	0xbc1fdcba	-0.009757215
59	0xbba6cb24	-0.005090134
60	0xbdfd861d	-0.12379096
61	0x3d929cc8	0.0715881
62	0x3dd9b7c4	0.10630754
63	0xbe55d4d7	-0.20881973
64	0xbe6f1f88	-0.23351872
65	0xbe82942e	-0.25503677
66	0xbd852aca	-0.06502302
67	0x3e3568db	0.1771578
68	0x3e40d63d	0.18831725
69	0xbdbea439	-0.09308667
70	0x3dc735af	0.09727036
71	0x3d42e0a4	0.047577515
72	0x3deaecd0	0.1147095
73	0x3dac8a81	0.08424855
74	0xbcdfcde6	-0.02731986
75	0x3e2e0947	0.16995727
76	0xbe89c488	-0.26907754
77	0xbe2f1742	-0.17098716
78	0x3daacadc	0.083394736
79	0x3d9aa31b	0.07550641
80	0xbcde4df7	-0.027136786
81	0xbd664986	-0.05622246
82	0xbde6feb9	-0.11279053
83	0x3d6baebd	0.05753969
84	0xbe026e04	-0.1273728
85	0xbd308749	-0.043097768
86	0xbd9c6790	-0.076369405
87	0xbd8158a1	-0.06315733
88	0xbdf0004f	-0.11718809
89	0xbd0c1fa8	-0.034209877
90	0xbb16aaa2	-0.0022989889
91	0x3dc359e8	0.09538633
92	0x3caf500c	0.021400474
93	0xbd6dd109	-0.05806068
94	0x3c964c82	0.018347029
95	0xbcf31c52	-0.02967659
96	0xbbf81397	-0.0075706947
97	0x3cbc99b9	0.02302252
98	0xbe00f44e	-0.12593195
99	0xbdd98072	-0.10620202
100	0xbce0f266	-0.027459335
101	0x3d83844a	0.064217165
102	0x3dec54d8	0.1153962
103	0xbe9da6b7	-0.30791256
104	0xbdfbef27	-0.12301474
105	0x3deba200	0.115055084
106	0x3e5ba959	0.2145132
107	0xbe43621c	-0.19080395
108	0x3d9f6654	0.077831894
109	0xbddb301e	-0.10702537
110	0xbe402830	-0.1876533
111	0x3d3e6a4e	0.0464881
112	0x3e251e62	0.16124871
113	0xbe1ff3a1	-0.15620281
114	0x3de403d5	0.111335434
115	0x3e29ad08	0.16569912
116	0x3d49571c	0.04915534
117	0xbd3d81f5	-0.046266515
118	0x3d66d15c	0.056352004
119	0x3dc36851	0.09541381
120	0xbe6a31f6	-0.22870621
121	0xbd613808	-0.054985076
122	0x3e13c9ee	0.14432499
123	0x3d92361b	0.07139226
124	0xbc707658	-0.014676653
125	0xbe90f541	-0.28312114
126	0xbe0e118a	-0.13873878
127	0xbd29d855	-0.041466076
128	0x3b282cc4	0.0025661448
129	0x3e536797	0.20644985
130	0x3cdde128	0.027084902
131	0xbd421aae	-0.047388725
132	0x3d7509a9	0.059823666
133	0x3d8280a0	0.063721895
134	0xbc5599b8	-0.013037138
135	0xbdb808ce	-0.08986054
136	0xbdb95b02	-0.090505615
137	0xbd24fa0d	-0.04027753
138	0x3e3ea08c	0.18615931
139	0xbd2d6545	-0.042332906
140	0xbe4e4e61	-0.20147087
141	0x3cd29923	0.025707787
142	0x3de49770	0.11161697
143	0xbb8f5e2d	-0.0043752403
144	0xba77eb3e	-0.0009457356
145	0xbd137094	-0.035996035
146	0xbc339e25	-0.010962998
147	0xbde94fe9	-0.11392195
148	0xbdbe6149	-0.092958994
149	0xbe65fd0a	-0.22459808
150	0xbcbf354c	-0.023340844
151	0x3d9ccb0e	0.07655917
152	0xbe20f539	-0.15718545
153	0xbe4accde	-0.19804713
154	0x3cb14e9b	0.021643927
155	0x3d06d4a8	0.03291765
156	0xbe72a93b	-0.23697369
157	0x3d7cf3d5	0.061755974
158	0xbe27bcf0	-0.16380668
159	0x3989ccc6	0.00026283244
160	0x3db53166	0.08847313
161	0xbd9b5fef	-0.07586657
162	0xbe7f89aa	-0.24954858
163	0x3e1a5a72	0.15073565
164	0x3cc2ccef	0.02377936
165	0xbdad1eee	-0.08453165
166	0xbc23539c	-0.0099686645
167	0xbd7cf081	-0.0617528
168	0xbd734525	-0.059392113
169	0xbd4594cf	-0.048237618
170	0xbccba0c5	-0.024856934
171	0xbde6f347	-0.1127687
172	0xbd7d12de	-0.06178557
173	0xbc88dd9b	-0.016707232
174	0xbdfaaa5e	-0.12239526
175	0xbd65ed9f	-0.056134816
176	0xbdc75831	-0.09733618
177	0xbde855ca	-0.11344488
178	0x3e0f3709	0.13985838
179	0x3d33cfe4	0.04389943
180	0x3b81e44a	0.0039639818
181	0x3da6c451	0.08142913
182	0x3d6eb1a1	0.05827487
183	0x3d0f9288	0.035051852
184	0x3cb66f4b	0.022269865
185	0xbd765355	-0.060138065
186	0xbda6cd74	-0.08144656
187	0x3cf7874c	0.030215882
188	0x3d973c65	0.07384566
189	0x3cf991ce	0.030465033
190	0xbd054226	-0.032533787
191	0xbc12d67f	-0.008962273
192	0x3d18c083	0.03729297
193	0xbbed2e10	-0.007238157
194	0x3d3c9d93	0.046048712
195	0x3dc58b44	0.096457034
196	0x3e3439d4	0.17600185
197	0x3d7b7b26	0.06139674
198	0x3e21523f	0.1575403
199	0xbd85a897	-0.065262966
200	0x3c5220e9	0.012825229
201	0x3d88f669	0.06687624
202	0xbd9b13e8	-0.07572156
203	0x3d6da984	0.05802299
204	0x3b2b5037	0.002614034
205	0xbd48c5c1	-0.049016718
206	0x3d395553	0.045247387
207	0x3be4b1ac	0.006979188
208	0x3c8fdd41	0.017561557
209	0x3d356a1b	0.044290643
210	0xbc29484f	-0.010332181
211	0x3ded923b	0.11600157
212	0x3d17007e	0.036865704
213	0x3e291039	0.16510095
214	0xbd71f66f	-0.059072908
215	0x3d02bf6e	0.031920843
216	0xbdb14385	-0.086554565
217	0xbda986d0	-0.082776666
218	0xbcfd686c	-0.030933581
219	0xbbb9b6eb	-0.0056675575
220	0xbaa441f4	-0.0012531863
221	0x3e1e5317	0.15461384
222	0x3d070e68	0.032972723
223	0xbdd3a17c	-0.10333535
224	0xbe16e896	-0.14737162
225	0x3d4e63fc	0.05038832
226	0xbb50b06d	-0.003184344
227	0x3d5ff040	0.05467248
228	0xbc638a7e	-0.013888
229	0x3c9f0e0c	0.019415878
230	0x3ddb4ba0	0.10707784
231	0xbb384029	-0.0028114414
232	0x3dc96abe	0.098348126
233	0x3db4ad51	0.0882212
234	0x3d2c75c1	0.042104486
235	0xbce95a50	-0.028485447
236	0x3ad73069	0.0016417626
237	0x3d7e0c32	0.06202335
238	0xbd7f9a12	-0.062402792
239	0x3d87e584	0.066355735
240	0x3d80c072	0.06286706
241	0xbd9ef13f	-0.07760858
242	0xbdcdb41c	-0.10044119
243	0xbdb586a0	-0.08863568
244	0x3d05a298	0.032625765
245	0x3d862798	0.06550521
246	0x3dcf2cab	0.101159416
247	0x3d53edad	0.051740337
248	0xbe2d5751	-0.1692784
249	0xbe834e9c	-0.25645912
250	0x3da71664	0.081585675
251	0xbd320759	-0.04346404
252	0xbdaf87a6	-0.08570795
253	0xbbe8f379	-0.0071091023
254	0xbd1e73a4	-0.038684502
255	0xbd4b4085	-0.049622077

bias f4 [15]
0	0x3d17d789	0.037070785
1	0xbb27255a	-0.002550444
2	0x3d0144c3	0.031559717
3	0x3b2abd40	0.0026052743
4	0xbc906db0	-0.017630428
5	0xbaba7d5e	-0.0014228036
6	0xbc97d217	-0.018532796
7	0xbcde4ab3	-0.027135229
8	0xbc13cbd6	-0.009020766
9	0xba292780	-0.00064527243
10	0xbca1f130	-0.019768327
11	0x3c928918	0.017887637
12	0x3b73710e	0.0037146243
13	0x3bb780c8	0.0056000687
14	0x3cd48c2d	0.025945747

weight f4 [1, 128]
0	0xbb610fc8	-0.0034341682
1	0xbc429eb9	-0.011878663
2	0xbc3fd707	-0.011708981
3	0xbbb6d361	-0.0055793975
4	0x3be12ea1	0.0068720137
5	0x3bc49b64	0.0059999693
6	0x3c42051a	0.011842037
7	0x3c0e4ba4	0.008685026
8	0x3d0b7e73	0.03405614
9	0x3c315a2c	0.010824721
10	0xbca004d8	-0.01953356
11	0xbcd5cf7e	-0.026099917
12	0x3c4495bb	0.011998589
13	0xbc739d25	-0.014869009
14	0xbc04b989	-0.008100876
15	0xbaf1d185	-0.0018449283
16	0x3bbb1c49	0.005710159
17	0x3cfafc89	0.030637996
18	0x3c10cddf	0.008838146
19	0x3cf903ae	0.030397262
20	0xbb2661c5	-0.0025387865
21	0xbc95d83a	-0.018291581
22	0xbccf711a	-0.025322486
23	0x3a300088	0.00067139463
24	0xbb352ca9	-0.0027645028
25	0xbb3e9c62	-0.002908491
26	0x3c98fb9a	0.01867466
27	0xbc4e44cb	-0.012589644
28	0x3bc44c7d	0.0059905634
29	0x3c164050	0.009170607
30	0x3dbf1604	0.09330371
31	0x3c3363bc	0.0109490715
32	0x3b122152	0.0022297692
33	0x3c6a9100	0.014316797
34	0xbbb73d20	-0.0055920035
35	0x3c2b7271	0.010464297
36	0x3d030307	0.03198531
37	0x3aa84f79	0.0012841068
38	0x3e11f6a9	0.1425425
39	0x3c323267	0.010876275
40	0xba664a00	-0.00087848306
41	0x3be05fd1	0.0068473597
42	0xbbf9fc23	-0.007628934
43	0x3cd811b3	0.026375627
44	0x39cc54bb	0.0003897304
45	0x3d185230	0.037187755
46	0xbcf93dfe	-0.030425068
47	0x3cbf342f	0.023340313
48	0x3ca1555a	0.01969402
49	0xbc06cd43	-0.008227649
50	0xbc35b932	-0.011091517
51	0x3c90c0be	0.017670032
52	0x3d62c676	0.05536505
53	0x3c06c5bf	0.008225857
54	0x3b970fab	0.004610022
55	0xba177e4a	-0.00057790114
56	0x3d0da241	0.034578566
57	0x3b99e28c	0.004696196
58	0x3c2a3cbd	0.010390458
59	0xbb203311	-0.00244445
60	0xb99c15f4	-0.00029770995
61	0x3c86c5e1	0.016451778
62	0x3badaddd	0.005300267
63	0x3c551b59	0.0130070085
64	0x3bfd957f	0.0077387686
65	0x3d1acae5	0.03779115
66	0x3ce3627a	0.027756918
67	0xbd2a0a8e	-0.041513972
68	0xbd58b0aa	-0.052902855
69	0x3ce693c9	0.028146641
70	0x3b65533e	0.0034992243
71	0x391cb5a2	0.00014944983
72	0x3d6ff6cb	0.05858497
73	0x3bc6f84c	0.0060720798
74	0xbb079c19	-0.0020692407
75	0xbb2ba3a5	-0.002619007
76	0xbb809d03	-0.0039249673
77	0x3d794066	0.06085243
78	0x3c3d20c6	0.011543458
79	0x3cb57976	0.022152644
80	0x3aea20db	0.0017862575
81	0x3baedd51	0.0053364416
82	0xbd408836	-0.0470049
83	0x3a50af3a	0.0007960681
84	0x3ddf87c5	0.10914568
85	0xbcf199a0	-0.0294922
86	0xbbfa2016	-0.0076332195
87	0x39ec506e	0.00045073353
88	0x3d013ea1	0.03155387
89	0xbb26baa7	-0.0025440843
90	0xbc49b00d	-0.01231004
91	0x3c1b25d2	0.009469466
92	0x3a85075d	0.0010149289
93	0x3d6874eb	0.056752127
94	0x3ccd7c60	0.02508372
95	0xb9fee04a	-0.00048613764
96	0x3c92b4aa	0.017908413
97	0xbba535f8	-0.005041834
98	0x3b923e79	0.0044630137
99	0xbca683f2	-0.020326588
100	0x3ca38b12	0.019963775
101	0x3d5251fa	0.05134771
102	0x3a3fb8ea	0.0007313626
103	0x39df5624	0.00042598054
104	0xbaa191dd	-0.0012326796
105	0xbc308351	-0.010773496
106	0xbd2476a0	-0.040152192
107	0xbb92cb6b	-0.0044798157
108	0x3d0af706	0.033926986
109	0x3c235523	0.009969029
110	0x3c6d3e9a	0.014480257
111	0x3d10d8e5	0.035363097
112	0xbc9b1b33	-0.018933868
113	0x3ba5ab88	0.0050558485
114	0xbcbc64d5	-0.0229973
115	0x3b404c3d	0.0029342317
116	0x3c00e24b	0.007866452
117	0x3c35e371	0.01110159
118	0xbad6bc1a	-0.0016382963
119	0x3d06fd4b	0.032956403
120	0x3a193fde	0.0005846004
121	0xbc1b0c3a	-0.009463364
122	0xbc858995	-0.016300956
123	0x3d391363	0.045184504
124	0xbd8374b5	-0.064187445
125	0x3c6c4211	0.014420048
126	0xbb05b5fb	-0.0020402658
127	0x3d6172b0	0.055041015
