results_final/generalization-128fd/300levels-128fd-policy.pt (torch, 843673 bytes, 11 tensors)

weight f4 [32, 3, 8, 8]
00000000: b19e 01be c417 e4bd df6f 02be 1def 0ebd
00000010: 6c6b 0dbe e48b 313c 7308 c8bc af70 10be
00000020: 77a6 7fbe 0dc2 54be 2582 3dbe 7784 debd
00000030: 4680 96bc 7b8c ad3d 80d1 9b3d 71b3 713d
00000040: 7d44 a13d 5e0a e23d 21ba 2b3c 7b35 4d3c
00000050: 5cb5 d13b 9c69 da3d a33d 593e 6ffa 4b3e
00000060: 9452 f53d 9ccc 603d 3b66 0cbc d484 f1bd
00000070: 0b4a 0f3e 62ec a8bc 6741 043d d5ab 70be
00000080: 6ad7 9f3d cbba 20be d4a4 b6bd 28e4 8fbd
00000090: 4d87 8bbd 2871 9e3d 9d3f 12bd f3d9 8abc
000000a0: 62e7 1cbe 9afc 8dbe 002e 723d a418 0cbe
000000b0: e841 3ebd 0b9d 233d 4db1 fbbc fc2f c8bd
000000c0: 1a76 43bd 8154 143d a72a 543c b68a 30be
000000d0: 9de9 bf3d 8dcd d63c 696f a9bc b0bb 08be
000000e0: b915 d63d 1388 763d ee7a e4bc 16ee 4fbe
000000f0: e769 073e d002 873d 37a9 af3c 9e30 e4bd
00000100: df03 82be 18e9 85be 0cf5 fc3b 8967 bebd
00000110: f5e1 45be 24f3 5b3e fad2 80bd 4a8c 6ebd
00000120: d99c c4bd a53e 05bd c3f5 2b3d ecbf e43d
00000130: 0727 0b3c 4b55 de3d 8823 14be c339 07bd
00000140: d365 ba3d a2c0 de3d 2cab 9f3e 70ca 1abd
00000150: bdc1 0a3e f383 233e c51b 9dbd 2c34 e33c
00000160: b59c 573e f9fe 283e 007c e8bd 8a6f d5bd
00000170: 9abc 0b3d 9bc9 293d e008 eebd d21f 65be
00000180: 94ba 0e3e e6f0 9ebd 4f82 56bd 2536 a13e
00000190: 798c cdbd 9cb3 193e b6ab 09bd 1084 1ebd
000001a0: a951 1fbe 1d29 37be 1da0 08be f6bd ee3d
000001b0: 949e 653d 0872 91bc 32c8 193e 6224 0fbe
000001c0: 07d7 de3d 4b30 393e 00ef 72be 0964 943d
000001d0: c779 773b a327 bc3d e513 50bc a5b6 82be
000001e0: de19 253e d4a5 9abc 6fa3 23be 869a 9abc
000001f0: 6b4e 58be 9e99 733d a64f 123d 9c08 08be
00000200: 6da3 edbd 9faa 71be d69e 783e f52a 663e
00000210: f6d8 febd f132 323c 7f5f 0bbe 6c0a 773d
00000220: d205 86bd 9b53 453e b835 1a3b 48ec 0c3e
00000230: 49bb 133e 6e47 2e3e 0adc d33e 4b3d e93d
00000240: 648d e23d 9ed5 e43d 2f5f 343e 79c6 903e
00000250: 6a11 893e 8733 a03e 6271 56bd 6263 3b3e
00000260: a654 473e 4f07 2f3e 53d5 ba3d 97f9 a33e
00000270: d50b a13e 75dc fabd e2cc 073c c764 f3bd
00000280: a98d 2a3e f8bf 033e bc78 6a3d 92fb 413e
00000290: 0943 9e3e 8996 4c3e 2cc6 07be 1c45 e0bd
000002a0: 5e04 2cbe 143f 81bd ce8f c4bd 80b3 18bc
000002b0: f1d8 7a3e 7e11 8d3e bfbb 4dbe 4c9c 3bbe
000002c0: e77f 13be 8598 ef3d e7b8 17be 2942 4d3e
000002d0: 4e87 a1bd 3d8b 913e d21e c3bc 367f 8c3c
000002e0: 4c28 213d a60b b3bd 1d3f b93d aba5 573d
000002f0: fb93 813d e8c3 a23e 8994 3d3e fefb 82bb
00000300: 9e0e 9b3e 0e50 f0bd 0f4a 203e 4247 843e
00000310: 102a 343e 7990 80bd 381f f0bb 32fd ce3d
00000320: 8330 383d d637 183d da12 52bd dd34 923e
00000330: 88b4 163e c917 cabd 4002 613e 3a4c ae3e
00000340: 5a04 053e 47d2 d7bd bb45 fbbd f41c bc3c
00000350: 957c 89bc 9723 14bd 159b 2c3d 2541 ecbd
00000360: 9b9e 293e feec 023e c301 b53d e15d 3c3d
00000370: 1b98 d63d a828 59be d959 183d 8d37 823c
00000380: 3eb3 adbd 684c 123d ad58 2d3d d9fa 7b3e
00000390: c5b0 25bc ec73 2dbe d3c6 30bc e9e9 9e3d
000003a0: d56d 243e 4ad6 753d 1c63 e9bc 5e6c 093e
000003b0: eaee 8c3d 5124 04be ec07 0fbd 74a4 903d
000003c0: 031f 0e3e 3aef 013d 5528 b63c 10d4 14be
000003d0: 15fd 143d 937e 7f3b 055c cbbd 053c ce3d
000003e0: d1ff fd3c 13d6 ed3c acc3 063c 572d 8ebd
000003f0: b8e6 5ebd a548 a8bd 0deb 90bd 3c41 b33d
-0.12658192 -0.111373454 -0.12737988 -0.034896005 -0.1381051 0.010836575 -0.024418091 -0.14105485
-0.24965845 -0.2077715 -0.18506677 -0.108651094 -0.018371712 0.0847406 0.07608318 0.05900902
0.07874391 0.11037134 0.010481388 0.012524958 0.0063997936 0.10664675 0.21214919 0.19919752
0.11978641 0.05488263 -0.0085692955 -0.11792913 0.13993089 -0.020620529 0.032288935 -0.23503049
0.07804759 -0.15696256 -0.08918157 -0.07025939 -0.06812916 0.077364266 -0.035705198 -0.01694963
-0.1532264 -0.27731782 0.0591259 -0.13681275 -0.04644957 0.03994469 -0.030724192 -0.09774777
-0.047720052 0.0362134 0.012949622 -0.17240414 0.0937073 0.026221061 -0.020683007 -0.13352847
0.10453362 0.060188364 -0.027890649 -0.20305666 0.13223992 0.06592333 0.021442993 -0.111420855
-0.25393578 -0.261544 0.0077196416 -0.092970915 -0.19324477 0.2147947 -0.062902406 -0.05823926
-0.09600229 -0.032530446 0.041982424 0.11169419 0.008493192 0.10856112 -0.14466679 -0.03301407
0.09101453 0.108765855 0.3118528 -0.037790716 0.13550468 0.15968303 -0.07671312 0.027734838
0.21055873 0.16503514 -0.11351776 -0.10421665 0.03411541 0.04145203 -0.116227865 -0.2237542
0.13938361 -0.077607915 -0.052370366 0.31486621 -0.10036559 0.15009922 -0.033611022 -0.038700163
-0.15558495 -0.17886777 -0.13342328 0.11657326 0.056059435 -0.01775457 0.15017775 -0.13978723
0.10880857 0.18084829 -0.23723984 0.07245643 0.0037761794 0.091872476 -0.012700056 -0.25529972
0.16123149 -0.018877901 -0.15980314 -0.01887251 -0.21123664 0.059472673 0.03572049 -0.13284534
-0.116034366 -0.23600243 0.24279341 0.22477324 -0.12443726 0.010876403 -0.13610648 0.060312673
-0.06544079 0.19270174 0.0023530554 0.13762009 0.14426912 0.17019436 0.41378814 0.11388644
0.11062124 0.11173557 0.17614435 0.28276423 0.26771098 0.31289312 -0.052354224 0.1829963
0.19465885 0.17092632 0.091227196 0.3202636 0.3145434 -0.1224908 0.008288594 -0.11884456
0.16655602 0.12866199 0.057244048 0.18943623 0.3091052 0.199793 -0.1325919 -0.109506816
-0.16798541 -0.06310859 -0.09597741 -0.00932014 0.24496819 0.27552408 -0.2009115 -0.18321341
-0.1440426 0.11699013 -0.14816628 0.2004477 -0.078871354 0.28426543 -0.023818407 0.017150503
0.03934507 -0.08742456 0.09045241 0.052648228 0.06327053 0.3179009 0.18513693 -0.003997325
0.3028459 -0.11734019 0.15653251 0.25835615 0.1759417 -0.06277556 -0.0073279403 0.10106887
0.04496814 0.037162624 -0.05128751 0.28555956 0.14717305 -0.09867818 0.21973515 0.3404253
0.12989941 -0.10538154 -0.122691594 0.022963025 -0.016783038 -0.036166754 0.042140085 -0.11535863
0.1656441 0.12785718 0.08838227 0.045987967 0.104782306 -0.21206915 0.03719506 0.01589563
-0.08481453 0.035717398 0.042320896 0.2460741 -0.010112946 -0.16938752 -0.010789591 0.077594586
0.16057523 0.060018815 -0.028489642 0.13420245 0.06881507 -0.12904479 -0.034919664 0.07062617
0.13879018 0.031722285 0.022236029 -0.1453402 0.03637417 0.0038985356 -0.09929661 0.100700416
0.031005772 0.029032743 0.008225363 -0.06942242 -0.05441925 -0.08216981 -0.070760824 0.08752677

bias f4 [32]
00000000: 630e 6eba 608e cfbc 7d68 2bbb 9c6a 0c3d
00000010: bb76 a8bc 928e 88bb 78e1 5fba 6a01 0b3d
00000020: 5e1e c9ba b33e 6dbb 482d f3bb ebd5 e3bb
00000030: ee8e 0bbb 1b3e e3bb 09ab 1cbb 974f 69bb
00000040: ec64 063d 7b57 a63b 4db1 433c f0e2 c8bb
00000050: 86dd 02ba 0509 24bb cf70 ac3b 4d7a 46bb
00000060: c7f7 ed3b 57bd e9bc db12 383b a12b ec3c
00000070: d3bc d63c 9d93 8c3b 7d50 ccbb e512 73bc
-0.0009081123 -0.025336444 -0.002615481 0.034281358 -0.020564428 -0.0041673863 -0.00085403724 0.033936895
-0.0015344133 -0.0036200702 -0.0074211694 -0.0069529912 -0.002129491 -0.006934894 -0.0023905656 -0.0035600418
0.03281109 0.0050763465 0.011944127 -0.0061305687 -0.0004992116 -0.002502979 0.0052624713 -0.00302853
0.0072622034 -0.028532667 0.002808741 0.028829398 0.026213085 0.004290058 -0.006235181 -0.014836048

weight f4 [64, 32, 4, 4]
00000000: 1e76 ab3d 387b 8b3d 499d b7bb aa1d 7ebd
00000010: 5cae 0dbd b533 153c 22b7 073d 1dc3 fc3d
00000020: 2a7b c23d 8d9a 14bd 709f ae3d de26 453d
00000030: 2c80 283e cd60 353d 2cea a7bd 778b f2bd
00000040: cfda 0dbe a312 82bd 6f65 7dbe 09dc 133d
00000050: 6f82 a0be dfd7 2cbd a079 87bc c731 84bd
00000060: ea8d d3bd 57b3 6f3d 63c6 633d 86b6 8abd
00000070: 4e83 9abd 60b9 4a3d 5e95 a43c 85a0 28bd
00000080: b8e0 31be fe9d a33d 9b77 12bc 7ac0 993b
00000090: 98a8 a9bc 34b1 dbbc 6cbd 233b 13d2 4e3e
000000a0: dad5 953c 46c7 513d 9663 3f3e 35b7 9d3c
000000b0: 62d5 0f3e 62c3 663c 67ce 943d 782e d5bc
000000c0: 29c7 873d 3d6a e4bd b859 cbbd 7608 0f3c
000000d0: 44fd 013e 6b30 9c3c ab67 c0bd 59b3 9ebb
000000e0: d576 583d 6832 e03d 59fb ad3d da5d b73d
000000f0: 4c06 4e3e 477a 133e b1fa f43c 38d9 f33d
00000100: 30b8 6ebd ddcd 62bc 5eb1 01be 8f92 19be
00000110: 04c7 0cbe 3d9d 26bd 15c6 393d ec2c a53d
00000120: 3f41 ebbd 050c cf3c 171e debc 615e 5b3d
00000130: d36b 523d 9ef7 f6bd 9382 3cbe 32e9 16be
00000140: 2332 733d 5e30 8ebd ffa7 0ebd 1aca 3b3e
00000150: 0620 d83b 7c55 39bd 4225 60bd 2f23 093d
00000160: 9a91 88bd 52de 273e f5b0 eebd 20fa 053d
00000170: 2b2e 16bd d4d0 513b da22 333c 4ca5 773c
00000180: d3e8 a2bd 15c6 2e3b 9fb7 09be cf5b 733c
00000190: 4dcc b2bd 1cd7 72bd 2211 f03c e331 6fbb
000001a0: 1f79 cc3c 0c5a aebd f0ef 04bd 67fa ae3a
000001b0: f26e 5bbd cef9 a9bc b5e6 d13c dcc5 dabc
000001c0: 23c0 b9b8 280c 29bd 105c da3b d2a5 51bd
000001d0: 6530 c93d 9576 c93d 02a0 ee3c 4b03 4b3c
000001e0: ac70 883b 4146 1a3e d153 ca3d 76b8 663d
000001f0: 664c 093e f749 043e c699 56bd 8655 8dbd
00000200: c060 2d3d 611f d2bd e43d 67bd 34e3 b8bd
00000210: 9a6f 02bd 6da1 70bd e110 23bd 6faa 2e3a
00000220: dcf4 923c c8e5 703d aee6 63bc 25b5 163e
00000230: bcc8 34bd 15aa 88bd b90b 07bd 2d69 aebd
00000240: fe82 003d 5354 90bd 9bfb 5bbe 607e 88bc
00000250: 32b9 593d 4abd 92bd e7d8 8fbc a50b 8abb
00000260: cdf9 2a3d e705 e7bb f632 a0bd e760 96bd
00000270: 17be 7ebd 2fc4 8a3d dffa 4fbd ec66 82bd
00000280: 666c 23bd bb74 d2bd 5704 953b 5f93 37bd
00000290: 8aeb b3bd eae1 8cbd 7e6c 94bc 5c21 10bd
000002a0: 4933 aa3d 3f6a db3c 36bf 1f3c 9d7c 13bd
000002b0: 3e7a 0cbe c0f6 06bc fa2e 64bd 7d10 bebc
000002c0: 0ab2 4bbd 708f bbbd 4a20 80bc 1b3b 6e3b
000002d0: c169 92bd 9d36 fc3b ca5e fe3d 9f86 1d3e
000002e0: 4c8a 63bd 3a2a 02bd a13f 413d 44d3 013c
000002f0: b901 9dbd 5ca2 15bd 308b b73c 2811 89bd
00000300: 4dab a8bd db18 7fbc eece 8cbd b762 073d
00000310: b653 813d 2a46 b7bd c387 de3d c2ce b6bd
00000320: 933b a23c 524a 9cbd b912 7bbd e242 a9bc
00000330: 914e 0e3d f910 113d 2ad7 95bd 4bfe 2abe
00000340: ce4f 803d 4a4e a5bd 4f56 e1bc 8383 863d
00000350: 1077 ac3d 6497 40bd 77f6 42be b73d 19b9
00000360: 4610 603d ea3b 143d f2d4 bd3d a553 493d
00000370: 91a2 0e3d bb76 723d 6e98 0bbd fdac b8bd
00000380: e596 54bd e897 123c 1706 82bd ae03 893d
00000390: bcfb d7bd d27b debb 8f48 c23c 8b11 113d
000003a0: 075a 0a3e 5f87 3c3c c214 20bd 818d 1d3c
000003b0: 2c10 853e 83ab 5cbd 3e26 02be 2579 2dbd
000003c0: 0d9d 8f3d e4d2 71bd 95eb e9bd 5731 edbc
000003d0: 2dd7 18be f068 2dbe d4cb b9bd 63bf 2d3c
000003e0: c9f6 fe3b e256 843c 8bdc ff3d b367 a3bd
000003f0: b7a9 a73d 3bf9 423c 87df 603d 6e8d 0e3c
0.083721384 0.068106115 -0.0056034666 -0.06204001 -0.03459011 0.009106566 0.033133633 0.123419024
0.09496148 -0.036280204 0.08526504 0.04813277 0.16455144 0.04428177 -0.081989616 -0.11843007
-0.13853 -0.06351211 -0.24745725 0.036098514 -0.31349513 -0.04219806 -0.016537488 -0.06454807
-0.10329802 0.05852064 0.05560912 -0.06773095 -0.07544576 0.049493194 0.020090755 -0.04116871
-0.1737088 0.07989119 -0.008939649 0.0046921344 -0.020710275 -0.026817895 0.002498473 0.20197324
0.018290449 0.051215433 0.18690333 0.019252399 0.14046243 0.014084669 0.072659306 -0.026023135
0.06629784 -0.11153076 -0.09929222 0.008730045 0.1269427 0.019066056 -0.09394773 -0.0048431573
0.052847702 0.10947114 0.084952064 0.08953448 0.2011959 0.14402114 0.029904695 0.119066656
-0.058281124 -0.013843027 -0.12665316 -0.14997314 -0.13747793 -0.040677298 0.04535492 0.08065209
-0.11487054 0.025274286 -0.027113957 0.053556804 0.05137236 -0.12058948 -0.18409185 -0.14737394
0.059373986 -0.06942819 -0.034828182 0.18338814 0.0065956144 -0.04524754 -0.05472303 0.03348082
-0.06668396 0.16393402 -0.116548456 0.03270924 -0.036665123 0.003201534 0.010933602 0.015115093
-0.07954564 0.002666836 -0.13448952 0.014853432 -0.087303735 -0.059287176 0.029305045 -0.003649824
0.024960099 -0.08513269 -0.032455385 0.0013349772 -0.053572603 -0.020748999 0.025622705 -0.026705675
-8.857276e-05 -0.04127136 0.0066638067 -0.05118353 0.09823684 0.09837071 0.029129032 0.012390922
0.004163822 0.15065862 0.09879268 0.05632826 0.1340805 0.1291884 -0.052392744 -0.06901078
0.042328596 -0.10259891 -0.056455508 -0.090277106 -0.031844713 -0.058747698 -0.03981102 0.000666297
0.017939024 0.058812886 -0.013909979 0.14717539 -0.044136748 -0.066730656 -0.032970164 -0.085161544
0.031374924 -0.070473336 -0.21482699 -0.016661823 0.05315513 -0.0716501 -0.017559482 -0.004212814
0.041742135 -0.007050264 -0.0782222 -0.073427014 -0.062193003 0.067757 -0.05077636 -0.06367287
-0.0398983 -0.10276171 0.0045476365 -0.04481828 -0.0878516 -0.06879027 -0.01811814 -0.035188064
0.08310563 0.02678406 0.009750178 -0.036007512 -0.13718507 -0.008237541 -0.055708863 -0.023201222
-0.04973034 -0.09158218 -0.015640397 0.0036351148 -0.07149077 0.00769694 0.12420423 0.15383385
-0.055551812 -0.03177855 0.047179822 0.007923905 -0.07666344 -0.03653179 0.022405237 -0.066927254
-0.08235798 -0.015569891 -0.06875406 0.033053126 0.06314795 -0.089489296 0.10865738 -0.08926155
0.019803798 -0.07631363 -0.061297152 -0.020661775 0.034742896 0.035416577 -0.0731643 -0.16698568
0.062652215 -0.08071573 -0.027506975 0.065680526 0.08421147 -0.047019377 -0.19039331 -0.00014614208
0.05470302 0.03618995 0.09269132 0.049152035 0.034823004 0.05919526 -0.034080915 -0.0901737
-0.051901717 0.00894735 -0.06348818 0.06690155 -0.105460614 -0.006789663 0.02371624 0.03541712
0.13510905 0.011506884 -0.039082296 0.009616257 0.259889 -0.053874504 -0.127099 -0.04235186
0.07012377 -0.05903901 -0.11421887 -0.028954191 -0.14925833 -0.16934562 -0.0907208 0.010604712
0.007780884 0.01615471 0.12493237 -0.079787634 0.081866674 0.0119002415 0.054900672 0.008700712

bias f4 [64]
00000000: aaa7 f83c 675b 75bc 5dd2 cfbd 3773 84bc
00000010: 3255 2c3c ef09 89bc 935a e13d 92fd 9b3a
00000020: 974a bdbd 062a ba3d 6d68 2b3d 3865 89bc
00000030: 0118 c33c 1f8a 20bc dec6 0a3d 98c0 4cbd
00000040: 6045 e6bc fd57 b0bd 3a25 d6bd ba5a 983c
00000050: 9c9e a03c 146e 413a 79d3 3bbd dcbb f53b
00000060: e47e 0b3d 0724 20bd 74f4 d73c e67b 74bd
00000070: 8eaa e53b 350f 7b3d a757 e9bb f357 8dbb
00000080: e898 f5bc 467c 31bd cb40 1d3d 8f7a 573c
00000090: 1c5e 243c adcd 60bd afac 303d ef3f 8e3d
000000a0: 2731 dfbd 369d e7bc ed06 07bd ce8e 383c
000000b0: 6fb3 c1bc 58c7 c33c 2104 41bd 0d3a 723c
000000c0: 744f 773b 122a 443c ddde d53b 3a3f cb3c
000000d0: f812 58bb d77f d1bd 9696 ab3d e07d 02bd
000000e0: f2b8 503d ef1d 93bd ae10 c0bc e2a3 6c3d
000000f0: d946 ce3b f501 523c 69f5 ea3c 2424 9fbc
0.030353386 -0.014975405 -0.101475455 -0.01616822 0.010518359 -0.01672837 0.11003604 0.0011901131
-0.092427425 0.090900466 0.041847635 -0.016771898 0.023815157 -0.009798556 0.03388106 -0.04998836
-0.028109252 -0.086105324 -0.10456319 0.01859795 0.01960688 0.00073787686 -0.045855973 0.007499201
0.03405656 -0.03909686 0.026361682 -0.05968847 0.007008857 0.0612938 -0.0071210447 -0.004313463
-0.029980138 -0.043331407 0.03839187 0.013151779 0.010032203 -0.054883648 0.043133434 0.06945788
-0.10898047 -0.028273206 -0.03296559 0.011264516 -0.02364513 0.023898765 -0.04712308 0.014784348
0.0037736567 0.011972921 0.0065268115 0.024810422 -0.003297029 -0.10229462 0.08378331 -0.031858325
0.050957628 -0.07183444 -0.023445453 0.05777348 0.006295067 0.012817849 0.028681474 -0.019426413

weight f4 [64, 64, 3, 3]
00000000: 88fb a2bd 1e8d 8a3d a746 7bbd 956a cb3c
00000010: f834 af3d 82de b03b 5316 073b 6362 533c
00000020: bd0b 3fbe 13d9 8c3c 30cc 5c3d 3a8c 003d
00000030: 27be 713d df79 433d 0b6e 27bd ad2a b33d
00000040: e83e 053e c22c 9bbc 61e7 473e 92a7 69bd
00000050: 6880 5d3d 34dc 943d 6c0b 62bd d384 afbc
00000060: cd50 203e 6429 0d3e 4e6b 19bd cd4e 3fba
00000070: 2ea3 f53c 6ec7 3d3e 989f 95bd d7b9 8e3d
00000080: f0d1 72bb e791 6a3d 822d cfbc b8b3 05bd
00000090: e614 02bd 3dec 0f3e c66a ed3d e362 6f3d
000000a0: 6420 bbbd 9bed fabd 7d4c 26bd cecc 60bd
000000b0: 1944 243e 5701 50bd 508c 4bbc 923c 443c
000000c0: 8ad5 193d 143a 9ebd 000f efbd bfa0 c43d
000000d0: d31a 7b3d 7ddb bdbd 92c1 dd3d 4e53 623d
000000e0: 4bb0 7bbc 48df 91bd b679 01bd 0009 843d
000000f0: 4c2e 7f3c 7e88 333d c953 7b3e 98db 843d
00000100: 804b b53c 5223 34bc ba32 b9bd 3a28 ea3d
00000110: 41f2 603c a033 6dbc ca9f 32bd 57bd 883d
00000120: 601a 93bd 9148 c7bc c90a 22bd ba77 993d
00000130: def8 f1bc 7080 aabd 300c 14bd a593 a4bc
00000140: 00f7 24bd 70f7 7dbd 5e1b aa3d a3e5 223d
00000150: 1602 ea3d 39e1 c0bd f6c7 10bd 4b80 9abc
00000160: 61d3 383e 8d9b 69bd 7c12 b7bc bde5 6e3c
00000170: 3932 febc 21a9 0c3d b1af 683d 2364 953d
00000180: f2b0 523d db97 83bb 1acb 1e3d e9e3 aabd
00000190: fa4b 94bd 57f9 363d bcad 223d 8c8b adbd
000001a0: 0b8d eebd 7256 61bd ac72 a73b 5455 083c
000001b0: 2751 583d d75a 09bc 35ef bb3d 346a d4bd
000001c0: 68f6 083d b485 883c 7503 c63d 78ed 7dbd
000001d0: 37fc 80bd 2ae7 81ba 071f 743c 9005 043d
000001e0: 4654 c33d 93dc f93d a1b9 9c3d d907 2bbe
000001f0: 22ac e6bc 6b5f d03d 7794 893c 54f3 773d
00000200: d62c 98bc 8a51 f0bc 6f92 c2bd 4bac 20be
00000210: 6836 d23d f8fc 36bd 8992 853d af56 063e
00000220: f580 963d 3e96 ddbc 11be 43bc affd 7abd
00000230: d12a 27bd 0fa8 2e3d d0c3 d13c 95d5 31be
00000240: 5ef5 59bc f0b1 a8bd 168d 2b3d 62e4 7dbd
00000250: e284 d33c 848a 093e 4716 19bd 1e19 22bc
00000260: 67f9 913d 8ec4 9b3d d741 67bc 687d 48bc
00000270: cf35 dc3a d019 03bd d3de 77bd d8d6 f2bc
00000280: 8566 113c 8d09 5ebd a699 083d 6c89 723c
00000290: 9b8f 89bd da6d 963d 48fe e23d 5327 493d
000002a0: e658 e5bd 519c bbbd 62e3 b93b 0990 48bd
000002b0: e2e5 3d3d a659 a83d 78b3 b9bd a12b 18be
000002c0: 9648 3dbc 9e5c 7dbc dd67 5bb8 7601 223e
000002d0: e98c 55bd 4f81 da3c 5a7b 853d b6a1 183c
000002e0: 8094 b9bc f204 f3bc 812e 723c b952 bbbd
000002f0: ed81 dc3d 3919 fb3d fbab 9dbd 61dd 693d
00000300: 247f e4bc 021a 143b ba92 c73c 68c1 d33d
00000310: e238 d5bd 56f5 c7bc f373 1ebd 86e5 a83d
00000320: df87 d03c 2190 c0bd c777 a13d a77b 93bd
00000330: 00c6 2a3c 267a 0abd 8c59 be3d 2254 47bd
00000340: ad5a 403d 85b8 bebd 4aea 3dba 7e6a aa3c
00000350: 835b a4bb 21ce cebd a258 993d c8fb 2b3b
00000360: 8aaa 713c 379d 933b 92c3 a9bd c68f 08bd
00000370: edc0 99bd 7225 febb ec50 15bd 9821 c33d
00000380: 396d 5abe 8f8a 503d 88e5 e4bd e36e 503e
00000390: a5e2 1dbe ebad fc3c 08a3 09be b7c9 823d
000003a0: 5b96 cc3c d61f 3b3d 00e0 003c 696c 96bd
000003b0: f7e9 c3bd a3d1 be3d 52d1 0abc 01c5 e6bc
000003c0: 3283 20bd fa2b 5c3d 4b5f 573e 9911 b63c
000003d0: e232 cabd 6444 f9bc 9e7c d2bd 12da 7c3d
000003e0: c806 8d3d 6ba4 3bbe 36ff ecbd 6d3e 59bd
000003f0: b9ab e3bc 88cf afbc 0096 563d 4aab d53c
-0.07958132 0.06765197 -0.061346676 0.024831096 0.08555025 0.0053976187 0.0020612672 0.012901875
-0.18656822 0.017193353 0.053905666 0.03138373 0.059019234 0.047723647 -0.04087643 0.08748374
0.13012278 -0.01894224 0.19521858 -0.057044573 0.054077536 0.07268563 -0.055186674 -0.02142564
0.15655823 0.1378532 -0.03745585 -0.0007297814 0.029985037 0.18533108 -0.07305831 0.0696904
-0.0037051402 0.05726805 -0.025290255 -0.032642096 -0.03175821 0.14054962 0.11592631 0.058443915
-0.091370374 -0.12252351 -0.04060029 -0.054882817 0.16041602 -0.050782528 -0.01242359 0.011977332
0.037557162 -0.07725921 -0.11672783 0.096009724 0.06130488 -0.0927038 0.10827936 0.055255227
-0.015361856 -0.07122666 -0.031610213 0.06447029 0.015575003 0.04383134 0.2454368 0.06487197
0.022130728 -0.010994749 -0.090428784 0.11433454 0.013729633 -0.01447764 -0.043609418 0.06676739
-0.07182765 -0.024326595 -0.039561067 0.07493539 -0.029537614 -0.08325279 -0.036144435 -0.020089934
-0.04027462 -0.062003553 0.08306001 0.03976978 0.11426179 -0.09417958 -0.035346948 -0.018860003
0.18049385 -0.05703311 -0.022347681 0.014581141 -0.031029807 0.03434098 0.056808177 0.0729449
0.05143828 -0.0040159053 0.03876791 -0.08344252 -0.07241054 0.044671383 0.039716467 -0.08473882
-0.116479956 -0.05501408 0.0051101055 0.008321125 0.052811768 -0.008383474 0.091764845 -0.10371819
0.033438116 0.016665317 0.09668628 -0.061994046 -0.06298106 -0.0009910811 0.014899976 0.032231867
0.09537558 0.12200274 0.076525934 -0.16702212 -0.028158251 0.101744495 0.016794426 0.06053479
-0.018576067 -0.029335756 -0.09500586 -0.15690725 0.102642834 -0.044674844 0.0652209 0.13119005
0.07348815 -0.02704918 -0.011947171 -0.061277088 -0.040812317 0.042640742 0.025606066 -0.17366631
-0.013303129 -0.08237064 0.041882597 -0.06198538 0.0258202 0.13431746 -0.03737476 -0.009893684
0.07127648 0.07605849 -0.014114819 -0.01223693 0.0016800704 -0.03200704 -0.060515236 -0.029643461
0.00887454 -0.054208327 0.033349656 0.014803272 -0.06716844 0.07345171 0.110836565 0.049109768
-0.11198597 -0.09160674 0.005672858 -0.048965488 0.04636181 0.08220224 -0.09067434 -0.14860393
-0.01155295 -0.015463976 -5.23104e-05 0.1582087 -0.052136336 0.026672987 0.06517668 0.009315899
-0.022653818 -0.029665444 0.014781595 -0.091466375 0.10766969 0.1226067 -0.07698818 0.05709589
-0.027892657 0.002259851 0.024361957 0.10339624 -0.1041124 -0.024408977 -0.038684797 0.08246903
0.025455413 -0.094024904 0.07884174 -0.07201319 0.010423183 -0.033807896 0.092944235 -0.04866422
0.046961475 -0.09312538 -0.00072446896 0.020802733 -0.005015792 -0.1009791 0.074876085 0.0026242603
0.014750132 0.0045048255 -0.08289255 -0.033340238 -0.07507501 -0.0077559287 -0.036454126 0.09527892
-0.21330728 0.05091339 -0.11176592 0.203548 -0.1541849 0.03084465 -0.13441098 0.0638613
0.024974039 0.045684658 0.007865906 -0.07344896 -0.0956611 0.09317329 -0.008472757 -0.02817011
-0.039187618 0.053752877 0.21032445 0.022225188 -0.098729864 -0.030428119 -0.10277675 0.061731406
0.06886059 -0.18324439 -0.11572115 -0.05303805 -0.027791845 -0.021461263 0.052389145 0.026082654

bias f4 [64]
00000000: 4ba3 6e3d 84c4 9b3c 6fe2 643d e05a ab3b
00000010: 945c 243a 1b07 3a3d b305 3bbd a012 c63c
00000020: 2b18 083d 9a1c 143d 165b b73c 4c62 5a3d
00000030: 3465 843d 134b 5b3d cf85 f03c 588e f0bc
00000040: 473a 943d 528b 3c3d 7658 483d 3a9c 113d
00000050: 02ea 563c ba10 76bd 60b7 e23d e08b a53d
00000060: bdfa b53c e1c1 d2bb 546f 5e3d 6a69 b2bc
00000070: 8964 9f3d 75ec 27bd 481e 4ebd 76c7 653d
00000080: 37a4 e5bc 9cbc a93d d010 6f3d c04f 0c3d
00000090: cf95 f93c 75a9 8c3d 9c5d e7bd ff03 33bc
000000a0: 83b1 7dbc e1df 3ebd de36 36bc 3a09 10bd
000000b0: b2c3 f73c 4c3e 9e3d e853 bebd 1569 e03c
000000c0: c1d4 88bc b618 07bc f816 fbbd 87a2 043d
000000d0: fd65 11bd e7a4 1c3d 2a47 033c c79e 873d
000000e0: 58e8 b03d 42be a23c a9da c83c eeb3 bebb
000000f0: b8c1 a43d 8ea6 1bbd 7b41 863d 3430 28bd
0.058261197 0.019014604 0.055880006 0.005229339 0.0006269899 0.045416933 -0.045659732 0.024178803
0.033226173 0.03616009 0.0223823 0.0533164 0.064646155 0.053538393 0.02936068 -0.02936475
0.07237678 0.046031304 0.048912488 0.03554938 0.013117315 -0.060074545 0.11070132 0.0808332
0.022214288 -0.0064318036 0.05430539 -0.021778781 0.077828474 -0.040996987 -0.050321847 0.056098424
-0.028032405 0.082879275 0.058365643 0.034255743 0.030466942 0.06868259 -0.112971514 -0.010926246
-0.015484217 -0.046600226 -0.01112148 -0.03516505 0.030244682 0.07726726 -0.092933476 0.027393857
-0.016703011 -0.008245638 -0.1226024 0.03238156 -0.035497654 0.0382432 0.008012572 0.06622081
0.08638066 0.019866113 0.024518328 -0.005819789 0.080447614 -0.038000636 0.06555458 -0.041061595

weight f4 [128, 1024]
00000000: 215a d73d c345 133c e503 633c 028b 093d
00000010: 4492 f3bc d34d ce3d 171e 17bd 393b 8e3d
00000020: 3555 90bd 5637 c3ba 11b9 7d3b 8e96 8d3d
00000030: b6b8 8e3c fd9a ab3d ca66 3ebe 4777 cc3d
00000040: f17d 81be 50ae 28bc bd2f 9cbb 3cef b03d
00000050: 8047 903d 2839 c53c 70c2 8b3b 20d7 0b3d
00000060: fd5d 44bd 4c8f 483a 0906 0ebe 6bf8 f83d
00000070: eba3 953d cc73 39bd 3583 85bd 4375 1b3d
00000080: 778c b5bd 66d5 013d 763e 3dbc d80e 913c
00000090: 106d 9ebd 5d55 9c3c aa92 a3bd 3f22 fabd
000000a0: 829f c6bc 0c5c 503b b818 8fbd 2e96 083e
000000b0: 0d34 0c3d 85b6 33ba 8c18 59bd c3ab 2a3e
000000c0: c6cf 3ebd 136a 9a3d 88d4 243e 230b 3c3e
000000d0: 033a 7aba 0afd 9abd 993e d5bc 5869 9cbb
000000e0: c895 783d 9aba 38bb 68b8 513d bc63 87bc
000000f0: bde2 4fbb 0bc5 d33d 5bc2 8bbc ce5d 7d3c
00000100: b4f5 0dbe 6698 c43d 62cd 30bd 6c5d 95bc
00000110: 3141 32bc 7500 c3bc 7e37 04be a9d8 aabd
00000120: bae9 06be 9d98 553d 4208 dd3d d95e 243d
00000130: 12d5 0abe 6060 9bbd c5d6 e4bd f173 0d3d
00000140: ebcc 0abd 6fd9 ebbd 8f33 753d 5396 be3d
00000150: e726 a03c fd34 ce3d 8e6c d5ba 7202 35bd
00000160: c7cb 20bd 9189 8d3b e7a7 3dbd e20b fc3d
00000170: c762 0ebe 6955 333d 0a8f 26bd 39f3 b8bc
00000180: 0c2c 843c 7bb1 1d3d c7ad cf3c 29dc 88bd
00000190: 91fc 8fbd 5eea 16be 3c8b a7bd 0faf 873b
000001a0: fc0b d83c 23c2 1e3d d0bc 32be 6e48 b0bc
000001b0: 6d57 c73d 5feb 633d 01f2 113d c378 1bbc
000001c0: e20b d03c 90e4 823d fe4e 333d 5ff8 09bd
000001d0: ee52 0dbc da7d 43be dc35 5d3c 86fc acbd
000001e0: 1fba 5fbd c598 b73b 34d7 53bd f78e edbc
000001f0: 0849 b83c c870 1d3e cebe 3f3a a2b2 18bc
00000200: 8571 823c 37be 0e3d bce0 063c 1d55 9e3c
00000210: 36e7 81bd 3973 263c 4f30 80bd f943 b5bd
00000220: 472a fd3d 25e2 e6bb 58fe 7ebd 1553 bb3d
00000230: b130 a0bd 4ce5 fabd 1502 1cbe 65b4 983d
00000240: 6ffe 963d a8dc 683d bbde 173e d8e3 d43d
00000250: b942 d43d a6bf 6dbd 887e b63c e005 593c
00000260: 586c dcbd 1fab 45b9 8880 cebd 1a61 43bc
00000270: bd88 0e3e f384 163d 3ac5 033e 4072 ac3c
00000280: 1a06 e63c b06a 853d 2980 203d 611b 903d
00000290: 060d 193e 8fbd 623c c8ed b339 0fd8 03be
000002a0: 55cb 463d a68b e73c 1e0d 0cbe 99bc 99bc
000002b0: 0b29 1d3d 1d04 59be 16d6 40bd d2e3 24be
000002c0: 2204 953d 835f fe3b aa74 e2bd 9c5e 3ebd
000002d0: b2b9 60bc 1458 0e3a dcea aeba c210 b13d
000002e0: 0de6 54bd 9eff b83d 7f95 cebc 6c45 91bd
000002f0: f5dd 9ebd 3602 973b 3a83 bdbd 4f58 3bbd
00000300: 0f21 a8bb 3b4f 7ebd cafe 8b3d 65c1 cebc
00000310: 77fc 533d fdeb ee3d 8613 2c3c 358a 1d3c
00000320: fa19 093d 79c2 29bd b71c c13d 80ef 26be
00000330: d7c0 dabd 56f7 15bd b104 a43c 031b 9fbd
00000340: 9591 05bd c428 86bd 693e 68bb 7288 bf3c
00000350: e405 30bd 0d23 933b 54b4 07bb a4b0 36bc
00000360: b879 87bc 6e97 2cbc 1cb0 cabb cbda 72bc
00000370: 7f41 adbd ade3 2cbd ee84 e13d 366f b2bc
00000380: 580f 22be 500f 11bd 3f8a 4dbd b2f5 9dbd
00000390: dd9b 77bc 7f5c 623c f5a8 1c3c dadb e93d
000003a0: 5c48 8bbd 8d17 87bd 38db c9bd 40ba 78bc
000003b0: 1eb8 fa3d ed48 2bbd 47ce a53d d943 b8bd
000003c0: d8a6 bd3d dd97 ca3d f52b 49b8 da29 143e
000003d0: 0f2a 3fbd 83fb b43c 3d21 d93d e26d 173d
000003e0: 7b15 44bd 917b 473d 4d0e e13d d7f9 f5bb
000003f0: 1a2d 7abc a556 f9bc 5bd1 b2bd 8a69 5b3d
0.105152376 0.0089888 0.013855909 0.033579834 -0.02973283 0.100734375 -0.03689393 0.069448896
-0.07047502 -0.0014893811 0.0038715045 0.06913482 0.017422061 0.08379171 -0.18593898 0.09983688
-0.25291398 -0.010295466 -0.004766433 0.0863938 0.070448875 0.024075106 0.004265122 0.034140706
-0.047941197 0.00076507474 -0.1386949 0.12156757 0.073066555 -0.045276448 -0.065191664 0.037953626
-0.08864682 0.031697653 -0.011550536 0.017707273 -0.07735646 0.019083673 -0.07986958 -0.12213563
-0.024245981 0.0031793145 -0.069871366 0.13338539 0.034229327 -0.00068555056 -0.053001925 0.16667084
-0.046584867 0.07539763 0.16096699 0.18363623 -0.00095453876 -0.075677946 -0.026030825 -0.0047733
0.060689718 -0.0028187395 0.051201254 -0.01652705 -0.003172084 0.10340317 -0.01706045 0.015464259
-0.1386326 0.0959938 -0.04316462 -0.018233024 -0.010879801 -0.023803929 -0.12911794 -0.08342106
-0.13175097 0.052147496 0.10792591 0.040129516 -0.13557842 -0.075867414 -0.111737765 0.0345344
-0.03388683 -0.115160815 0.059863623 0.09306016 0.0195498 0.100687005 -0.0016282962 -0.044191785
-0.039256837 0.0043193777 -0.046302702 0.12306954 -0.13904868 0.043782625 -0.040663756 -0.022576915
0.016134284 0.038499337 0.025351418 -0.06682617 -0.07030595 -0.14737841 -0.08180854 0.0041407417
0.026372902 0.038759362 -0.17454839 -0.021518912 0.09733472 0.05564439 0.035631184 -0.009489241
0.025396291 0.06391251 0.043776505 -0.03368413 -0.008625729 -0.19090977 0.013501611 -0.084466025
-0.05462086 0.0056029283 -0.051718906 -0.028998835 0.022495762 0.15375054 0.0007314504 -0.009319933
0.015923271 0.03484937 0.008232292 0.019327695 -0.06342928 0.010159307 -0.06259214 -0.088508554
0.123615794 -0.0070460015 -0.06225428 0.09146706 -0.07821787 -0.12250766 -0.15235169 0.074562825
0.07372748 0.05685106 0.14831059 0.1039502 0.10364289 -0.0580441 0.022277132 0.01324603
-0.107628524 -0.00018851132 -0.10083109 -0.011925006 0.13919349 0.036747884 0.12868205 0.021050572
0.028079081 0.0651449 0.039184723 0.07036472 0.14946374 0.01383914 0.000343187 -0.12875389
0.048533756 0.028264832 -0.13676879 -0.018766688 0.03836922 -0.21192975 -0.04707917 -0.16102532
0.07276179 0.0077628507 -0.11057408 -0.046476945 -0.013716148 0.0005429995 -0.001334514 0.086457744
-0.051977206 0.0903313 -0.02521777 -0.07093319 -0.07757179 0.004608418 -0.09253545 -0.045738515
-0.005130894 -0.06208728 0.068357065 -0.025238702 0.05175444 0.11666105 0.010502702 0.009615471
0.03347204 -0.04144523 0.09429305 -0.163023 -0.106813125 -0.03661283 0.020021768 -0.07768824
-0.03260954 -0.06550744 -0.003543759 0.023380492 -0.042974368 0.0044902624 -0.002070685 -0.011150513
-0.016537532 -0.0105341505 -0.0061855447 -0.014822672 -0.08459758 -0.042209316 0.110116825 -0.021781545
-0.15826166 -0.035414994 -0.05018067 -0.07712878 -0.015112844 0.013815998 0.009561767 0.114188865
-0.06800911 -0.06596289 -0.09856266 -0.015181124 0.12242149 -0.041817594 0.08095985 -0.08997316
0.092603385 0.09892247 -4.7963073e-05 0.1446909 -0.04667097 0.022092586 0.10602043 0.036970027
-0.047872048 0.048701826 0.10989056 -0.00750659 -0.015269542 -0.030436823 -0.08731338 0.053567447

bias f4 [128]
00000000: 5871 b0bc 8115 2abd 8670 27bd 0a3a 46bc
00000010: 7af4 a9bc 63bc 8a3c a31e 8e3d a90b e2bc
00000020: 8652 fe3d a962 08bd c351 a4bd f90f eebc
00000030: fe2f 273e 97c4 48bd 5968 803d 29e8 95bc
00000040: 88af 873d 0c9d db3d 204e f1bc 13c0 853d
00000050: 9e69 503d 6646 7fbd d722 06bd c6a2 033e
00000060: 6387 12bd db06 2cbd b94f 0d3e ced8 77bd
00000070: 367c e6bc daa4 143d 2170 ed3c 3664 813d
00000080: 0f50 f83c 8019 4c3d caf4 b5ba 1256 27bd
00000090: 082e a33d c600 6a3e 6d45 4e3d 3907 3f3e
000000a0: 1877 ab3d fbb9 4dbd a95f a8bd 4d1e 863c
000000b0: d108 ce3b f8cc d13d fcdd 65bd a81d af3d
000000c0: a5a0 7c3d 5a3f 813d f80e 97bc d7d9 4ebc
000000d0: 3f56 f23d d213 b3bb 28f7 b8bc 68bc cc3c
000000e0: f42e a43d 0d94 bebc a381 cdbb 153e 6cbd
000000f0: dc39 453e a726 40bc 2485 1dbd 0026 8c3d
00000100: 3c58 ff3c 4a0a ab3d 9cef 813e 8998 0d3d
00000110: 2e68 7dbd 559c b4b8 e758 f8bc 2940 30bd
00000120: c523 c53d 91fd fcbc c5d2 80bd 7413 9abd
00000130: 6f51 123c 990a bb3d 3a08 b23c 5d73 933d
00000140: ae21 bd3c e754 b03d 1cc3 0abd ba0f 9c3d
00000150: 7c66 783d d242 40bd 9fa4 a93c f987 ec3a
00000160: dc09 a83d 490c 3dbc 9645 0ebd bd1c fd3d
00000170: 782e 74bc 0f77 123e 8446 613d 5c8d 53bd
00000180: 1570 5dbd 694e ad3c 1b4a 663d 7f01 a23d
00000190: 0496 913d 150c 3b3e 9b28 acbc 00ca c4ba
000001a0: 7bbd f7bc 0c46 04bd 2796 6abd f843 3c3d
000001b0: 4f93 023d c896 1d3d e59d 983d 6421 83bc
000001c0: 7fad 76bd ed39 b53d 20c3 1dbd b8c5 bbbc
000001d0: c8a5 093d 32a2 2e3d 53b2 6b3d afd2 fd3d
000001e0: 3b24 dc3c b9da 183c 6ab0 abbd 2c35 953d
000001f0: daef 5ebd 067a 8b3d 98b3 953d d8bb f13d
-0.021538422 -0.041524414 -0.040878795 -0.0120987985 -0.020746458 0.016935533 0.06939437 -0.02759345
0.12418084 -0.033297215 -0.08023407 -0.02906035 0.16326901 -0.049015608 0.06269903 -0.01829918
0.06625277 0.10723314 -0.029456198 0.06530776 0.050881974 -0.062322997 -0.03274807 0.12855062
-0.035773646 -0.041998725 0.13799943 -0.060509495 -0.0281354 0.036290027 0.028984131 0.06317942
0.030311612 0.049829006 -0.0013882157 -0.040853567 0.07967764 0.22851858 0.05035918 0.18655099
0.08372325 -0.050226193 -0.08221371 0.01637187 0.006287672 0.10244173 -0.056119904 0.08550578
0.06167664 0.063109115 -0.018439755 -0.012625179 0.118328564 -0.0054650092 -0.02257879 0.024992183
0.08016768 -0.023263955 -0.0062715574 -0.057676394 0.19260353 -0.011727965 -0.03845705 0.068431854
0.031170003 0.08351572 0.2537812 0.034569297 -0.06186693 -8.612188e-05 -0.03031583 -0.043029938
0.09625963 -0.030882629 -0.06290201 -0.07523242 0.008930548 0.09132881 0.021732438 0.07199738
0.023087349 0.08609944 -0.033877477 0.07620187 0.06064461 -0.046938725 0.02070838 0.0018045894
0.082050055 -0.011538574 -0.03473433 0.12358997 -0.014903657 0.1430323 0.05499889 -0.051648483
-0.054061968 0.021155553 0.056223016 0.079104416 0.07108691 0.18266328 -0.021015456 -0.0015013814
-0.030241719 -0.032293364 -0.057272103 0.045963258 0.031878766 0.038473874 0.07451991 -0.016007133
-0.060224053 0.08848939 -0.038516164 -0.022921428 0.033605367 0.04263515 0.05754311 0.123937
0.026872745 0.009329491 -0.08383258 0.07285532 -0.05442796 0.068103835 0.073096454 0.118034065

weight f4 [15, 128]
00000000: a1ec e4bd 114d 413e d02b dfbd 751e 1c3c
00000010: 89db 17bd aecd afbd a127 b63d 009a 3ebe
00000020: 6ec0 ce3c 3721 f23d b66c b3bc 0549 bd3d
00000030: 0c18 d13c 6be0 ac3d af7a 9ebd 2e31 78bd
00000040: 6bab abbd 439e 4abe 2448 18bd 63d5 27bd
00000050: fb5c 063e 0dc2 4d3d 81e4 d8bc 9ade a6bc
00000060: 8024 283e ca8d 613d 6b81 103c 6286 bf3c
00000070: 7768 013e 0c62 053d 5ff7 8c3c 8a1d f5bd
00000080: c171 7abe 8de4 f7bc da97 363b 793a 803e
00000090: c6f6 903c 7dc6 9a3c 9280 c6bb ec14 2c3d
000000a0: 76a1 89bc ef37 bb3c 2bb1 1a3d 6cbd 94bc
000000b0: 646f ee3c 7be7 ccba 7030 f1bd a0ba 303d
000000c0: e7c0 6dbd 3666 3bbd ccb8 003b ea24 97bd
000000d0: cbf8 8a3d 807f 4f3d 4bb9 1cbe 1d2f adbd
000000e0: 8cd1 923d 6200 8e3e 0607 323e 1d7e a43d
000000f0: d2b6 313d be1a 893d dac8 27be b24e e1bd
00000100: 9d5b e6bd c335 2abe 3359 e03b 712f 413d
00000110: afed f3bc 58dc 18bd f707 263e fe20 94bc
00000120: 0f94 5cbc fa00 1abe 47bf fe3d d74e bcba
00000130: b8ef 52be 208b 82bd 9539 283e 4ebe ff3d
00000140: 3a18 e03d 89fc 01bc 4619 513e 5bc6 e0bd
00000150: 1dae d43c e9ed ed3b d4d0 84bd 8e40 34be
00000160: 7a5d 763d d46e 2b3e 2d9d d13d bb1f afbd
00000170: a871 933d 160f f4bd 6de8 a03d 612f ea3d
00000180: 2c9f fd3d 9e1a 11be bf8b 21be c044 fcbd
00000190: 2808 913b d964 403d fef2 e83d 6042 d2bd
000001a0: ac63 1e3d 6861 ec3c 2af3 a83c 1467 15be
000001b0: 1163 003e 9433 6dbe ddd0 e2bd 4ab9 413d
000001c0: 50e2 323d 60e0 82bb d561 1d3e ac59 1abe
000001d0: 6c47 15bd 0a71 3abe 4fd3 fcba 58c2 063e
000001e0: 7e81 19be 460f c23c b442 063e 86aa 4dbd
000001f0: e415 343d 89ea 0cbc 1891 b6bd bdb5 26be
00000200: f777 f73d b7ca 023d 192a 3bbd 3e03 093c
00000210: 2a72 543d 9e3f 0cbe cc99 14be 97ff 85bd
00000220: 08d3 253b 456b 35be 188b a23d 1545 3b3c
00000230: 25a3 04be 9922 5d3e 2ec0 7bbd 7854 a2bd
00000240: 61e6 a7bc 59f6 b5bd 4147 bf3c 5ff7 b43c
00000250: 002e e8bd 1bc8 b0bc dbea 973c 9f79 ae3d
00000260: 9672 243e 101b 19bb 269d 42bd 3b7a 323e
00000270: b920 3cbe d18c 92bd 7439 e7bc cf1b bfbc
00000280: 54ad 13bc 3288 233d 2b07 193e 71a8 783e
00000290: 78a0 4c3b 1392 68bc faad f4bc f416 8b3b
000002a0: 7c14 e33d 6233 7dbd 863c 01be 72db 69bc
000002b0: 6971 b13c 4fb8 c6bd 309f 36be 5e2f f1bc
000002c0: e78c 06be 185d 5bbd 4fc5 923d 59f4 da3c
000002d0: 1751 a0ba 5ab2 a4bd 9aba 213e 340e c0bd
000002e0: 6e3c 9f3d 3a66 033e 3102 82be e11e a4bc
000002f0: 43ee 89bd c5f5 afbc cb3d 42bc 967d 2d3d
00000300: 2a92 e73c ad84 983d 96e3 3e3d c3e6 c83c
00000310: ba18 463e 356c 393c 4c8f cabd 245a d9bd
00000320: ebef 0ebd 9e9d 053e 0e81 0a3e e7a9 d63b
00000330: 7972 943d 9376 da3d e1f7 013c 25ce 5e3d
00000340: 106b 11bb a2a0 a2bd e34b 9a3d aaa6 1ebd
00000350: ec1c cebd 9f22 1d3b aabd ff3c 5a22 90bd
00000360: e6cb 193c 13f5 3c3c a3cb abbd 1304 123d
00000370: 0500 093e 28a8 b9bc 397f 2a3b 9a4c 3cbd
00000380: 0d6d 5abd 649b 19be 8ca5 b1bc 9a75 483d
00000390: 904c 9a3c 04f0 853d 2282 dc3d 39ff 36bc
000003a0: ae18 d23d 6192 06bd 8f01 0a3e bec4 1d3d
000003b0: 6c75 5abd 123a 6e3d 1613 39bd b042 733d
000003c0: db32 aa3c a0a6 89bd 6b71 8d3d 6b27 403e
000003d0: 281d e1bc 6035 193c 7416 5f3d 7ae1 a03a
000003e0: 6bfa 22bc f034 e03d 4acc b23d 2488 a8bd
000003f0: 9442 4dbd 7447 a73d 4562 b2bd 9a10 14bd
-0.11177946 0.18877055 -0.108970284 0.009528746 -0.0370746 -0.08584152 0.08894277 -0.18613434
0.025238242 0.118227415 -0.021902423 0.09242443 0.025524162 0.08441242 -0.07738244 -0.060593776
-0.08382305 -0.19786935 -0.037178174 -0.040974986 0.13121407 0.05023389 -0.026476147 -0.020369817
0.16420174 0.05506686 0.008819918 0.023379508 0.12637506 0.032564208 0.0172078 -0.11968525
-0.24457456 -0.030260349 0.0027861507 0.2504461 0.017695796 0.018893475 -0.0060578072 0.04201214
-0.016800623 0.02285382 0.037766617 -0.01815673 0.02910585 -0.0015632951 -0.11776817 0.04314673
-0.058045294 -0.045751773 0.0019641398 -0.07380088 0.06785735 0.050658703 -0.15305059 -0.08456252
0.07168874 0.27734667 0.17385492 0.08031867 0.04338724 0.06694554 -0.16385213 -0.11001338
-0.112479426 -0.16622071 0.006846571 0.047164384 -0.029776422 -0.03731951 0.16213976 -0.018082138
-0.013463034 -0.15039435 0.12438827 -0.0014366758 -0.20599258 -0.06374192 0.16428216 0.124874696
0.10942121 -0.007933744 0.20419797 -0.10975333 0.02596193 0.007261027 -0.06485143 -0.1760275
0.06014774 0.16741496 0.10235057 -0.08550974 0.071994126 -0.1191694 0.07856832 0.11434818
0.12383875 -0.1417031 -0.15775965 -0.123178005 0.004426021 0.046971176 0.11374472 -0.10266566
0.038669273 0.02885504 0.020623762 -0.14590102 0.12537791 -0.23164207 -0.11074994 0.047295846
0.04367286 -0.0039940327 0.15369351 -0.1507327 -0.036445066 -0.18207183 -0.0019289049 0.13160074
-0.14990804 0.023688924 0.13111383 -0.050211452 0.04396619 -0.008600839 -0.08914393 -0.16280265
0.12083428 0.031931605 -0.045694444 0.008362589 0.051866688 -0.13696143 -0.14511794 -0.065428905
0.0025302786 -0.17716701 0.07936686 0.011430045 -0.1295286 0.21595229 -0.061462574 -0.079262674
-0.020495595 -0.08884878 0.023349406 0.022090612 -0.11336899 -0.021579793 0.018544605 0.08519291
0.16059336 -0.0023362078 -0.04751315 0.1742944 -0.18371858 -0.07155765 -0.028225638 -0.02332869
-0.009013493 0.039924808 0.1494414 0.24283005 0.0031223577 -0.014194983 -0.029868115 0.0042446796
0.110878915 -0.06181658 -0.12620744 -0.014273511 0.021660523 -0.09703123 -0.17834163 -0.029441532
-0.13139687 -0.053555578 0.0716654 0.026727842 -0.0012231198 -0.0804183 0.15793839 -0.09377709
0.07775198 0.12831965 -0.25392297 -0.020034255 -0.06734898 -0.021479497 -0.011855553 0.042356096
0.028267939 0.07447181 0.04660376 0.024524098 0.1934537 0.0113173025 -0.09890613 -0.10612896
-0.034896772 0.13048407 0.13525793 0.0065510157 0.072483964 0.106671475 0.007932634 0.054395813
-0.0022189058 -0.079407945 0.075340055 -0.038733162 -0.1006411 0.0023976935 0.031218369 -0.07037802
0.009386992 0.01153304 -0.0838845 0.035648417 0.13378914 -0.022663191 0.0026015772 -0.04597149
-0.053326655 -0.15000683 -0.021685384 0.04894028 0.018835336 0.0653992 0.10767008 -0.011169248
0.102586135 -0.03285444 0.13477157 0.038517706 -0.05333464 0.05816085 -0.045184217 0.05938977
0.020776203 -0.06721234 0.069063984 0.18765037 -0.027479723 0.0093511045 0.054464772 0.0012274229
-0.0099474 0.10947597 0.08730371 -0.08229092 -0.050112322 0.081679255 -0.0871015 -0.036148645

bias f4 [15]
00000000: ad8b 403c 29ac 28bc 6b13 093c 6cee 153b
00000010: 4599 87bc f1d1 c0bb a205 3dbc 1b84 bbbc
00000020: c9ce b2bb 2374 0c3c cc74 0dbd 4b48 df3c
00000030: 836a 633c 9ffe c03c dc70 e13b
0.011752051 -0.010294952 0.008366446 0.0022877706 -0.016552577 -0.005884402 -0.0115369875 -0.022890141
-0.0054567796 0.008572611 -0.034535214 0.027256152 0.013880375 0.023558913 0.006879909

weight f4 [1, 128]
00000000: 05c3 55bb 0a14 91bc 08fc e2bb 1a04 82b8
00000010: 7734 1abc 626b 6dbc 7922 f23c 5541 143c
00000020: 0460 e23c 5829 23bc 5d30 71bd cd3b 2739
00000030: 1fd3 713d 1e0b 43bc 8f18 22ba 9eba 073c
00000040: 1659 123a a976 283d 9b31 41bb f530 af3b
00000050: bbc3 883b ebdd 63bb 4777 73bc f35b 913c
00000060: 7547 9d3b 5cf4 81bb d96e bb3c 194f fa3c
00000070: e971 eaba d1d7 5f3c 7933 fa3d a0da 9c3c
00000080: 17f5 f33b 3ff8 903d c646 1c3c 1704 77bb
00000090: 090a 2a3c 2061 653d 68a9 fc3c f308 183d
000000a0: c509 57bb 5047 953a e143 82bc 5ccb 4f3b
000000b0: 002d 663b 8216 1e3c 8598 70bb 8ce6 103d
000000c0: de0e edba 9f82 28bb 82b6 f23b 1a3a 22bb
000000d0: 2f73 b83c 2381 8d3c 67e5 2cbc 6d72 993c
000000e0: 2a97 813c 09a3 1cbb 4899 fcbb 71d1 b2bc
000000f0: 7061 323d 2dec 053b 2b5c 0a3b 3199 133b
00000100: a8e2 bfbb dd86 a53c 7888 893d b1a0 a63c
00000110: db8f 2bbc 3b46 873c 427c 533b 8dd0 7b3b
00000120: 67db a03c d271 f1bb b0d0 d4bb 6a32 59bd
00000130: 0b9e 513c 09cf 0d3d 0f6f 053c e09e 1a3c
00000140: bfea 37bc 71e9 beb9 fe1e b8bc 93a0 3c3b
00000150: bf9d a73c a32e 18bc 7f1c 003c 73af 573c
00000160: e443 7d3c a703 713c 798a 8e3a af7a c03c
00000170: 06df 813b 0b7a 673d 14e3 273d 4ae7 e0bc
00000180: 5445 21bc addb cebb 1a7a 793c e56d 803c
00000190: 962e 823c d8af 1a3d d04f 233b 6494 8dbc
000001a0: 5e3b 583a 38f8 23bc 79e4 acbb 13ab de3a
000001b0: a138 0e3e 6d75 193c 1cae a23d 6bb9 b9bc
000001c0: 789c c73a 08d7 bf3c 6f56 00bd 2789 45bc
000001d0: bf4a 493c 2ae8 3aba 7ae3 cf3c 44a2 6c3d
000001e0: bd66 7039 3741 8239 be62 08bd f147 293d
000001f0: 4133 70bc ecea 5f3a 484c 963c c7d4 4b3d
-0.0032617461 -0.01770975 -0.006927017 -6.199647e-05 -0.009411923 -0.014490934 0.029557453 0.0090487795
0.027633674 -0.009958588 -0.058884013 0.00015948639 0.05903923 -0.011904506 -0.0006183469 0.008284239
0.0005582733 0.04112879 -0.002947903 0.0053464123 0.0041737235 -0.0034769725 -0.014859981 0.01774404
0.004799778 -0.0039658975 0.022880005 0.030555295 -0.0017886731 0.0136622945 0.12216849 0.019147217
0.0074449885 0.07078599 0.009538358 -0.0037691647 0.010378369 0.05600083 0.030842498 0.03711791
-0.003281222 0.0011389051 -0.015901508 0.0031706905 0.0035122037 0.009648921 -0.0036712002 0.035376117
-0.0018086096 -0.0025712622 0.0074070105 -0.002475387 0.022515861 0.017273491 -0.010552741 0.01873132
0.015819151 -0.0023900887 -0.0077087022 -0.021828385 0.043549955 0.0020434961 0.0021112065 0.002252173
-0.005855877 0.02020591 0.067154825 0.020340296 -0.01047131 0.01651298 0.0032270108 0.0038423866
0.01963587 -0.0073683048 -0.006494604 -0.053026594 0.012794028 0.034621272 0.008144154 0.009437293
-0.011225401 -0.0003641355 -0.022475716 0.0028782233 0.020460961 -0.009288463 0.007819294 0.013164389
0.015458081 0.014710343 0.0010875008 0.023496 0.003963354 0.056512874 0.040988043 -0.027454037
-0.009843189 -0.0063128085 0.015226865 0.015677402 0.015891355 0.037765354 0.0024919398 -0.017282672
0.00082485925 -0.01000791 -0.0052762595 0.001698824 0.1388879 0.009366375 0.07943365 -0.022671422
0.0015229126 0.023417965 -0.03133243 -0.012056625 0.012285887 -0.0007129932 0.025377024 0.057771936
0.00022926457 0.0002484412 -0.033297293 0.041328374 -0.014660657 0.0008541781 0.01834692 0.049763467
