results_final/generalization-128fd/30levels-128fd-policy.pt (torch, 843679 bytes, 11 tensors)

weight f4 [32, 3, 8, 8]
000000 9c bb 69 3d 35 0c df 3c 92 41 ae bd 03 e6 35 3d
       0.057063684 0.0272275 -0.085086 0.04440881
000010 f7 5c 0d 3d 7f da 9a bd 9f fc 80 3b e8 48 88 bd
       0.034512486 -0.07561206 0.003936365 -0.06654531
000020 15 8c 98 be 96 49 03 be 79 5a 31 be ee 06 ac bd
       -0.29794374 -0.1282104 -0.17319669 -0.08399759
000030 0e b5 93 bc ab 01 9b bb 8c 19 08 bd ab 6d d4 bd
       -0.01803067 -0.0047304234 -0.03322749 -0.1037248
000040 da f8 1c 3d 61 37 ed 3d fa b2 24 3b 34 b8 c4 3c
       0.03832326 0.11582828 0.0025131092 0.024013616
000050 da f2 6f 3d 20 65 5e 3d ed 81 e8 3d 95 4f 0d 3e
       0.05858121 0.05429566 0.113529064 0.1379989
000060 88 d2 df 3c e5 63 aa 3c 7c 91 15 3d 57 dc b1 bc
       0.027322069 0.020799587 0.036515698 -0.021711512
000070 f6 10 44 3e e4 8c 86 3c 98 8d 72 3d cb cd c4 bd
       0.19147095 0.016424604 0.059217066 -0.096095644
000080 a9 74 03 bd 08 f1 c1 bd c9 87 fa bc d6 be 1d bd
       -0.032093678 -0.09469801 -0.030582326 -0.038512073
000090 b7 ef f7 3c b8 da ab 3d 5a d3 a6 bd 3f 13 16 3d
       0.030265672 0.08391327 -0.08145781 0.03663945
0000a0 06 96 82 3d f2 22 0c bd 82 bb 4f 3e a5 ea 69 bd
       0.06376271 -0.034213014 0.20286372 -0.05710854
0000b0 93 ef b4 3c 81 12 d4 3c 26 99 3c 3d bf 02 b9 3c
       0.022086894 0.02588773 0.04604449 0.022584317
0000c0 d0 1f 8e bd a2 3e ce 3d dc 16 a7 3d 45 ee 58 be
       -0.069396615 0.1007054 0.08158657 -0.21184643
0000d0 1e f6 96 3c b0 4a 79 3c 87 2c 89 bc f1 d3 88 3c
       0.018427905 0.015215561 -0.016744865 0.016702624
0000e0 5d 6f 41 3e b9 2d d1 3c 30 c4 7f 3b a8 7d 00 be
       0.18890138 0.025534498 0.003902685 -0.12547934
0000f0 ac e0 11 3e ef 22 5e bd 72 cb ca 3d 47 80 94 3d
       0.14245862 -0.054232534 0.09902085 0.072510295
000100 15 73 68 bd b9 93 15 bd 0e c2 65 3c 57 6d b0 bd
       -0.056750376 -0.036517832 0.014023317 -0.08614605
000110 53 04 04 bd 50 1f 16 3e f3 a0 15 bd 4a e2 94 bb
       -0.032230686 0.14660382 -0.036530446 -0.0045435773
000120 ab bf 94 bd 6b b5 71 3c 15 6a a0 3d 38 27 df 3d
       -0.0726312 0.014752726 0.078327335 0.10896152
000130 bf 95 7e 3d 38 54 c2 3b 2d 63 6a be 76 36 bc bd
       0.062154528 0.00593045 -0.22889395 -0.09190075
000140 7a 34 da bc c1 44 44 3e 10 a7 88 3e db 86 a8 bd
       -0.02663635 0.19166853 0.2668996 -0.08228847
000150 d4 12 ec 3d 2d 23 02 3e 81 16 19 be 17 d4 cb bd
       0.11527029 0.12708731 -0.14949991 -0.09952562
000160 bb b5 8b 3d a3 8d d1 3d 89 4a ee bd e2 87 a1 bd
       0.06821772 0.10232093 -0.1163531 -0.07887246
000170 1b 4a c1 3c 51 ca 94 3b 57 40 d0 bd 69 ab d1 bd
       0.023594907 0.0045407196 -0.10168522 -0.10237772
000180 3a 20 9e 3d 8a fa 55 bd d5 2d f4 bc 22 46 a5 3e
       0.077209905 -0.052240886 -0.02980701 0.3228007
000190 21 9e c7 bd 14 fc e7 3d 05 22 dd bd 1d 47 b1 3b
       -0.097469576 0.11327377 -0.10797504 0.0054100887
0001a0 1c af 18 3d fc 6b ac 3c ab ed 1a bd 98 31 1c 3e
       0.037276372 0.021047585 -0.037824314 0.15253294
0001b0 c8 2c 25 3d 73 bd 54 bd d6 ef 3c 3e 59 ef 9f bc
       0.04032591 -0.051938485 0.18450865 -0.01952331
0001c0 cf 67 00 3e dd 52 7e 3e 6e a1 90 be fb da a7 3c
       0.125396 0.24836297 -0.2824816 0.02049016
0001d0 a6 eb 05 bd 5f e5 47 bd 33 9e b8 bc b8 ad bf bd
       -0.032695435 -0.04880273 -0.022536373 -0.09359306
0001e0 b6 c6 89 3e b9 c4 37 bd 59 b3 d6 bd 5d c2 80 3d
       0.26909417 -0.044865344 -0.104834266 0.06287072
0001f0 a5 2b 07 be ca 25 a0 bd 70 97 da 3d 9e f7 34 3d
       -0.13200243 -0.07819708 0.10673416 0.04418146
000200 76 52 e6 3c 86 82 67 bd 0b 80 4f 3e 1f eb 0a 3e
       0.028115492 -0.05652096 0.20263688 0.13566254
000210 c6 59 cd bd 8f 82 a4 bd cf fb 0b be 54 79 e8 3d
       -0.100268885 -0.080327146 -0.13670276 0.113512665
000220 09 36 85 3d 98 fe 97 3e 30 55 e4 3d 87 4b 62 3e
       0.06504447 0.29686427 0.11149061 0.22099124
000230 86 e4 5d 3e 14 93 45 3e a4 06 c2 3e 40 d9 76 3e
       0.21669206 0.19294387 0.3789569 0.24106312
000240 4f d0 cf 3d f1 03 ab 3e 67 f0 81 3e 8d 81 a7 3e
       0.101471536 0.33401445 0.25378725 0.32716027
000250 02 e5 84 3e 2e 0c b0 3e 07 0d bb 3d e0 b9 29 3e
       0.2595597 0.34384292 0.09133344 0.16574812
000260 7e 2c 42 3e 12 67 e7 3d cf e9 cb 3d cc 62 b4 3e
       0.18962285 0.11298956 0.09956705 0.35231626
000270 82 ab 8f 3e 8c 06 06 be 7d 48 89 3d 13 48 d1 3d
       0.28060538 -0.13088435 0.06703279 0.10218825
000280 06 3f 73 3e 60 34 2f 3e 97 ca 57 3d 01 10 79 3e
       0.2375451 0.17109823 0.05268344 0.24322511
000290 12 90 6a 3e 94 69 a3 3d ed 27 85 be 46 0e 93 ba
       0.22906521 0.07979122 -0.26007023 -0.0011219464
0002a0 f3 7a 9b bd 30 73 a7 3d 08 e6 fe bd 4d cb 8b bd
       -0.0759181 0.08176267 -0.12446219 -0.06825886
0002b0 b8 38 04 3e 00 97 4d 3e 95 d1 65 be a5 1c ed bd
       0.12912261 0.20077133 -0.2244323 -0.11577729
0002c0 06 0a a3 bd ec c9 27 3e b7 69 95 be cc d7 49 3e
       -0.07960896 0.16385621 -0.29182217 0.19711226
0002d0 45 07 81 bd cc 03 ae bb bb dd 8c bd 49 2f 89 3e
       -0.06300215 -0.005310511 -0.06878229 0.26793888
0002e0 01 56 18 3e 9d 83 8b bd a4 97 dc 3d 0e 55 07 3e
       0.14876558 -0.068122126 0.10771111 0.1321604
0002f0 43 dd 5d 3e ae c9 28 3e e7 be 95 3e 19 8c 3c 3e
       0.21666436 0.16483185 0.2924721 0.18412818
000300 c4 ee 0a 3e a1 f1 b9 bd 0e 62 38 3e 93 73 11 3e
       0.13567644 -0.0907929 0.18006155 0.14204244
000310 2f 4c 9b 3d a1 c0 9b bd 38 00 73 bd c8 9a 75 3d
       0.0758289 -0.076051004 -0.05932638 0.059962064
000320 89 4a 4c bd 73 88 d5 3d 68 55 2e bc 93 4f 34 3e
       -0.04987577 0.10426416 -0.01064048 0.1760848
000330 bf bb ad 3d 16 a4 84 bc 9e 10 71 3e 90 60 8e 3e
       0.08483075 -0.016191524 0.23541495 0.27808046
000340 a0 99 13 3d 0e fb 43 be 3c c7 58 be f2 b4 90 bd
       0.03603518 -0.19138739 -0.21169752 -0.070657626
000350 10 c6 b5 bd 01 24 c9 bc 34 f5 8e 3c 53 28 5c be
       -0.08875668 -0.0245533 0.017450906 -0.21499757
000360 99 f7 84 3e 99 ad 43 bd b3 20 23 be 14 de 20 be
       0.25970152 -0.047772978 -0.15930443 -0.15709716
000370 9d 6b 17 3c 78 1b a1 be f4 8a b4 bd f5 c7 9a bc
       0.009241966 -0.3146627 -0.08815566 -0.018894175
000380 31 70 00 be ec 58 98 3c c5 f7 fa 3d e0 e9 38 3e
       -0.12542798 0.018597089 0.122542895 0.18057966
000390 16 87 e7 3d d2 34 2e 3d 3f 30 9c 3d 14 63 ee 3d
       0.113050625 0.042530842 0.0762639 0.116399914
0003a0 de 75 ea 3d 0b e7 fa 3c 5f 80 78 3c 93 76 86 3d
       0.11448263 0.030627748 0.015167325 0.06565585
0003b0 69 03 90 3d 51 6b 0d be 3a c2 43 be c7 aa b7 bb
       0.070319004 -0.13810469 -0.1911706 -0.005605075
0003c0 c2 dd 88 3e a4 e8 c7 3d 7b d3 ba 3d 03 51 74 be
       0.26731688 0.097611696 0.09122368 -0.23859029
0003d0 6a a0 58 bd 19 e4 ce 3d b5 52 45 be 08 7e 91 bd
       -0.052887358 0.101021 -0.19269831 -0.07104117
0003e0 0f 4a 67 3d 1c 1c 9a 3c 10 b9 06 be a6 20 80 be
       0.056467112 0.018812232 -0.13156533 -0.2502491
0003f0 93 cf 2d 3b 6c bb 61 bd 50 69 17 be b2 e7 09 3e
       0.002652143 -0.05511038 -0.14786267 0.13467291

bias f4 [32]
000000 b3 c9 73 bc 28 52 43 bb 0f 1c 59 3a 06 a9 75 bb
       -0.014879632 -0.0029803608 0.0008282074 -0.003748478
000010 d0 6a ea bb ea cd 9e bb 54 1d 96 bc 1e 37 20 bc
       -0.0071538463 -0.004846324 -0.018324532 -0.009778766
000020 b5 38 62 bb 1b be 09 3a cc 28 d8 b9 e8 49 32 bb
       -0.0034518663 0.0005254463 -0.00041229127 -0.0027204696
000030 0f 6b fa bc 6d eb 8b bc cd 32 99 3b e2 9a 4e bb
       -0.030568628 -0.017080033 0.0046752454 -0.0031525423
000040 ee e1 14 3d 2b 25 d6 bc b8 59 24 bc 51 bd 77 b9
       0.036348276 -0.02614077 -0.010031156 -0.00023626281
000050 2a 38 59 bc 38 51 05 3c 2c 6c 58 bb 52 1b d0 b9
       -0.013258019 0.00813704 -0.003302346 -0.00039693207
000060 99 87 f1 bc 66 a2 84 bc b9 93 f5 3b 26 ca 0d 3c
       -0.029483603 -0.016190719 0.0074944166 0.008654153
000070 67 f7 42 3d 25 6d 8d bd 9d d0 a1 bb 25 1a 8c bc
       0.047599223 -0.06905583 -0.0049381987 -0.01710231

weight f4 [64, 32, 4, 4]
000000 88 59 73 3d e8 47 17 3e a1 01 29 3d be 7a b1 bc
       0.059411556 0.14773524 0.04126132 -0.021664973
000010 ad 6b fa 3c 6d dd 72 3d a8 b8 65 bd ab e3 8e 3d
       0.030568922 0.0592932 -0.056084305 0.06977018
000020 2f 74 3f 3d 1d ac 95 bd 48 c4 82 3d 7f 5b 47 3c
       0.04674166 -0.07308219 0.06385094 0.01216781
000030 13 63 0f 3e 6f 52 48 bd 6d c8 63 3d ab bc 3b be
       0.14002638 -0.04890674 0.055611063 -0.1833369
000040 72 c8 1b be 13 05 e8 3d fe f1 e5 bd cb 93 02 3e
       -0.15213183 0.11329093 -0.11227797 0.12751691
000050 ad 11 14 be e0 71 8c bd 0e 32 fe bc f2 86 44 bc
       -0.14459868 -0.068576574 -0.031029727 -0.011995064
000060 30 8b 64 bd 67 52 37 be 39 45 29 be 97 87 51 3c
       -0.055796802 -0.17902528 -0.16530313 0.012788675
000070 4e 28 c5 3d de 32 5f 3d 38 82 a8 3d f9 f0 94 bd
       0.09626828 0.05449187 0.08227962 -0.072725244
000080 ac 03 d3 bd 9b 50 94 3c 1f 59 c5 3d 50 05 69 3e
       -0.10303435 0.018104842 0.09636139 0.22755933
000090 d9 39 c9 bd ad f3 ab bd c5 1b 5f 3d 68 34 d4 3d
       -0.09825487 -0.08396087 0.054469842 0.10361558
0000a0 23 04 b3 bd 90 c6 24 3c 6e 10 1e 3d 53 41 cf bc
       -0.087410234 0.010057107 0.038589887 -0.025299704
0000b0 a6 5d 1c 3e d3 43 c1 3d 57 b5 92 bc a6 d6 c2 bc
       0.15270099 0.094367646 -0.017908735 -0.023783993
0000c0 ed 1c c6 3d a2 b1 75 bb dd 75 d2 bd aa e8 b4 3a
       0.09673486 -0.003748991 -0.10276387 0.001380225
0000d0 ba 49 68 3e 9b 02 2e bd 9e 04 99 bd dd 59 aa bc
       0.22684374 -0.042482954 -0.07471584 -0.020794803
0000e0 23 da 42 bd 21 75 86 3d 71 ad 05 3e fb 90 c5 3d
       -0.047571313 0.06565309 0.13054444 0.096467935
0000f0 5b 06 81 3e 44 3d 4d 3d 9b 36 98 3c 1f 7c 04 3d
       0.2520016 0.050107256 0.018580725 0.032344934
000100 01 9d 8f bd da cd 92 3b 44 f3 0f be a0 07 e1 bb
       -0.07012368 0.004480106 -0.14057642 -0.006867364
000110 78 b0 54 3d 0e ad cb bd a0 46 62 bd 5b 02 ac 3b
       0.051926106 -0.09945117 -0.055243134 0.005249304
000120 d7 e4 ab bd 4c 91 81 bd 7f d0 08 be 61 93 44 bc
       -0.08393257 -0.06326541 -0.13360785 -0.0119980285
000130 71 d2 ed bb 38 fc 4e 3d e4 d6 4c bd aa 79 3d be
       -0.0072577526 0.050533503 -0.050009623 -0.18503442
000140 e7 2c ba 3d bf 55 8d 3d 52 04 57 bb 95 bc 47 3e
       0.09090596 0.069011204 -0.0032808972 0.19505532
000150 aa 5e 0f bd 0f 85 b1 3c 5d 80 4f bd 73 29 c5 3d
       -0.035002388 0.021669893 -0.050659526 0.096270464
000160 a2 d1 91 bd 83 59 44 3e 18 1e 0b be 8a fe 81 3d
       -0.071200624 0.19174771 -0.13585699 0.063473776
000170 2e fb 6e bd 69 24 a7 3d 3b 32 5c 3d 66 63 2c bd
       -0.058345012 0.081612416 0.05375884 -0.04208698
000180 d7 22 b5 bd 55 94 f1 bc 74 00 fe bd 5e fd 0c 3d
       -0.08844536 -0.029489676 -0.1240243 0.034421317
000190 1a 02 4e 3d 1e a4 2c bc 55 26 da bd 35 c5 a3 bd
       0.050294973 -0.010537175 -0.106518425 -0.07996599
0001a0 2a ed 1c 3c 02 fb 19 bd c5 6a 0e be 20 e1 7f bd
       0.009578029 -0.037592895 -0.13907917 -0.062470555
0001b0 78 79 25 bd 46 f7 6a 3d 06 3e 69 3e a0 fe 99 bc
       -0.040399045 0.057364725 0.22777566 -0.018798172
0001c0 24 22 77 bd 2a 33 99 bc 84 52 a9 bd 93 1d 5f 3d
       -0.060335293 -0.018701155 -0.08267692 0.054471564
0001d0 06 2c c7 3d 83 87 42 3d e7 33 83 bd 0f 0f 17 bc
       0.09725194 0.047492515 -0.06406384 -0.009219899
0001e0 68 a7 36 bd 83 53 3b 3e d4 82 0b 3e f6 be 08 3e
       -0.044593245 0.18293576 0.13624126 0.13354096
0001f0 f4 c0 ed 3d c9 3e 81 3e 09 25 e6 bd 41 65 8f bd
       0.116090685 0.25243214 -0.11237533 -0.070017345
000200 d0 59 c0 3d 7a 9e d5 bd 6d f1 57 bd b0 2f 20 3d
       0.093921304 -0.10430618 -0.052720476 0.03910798
000210 bd e8 22 3d 57 2e dc bd c2 87 02 bd e7 65 20 3e
       0.039772738 -0.10751026 -0.03186775 0.15663873
000220 64 46 30 bd 85 4a 20 3e 85 8c a6 bd 63 52 2f bc
       -0.04303588 0.15653427 -0.08132271 -0.010700795
000230 36 42 16 bd 34 7d 35 3d 19 4a c0 3d fd da aa bd
       -0.036684237 0.044308856 0.09389133 -0.0834255
000240 b8 09 a6 3d d2 0c c0 3c 89 27 a2 bd c3 22 f0 3d
       0.081073225 0.023443613 -0.07917697 0.1172538
000250 6c 53 fd 3d 70 5d 47 3e 8a 3b 33 3d 53 ff 84 bc
       0.12369427 0.19469237 0.043757953 -0.01623503
000260 1f d0 0b 3d 9b dd ac 3d 98 41 ba bd af 01 91 3d
       0.034134027 0.084407054 -0.09094542 0.07080399
000270 d1 92 2a bc 26 cf 4f 3d 5c af 07 bd ad 58 c1 bd
       -0.01041098 0.05073466 -0.03312622 -0.09440742
000280 15 27 3e bd a0 92 d2 bd 54 a4 28 3d 24 70 a3 3d
       -0.04642399 -0.10281873 0.04117234 0.079803735
000290 d2 34 0a be 05 64 46 3d 58 a2 a5 bd ed fa c4 bd
       -0.13496712 0.04843523 -0.08087605 -0.09618173
0002a0 1a ed 18 3d 8f 8c ff 3b 1f 6b 54 bd 26 43 d1 bd
       0.037335493 0.0077987383 -0.05185997 -0.10217886
0002b0 2f 32 57 3d 12 e2 b0 bc fb cb 9f 3d b3 8d 0b bd
       0.052538093 -0.021592174 0.07802578 -0.03407068
0002c0 41 47 8a be b4 80 0e bd 31 bf 02 3d f7 7b 4b 3d
       -0.27007487 -0.03479071 0.031920616 0.04967877
0002d0 3f 67 aa bd bf 11 c0 bd ec f8 53 bd d2 ad 85 bd
       -0.08320474 -0.09378385 -0.051751062 -0.06527294
0002e0 b8 8e b1 bd 71 21 28 be d4 22 d3 bd a5 21 38 3c
       -0.086697996 -0.16419007 -0.10309377 0.01123849
0002f0 72 b1 ef bc 69 19 01 3d e7 8f 67 bd 3b f9 26 be
       -0.029259417 0.031518374 -0.05653372 -0.16306011
000300 d3 ee 8b 3c 31 f9 31 3d cc 8e b3 3b b8 8f 00 3e
       0.017081654 0.043450538 0.005479669 0.12554824
000310 ae 93 36 3e 2f b1 8f 3c 69 c5 85 3d 11 ee 1d 3c
       0.17829773 0.017540542 0.065317936 0.009639279
000320 13 ef 9c 3d 8c db 38 3d d9 a2 45 bd 42 0d 6a 3a
       0.07662787 0.04513125 -0.048251007 0.0008928367
000330 ff b6 b4 3d 69 fb 87 3d fc fd 9e bb 8a 08 8b be
       0.08823966 0.066397496 -0.0048520546 -0.27154952
000340 0d a2 d7 3d e5 98 d4 3c 7f 30 bd bb bb 79 00 3e
       0.105289556 0.025951812 -0.0057736035 0.12546436
000350 69 ae 2b 3e ee 2b 99 3d f5 77 79 be 4e 0a d7 bd
       0.16765751 0.07479082 -0.24362166 -0.10500012
000360 0b 64 6a bc 39 44 a4 3c 0e ab ca bc 3a 88 d3 3d
       -0.014306079 0.020052062 -0.024739768 0.103287175
000370 52 08 aa 3d e6 85 55 3d ed 16 52 3d 82 5f ba 3c
       0.08302368 0.05212965 0.051291395 0.02275062
000380 8a 30 d5 bc 82 53 61 bd 15 8b 04 be d7 29 00 3e
       -0.026024122 -0.05501128 -0.1294368 0.1251596
000390 d4 d6 16 bd 44 d9 90 3c 50 00 a2 bd cf 2d c4 3b
       -0.03682597 0.017681725 -0.07910216 0.005986906
0003a0 65 bc 8f 3d ea b7 43 bd e7 b1 38 3d 9e 0c 8e 3d
       0.07018355 -0.047782816 0.045091536 0.06936
0003b0 e7 60 0b 3e c5 c6 83 3d 63 0a 14 be d0 96 20 be
       0.13611184 0.06434397 -0.14457087 -0.1568253
0003c0 90 2e 82 3d 13 1b b8 bd 6d 95 56 bb e9 01 fb 3c
       0.06356537 -0.08989539 -0.0032742873 0.03064056
0003d0 30 3b 15 be 6f 7e f8 bd ea 4b 27 bd 22 95 ba 3d
       -0.1457336 -0.1213349 -0.04084388 0.09110476
0003e0 8c 1d 00 3e ad 5e b0 3d cd 7b 63 bd ed 92 03 be
       0.12511271 0.08611808 -0.055537988 -0.12849016
0003f0 f4 be d0 3d ef 72 8b 3c fd d8 27 3c 5a 2e 76 3d
       0.101926714 0.017022578 0.010244605 0.060102798

bias f4 [64]
000000 a6 c6 ee 3c b4 07 0b bd b5 ad ef bc 60 ac 9d 3c
       0.029147457 -0.033942893 -0.029257635 0.019247234
000010 f9 bb 6b 3d 2b e7 b9 bc 6a 79 3a bc 6e c6 55 bd
       0.05755231 -0.022693237 -0.011381486 -0.05219119
000020 c5 48 f3 3b 9e 3c 95 3d 25 e7 b8 3d 41 39 0f bb
       0.0074244463 0.072869524 0.09028462 -0.0021854194
000030 80 8c 03 3b 65 bd db 3a 3e cc 7e 3d c3 37 3e bc
       0.0020072758 0.0016764818 0.0622065 -0.011609974
000040 57 0c d5 bc 13 92 48 be 64 57 5e bc 3d 1c e4 3c
       -0.02600686 -0.19586973 -0.01357064 0.027845496
000050 2f a7 2d bc 9f b9 20 3d 61 d8 a1 bd bf a3 ea 3c
       -0.010598942 0.039239522 -0.07902599 0.028642533
000060 38 a4 53 bd a8 9d f2 3c 13 b3 a0 3d 7d fe bf bd
       -0.051670283 0.029616192 0.07846656 -0.09374712
000070 76 2c 82 bc 13 40 9c 3c 98 0f 06 bc e6 09 93 bb
       -0.015890341 0.019073522 -0.008182429 -0.004487264
000080 d6 eb 57 bb d8 c8 ef bb c8 af 1b 3d 78 ec 21 bd
       -0.0032946966 -0.0073176436 0.038009435 -0.039532155
000090 7e 6a c5 bc 39 62 df bd 06 5f 27 be 76 08 21 bd
       -0.024098631 -0.10907406 -0.16344842 -0.03931471
0000a0 30 bc 05 be c3 12 96 bc c6 e5 25 bc 74 1d bd b9
       -0.13060069 -0.018319493 -0.010125583 -0.00036070833
0000b0 00 4b 53 3d 16 ac d7 bd 9f 8b cf bb 3b 6d 37 bd
       0.051585197 -0.1053087 -0.006333783 -0.044781905
0000c0 72 06 af bc f4 70 bc 3d 4f 8b 17 3d 3f 89 9d bc
       -0.021365378 0.092012316 0.03699809 -0.019230483
0000d0 d1 dc 23 bb 58 eb ee bd 18 be ee bc 3c 88 12 bd
       -0.0025003443 -0.11665982 -0.029143378 -0.035774454
0000e0 8e a3 b7 bc d9 5f 1c 3c 23 dd 88 bc fc 96 36 bd
       -0.022416856 0.009544336 -0.016707009 -0.044577584
0000f0 ec 6a 91 3d be de 82 bd cb 3c d6 3b 3d 01 93 bb
       0.07100472 -0.06390141 0.006538009 -0.0044862316

weight f4 [64, 64, 3, 3]
000000 95 0b f9 bd 70 5e 3e 3e 33 32 b6 3d 4e 12 7e 3c
       -0.12160412 0.18590713 0.088962935 0.015507294
000010 37 5e 41 3d dc f4 26 3d 5b 09 ef bd 54 d5 1f be
       0.04720899 0.04076086 -0.11671706 -0.15608722
000020 78 c6 24 3d cb 46 d9 bd ec cc 52 bd 70 c5 0b be
       0.040228337 -0.10609206 -0.05146496 -0.13649535
000030 cb 6c 34 3d 9e 58 f7 bc 30 a5 3a bd 7e 17 a8 3d
       0.044049066 -0.030193623 -0.04556769 0.08207606
000040 7e 58 0e 3e bb e8 22 3d 33 25 5b 3d ff 63 05 bd
       0.13900945 0.03977273 0.053502273 -0.032566067
000050 8b 5e a5 3d 58 1d d7 bd bc 9f 0b be c9 9c cd bd
       0.08074673 -0.10503644 -0.13635153 -0.1003967
000060 1d b0 84 3d d1 9c 91 3d f9 d5 30 3d c2 5b 0a be
       0.064789034 0.071099885 0.04317281 -0.13511565
000070 2a 00 13 be 5d 74 80 bd 48 06 05 be 26 0f 9b bc
       -0.14355531 -0.062721945 -0.12990677 -0.018928122
000080 70 b9 59 3d a7 c8 4e 3d cd 97 c0 39 f1 ef e3 3b
       0.053155363 0.050484326 0.00036734194 0.0069560935
000090 47 77 a4 bd 46 bd 5f 3d 47 e3 9a 3d f3 98 25 bd
       -0.08030563 0.054623865 0.07562881 -0.040429067
0000a0 df 4a f2 bd b3 55 ef bd e9 e2 0c 3d 2c 22 5b bd
       -0.11830687 -0.11686268 0.034396086 -0.053499386
0000b0 68 f0 f3 bc 0d 91 47 bd b0 ac 85 3d dc e8 77 3d
       -0.02977772 -0.048722316 0.06527078 0.060524806
0000c0 e6 dd 6c bb 81 6c e8 bd d3 fd b9 bd d4 26 fd 3d
       -0.0036143004 -0.113488205 -0.09081616 0.123609215
0000d0 23 5d 9a 3d f7 79 1a bd 65 9e 82 3d d5 42 6f 3d
       0.07537296 -0.03771397 0.063778676 0.058413345
0000e0 e8 3b 8a 3c dd 9a 9c bc 3c 26 ea 3b fc fc 36 bd
       0.016874269 -0.019116813 0.007145671 -0.04467486
0000f0 fd 56 36 bd 32 74 db 3c 36 fa a3 3d 9e 0e aa bc
       -0.044516552 0.026788805 0.08006708 -0.020758923
000100 a8 55 31 3d 74 3e ee bc 7e 16 85 bd bb f3 44 3e
       0.04329458 -0.029082514 -0.06498431 0.19233601
000110 3e 4d 02 bc 4e a8 16 bd 8a 45 3a bd a4 b9 3f 3d
       -0.007952986 -0.0367816 -0.045476474 0.0468079
000120 5d cf b7 be 69 90 28 bd 75 c5 0d be 95 5c 78 bd
       -0.35900393 -0.041153345 -0.13844855 -0.060635168
000130 d1 43 63 3d 9d f0 44 bd 87 72 8d 3d ec 84 6b 3c
       0.055484597 -0.04808103 0.0690661 0.014374953
000140 a7 7a 11 bd 10 d6 08 be 9e 35 7d 3d f4 09 3d 3d
       -0.03551736 -0.13362908 0.06181871 0.04615207
000150 48 e1 0f 3d af 08 d3 bc 79 ab 08 3d a9 14 32 be
       0.035126954 -0.025760977 0.033366654 -0.17390694
000160 49 ed cf 3c 03 f5 24 be f1 bf fb 3c 78 3f 94 3d
       0.025381701 -0.1610909 0.030731173 0.07238668
000170 ce 45 83 bd 55 57 aa b9 d6 99 1c bd 89 f4 d8 3d
       -0.064097986 -0.00032489994 -0.038232647 0.105935164
000180 9a df 3a be a4 58 4b bb ee d7 01 3d 14 07 84 be
       -0.1824936 -0.0031028176 0.031700067 -0.2578665
000190 1c 24 8b be 4e 48 c8 bd b0 23 d4 bd 18 39 00 be
       -0.27175987 -0.09779416 -0.10358369 -0.1252178
0001a0 50 dc 58 be 6e 3c 13 be 99 ca 62 bd 65 f4 71 3d
       -0.21177793 -0.14378521 -0.055368993 0.059070963
0001b0 90 e0 5b bc 08 c9 59 be ad fa 4a bd a3 22 2d bd
       -0.013420239 -0.21268094 -0.04955547 -0.04226936
0001c0 bb ee e2 3d 7e e0 09 3e 66 a5 3c bd 32 13 31 be
       0.110806905 0.13464543 -0.046056174 -0.17292479
0001d0 1b e2 b6 3c ab a4 dd 3d 42 6b a9 3d 32 87 ac 3d
       0.022324612 0.108224235 0.08272411 0.08424224
0001e0 e3 ca 24 3c 65 bb bc 3c d5 04 6a 3d 7e 33 02 bc
       0.010058138 0.023038575 0.057133514 -0.007946847
0001f0 b6 a1 48 be 0e f2 46 3e 34 a5 a2 bd 79 2e 00 bd
       -0.19592938 0.19428274 -0.07941666 -0.03129432
000200 4c a7 68 bd 9f 9c 0c 3c 86 35 f9 3b a7 f0 16 be
       -0.05680017 0.008582263 0.0076052574 -0.14740239
000210 cc c3 67 bd 2b 4a de bd 0c 74 4c 3d 00 67 3a bd
       -0.05658321 -0.1085399 0.04991536 -0.045508385
000220 49 a7 7e 3d 10 63 8f bd c0 8d 12 be 16 d5 c7 bd
       0.062171254 -0.070013165 -0.14311886 -0.0975744
000230 5b fd 6a bc 04 f5 09 bd 1c 32 92 bc 4c c8 d6 3b
       -0.014342631 -0.03368093 -0.01784616 0.006554639
000240 07 3f 5e bd 4a 1d 7e bd 4e 3c 7f bd 80 64 47 be
       -0.054259326 -0.06203965 -0.06231337 -0.19471931
000250 30 e1 55 3c a6 12 1e 3e 0f 0e fe bc 77 d7 aa bd
       0.013054177 0.15436801 -0.031012563 -0.08341878
000260 3a 30 a3 3c 8d 95 c2 3d aa 58 12 3d 8c d8 98 3d
       0.019920457 0.09501181 0.035729088 0.07463178
000270 4a ad 25 3d de a9 b1 bc 6a 2b 1a 3d 9f 61 6c 3b
       0.040448464 -0.021687444 0.03763906 0.003606893
000280 00 11 31 3a 0e e7 71 bd 7c 6a ac 3d 35 9d 6a bc
       0.00067545474 -0.05905824 0.08418748 -0.014319708
000290 1a 9f a7 bd 5e 08 38 3d 7e e2 48 3e 7b 5a 05 3e
       -0.08184643 0.044929855 0.1961765 0.13022797
0002a0 59 d5 0b be 8e 94 9e bd 38 11 84 3d b1 fe 9e bd
       -0.13655604 -0.07743178 0.06448597 -0.07763422
0002b0 7b 4a ae bd bb 41 bb bd 8b 40 4e bc 0d fe 3a be
       -0.085103 -0.091433965 -0.01258863 -0.18260975
0002c0 7f 28 c6 3c 00 84 f8 3b 6a 73 c7 bd 3e 73 00 3e
       0.024189232 0.007584095 -0.0973881 0.12543961
0002d0 27 7a f8 bb 4a 60 08 3d 88 3f 5e 3c 0f e7 88 3d
       -0.007582921 0.033294953 0.013564952 0.06684696
0002e0 cc 66 96 bd fc bd 26 bd 0b f2 59 3d f3 98 a7 bd
       -0.07343826 -0.040708527 0.053209346 -0.081834696
0002f0 be bf 1d bd 0f 02 da 3c 60 47 fe bd 5c 07 ce bd
       -0.038512938 0.02661231 -0.124159575 -0.100599974
000300 8a 0a 5c bd a8 7d 96 bd 95 1d 30 3d f1 81 a8 bb
       -0.05372099 -0.07348186 0.04299696 -0.0051424433
000310 4d b5 6e be 5e 85 63 be f4 22 16 bd 6d ee 5e 3d
       -0.23311348 -0.22218844 -0.036654428 0.0544266
000320 a4 ce de bc 99 aa 72 3d b3 b5 f9 3d ef 1a 90 bc
       -0.027198143 0.059244726 0.121928595 -0.017590968
000330 cb 80 bb 3c dd 4b eb 3c e7 be 81 3d dc 14 b0 bd
       0.022888562 0.028722698 0.0633524 -0.085977286
000340 16 4b 23 3c a1 b3 3c be f1 ec 93 3d 85 37 75 bd
       0.009966632 -0.18427898 0.07222927 -0.0598674
000350 dd 85 c9 3d e2 85 a0 bd d5 ed 78 3b 34 98 2f 3d
       0.098399855 -0.07838036 0.0037983556 0.04286976
000360 c5 77 a0 bd 9c a7 42 3e 2c f9 8b 3a b7 31 8b bd
       -0.07835344 0.1900925 0.0010679117 -0.06796592
000370 48 c9 03 be d4 53 1e 3c 48 cf 26 bd f6 8b 70 bc
       -0.12869751 0.009663541 -0.040725023 -0.014681807
000380 18 09 97 bc 38 98 cc bd f4 96 f1 bd ac 0d 35 3b
       -0.018436953 -0.09989971 -0.1179637 0.0027626557
000390 f5 1e 63 be ae 50 54 3b f4 c5 b8 bd 7b d4 76 3d
       -0.22179778 0.0032396722 -0.090221316 0.06026123
0003a0 de f7 1d 3d 72 1e 11 3d a5 79 a5 3d 20 3a ac 3d
       0.038566463 0.035429426 0.080798425 0.08409524
0003b0 00 da 23 3d 8d e4 94 3d f0 5f bc bd 00 5d ef bc
       0.040002823 0.07270155 -0.09197986 -0.02921915
0003c0 d8 34 25 bc 8a 8a 89 3c 2d c4 4c 3e 8a a9 9a 3d
       -0.0100834 0.016789693 0.1999671 0.07551868
0003d0 8d 0a 06 3d af 7a 2f 3d e5 80 66 bd 8a bc 30 bc
       0.032724906 0.04284161 -0.056275267 -0.010787139
0003e0 ab b8 9a bd ab 24 e6 bd 71 c8 2c bd cb fb 47 bd
       -0.07554754 -0.112374626 -0.042183343 -0.048824113
0003f0 c4 01 0f 3d 63 b5 be bc 1a 98 1f 3e 0a 93 b5 bc
       0.034913793 -0.023279851 0.15585366 -0.02216484

bias f4 [64]
000000 52 92 9e ba 01 87 6a 3d 12 14 87 3c 30 71 7a bb
       -0.001209805 0.057257656 0.016489062 -0.0038214438
000010 88 12 2b bd 4d be 88 3c cd b0 97 bd 05 1e fa 3b
       -0.04176572 0.016692305 -0.07406769 0.007632973
000020 eb a6 83 3d e3 8e 44 3c 72 f2 d5 bc cc 8e 80 3d
       0.064283215 0.0119969575 -0.026116583 0.06277236
000030 37 d3 ae 3d 08 85 56 3c f1 b3 7c 3d 87 e7 83 bd
       0.0853638 0.013093241 0.061695043 -0.06440645
000040 47 e5 24 3d 36 18 a0 bc 8e f3 b3 3c 8d 33 e3 bd
       0.04025772 -0.019542795 0.021966722 -0.11093817
000050 42 83 ef 3d f7 2b 8a bd 97 8c ac 3d ff 82 92 3c
       0.11694957 -0.06746667 0.08425253 0.01788473
000060 05 ef 59 3d 03 a7 ee 3c c4 7a 40 3c bf b7 00 be
       0.053206462 0.029132372 0.01174802 -0.12570094
000070 a3 56 15 3d 12 d5 fd 3d 7b 7b 2c 3d d5 85 f0 bc
       0.036459576 0.123941556 0.042109948 -0.029360691
000080 2f 50 ab 3c ec e3 0a 3d 17 55 33 3d 42 ac 4c 3a
       0.020912258 0.03390877 0.04378232 0.0007807651
000090 ec f9 29 bd d2 41 68 3d 1a 89 02 bd 5a 36 9f bd
       -0.04149811 0.056703396 -0.03186903 -0.077740386
0000a0 55 da ad 3d 91 06 bb 3c ea af d4 3d c3 1d 85 bd
       0.08488909 0.02283028 0.103851154 -0.06499817
0000b0 39 81 9c 3d 19 00 a7 3d 04 36 97 bc f7 ed 37 3c
       0.07641835 0.081543155 -0.018458374 0.011226169
0000c0 aa 1a 83 bc 55 62 fc 3c e5 0c ea bd 0e eb b9 3b
       -0.016003925 0.030808607 -0.11428241 0.0056737727
0000d0 a3 46 ae bc fc 2e f2 3c dc 82 d3 bc 7c 89 6d 3d
       -0.021273917 0.02956342 -0.025819235 0.057992443
0000e0 fe e6 a0 bc f3 d1 1d 3d 90 5f b0 3d 59 f7 96 bb
       -0.019641396 0.0385303 0.08611977 -0.004607123
0000f0 0d 58 0b 3d 37 8f af 3d 60 e4 ba 3d 03 63 97 bd
       0.03401952 0.08572238 0.0912559 -0.07391932

weight f4 [128, 1024]
000000 cd 9f a7 3d d6 e0 de 3c 6d 34 6b 3d e1 e7 2a 3d
       0.081847765 0.02720682 0.057423044 0.041725043
000010 8a f3 32 3d 00 7a 86 bc b8 80 49 3c d4 e0 83 3d
       0.04368929 -0.016415596 0.012298755 0.06439367
000020 f9 e4 bc 3d 4d cb 6d 3d 3b a3 2c 3c 17 ce 0a bd
       0.092233606 0.05805521 0.010536964 -0.03388795
000030 8a 0e 12 bd 3a 15 0f 3e 10 04 69 bc ea f2 cd bc
       -0.035658397 0.13972941 -0.01422216 -0.025140245
000040 7f e6 32 be bf e0 90 3c dc e9 b6 3d 9e 95 0c 3e
       -0.1747074 0.017685292 0.08931324 0.1372895
000050 91 a4 80 bc d3 c2 0a 3d 91 e8 d2 bc c8 d6 0d 3d
       -0.015703471 0.033877205 -0.025745662 0.03462866
000060 c2 63 ba bd 93 f9 ef bc 8d 75 fb bd ff 36 94 3c
       -0.091010585 -0.029293811 -0.122782804 0.01809263
000070 3c ac f8 3d ec d7 a3 bd 80 ad 36 3d 2f ff 11 3d
       0.12142226 -0.08000168 0.044599056 0.035643753
000080 d5 8a da bc 09 5f b4 bd 7c 92 39 3d e4 49 d6 3d
       -0.026677528 -0.08807189 0.045305714 0.10463312
000090 2b dd fe bd 2e 47 0b 3d 37 64 04 3d e2 a7 15 bd
       -0.12444528 0.03400343 0.032322135 -0.03653706
0000a0 dc 8f 02 bd 7c df 42 bb ad c9 93 3c ee 10 0c 3e
       -0.031875476 -0.0029735258 0.018040502 0.13678333
0000b0 80 2a 47 3c df 45 1f 3c 37 67 13 bd 0b ec fd 3d
       0.012156129 0.009721248 -0.035987105 0.12398537
0000c0 5d d2 0a be 13 99 08 bd 17 9a f4 3b de c3 b9 bc
       -0.1355681 -0.033349108 0.007464658 -0.022676405
0000d0 95 f0 a1 bd 42 ce c0 bd 7a ef 1f bd ae 17 5e 3d
       -0.079072155 -0.094143406 -0.039046742 0.0542218
0000e0 4c e8 9c bd 9f 67 8a 3b 66 a0 5a bd b6 5b 36 bb
       -0.076614946 0.0042237784 -0.053375624 -0.002782566
0000f0 2e 41 92 bd 01 bf 1f bd f9 bc ab bc 8e 36 1c 3d
       -0.07141338 -0.039000515 -0.020964133 0.038137965
000100 30 96 8c bd e4 7f f3 bd 7d ea 1e be 3e 69 3b 3c
       -0.068645835 -0.118896276 -0.15519138 0.011438666
000110 05 e6 7a bd f9 4a 96 bc a5 ed ce bd 9c de 2d 3c
       -0.06125452 -0.018346297 -0.10103921 0.010612156
000120 55 53 f5 bc 7a 82 07 3e 11 13 e2 3d 10 79 81 3d
       -0.029946962 0.13233367 0.11038793 0.06321919
000130 de 04 c6 bd 58 57 54 bd 1c 48 85 bb 40 0a 4b bd
       -0.09668897 -0.05184111 -0.004067434 -0.049570322
000140 df 24 46 bc 1c 74 2c 3a e9 3c 22 3d 97 62 dd 3d
       -0.012093752 0.0006578581 0.03960887 0.1080982
000150 02 11 0d 3d 07 c5 62 3d 32 8f 2e bd 84 ac c7 bc
       0.034440048 0.05536368 -0.04261703 -0.024374254
000160 ff 32 bb bd c5 be c4 3d 5c 3e 89 bd bc 9e b8 bc
       -0.09140586 0.09606699 -0.06701347 -0.022536628
000170 36 3d 3b 3c 1f 3c 9b 3b c2 f3 89 bd fc d4 f0 3c
       0.011428168 0.0047373916 -0.06735946 0.029398434
000180 7e 56 80 bd e9 25 be bd 58 4a 8b 3d 2b e4 38 bd
       -0.06266497 -0.092845745 0.06801289 -0.045139473
000190 22 f2 96 bd 3e 0c be bd b3 3f a5 bc 49 1e a0 bd
       -0.07370402 -0.09279679 -0.020171976 -0.078182764
0001a0 06 65 4b 3c 5d a1 1d bd 89 ae bd bb 9e 1f e0 bc
       0.012414223 -0.038483966 -0.0057886285 -0.027358826
0001b0 3e 24 48 3d 72 15 ad 3d 0f 22 f8 3d d0 e1 bd 3c
       0.04886269 0.08451356 0.12115871 0.023178965
0001c0 ed a4 fe 3d 12 03 c0 3c d7 0e ec bc ae 80 68 bd
       0.12433801 0.023438964 -0.02881567 -0.056763344
0001d0 4f dc 08 bd a1 ef d2 bd 24 dc 35 bd 79 4b 17 bc
       -0.033413228 -0.10299612 -0.044399396 -0.009234303
0001e0 73 36 91 bc 68 38 b9 bd 28 83 0d 3d b5 26 c3 bc
       -0.017726159 -0.09043962 0.03454891 -0.023822168
0001f0 80 ba ff 3d 8b c0 0f 3d 7a a1 73 3d 78 1c c8 bc
       0.12486744 0.035095733 0.059480168 -0.024427637
000200 82 09 07 bd 37 74 50 3d e7 93 e2 bc 4b 4f ea bd
       -0.03296805 0.05089208 -0.027658416 -0.11440905
000210 7d 96 c7 3c f8 1b 31 bd 83 9e 3c bd db 8d 8a 3c
       0.02436375 -0.043239564 -0.046049606 0.016913345
000220 80 2b 8e 3d 42 bb 1f bd ee 11 85 bd 45 73 97 3d
       0.06941891 -0.038996942 -0.064975604 0.07395033
000230 dc 59 af 3b 65 d9 ce bc a7 af d4 bc 82 7a 6d 3d
       0.0053512882 -0.025250146 -0.025962664 0.05797816
000240 3b 12 56 3c 9b 1c 1f bd 3f f9 dc bb 80 08 49 3c
       0.01306587 -0.03884564 -0.0067435796 0.012270093
000250 3b a5 a5 3d ff 4a ec 3c 61 64 b6 bd 67 c7 8b 3d
       0.08088156 0.028844355 -0.089058645 0.06825142
000260 4e ef b8 bc b6 12 7e 3d d8 80 41 3d d4 64 8a 3d
       -0.022575047 0.062029563 0.047242016 0.06757513
000270 cd 74 9c 3d ef 69 95 bc b2 7a 05 3e ca a4 e0 bd
       0.076394655 -0.01823899 0.13035086 -0.10968931
000280 2a 4c 23 be 50 7e 61 3d dd 63 83 3d 2f 95 1c 3e
       -0.15947023 0.0550521 0.06415532 0.15291284
000290 71 7c 8a 3c e0 d4 09 bd 1d 4a 8d bc d8 51 79 bd
       0.016905041 -0.03365028 -0.017247254 -0.060869068
0002a0 eb 66 e4 3c 2b 18 6d 3d 16 35 eb 3c f4 6a 51 3c
       0.027881106 0.057884376 0.028711837 0.012781847
0002b0 4f 5b 3c bd 64 3f d6 3d 6a cc 03 3e b5 50 f0 bc
       -0.045985516 0.104613096 0.12870947 -0.02933536
0002c0 9c fc 7b 3d 5f b8 57 3e 91 e2 d5 3b 0b bd 80 3c
       0.061520204 0.21066426 0.006527253 0.015715143
0002d0 e5 3d 51 ba 40 21 a5 bd ad 50 bd 3a 2d 92 ed 3c
       -0.000798194 -0.080629826 0.0014443599 0.029000366
0002e0 8c 7a 44 3c ee 06 12 3e de d0 60 bd 22 24 e4 bd
       0.011992108 0.14260456 -0.05488669 -0.11139704
0002f0 84 2c d2 bd a5 54 45 bd 05 98 dc 3c a5 ac 80 3d
       -0.10262397 -0.048176426 0.026927957 0.06282929
000300 2c a5 b0 bc 2b 62 3a 3d 49 33 5c 3d 71 56 89 bd
       -0.021563135 0.045503777 0.053759847 -0.067059405
000310 27 35 50 3b 7f 60 85 bd 18 f3 38 3d 37 37 09 3e
       0.0031769963 -0.06512546 0.045153707 0.13399969
000320 95 e1 a8 bd 06 bd ea bd 8b 82 a4 3d 75 2c be bd
       -0.08246151 -0.114618346 0.080327116 -0.09285823
000330 5a 34 4a bd 16 23 b7 bd bf 19 22 bd e9 6a 93 bc
       -0.049366333 -0.08942239 -0.039575335 -0.017995315
000340 62 31 7a 3d 4e a0 fb bd fb 32 9a 3d df 64 8f bc
       0.06108225 -0.12286435 0.07529255 -0.017504154
000350 d4 9a 08 3e 02 61 33 bd 31 93 ed 3c a7 e5 83 3d
       0.13340312 -0.043793686 0.02900085 0.06440287
000360 09 52 bb bb 37 0a a9 bd f8 40 2d bd 0f 3e 04 bc
       -0.0057165665 -0.082539015 -0.042298287 -0.008071437
000370 45 99 ba 3c 0c 42 51 be 9e 6f e8 3d f1 d6 19 3d
       0.022778163 -0.20435351 0.11349414 0.0375585
000380 50 69 14 bc 67 34 9f 3d d3 32 58 bd 5f 2c 01 3d
       -0.009058312 0.07773667 -0.052782845 0.031536456
000390 b4 25 51 bd 3b eb 89 bc 08 82 e5 bd 44 30 20 3e
       -0.051061347 -0.0168358 -0.11206442 0.15643412
0003a0 3d 4e 10 3d f0 dd 3b 3d bc 1a 59 bd 8b e6 86 3c
       0.035230864 0.045865953 -0.05300401 0.016467353
0003b0 b1 58 f0 39 42 3d 9c bc 3b e5 07 3e ff 0c 58 3d
       0.00045842447 -0.019072179 0.13271038 0.05274677
0003c0 22 d9 d1 3d e4 ca 8a 3d 9a bc 90 bb 5e 98 9d 3c
       0.10246493 0.067769796 -0.0044170143 0.019237693
0003d0 a0 f0 93 bd be dd 2d 3d 19 46 d6 3c 82 7e 61 3d
       -0.0722363 0.042447798 0.026156472 0.055052288
0003e0 0e fd e1 3d 73 91 be 3d 1c 22 67 3d 3f af 93 3c
       0.110345945 0.09305086 0.056429014 0.0180279
0003f0 4f 8b 05 3e c1 81 fd 3b 9e ba d7 bc 24 99 a6 bd
       0.13041423 0.007736415 -0.026334103 -0.08134678

bias f4 [128]
000000 ef 83 c3 3c 1d 1b 38 bd 8c c3 33 bc 0b 9c bd bb
       0.023866622 -0.044947732 -0.010971915 -0.005786424
000010 6e 04 9a bc 7b 79 84 3d e8 1a a7 bc 8c e3 c2 3a
       -0.01880094 0.06468483 -0.020398572 0.001486884
000020 3f a9 bf 3d 60 eb 3a bd c3 c4 7a bd 2f 4b 4f bd
       0.09358453 -0.045634627 -0.061222803 -0.05060881
000030 ac 54 eb 3d 4e f8 4c bc c1 4e bb ba 80 fe b9 bc
       0.11490759 -0.012510372 -0.0014290438 -0.022704363
000040 63 2a 3d 3d 1c 6d 2b 3e 02 89 ac bc 0d b7 f5 3d
       0.046183 0.1674084 -0.021061424 0.11997805
000050 b2 00 73 3d b8 44 92 bd 78 4f 03 bd 0a 13 11 3e
       0.059326835 -0.07142013 -0.03205821 0.14167419
000060 df dc c1 bd 0b 62 e5 bc 1b e0 ff 3d 5b 9a 47 bd
       -0.09465956 -0.028000852 0.124939166 -0.04873119
000070 59 b9 bc bd 82 66 e7 3d 94 36 1b 3d 1e 01 0f 3c
       -0.0921504 0.11298849 0.037893847 0.008728294
000080 fb aa 8c bc 76 75 c8 3d 75 87 5c 3b 32 00 41 bd
       -0.017171374 0.09788029 0.0033650075 -0.047119327
000090 a2 a3 56 3d 73 f5 ec 3d ed 51 f3 3d 1f 95 35 3e
       0.052402146 0.11570253 0.118808605 0.17732666
0000a0 68 00 35 3d 12 9c a8 bc 5c b9 28 bd df 69 89 3d
       0.04418984 -0.020582233 -0.041192397 0.067096464
0000b0 67 67 88 bc 6a 5b 00 3e ee 0f 09 bc 29 61 20 3e
       -0.016650869 0.12534872 -0.008365614 0.15662064
0000c0 cb 28 8c 3d b3 38 c7 3d 4b 5c e4 ba ea f0 87 3c
       0.06843718 0.097276114 -0.0017422525 0.016594369
0000d0 92 b3 5c 3d d1 6a 71 3b 73 08 15 3d 0d 62 6f 3d
       0.05388219 0.003683735 0.03638501 0.058443118
0000e0 8d b3 6f 3d 00 c6 2a bd cd cc 5b bd e5 57 46 bd
       0.058520842 -0.041692734 -0.05366211 -0.048423667
0000f0 92 3e fe 3d b3 33 05 3b e3 af 97 bd 1a 73 ba 3d
       0.12414278 0.0020325005 -0.074065946 0.09103985
000100 cd 46 c0 3d a4 5c aa 3d 1f bc a5 3d f5 b8 2f bd
       0.09388504 0.08318451 0.08092522 -0.042901
000110 80 bd 91 bc 90 6c 91 bc 34 62 bb 3a 45 1a 95 bd
       -0.017790556 -0.017751962 0.0014296235 -0.07280401
000120 5c c3 1c 3e 2d f6 24 bd b2 e8 1f bd 43 a9 97 bd
       0.15308899 -0.040273834 -0.039040275 -0.07405331
000130 5b 10 c6 3d c3 f6 98 3d 73 95 cd 3d 6d fd d6 3d
       0.09671088 0.07468941 0.10038271 0.10497556
000140 88 01 e4 3b 77 5f 95 3d 28 1d 15 bd cc 95 96 3d
       0.0069581904 0.07293599 -0.03640476 0.0735279
000150 ba 07 bc 3d ca b1 61 bd 95 c5 ba 3d 60 8a 03 3d
       0.09181161 -0.055101193 0.09119717 0.032114387
000160 55 e6 ae 3d 23 ea ee bd 93 a8 0e bc 10 9a e0 3d
       0.08540026 -0.11665752 -0.008707183 0.10966885
000170 6b e0 85 bc 89 2f 6e 3e 8a b5 18 3e 75 e4 90 bd
       -0.016342362 0.2326032 0.14913002 -0.07074825
000180 70 dc 67 bd fe 39 d0 3d 9a 81 fb 3c 87 02 8f 3d
       -0.05660671 0.10167311 0.030701447 0.06982904
000190 de 8e 83 3d ca 5e db 3d 15 28 cf bb 45 5a e5 3d
       0.06423734 0.10711439 -0.006321917 0.11198858
0001a0 ec 41 86 bc 05 ec 2f bc 3b 64 92 bc d2 f9 6d 3d
       -0.016388856 -0.010737424 -0.01787006 0.058099575
0001b0 18 b5 45 3d 1e e3 cb 3c a3 4f 28 3e ce 93 54 3a
       0.048268408 0.024888571 0.16436629 0.0008109183
0001c0 fb e9 81 bd 83 57 f4 3d ab b8 44 bd 66 7e 8d bc
       -0.06343456 0.11930754 -0.048027676 -0.017272186
0001d0 2a a2 2b 3d d0 f4 2a 3d 52 9a 04 3e ad 9c b7 3d
       0.0419027 0.041737378 0.12949494 0.089654304
0001e0 e2 93 99 3d 07 f9 7e 3d f8 ab 6d bd 42 a7 ef 3d
       0.074989095 0.06224921 -0.05802533 0.11701824
0001f0 1e c8 20 bd 38 e7 3e 3d 87 bd b4 3b 53 75 bf 3d
       -0.039253347 0.046607226 0.0055157575 0.0934855

weight f4 [15, 128]
000000 95 be 84 bd 84 65 9a 3d 8a c5 81 3d e2 3b 5c bd
       -0.06481663 0.07538894 0.06336506 -0.053768046
000010 c4 73 88 3c 26 a7 81 3d a5 4d 10 3e 00 16 90 3d
       0.016656764 0.06330709 0.14092119 0.07035446
000020 1f af 8f bd eb 68 88 3d fe 3a 36 3e 70 4f aa 3d
       -0.070158236 0.066606365 0.17795941 0.08315933
000030 a9 fc 48 3b b8 87 05 3e 56 e9 73 bd b4 be 8d bd
       0.0030668175 0.13040054 -0.0595487 -0.06921139
000040 e4 df 8c be 8c ea aa 3b 85 9f 51 bd 98 e9 a6 3d
       -0.27514565 0.0052159484 -0.05117752 0.08150023
000050 d7 78 44 3d 29 ec a7 3d e9 c3 6d be 24 58 20 3d
       0.047966804 0.08199341 -0.23219265 0.039146557
000060 5d 8b 12 be e7 40 0b 3e 51 0c 37 3d 92 4e f2 3c
       -0.14310975 0.13598977 0.04468948 0.02957848
000070 03 bd 51 3e cf 69 10 bd cf 65 98 bd cd f5 df 3d
       0.20482258 -0.035257157 -0.074412934 0.10935555
000080 d0 08 ca bd fa dd b9 bd 5d ad be bc 51 32 44 3d
       -0.09864962 -0.09075542 -0.023276025 0.047899548
000090 77 dc 05 be b6 c2 4e 3d 7f 63 a0 bd c6 96 8f bc
       -0.13072382 0.05047866 -0.078314774 -0.017527949
0000a0 f8 32 56 be 8f 57 b8 bc 7b d6 3f be b1 7c a8 bd
       -0.2091788 -0.022502689 -0.18734162 -0.08226908
0000b0 6c 9b 0e be e8 7d 21 be 90 75 55 3e a3 52 4b 3c
       -0.13926476 -0.15770686 0.20845628 0.012409839
0000c0 84 d5 7c ba 86 73 ee 3c 2b 35 01 3e 8a 31 27 bc
       -0.00096448534 0.02910782 0.12617938 -0.010204682
0000d0 a6 65 08 3e 5b ed 11 3e df bb d1 bc bd b3 94 bd
       0.13320026 0.142507 -0.02560228 -0.07260845
0000e0 6e d6 0b be e9 18 bf 3d 99 6e 2d 3e 30 45 fa 3c
       -0.13656017 0.09330923 0.16936721 0.03055057
0000f0 31 6f dc 3d 5a 36 8e be d1 06 af 3d 37 de bd 3d
       0.107633956 -0.27775842 0.08546222 0.092709
000100 74 96 af 3d eb 8a 24 bd ff be fb 3c 23 00 4a 3e
       0.085736185 -0.040171545 0.030730722 0.19726615
000110 9b ba d7 3c 58 7b 43 be 79 be 87 be 1e c1 f6 3c
       0.026334098 -0.1909002 -0.26512507 0.030121382
000120 42 ca 0c be 29 b4 a5 bb ce c4 6a 3e af e1 0c 3d
       -0.1374903 -0.005056877 0.22926638 0.034394916
000130 7e ab 7b 3d 82 65 19 be 87 6f 63 bd e9 32 a6 bd
       0.061442845 -0.14980128 -0.055526283 -0.08115179
000140 b4 e1 b2 bd 6d bb a3 bd ab 6b 62 3e 32 0f 37 be
       -0.08734456 -0.07994733 0.22111385 -0.1787689
000150 49 ac 2f bd a1 7f 2c be e9 5d 2d bc f0 c2 47 bd
       -0.042888913 -0.16845562 -0.010581472 -0.04876989
000160 a8 a9 3c be 5f 93 b3 ba a9 ec 11 3e 6c e7 b5 bd
       -0.18424094 -0.0013700536 0.14250435 -0.08882031
000170 cf ca 33 3d c6 0c 3b bd 4a ae 0b 3d 63 e5 3d be
       0.043894585 -0.04566648 0.034101762 -0.18544535
000180 05 99 64 3e d9 0f 0d bc 47 bb 09 be e0 4d f2 3d
       0.22323997 -0.008609735 -0.13450347 0.1183126
000190 5d 18 4d be 50 67 fe 3d ab 3a 31 3e 0b fa 8c bd
       -0.20028825 0.12422049 0.17307536 -0.068836294
0001a0 7f 5e 14 bd d1 c5 8c 3e 16 0e 55 3d 1f a2 90 3d
       -0.03622293 0.27494672 0.052015387 0.07062172
0001b0 33 23 40 bc 23 7c 4b 3c e3 5c 1b 3e 00 d8 37 3d
       -0.011727142 0.012419733 0.15172152 0.044883728
0001c0 a2 fc ca bd f0 6b 35 bd 55 f3 94 3d 18 62 0e 3e
       -0.09911467 -0.04429239 0.072729744 0.13904607
0001d0 12 c8 89 3d 4a bf 66 3c 56 84 f4 bd e3 98 e7 bd
       0.067276135 0.014083693 -0.119393036 -0.11308458
0001e0 96 d6 0a be a3 9b 99 bc 9e bb e1 ba 19 8c 32 bc
       -0.1355842 -0.018750971 -0.0017222052 -0.01089766
0001f0 08 2a d5 3c d9 68 25 3e 7f d8 b4 bd df 5a bd bd
       0.026021019 0.16153277 -0.08830356 -0.09245848
000200 15 61 10 be 13 3f 33 bd a9 d4 55 bd 86 05 de bd
       -0.14099534 -0.043761324 -0.05220476 -0.10840897
000210 8c ef de 3d 06 cf 54 3c 18 f4 88 bd ba 28 5e 3c
       0.10885534 0.012988811 -0.06687182 0.013559515
000220 8e a3 b4 3b be f7 bf bd 4a f0 b5 3d 05 b2 3f 3d
       0.0055126613 -0.09373425 0.08883722 0.046800632
000230 d3 3f c4 bd 80 ff 00 bc 2f 58 ee bd a0 da 88 bd
       -0.09582486 -0.007873416 -0.116379134 -0.066823244
000240 71 15 34 3c 69 0c 8b 3c 67 68 c2 3d 90 c0 a2 bc
       0.01099144 0.016973691 0.094925694 -0.019867212
000250 91 45 d2 ba 6d fc 9f 3d 60 2f 80 3d 49 ab 64 3d
       -0.0016042461 0.07811818 0.06259036 0.055827413
000260 c5 ad 88 3d c0 e4 0f 3d bb c5 14 bd de d4 c3 bd
       0.06673769 0.035130262 -0.036321383 -0.095620856
000270 d7 aa 8c bd 66 1d 57 3c 0f 61 8d bc 3a 4b 34 bd
       -0.068685226 0.013129568 -0.017258195 -0.044017054
000280 78 12 01 be f0 b0 80 3d de 01 04 3e 07 0f 30 be
       -0.12604702 0.06283748 0.12891337 -0.17193232
000290 6f b3 b6 bc ed 98 d8 3a e6 08 c3 3d 61 97 a8 3d
       -0.022302357 0.0016525068 0.095231816 0.08231998
0002a0 50 db c9 bd 6b 5d 17 3d 3d b2 b8 bd cf cb 1d 3c
       -0.09856284 0.036954325 -0.09018371 0.009631111
0002b0 8b f7 13 3e 8e f5 06 bb c7 45 fe 3d 17 e8 a3 bd
       0.14449899 -0.002059314 0.12415653 -0.08003252
0002c0 33 ee e3 3c c5 4f 1a bc 5d 17 a6 3d 72 d4 51 3c
       0.027823543 -0.009418433 0.08109925 0.012806999
0002d0 f2 09 8c 3c b4 1d 23 3c f4 be 10 3e ec 32 ba bd
       0.017094586 0.009955812 0.14135343 -0.09091744
0002e0 da 9b b2 3d e4 9d d0 bc ee ac cc 3d 88 e4 df bd
       0.087211326 -0.025465913 0.09993921 -0.10932261
0002f0 b7 1e 91 3d e9 f6 26 be 1e 2a 3a be b9 14 92 3d
       0.070859365 -0.16305126 -0.18180129 0.07132859
000300 6a 09 a9 3d 19 4c 11 bd 56 fc 8c bd 04 77 7f 3c
       0.08253749 -0.035472963 -0.06884067 0.01559234
000310 71 81 a7 bd 46 01 fb 3b 13 86 84 bd a0 26 2f 3d
       -0.08178986 0.007660064 -0.06470885 0.042761445
000320 db 6b 4b bd c2 1a 76 3d 97 48 16 3c 0b 13 7f 3d
       -0.049663406 0.060084112 0.00917258 0.06227402
000330 40 55 a7 bb d9 9c 60 3d d1 2b a6 3c 50 9e 1d bd
       -0.005106598 0.05483708 0.020284565 -0.038481057
000340 de f8 8c 3d 1a a1 14 bd 9d 06 98 3d c0 0e c7 bd
       0.06883405 -0.03628645 0.074231364 -0.0971961
000350 e2 d1 d1 bd 0a 6f b6 bd a3 7b 4d 3d ab ee 05 bd
       -0.1024511 -0.08907898 0.050166737 -0.032698315
000360 cf 80 81 3d de 24 b7 bc bb 8d 28 be b8 fb bd 3d
       0.063233964 -0.022356447 -0.16460316 0.09276527
000370 94 d2 67 3d 47 d0 c2 bc 45 95 0f 3d a8 8e 58 3d
       0.056597307 -0.023780955 0.035054464 0.052870423
000380 6a 3a b4 3d 70 f9 00 be 2d a3 41 3c 35 a0 72 3d
       0.08800204 -0.12595153 0.011818689 0.059234817
000390 48 5e 0a bd 12 b3 a9 bd 3a 04 05 3e 96 ae 1c 3d
       -0.03378132 -0.08286108 0.12989894 0.038252436
0003a0 50 a4 af 3d da fe 0a be 98 72 1c bc 44 62 37 3c
       0.08576262 -0.1357378 -0.009548806 0.011192862
0003b0 1a 5d ff bd 3a 52 3a be 44 b2 9c 3c a5 d1 6b bc
       -0.124689296 -0.1819543 0.019127972 -0.014393245
0003c0 cd 8b 7f 3b d6 05 69 ba 35 87 c1 3d d2 b2 ea 3c
       0.003899324 -0.0008889114 0.09449617 0.028649721
0003d0 1f 72 6a ba df a9 c4 bd be c9 c6 3d a8 e5 98 bd
       -0.0008943397 -0.09602713 0.09706448 -0.074656785
0003e0 b2 d4 6f bc a1 7c bf 3d e2 06 17 3e 95 62 20 bd
       -0.014638113 0.09349943 0.1474872 -0.039156515
0003f0 6b 6a ed 3c 4c f3 2c bd 91 80 19 be 11 f0 e1 3c
       0.028981408 -0.042224213 -0.1499045 0.027580293

bias f4 [15]
000000 23 d3 e8 3c 65 29 99 ba 71 06 b1 3b d8 fb 3d bb
       0.02842099 -0.001168531 0.005402379 -0.0028989222
000010 1a 69 52 bd 42 a5 ec bb 79 66 07 3c cb b3 98 bc
       -0.051369764 -0.0072218487 0.0082641775 -0.01864042
000020 84 79 fb 3c 3e 6b 67 3c d4 52 7f bc c7 24 58 3c
       0.030697592 0.01412469 -0.015583713 0.013192362
000030 32 73 82 3b 76 38 85 3b 67 7b c8 3c
       0.0039810175 0.0040655686 0.024472905

weight f4 [1, 128]
000000 2b 31 bb 3b f6 b6 4a bd b4 fc 09 bd dd 48 2f bc
       0.0057126484 -0.04949089 -0.033688262 -0.010698524
000010 b7 bd bc 3b a1 60 5a 3c c7 10 ac 3c 47 f1 ae b9
       0.0057599205 0.013328702 0.021004094 -0.00033367632
000020 b7 9c c0 3d 32 59 d3 bc f4 64 3a bc 60 29 d2 bc
       0.09404891 -0.025799368 -0.011376608 -0.025654495
000030 7c 3b a3 3d 34 39 50 bd 71 74 38 bc 73 a7 b5 bb
       0.0797033 -0.050835803 -0.011258231 -0.005543643
000040 69 04 76 3c eb f5 82 3d 31 5f 82 3b c7 18 ae 3c
       0.0150157 0.063945614 0.003978633 0.02125205
000050 64 49 86 3c b7 18 4f bc 8c 37 25 bc 55 ad de 3c
       0.016392417 -0.01264017 -0.010084044 0.02718226
000060 b8 b4 50 bd bf ed cb 3a 80 70 db 3c 25 87 59 bc
       -0.050953597 0.0015558525 0.026787043 -0.01327685
000070 96 1f 02 bd 3c 42 ca 3c 45 cf 93 3e ff 82 1c 3c
       -0.031768404 0.024689786 0.28869072 0.009552716
000080 74 1b 11 bc a6 67 ba 3d 31 7b 16 3b 90 db 99 bc
       -0.008856643 0.091018006 0.0022961611 -0.018781453
000090 ea 20 db 3b 59 9c 6f 3c 46 d5 e5 3d 92 76 0d 3d
       0.0066872733 0.0146246785 0.11222319 0.034536906
0000a0 c5 8a a8 3b 09 8b e4 ba 81 3f d0 bc 43 c3 bc 3b
       0.0051434957 -0.0017436455 -0.025420906 0.0057605817
0000b0 8a a4 86 bc 6f 30 85 3d 55 73 af b6 d9 ea 23 3d
       -0.01643588 0.065033786 -5.228833e-06 0.04001889
0000c0 99 dc 61 3d 18 34 96 3c 5a a5 b9 3b 5c 09 8d 3c
       0.05514202 0.018335387 0.0056654634 0.017216377
0000d0 d1 16 0b bb 53 ad b0 3b 9f f5 3a 3c 3b 98 df bb
       -0.0021223316 0.0053917556 0.0114111 -0.006823567
0000e0 ba c0 9f 3d ed 33 96 bb dc b0 3e bd 98 23 b0 bb
       0.078004315 -0.0045838268 -0.046555385 -0.005375337
0000f0 fc 7f 7b 3c ca e6 d8 3b bb 80 35 bc 0a 00 3d 3b
       0.015350338 0.006619309 -0.011078055 0.0028839135
000100 35 64 3a bb f2 93 88 3c 28 66 9a 3d 7c 0d 19 ba
       -0.0028441076 0.016672108 0.07539016 -0.0005838496
000110 f9 2c 50 bb 46 5e b5 3b cd 83 5a 3c 48 7f ce bb
       -0.0031765087 0.00553492 0.013337088 -0.006301794
000120 8c 40 67 3d 39 a9 8d b6 a2 45 1d bd 6e c1 46 bc
       0.05645804 -4.2218276e-06 -0.038396485 -0.012131078
000130 87 95 ef 3c d8 d2 29 3e 3a 5e 05 3c e0 ea 01 3c
       0.029246105 0.16584337 0.008140141 0.007929534
000140 91 ac e9 bb d9 94 7a 3d 42 bb a3 3b fe 83 32 3b
       -0.007131167 0.06117711 0.004996688 0.0027239318
000150 5c 24 2e 3d ab 2c 12 bc 48 ee cd 3c 83 a8 e4 bb
       0.042515144 -0.0089217825 0.025138035 -0.006978096
000160 a6 3d 0a 3d 58 b8 15 bd b3 90 a5 ba 56 22 5c 3d
       0.0337502 -0.036552757 -0.0012631625 0.053743683
000170 27 3c f2 ba 77 f3 88 3d af e4 1c 3d 3e a8 fc bc
       -0.0018481062 0.06687062 0.038304027 -0.030841943
000180 c1 19 80 bc b4 39 9e 3c 68 71 83 3b 8c 3a 6e 3b
       -0.01563728 0.019314624 0.004011322 0.0036350815
000190 2c 57 98 3c fa 37 d0 3d 7c 12 10 ba 60 3d c6 3c
       0.018596254 0.10166927 -0.00054959184 0.024199188
0001a0 d5 70 cd ba d9 3c 00 bc d7 55 59 3b 44 cf 1f 3c
       -0.0015673885 -0.007827007 0.0033162737 0.009754006
0001b0 b7 f4 89 3d db 64 ab 3a a5 87 48 3d 85 73 7a bc
       0.06736129 0.0013076322 0.048957486 -0.015286331
0001c0 76 7a 82 bc 2e e3 d3 3b 4b 92 07 bd 63 60 2d bc
       -0.015927535 0.006466291 -0.0330985 -0.010582062
0001d0 e6 40 ec bb b2 af 26 bc 28 3e 05 3d e4 8b 10 3e
       -0.007209885 -0.010173725 0.03252998 0.14115864
0001e0 dd 9e 76 3c 81 1d 8d 3b e1 aa aa bc db 8b be 3d
       0.015052524 0.0043064957 -0.020833435 0.09304019
0001f0 85 18 16 bb 93 bf 9a 3d 83 da 1a bb 37 f4 b0 3d
       -0.0022902798 0.07556071 -0.0023628778 0.0864033
