results_final/generalization-128fd/500levels-128fd-policy.pt (torch, 843615 bytes, 11 tensors)

weight f4 [32, 3, 8, 8]
00000000: d5c7 363d cdd0 083d 832b bcbd f741 8c3c
00000010: 0821 473c 478d a4bd de85 8d3c 41d2 003d
00000020: 2cd6 3ebe 8fd8 27be 78f5 0cbe ee6a 423d
00000030: 48f8 bf3d c7f8 ac3d 0bf0 15bc 9009 29bc
00000040: 88ee 1f3d 4361 da3d b8de 04be 9490 27bd
00000050: 7384 eebb 2822 84bc 982e a83d 3427 343e
00000060: 6d80 3f3d ef9e 193e be76 753c 1a16 93bd
00000070: 836a 343e 7f01 1abd cef0 ab3c 0ebe f93c
00000080: ab29 b93d a81f bfbd e16c 20bd 69e6 07bd
00000090: 4e6f b6bc 9bbc 22bc 91ba 9bbd 1789 e33c
000000a0: 1328 6f3d e8de 39bd cbbc ac3d 6c30 d1bd
000000b0: 14c2 d3bd 995b 21be a1e8 403d d3f0 a73d
000000c0: 5b03 bebc 7e10 243e 14da 203d 597b 72be
000000d0: b5c2 173d 292f b6bd d623 ffbc ee5c 483d
000000e0: aeba 073e 8ee1 e23d b178 713c c066 28be
000000f0: c365 db3d b0d3 2dbc 4a17 60bc 4bcf ec3c
00000100: 3148 59bd 5d4a 2abe ccfd 01bd 4326 b9bd
00000110: cc99 55bd efe6 cf3d 918c f93c bf2d a33d
00000120: 120f 3dbd c363 85bd 943b 9d3c 3fa0 393e
00000130: 0056 053b 1283 b93d d8a2 93be 9f06 e9bd
00000140: 73ba 033c 680a 0a3e 7e55 2a3e 66a2 2cbe
00000150: d390 053d ea06 6839 c303 22be f4cf 76bd
00000160: eb63 993d 7402 653e 6b49 1bbe baee 03be
00000170: 4a86 07bd eac0 40bc 02d9 92bd 7730 3dbd
00000180: 45b0 153e f015 0ebd a5e5 dcbc ef22 af3e
00000190: fa90 a1bd d131 0b3d 2528 773b 9744 7a3d
000001a0: 8f9d 903d a0ef fa3b 1b47 ffbd 49ba a63d
000001b0: 600a c6bd 5633 36be 1a5f 843e 2dff 2e3d
000001c0: 0c4a 0a3e 8b61 913e a758 74be f4c3 a6bc
000001d0: b845 58bd 3445 ddbd 4a4f 91bd 52dc b5bd
000001e0: 5230 ef3d 00ac 4cbd c2df 4abe bc9b 393c
000001f0: 1561 63be 4e54 cabc 7eb1 18bd 97ae d0bc
00000200: bf15 c63d 8a00 07be 510b 473e fc8b 353e
00000210: 74fc 21bc d52d e9bd 68c3 67bd 6ac8 7d3e
00000220: a60f bc3c dd5f 183e ab2b c0bc 1a86 3e3e
00000230: a970 893d 11cf 8f3e 7494 913e 6cb7 4d3e
00000240: d696 0b3e 0ae9 783e 23f3 2f3e c5a0 373e
00000250: 440a 4d3e ef88 933e 4ae5 4e3e ebe5 873e
00000260: 64eb f13d b3c0 443e ced7 2d3e 77a3 a53e
00000270: ef8c 713e a6c7 a2bc b6d8 313e 4700 213e
00000280: 9105 813e d9ee 793e 83d6 093e e684 973e
00000290: 36de b33e 9230 3c3e 0d61 693d 4e8f 263e
000002a0: 679a dc3d 5e39 513e 4066 643d 7d90 193c
000002b0: 28dc 1b3e f46a b63e 1d97 8f3d 471b 0c3e
000002c0: 6689 67bd a8fc 553e f8b1 c7bd 5704 d83d
000002d0: 97e6 fabc e399 fa3d f26b 683b 3935 723e
000002e0: 1387 eebb 0264 62be 18bb 13bc 4bdb eb3b
000002f0: c3d7 29bc dda7 2c3e eeb4 fc3d d4b0 da3d
00000300: 880d a53e cd5f 043d 4678 0e3e aa71 503e
00000310: 95ca 4b3e d794 adbd 9785 933c c373 453e
00000320: 8a01 9c3c eb7c b73d 78fb 15bd 4325 893e
00000330: 17af 8e3d 83cf 84bd cbd7 663e 3a6b 913e
00000340: 318a b53d 3c2f 26bd a81f 27be 7d30 d4bd
00000350: 982b 013d 40eb 99bd 6f42 c9bb c77d 08be
00000360: fe40 913e f97a 833d 97d1 61bd 4ef0 f4bb
00000370: d4e1 16bd a4aa 8dbe a6d6 3ebd 4b59 1cbe
00000380: 3b67 9a3d 12cc 663e 42da 083e ed2f 733e
00000390: 7540 6a3d ed7f 2ebc 5cd2 273e 75ee d6bc
000003a0: e23d e93d e0ff bc3d 623a 99bd 0cee 2f3d
000003b0: 8dd0 cb3d 05c5 2ebe 8029 a23c efb7 453d
000003c0: 53b5 523e 8d01 483b f43a d03c 5c5c 76be
000003d0: 6038 b0ba d6e1 163d d98a 18bd 018d 2c3d
000003e0: 7836 903d cd93 d63c 6f19 ba3c 1ff4 93bd
000003f0: 6451 063d 52fc 1fbe b9b5 32be 0e5a b63c
0.04462417 0.033402253 -0.09187987 0.017121298 0.012153871 -0.08034759 0.017275747 0.031450514
-0.18636388 -0.16391204 -0.13765514 0.047465257 0.09373528 0.08445888 -0.009151469 -0.010317221
0.03904584 0.106630825 -0.12975585 -0.040909365 -0.007278973 -0.016129568 0.08212012 0.1759308
0.046753336 0.15002035 0.014981924 -0.0718195 0.17618756 -0.037599083 0.020988848 0.030486133
0.09041151 -0.0933221 -0.039166335 -0.03317872 -0.022269871 -0.009932662 -0.07603944 0.02777533
0.058387827 -0.045378596 0.08434447 -0.10214314 -0.10339752 -0.15757598 0.047096852 0.082002304
-0.02319496 0.16021916 0.039270476 -0.23679866 0.03705092 -0.08895714 -0.031145018 0.04891675
0.13254806 0.110781774 0.014738248 -0.16445446 0.10712769 -0.010609552 -0.013677428 0.028907439
-0.053047363 -0.1662993 -0.03173618 -0.09040501 -0.052148625 0.10151469 0.030462535 0.0796771
-0.04615695 -0.06513169 0.019193448 0.18127535 0.002034545 0.09058203 -0.28835177 -0.11378216
0.008040058 0.13480532 0.16634175 -0.16858825 0.03260882 0.0002212782 -0.15821747 -0.060256913
0.07489761 0.22364217 -0.15164725 -0.12884036 -0.033087052 -0.011764744 -0.07170297 -0.046188798
0.14618023 -0.03468889 -0.026964972 0.3420634 -0.0788898 0.033983056 0.0037713137 0.06110057
0.07061302 0.00765796 -0.12464734 0.08141 -0.096699476 -0.1779302 0.25853807 0.042723823
0.13504809 0.28394732 -0.23861943 -0.02035711 -0.052800864 -0.10804215 -0.07095201 -0.088799134
0.11679138 -0.04996872 -0.1981192 0.011328634 -0.22205003 -0.024698403 -0.037278645 -0.025473876
0.096721165 -0.131838 0.1943791 0.17729181 -0.00988685 -0.11385695 -0.05658284 0.24783483
0.02295668 0.14880319 -0.023458323 0.18605843 0.06710941 0.28087667 0.28433573 0.20089501
0.13631758 0.24307647 0.17182593 0.17932422 0.20023447 0.2881541 0.20204654 0.265426
0.11812475 0.19214134 0.16976854 0.32351276 0.23588918 -0.01987059 0.17367825 0.15722762
0.2519956 0.2440752 0.13460736 0.2959358 0.3513047 0.18377903 0.05697732 0.16265604
0.107716374 0.2043204 0.055761576 0.009372828 0.15220702 0.35628474 0.070112444 0.1368228
-0.056527518 0.20897162 -0.09750742 0.10547703 -0.030627532 0.12236383 0.003546473 0.23653115
-0.0072792857 -0.22108462 -0.009016775 0.0071977726 -0.010366383 0.1686091 0.12339197 0.106782585
0.32236886 0.032317925 0.13913068 0.2035586 0.19901498 -0.084756546 0.018008037 0.19282441
0.019043703 0.08959373 -0.036616772 0.2678624 0.069669895 -0.06484892 0.22543256 0.2840212
0.088642485 -0.04057239 -0.1632067 -0.10360811 0.031535715 -0.075155735 -0.0061419527 -0.1332923
0.28369898 0.064199395 -0.05513152 -0.0074749356 -0.03683646 -0.2766925 -0.046591423 -0.15268438
0.07539221 0.22538784 0.13364509 0.23748751 0.057190377 -0.010650617 0.1638884 -0.026236752
0.11388756 0.09228492 -0.07481839 0.04295163 0.09951887 -0.17067344 0.01979518 0.048271116
0.20576982 0.0030518502 0.025418736 -0.2405867 -0.0013444535 0.036836468 -0.03724179 0.04212666
0.07041639 0.026193524 0.022717206 -0.07224297 0.032792464 -0.15623596 -0.17452134 0.022259738

bias f4 [32]
00000000: 7df4 a6bb b41c 9bbc 7aa8 d5bb e5e7 3c3d
00000010: 9690 003b 84e8 50ba f764 e43a ec17 0d3d
00000020: b9b7 8cb8 2df5 02bb 7d6a c9bb a03c 8ebb
00000030: c793 2ebb d843 d8ba 2d8d 263d 1e58 1ebb
00000040: 1247 88ba 4732 00bb 6895 473d 588a 0bbb
00000050: 872e fdbb 816d 47bc c81e d7bb b671 92bb
00000060: fc17 043c 4784 07bd 48b0 4eba 29cb 383d
00000070: cbbf 3e3b dbd7 01bd 3f6c 90bb c812 81bb
-0.0050950632 -0.018934585 -0.006520328 0.04611959 0.001961743 -0.0007969218 0.0017425109 0.03444664
-6.709941e-05 -0.0019982562 -0.0061467276 -0.004340723 -0.0026638375 -0.0016499711 0.04066198 -0.0024161409
-0.0010397157 -0.0019561218 0.04872647 -0.0021292176 -0.0077264938 -0.012172104 -0.0065649487 -0.004469122
0.008062359 -0.033085134 -0.00078845443 0.045115624 0.0029106017 -0.031699996 -0.004407435 -0.0039390065

weight f4 [64, 32, 4, 4]
00000000: e73d 68bd bd94 f9bb 1512 12bc d32a cabd
00000010: 4186 4dbd 56a8 c13d 88f3 9abd c508 473d
00000020: 2645 693d 60d3 b6bc 47cc e63d 7d6d f03d
00000030: 7325 223e 844f 3fbd a05e 2cbb f5bb 86bd
00000040: ab0b 40be 6a9c 22bd 7c3d 09be eb3c ec3c
00000050: cb0f 43be ede1 66bd 5a5f 9b3d 3542 46bd
00000060: 1ac3 e8bd 9424 873d d41b 02be 7f9e a7bd
00000070: e980 d9bd 3e3e afbd a07b 33bc 1424 80bd
00000080: 0fab 28be c103 113c a9ec e73c b967 98bb
00000090: fa49 cd3c db8a 89bc 9d96 75bd 6679 a93d
000000a0: b9bb 2dbe ae48 71bd 5583 d93d 1fd0 8abd
000000b0: 8872 b93d aea6 573b acc8 a3bc 0ebf 61bd
000000c0: 2ac5 c63d e6cd aebd 1251 9dbd 354f 91bd
000000d0: 085b 253d 7bfb 3a3c 7c88 70bb 7196 2f3d
000000e0: f7f7 463d 716f a23d b634 ad3d d70e ff3d
000000f0: 9824 163e b40b 043e 3884 1c3c a504 123e
00000100: 5cc6 7fbd ad9d 23bc bd29 56be ec1b d5bd
00000110: 8d2f 5bbb da5a d23b 6546 7c3d 8a1a 40bd
00000120: 9d5d ecbd a22a 89bd 0fc8 b7bb 24db d03c
00000130: 422e e63d 8886 31bc be33 0bbe 0873 43bd
00000140: 6236 98bd 17ce 3d3e aca9 98bc 75a9 d63d
00000150: 0287 033e 03d6 3c3e 9451 1d3d 051d 743c
00000160: 655a b6bd 8939 dd3d 7766 7ab9 c31e 3dbd
00000170: b200 6ebc 57bf aebd 8155 903d 4688 1b3e
00000180: da63 cf3b 5fdd d1ba 169e 4fbe 7ec5 7dbc
00000190: 13a8 03be 4481 b63c 69ab 063d bda4 37bd
000001a0: 5529 c4bd 1821 37bd 0e8a 19be 98bd e93c
000001b0: 6b70 69bd aac2 923d 85d1 053e 2b63 a9bd
000001c0: 36be d5bc 36b1 7c3c a7db 26bd baa5 133c
000001d0: 1a36 9d3d 94c3 cf3d c6f9 47bd 2009 40bd
000001e0: 4bc5 1abd 8317 f43d 09a6 19bc fc41 5a3d
000001f0: dc4e 933d 3987 203e 0a12 03bd 9bd8 14be
00000200: 7dcd 27bc 1c2a 48bd be1d 13be 1abe f2bd
00000210: 7027 923d 9fc4 0dbe 7a31 9abd ac50 b9bc
00000220: 08d5 acbc f994 28bc dda4 fdbb 5e7c eb3d
00000230: fd67 7fbd f55f 0abe 7edf 3bbd 5123 0dbd
00000240: 11e7 d23d cef1 8abc 3cb5 bcbd 51ae 10be
00000250: f047 dbb9 2f68 043e ef77 923d 5700 a8ba
00000260: 75d0 983c 7afb 5a3d afc9 1ebd bcbb feb6
00000270: 4fca d6bc 8cc2 e7bc 8a71 f7bc c92a d0bd
00000280: 9c5e 86bd a80d eebd 2885 b3bd fcc4 52bd
00000290: f526 88bd ae74 72ba 2594 33bd c886 1a3c
000002a0: 025c 4e3d 1ecb 98bd 3ef2 bebc c5d7 a3bd
000002b0: c1ed 61bc 5803 91bd 6c7a f33d ebe8 0cbc
000002c0: 96ca 9e3d 0e21 95bd 5217 923d d210 323e
000002d0: 3b28 04bc b187 96bd ca9f 5b3e 9a31 953d
000002e0: 384a 70bd 61e6 5dbd e806 a43d cdd8 1fbd
000002f0: bf2d 9bbc 73ac c13d 8f1a ca3d a44e f1bc
00000300: 54c3 eebd 1b94 18bd 15e0 ebbd 0964 cd3d
00000310: cd06 0a3e 0616 0a3c e036 a83d e3ac b1bd
00000320: 57e3 4c3d bbef eabc 1126 69bd b199 d13d
00000330: b41b af3d 46c1 323d f608 2cbd 4988 1cbe
00000340: f78d 273e ae98 05bd 6d66 133d 942c bd3d
00000350: 3c0f c13d 469d 0dbd 7ee1 36be 7f02 10bc
00000360: a365 a9ba be46 003d 8bdc 00bd 233a d93b
00000370: cdba 7c3d 9212 8c3d 19b9 b73d bcca 203e
00000380: 71f0 8e3b f705 a1bd 79d2 16be 4055 b53c
00000390: e79a 28bd cd8b bbba b8c9 8cbc af8b c53d
000003a0: 9bf8 003c f429 8bbd 9c83 ec3b 85a2 18bb
000003b0: b72d f43d 799f 263d c1ef b03c d2d6 98bc
000003c0: 8710 c43d a8c2 343c 1dbe 84bc 41c5 8dbd
000003d0: 11ba f9bd 1232 38be b3a3 46bd aac1 1ebb
000003e0: 210c 49bd f806 9dbd 8d9e 193d df6b a3bd
000003f0: abba b13d db38 bebd 7e7c c13c 07f2 8a3c
-0.05669966 -0.007616608 -0.008915444 -0.09871449 -0.050176863 0.09455936 -0.07565981 0.048592348
0.05695071 -0.022317588 0.112694316 0.11739633 0.15834598 -0.04670669 -0.0026301518 -0.06578819
-0.18754451 -0.03969995 -0.1340236 0.028837642 -0.19048993 -0.056367803 0.07586546 -0.048402984
-0.11365338 0.065987736 -0.12705928 -0.081845276 -0.10620291 -0.08556794 -0.010954767 -0.06256881
-0.16471504 0.008850993 0.02831109 -0.0046510366 0.025059689 -0.016789844 -0.05995809 0.08275108
-0.16966142 -0.058907203 0.10620753 -0.06777977 0.09055048 0.0032905745 -0.019993149 -0.055113845
0.09705575 -0.08535366 -0.076814786 -0.07095186 0.040370017 0.011412497 -0.0036702445 0.04286808
0.04857632 0.07931412 0.084573194 0.12454002 0.14662397 0.1289509 0.009553008 0.14259584
-0.06244503 -0.009986323 -0.2091436 -0.10405716 -0.003344509 0.0064195218 0.06159057 -0.04690031
-0.11541293 -0.06697585 -0.0056085656 0.02549512 0.11239292 -0.010835297 -0.13593957 -0.047717124
-0.07432248 0.18535648 -0.018635593 0.1048154 0.1284447 0.18441014 0.038407877 0.014899497
-0.0890396 0.108019896 -0.00023880029 -0.046171915 -0.014526533 -0.08532589 0.070475586 0.15188703
0.006329042 -0.0016011408 -0.20275149 -0.01548898 -0.12857084 0.022278436 0.032878313 -0.04483484
-0.09578196 -0.044709295 -0.1499407 0.028532788 -0.056991976 0.071660355 0.13068207 -0.08270868
-0.026091676 0.01542311 -0.04073682 0.00901168 0.07676335 0.101447254 -0.048822187 -0.046883702
-0.03778581 0.11918547 -0.009377965 0.053285584 0.071927756 0.15676583 -0.031999625 -0.14535753
-0.010241863 -0.048868284 -0.14366814 -0.11852665 0.07136428 -0.13844536 -0.07528968 -0.022621475
-0.021097675 -0.010289424 -0.0077406005 0.114983305 -0.06235503 -0.13513167 -0.045867436 -0.03445751
0.10297979 -0.016961005 -0.09214255 -0.14128996 -0.00041824533 0.12930368 0.07151782 -0.0012817484
0.018654088 0.053462483 -0.03876656 -7.591645e-06 -0.026219515 -0.02829101 -0.030205507 -0.101644106
-0.06561014 -0.116236985 -0.08765632 -0.05145739 -0.066480555 -0.0009248954 -0.043842454 0.009431548
0.050380714 -0.074606165 -0.02330887 -0.08000139 -0.013789595 -0.07080716 0.118885845 -0.008600454
0.07753484 -0.07281695 0.07133354 0.17389229 -0.008066232 -0.073501 0.21447673 0.07284851
-0.05866453 -0.054174785 0.0800913 -0.039025117 -0.018942712 0.0945672 0.09868347 -0.029456444
-0.1165835 -0.03725062 -0.1151735 0.10028846 0.13479157 0.008428102 0.082135916 -0.08675554
0.050021496 -0.028678766 -0.05692107 0.102343924 0.08550206 0.04364135 -0.042000733 -0.15286364
0.16362749 -0.03261631 0.035986353 0.09237018 0.09426734 -0.034573816 -0.17859456 -0.008789658
-0.0012923967 0.031317465 -0.031460326 0.006629245 0.061701585 0.068394795 0.089708515 0.15702337
0.004362159 -0.07862466 -0.14728726 0.022135377 -0.04116335 -0.0014308632 -0.01718603 0.09645783
0.007871772 -0.06795111 0.0072178375 -0.0023290229 0.11922782 0.04067943 0.021598699 -0.018657122
0.09573465 0.011032738 -0.016203934 -0.06922389 -0.121936925 -0.1798785 -0.04849596 -0.002422432
-0.049083833 -0.07667345 0.03750472 -0.07979559 0.08678182 -0.09288188 0.023618933 0.01696111

bias f4 [64]
00000000: 90e9 2d3d 69b4 8dbc 3adf 09bd 75ba efbc
00000010: 86e6 20bb 19f8 5b3c 0995 e83d cdb7 8dbb
00000020: 6005 93bb 0262 c63d 56d6 893d d07b aebc
00000030: a6e2 833c d31d 05bd 9a61 753d 2ee5 ebbc
00000040: 0670 0bbd 2ecd d9bd 9616 c5bd 225d 80bc
00000050: 856c e23b 1a86 9bbd 1047 9bbd 9c9d 003c
00000060: 3a2e b43d 4b4f 7fbb e727 4b3d 4b7b 83bd
00000070: 71f4 84bd cc13 55bb 079d 92bc 9a85 50bc
00000080: 21f4 aebd 43b8 05be 26b6 4f3d 8c19 7cbd
00000090: 658c 85bc 7637 223b 1791 c8bd 5ce5 813d
000000a0: 0f69 fdbd 9432 133c 1eb4 13bc f61b 313b
000000b0: 6894 55bc 4607 debb 9f4d 4a3d fa3f 163c
000000c0: 40aa 07be 8bbb 1ebc 1b52 183c 6bb8 153c
000000d0: 6bcd 48bc 9963 75bc 926d 123d cd34 ffbc
000000e0: dc49 90bd 567d c83b d96f 2fbd 9bd0 b43c
000000f0: 3c36 dfbd 6e22 ebbc 4d78 6a3d 8579 09bd
0.04245907 -0.01729794 -0.03366015 -0.029263714 -0.0024551465 0.01342585 0.11356551 -0.0043248893
-0.0044867247 0.09686662 0.067303345 -0.021299273 0.016099285 -0.032499146 0.059907533 -0.028795805
-0.03404238 -0.10634838 -0.096234486 -0.01566941 0.006909909 -0.07593937 -0.075819135 0.007850077
0.087978795 -0.0038957174 0.0495986 -0.06420001 -0.06491936 -0.003251302 -0.017897142 -0.012727166
-0.08542658 -0.13058572 0.05071082 -0.0615478 -0.016302297 0.0024752296 -0.09793299 0.06342575
-0.12373554 0.008984227 -0.009015111 0.0027024723 -0.013035871 -0.0067757694 0.04939043 0.009170527
-0.13248539 -0.009688268 0.009296919 0.009138207 -0.012256007 -0.014977359 0.035749026 -0.031153107
-0.070453376 0.006118457 -0.042831276 0.022072127 -0.10899016 -0.02870294 0.057243634 -0.033563156

weight f4 [64, 64, 3, 3]
00000000: 31c8 24be dd84 88bb 067c 8ebc 090b 123d
00000010: 913b d33c 7716 533d 78e3 b4bd 417e d1bd
00000020: 891f 223d d5d6 c4bd 666f ae3d 2d50 e4bc
00000030: a57c b13d bbc5 cebc 2d35 ad3b 26f9 703d
00000040: 4e00 843d c689 b9bd 128a d83d 6a41 44bc
00000050: ed49 833d 4cc7 a4bd 7274 66bd 8ffe 05be
00000060: 0f5b ad3d 34ba 583d 7df2 e2bb f1e0 81bd
00000070: 54ef 923d de8f 023b c4f9 01be ed43 2cbc
00000080: 2bc1 42bd 1a93 c53d 3669 773c eb7d 98bc
00000090: 31ec a1bd ada5 ae3d ae1b 143e d25e b6bd
000000a0: a081 1cbe 08db d5bd 546e 0f3d 1096 8fbd
000000b0: 929b 92bd 0edd 163c 5ca2 b03b ee54 543c
000000c0: f402 aa3b c949 e8bd b150 3bbe 4f32 bc3d
000000d0: e962 c23d 1649 59bb 1f5e 093b cfad 473d
000000e0: cc0b 70bd bf27 1cbc 42c1 cdbc dadf f3bd
000000f0: 4a40 2fbd 465f a73d 2cb7 e63d 63d9 cebd
00000100: 9bbf b4bd f432 61bd b6d8 dbbd 0fd9 babc
00000110: 2fc3 91bc 093e cd3d 2b29 50bd 3026 02bd
00000120: bf1b 23be 3035 7f3d 6d5a 65bd 93d3 90bd
00000130: 899b 4bbd 9e89 23be fd5f 183d 87c0 bebd
00000140: c583 b43c aef5 37bd 4f1b e93d ab53 a0bd
00000150: 7640 f83c 0bc0 4bbd dcc6 38bc 9e6f 2abe
00000160: 3579 febc 1f8a c6bd 6c2b 9fbd 4390 3bbb
00000170: 9bb6 4dbe ded5 803d af2d 8c3d cba6 0f3e
00000180: 0765 c3bd 320c 86bd 3219 a83d f43f e9bd
00000190: b080 78bd 9427 c23d 75d4 ecbd b41f 3abe
000001a0: f548 69be 7bb7 b9bd bf00 293d 621c 6abd
000001b0: be4f 8abd 5574 40bd 8407 893d a665 2bbd
000001c0: 1191 923d f211 fe3c f5e7 3bbd ac51 acbd
000001d0: 631e dabd 34f2 16bd ec11 9bbd b651 3cbd
000001e0: efcc 353e a2ba 1c3e 33d6 f13d 97fd fdbd
000001f0: 9831 e5bc 1b5f 713d ef62 f7bc 3354 86bc
00000200: 1641 ffbd 6121 90bd 86a2 c3bd 3127 edbd
00000210: 068f 37bd 46ce 16be 5da4 31bd 74ca 68bd
00000220: a361 d53c 61da 86bd 61dd dbbd 5a48 01be
00000230: 7644 bfbd 9388 9d3d 7604 de3c b928 36be
00000240: f128 89bd a488 63be fb49 653d 4c95 27be
00000250: 7031 67bd 1a4a 9cba 8969 ae3d b96c e93d
00000260: 4eed 603d f1eb 593c 83e5 17be 0432 5ebd
00000270: 9f3c 183d ac70 b73d 7771 ad3d a148 d0bd
00000280: 334c 283b 83ff e5bc 1560 c9bc 5dce ca3c
00000290: f094 f9bd 2f6d bf3c 3d55 b83c 2360 24bb
000002a0: 8c92 afbc b5d4 44bd 6982 3f3d 6a29 03be
000002b0: 1d0a a8bd 0f7c 21bd 3273 bfbc aae5 42be
000002c0: be0c 4bbd 6589 ad3d f8d4 1d3d b532 5e3e
000002d0: ef3c e1bd 60c1 cebc e2a0 e5bb 35de 8cbd
000002e0: 8fd7 13bd 0cb8 15bd 3f41 ee3c 7bdc 1dbe
000002f0: 87b7 09bc 9745 18bd dbb4 873c 2390 0d3d
00000300: 0396 e4bd 9be0 babc 4719 2f3d 0f6b 5c3d
00000310: e701 44bd 506e 7dbd 0b29 8bbe ee15 01be
00000320: 2dd4 35bd 6d84 86bd 7f3f 9a3d e2f3 4bbd
00000330: 8f9f 103e 836a dcbc 2cd9 393b 94e2 abbd
00000340: 49f0 9d3d 7b73 5fbe 3bb7 8ebd 757e 84bd
00000350: 59d0 edbd a144 82bd f336 953d 3a1b 303d
00000360: 9bb7 64bd 6408 dc3c 692c 40be 1a65 16be
00000370: bec7 b8bd d65f 70bd bed5 37be 753e abbd
00000380: c24e c3bd 9400 4ebe 637f 08be 190f e33d
00000390: 246d 63be e794 d53d 97db 6ebd 888b a03c
000003a0: 2179 8cb9 de30 e83c 82dd 593c be06 e43d
000003b0: 5b53 9cbd 510b 473e b858 e23d 5f48 df3c
000003c0: c81f 51bd 8ccb be3a 6264 913d f207 c33c
000003d0: 3c76 c6bd 19f2 36be f95d f5bd d950 b23d
000003e0: d8c7 9fbd 05b5 1cbe 9f09 4d3b 75e0 9cbc
000003f0: 717d 05be c2f8 0ebe 1c0c 463c 988a 073d
-0.16091992 -0.004166229 -0.017393123 0.035655055 0.02578524 0.051535096 -0.08832449 -0.10229159
0.039580856 -0.096112885 0.08517341 -0.027870262 0.08666352 -0.02524077 0.00528588 0.058831356
0.064453706 -0.09059481 0.1057321 -0.011978487 0.064105846 -0.08045825 -0.056263395 -0.13085388
0.08464634 0.052911952 -0.0069258795 -0.06341732 0.071745545 0.0019922177 -0.12692934 -0.010514242
-0.0475475 0.09647198 0.015100768 -0.01861473 -0.07906378 0.08527694 0.14463684 -0.08904804
-0.15283823 -0.104421675 0.035017326 -0.07011044 -0.07158579 0.009207977 0.0053904485 0.012959702
0.0051883403 -0.113421984 -0.182925 0.09189283 0.09491522 -0.0033155135 0.0020960642 0.04874974
-0.058605 -0.009530961 -0.025116567 -0.11907931 -0.04278592 0.08172469 0.11265406 -0.10100057
-0.08825608 -0.054980233 -0.10734694 -0.02280858 -0.017793266 0.10021598 -0.05082051 -0.0317747
-0.15928553 0.062306583 -0.05599444 -0.070716046 -0.049708877 -0.15970466 0.037200917 -0.093140654
0.022035489 -0.044912033 0.11382162 -0.078284584 0.030304175 -0.049743693 -0.0112778805 -0.16644141
-0.031063655 -0.09694313 -0.07771954 -0.0028619922 -0.2008919 0.06290792 0.06844651 0.1402847
-0.09540754 -0.06545295 0.082079306 -0.11389151 -0.0606696 0.09480205 -0.115639605 -0.18176156
-0.22781737 -0.09068199 0.041260477 -0.057155974 -0.06753491 -0.046985943 0.066908866 -0.041844986
0.071565755 0.031014416 -0.04587551 -0.08414015 -0.10650327 -0.036852077 -0.07571778 -0.045976363
0.17753957 0.1530557 0.118084334 -0.12401884 -0.02797775 0.05892859 -0.030198542 -0.016397571
-0.12463586 -0.070376165 -0.09552483 -0.11579741 -0.044814132 -0.14727125 -0.04336964 -0.0568337
0.026047533 -0.06584621 -0.10735584 -0.12625256 -0.0933923 0.07692065 0.027101737 -0.17788972
-0.06697262 -0.22220093 0.055978756 -0.16365546 -0.05644363 -0.001192394 0.08516223 0.1139769
0.05491381 0.013300882 -0.14833646 -0.054246917 0.037167188 0.08957037 0.08468907 -0.10170103
0.0025680184 -0.028075939 -0.024581948 0.024756605 -0.12186611 0.023367492 0.022501582 -0.0025081716
-0.021432184 -0.048054416 0.04675523 -0.12808767 -0.08205054 -0.039424952 -0.02337036 -0.19032922
-0.0495727 0.084734716 0.03853318 0.2169903 -0.1099795 -0.025238693 -0.007007704 -0.0687832
-0.036094245 -0.036552474 0.029083846 -0.15416138 -0.008405573 -0.03717574 0.01656573 0.034561288
-0.11161425 -0.022812178 0.042748716 0.053813037 -0.047853377 -0.06187278 -0.2717975 -0.12606022
-0.0443918 -0.06568227 0.07531642 -0.04979313 0.14123367 -0.026906257 0.0028358204 -0.08392826
0.077118464 -0.21821396 -0.06968542 -0.06469432 -0.11612005 -0.06360746 0.07285871 0.042994715
-0.055839162 0.02685947 -0.18766941 -0.14687005 -0.09022473 -0.058685146 -0.1795263 -0.08361522
-0.09536506 -0.20117408 -0.13329844 0.11086864 -0.22209603 0.104287915 -0.058314886 0.019597784
-0.0002679313 0.028343614 0.0132974405 0.111340985 -0.07633086 0.1943791 0.11052078 0.027256189
-0.0510557 0.0014556511 0.070992246 0.0238075 -0.0969052 -0.1786579 -0.119808145 0.08706827
-0.07801789 -0.15303428 0.0031286252 -0.019149998 -0.13036133 -0.13962081 0.012087848 0.033091158

bias f4 [64]
00000000: 4a4c 8cbb 4634 a63c 7a59 213d 7619 1f3d
00000010: 9ffc eb3d e487 153d 5104 76bd 424d 873d
00000020: 5aa6 493d 9580 2d3c 57e1 a03b 8749 a03d
00000030: 00ab 613d 7e20 ce3a 2fb7 be3d f80a 49bd
00000040: ddbe d43c b20a 4dbd a66f 81bc 985a b6bc
00000050: d416 f93c b3e8 31bb 99a8 b03d b459 9f3c
00000060: e868 b43c de6f bd3d c866 1c3d 2860 6dbd
00000070: 4f2d c3bc ed58 34bd 712c 16bd dabb 9a3d
00000080: 0f89 34bd 555e b03d 4e0c 8d3d 78be 813d
00000090: 554e 80bd d20a cc3c 87d0 31bc 91dc ff3c
000000a0: b161 a43d 1094 c13d fcee 373d 2e84 4ebd
000000b0: 0030 9b3d ffb3 3f3a c781 50bc 84a9 1d3d
000000c0: 8614 dbbc 9477 80bc 9f2d 9cbd 04e6 7e3d
000000d0: 880b e13a 57dc 6e3b 741d 663d 115d 693d
000000e0: 6a09 8a3d 889d 543d db78 303d 9c02 333d
000000f0: a8b8 f23d e960 fb3c f4f8 1fbd 1552 67bc
-0.0042815553 0.020288598 0.039391972 0.03884264 0.11522793 0.03650655 -0.06006271 0.06606533
0.04923091 0.010589738 0.004909675 0.07826524 0.05509472 0.0015726236 0.09312283 -0.049082726
0.025969917 -0.050059028 -0.015800308 -0.022259995 0.030406393 -0.0027146756 0.086259075 0.019451953
0.02202268 0.092498526 0.038183957 -0.05795303 -0.023825316 -0.04403012 -0.036663476 0.07555361
-0.04407602 0.086117424 0.068871126 0.06335157 -0.06264941 0.024907503 -0.010852939 0.031233104
0.08026446 0.09452069 0.044905648 -0.050419025 0.07577515 0.0007312893 -0.012726254 0.03849174
-0.026743185 -0.01568202 -0.07625889 0.06223108 0.0017169574 0.003644725 0.056180432 0.05697352
0.06740077 0.051908046 0.043084007 0.04370366 0.11851627 0.030685859 -0.03905578 -0.014118691

weight f4 [128, 1024]
00000000: c81c a83d 979a cf3d e466 093e 4399 b93d
00000010: 077d a0bc fa30 d1bc 78e7 87bd 9160 05bd
00000020: 0ff2 0b3e c5cf 663d 6374 013e bbc0 ce3d
00000030: b5d4 abbc 4645 ee3d 0338 96bd d614 4a3d
00000040: 2c1a f3bd 98fa ccbc da5c 40bd 5448 b4bc
00000050: bac8 673d d02f 783b 8137 303c 7d59 d9bc
00000060: aa43 b9bd 08a5 76bc 6fc1 90bd e8d4 103d
00000070: ee81 3e3e c423 d43d ca7c 8a3d 919f 96bb
00000080: 0a99 3d3c 4a81 61bc 2120 ce3d 9369 063e
00000090: 43ca b03d e4f0 133d 4602 b6bc 7aea 42bc
000000a0: ccf1 073c b914 383d 985a 83bd b95d 00bd
000000b0: a9dc c9bd 468d 5d3c 79c6 5b3d 2f9b 9f3d
000000c0: 6a46 fe3c 02c9 bc3d d599 1cbc efb5 4a3d
000000d0: e735 ed3d 74d4 fcbd bb5f d6bd c8e3 223c
000000e0: ea2d 4ebd 5ad5 40bb 4345 67bd 9b8b 853d
000000f0: f851 773c 74e0 eebc 239d 903d b6ea 5f3d
00000100: 3059 babd ae03 883c 11d7 c63c 65fa 123d
00000110: 9b8b 0fbe 89fd 923d 5afe 2f3d 4ae5 33bd
00000120: 9925 4dbd 9a80 043d ebb3 403d 979c bb3c
00000130: 28db 4ebd a419 eabd 0205 c0bc 6858 563d
00000140: 14fe efbc a38e 353d 1194 8bbd d472 573e
00000150: c8d2 283d 85ac 193e 155b b83d 89b6 203d
00000160: 0966 cbbd 978a e5bd 57b3 a6bd 48d7 95bd
00000170: 649f 7cbd 369a 75bc 304d 103e 1733 afbb
00000180: 70cc 813c f52a 09be c09e 433d 9ff4 2cbd
00000190: 707a df3d 6179 30bd 4341 06be 555e 9ebd
000001a0: 4f25 0b3d 006d df3c 1e27 1e3c 64af 063d
000001b0: 5252 933d 46b3 8b3d 7bbf ad3d 2802 31bd
000001c0: 5d59 d3bd 4a6a 37bc c0d1 073e b29f 123d
000001d0: ad1c 2fbe b094 58bd 9501 f23d eecd 23bc
000001e0: 1a08 eebd b0c8 60bd 429e 1d3d 7d0c c43c
000001f0: 4fd0 cdbd c5a6 3dbd 5f96 963d 90c6 553d
00000200: 1940 64bc e38d 18bd 2ab0 7d3d 1207 f8ba
00000210: c788 0b3e 3dea 3bbd 2de0 2d3d fd29 773d
00000220: e59e 0b3e a872 d83c a7b9 ddbd fac0 513c
00000230: a7ab 023e e068 4f3d 9ed3 023e 1dc1 3b3d
00000240: cd0c f73d 9564 2ebd 6269 023d 9af1 9b3d
00000250: d1c9 113e 4a86 113d 38a3 e7bd 8570 76bd
00000260: f4c3 52bd 87ec 513c 524b ba3c e8ac bcbd
00000270: ec8b 2b3d b0b3 7e3c 1d96 653c 9194 fe3d
00000280: 2e28 86bd 73e5 873d 585c d3bc 91d4 8d3d
00000290: 4fd4 783d ea06 263d cd92 05bc a6c6 0bbd
000002a0: 6672 1e3e a79c ac3d 3784 4ebd 3f6e 1d3e
000002b0: 047e 293d 8ef0 72bc 95ec f73b b0b1 9b3d
000002c0: 9ec8 66bd a615 2b3c 3b33 c8bc 0499 883c
000002d0: 7721 4dbe 27dc 6ebc 269c d63d 06ac 2d3e
000002e0: c2e8 b6bc 4a04 b63d 8125 093d 2c8d a7bd
000002f0: 2bca 6d3c ce9c 9fbd 8e8d b83c a490 e63c
00000300: 9b40 6b3d 8232 943c a84f 8e3d d1d1 f2bc
00000310: 0571 02bd 85d7 a93d b421 2b3d 3472 4e3d
00000320: a950 963b c22e 38be edfb 783d 4a13 0fbe
00000330: d92a f3bd fc5e 9b3c 33e8 0f3e ae8d 9abd
00000340: 38df 5c3d e8c5 863d b9f0 2a3e 2fbd 9d3d
00000350: 35eb 8d3d 5d35 983d 5c25 a7bd e61a 953c
00000360: 1b5c 3b3c 3170 043e e074 943d f735 283e
00000370: 05c0 34bd 9b5c 95bd 5f60 92bd 24d1 91bd
00000380: fcaa 82bc b93d 8f3c 7c4a bdbc 211d 1bbe
00000390: 5885 ba3c bbbf 3d3d 46fa 243c 6baa 123e
000003a0: d7f4 f0bb bc95 843d 34c0 8dbc e679 243e
000003b0: f6ca 983d 1d9a fcbc 7b4a 8c3d cbb3 2cbc
000003c0: b3b2 eebd 6d46 8fbc 70d8 a2bd 959f 863c
000003d0: 0171 1dbd a66f 003d 232e b03d ec2f 1a3e
000003e0: cff1 853c 0fd2 e13d 4308 183e 7e15 953c
000003f0: c894 a23d 08be 08be 9f1c e4bc 5b97 f6bc
0.082086146 0.101369075 0.13418156 0.090624355 -0.019590868 -0.02553605 -0.06635946 -0.032562796
0.13666557 0.05635049 0.12642054 0.10095354 -0.02097545 0.116343066 -0.07334902 0.049336277
-0.11870226 -0.025021836 -0.04696355 -0.022007145 0.056587912 0.0037870295 0.010755421 -0.02653193
-0.09046109 -0.015053995 -0.070681445 0.035359293 0.18604252 0.10358384 0.06762083 -0.0045966585
0.011572132 -0.013763735 0.10064722 0.13126211 0.08632328 0.036118403 -0.022217881 -0.011896724
0.008297395 0.044941638 -0.06413764 -0.03133938 -0.09856541 0.013522452 0.053656075 0.07793271
0.031039435 0.09218027 -0.009558161 0.04948991 0.11582547 -0.1234521 -0.10467478 0.009942003
-0.050336756 -0.0029424042 -0.056462537 0.06520768 0.0150952265 -0.029159762 0.070612215 0.054667197
-0.090990424 0.016603317 0.024272474 0.035883326 -0.14018099 0.07177264 0.042967178 -0.04391984
-0.050084684 0.032349207 0.047046583 0.022901816 -0.050501972 -0.11430672 -0.023439888 0.052330405
-0.029295959 0.044325482 -0.06815351 0.21039897 0.04121664 0.15007217 0.090017475 0.03923658
-0.09931571 -0.112080745 -0.08139675 -0.07316452 -0.061675444 -0.01499038 0.14091945 -0.0053466666
0.015844554 -0.13395293 0.047758818 -0.042225476 0.10912025 -0.043084506 -0.13110833 -0.07732836
0.033971127 0.027273655 0.009652881 0.03288211 0.07193436 0.06821303 0.084837876 -0.043214947
-0.10319779 -0.011194775 0.13263607 0.03579683 -0.17100783 -0.052876174 0.11816708 -0.009997828
-0.11622639 -0.05487889 0.038481005 0.023931736 -0.10049497 -0.046301622 0.073529 0.052191317
-0.013931298 -0.03724469 0.06193558 -0.0018923006 0.13626395 -0.045877684 0.04245012 0.060342778
0.13634832 0.02642186 -0.10826426 0.012802357 0.12760793 0.050637126 0.12776038 0.045838464
0.120629884 -0.04257639 0.031838782 0.07614441 0.14237143 0.03552846 -0.113104284 -0.0601659
-0.051456407 0.01281274 0.022740994 -0.09212667 0.041881487 0.0155457705 0.014012841 0.124306805
-0.065506324 0.06635561 -0.025800869 0.069253094 0.06074935 0.040533938 -0.008152676 -0.034124993
0.15473327 0.084283166 -0.05041906 0.15374087 0.041379943 -0.0148278605 0.0075660446 0.076022506
-0.056343667 0.010442173 -0.024438491 0.016674526 -0.20032297 -0.014578856 0.10479002 0.16960153
-0.022327784 0.08887537 0.033483032 -0.08181223 0.014513533 -0.0779358 0.022528436 0.028145142
0.05743466 0.01809049 0.06948787 -0.029641064 -0.031846065 0.0829306 0.04178019 0.05040188
0.004587252 -0.17986587 0.06078713 -0.13972202 -0.11873407 0.01896619 0.1405342 -0.075465545
0.053923815 0.06580716 0.16693391 0.077020995 0.06929628 0.07432053 -0.081614226 0.018201303
0.011435534 0.12933423 0.07248855 0.16426836 -0.044128437 -0.07293054 -0.071472876 -0.071199685
-0.015950672 0.017485486 -0.023106806 -0.1514783 0.022768661 0.046325427 0.010069435 0.14322822
-0.007353406 0.06473872 -0.017303564 0.16062126 0.07460587 -0.030835206 0.068501435 -0.010540913
-0.11655178 -0.017489636 -0.079514384 0.016433517 -0.038437847 0.031356476 0.0860255 0.15057343
0.016350655 0.110263936 0.14846902 0.018198725 0.07938534 -0.13353741 -0.027845679 -0.030101469

bias f4 [128]
00000000: 51a7 4ebc f535 babd ca51 debc 2fa1 cfbb
00000010: e95c 4fbd c67e c83d 40e4 50bc dbc7 74bd
00000020: 9e23 013e 7893 123b f098 17bd e047 8cbd
00000030: 22a0 6f3d 5ff9 34bc 6761 983d ae18 213a
00000040: 6a29 c03b a2e7 643e 17e6 b4bd 1875 223d
00000050: 6196 b3bc 65bb 22bd a23b 53bc 88f1 2f3d
00000060: 993e 36bd cf08 1fbd 1ccb b93d 1daf 9cbd
00000070: b9b5 223d ed63 3f3d 2bd1 d93d 21bc 73bc
00000080: 8b50 063d ec04 b33c 9d81 2f3d 5342 33bd
00000090: 777b dd3d b2f6 513d 8c7b c73d d712 453d
000000a0: e50f fa3c 57a4 17bd e004 acbd bb5e 823d
000000b0: 753f cdba 4203 6e3d 6d85 49bd 2804 063e
000000c0: 5f02 913d 2ae2 d23c a88e f2bb dcb1 81bd
000000d0: 05f6 ae3d 5a56 983d 219b 1f3d cffa ae3c
000000e0: e646 623d bb3e 44bc d2c2 4ebd 5b9a 1ebd
000000f0: 61b2 b83d a889 d3ba aa19 debc 9a94 75bc
00000100: 795b 783c 2031 823d 61c7 c53d afa2 83bc
00000110: 6ed6 05bd 51cd 943b 527f 3fbd 15ea f2bc
00000120: 0ac3 853e 8443 473c 8fd6 73bd e185 1ebd
00000130: a552 033d ab67 943d b316 473d 8c76 9c3d
00000140: bc25 793d ebdd 6c3d 3237 5cbd 5c81 eb3c
00000150: 5265 833d b55a 32bd 1e22 263b 8210 9b3c
00000160: 7e19 e73d 77a5 09bd 3177 5cbd fe70 163e
00000170: 5317 87bc 29d3 d13d 26dd 113e f24e 96bd
00000180: 1d2d 1fbd 274c dbbc 1f0e 8c3c 544b b93c
00000190: ce5e 023e 302c 8a3e 35d4 eb3c 3dc6 c33d
000001a0: c9ce 30bc 7acd 37bc 2d45 38bd b256 5b3d
000001b0: df8f 153d 6c77 b63d 007c 5a3d 6e73 ed3c
000001c0: c0ca efbc d7a2 1f3d eab4 c2bd ee1a b6bc
000001d0: 3128 243d 11a5 203d 841e 8d3d 1c15 a73d
000001e0: 9dee dc3c 4568 21bc 8f48 85bd 888c 113e
000001f0: 0dbf f2bb b403 b13d 5ed4 803d 1e48 003e
-0.0126131335 -0.09092323 -0.02713861 -0.0063363533 -0.050625715 0.09789805 -0.012749732 -0.05976091
0.12611243 0.002236573 -0.037011087 -0.068496466 0.058502324 -0.011045783 0.07440453 0.000614534
0.005864312 0.22353986 -0.08832949 0.03966245 -0.021922292 -0.039729495 -0.012892636 0.04295495
-0.04449329 -0.03882676 0.09071943 -0.07650588 0.039724085 0.046726156 0.10635599 -0.014876396
0.032791656 0.021852933 0.04284822 -0.043764424 0.10814565 0.051260658 0.097403616 0.04811367
0.030525157 -0.03702196 -0.08399367 0.06365725 -0.001565917 0.058108576 -0.04919951 0.13087523
0.070805304 0.025742609 -0.00740226 -0.06332752 0.08543018 0.07438345 0.0389663 0.02135983
0.055243395 -0.011977847 -0.050478764 -0.038721424 0.09018398 -0.0016139047 -0.027111847 -0.014989043
0.0151585275 0.06357026 0.09657169 -0.016068785 -0.0326752 0.004541077 -0.04675228 -0.029652635
0.26125365 0.012162093 -0.05953079 -0.038701896 0.032061238 0.072463356 0.048605632 0.076397985
0.060827002 0.057828825 -0.053763576 0.028748207 0.0641581 -0.043543536 0.0025349925 0.01892877
0.11284159 -0.033605065 -0.053824607 0.1469154 -0.016490614 0.10245354 0.14244518 -0.073392764
-0.038861383 -0.02676971 0.017096577 0.022618927 0.12731478 0.26986837 0.028787712 0.09559295
-0.010791489 -0.011218423 -0.044987846 0.053549476 0.03651416 0.08909497 0.053340912 0.028985705
-0.029271483 0.038973656 -0.09507163 -0.022229638 0.040077392 0.03921992 0.06890586 0.08158323
0.026969248 -0.00985152 -0.0650798 0.14213765 -0.007408029 0.086432844 0.06290506 0.1252751

weight f4 [15, 128]
00000000: bd86 f0bd 666a 9cbd 0a48 80bd f9fb 39bc
00000010: 08e2 593e d409 94bd a9fa 07be 8c58 b1bd
00000020: 8577 52bc 61c1 3ebe e01d 2c3e 5132 6bbd
00000030: e791 503e 4b21 183e 190c 7c3d 24dd a1bc
00000040: 3b1a d03c 1969 ce3c 27c4 57be e648 633c
00000050: 86e5 31bd 6d09 a1bc c00e 01be 0837 cc3d
00000060: 91c2 6ebd 10c6 9c3d 6d3c 12be 09d5 78bd
00000070: 4a87 023e 40df e7bd d5fc 16be 4e96 5ebe
00000080: 78b5 e7bd 7e1d 14bc ed4a 7abc 45a4 413d
00000090: 1dba 9a3c c08c 0c3e 8fb9 96bd 0472 81bd
000000a0: fc9f 2c3d 24eb 593d b837 babc ea12 cbbd
000000b0: aab0 ecbd 86eb 0bbc 087a cb3c 5d60 ddbb
000000c0: aca5 97bd 778a 603d 59f7 0c3e d1db 79bc
000000d0: aa6f 25be 27b2 a13d b24d 013e 8526 763c
000000e0: ade1 e9bd 204e d03c cca0 923d 966f ae3d
000000f0: fd34 393d 9d6a ef3d 8fe1 4bbe 80ae f13d
00000100: da1e 203c f11e d2bd 9893 03bd e5f1 85be
00000110: bb99 503e 18cb 8cbd f902 673d e1db a0bd
00000120: 92e1 583b 9987 723d f4e6 62bd ef27 cfbd
00000130: 8a30 893d 7635 b0bd 850a 603b b82d 123d
00000140: bbce 933d b3aa 1e3e 0700 4a3d 73dd c63c
00000150: c3b7 fabd ff1c 9e3b 90a9 c93c 2ff6 80bd
00000160: 0eac b2bd 9eba 893d db7a d1bc 02ed 9fbe
00000170: 07a7 1abe 725d e1bd 9ce5 03ba 586a f13d
00000180: bf2a 0c3e b434 c1bc d664 ab3d f01f 12bd
00000190: ff92 2fbd 9d18 85bc 93d3 493d fdbf a73d
000001a0: 61b1 0b3e 0268 4f3d 0d76 03be bda2 bd3d
000001b0: 08c8 453d 1e28 4d3d 22b6 f1bd ee2d ae3d
000001c0: 176c 24be 9896 d3bd 23ad 14be e2f8 d53d
000001d0: f037 183c 6fb7 913d 637d cfbd 6ba4 323e
000001e0: 43cf 083e f96d 8a3d c306 043e dd26 803b
000001f0: 49c2 80be 1b68 a83d 1835 e43d bb7e 83be
00000200: 15bf fabd e840 083e 7f90 0cbe 528f 9f3d
00000210: 4c07 833d 3430 74bc 366b ed3d 05fa 26bd
00000220: 9189 72bd 862a 803c 9d13 383e 8d0d 25bd
00000230: 765f 983d c6aa 84bc 1dc8 b3bd 1ddf c83c
00000240: c5e8 8fbc ac72 313b 1dd0 193d b6ee 5fbd
00000250: cbc7 95bc 6424 b73d 6ca5 7ebd cbb2 57be
00000260: c872 373d d1b3 d73d ea90 38bd 5c1e b5bd
00000270: 0330 ff3d 6d01 18be 224a 823d e069 c9bd
00000280: 284d 863d cf01 98bd 8f53 5abd 0368 ad3d
00000290: 9306 6ebc eba0 98bb fa0c c6bc aa01 90bd
000002a0: 3228 b4bd 049e 57bd 7de0 543d e370 17bd
000002b0: 5533 9f3d df3c 85bd eede ab3d 8dcd 5dbd
000002c0: 42d3 fa3d 67c0 bebd e191 51bd 1381 fbbb
000002d0: 7ba3 2fbe 18ef d53d a0c8 c83c 9bb3 60bd
000002e0: a1ba ffbd 1796 aa3d 5241 bfbd e9f9 623e
000002f0: 6f57 d13d a6e2 6c3d d665 083e 0ad6 07be
00000300: 1043 18be 81dc 38bd ed3e ec3b e9e3 f2bc
00000310: 865f 95bd 7661 2bbe acbc 0cbe f29f 37be
00000320: a5b3 473c e0ca 043e e3b8 0c3e c7f0 de3d
00000330: 0f24 e3bc 61fe 4d3d 9daf bebd 244d 0d3d
00000340: 64f0 abbd 3729 1ebe a1ad 183d 67ff debc
00000350: 1b74 1bbd 6892 2abc 5576 84bd fd3c 18be
00000360: c0a8 33be b5a7 173e 0bb9 6f3b 5ffa 1bbc
00000370: b542 8e3d 2f01 c1bc ab15 f5bc 9782 2b3d
00000380: 9162 883c 8d5f 5fbe 84a3 e03c 47a3 b83c
00000390: 071b b9bd d6e1 c9bb a9d7 c4bb 7bbf a73c
000003a0: 6ba9 d4bd 4ac3 5cbc f2a6 6c3c 123b 93bd
000003b0: 46c1 37be a835 1abc f1e5 edbd f00c 2abd
000003c0: 6ccc b43a 0202 9b3d fd30 d5bd c999 9ebd
000003d0: 95a2 203d f263 413d 4b8b 3cbd d8c3 10be
000003e0: 43eb 8abd d5e5 3e3d 9b37 033c 60d2 c3bd
000003f0: 959d b43d 27a7 0d3e f2c0 d03a f856 12bd
-0.11744449 -0.076374814 -0.0626374 -0.011351579 0.2127763 -0.07228437 -0.13279213 -0.08659467
-0.0128458785 -0.18628456 0.16808271 -0.057421032 0.20368157 0.1485645 0.061534975 -0.019758768
0.025403133 0.025196599 -0.2107092 0.013872361 -0.04343178 -0.019657815 -0.12603283 0.09971434
-0.05829102 0.07654965 -0.14280863 -0.06075004 0.12746921 -0.113218784 -0.14744885 -0.21737024
-0.11313909 -0.009040235 -0.015276653 0.0472758 0.018887574 0.13725567 -0.07359611 -0.06320575
0.04214476 0.053202763 -0.022731647 -0.09915717 -0.115571335 -0.00854004 0.024838462 -0.006755872
-0.07404646 0.05481955 0.1376623 -0.015250162 -0.16155878 0.07895308 0.12627295 0.015023832
-0.11419997 0.025427878 0.07159576 0.08517377 0.04521655 0.11690257 -0.19910263 0.11800861
0.009772981 -0.10259808 -0.03212318 -0.26161113 0.20371144 -0.068746746 0.05639932 -0.078544386
0.0033093435 0.059211347 -0.055396035 -0.101150386 0.06698711 -0.08603947 0.0034185958 0.035688132
0.07217165 0.15494804 0.049316432 0.024275517 -0.12242081 0.004825234 0.024616987 -0.06296956
-0.08724223 0.067250475 -0.025571277 -0.3123551 -0.15102778 -0.110041514 -0.0005031468 0.117878616
0.13688181 -0.023584701 0.08368842 -0.03567499 -0.042864796 -0.016247088 0.04927404 0.08190916
0.13641883 0.0506363 -0.12838002 0.092595555 0.048286468 0.050087087 -0.11802317 0.08504854
-0.16056858 -0.10331458 -0.14519171 0.10447861 0.00929068 0.07115065 -0.101313375 0.17445533
0.13360314 0.06759257 0.12893204 0.003910883 -0.25148228 0.082229815 0.11142939 -0.25682625
-0.12243477 0.1330601 -0.13726996 0.07791008 0.06397876 -0.014904071 0.115927145 -0.04076578
-0.059213225 0.015645277 0.17976232 -0.040296126 0.07440083 -0.016194712 -0.08778403 0.024520451
-0.017567048 0.0027076406 0.037551988 -0.054671012 -0.018283745 0.08942488 -0.062169477 -0.21064298
0.0447872 0.10532344 -0.045060076 -0.08843681 0.124603294 -0.14844294 0.06361796 -0.09834647
0.06557685 -0.0742222 -0.053302344 0.08467104 -0.014527935 -0.004657855 -0.02417611 -0.070315674
-0.08796729 -0.05264093 0.0519719 -0.03697289 0.07773463 -0.06505751 0.0839213 -0.054151107
0.122473255 -0.093140416 -0.05116451 -0.007675299 -0.17152207 0.10445994 0.024509728 -0.054858785
-0.124867685 0.083294086 -0.09338631 0.22165646 0.10221755 0.057833336 0.13320097 -0.13265243
-0.14869332 -0.045132164 0.00720965 -0.029649692 -0.0729361 -0.16736397 -0.13743848 -0.17932108
0.012188827 0.12968016 0.13742404 0.108857684 -0.027727155 0.050291423 -0.09310839 0.034497395
-0.0839546 -0.1544541 0.03727496 -0.027221395 -0.037952524 -0.0104108825 -0.064678825 -0.14867015
-0.17544842 0.14810069 0.00365788 -0.009520142 0.06946317 -0.023560135 -0.029917559 0.041872587
0.016648563 -0.21813793 0.02742172 0.022538794 -0.09038358 -0.006160955 -0.006007154 0.020477047
-0.103838764 -0.013474295 0.0144441 -0.07189001 -0.17944822 -0.009412207 -0.116161235 -0.041516244
0.0013793833 0.07568742 -0.104097344 -0.07744176 0.03921755 0.047214456 -0.046031278 -0.14137208
-0.06783154 0.046605904 0.008008863 -0.0956161 0.08819119 0.13833295 0.0015926643 -0.03572747

bias f4 [15]
00000000: 4fd5 053d 62a8 7abb 4322 123d 6b9c 633c
00000010: 7c83 2e3b 8199 0d3d e688 99b9 469d a9bc
00000020: 4872 13bd 06ba 69bb 484b 10bb eabe abbc
00000030: bb54 81bc d5de d83b fc4f a43c
0.03267413 -0.0038247337 0.035677206 0.013892273 0.0026628664 0.03457022 -0.0002928443 -0.020704877
-0.03599766 -0.0035663857 -0.0022017527 -0.020965058 -0.015787473 0.0066183605 0.02005767

weight f4 [1, 128]
00000000: 19f7 903b 0a79 c1bc 3e6c 02bd 2281 233c
00000010: 979d 5ebb fa5e c8ba 9d9b 943c 6743 37bd
00000020: 1091 bb3a ab91 2dbc 840d c2bc edf5 6cbc
00000030: f79a 003d 8f4a 833b cc86 a13c 6a93 f0ba
00000040: 3164 e83b b302 4c3d c8e7 c8bb d687 c23b
00000050: df85 dc3b 8adc 68bc 1072 7c3c ea49 8d3c
00000060: 26bc 73bc 0f28 bbbc 3df1 b43c 29ba a2bc
00000070: 34dd e73b 4dbd 6a3c 786b 7d3d ed91 433b
00000080: d0d2 3d3b e8e5 173d c6da c23b 8bbb 99bb
00000090: 9385 f23c 8761 64bb 34c8 5f3d 19d5 183c
000000a0: df3f 83bb a2d5 a53b 469d 92bb 35d3 5f3b
000000b0: 2ef6 6cbb 4e41 c53b a2df b8bb 4b3c 763c
000000c0: c9a5 8e3b 10ed aa3b caab 283b e103 28bc
000000d0: 4cba dd3c 5e39 b63c b08f 6839 8821 783b
000000e0: e749 d7ba b07a c9bb d257 f6bb 78e7 92bc
000000f0: 11e6 f63c 3465 bcbb 8c28 a5bc e0eb 11bb
00000100: 1aaa 83bc 6a0f 30bc 87f8 c53c 28c0 013c
00000110: 7981 3bbc 767c aa3c e376 693a 967d 273c
00000120: 00cc 903d 6d7c cab8 72c1 17bb 5498 bdba
00000130: 318c 203c b678 303d d8fa 533b 31a2 983c
00000140: 3475 81bb c70f 8b3b 3b0d 21bc 7da9 ad3c
00000150: 2483 823d 5717 873c fd7e a2bb b913 92bc
00000160: 5a7b b83c 3b82 01bc b29e a8bc 06e9 f13c
00000170: b9a5 a03b daea 0e3c 12e8 313d 6d37 16bd
00000180: bff2 8fbb 4242 31bc f16a 2ebb 74b5 2fbc
00000190: b348 0b3d c621 9b3d 752a f23b c78a 0abb
000001a0: e6e0 a2bb 40c8 04bc 67e2 003a 96c8 97bc
000001b0: 1de7 933d 5faa af3b dfc9 7f3d 96f7 46bc
000001c0: 61eb 94bb 152b e839 997e 59bd 3d1a 463c
000001d0: 80b7 d4bb 96c1 743c b78c 94b8 f9e4 1dbc
000001e0: 5304 3bba 85b7 90bb 79b4 50bc 482c 403d
000001f0: a791 debb 5d9b 8f3b a95b fb3b 0927 593d
0.0044239876 -0.023617286 -0.03184151 0.009979518 -0.0033968443 -0.0015287094 0.018140608 -0.044742014
0.00143102 -0.010593812 -0.023688085 -0.01446293 0.031397786 0.004006691 0.019717596 -0.001835448
0.007092022 0.04980726 -0.006131146 0.005936603 0.006729826 -0.014212737 0.015408054 0.017247159
-0.014876401 -0.02284625 0.022087688 -0.019864159 0.00707593 0.014327359 0.06187007 0.0029841617
0.0028964765 0.03708449 0.00594649 -0.0046915463 0.029604709 -0.003484817 0.054634288 0.00932815
-0.0040054168 0.0050608674 -0.004474315 0.0034152989 -0.0036157477 0.006019748 -0.0056418935 0.015029023
0.004353259 0.0052162483 0.002573716 -0.010254831 0.027066372 0.022244152 0.00022178772 0.0037861783
-0.0016425223 -0.0061486587 -0.007517793 -0.017932639 0.030139001 -0.005749369 -0.020160936 -0.0022265837
-0.016072322 -0.0107458625 0.024166359 0.007919349 -0.011444443 0.0208113 0.000890596 0.010222813
0.0707016 -9.655287e-05 -0.0023156074 -0.0014464953 0.009799049 0.04308387 0.003234556 0.018632026
-0.0039507393 0.004243824 -0.009829815 0.021198982 0.06372669 0.016490621 -0.004958986 -0.01783167
0.022519756 -0.0079045845 -0.020583484 0.02953006 0.004902568 0.008722985 0.04343421 -0.036673952
-0.0043929513 -0.01081902 -0.0026614035 -0.010724414 0.03400488 0.07574801 0.007390315 -0.0021139847
-0.0049706576 -0.008104384 0.0004916549 -0.018528264 0.07221816 0.005360886 0.06244838 -0.01214399
-0.004544661 0.00044282587 -0.05309925 0.012091217 -0.0064916015 0.014938733 -7.0834e-05 -0.009637111
-0.0007134128 -0.0044164085 -0.0127383405 0.04691723 -0.0067922655 0.0043825344 0.007670839 0.053015742
