results_final/generalization-128fd/50levels-128fd-policy.pt (torch, 843669 bytes, 11 tensors)

weight f4 [32, 3, 8, 8]
000000 69 0e 67 bd 69 84 64 3d df fb 7d bc 12 01 78 3d
       -0.056410227 0.05579034 -0.015501945 0.060547896
000010 b7 b1 22 bd 83 9e 8f bd 6e b0 4c 3c 7b df 20 bc
       -0.039720263 -0.070126556 0.012493236 -0.009818907
000020 d8 55 73 be 61 11 cd bd fc b9 ed bd 7e 9c 17 bd
       -0.23763216 -0.100130804 -0.11607739 -0.037014477
000030 3f 38 bb 3d 29 aa 53 3d a5 a1 e5 bb bb ee d9 3c
       0.091415875 0.05167595 -0.007007795 0.026603093
000040 28 13 06 3e 52 bf 07 3e 9e 1f ba 3c 3e a9 01 3e
       0.13093245 0.13256577 0.022720154 0.12662217
000050 7d e0 d0 3d bb c4 8b 3d 8c 28 0f 3d 95 31 09 3e
       0.10199068 0.06824633 0.034950778 0.1339782
000060 06 0b 15 3d 33 fa 29 3b a6 99 93 3d a9 24 e9 bc
       0.036387466 0.0025936484 0.072070405 -0.028459864
000070 2a cf 0a 3e 77 26 a0 3c af c3 d3 3c d5 c6 52 bc
       0.1355559 0.019549591 0.025850145 -0.012864788
000080 89 7e 07 3d bc c5 46 be 58 1b a2 bd 45 67 e1 bd
       0.033079658 -0.19411367 -0.07915372 -0.11006025
000090 4d e7 16 bd e6 2a 28 bd f6 a4 10 be 68 ff 2c bd
       -0.03684168 -0.041056536 -0.14125428 -0.042235762
0000a0 a3 4d a0 3d 6d c2 52 bd 68 c3 20 3e 5d 73 80 bd
       0.07827308 -0.05145495 0.15699542 -0.06272004
0000b0 37 f9 d3 bd 36 05 ef bc 21 0d 7f bb 34 ad 02 bd
       -0.10350268 -0.02917729 -0.0038917738 -0.03190346
0000c0 53 86 e6 bd 72 e3 89 3d 0a 8c bb 3d 13 a9 05 be
       -0.11256089 0.06732835 0.0915757 -0.13052778
0000d0 d5 dc cc bc b8 24 e3 bd e2 c2 63 bd b4 59 71 bd
       -0.025007645 -0.11090988 -0.055605777 -0.05892344
0000e0 aa 35 a8 3d 05 23 f4 3c 89 fe 3b 3c ac a3 f8 bd
       0.082133606 0.029801855 0.01147426 -0.12140593
0000f0 8b 94 8e 3d 2d 2f 65 bd 54 5d 94 bc b8 e1 34 bd
       0.06961926 -0.055953193 -0.018110909 -0.044160575
000100 71 23 e0 bd fe 02 cb bc b7 15 b9 3d de 59 e4 bd
       -0.1094426 -0.0247817 0.09037345 -0.11149953
000110 0e bc c6 bd e2 ec c9 3d 94 c9 97 bc 95 1d 1a 3d
       -0.09703837 0.09859635 -0.018528737 0.037625868
000120 d5 ca fa bc cd 2a 1f 3b 30 bd 1b 3d 7e 42 d6 3c
       -0.030614296 0.0024286986 0.03802222 0.026154753
000130 c7 2f fd 3d 36 4c 21 3b 6c d2 84 be 14 a8 21 bd
       0.123626284 0.0024612076 -0.2594179 -0.039466932
000140 49 91 c5 3d cc 19 20 3e 0e 8e 88 3e 3d 95 64 bd
       0.096468516 0.1563484 0.2667088 -0.055806387
000150 2f d1 e7 3d 82 00 eb 3d 43 52 56 be 90 06 e4 bd
       0.113191955 0.11474706 -0.20929818 -0.11134064
000160 7d 98 ba 3d ed 2f a4 3d d0 82 79 bd 1b f4 e6 bd
       0.09111116 0.080169536 -0.06091577 -0.11277028
000170 9f f7 23 bc cb 76 ed 3c 26 d9 d5 bd 70 dd a7 bd
       -0.010007768 0.028987309 -0.104418084 -0.08196533
000180 fc 83 18 3e 59 b5 94 bd 73 70 14 bd 35 cc 7c 3e
       0.14894098 -0.07261152 -0.036240052 0.24687274
000190 09 c9 84 bd ee b8 a1 3d 71 06 6b bc 38 2c c1 bb
       -0.06483657 0.07896601 -0.0143447975 -0.005895164
0001a0 7f e7 1b 3d c9 0b cd 3c a5 08 c1 bd d5 91 37 3e
       0.03806257 0.025030034 -0.09425477 0.17926724
0001b0 26 77 d9 bd c1 7a 04 be 72 85 41 3e 9d 9c 9e bd
       -0.10618429 -0.12937452 0.18898562 -0.07744715
0001c0 47 e6 b8 3d 76 a3 2b 3e 74 b3 73 be ae 45 e8 3d
       0.09028297 0.16761574 -0.23798925 0.11341415
0001d0 c2 f7 20 bc dd 99 b6 bd d6 c3 80 bd fa c2 3b be
       -0.009824695 -0.08916066 -0.06287353 -0.18336096
0001e0 a4 18 b7 3d 53 ca fd bb 97 1c 24 be a2 ef 17 3e
       0.08940247 -0.007745066 -0.16026531 0.14837506
0001f0 c4 84 5a be 9f 56 5b bd 25 2c 11 bd b4 24 3d bd
       -0.21339709 -0.053549405 -0.03544249 -0.04617758
000200 fd 82 20 3e 94 22 c3 3d 84 0b b8 3e bf c7 4f 3e
       0.15674968 0.0952808 0.35946286 0.20291041
000210 2d 99 0e 3d ce a3 0d 3d 73 65 f6 3c c0 b3 98 3e
       0.03481405 0.034580044 0.030077672 0.29824638
000220 31 f9 40 3e 43 6b a9 3e f2 13 02 3e 03 fe 1d 3e
       0.18845059 0.33089647 0.12702921 0.15428929
000230 ba 2d c6 3e cf cd 7b 3e 75 fa f5 3e c2 87 bb 3e
       0.38706762 0.24590228 0.48042646 0.36627012
000240 03 69 44 3e de 85 ab 3e ff f8 a2 3e 51 f6 c1 3e
       0.19180684 0.3350057 0.31830594 0.37883237
000250 03 2e bf 3e c7 3e fb 3e 73 ec 07 3e 70 25 93 3e
       0.37339792 0.49071333 0.13273792 0.287395
000260 12 90 81 3e 7e 35 6a 3e ae 8b 8a 3e 0b 17 cb 3e
       0.2530523 0.22871968 0.27059692 0.39666018
000270 32 5f af 3e ee 07 1b bb d6 40 11 3e 60 af 09 3e
       0.34252316 -0.002365585 0.14184889 0.13445807
000280 15 42 ab 3e ec 1e 8a 3e 00 cf 10 3e 2f 88 4a 3e
       0.33448854 0.26976717 0.14141464 0.19778512
000290 47 2a 9b 3e 1b 0e 35 3e e6 4b 24 3d 64 36 f2 3d
       0.30305693 0.17681162 0.040111445 0.118267804
0002a0 fa 0e e7 3b 23 a7 54 3e 6a 57 a0 3b 7c 10 9d 3d
       0.007051346 0.20766883 0.004893233 0.0766916
0002b0 f8 75 95 3d 04 f9 49 3e d6 90 70 bd 80 26 8c bd
       0.072978914 0.19723898 -0.058731876 -0.06843281
0002c0 5b 6b fd bd eb 95 3d 3d 75 b3 ac be 16 b4 36 3e
       -0.12373992 0.04628555 -0.33730665 0.17842135
0002d0 67 c0 0d bd cc d8 c1 3c b5 46 35 be 9b 9a 94 3d
       -0.034607317 0.023662947 -0.17702754 0.07256051
0002e0 b5 d8 cc bd 9a bf b7 bd c0 49 12 bd 33 33 0f 3e
       -0.10002271 -0.08972092 -0.035714865 0.13984375
0002f0 a6 70 e8 bb df a9 e2 3d b8 93 2d 3d d1 b5 f7 3c
       -0.007093507 0.110675566 0.042377204 0.030238064
000300 0f 1d 5b 3e f5 7a 3b bd b6 ab f1 3d 71 39 03 3e
       0.21397804 -0.045771558 0.118003294 0.12814881
000310 c6 40 96 3d 76 95 77 bd c1 2e c4 bc b8 a0 82 3d
       0.07336573 -0.06044527 -0.023948075 0.06378311
000320 e2 67 71 bd 3f ee bf bc f5 c6 b8 bd a9 46 bf 3d
       -0.05893696 -0.023429034 -0.09022323 0.09339649
000330 53 1f 54 3c a9 e5 04 be e0 0d 2c 3e d2 88 b0 3e
       0.012946921 -0.12978233 0.16802168 0.34479386
000340 65 c1 40 3e f6 e9 e3 bc f7 fc 63 bc c1 68 21 3d
       0.18823774 -0.027821522 -0.013915292 0.03940654
000350 60 e5 db bb c0 29 0f bd ae d3 da 3d 59 ef 52 bc
       -0.0067106932 -0.034951925 0.10684906 -0.012874448
000360 d8 c4 d5 3d ee a2 39 be f7 ff eb bd 17 fb 43 be
       0.104379356 -0.18128559 -0.11523431 -0.19138752
000370 fb 8d 57 be d2 5d a2 be 4b 1d 29 be ae 47 ee bd
       -0.21050255 -0.31712204 -0.1651508 -0.116347656
000380 7c 5b 23 bc 21 48 cb 3d f3 6b 7e bd 26 a8 fc 3d
       -0.009970542 0.09925867 -0.062114667 0.12336759
000390 8f e5 aa bd 75 9d 86 bc 4b 8f fa 3d 9a a3 9c 3d
       -0.08344566 -0.016432503 0.12234362 0.07648392
0003a0 32 e1 6d 3d c4 36 9d bc 7b 2c 8e bd c5 8d d5 3d
       0.05807609 -0.019191153 -0.06942078 0.10427431
0003b0 d5 7e 53 3c 54 95 1c be 45 74 ed 3b a3 ed c2 3d
       0.012908657 -0.15291339 0.0072465264 0.09517982
0003c0 b2 c3 c6 3d 4d 3c d4 bc ff 39 63 bc 6c 8e 70 be
       0.09705295 -0.02590766 -0.013868808 -0.2349183
0003d0 9f 6f 23 bd 73 65 87 3d 7d 1c 87 bc 24 08 88 3a
       -0.039901372 0.06611147 -0.016493076 0.0010378403
0003e0 28 1a b1 bd b8 9d 76 3c 36 29 f8 bd 88 02 87 bd
       -0.08647567 0.0150522515 -0.12117235 -0.0659228
0003f0 6e 5f 07 3d a7 f6 e9 bd 4c 9b c1 bd 2f b5 bc 3d
       0.033049993 -0.11423998 -0.09453449 0.092142455

bias f4 [32]
000000 f6 5f 9f bc 67 28 82 bc 5c 43 60 3b ea 61 89 bb
       -0.019454937 -0.015888406 0.0034219837 -0.0041925805
000010 fa 53 82 bd 03 e9 35 bb 40 51 14 bc 65 86 14 b9
       -0.063636735 -0.0027757294 -0.009052575 -0.00014164446
000020 e8 c3 c4 bb d2 92 38 bc 26 9f 35 bc ef e8 05 bc
       -0.006004799 -0.011265473 -0.011085307 -0.0081732115
000030 35 4b 20 bc 30 1e 9f ba 20 ed ef 3b 51 83 37 bb
       -0.009783556 -0.0012139734 0.0073219687 -0.0028001855
000040 ce e9 9f 3c 88 32 75 bc 04 8c 99 bc 0c 75 44 3c
       0.019520666 -0.014965661 -0.018743522 0.011990797
000050 ca 57 b4 bb 6f 7d e8 ba 41 0f 82 bb 30 35 a0 bc
       -0.0055036293 -0.0017737577 -0.0039691036 -0.019556612
000060 74 a2 7c bb 41 ab 84 bc 07 60 15 3d c6 2d 66 ba
       -0.0038548978 -0.016194941 0.036468532 -0.00087806245
000070 4d 69 49 3d 1d 06 a2 bd 4a 9f 00 3b 1a 69 f5 bc
       0.04917269 -0.07911322 0.0019626194 -0.029957343

weight f4 [64, 32, 4, 4]
000000 34 5f 1e 3d 5f 3c f7 3d b4 1d 15 3e 5f e8 99 bc
       0.03866501 0.12072062 0.14562112 -0.018787561
000010 88 35 35 bd 77 ef 84 bc 07 8f d2 bc 58 c5 0e 3c
       -0.044240505 -0.016227467 -0.025702966 0.008714043
000020 85 2d 4c bb 25 59 e9 bc aa 2a c2 3d c1 ce a5 3d
       -0.0031155061 -0.02848489 0.09480794 0.08096076
000030 46 c4 3d 3e 6d b3 0e 3b 04 e0 0c bd 51 1f 38 be
       0.18531904 0.0021774427 -0.034393325 -0.17980696
000040 21 19 2b be 43 6a bf bd 3e c7 45 be 34 47 9b bb
       -0.16708805 -0.0934644 -0.19314286 -0.0047387127
000050 cc e4 29 be 71 55 50 bd e6 53 c6 3d fb 17 d5 bc
       -0.16591185 -0.050862733 0.09683971 -0.026012411
000060 b6 54 60 3d 38 7c 99 3c 3b 0b e7 bd 94 99 13 bd
       0.054768287 0.01873599 -0.11281439 -0.036035135
000070 4c a7 48 bc 5e 42 2e bd 56 69 61 bc 98 5e fe bd
       -0.012246918 -0.04254376 -0.013758024 -0.12420386
000080 4a 41 e8 bd b7 17 89 3d fe 08 f4 3d e0 35 00 bc
       -0.11340578 0.06693976 0.119157776 -0.007825345
000090 b9 0a 31 3d 16 ad 06 bd 6d 1d 2c be a8 1d 25 3e
       0.043223117 -0.03287991 -0.168081 0.16124594
0000a0 ac 10 da bd 70 c1 4e bd 5f d9 da 3d 15 6b 92 3d
       -0.10647711 -0.050477445 0.106859915 0.071493305
0000b0 9a e6 8f 3e 77 25 2e 3e 5a 4d 9c 3d 1e 82 6d bc
       0.28105623 0.17006479 0.07631941 -0.014496354
0000c0 80 fa cb bd 18 4e 78 bd 4f 98 d7 3c f9 35 6c 3d
       -0.099598885 -0.06062135 0.026317744 0.05766866
0000d0 5a 59 b3 3d 32 29 64 3d 0c d7 86 3d 7c ac 93 3d
       0.08757277 0.05570335 0.06583986 0.07210633
0000e0 81 0d b8 3a f7 ae 50 3d fe f0 c2 bc 8b ef 0b 3d
       0.001404211 0.05094811 -0.023796555 0.034163993
0000f0 e8 6a 3a 3e 9d 96 39 3e cc e6 ae bd b9 a7 56 3d
       0.18204844 0.1812386 -0.08540115 0.052406047
000100 43 c8 95 bd 6a 8d ea 3c be 00 df bd 20 81 56 bd
       -0.073135875 0.028631885 -0.108888134 -0.052369237
000110 6d d3 8f bd 06 39 2d bd 2a 88 72 bd 28 42 1b 3d
       -0.07022748 -0.04229071 -0.059211887 0.03790489
000120 90 9d 53 bd f5 be 21 3d 14 ff 3f 3d 0e 40 94 3d
       -0.051663935 0.03948875 0.04687412 0.0723878
000130 6b 16 66 3d 09 4e ae bd 05 1a 03 be 48 10 56 be
       0.056173723 -0.08510978 -0.12802894 -0.20904648
000140 61 d2 2f bd 1d cb 09 3e e9 11 16 3d da af 3e 3c
       -0.042925242 0.13456388 0.036638174 0.011638606
000150 42 82 0f bd af e4 f4 bb 3a 53 22 3a 92 e0 2a 3e
       -0.035036333 -0.0074735503 0.00061922113 0.1668723
000160 96 96 62 bd 7b 02 f1 3d d0 1a 7f bd 60 bb 4b bd
       -0.05531939 0.11768051 -0.06228143 -0.04973924
000170 1c fb fa 3d fe f7 8f bc 5f 07 62 3e 05 92 3b 3d
       0.122549266 -0.017574307 0.22073124 0.045793552
000180 9c 31 c3 bd 59 3c 9f 3d 79 35 52 bd 45 50 a1 ba
       -0.095309466 0.07775182 -0.051320527 -0.0012307247
000190 09 30 bd bd 5f 50 23 3d bf 60 6f 3d 9d 42 1b bd
       -0.092376776 0.03987157 0.058441874 -0.037905324
0001a0 77 43 24 be 2b c5 69 bc 4f 39 bb bd 48 0e 4e 3d
       -0.16041361 -0.0142682 -0.0914179 0.05030659
0001b0 4f fc c3 bd ef ce 9a bd c0 ee 80 3c 71 91 2f be
       -0.095696084 -0.07559001 0.015738845 -0.17145325
0001c0 c6 e0 3e bd 3b 99 e6 bc a5 2d 1c bd c3 bd dc bd
       -0.04660108 -0.028149238 -0.038129468 -0.10778382
0001d0 63 79 1f 36 4b 46 af 3d f2 5d 9e bd ad fa 51 bd
       2.3763503e-06 0.08558329 -0.077327624 -0.051264454
0001e0 2a f3 c4 3c de df b0 3d 21 24 4e bc 48 c5 14 3e
       0.02404173 0.08636449 -0.012581856 0.14528382
0001f0 00 e1 4a 3e cb ed 25 3e b2 85 48 bd fd ce 9c bd
       0.19812393 0.16203992 -0.048955627 -0.076566674
000200 bc 43 b1 3d 67 b2 76 3b 4c f4 06 3e 42 bb f9 bc
       0.086554974 0.0037642957 0.1317913 -0.0304848
000210 de 7c fc 3d 76 89 26 be 95 76 83 bd 45 2e 00 3e
       0.12328504 -0.16263375 -0.06419102 0.1251765
000220 a8 93 55 39 e6 9c f1 3c b6 da 3d bd 1c 82 9b 3c
       0.00020368269 0.02949376 -0.046351157 0.01898294
000230 6c 84 98 bc 95 ad dd bd 02 cc 97 3d 05 39 a9 3d
       -0.018617831 -0.10824124 0.07411958 0.08262829
000240 07 f8 8f 3d 4d 52 0b bc 17 11 ac bd 79 08 c2 bc
       0.07029729 -0.008503509 -0.08401697 -0.02368568
000250 80 73 6f 3d 3b 75 c5 3d 29 d7 ed 3d e5 b4 08 3c
       0.05845976 0.096415006 0.11613304 0.00834391
000260 b3 70 c5 3c 1b c4 36 3d bf 21 12 be 51 15 f4 3c
       0.02410159 0.044620614 -0.14270686 0.02979532
000270 dd bc 9e 3d 1a 8d 44 3d 38 0a fb bc 15 c8 7c be
       0.077508666 0.047986127 -0.030644521 -0.246857
000280 d0 e4 07 bd 06 65 0a be 2e 95 56 3d d5 4b 93 bc
       -0.033177197 -0.135151 0.052388363 -0.017980495
000290 ca 6d 7e bd 1c 7a b4 bd d1 88 ba bd 21 75 66 bc
       -0.06211642 -0.08812353 -0.09108127 -0.014066012
0002a0 96 4d c7 3d 09 91 86 3d ee a8 8e bd 2f c1 83 3d
       0.09731595 0.06570632 -0.069658145 0.06433331
0002b0 05 60 12 3e e3 18 13 be c4 27 26 bc 03 b6 90 bc
       0.14294441 -0.14364962 -0.010141317 -0.017664915
0002c0 4e 7e 50 bd a6 44 b5 bc 7f 35 d4 bc 9a af f6 3d
       -0.050901704 -0.02212746 -0.025904415 0.12045212
0002d0 42 d7 c2 bc ba fd 06 3d 7f d8 2a 3e 6a a5 b9 3d
       -0.023784284 0.032956816 0.16684149 0.09064753
0002e0 f2 41 82 bd c9 c4 84 bd 66 7e c0 bc fa 13 5d 3c
       -0.06360234 -0.06482846 -0.023497771 0.013493532
0002f0 23 c6 a2 bc b9 39 13 3e 26 0b 67 3c 06 bc d4 bd
       -0.01986987 0.14377488 0.014101779 -0.10387425
000300 ce b0 af bd 9d ba e8 3c 45 cc 19 3d 94 1b 9b 3d
       -0.08578645 0.028409297 0.037548322 0.075736195
000310 e0 57 12 3e d4 37 fd bd b4 e7 1a 3d 9d d8 f9 bc
       0.14291334 -0.12364164 0.037818626 -0.030498797
000320 76 f9 89 3d fc d8 01 bd 88 bd e6 bd dd d6 27 bd
       0.06737034 -0.031701073 -0.11266619 -0.040976394
000330 6b 58 f2 3d 73 5e 8b 3d ef 9b 5c 3b 1b 9b 1d be
       0.11833271 0.06805124 0.003366228 -0.153912
000340 d9 2c df 3d 11 6c 52 3b f6 47 17 3e 6f d9 83 3d
       0.10897226 0.003210787 0.14773545 0.064379565
000350 3b 77 3b 3e bc e6 b0 3d 5a f4 81 be f0 cc f9 3c
       0.18307202 0.08637759 -0.25381738 0.03049323
000360 1d ed 3b 3d a5 bc 79 bc ce 15 94 3d 53 bc c6 3d
       0.045880426 -0.01524273 0.072307214 0.09703889
000370 30 f1 09 3e 38 e5 82 3d 12 e2 10 3d 47 33 91 3c
       0.13470912 0.06391376 0.035371847 0.017724646
000380 fc d9 0a 3d bf a2 e1 bc 87 6a 19 be dc 73 8e 3d
       0.033899292 -0.027543424 -0.14982043 0.06955692
000390 57 98 1a be 88 69 c2 bd 2d 6a fd bd 56 3d f9 3d
       -0.15097176 -0.09492785 -0.12373767 0.12169902
0003a0 40 20 ff 3d 36 0b 85 3d b0 bc ed 3d 8f f9 ef 3d
       0.12457323 0.06496279 0.11608255 0.117175214
0003b0 c1 4e ba 3d 39 8d da bc 22 12 98 bd 4b 5d 1a be
       0.09097052 -0.026678668 -0.074253336 -0.15074651
0003c0 66 28 95 ba ee 6e 33 3c 12 d9 c0 bc 64 29 fd bd
       -0.0011379838 0.010951741 -0.023541007 -0.1236141
0003d0 ec 80 2a be 42 89 49 bd 0c 17 72 bd 0e ee fc 3d
       -0.16650742 -0.049203165 -0.05910401 0.12350093
0003e0 f6 dc 72 3d 80 c9 80 bd 0d ce 98 3c 6a e3 e5 bd
       0.059292756 -0.06288433 0.01865294 -0.112250164
0003f0 9c 59 18 3e 32 14 e2 b9 cf 25 15 bd d6 2a b6 bd
       0.14877933 -0.00043121126 -0.03641301 -0.08894889

bias f4 [64]
000000 5d d0 c9 bb 7e 36 52 bd 96 43 ed 3c 0e b6 78 3d
       -0.006158872 -0.0513215 0.028962892 0.060720496
000010 c8 fa e9 3c 39 b2 21 bd 02 75 73 bd c6 cf a2 bd
       0.028561965 -0.039476607 -0.05943776 -0.07949786
000020 ae 24 a9 bc 97 df e5 3c 25 f6 ad 3d ac d0 ed bc
       -0.020647373 0.028060718 0.08494214 -0.029030167
000030 bf df 17 3c e3 71 46 3d 21 71 91 3d 96 d7 c3 3c
       0.009269654 0.048448455 0.07101656 0.02390651
000040 77 c7 d5 bc 6a 0b e7 bd 54 a5 3a bc e5 24 6b bc
       -0.026096089 -0.11281474 -0.011391956 -0.014352058
000050 ae 1a 0f bd 37 cf 59 bd ec f6 e8 bb 8b 9b bd bd
       -0.034937553 -0.05317613 -0.0071095135 -0.09258183
000060 51 9f 95 bd 16 59 56 3d b8 b5 91 3d 3f ab a0 bd
       -0.07305778 0.052331053 0.07114738 -0.078451626
000070 d6 56 df bb 23 ea f6 3d 8e 6e 7a bc 70 60 c5 3b
       -0.0068157716 0.12056377 -0.015285147 0.006023459
000080 df 26 13 bd 09 80 f9 bd 82 94 a3 3c 60 20 43 bd
       -0.035925742 -0.12182624 0.019968275 -0.047638297
000090 cb 96 13 3d 4e 8d d4 bc 17 7e 5a bd ad 8b cd bc
       0.03603248 -0.025946286 -0.053342905 -0.025091017
0000a0 02 48 3a be 9a b6 a3 3c b1 fa fc bb c3 79 02 3d
       -0.18191531 0.019984532 -0.0077203144 0.031854402
0000b0 56 1d ae bd 6a a7 3f 3d 79 ec 26 3b b7 8f 46 bb
       -0.08501689 0.046790518 0.0025470539 -0.0030298063
0000c0 1c 9d 13 bd 67 dd 4d 3a f4 97 4a 3d e0 9c 20 3b
       -0.036038503 0.0007853121 0.04946132 0.0024507567
0000d0 fd 72 07 bd b9 5d ec bd 31 53 a6 bc cd 77 3e 3c
       -0.033068646 -0.11541314 -0.02030334 0.011625242
0000e0 8a 38 42 3d 12 38 3d 3c 7f 20 3a 3c 9b 8d 1d bd
       0.0474172 0.011549013 0.011360287 -0.038465124
0000f0 7a f7 47 3d ab 25 03 3d e1 26 91 3d f5 07 7e 3b
       0.048819996 0.032018345 0.07087494 0.0038762067

weight f4 [64, 64, 3, 3]
000000 c2 b4 ac bd 33 38 07 3e 04 b7 54 3d f7 3c 7d 3d
       -0.08432914 0.13205032 0.05193235 0.06182572
000010 a3 35 4a 3e bc 1d fa 3d 6a 59 23 be 2b 35 1a be
       0.19747023 0.12212703 -0.15952078 -0.15059344
000020 85 5b b6 bd 4b e8 3a be 47 6e 83 3d 74 cf 5d bd
       -0.08904175 -0.18252675 0.06417518 -0.05415292
000030 ef 17 01 3e 0e 5f 52 3c 0e d9 70 3d 7d cb a2 3d
       0.12606786 0.012840046 0.05880075 0.079489686
000040 44 be 0b 3e 9c d3 41 bd cd 90 12 3e 04 ad 19 bd
       0.136468 -0.047320947 0.1431305 -0.037518516
000050 33 b3 c6 3c aa a0 fc bd 9f b3 23 be ef a7 29 be
       0.02425537 -0.12335332 -0.15986489 -0.16567968
000060 6c 57 62 3d c0 a2 9a 3c d0 fd a4 3c 1a db bc bd
       0.055259153 0.018876433 0.020140558 -0.09221478
000070 c3 0a 10 3d 42 76 0e bd d8 b9 c9 bd fd c3 0d 3d
       0.035166513 -0.03478075 -0.098499 0.034610737
000080 53 35 94 bb ed b0 60 bc de b5 37 3d ef d0 67 bd
       -0.0045229583 -0.013714057 0.044851176 -0.05659574
000090 96 df f2 bd 29 2d 01 3e 67 24 16 3d a6 fa 96 3c
       -0.11859052 0.12614883 0.03665581 0.018430065
0000a0 91 eb 56 bd df 0f bd bc c2 dc 15 bd 17 8f 57 bd
       -0.052470747 -0.023078857 -0.036587484 -0.052626695
0000b0 56 fa 9f 3d dd e4 24 3c ee 0a 18 be ea 2e 87 bd
       0.0781142 0.010064331 -0.1484792 -0.06600745
0000c0 6e 47 8a 3d ff b5 fb bd 16 26 0a be 7a 19 28 3e
       0.067519054 -0.122905724 -0.13491091 0.16415969
0000d0 c0 59 fd bb 18 41 7e bd 7d 29 19 bd f9 47 de 3d
       -0.0077316463 -0.062073797 -0.037393082 0.108535714
0000e0 6c bf d5 bd 89 d0 81 3d eb 21 c5 bd 12 d9 1f 3c
       -0.104369015 0.06338603 -0.0962561 0.009756343
0000f0 df 50 bb 3d 19 32 ba 3d 6e 44 fb 3d 12 cb 2d be
       0.09146284 0.090915866 0.12268911 -0.16971996
000100 96 2f ab bb 5b e4 e3 bd 48 d7 3d bd b1 0a 4f 3e
       -0.0052241785 -0.1112754 -0.046347886 0.20218922
000110 a8 6c 5a bd 06 02 2c ba 90 73 0d 3c 59 9e bd bc
       -0.05332628 -0.0006561581 0.008633509 -0.023146795
000120 27 57 59 be 34 30 f3 bc 96 5a f7 bc 4f eb c2 3c
       -0.21224652 -0.029686071 -0.030194562 0.023793845
000130 e6 e7 9c 3d 35 b3 3d bd d2 f1 14 3d e3 8d 37 bc
       0.076614186 -0.046313483 0.03636343 -0.011203262
000140 80 93 6c 3d e3 98 02 be 3c 4a f4 3d fc 63 a5 3d
       0.057757854 -0.12753634 0.119282216 0.08075711
000150 f9 27 ff 3d e6 25 e3 3c 00 51 19 bd 3a 5d 22 be
       0.12458796 0.027728032 -0.037430763 -0.15855876
000160 63 d4 6e 3d 70 ee dd bc 17 fc ca 3b 52 c3 c6 3d
       0.058308017 -0.027091235 0.006194602 0.09705223
000170 42 9a 09 be f7 02 02 3d 81 0e 05 3d 6c c1 36 3e
       -0.13437751 0.03174111 0.032484535 0.17847222
000180 43 7b 1d be ea 19 00 bd d0 d4 37 3e 4f 8d f1 bd
       -0.15379052 -0.031274714 0.17952275 -0.117945306
000190 22 38 ce bc e0 6d 7a bc e7 b1 11 3d a3 9e ab bd
       -0.02517325 -0.015284985 0.03557005 -0.08379867
0001a0 ed e1 f6 bd 58 c8 5b be 62 f9 19 be 5a 32 9f 3c
       -0.12054811 -0.21463144 -0.15036538 0.01943319
0001b0 83 1f c6 3d 10 6a 17 bd f1 09 a6 3d fb f3 44 be
       0.09673979 -0.036966383 0.08107365 -0.19233696
0001c0 36 d6 83 3d 0a 10 a6 3d c2 17 22 bd cc 39 f3 bd
       0.06437342 0.08108528 -0.03957344 -0.11876258
0001d0 51 24 7e bc 65 c5 5e bc c1 3e e4 3c 7e 6f 36 bd
       -0.015511588 -0.013596867 0.027861955 -0.04453992
0001e0 b8 5b 82 3d ab 68 b1 3d b4 b4 29 3e 9c 1a 86 bd
       0.0636515 0.08662542 0.16572839 -0.06548044
0001f0 ac b9 0d bd 42 99 cb 3c 43 9f 98 3d 78 d1 e9 3d
       -0.0346009 0.024853352 0.07452252 0.11416906
000200 59 4e 50 3d ec ed ca 3b 4c db 37 3c 81 46 92 bc
       0.05085597 0.0061929133 0.011221718 -0.017855885
000210 16 bb 20 3d c3 7a 8f 3c d2 21 73 bd b5 ed d8 ba
       0.03924092 0.017514592 -0.059358425 -0.0016550334
000220 28 34 82 bd 15 03 63 bc e8 15 e9 bd 33 fb b8 3c
       -0.06357604 -0.013855715 -0.113811314 0.022580719
000230 2d d8 2e 3e e9 80 95 3d 4f 76 a9 3c 1b 08 26 be
       0.17074652 0.07299978 0.020686297 -0.1621403
000240 50 fa cc bc d3 dc ae bc f6 6a 10 bc b7 ed 6d bd
       -0.025021702 -0.021345532 -0.008814564 -0.05808803
000250 4b 8b 49 3d 51 e5 35 3e c9 ae 79 3d cd bc e0 3a
       0.049205106 0.17763259 0.060957704 0.0017146111
000260 0e a5 37 bc 52 86 80 3d df b0 81 bc 16 97 7b bd
       -0.011208786 0.062756196 -0.015831409 -0.061423384
000270 8f f7 82 3d 09 81 10 3c a9 59 03 bd 8d eb 2a bd
       0.06394874 0.008819827 -0.03206793 -0.041728545
000280 5e 60 e2 3b 4e 56 05 bd 83 ba d5 3d a8 d7 db bc
       0.0069084605 -0.03255301 0.10435965 -0.026836231
000290 4e f8 5f bd 1b 43 2d 3d d9 88 26 3e 6c 01 ba 3d
       -0.05468016 0.042300325 0.1626314 0.090823025
0002a0 8f 97 1f bd 80 95 d3 bd fa 8f 03 3e d7 f5 ee 3c
       -0.038962897 -0.10331249 0.12847891 0.02916996
0002b0 9c 4e e6 3c 56 db 84 bd 54 82 1d bd 74 1f 32 be
       0.028113656 -0.064871475 -0.03845437 -0.17394811
0002c0 e3 2e 78 3d 1d 81 3f bd 29 44 85 38 80 bc 23 3e
       0.06059159 -0.04675399 6.35463e-05 0.15989876
0002d0 2e 67 23 bd 91 41 a5 bc e5 9b 2c bd 30 79 94 3d
       -0.03989332 -0.020172866 -0.04214086 0.07249677
0002e0 32 16 82 bd 57 88 67 bd 74 43 33 3d f7 88 93 bd
       -0.0635189 -0.05652651 0.0437655 -0.07203858
0002f0 fd cf 85 3d 59 11 3e 3e 41 93 ac bc 97 ce 9c bd
       0.06533811 0.18561305 -0.02106631 -0.076565914
000300 dc 32 bb bd 55 32 d2 bc 43 9a 0b 3e 91 e9 38 bc
       -0.0914056 -0.025658766 0.13633065 -0.011286155
000310 d1 b5 6f be 3d ab 21 bd c2 3a d0 3a d9 38 81 3d
       -0.23409201 -0.039469946 0.0015886652 0.06309671
000320 c3 da 18 be 9c bd 0d be 51 eb 14 3e 5a 00 c4 bd
       -0.14927201 -0.13841861 0.14542891 -0.095703796
000330 69 0f c1 3c 47 f3 b1 3c 96 6a ee 3d c5 8a 86 3c
       0.023566918 0.021722449 0.116414234 0.016423592
000340 09 cf f9 3d c0 59 7c be 9d 6c 07 3d 15 68 65 bc
       0.12197692 -0.24643612 0.033062566 -0.014001866
000350 d3 86 03 3d 75 fe f9 bd 26 46 85 bc eb b8 9f bc
       0.032111 -0.12206737 -0.016268801 -0.019497355
000360 d2 2d bb bd 0c d5 21 3e 68 88 05 be c7 77 2c 3d
       -0.09139599 0.15803927 -0.13040316 0.042106416
000370 9d 3e 68 bd bb bc 42 3d fc 6d 3f be 06 bb fe bd
       -0.056700338 0.04754327 -0.186943 -0.12438016
000380 0b 57 4b be 4a 7b 11 be 0a cc 3c bd b3 bc 26 3e
       -0.19857423 -0.14207187 -0.046093024 0.1628292
000390 a1 77 82 be 1e 92 8e bc b4 5a 99 bd 41 f6 d8 bc
       -0.25481895 -0.017403658 -0.074880034 -0.02648461
0003a0 7b a8 c7 3c 16 15 8e 3d c3 b9 1d 3e 5f 8f cb 3d
       0.02437233 0.069376156 0.15402894 0.09939455
0003b0 61 c6 b8 bc 59 37 f5 3d e6 53 23 3d 43 10 56 3d
       -0.022555532 0.11973447 0.039874934 0.052261602
0003c0 88 90 a4 bd 62 cc 86 3c 04 89 8a 3e 0d 0d c6 3d
       -0.0803538 0.01645488 0.2705766 0.09670458
0003d0 ba 6f 0c 3d e8 10 1e 3d 6f d3 0d bd 59 30 4b 3d
       0.03428624 0.03859034 -0.034625467 0.049606655
0003e0 0c 39 b6 3b f0 1e de bd 60 d6 e8 bd 63 49 bf bd
       0.0055609997 -0.108457446 -0.11369014 -0.09340169
0003f0 1b 68 4f be c5 dc 1c be 3c bb 92 bd 3b 71 b8 bc
       -0.20254557 -0.15318592 -0.071646184 -0.02251493

bias f4 [64]
000000 8a bb bb 3d 69 9d c4 3d 56 13 b6 3c 68 e3 8a 3c
       0.091666296 0.09600336 0.022226017 0.016954139
000010 e8 7d 91 3d c3 45 3c 3c 9f f9 3c 3c 96 25 41 bd
       0.07104093 0.011491242 0.011534124 -0.047154985
000020 11 91 99 3d 00 b1 a4 3c 0b 12 b9 3a ca c2 a3 3d
       0.07498372 0.020103931 0.0014119757 0.079961374
000030 5e 7a c7 3d 39 51 fe bb 96 a3 49 3d 14 6f 82 bd
       0.097401366 -0.0077611473 0.049228273 -0.06368843
000040 c7 03 f3 3b 64 70 4d bd 9c c3 6b 3d 06 a2 80 3b
       0.007416222 -0.050156012 0.057559595 0.0039255647
000050 f7 2e d1 3c c3 e2 e0 bd ee 21 27 3d 56 83 42 3d
       0.02553509 -0.10980751 0.040803842 0.047488533
000060 58 72 f3 3d ce 39 bd 3b b7 68 c5 3d fa a9 70 3c
       0.11887044 0.005774713 0.096391134 0.014688963
000070 4c 94 eb 3c d7 86 06 3e d6 43 d0 3c 1b 23 f6 3c
       0.028757237 0.13137375 0.025422972 0.030046036
000080 95 6b 37 bc 44 aa 29 3d 16 d9 01 3d 3a 87 36 3d
       -0.011195083 0.041422144 0.03170117 0.044562556
000090 b6 66 0c bc 83 4c a8 3d 39 fa 51 bc 6c 67 16 3d
       -0.00856941 0.082177185 -0.012816005 0.036719725
0000a0 e6 4f 68 3c 51 b6 27 3c 5c b6 4e 3c 05 13 fa bc
       0.0141792055 0.010236339 0.01261672 -0.030526647
0000b0 42 d5 07 3d 5b 70 b9 bc 96 07 87 3c fd 33 f7 3c
       0.033162363 -0.022636583 0.01648311 0.030176157
0000c0 01 5a 8a 3d 6e f9 9c b9 7e 9d 14 be d3 c7 2b 3d
       0.06755448 -0.00029940478 -0.14513204 0.041938614
0000d0 99 c1 91 bb 75 18 aa 3c cf 0b 4d 3c 66 19 f4 3c
       -0.0044481275 0.020763615 0.012515022 0.029797267
0000e0 d6 7e c0 3d 4d dd 4e bd 15 27 9e 3d 2e e5 dd 3c
       0.09399192 -0.050504018 0.07722298 0.02708682
0000f0 a6 4d 90 3d d1 bb ad 3c d0 4b c9 3d 31 18 a9 bd
       0.0704606 0.021207722 0.09828913 -0.08256567

weight f4 [128, 1024]
000000 4b 07 f4 3d bb 05 c5 bd f5 12 b7 3d ae c2 17 ba
       0.119154535 -0.096202336 0.08939163 -0.00057892024
000010 30 60 cb 3c 93 ed 8d 3c b2 21 7a bd 0f 91 6f 3d
       0.02482614 0.017325198 -0.06106729 0.058487948
000020 ec 71 18 3e c2 47 95 3b bb c4 dd 3d f6 7f 97 bd
       0.14887208 0.0045556733 0.10828539 -0.073974535
000030 15 ae 08 be 60 83 c7 3d 67 58 a2 bd b2 eb c5 bd
       -0.13347657 0.09741855 -0.07927018 -0.09664096
000040 22 9e 6e be d7 65 ac bd 36 8f 08 3e 9f 6d 02 3e
       -0.2330251 -0.08417862 0.1333588 0.1273713
000050 77 60 5f bd 10 64 31 bd 92 78 71 3c 8f 2a 26 3e
       -0.054535355 -0.043308318 0.014738219 0.16227172
000060 70 ad 1e bd 76 e7 08 bd 20 f5 a9 bd c3 b6 d7 3d
       -0.03873962 -0.033423863 -0.08298707 0.10532906
000070 a0 cc 3b 3e ab ca cf 3d ba 9d 0e bd b3 1e 20 3d
       0.18339777 0.10146078 -0.03481839 0.039091777
000080 01 f1 97 bd d2 69 2a 3c cc 59 95 3d 28 3d ea 3d
       -0.07419015 0.010401206 0.07292518 0.11437446
000090 b7 4c 60 3c 56 4d d7 bc 42 81 dc bd aa eb d6 bc
       0.013690165 -0.026281994 -0.107668415 -0.02623542
0000a0 79 3a 8e 3d a7 49 95 bd e2 0d b7 3c 95 35 71 3d
       0.069447465 -0.07289439 0.022345487 0.05888899
0000b0 a4 88 bc 3d 57 98 73 bd d8 6d de 3c e8 bd 96 3d
       0.0920575 -0.059471454 0.027151987 0.073604405
0000c0 12 59 23 be 69 c3 cb bc bf 3b d5 bd 7c d4 d1 3c
       -0.15951946 -0.024873452 -0.10411786 0.025614016
0000d0 13 51 06 bd 2c 12 b2 bd 23 dd 68 bc c0 5f 08 3d
       -0.032792162 -0.08694872 -0.014212879 0.03329444
0000e0 bb b3 6b bd 11 78 f1 bc c5 b9 15 3c 6e b7 24 3c
       -0.05754445 -0.029476197 0.009138529 0.010053499
0000f0 4e ca 48 37 f7 4a a9 bd 0f 77 8b 3b 59 fc f6 3c
       1.1968032e-05 -0.082662515 0.0042561362 0.030149626
000100 e7 0f 05 be 1f 08 c1 bd e1 fc d2 bd 6d 29 44 3d
       -0.12994348 -0.09425377 -0.10302139 0.04789107
000110 83 1a 61 bc c8 28 cb bd b2 31 03 be f9 ea d7 3c
       -0.013739231 -0.09919888 -0.12811926 0.02635716
000120 51 47 a1 bd 94 8d 86 3d 9b 60 93 3d 17 be 70 3d
       -0.07874931 0.06569973 0.071961604 0.058775034
000130 b9 86 15 bd 93 02 16 be 11 62 e6 bc 30 d1 8c 3d
       -0.036505435 -0.1464942 -0.028122934 0.06875837
000140 d6 0b cc bc ac 9c 6a 3d a1 b9 dc 3d a9 cb 2e 3e
       -0.024907988 0.05727832 0.107775934 0.17069878
000150 bc 5b 5c bd d0 1f c3 3d 64 0b 8e bd 1a 76 ee bd
       -0.053798422 0.09527552 -0.06935766 -0.1164362
000160 7f 9b bd 3c 85 95 a5 bc b1 5a 32 3c e1 8c 0c 3d
       0.023145435 -0.020212898 0.01088588 0.03431404
000170 fe aa eb 3b c4 9b 91 3d 11 c1 69 bd a7 ae af bd
       0.0071920147 0.07109788 -0.057068888 -0.08578234
000180 19 5c f1 bd 53 ef 91 bd 40 af 09 3e 83 0f de 3d
       -0.11785144 -0.071257256 0.13445759 0.108428024
000190 43 95 b3 3c bf 6c fa bd 00 70 d5 bd 2a a8 03 be
       0.02192176 -0.12227773 -0.10421753 -0.12857118
0001a0 5f c3 1a 3c ce e7 48 3d bc 01 77 3d 16 f0 7f 3d
       0.009445994 0.04904919 0.06030439 0.062484823
0001b0 71 b6 3b 3b 31 82 10 3d 49 c2 5b bc 8f 69 b2 bd
       0.002864268 0.03528041 -0.01341302 -0.0871154
0001c0 a2 fb 97 bc 6e bc 13 3d b6 bc f8 3c 09 cb dd bd
       -0.018552605 0.036068372 0.030363422 -0.108297415
0001d0 e1 0a ed 3d 32 f4 30 bd b8 3d 11 3d 02 b4 83 bd
       0.115743406 -0.043201633 0.03545925 -0.06430818
0001e0 84 03 ef bd e8 21 b0 bd 04 e8 79 3d fe 51 61 bd
       -0.116705924 -0.08600217 0.061012283 -0.055009834
0001f0 74 83 2b 3d 66 65 16 3d 38 dc 32 3d 1d e4 98 3d
       0.04187341 0.036717795 0.04366705 0.07465384
000200 55 aa 85 bd 92 a1 87 3c 17 7e 6a bd 37 db 7f bd
       -0.06526629 0.016556535 -0.057249155 -0.06246492
000210 4e ec 35 bd 3d c6 ab 3d 61 45 17 3d cb a3 a3 bc
       -0.04441481 0.0838742 0.0369314 -0.019975564
000220 b3 ca c4 3d 9c ea 91 bc 48 7e 2e be c9 f5 3c 3e
       0.09608974 -0.017812066 -0.1704036 0.18453135
000230 7f cf 2a 3d cd 74 ad bd 5a cb 9d 3c 8b 59 23 3e
       0.04170179 -0.084695436 0.019262005 0.15952127
000240 ac e5 3a bd 96 f8 a1 bd 8f 58 71 3d 43 71 79 3d
       -0.04562919 -0.07908742 0.058922347 0.06089903
000250 ee 4a 1b 3d f4 a0 62 3d 99 7d 88 3c 99 f2 28 bd
       0.037913255 0.055329278 0.016661452 -0.041246984
000260 68 57 10 bd ef 5d 36 bd 04 a3 3e 3d 77 c1 90 bc
       -0.035239607 -0.044523176 0.046542183 -0.017670376
000270 a1 40 f8 3b d8 46 84 bc 26 78 85 3d 8e 41 c1 3c
       0.0075760637 -0.016147062 0.06517057 0.02359083
000280 d1 a0 3b be 0e 95 7d 3d 4c 1b 62 3b 3a ae b4 bc
       -0.18323065 0.061909728 0.0034501133 -0.022055734
000290 fb 0b 2b bd 09 69 25 3d 8e ea 98 bc d8 23 cc bd
       -0.041759472 0.040383372 -0.018666532 -0.09967774
0002a0 3e 31 b2 3c d8 b6 96 bc cf 17 4d 3c 61 0f 36 3e
       0.021751996 -0.018397734 0.012517883 0.17779304
0002b0 d2 45 49 bd 03 76 8a bd b8 f0 fa 3c 29 38 d4 bd
       -0.04913885 -0.0676079 0.030632362 -0.10362274
0002c0 07 7b b8 3d cd a9 bf 3d a8 11 76 ba 98 c0 f3 3c
       0.090078406 0.09358559 -0.0009386786 0.029754922
0002d0 e4 f6 8e bd fd 44 03 3d 13 4a c0 3d ac b7 11 3e
       -0.069806844 0.032048214 0.093891285 0.14230222
0002e0 01 e3 03 3d 73 be 41 3d e8 a8 95 3d d2 69 94 3d
       0.03219891 0.047300767 0.07307607 0.07246746
0002f0 41 5a a8 3d 12 aa d0 3b 32 43 64 3c ae cc 13 3e
       0.082203396 0.00636793 0.013932036 0.14433548
000300 af 44 63 bd 18 45 c2 bb 7e ad ba 3d c6 58 95 3d
       -0.055485424 -0.005928647 0.09115122 0.07292323
000310 3b 41 c4 3d 21 10 80 3c d8 24 3b 3d e8 e3 a7 bc
       0.09582754 0.01563269 0.045689434 -0.020494416
000320 70 bd 67 3d 9f b0 aa bd f7 8d 02 3c 92 42 8e bc
       0.056577146 -0.08334469 0.007968417 -0.017365728
000330 f2 86 16 bd 05 48 e9 bd 07 d4 50 3d 12 9d fc 3d
       -0.036749788 -0.1139069 0.050983455 0.12334646
000340 56 32 c4 3d f1 6d 9a bd 83 42 04 3e ca 32 e7 3c
       0.09579913 -0.07540501 0.12915997 0.02822246
000350 13 e0 fa 3c 6d 0b 9b bc ba 31 05 3d 74 95 e6 ba
       0.030624425 -0.018926347 0.032518126 -0.0017592148
000360 a4 55 61 bd b3 a0 fd bc 04 24 22 3e ed 3f 50 3e
       -0.055013314 -0.030960416 0.15834051 0.20336886
000370 1a 99 28 3d 38 42 13 bd a7 55 f3 3d 64 29 c3 bc
       0.041161634 -0.035951823 0.11881571 -0.023823448
000380 bb b4 3d be 00 0c 1a 3c 47 0f 7d 3c 48 ab e8 3d
       -0.18525974 0.009402275 0.015445537 0.11360794
000390 2a 96 06 3d 49 ff 8c bd d3 a2 87 be da 58 91 bd
       0.03285805 -0.06884629 -0.26491413 -0.07097025
0003a0 cd 69 50 bd 99 5d 91 bd c7 8a 8f bc 9e 07 1b 3e
       -0.05088215 -0.070979305 -0.017522229 0.15139624
0003b0 01 68 88 bd d6 e4 19 bc 0b 02 bb 3d 64 dd db bc
       -0.06660462 -0.009392938 0.09131249 -0.026838966
0003c0 10 11 ac 3d cb bf a5 3d e7 56 2a 3d 9d 0c d5 3d
       0.08401692 0.08093222 0.041586783 0.104027964
0003d0 61 37 24 bc b8 fd 33 bd 27 89 7b 3d ff 6f be 3d
       -0.010022969 -0.043943137 0.061410096 0.09298705
0003e0 45 7c 8d 3d 6d bb 0f 3d ff 41 9d bd d5 10 f8 bd
       0.06908468 0.035090853 -0.076786034 -0.121125855
0003f0 9a c4 64 bc 1e 33 81 bd 53 1a 80 bd 39 79 18 be
       -0.013962889 -0.06308578 -0.06255021 -0.14889993

bias f4 [128]
000000 50 15 27 bc 49 93 02 bd ff 86 25 bd f2 52 15 bd
       -0.010197952 -0.031878743 -0.040411945 -0.036456056
000010 e6 a7 ed bb 20 bd 90 3d e1 3e 2c 3c ab 77 f4 3a
       -0.007252681 0.07067323 0.010513038 0.0018651386
000020 be fa 7b 3d 5a c7 cb bc 77 e5 19 bd fb 40 86 bd
       0.061518423 -0.024875332 -0.03757235 -0.06555363
000030 26 fb 7b 3d 48 7c 2f bd d5 f8 3c 3d fb d1 a5 bc
       0.06151881 -0.042843133 0.046135742 -0.020241728
000040 cf 49 ae 3d 62 f8 6b 3e d1 46 5d bd cb e3 6e 3d
       0.085101716 0.2304397 -0.054022614 0.05832271
000050 23 e3 2e 3d 5e f8 b0 bd d6 6f 84 bd c9 85 11 3e
       0.042697083 -0.08641122 -0.064666435 0.14211191
000060 2d ec db bc 95 ac e6 bc d4 ea 36 3e 06 cd 64 bd
       -0.026846016 -0.028158465 0.17863017 -0.055859588
000070 e5 6b 01 bd 99 9f d9 3b 88 cf 87 3d 34 b8 0c b9
       -0.031597037 0.00664134 0.0663138 -0.00013420061
000080 14 69 30 3c 83 28 25 3d 36 bd f4 3c db 02 53 bd
       0.01076724 0.040321838 0.029875379 -0.051516395
000090 51 4f d7 3d 0e 10 cc 3d 48 15 3b 3e 25 92 bf 3d
       0.10513175 0.09964 0.18269837 0.09354047
0000a0 fd d9 9d 3d 59 ef db bc b2 c5 39 bd 54 33 1d 3d
       0.077075936 -0.026847528 -0.045354553 0.03837903
0000b0 ac b8 2e bd ee 8d b8 3d 0b 41 e4 bd 0d 57 ba 3d
       -0.042656586 0.09011446 -0.111452185 0.09098635
0000c0 48 72 21 3e 63 3c 58 3d 64 c3 00 3d b9 69 3d bd
       0.15766251 0.052791964 0.03143634 -0.046243403
0000d0 07 54 2a 3e cf 28 77 bb 6e 8f 24 bd 7c b2 2a 3d
       0.16633616 -0.0037713533 -0.040175848 0.041674122
0000e0 3b 54 11 3e 58 9d a9 bc ba 66 90 bd 3f 4e 66 bd
       0.14192288 -0.02070491 -0.070508435 -0.056226965
0000f0 76 28 c8 3d a8 04 83 3d 88 c7 6e bd 53 17 3b 3d
       0.09773342 0.063973725 -0.058295757 0.04567654
000100 94 5e 04 3d a0 c9 e4 3d fd a1 45 3d 67 30 7f bd
       0.03231676 0.111712694 0.048250187 -0.06230202
000110 4c da dd bc 20 d4 84 3d 02 81 0b bd 8d 0d 21 bd
       -0.027081631 0.06485772 -0.03405858 -0.039319564
000120 94 ac a2 3d 12 b5 63 bd 2c 1e cb bd 86 5c 3b bd
       0.07943073 -0.055592604 -0.09917864 -0.045742534
000130 12 6e 8a 3d 71 34 53 3d 91 bb 19 3d 8f a7 dc 3c
       0.067592755 0.051563684 0.037532393 0.026935367
000140 f0 be 0d 3d e9 a1 ee 3d da da 9d bd 97 3c d0 3c
       0.03460592 0.11651976 -0.07707758 0.025419516
000150 41 81 d0 3d 10 88 b2 bd a4 44 ff 3c e5 08 3a bb
       0.10180903 -0.08717358 0.03116066 -0.002838665
000160 c1 c1 a6 3d bb 64 cd bd 71 97 71 ba ed 61 91 3d
       0.081424244 -0.100289784 -0.0009215987 0.07098756
000170 76 2a 99 bc a6 6a 9a 3d 24 8c 13 3e 64 b3 fc bc
       -0.018697005 0.07539873 0.14408928 -0.030847259
000180 e0 b8 87 bd 1e 1a 2e 3d c1 7a c7 3d ce 05 3c 3d
       -0.06627059 0.042505376 0.0974021 0.045903973
000190 4e 45 b2 3d d7 3e 16 3d 43 cc 12 bd 74 df a3 3c
       0.08704625 0.036681022 -0.03583933 0.020004012
0001a0 ca 4a 55 bc c2 72 73 bc 7c 80 b3 bd 4a 33 80 3d
       -0.013018319 -0.014858903 -0.08764741 0.062597826
0001b0 75 f7 b7 3d 90 ad 95 3d e5 d9 36 3d 26 d7 6b 3d
       0.089827456 0.07308495 0.044641394 0.05757823
0001c0 03 b4 5d bd 65 56 e5 3d cd 3d 47 bd 61 98 65 bd
       -0.05412675 0.11198119 -0.048642922 -0.056053523
0001d0 67 8a 77 3d c9 e3 2a 3d 14 aa 93 3d 3c c2 01 3e
       0.060434725 0.04172114 0.07210174 0.12671751
0001e0 75 52 22 3d c1 63 5d 3b c1 9e c4 bd b6 42 76 3d
       0.03962942 0.0033781382 -0.096005924 0.060122214
0001f0 38 32 80 bd 86 58 e6 3d 8f b2 55 3d a2 19 33 3e
       -0.062595785 0.11247353 0.05217224 0.17490247

weight f4 [15, 128]
000000 af 7d 90 bd b1 ff 27 3e 73 0d 6a 3e 19 59 22 bc
       -0.07055222 0.16406132 0.22856693 -0.009908938
000010 8f 40 de bd d1 16 21 be d4 e9 54 bc 6e 47 ee 3d
       -0.10852157 -0.1573136 -0.012995202 0.11634718
000020 00 49 2d 3d 69 c2 56 bd 83 73 28 3d a5 a9 19 3e
       0.042305946 -0.052431498 0.041125786 0.1500612
000030 82 30 7c be 5d 22 00 3e 60 ed 3e 3d ac 0f 85 be
       -0.2462788 0.12513109 0.046613097 -0.2598852
000040 28 47 a1 3d 40 3d de bb fd 2b dd 3c f6 1e 40 bd
       0.078749 -0.006782204 0.026998514 -0.046904527
000050 9c 88 f7 3d d1 5d 6a 3e 47 99 2d bc e5 b4 2c 3d
       0.12086603 0.2288735 -0.010595626 0.042164702
000060 d2 6b 6e 3d 67 3a 7a be b1 10 13 be a9 9c 3a 3e
       0.058208294 -0.24436341 -0.14361836 0.18223824
000070 8c 81 3a 3e 14 56 fd 3c 31 2b f5 bd 9a 64 46 3e
       0.1821348 0.030924834 -0.11971129 0.19374314
000080 79 d3 a3 bc 94 15 07 3d 5e 54 23 3d 05 5b 12 3c
       -0.019998299 0.032979563 0.03987538 0.008932834
000090 91 09 17 bc 3f 7c 94 3d 59 29 47 bd 82 9e 27 3b
       -0.009218589 0.072502606 -0.048623417 0.0025576656
0000a0 06 13 85 be 1b 74 18 be 7c 59 90 bc bb 5f 69 be
       -0.25991076 -0.1488804 -0.017620794 -0.22790425
0000b0 15 93 70 be 8f db 2d bd 9b 0f e8 3d f6 77 be 3c
       -0.23493607 -0.042445716 0.113311015 0.023250561
0000c0 1f a0 cb 3c dc 87 bb bd b0 d6 20 3e 19 93 44 be
       0.024856625 -0.091567725 0.15706897 -0.19196738
0000d0 85 2d df 3d 5a 4a 74 3e 0a ca b7 bd c4 95 40 be
       0.10897354 0.23856488 -0.08974083 -0.18807131
0000e0 bb 6f e4 3c cf 1a 6f bc c4 e1 35 3e d1 a1 30 be
       0.027885308 -0.014593794 0.17761904 -0.17249228
0000f0 5d 0c 9b bd e2 6d 76 3c 24 76 8c bd fa fa 8c 3c
       -0.075707175 0.015040847 -0.06858471 0.017209519
000100 88 30 17 3d 07 2c 37 bd 04 69 77 bd cc 5a 3d 3e
       0.036911517 -0.044719722 -0.060402885 0.18491668
000110 d5 b1 23 3e 83 4e 96 3c a8 d0 21 3d f9 b5 f2 3d
       0.15985806 0.018347984 0.03950563 0.11851115
000120 34 6d 85 bd 4f 84 86 3d 02 39 60 3c 02 13 70 3e
       -0.065149695 0.065682046 0.013685467 0.23444751
000130 3e 53 c1 3d c7 9c a7 bd 2d 62 18 3d ec 0d f1 bc
       0.09439705 -0.081842 0.037203003 -0.029425584
000140 3d 8a 4e 3c 83 44 f0 3c 69 77 a4 bc 71 54 d6 bd
       0.012606201 0.029329544 -0.02007647 -0.10465325
000150 cf 23 4a be 2a 0d a6 bd be 2e e7 bd 9f 2f 8f bd
       -0.19740222 -0.081079796 -0.11288212 -0.06991505
000160 e4 fd 53 be 63 ce 42 bd 69 4c 26 3e 1a 42 c6 3c
       -0.2070232 -0.047560107 0.16240086 0.024201442
000170 5a ec f7 3c 3e 16 2b be 95 a7 02 3d d4 fb 18 3e
       0.030264068 -0.16707703 0.0318981 0.14939815
000180 3a 16 dd 3d 6d c8 e0 3d f6 4d 09 be 63 3f 6d 3d
       0.10795255 0.10975728 -0.13408646 0.05792178
000190 4e 56 c1 bd 74 da 84 bd 9d 01 f1 3d 41 8c 13 39
       -0.094402894 -0.06486979 0.11767886 0.00014071261
0001a0 48 a5 a0 3d 9c 2c 85 3e 3a 72 4a 3e b8 24 82 ba
       0.07844025 0.26010597 0.19770136 -0.0009929156
0001b0 e8 95 65 be 01 a3 43 bd 2c 07 d7 bd cf 14 a0 3c
       -0.22420466 -0.047762875 -0.10499415 0.019541172
0001c0 18 48 f7 3d 1a 6b 89 be 28 76 30 3d 47 30 99 3b
       0.12074298 -0.26839525 0.043081433 0.0046749446
0001d0 e2 8d 38 3d 9c c8 81 3d f2 87 f4 3b e5 e5 1c 3d
       0.045057185 0.06337091 0.007462495 0.038305182
0001e0 b6 4d 03 3c e3 75 df bc 83 c2 71 3d 54 a1 62 3d
       0.008014133 -0.027277892 0.05902339 0.055329636
0001f0 3c ed 29 be b3 fa 02 be 63 5f 7e 3d 7f b6 3a bd
       -0.16594404 -0.12790947 0.062102687 -0.045584198
000200 22 dc 04 bd e9 c3 d0 bc b7 91 2c bd 0c 72 27 3e
       -0.032436498 -0.025484042 -0.042131152 0.16352099
000210 14 68 a0 3d 09 cb ac bd f1 ef a8 3d 70 d8 30 bd
       0.07832351 -0.084371634 0.0824889 -0.04317516
000220 10 1b 31 3d 99 54 63 3e 31 44 0a 3e 50 ee 16 3e
       0.0432387 0.2220024 0.13502575 0.14739347
000230 4b b5 18 3d 8c 6a bd 3d 5a cf 91 3d 61 15 a6 3d
       0.03728227 0.09248838 0.07119627 0.081095465
000240 9e cf 0f 3d 05 fb ac bd ed e1 b4 bd ed 92 b0 bd
       0.03511011 -0.08446316 -0.088321544 -0.08621774
000250 aa ca db 39 c3 f7 67 be e5 3a 78 3d 21 15 bd bc
       0.00041921932 -0.22653107 0.06060304 -0.023081364
000260 ef a3 f4 3d 8b d9 4f bc da ff 0a be 96 8f d3 3d
       0.1194533 -0.012686144 -0.13574162 0.10330121
000270 2d 09 04 be 4c 7d 5a bd bc ba d7 bc b3 95 8c bd
       -0.12894125 -0.05334215 -0.02633416 -0.0686449
000280 14 48 b6 3d af 9a f1 bd f7 16 ab 3d 3b b9 35 3e
       0.089004666 -0.11797082 0.083539896 0.17746441
000290 5e 3e 65 bd 57 00 01 3d a3 78 62 3c 49 59 c4 bc
       -0.05596768 0.031494465 0.013822707 -0.023968356
0002a0 29 b2 37 bd 8f e4 e2 bd d3 c5 c8 3c 5a e3 bf bd
       -0.04484764 -0.1107875 0.024508392 -0.09369536
0002b0 76 21 db 3d aa 66 71 3d 21 38 93 3d 1a e4 ca 3c
       0.106997415 0.0589358 0.0718844 0.02476697
0002c0 da e7 5d 3d 19 5f 99 bd f7 53 56 3d 3f 72 09 3c
       0.05417619 -0.074888416 0.05232617 0.008389055
0002d0 53 41 c3 bd ae 51 01 bd 71 19 53 be f1 e0 8c bd
       -0.09533944 -0.031572036 -0.20615174 -0.06878842
0002e0 10 61 3c 3d 0f 57 3c 3d 39 cd ab 3d a4 85 00 be
       0.045991004 0.045981463 0.083887525 -0.1255098
0002f0 4c 66 0e 3c 3b 30 13 be 62 45 ca 3a 58 db 3a bd
       0.008691382 -0.14373867 0.0015432055 -0.04561934
000300 29 c1 fa ba 74 e6 f8 bd 16 8a 37 bd 20 1c 21 be
       -0.0019131053 -0.121533304 -0.044809423 -0.15733385
000310 11 41 87 3c c4 bb 69 3d 6f f4 a4 bd 3e e6 42 bd
       0.016510518 0.057063833 -0.080544345 -0.047582857
000320 97 fd 66 bd 74 93 6b 3d 4b 20 0c be 25 fd 53 bd
       -0.056394186 0.05751367 -0.13684194 -0.05175509
000330 12 84 ac 3d c8 03 d8 3b 0b 77 d2 3c 6f ad cb bd
       0.08423628 0.0065922476 0.02569153 -0.09945189
000340 d5 37 09 be 1c 93 aa 3b 01 3d 69 bd ea f9 2f bb
       -0.13400204 0.005205525 -0.056942943 -0.0026851841
000350 3c 20 17 bd 3a a0 48 3d c9 cc 52 bd 8b 4a b5 3c
       -0.036895975 0.04898093 -0.05146483 0.022130271
000360 9f d9 48 bd 9d 11 1c 3d 75 76 99 3d a6 64 3e 3d
       -0.049035665 0.038102735 0.07493297 0.046482705
000370 d7 4d 84 be 65 1d 42 bd 41 96 4b bd 34 f3 9b bd
       -0.25840637 -0.047391314 -0.04970384 -0.07614747
000380 50 66 15 bc e0 aa 9b bd 48 d4 0f 3b e9 86 e1 3d
       -0.0091186315 -0.07600951 0.0021946598 0.1101206
000390 b7 1b 5e b9 79 42 25 bc 79 b9 0c be 74 65 31 3e
       -0.00021181894 -0.010086649 -0.13742627 0.17323858
0003a0 5c 2e 04 3c 0f 7a c1 bc f5 ab b1 bd 82 b2 57 bc
       0.008067694 -0.023617772 -0.08675376 -0.013165118
0003b0 4c f1 95 3c c8 da 3e be 22 45 6a bc 17 40 d9 3c
       0.018303536 -0.18638146 -0.014298709 0.026519818
0003c0 c8 88 98 3d d7 84 9f bd d4 da 7a bc 9c 94 f8 3d
       0.07447964 -0.07789009 -0.015310962 0.1213772
0003d0 36 2b 04 3e 8f 6f 53 3d 71 59 20 be ea 3e 91 bd
       0.12907109 0.051620062 -0.15659119 -0.07092078
0003e0 d7 2d ba 3c 7b e4 d6 bb 47 7a ab 3d 20 aa a5 bd
       0.022726936 -0.0065579987 0.08372932 -0.080890894
0003f0 23 04 3c bd 29 de 79 bd b5 68 6b 3d 71 c0 b1 bd
       -0.045902383 -0.061002884 0.057472903 -0.086792834

bias f4 [15]
000000 3f b3 e0 3b 01 bc d4 bc 99 83 0a 3c 97 67 71 3c
       0.0068573053 -0.025968553 0.008454227 0.01473417
000010 b1 f2 c4 bc fc 87 8d bb eb 71 92 bb 1d a9 ca bc
       -0.024041506 -0.004319189 -0.0044691465 -0.024738843
000020 60 6e d4 b9 09 39 67 3c 90 1a 0c 3c d7 16 52 3c
       -0.00040518027 0.014112719 0.008551255 0.012822828
000030 8b c1 e9 3c 72 c6 4e bc 1c 69 01 3d
       0.028534671 -0.012620555 0.03159438

weight f4 [1, 128]
000000 56 90 29 bc f7 64 02 3c 54 bb b0 3b 97 71 d6 bc
       -0.010349354 0.007958642 0.005393425 -0.02617721
000010 f4 2a 1b 3b 0f 35 ac bb b0 2d 10 3c e3 e7 07 3c
       0.0023676725 -0.0052553485 0.008799955 0.008295032
000020 05 ee 8b 3d d8 31 96 ba 5a f8 ad bb 07 4e c1 bc
       0.06832508 -0.0011458946 -0.005309147 -0.023596777
000030 d2 af 81 3d 8c 7a 8b bd 52 5b 60 bc 8d 6b 00 bc
       0.06332363 -0.06810483 -0.013693647 -0.007838142
000040 bd fd 77 38 31 db ce 3d 0f e7 ad 3a 84 46 c6 3c
       5.91257e-05 0.10100401 0.0013267713 0.024203546
000050 7e 59 72 3c 6a f5 07 3b 2e 54 45 bc 2e 48 93 3d
       0.014791844 0.0020745643 -0.012043996 0.071915016
000060 b3 ba aa bb cc 5f 12 bc 37 cc 58 3d e0 11 b2 bc
       -0.0052102446 -0.008933973 0.05292913 -0.02173704
000070 98 51 2b bc 58 8e d4 bb cb a1 fa 3d 64 c1 05 3c
       -0.010456465 -0.0064866953 0.12237891 0.008163784
000080 87 76 2c 3b 79 a8 92 3d 3a 86 87 3c b2 79 5e bc
       0.0026315765 0.0716104 0.016543496 -0.013578819
000090 66 d6 98 3d 00 e9 d1 3c 58 1d a0 3d 99 53 1c 3d
       0.07462768 0.025623798 0.07818097 0.038165662
0000a0 ff b9 f0 3a 50 70 dc 3a ea a2 93 3a 41 f0 90 3a
       0.0018365978 0.001681814 0.0011263762 0.0011057929
0000b0 e0 22 c6 bc 4e b6 98 3c 19 3c 06 bd 51 55 cb 3c
       -0.024186552 0.018641617 -0.032772157 0.024820955
0000c0 e1 e5 42 3d e9 8c 90 3c 1a 88 ad 3c 46 69 b3 3b
       0.04758251 0.017645316 0.021183062 0.005475196
0000d0 06 ef 15 3d 6a d8 a2 3b d7 44 16 bc 2d b9 24 3c
       0.036604904 0.004969646 -0.009171686 0.010053915
0000e0 82 9d d5 3c c1 b0 8d bc 36 55 9c bc 8d f4 3b bc
       0.026076082 -0.017296197 -0.0190836 -0.01147188
0000f0 8c c9 e7 3c 39 22 df 3b cc f6 4d bc f5 77 47 3b
       0.028294347 0.0068094996 -0.012571048 0.003043649
000100 d7 59 c3 3b e5 f3 25 3c 48 76 3c 3e d6 40 7f bc
       0.0059616375 0.01012895 0.18404496 -0.015579423
000110 fb 62 5d bb 7c 4e 52 3c 89 ca a7 bc 18 94 a1 bc
       -0.003378092 0.012836095 -0.020482318 -0.019723937
000120 a4 2d be 3d 37 87 53 ba e1 6d 65 bb df 99 1a bb
       0.09286049 -0.000806916 -0.003500812 -0.002359025
000130 57 a6 60 3c 95 2b c0 3d 91 01 31 bc 7c 3d a2 bb
       0.0137115335 0.093833126 -0.010803596 -0.004951177
000140 fe b7 76 3c 31 e9 a6 3d f7 f5 74 bd 66 c9 08 bc
       0.015058516 0.081499465 -0.059804883 -0.008348798
000150 2f 71 02 3e 00 7a d7 bc 36 76 e3 bb f9 47 96 bb
       0.12738489 -0.026303291 -0.006941582 -0.0045862165
000160 b5 89 2e 3c 98 41 0b bd 5e 11 81 3a 01 82 e0 3c
       0.010652949 -0.033998102 0.0009847095 0.02740574
000170 a6 37 72 bc 14 55 05 3c a3 43 96 3c 1e 86 15 bd
       -0.014783775 0.00813796 0.018342799 -0.036504857
000180 85 c7 58 bd 6a 5c 8e 3c 6a 9d 68 3c ba 45 07 3c
       -0.05292465 0.01737805 0.014197687 0.00825637
000190 a9 37 3d 3d 1f 25 d4 3d 21 8f 9f bb 91 d2 b4 ba
       0.04619566 0.10358643 -0.004869357 -0.0013795664
0001a0 32 77 96 3b 71 6f 98 bc 60 ce 92 bc 10 61 38 3b
       0.004591846 -0.018607827 -0.017920673 0.0028134026
0001b0 d7 94 ca 3d dd eb 2d 3b dd 03 86 3e d7 47 27 bc
       0.0989167 0.002653829 0.26174822 -0.010209999
0001c0 50 b7 59 bc 78 96 32 3c f4 05 5d bc 4f 2a 99 bb
       -0.013288334 0.010900132 -0.013490189 -0.004674233
0001d0 f4 82 9f 3c 14 52 11 3c 11 86 de ba 40 bf 53 3d
       0.019471623 0.008869667 -0.0016977211 0.051696062
0001e0 18 56 34 3c 0f b2 1c 3c ee 6f 24 bd cb 04 79 3d
       0.0110068545 0.009563937 -0.040145807 0.060795587
0001f0 7f 3b 7d bc fe ec 37 3d 1e ba 4c 3a 60 c6 43 3d
       -0.0154560795 0.044903748 0.0007809716 0.047796607
