results_final/generalization-128fd/70levels-128fd-policy.pt (torch, 843679 bytes, 11 tensors)

weight f4 [32, 3, 8, 8]
0.090130046 0.020739224 -0.029440146 0.002215139 -0.0252665 -0.13293898 -0.009068303 -0.059459805
-0.14769433 -0.100039676 -0.055403758 0.00082746625 0.0581106 0.061897393 0.020674016 0.052831866
0.07987338 -0.012017291 -0.07440344 0.031846736 0.035672028 -0.0140297115 0.17543478 0.22800733
0.018864656 -0.09582043 0.0010819959 -0.043973155 0.08455065 -0.0207657 0.027419174 -0.021974724
0.082639664 -0.17333543 -0.123058684 -0.026295597 0.06612062 0.010485772 -0.13299577 0.06364778
0.030427516 -0.020980887 0.14102428 -0.009903114 0.0109485155 -0.026863692 -0.010746851 -0.09515159
0.008023457 0.13212875 0.10979994 -0.19464147 0.06551061 -0.008193317 -0.04036029 0.04071319
0.037089583 0.024062412 0.0016982986 -0.19426468 0.04132775 -0.077334106 -0.005329185 -0.04922823
-0.0609363 -0.12784109 0.062841676 -0.11260801 -0.03854108 0.060543973 0.0042317077 0.032427747
-0.042693123 -0.050780028 0.072775945 0.10215117 0.059813607 -0.013424076 -0.25822634 -0.026742475
0.055177733 -0.00972284 0.20875524 -0.11850957 0.08496949 0.070031054 -0.115892656 0.00449214
0.08682554 -0.029523011 -0.19394879 -0.1484635 -0.15201057 -0.010329764 -0.13391781 -0.048094954
0.094223246 -0.13925196 -0.13127936 0.33116734 0.016421769 0.06370019 -0.08942679 0.1117108
0.00026937 -0.049435224 -0.13981685 0.11526524 -0.058482494 -0.11535387 0.18738598 -0.23404954
0.1293534 0.16325624 -0.15162039 -0.022733655 -0.05969818 -0.08096912 -0.08083837 -0.12864733
0.070639 -0.110625796 -0.11669126 0.025929365 -0.25026602 -0.12743983 0.024614125 -0.0052769906
0.122443505 -0.062392216 0.31119192 0.2308508 0.08530295 -0.056524493 0.009828171 0.2966673
0.07928679 0.23851961 0.13023877 0.21686682 0.2609695 0.14154424 0.35384294 0.36919147
0.19049773 0.18528372 0.24214521 0.2928983 0.37197736 0.366141 0.09363385 0.3278578
0.19799769 0.05945906 0.10618193 0.32759604 0.12757722 0.009804396 0.07164079 0.146792
0.17314507 0.101838514 0.030988619 0.22571148 0.33519855 0.18171515 -0.12949733 0.22130923
0.028466849 0.10013422 -0.0069713076 0.02124299 0.043155435 0.22170986 -0.05790038 -0.23022859
-0.12939404 0.047350973 -0.022219965 0.12506714 -0.11354226 0.07399722 -0.04127961 0.26851076
-0.017609537 -0.18892823 0.09998239 0.11615774 0.02551139 0.120265715 0.22473723 0.16933025
0.20443465 -0.13468939 0.17882523 0.11207289 0.07390284 -0.18206207 -0.037289556 0.07238743
0.037007194 0.06757959 -0.111301996 0.18256167 0.08408742 -0.105850935 0.1718737 0.3085569
0.09289134 -0.10050651 -0.004429891 0.060113296 0.10976523 -0.029891262 -0.05201516 -0.005513918
0.11938725 -0.12221569 0.052701782 0.013445135 0.01304354 -0.33964443 -0.114746146 -0.21628214
0.03615052 0.16510397 0.01925962 0.21810566 -0.021964757 -0.046500932 -0.0036219175 -0.0987449
0.005205792 -0.07112044 -0.074073836 0.09632487 0.10834725 -0.23002888 -0.13571598 -0.124910966
0.234335 0.020133782 0.017183648 -0.19624121 -0.041066807 0.074396715 -0.21063021 -0.14669111
0.09890947 0.05815798 -0.035967175 -0.041871306 0.04460288 -0.14851764 -0.3843896 -0.09729063
00000000: 1a96 b83d 4ee5 a93c 762c f1bc de2b 113b
00000010: b1fb cebc 2821 08be 3893 14bc 208c 73bd
00000020: 2f3d 17be 9ae1 ccbd 0def 62bd 52ea 583a
00000030: 6105 6e3d 1f88 7d3d 8e5c a93c 3a66 583d
00000040: a894 a33d 2ce4 44bc d560 98bd b971 023d
00000050: d51c 123d e0dc 65bc 2da5 333e c17a 693e
00000060: 0d8a 9a3c 803d c4bd c2d1 8d3a 321d 34bd
00000070: e428 ad3d d41c aabc 2d9e e03c 5604 b4bc
00000080: fc3e a93d d87e 31be 3106 fcbd dd69 d7bc
00000090: 3f6a 873d 84cc 2b3c 0b30 08be c459 823d
000000a0: 2043 f93c 1ce0 abbc ab68 103e ac40 22bc
000000b0: 6761 333c 3f11 dcbc 8f13 30bc d6de c2bd
000000c0: d174 033c c24c 073e cade e03d 1850 47be
000000d0: 6d2a 863d 433d 06bc d550 25bd e0c2 263d
000000e0: 3feb 173d 891e c53c 7299 de3a 52ed 46be
000000f0: 4947 293d 5861 9ebd 72a0 aebb 8aa3 49bd
00000100: 5798 79bd c6e8 02be 23b3 803d 079f e6bd
00000110: 40dd 1dbd f5fc 773d 23aa 8a3b f5d2 043d
00000120: fcde 2ebd b8fe 4fbd 8e0b 953d a234 d13d
00000130: 1dff 743d a8f0 5bbc 3e36 84be 0913 dbbc
00000140: 0c02 623d 8c4c 1fbc efc3 553e 25b5 f2bd
00000150: 7c04 ae3d 716c 8f3d 2159 edbd cd32 933b
00000160: 97d1 b13d 3eda f1bc 839a 46be d106 18be
00000170: a9a8 1bbe 2c3e 29bc c021 09be 37ff 44bd
00000180: 1ef8 c03d 1198 0ebe 196e 06be c48e a93e
00000190: f286 863c 3f75 823d 6525 b7bd a2c8 e43d
000001a0: 3b3a 8d39 977c 4abd 262c 0fbe 2f10 ec3d
000001b0: 578b 6fbd a63e ecbd 1ce2 3f3e afaa 6fbe
000001c0: 3875 043e a52c 273e 6042 1bbe ee3b babc
000001d0: 1486 74bd 23d3 a5bd 968e a5bd 20bc 03be
000001e0: 2eab 903d c78f e2bd d4fb eebd d269 d43c
000001f0: de22 80be 967f 02be 90a3 c93c 9bea acbb
00000200: a9c3 fa3d fb8e 7fbd 8c54 9f3e 2764 6c3e
00000210: 50b3 ae3d 3a86 67bd 5606 213c c7e4 973e
00000220: 1d61 a23d 7c3e 743e 505d 053e 5612 5e3e
00000230: cb9d 853e f9f0 103e e72a b53e aa06 bd3e
00000240: d611 433e 04bb 3d3e eaf4 773e c4f6 953e
00000250: d173 be3e d576 bb3e 1bc3 bf3d fadc a73e
00000260: e8bf 4a3e 588b 733d e975 d93d abba a73e
00000270: 9aa3 023e 9ea2 203c 68b8 923d a450 163e
00000280: f14c 313e b690 d03d d8db fd3c e920 673e
00000290: 259f ab3e 8913 3a3e f39a 04be e39e 623e
000002a0: 4f33 e93c 2c13 cd3d 916f e4bb c705 ae3c
000002b0: c1c3 303d e907 633e f328 6dbd 0bc1 6bbe
000002c0: df7f 04be 18f3 413d a506 b6bc 9a11 003e
000002d0: d888 e8bd db8b 973d cf14 29bd 3e7a 893e
000002e0: e041 90bc 6776 41be 91c3 cc3d 1ce4 ed3d
000002f0: 43fd d03c df4d f63d 8421 663e e964 2d3e
00000300: 5157 513e 04ec 09be f61d 373e 7986 e53d
00000310: 5f5a 973d 7b6e 3abe efbc 18bd dc3f 943d
00000320: db94 173d 2b67 8a3d 4df2 e3bd 72f1 3a3e
00000330: 0636 ac3d 60c8 d8bd a9ff 2f3e 2cfb 9d3e
00000340: d13d be3d 5bd6 cdbd 9e28 91bb 5c39 763d
00000350: 98cc e03d 85de f4bc d90d 55bd 19ae b4bb
00000360: 4d81 f43d 384c fabd d3dd 573d fc48 5c3c
00000370: 92b4 553c e0e5 adbe 0700 ebbd 1179 5dbe
00000380: 9112 143d 0411 293e 5ac6 9d3c 1757 5f3e
00000390: 6fef b3bc c377 3ebd b15d 6dbb c43a cabd
000003a0: 5995 aa3b 98a7 91bd 06b4 97bd f945 c53d
000003b0: 2ae5 dd3d b18c 6bbe 21f9 0abe 52d1 ffbd
000003c0: 84f5 6f3e 9aef a43c b9c4 8c3c 75f3 48be
000003d0: ab35 28bd 4e5d 983d 72af 57be 3236 16be
000003e0: 0c91 ca3d 1037 6e3d 5152 13bd 3f81 2bbd
000003f0: 82b1 363d 0215 18be b7ce c4be 4f40 c7bd

bias f4 [32]
-0.003446854 -0.008098987 0.00028960488 -0.0103643555 -0.014740047 0.0045091324 -0.00075707666 -0.0035356085
-0.009755516 -0.007474304 -0.0027600662 -0.003784699 -0.0012805808 -0.0027903684 0.020401467 -0.000807577
-0.006003302 -0.017680388 -0.004013161 -0.0071034594 -0.013924169 -0.009554827 -0.0058706948 -0.017265376
-0.0020073107 -0.03526531 -0.004559959 0.005315276 0.05015104 -0.036689717 -0.12451932 -0.005338844
00000000: 9de4 61bb 9db1 04bc 1cd6 9739 42cf 29bc
00000010: 3d80 71bc 58c1 933b 8e76 46ba abb5 67bb
00000020: 9ad5 1fbc 02eb f4bb 3ae2 34bb b608 78bb
00000030: 29d9 a7ba 9dde 36bb fa20 a73c 93b3 53ba
00000040: 59b7 c4bb 76d6 90bc d680 83bb 23c4 e8bb
00000050: 3322 64bc d98b 1cbc f55e c0bb 1e70 8dbc
00000060: 168d 03bb 5c72 10bd b56b 95bb c42b ae3b
00000070: 2d6b 4d3d f547 16bd fc03 ffbd 78f1 aebb

weight f4 [64, 32, 4, 4]
0.1670352 0.26098529 0.20026654 0.061985 -0.014724716 0.023779208 -0.07701865 0.13499597
-0.0052544014 0.044691663 0.0036280751 0.012706233 0.16643128 0.0037127521 0.021967186 -0.107079156
-0.05938922 0.09169676 -0.077145636 -0.06390123 -0.16057667 -0.074007854 0.005142285 0.031721007
-0.1439606 0.10621524 -0.14379565 -0.2096593 -0.043943003 0.0123219285 0.050877802 -0.019604633
-0.032049682 0.008541203 -0.022314563 0.027468095 -0.04101865 -0.014432487 -0.08740349 0.1382859
-0.099571116 -0.040552564 -0.11583093 -0.119268544 0.23023874 0.0069218134 0.07210133 -0.05368219
0.055907086 0.042041708 -0.07125309 0.060658764 0.072910376 -0.021416038 -0.11292091 0.080989756
-0.08056237 0.10394522 0.018393429 0.06717423 0.06922075 0.11259909 -0.04883534 -0.07592052
0.0036620935 0.10838041 -0.1341269 -0.01577472 -0.03714852 -0.097795546 -0.13795011 0.0050642984
-0.087140866 -0.06132285 -0.076791964 -0.07023084 0.09604476 0.10153725 -0.07748335 -0.13528185
-0.018890789 0.07467799 0.017921384 0.08594862 -0.015356043 0.009717498 0.026409302 0.00993625
-0.080769084 0.16973925 -0.11549195 -0.022486022 0.004057526 0.085215725 0.05383009 0.120268755
0.12224124 0.085609674 -0.006049765 -0.05443228 -0.019107046 0.05502132 0.07003167 0.02563138
-0.12453557 0.032335438 -0.07998579 -0.087902926 0.0153927365 0.050648987 0.06490239 -0.11323155
-0.10482206 -0.08308258 0.04413376 -0.042526573 0.036625948 0.087843634 -0.0041692196 0.030312127
-0.10149208 0.06897439 -0.0057339156 0.10933024 0.18438905 0.19824073 0.0802982 -0.01191627
0.07281897 -0.09957804 -0.037056897 0.032307893 0.00028228757 -0.05011029 -0.04311908 0.0016336925
-0.032690976 0.016919186 -0.08235648 -0.0647451 0.0031015414 -0.2146802 0.002429309 -0.04802065
0.09359218 0.110883914 0.039733883 0.059263773 0.048577026 0.035713974 -0.042102765 -0.043575864
-0.060387984 0.017163044 -0.1882001 0.0022690159 -0.11922627 0.056997787 0.10954416 -0.08924324
-0.061773255 -0.13203762 0.08602775 0.032816876 -0.069527864 0.06779962 -0.07053288 -0.080561474
0.09283436 -0.05968444 -0.07992994 -0.058767904 -0.051495906 -0.008667739 0.11024733 0.08095857
-0.13292207 -0.0019056143 -0.03859071 0.053716235 -0.06576191 0.11765687 0.054724146 0.11004481
-0.13956061 -0.27381125 -0.030724512 -0.08874134 -0.14322816 0.10791762 0.035564184 -0.13474974
-0.031884197 -0.013698329 -0.09319667 0.12015711 0.14463599 -0.033114515 0.035817485 -0.09706107
-0.049729668 0.028199581 -0.26675004 -0.14672913 0.15717548 0.066942036 0.08112894 -0.13219658
0.091591336 -0.099103 0.098842904 0.07553219 0.056812793 0.010292174 -0.13450418 0.05848024
-0.051294103 -0.056332648 -0.12132674 -0.036828183 0.03103342 0.07398629 0.08797184 0.018648928
0.005036278 0.0058950884 -0.132139 0.06680194 -0.020926965 -0.015035175 -0.09707717 0.08078483
0.15653269 0.005198418 0.041143794 -0.061221708 0.21715067 0.17796946 -0.018494358 0.012945763
0.06283898 0.055358037 0.09917648 0.12422558 -0.21157482 -0.06455386 -0.055193175 -0.09333212
0.032738514 -0.020534808 0.00619356 -0.07762382 0.11192587 -0.018742155 -0.080589235 -0.08373907
00000000: 470b 2b3e dd9f 853e ac12 4d3e fce3 7d3d
00000010: ef3f 71bc 9dcc c23c f4bb 9dbd 623c 0a3e
00000020: 1d2d acbb 9b0e 373d 00c5 6d3b ce2d 503c
00000030: f66c 2a3e a551 733b 87f4 b33c 514c dbbd
00000040: 1c42 73bd 83cb bb3d 88fe 9dbd a6de 82bd
00000050: 366e 24be 6e91 97bd 9d80 a83b e3ed 013d
00000060: 686a 13be 6087 d93d 2b3f 13be edb0 56be
00000070: 94fd 33bd eae1 493c 3e65 503d e599 a0bc
00000080: 8746 03bd 67f0 0b3c 08cd b6bc c504 e13c
00000090: 2c03 28bd 3d76 6cbc 9a00 b3bd d29a 0d3e
000000a0: f1eb cbbd 721a 26bd c438 edbd 1143 f4bd
000000b0: b4c3 6b3e 61d0 e23b dda9 933d dbe1 5bbd
000000c0: d4fe 643d ed33 2c3d 24ed 91bd 5375 783d
000000d0: 0952 953d b070 afbc 1443 e7bd f5dd a53d
000000e0: e2fd a4bd 3be1 d43d d1ad 963c a592 893d
000000f0: 9cc3 8d3d 5a9a e63d 9107 48bd 387c 9bbd
00000100: bcff 6f3b 8cf6 dd3d 9058 09be fc39 81bc
00000110: 0c29 18bd 0849 c8bd cb42 0dbe 6af2 a53b
00000120: e976 b2bd ab2d 7bbd 1b45 9dbd 30d5 8fbd
00000130: 1db3 c43d c3f2 cf3d 97af 9ebd 5387 0abe
00000140: dbc0 9abc c6f0 983d decf 923c d505 b03d
00000150: ea97 7bbc 2436 1f3c 5258 d83c a7cb 223c
00000160: 436a a5bd 20d0 2d3e 0b87 ecbd 9b34 b8bc
00000170: fff4 843b 9585 ae3d f17c 5c3d 774f f63d
00000180: 9e59 fa3d 2054 af3d 1b3d c6bb 62f4 5ebd
00000190: 6186 9cbc 095e 613d c46c 8f3d e6f8 d13c
000001a0: 810c ffbd 2a72 043d 97cf a3bd 7306 b4bd
000001b0: d131 7c3c 5075 4f3d 8beb 843d f1e5 e7bd
000001c0: f3ac d6bd 3327 aabd 9ac5 343d 5830 2ebd
000001d0: 1705 163d 5de7 b33d f39d 88bb 2351 f83c
000001e0: 14db cfbd 7242 8d3d 92e3 bbbb 88e8 df3d
000001f0: 7cd0 3c3e 9eff 4a3e 6273 a43d 753c 43bc
00000200: 1d22 953d 92ef cbbd f9c8 17bd 4855 043d
00000210: ffff 9339 7340 4dbd a29d 30bd a021 d63a
00000220: f9e6 05bd 1b9a 8a3c 84aa a8bd 1499 84bd
00000230: 3b43 4b3b 20d5 5bbe 0b35 1f3b 4db1 44bd
00000240: 42ad bf3d 1b17 e33d ffbf 223d 92be 723d
00000250: b4f8 463d d148 123d f373 2cbd 9b7c 32bd
00000260: 6459 77bd 8399 8c3c 87b7 40be c5b3 143b
00000270: e72c f4bd 8376 693d b058 e03d 29c5 b6bd
00000280: f405 7dbd df34 07be 512f b03d fd6a 063d
00000290: a064 8ebd 87da 8a3d 8b73 90bd 6afd a4bd
000002a0: f11f be3d ac77 74bd 4fb2 a3bd 9db6 70bd
000002b0: 5fed 52bd 2203 0ebc 5ac9 e13d 9bcd a53d
000002c0: b91c 08be cec5 f9ba 4b11 1ebd 8e05 5c3d
000002d0: 2eae 86bd 16f6 f03d 6d26 603d 2c5f e13d
000002e0: fae8 0ebe fd30 8cbe f9b1 fbbc 05be b5bd
000002f0: 67aa 12be ea03 dd3d c0ab 113d d6fb 09be
00000300: 0199 02bd f56e 60bc e5dd bebd ee14 f63d
00000310: 751b 143e 16a3 07bd 5bb5 123d f4c7 c6bd
00000320: 56b1 4bbd cf02 e73c 7693 88be 2940 16be
00000330: 9cf2 203e e818 893d ee26 a63d 8a5e 07be
00000340: 3d94 bb3d 83f6 cabd 266e ca3d 9fb0 9a3d
00000350: 88b4 683d 82a0 283c 77bb 09be fa88 6f3d
00000360: c419 52bd 10bd 66bd 277a f8bd 26d9 16bd
00000370: cc39 fe3c 2086 973d 942a b43d a3c5 983c
00000380: 5d07 a53b 962b c13b 724f 07be 75cf 883d
00000390: 076f abbc 1856 76bc 65d0 c6bd 8472 a53d
000003a0: 1b4a 203e 7e57 aa3b 6586 283d 9dc3 7abd
000003b0: bf5c 5e3e a03d 363e 7b81 97bc 771a 543c
000003c0: b9b1 803d 1cbf 623d 0a1d cb3d fb69 fe3d
000003d0: 12a7 58be d034 84bd 3d12 62bd e924 bfbd
000003e0: d218 063d 9d38 a8bc 59f3 ca3b 3df9 9ebd
000003f0: 6439 e53d 2689 99bc f80b a5bd 647f abbd

bias f4 [64]
0.056325875 -0.01186222 0.015696874 0.020298151 -0.026959162 0.0032903964 0.090146795 0.019081704
-0.016962394 0.07996967 0.058720443 -0.022373695 0.03138527 -0.011650845 0.047303963 -0.02339881
0.016752155 -0.13760534 -0.0769483 0.00059679756 0.0072610076 -0.0080761835 -0.032609582 -0.057852916
-0.07295438 0.03264688 0.087732725 -0.14970975 -0.030732663 0.063727014 0.024048138 -0.017740246
0.001659345 -0.019110614 0.03516436 -0.073803715 0.01597734 0.030714968 -0.10003953 -0.045158226
-0.11851163 -0.008240024 -0.003893518 0.0010680883 -0.015703531 -0.020564785 -0.044335138 0.0006224488
0.00013571861 0.06959508 -0.0054089986 -0.018056687 0.012488397 -0.064425915 0.0679487 -0.03425484
-0.041804403 0.07909686 -0.020792326 0.03165228 0.052469473 -0.0026511264 0.0020204529 -0.012766157
00000000: f6b5 663d c259 42bc bb96 803c 4f48 a63c
00000010: 76d9 dcbc b1a3 573b e29e b83d 3c51 9c3c
00000020: b8f4 8abc 23c7 a33d d984 703d 0a49 b7bc
00000030: d78d 003d 30e3 3ebc cdc1 413d dcae bfbc
00000040: d13b 893c 6ae8 0cbe 1297 9dbd 6872 1c3a
00000050: bfed ed3b f851 04bc a091 05bd 2ef7 6cbd
00000060: 1b69 95bd bcb8 053d 37ad b33d 834d 19be
00000070: 11c3 fbbc 4f83 823d 9a00 c53c fe53 91bc
00000080: 617e d93a dd8d 9cbc 8108 103d 6726 97bd
00000090: e9e2 823c f59d fb3c 86e1 ccbd d5f7 38bd
000000a0: 3ab6 f2bd 2a01 07bc 642a 7fbb 19ff 8b3a
000000b0: b1a4 80bc 7b77 a8bc c398 35bd d52b 233a
000000c0: b04f 0e39 de87 8e3d f83d b1bb 9eeb 93bc
000000d0: 229c 4c3c bcf1 83bd b028 8b3d ce4e 0cbd
000000e0: 183b 2bbd 89fd a13d ab54 aabc d2a5 013d
000000f0: 3bea 563d 85be 2dbb 9369 043b 2529 51bc

weight f4 [64, 64, 3, 3]
-0.089609295 -0.010057466 -0.10371221 0.12874502 0.00014274768 0.09822325 -0.05681386 -0.16057079
-0.12425173 -0.08595897 0.15043198 -0.01745825 0.053578183 -0.03132317 0.024731483 0.048766695
0.0036585892 -0.059265703 0.2792354 0.0258244 -0.059503164 -0.08615827 -0.09874715 -0.052435935
0.09984543 0.0036834115 0.015263736 0.004804831 0.059260182 -0.03523738 -0.09535207 0.056053016
0.04206108 -0.005304452 0.05269931 0.0062584253 -0.028494379 0.099142544 0.07925266 -0.013008826
-0.044791616 -0.04786544 0.06255653 -0.033864986 0.025900967 0.10555833 0.053908274 0.04372873
0.078530245 0.002090147 -0.0013217601 0.021863462 -0.055488814 -0.18020825 -0.062337402 0.007416017
-0.032409515 -0.011247498 -0.11267405 -0.00828373 0.05060795 0.03741915 0.21421555 -0.011484428
-0.08176909 0.03005418 0.030388512 0.11990933 0.12195128 -0.04513949 -0.08947565 -0.051390048
-0.17094271 -0.090423554 -0.06590837 -0.033122383 -0.021699185 -0.19236772 0.031378504 0.08738038
0.063278645 -0.11511712 0.078682385 0.10446469 0.10727658 -0.016941542 -0.020070275 -0.100864336
0.03210494 -0.021407241 0.018838631 0.027724653 -0.090630434 0.0492444 0.05347412 0.15099533
-0.10623573 0.008847519 0.08165114 -0.068629146 0.017711982 0.060231157 -0.05212534 -0.093023375
-0.060409084 -0.07302328 0.00044725055 0.023921946 0.042705566 -0.06816226 0.14749646 -0.09232297
0.12886922 0.021606911 -0.06970557 -0.057650317 -0.007888985 0.09796737 0.10587475 0.07649485
0.15788402 0.121079616 0.15493947 0.027051184 -0.029006997 0.09703169 -0.103462756 -0.05023246
-0.12095669 0.034819063 -0.03354325 -0.13915513 0.06266098 0.027408646 0.08083665 -0.021185437
-0.03582302 -0.07847603 0.075671256 -0.059228327 0.037043687 0.049599558 0.051971752 -0.095210984
-0.01687482 -0.010588542 0.06711505 -0.058063712 -0.034085717 0.13149154 -0.07264602 -0.030442439
0.021725172 0.021041637 -0.09699468 -0.02333628 0.003463622 0.0037380555 -0.12491581 -0.07442178
-0.070015736 -0.06231005 0.048989095 0.11239861 0.012498255 0.044320785 0.1397014 0.07684974
-0.021513654 -0.030074902 -0.06559486 -0.09497819 -0.008352579 0.011954759 0.060617037 -0.15007481
-0.1037724 -0.008099819 -0.036392704 0.1193146 0.020377418 -0.04045911 -0.014299197 0.022417566
-0.022455968 0.006368195 0.03617359 -0.06422898 0.049592152 -0.014174598 -0.08206104 -0.10270001
-0.10034071 -0.105668545 0.053181544 0.086994305 -0.08107825 -0.1138095 -0.09862805 0.0024831917
-0.06303148 -0.071715765 -0.010628285 -0.0836483 0.06438106 -0.047390547 0.09803557 -0.02767313
0.030495197 -0.18223704 -0.09005426 -0.06773013 -0.08012277 -0.14735152 -0.10636834 -0.059232134
-0.0948651 0.06801265 0.002134255 0.007269464 -0.12186562 -0.06264852 -0.10210538 -0.12843464
-0.099309646 -0.033778578 0.0042394944 -0.034286287 -0.28675193 -0.042921662 -0.0741785 0.15131637
0.059319135 0.16511562 0.0016707404 0.10435602 -0.07684736 0.1373568 -0.064578325 -0.11212471
0.021045718 0.09821586 0.122092314 0.011765054 -0.11956202 -0.0927522 -0.050783835 0.051383715
-0.11976551 -0.08530425 -0.08164665 -0.08661809 -0.047016993 -0.10274737 -0.08110177 0.031165728
00000000: 1485 b7bd 12c8 24bc 1167 d4bd bcd5 033e
00000010: 8aae 1539 4529 c93d a6b5 68bd ab6c 24be
00000020: b177 febd 420b b0bd d70a 1a3e 9b04 8fbc
00000030: cc74 5b3d b94c 00bd ae99 ca3c 96bf 473d
00000040: f1c4 6f3b 98c0 72bd f1f7 8e3e b18d d33c
00000050: 97b9 73bd bf73 b0bd f23b cabd 10c7 56bd
00000060: c37b cc3d 6465 713b c014 7a3c d871 9d3b
00000070: ceba 723d 1255 10bd f247 c3bd d997 653d
00000080: 3d48 2c3d f8d0 adbb 3bdb 573d 7a13 cd3b
00000090: 0b6d e9bc 3f0b cb3d 384f a23d f922 55bc
000000a0: 6a77 37bd 8d0e 44bd a31d 803d 03b6 0abd
000000b0: 442e d43c f72e d83d ecce 5c3d e61c 333d
000000c0: 77d4 a03d d9fa 083b e93e adba 011b b33c
000000d0: 3d48 63bd 8388 38be 8155 7fbd 0f02 f33b
000000e0: d7bf 04bd 6d47 38bc a7c1 e6bd 7bb8 07bc
000000f0: 484a 4f3d d344 193d 525b 5b3e 2f29 3cbc
00000100: 8d76 a7bd 2f34 f63c 54f1 f83c 0693 f53d
00000110: 98c1 f93d 30e4 38bd 023f b7bd 5f7e 52bd
00000120: 9b0b 2fbe fc2f b9bd f8fa 86bd 56ab 07bd
00000130: 7dc2 b1bc 0bfc 44be bf86 003d 7cf4 b23d
00000140: 3c98 813d 86c2 ebbd 3b24 a13d 95f1 d53d
00000150: d3b3 db3d fdc8 8abc 6b6a a4bc f691 cebd
00000160: 7880 033d 3d5e afbc 7953 9a3c d01e e33c
00000170: 739c b9bd 7fb4 493d ae07 5b3d 859e 1a3e
00000180: 1e92 d9bd 2ff5 103c b638 a73d 708d 8cbd
00000190: b818 913c f2b4 763d 6181 55bd 0a83 bebd
000001a0: 846f 77bd 3b8d 95bd f47c ea39 f5f7 c33c
000001b0: 08ec 2e3d a898 8bbd 5009 173e d313 bdbd
000001c0: 4bf6 033e fa00 b13c cbc1 8ebd bd22 6cbd
000001d0: cd40 01bc 1ea3 c83d dcd4 d83d 55a9 9c3d
000001e0: 59ac 213e 97f8 f73d 74a8 1e3e 729a dd3c
000001f0: 15a0 edbc 8db8 c63d 48e4 d3bd 8dc0 4dbd
00000200: 24b8 f7bd 6f9e 0e3d a664 09bd af7e 0ebe
00000210: 6654 803d 1988 e03c b08d a53d 158d adbc
00000220: 29bb 12bd 0ab8 a0bd 88f9 9a3d 6799 72bd
00000230: 1fbb 173d e828 4b3d 55e0 543d fafd c2bd
00000240: 103d 8abc 907b 2dbc 9e73 893d 37d4 6dbd
00000250: 779d 0bbd b8a5 063e 70c7 94bd 6c62 f9bc
00000260: fdf8 b13c 835f ac3c 26a5 c6bd ba2b bfbc
00000270: effd 623b 2afa 743b dcd3 ffbd 726a 98bd
00000280: 6964 8fbd d338 7fbd caa8 483d 3e31 e63d
00000290: 7bc5 4c3c b689 353d e20d 0f3e 6663 9d3d
000002a0: 673d b0bc a45f f6bc 9956 86bd ed83 c2bd
000002b0: 41d9 08bc e5dd 433c 9249 783d 36ad 19be
000002c0: a086 d4bd 1ab5 04bc 8410 15bd 375b f43d
000002d0: 8bee a63c 74b8 25bd 2e47 6abc 0ba5 b73c
000002e0: 94f5 b7bc 4bac d03b c22a 143d 7c8a 83bd
000002f0: 2421 4b3d 933c 68bc 9e0f a8bd 6254 d2bd
00000300: 6e7f cdbd c068 d8bd e4d4 593d 122a b23d
00000310: 5b0c a6bd f514 e9bd 81fd c9bd 0bbd 223b
00000320: a616 81bd b7df 92bd 4222 2ebc cd4f abbd
00000330: 38da 833d 971c 42bd dfc6 c83d c3b2 e2bc
00000340: 10d1 f93c 599c 3abe 5e6e b8bd 18b6 8abd
00000350: 6817 a4bd 51e3 16be a5d7 d9bd 659d 72bd
00000360: a248 c2bd 374a 8b3d dbde 0b3b af34 ee3b
00000370: af94 f9bd de4d 80bd a01c d1bd 5f84 03be
00000380: db62 cbbd 685b 0abd 75eb 8a3b c76f 0cbd
00000390: 26d1 92be a0ce 2fbd e6ea 97bd aef2 1a3e
000003a0: 9ff8 723d 1214 293e bffc da3a 9cb8 d53d
000003b0: 2662 9dbd 43a7 0c3e a441 84bd a4a1 e5bd
000003c0: 1268 ac3c 6625 c93d 890b fa3d 37c2 403c
000003d0: efdc f4bd def4 bdbd b602 50bd bb77 523d
000003e0: 9f47 f5bd ffb3 aebd 5c36 a7bd d364 b1bd
000003f0: e494 40bd 376d d2bd af18 a6bd 454f ff3c

bias f4 [64]
0.004607781 0.033907823 0.06786419 0.04570587 -0.027709583 0.044447787 -0.052275978 -0.0035904625
0.05477162 -0.058358688 -0.0988757 0.06603081 0.07829971 0.086904794 0.04557532 -0.06299884
-0.021813354 0.019577025 0.05659575 -0.041240525 0.039866965 -0.012567511 0.058221795 0.1110215
0.021130156 -0.017842337 0.09571453 -0.047586422 -0.00313581 0.08731815 0.117872395 -0.00779249
0.07339826 0.015811935 0.08785068 -0.073603146 0.007278692 0.07112044 -0.0033253701 -0.07518281
0.04832191 -0.03185466 0.00048385255 -0.013083931 0.01621485 -0.0043237368 0.027233316 0.022819057
0.019342205 -0.06891035 0.004097979 0.014717782 0.011508339 0.057406675 -0.0884032 0.063214615
0.08037557 0.038462356 -0.012517701 -0.0050994935 0.051557433 0.012898439 0.07786638 -0.019961324
00000000: defc 963b eee2 0a3d 61fc 8a3d 1436 3b3d
00000010: 35ff e2bc e20e 363d 561f 56bd f74d 6bbb
00000020: 3558 603d 8509 6fbd 587f cabd 293b 873d
00000030: 995b a03d 24fb b13d 30ad 3a3d 8905 81bd
00000040: ebb1 b2bc ff5f a03c f2d0 673d d3eb 28bd
00000050: 8b4b 233d f6e7 4dbc fa79 6e3d 3d5f e33d
00000060: 2619 ad3c 182a 92bc fb05 c43d fbe9 42bd
00000070: 2982 4dbb dcd3 b23d 1567 f13d 2558 ffbb
00000080: d451 963d 0888 813c 0feb b33d 3fbd 96bd
00000090: 1882 ee3b 98a7 913d 74ee 59bb 72f9 99bd
000000a0: 32ed 453d 087a 02bd 97ad fd39 fc5d 56bc
000000b0: 01d5 843c 22ae 8dbb 6718 df3c 08ef ba3c
000000c0: 8b73 9e3c df20 8dbd 5748 863b da22 713c
000000d0: 798d 3c3c 4323 6b3d bd0c b5bd aa76 813d
000000e0: f29b a43d b48a 1d3d 0b17 4dbc a719 a7bb
000000f0: e32d 533d f953 533c 6978 9f3d ee85 a3bc

weight f4 [128, 1024]
0.123961985 0.053761855 0.17502901 0.14262109 -0.082564645 -0.09425583 0.037952237 -0.020497652
-0.15464796 -0.2318648 -0.062185444 -0.06683205 -0.036196623 0.13921648 -0.0009626026 -0.0052032657
-0.21619903 -0.14296947 -0.043833043 0.03092207 -0.045676883 0.09219487 0.097529404 0.09929459
0.033400387 -0.024276568 -0.089363284 -0.048711527 0.13066724 0.044071868 0.04453728 0.008845295
0.030520882 -0.0029537347 0.08743348 0.07389937 -0.07453958 0.069942996 -0.063456886 0.06860459
-0.03255944 -0.0059159403 -0.048165523 0.045900233 0.047146805 -0.13856323 -0.043606997 0.13201922
-0.0927408 -0.04111953 -0.057280757 0.08651162 0.09846075 -0.14496495 -0.09219629 0.0989503
0.040909745 -0.0038105927 -0.04680481 0.056298327 -0.04765716 -0.011648543 0.015734136 0.049373027
-0.12992573 -0.11282451 -0.12779015 -0.10039679 0.19688186 0.0117036505 0.07065789 0.010136104
0.14645512 0.11536617 0.03131936 0.05475769 -0.11313793 -0.11707742 0.015746135 0.09865352
-0.09173909 0.01773533 0.049501892 0.07620611 -0.02392046 0.04797635 -0.035892077 -0.08136996
0.0064961715 -0.07474694 -0.050923396 0.015981035 0.02029536 -0.03340845 -0.05738665 -0.12203866
0.18653698 -0.083215386 -0.052062485 -0.063613825 -0.023222303 -0.080847666 -0.048929755 0.009742462
0.090415366 0.1320134 -0.02177677 -0.017355151 -0.0292035 -0.10297934 -0.043748453 0.008325403
0.08649466 0.088252425 -0.012118448 -0.023544619 0.04136499 -0.039378922 -0.00086897734 0.017945128
-0.0076998253 -0.024578929 -0.124093845 -0.1049506 0.033889685 0.03173812 -0.051559202 -0.059920277
0.015010685 0.025279475 -0.061913706 -0.09350147 -0.10043568 -0.068699405 -0.015077448 0.1337914
0.19167766 -0.010474192 -0.111726135 0.11551538 -0.0512967 -0.13598889 0.002468716 0.09358491
0.11096865 0.04981472 0.0146397315 0.073858544 0.063970156 -0.06884328 0.012934044 0.05101314
-0.053582978 -0.0022078732 0.0077362675 0.11571148 -0.051322147 -0.007541704 -0.080057584 -0.07693914
-0.020649092 0.015817812 0.091772735 0.053185865 0.08613494 0.090630695 0.09520172 0.01958194
0.10477934 -0.0679904 -0.0328525 0.06035109 0.18144536 -0.05115899 0.09835733 0.007608339
0.027128695 0.081560224 0.034069605 0.0022673362 -0.08723423 0.026476879 -0.004797622 0.08729784
-0.005936767 0.122487225 -0.012127737 0.0361321 0.042162377 -0.014973594 0.14041364 -0.08422618
-0.05447838 -0.08572491 -0.085798934 -0.024281818 -0.03718672 0.07445243 0.16518633 0.13929845
-0.04201659 0.016452227 -0.048030734 -0.16468519 -0.17121819 0.076730005 0.12202956 -0.048904046
0.08321814 0.040563673 0.041150067 0.028387437 0.072124064 0.031905897 -0.054775894 0.11956869
-0.035955857 -0.012624437 -0.10996854 0.104915924 -0.004131223 -0.039967917 0.09242194 -0.02290467
-0.06553643 -0.0628859 0.023486113 -0.0105134435 -0.0017004146 0.039336547 -0.17346218 0.01915085
0.055460136 -0.01770418 -0.10799256 -0.013547021 0.08206391 -0.03086824 0.037309196 -0.06871394
0.10051988 0.1167343 0.009998078 0.032696135 -0.020136692 -0.007817628 -0.01975536 0.1259018
0.12634733 0.24656272 0.1421657 -0.03084769 0.044929475 0.009929789 -0.064534165 -0.13135475
00000000: c8df fd3d 6435 5c3d ce3a 333e 430b 123e
00000010: a717 a9bd 3309 c1bd ce73 1b3d b1ea a7bc
00000020: 095c 1ebe f76d 6dbe 2ab6 7ebd 3edf 88bd
00000030: e942 14bd c48e 0e3e 2b57 7cba 2880 aabb
00000040: 4763 5dbe 9766 12be 478a 33bd 4850 fd3c
00000050: af17 3bbd aad0 bc3d 7fbd c73d f65a cb3d
00000060: d8ce 083d a7df c6bc 1904 b7bd bd85 47bd
00000070: a2cd 053e b484 343d b96c 363d dbeb 103c
00000080: ee06 fa3c 7293 41bb 5310 b33d 8e58 973d
00000090: 35a8 98bd 463e 8f3d aff5 81bd 9080 8c3d
000000a0: 0c5d 05bd 81da c1bb 3649 45bd e201 3c3d
000000b0: 021d 413d 85e3 0dbe 409d 32bd 0c30 073e
000000c0: e3ee bdbd f46c 28bd 3a9f 6abd 012d b13d
000000d0: caa5 c93d b171 14be 69d1 bcbd 74a6 ca3d
000000e0: fa90 273d 23bb 79bb 67b6 3fbd 1399 663d
000000f0: 2734 43bd 88d9 3ebc e0e4 803c 5f3b 4a3d
00000100: 400b 05be 8910 e7bd 6cdb 02be d59c cdbd
00000110: 669b 493e abc0 3f3c 15b5 903d e711 263c
00000120: 55f8 153e 1945 ec3d bb48 003d 9949 603d
00000130: dcb4 e7bd 49c6 efbd 0afe 803c db0a ca3d
00000140: b4e1 bbbd af49 913c 7fc2 4a3d f311 9c3d
00000150: d7f4 c3bc d982 443d 9203 13bd 4ba5 a6bd
00000160: d6dd d43b ec14 99bd 0d95 50bd a9ea 823c
00000170: 7442 a63c 4dd7 08bd 440e 6bbd 68ef f9bd
00000180: 8d03 3f3e d46c aabd 793f 55bd f747 82bd
00000190: b33c bebc 7693 a5bd 916a 48bd d99e 1f3c
000001a0: b12b b93d 852e 073e 3265 b2bc 642c 8ebc
000001b0: 2e3c efbc d5e6 d2bd 9431 33bd 4567 083c
000001c0: 1d24 b13d b0bd b43d 748c 46bc a5e0 c0bc
000001d0: 566e 293d cb4b 21bd 15cc 63ba a901 933c
000001e0: d14e fcbb c059 c9bc ea24 febd 57f0 d6bd
000001f0: e9cf 0a3d d5ff 013d be2f 53bd f76e 75bd
00000200: 60ef 753c e716 cf3c 3a99 7dbd b37d bfbd
00000210: 39b1 cdbd 46b2 8cbd 6707 77bc 9d00 093e
00000220: 2647 443e f29b 2bbc acd0 e4bd 5493 ec3d
00000230: 7d1c 52bd ac40 0bbe 2eca 213b 72a9 bf3d
00000240: 8843 e33d 850a 4c3d 7cdb 6f3c 2643 973d
00000250: c902 833d b5fd 8cbd 50e9 533c 27f3 503d
00000260: d379 5bbd f7b1 10bb 8480 fd3b 24fa ec3d
00000270: 2c37 52bd 6620 f7bb 3bf5 a3bd 4592 9dbd
00000280: 4928 a9bc 5b94 813c 58f3 bb3d 6cd9 593d
00000290: 8467 b03d 969c b93d 1ff9 c23d 4e6a a03c
000002a0: 8d96 d63d 8d3e 8bbd 5890 06bd b432 773d
000002b0: d0cc 393e 178c 51bd 916f c93d 604f f93b
000002c0: ff3c de3c 0c09 a73d 928c 0b3d 9797 143b
000002d0: dca7 b2bd 0ae6 d83c 5f35 9dbb 36c9 b23d
000002e0: 3689 c2bb 95da fa3d 6ab3 46bc 41ff 133d
000002f0: 75b2 2c3d ce53 75bc 98c8 0f3e c77e acbd
00000300: b924 5fbd 8b90 afbd 5ab7 afbd aaea c6bc
00000310: 1a51 18bd 847a 983d 9b26 293e 41a4 0e3e
00000320: 9619 2cbd d2c6 863c e0bb 44bd 3ca3 28be
00000330: d253 2fbe 9f24 9d3d a2ea f93d 9c4f 48bd
00000340: 466e aa3d 1826 263d f98c 283d c58c e83c
00000350: c8b5 933d c2af 023d b05c 60bd 6ee0 f43d
00000360: 7346 13bd bad6 4ebc 3037 e1bd 29de d63d
00000370: 365f 87bb 66b5 23bd b747 bd3d 93a2 bbbc
00000380: f737 86bd 53ca 80bd f365 c03c 9440 2cbc
00000390: 72e0 deba 5c1f 213d 12a0 31be 3ee2 9c3c
000003a0: 2b2a 633d 5b08 91bc 342b ddbd 53f4 5dbc
000003b0: 2011 a83d 64df fcbc 87d1 183d e5b9 8cbd
000003c0: 5edd cd3d 6512 ef3d fbce 233c 62ec 053d
000003d0: b4f5 a4bc 8215 00bc fed5 a1bc 67ec 003e
000003e0: 3261 013e f07a 7c3e e393 113e 4bb4 fcbc
000003f0: f807 383d 8eb0 223c 7d2a 84bd dc81 06be

bias f4 [128]
-0.00017380493 -0.080055736 -0.0527031 8.172324e-05 0.0036451756 0.028707799 0.06281881 -0.004550698
0.06078288 -0.0032838238 -0.036394972 -0.09053223 0.090448506 -0.03370879 0.029978234 -0.012283182
0.045233622 0.16709761 -0.03060575 0.056665406 0.031562302 -0.052519403 -0.01716906 0.07579866
0.0007760058 -0.022843074 0.12603913 -0.020623427 -0.10333151 0.049958203 0.040145803 0.062394556
0.00091441657 0.10689473 -0.00049286074 -0.123609304 0.11691946 0.069110215 0.16656989 0.08631258
0.038928807 -0.030656835 -0.06345302 0.119090535 -0.057119686 0.18152682 -0.023648802 0.120897286
0.06773275 0.027161496 0.044034217 -0.025655683 0.10079401 0.0062612467 -0.001179474 -0.02125764
0.11790203 -0.03705283 -0.04249096 -0.08611034 0.1440784 0.02917741 -0.09335228 0.06966372
0.051963724 0.10272785 0.09606012 -0.030674787 -0.015094356 0.015180013 -0.019187586 -0.03288839
0.24205346 -0.054459807 -0.07178722 -0.045171916 0.03859693 0.07790775 0.0891831 0.15312167
0.018948613 0.08744543 -0.08940711 0.06928452 0.11142361 -0.078032345 0.035798125 0.09704903
0.13823317 -0.07425996 -0.062213596 0.11356503 -0.03911664 0.1140519 0.13296142 -0.039035693
-0.011457004 0.0443778 0.026708547 0.036502425 0.102842994 0.22188713 -0.042471644 0.1017554
-0.03303709 -0.06213785 -0.07039491 0.04094212 0.14275922 0.0064728432 0.08256086 0.0179742
-0.060358107 0.13944942 -0.07223205 -0.018768407 0.022738798 0.06068213 0.06452356 0.097347304
0.05094673 -0.01136689 -0.0523852 0.09073318 -0.011750627 0.08907022 0.052701466 0.09941828
00000000: 683f 36b9 43f4 a3bd 35df 57bd d562 ab38
00000010: e6e3 6e3b 9e2c eb3c 26a7 803d 061e 95bb
00000020: 78f7 783d 6c35 57bb e512 15bd f668 b9bd
00000030: 113d b93d 3a12 0abd ea94 f53c 663f 49bc
00000040: e446 393d a31b 2b3e e9b8 fabc fc19 683d
00000050: 7947 013d 961e 57bd 21a6 8cbc 543c 9b3d
00000060: de6c 4b3a 6621 bbbc 6710 013e 76f2 a8bc
00000070: 799f d3bd f9a0 4c3d ed6f 243d 6f91 7f3d
00000080: 75b5 6f3a a0eb da3d 5333 01ba e026 fdbd
00000090: 7873 ef3d a889 8d3d 4c91 2a3e a6c4 b03d
000000a0: d073 1f3d 0b24 fbbc a8f3 81bd bde5 f33d
000000b0: 55f6 69bd 2be2 393e 22bb c1bc ff98 f73d
000000c0: 78b7 8a3d c981 de3c 395d 343d de2b d2bc
000000d0: 176d ce3d 252b cd3b 9598 9aba 8124 aebc
000000e0: 9f76 f13d b5c4 17bd 000b 2ebd 9e5a b0bd
000000f0: 4a89 133e 7705 ef3c 7b2f bfbd daab 8e3d
00000100: ead7 543d fb62 d23d 2bbb c43d b149 fbbc
00000110: 514e 77bc 97b5 783c 492f 9dbc fab5 06bd
00000120: dddc 773e 3f11 5fbd 2e05 93bd 3006 39bd
00000130: d117 1e3d 198e 9f3d a1a5 b63d edcb 1c3e
00000140: 1f3a 9b3c 9716 b33d 131b b7bd 0be5 8d3d
00000150: 1032 e43d 6ccf 9fbd 0ea1 123d a4c1 c63d
00000160: ff8c 0d3e 9b15 98bd afd3 7ebd c894 e83d
00000170: c538 20bd 0b94 e93d 0a27 083e e4e3 1fbd
00000180: 28b6 3bbc 7fc5 353d e2cb da3c 9183 153d
00000190: 599f d23d 6136 633e bff6 2dbd 2365 d03d
000001a0: e651 07bd 4284 7ebd 352b 90bd edb2 273d
000001b0: 792f 123e 251a d43b ab15 a93d a13e 933c
000001c0: 103a 77bd d4cb 0e3e 66ee 93bd 34c0 99bc
000001d0: b746 ba3c d38d 783d ee24 843d 065e c73d
000001e0: 85ad 503d 313c 3abc dd91 56bd 51d2 b93d
000001f0: b485 40bc 736a b63d 7edd 573d d09b cb3d

weight f4 [15, 128]
0.020646673 -0.25862798 0.2095151 0.20889628 -0.1747383 -0.01989514 -0.10646455 0.036825486
-0.018331043 0.17421693 -0.090995386 0.21083814 -0.22873916 -0.027635539 0.14880478 -0.057292365
-0.07654419 -0.0062077227 -0.20694515 0.036165774 0.1351285 -0.113597095 -0.011530099 0.02149773
-0.32056913 0.013109825 -0.16274452 0.09765897 -0.11267864 0.10773761 0.07650715 -0.056562297
0.09545545 -0.022635257 0.13733202 0.12796596 -0.07817729 0.023060618 -0.046536777 -0.071998924
-0.013373808 -0.21679798 0.07402971 -0.0010678233 0.16174054 0.021980334 0.12965405 -0.055203732
-0.07979398 -0.013509937 0.047107648 -0.03588436 0.12186544 0.04777421 0.24911931 0.010434996
-0.06051392 0.15048319 0.19516023 0.19021428 0.037968837 -0.18761486 -0.028480142 0.21004362
0.0697806 -0.08961625 -0.14443943 -0.15562212 -0.071409814 -0.13088766 -0.19296603 0.089116834
-0.03878829 -0.06528921 0.09322962 -0.22764498 0.036129672 0.056406472 0.031695206 0.04876672
0.04182388 0.0899637 0.22764084 0.099839464 0.0022824055 -0.18940753 0.01946994 -0.0632613
-0.06755459 0.21941082 0.0745068 -0.140979 -0.047238987 -0.05604276 0.0070381113 -0.18189453
-0.005795952 -0.023308078 0.15720417 0.0680145 0.080205955 0.022373078 -0.07839793 -0.037059914
0.00010008492 0.0015274197 -0.18811862 0.14568071 -0.0811406 0.119978994 -0.2169825 0.028379435
-0.0702601 0.048542626 -0.024835574 0.14126863 0.10550573 0.11395778 -0.21161258 0.019531006
0.10230233 0.09304135 -0.13725111 -0.0532335 -0.21419421 -0.0936496 0.19199522 -0.1316254
-0.011031478 0.11581128 0.10167999 0.02451056 0.039046634 0.12787257 -0.056750543 -0.20796755
0.14923707 -0.042074803 -0.03877989 0.16102469 -0.045977127 -0.23816723 0.006355787 0.09340816
-0.13125458 0.0101951305 0.06976226 0.036548376 -0.08746946 -0.10967058 -0.2860892 0.028025951
-0.021299168 0.012917189 -0.030685503 -0.036430337 0.008524662 -0.036138278 -0.036721837 0.068265036
-0.05407193 -0.09726106 -0.14014271 0.10682669 -0.029231798 -0.19522403 -0.032677006 -0.07239118
-0.15623976 0.062062096 0.03985307 -0.12590678 0.026962975 0.022139614 0.01865425 0.033874787
-0.010317121 0.012995526 0.016195215 -0.15034328 -0.068158075 0.08626822 0.07056791 0.03400314
0.059444323 0.03903859 0.082319684 0.14586505 0.014275468 0.06184777 0.07988802 -0.14758137
0.0600234 0.052226495 0.010238589 0.06911728 -0.028454654 0.14290583 -0.10860692 0.14112288
-0.025438474 0.024101937 0.10592092 0.17051329 0.07883989 0.060056858 -0.034219872 -0.005674157
0.05468071 0.017466715 -0.10783163 0.015214119 -0.09135966 -0.00849057 -0.08485315 0.08262117
-0.123752885 0.15250076 0.16621897 -0.046426844 -0.048361994 -0.03329471 0.008246599 0.00359497
-0.16359474 0.12754181 -0.07971427 -0.10715044 -0.08477007 -0.050196014 -0.17591034 0.02806938
-0.0106891645 0.07902071 -0.0635087 -0.05889327 -0.0048705675 -0.05797436 -0.15063746 0.059878893
-0.047492094 0.10910646 -0.10593875 0.08371964 0.02140582 -0.008897471 0.1547531 0.02496164
-0.05657468 0.04977176 -0.055161666 0.0415893 -0.013773171 0.06014545 0.022158979 -0.018694839
00000000: 3623 a93c e36a 84be 208b 563e e8e8 553e
00000010: 99ee 32be 22fb a2bc 160a dabd 52d6 163d
00000020: fc2a 96bc ec65 323e ca5b babd f4e5 573e
00000030: 993a 6abe ed63 e2bc 4860 183e 66ab 6abd
00000040: 33c3 9cbd 276a cbbb 6ee9 53be 9022 143d
00000050: 205f 0a3e 98a5 e8bd bee8 3cbc 021c b03c
00000060: a321 a4be 97ca 563c 80a6 26be 6d01 c83d
00000070: 0fc4 e6bd 89a5 dc3d c8af 9c3d dead 67bd
00000080: 267e c33d 936d b9bc c4a0 0c3e 8209 033e
00000090: 6a1b a0bd 9fe9 bc3c 599d 3ebd 2c74 93bd
000000a0: d11d 5bbc 4a00 5ebe e39c 973d 34f6 8bba
000000b0: 509f 253e 1a10 b43c 08c4 043e 4f1d 62bd
000000c0: 076b a3bd c858 5dbc f3f3 403d 7bfb 12bd
000000d0: 9694 f93d e4ae 433d 2219 7f3e 8cf7 2a3c
000000e0: 72dd 77bd 4418 1a3e 15d8 473e 88c7 423e
000000f0: 3685 1b3d 1c1e 40be 304f e9bc ad15 573e
00000100: 22e9 8e3d b988 b7bd eee7 13be 685b 1fbe
00000110: 4f3f 92bd 6a07 06be e398 45be e382 b63d
00000120: 78e0 1ebd 59b6 85bd 2cef be3d c41b 69be
00000130: b5fc 133d 790a 673d d5d2 013d 9dbf 473d
00000140: 844f 2b3d e33e b83d ae1a 693e a278 cc3d
00000150: 6994 153b 0cf4 41be 6c7f 9f3c 248f 81bd
00000160: 105a 8abd 3bad 603e 0597 983d cd5c 10be
00000170: ab7d 41bd 188d 65bd f59f e63b 8f42 3abe
00000180: f8eb bdbb 95f0 bebc 21fa 203e 304b 8b3d
00000190: 0543 a43d bf47 b73c 188f a0bd 23cc 17bd
000001a0: afe4 d138 b333 c83a 2ba2 40be 532d 153e
000001b0: 0b2d a6bd 8cb7 f53d a930 5ebe fd7b e83c
000001c0: 87e4 8fbd a2d4 463d f973 cbbc b9a8 103e
000001d0: 6313 d83d b262 e93d f8b0 58be 7dff 9f3c
000001e0: e283 d13d 778c be3d 8e8b 0cbe 5f0b 5abd
000001f0: ba55 5bbe 5dcb bfbd 659a 443e cfc8 06be
00000200: 5fbd 34bc 772e ed3d 993d d03d 5fca c83c
00000210: 5def 1f3d 07f1 023e 4273 68bd 72f5 54be
00000220: 9ad1 183e a156 2cbd a9d7 1ebd a8e3 243e
00000230: 8352 3cbd 1ce2 73be 3544 d03b c74c bf3d
00000240: 9a67 06be 7a09 273c 84df 8e3d c0b3 153d
00000250: 3023 b3bd f89a e0bd 497a 92be ae96 e53c
00000260: 987b aebc 9ea2 533c 2a60 fbbc fa37 15bd
00000270: 06ab 0b3c bb05 14bd a369 16bd 8ace 8b3d
00000280: 877a 5dbd ce30 c7bd 9281 0fbe f4c7 da3d
00000290: 8677 efbc cfe8 47be 53d8 05bd d441 94bd
000002a0: 51fd 1fbe d334 7e3d f93c 233d b5ed 00be
000002b0: 75e1 dc3c 235e b53c ccd0 983c 4ac0 0a3d
000002c0: 2409 29bc 30eb 543c d4ab 843c 97f3 19be
000002d0: 7696 8bbd 64ad b03d e985 903d e046 0b3d
000002e0: e47b 733d eee6 1f3d 3997 a83d a65d 153e
000002f0: a7e3 693c 1654 7d3d 559c a33d 921f 17be
00000300: 19db 753d 73eb 553d c1bf 273c 5c8d 8d3d
00000310: bc19 e9bc e855 123e 4e6d debd 8482 103e
00000320: 5964 d0bc 6d71 c53c 11ed d83d 099b 2e3e
00000330: cf76 a13d 2efe 753d 232a 0cbd 47ee b9bb
00000340: e1f8 5f3d 5b16 8f3c d4d6 dcbd a444 793c
00000350: c61a bbbd 081c 0bbc 7dc7 adbd 4a35 a93d
00000360: 2772 fdbd 2929 1c3e 4e35 2a3e 132a 3ebd
00000370: 3a17 46bd 0960 08bd be1c 073c 9799 6b3b
00000380: 6185 27be 529a 023e 3c41 a3bd b171 dbbd
00000390: ee9b adbd 569a 4dbd d721 34be c2f1 e53c
000003a0: 9b21 2fbc 9cd5 a13d d910 82bd 123a 71bd
000003b0: 4899 9fbb 8676 6dbd b540 1abe 9243 753d
000003c0: 1287 42bd 3573 df3d 6af6 d8bd 3475 ab3d
000003d0: 425b af3c b3c6 11bc 9977 1e3e 5a7c cc3c
000003e0: daba 67bd 79dd 4b3d 33f1 61bd 8b59 2a3d
000003f0: dea8 61bc 135b 763d bf86 b53c eb25 99bc

bias f4 [15]
0.0056393347 -0.040910874 0.016633052 0.0027116763 0.026775736 0.012552012 -0.020993633 -0.07893109
0.006866204 0.011711922 -0.0029932887 0.0077490564 0.045187853 -0.011435056 0.02488695
00000000: 2bca b83b 2992 27bd 0a42 883c 61b6 313b
00000010: ca58 db3c f4a6 4d3c d7fa abbc a0a6 a1bd
00000020: e5fd e03b 5ce3 3f3c 0d2b 44bb cceb fd3b
00000030: e616 393d 1a5a 3bbc b8df cb3c

weight f4 [1, 128]
-0.0022002992 -0.024706159 -0.011062404 -0.011012941 0.0016540993 0.01309217 0.015097963 0.0088743735
0.047660038 0.0011019781 0.000683015 -0.030025136 0.08713556 -0.028222896 -0.0008661041 -0.008391986
-0.005612378 0.05186559 0.00010525674 -0.008160722 -0.0012355935 -0.013806251 -0.007968723 0.021872452
0.005637305 0.0045238934 0.061908647 -0.019187579 -0.033657335 0.018358115 0.15273027 0.012312931
0.01447647 0.095894955 0.00534011 -0.025541896 0.031544287 0.0039864206 0.06624091 0.007912563
-0.007962435 0.0035001978 -0.00611434 0.012392009 -0.0015059627 0.062415592 -0.02256763 0.018070774
0.010828064 -0.0070437924 0.018969167 0.0054866937 0.021946559 0.01657598 -0.007404833 -0.02815098
0.017661419 0.016227942 0.007801149 -0.03811951 0.03380227 0.007946251 -0.025784424 0.02177844
0.00594156 0.044846795 0.03033932 -0.012921295 0.010233283 0.015205491 0.0012337088 0.009663634
0.086507864 -0.0073990272 -0.054715905 -0.045128267 0.0080242455 0.13854614 -0.0048313327 0.040963165
0.0041485457 0.07338478 -0.070713244 0.018118558 0.034024566 -0.02093425 0.0053484053 0.0076359576
0.026404133 -0.03195791 -0.01511215 0.01465765 -0.008227937 0.013060761 0.07383733 -0.039919086
0.002287872 0.0076663247 0.036971964 -0.0071789557 0.009324197 0.06838449 0.0046701166 0.018358164
-0.012771825 -0.009336113 0.007439273 -0.0016379097 0.062134083 0.0016883938 0.004986299 -0.015192374
-0.026666762 0.01732911 -0.01430851 0.009552819 -0.024351189 0.015278579 0.05051148 0.049941547
-0.004153438 0.0046084975 -0.11147975 0.08089473 0.0041370196 0.055368293 -0.01979808 0.088246435
00000000: e532 10bb 9264 cabc 163f 35bc 9f6f 34bc
00000010: 5dce d83a 8a80 563c 725d 773c d265 113c
00000020: 2c37 433d 4070 903a 5c0c 333a 46f7 f5bc
00000030: 2174 b23d b433 e7bc 430b 63ba 8a7e 09bc
00000040: 0ae8 b7bb 0371 543d 48bd dc38 8db4 05bc
00000050: a3f3 a1ba 9d33 62bc 3f8f 02bc db2d b33c
00000060: 24b9 b83b 2b3d 943b ec93 7d3d 452f 9dbc
00000070: 46dc 09bd c263 963c 5365 1c3e 2dbc 493c
00000080: b72e 6d3c 9364 c43d 17fc ae3b 3d3d d1bc
00000090: 9534 013d 85a0 823b 50a9 873d b2a3 013c
000000a0: df74 02bc 9363 653b cd5a c8bb da07 4b3c
000000b0: b963 c5ba 7ea7 7f3d c0df b8bc 2909 943c
000000c0: 3168 313c 9dcf e6bb 3a65 9b3c b9c9 b33b
000000d0: 45c9 b33c 59ca 873c 3ea4 f2bb e29c e6bc
000000e0: aeae 903c 76f0 843c c8a0 ff3b 3423 1cbd
000000f0: 4074 0a3d fe30 023c db39 d3bc b368 b23c
00000100: 6bb1 c23b 46b1 373d 2a8a f83c d7b3 53bc
00000110: 80a9 273c 7420 793c 66b4 a13a 3854 1e3c
00000120: 092b b13d 8a73 f2bb c91d 60bd 6bd8 38bd
00000130: 2078 033c 0adf 0d3e 2850 9ebb fec8 273d
00000140: 86f0 873b c24a 963d 1bd2 90bd 5f6d 943c
00000150: 585d 0b3d 4e7e abbc ad41 af3b 0e37 fa3b
00000160: 7b4d d83c 4ce6 02bd f498 77bc a426 703c
00000170: 78ce 06bc cdfc 553c 0738 973d 3282 23bd
00000180: 1ff0 153b cb35 fb3b ea6f 173d 723d ebbb
00000190: 84c4 183c 2b0d 8c3d c707 993b dc63 963c
000001a0: eb40 51bc 7ff6 18bc 25c5 f33b 21af d6ba
000001b0: 4f80 7e3d 184d dd3a 1c64 a33b 6fe9 78bc
000001c0: 4174 dabc c7f5 8d3c 3e6e 6abc 6d83 1c3c
000001d0: 257c c7bc 0153 7a3c 20e5 4e3d 828f 4c3d
000001e0: 9019 88bb e102 973b 7f4f e4bd 23ac a53d
000001f0: d68f 873b ddc9 623d 952f a2bc 8cba b43d
