results/generalization-128fd/100levels-128fd-policy.pt (torch, 843679 bytes, 11 tensors)

weight f4 [32, 3, 8, 8]
000000 6e fb 0e 3d f4 c7 a2 bd ce 69 b9 bd 6f 23 e2 bc
       0.03490775 -0.07948294 -0.09053384 -0.027604787
000010 66 72 ee bd 4a cd 42 bd dd e0 57 3d 7c 87 d3 3b
       -0.116429135 -0.04755906 0.05270468 0.00645536
000020 ef 4a 58 be 9a 24 74 bd 5b 23 32 3c 2d 75 a5 bd
       -0.21122335 -0.05960522 0.010872687 -0.0807899
000030 10 80 ee 3d 5b 47 45 3e 54 ba 00 3d cc f1 3a bd
       0.1164552 0.19265501 0.031427696 -0.04564075
000040 0b 9f e0 3d 2a b9 9d 3d d2 56 16 bc ac ce 8e bc
       0.10967835 0.07701333 -0.009175973 -0.017432533
000050 28 8b df 3d c5 99 6d 3d 58 e3 07 3e ae d6 04 3e
       0.10915214 0.058007974 0.13270319 0.12972519
000060 a8 09 07 bb 4d 31 a7 3c ad db 0c bb d8 d7 b6 bd
       -0.002060512 0.02040925 -0.0021493242 -0.08927888
000070 a3 f2 45 3d 93 e8 85 bc b6 cc 65 3c 55 b9 05 bd
       0.0483271 -0.016346252 0.014025858 -0.03264745
000080 44 93 a8 3d 6b 84 ec bd b7 a4 e0 bc 2b ad 5d bb
       0.08231214 -0.11548694 -0.027422292 -0.003382514
000090 89 a5 49 3c bf 96 99 3c e1 e8 f0 bd 4f c6 11 bd
       0.012307533 0.01874864 -0.11763168 -0.035589512
0000a0 29 66 d5 ba bb 46 7a bd 13 3b 8a 3d ed d5 e2 bd
       -0.0016281056 -0.06110261 0.06749549 -0.11075959
0000b0 6f 54 04 be b5 62 c7 bd ab 94 ae bd c7 1c c7 bd
       -0.12922834 -0.09735624 -0.0852445 -0.09722286
0000c0 9e 95 c4 bb 37 d0 6c bc 39 b4 55 3d c0 5f 3a be
       -0.005999281 -0.014453939 0.052173827 -0.18200588
0000d0 35 ca 02 3d 81 90 b2 bd e8 11 c6 3d ca 31 51 bb
       0.03193112 -0.08718968 0.09671384 -0.0031920546
0000e0 36 9c d1 3d 43 4e 77 3d 5b a5 26 be 55 c6 95 be
       0.10234873 0.06037737 -0.16274016 -0.29252878
0000f0 cb 63 94 3d 92 79 38 bd 2f 86 a0 3d 22 65 c4 3d
       0.072455965 -0.045037813 0.078380935 0.09589602
000100 31 30 5d bd e5 69 44 be 14 0d bb 3d 3d e0 06 be
       -0.054001037 -0.1918102 0.09133354 -0.13171478
000110 fc 77 47 be 82 ce e8 3d 78 7d 96 3d 7b 0e af 3d
       -0.19479364 0.11367513 0.0734815 0.08547684
000120 b9 6e 0c bd 0b 8d 89 3d 7f 30 43 3e 7a 41 70 3d
       -0.03428528 0.06716355 0.19061469 0.058656193
000130 09 83 9a 3d ca 39 09 3e ec 00 66 be 4a 96 8b bd
       0.07544524 0.13400951 -0.22461289 -0.06815775
000140 fb a1 aa 3d f9 87 f8 3d 61 0f 8c 3e 68 d6 10 be
       0.083316766 0.1213531 0.27355483 -0.1414429
000150 c8 41 1f 3e c0 60 f9 3d 1e ea c1 bd e3 69 85 3b
       0.15552437 0.12176657 -0.094684824 0.0040714606
000160 7a 3b af 3d 61 cd 1d 3e da 91 15 be bd 9f ee bd
       0.08556266 0.15410377 -0.14606419 -0.116515614
000170 85 d6 dc bd 91 54 5c bc 35 49 24 be 89 c9 5b bd
       -0.10783104 -0.013447897 -0.16043551 -0.053658996
000180 41 a1 44 3e 80 13 b2 bc b1 b7 ab 3c 8b 3a c1 3e
       0.19202138 -0.021737814 0.020961614 0.37739977
000190 2d 5b 99 bd 42 44 76 3d b3 a7 ce bd 57 85 e4 ba
       -0.074880935 0.06012369 -0.1009058 -0.0017434758
0001a0 6c 65 15 3c 15 f2 18 3d e6 af c7 bd de 37 0f 3e
       0.009118419 0.037340242 -0.09750347 0.13986155
0001b0 df 42 c9 bc 57 a1 48 be bb f9 ce 3d d5 77 29 be
       -0.02456802 -0.19592796 0.10106226 -0.16549619
0001c0 d9 2b 01 3e 5c bb fb 3d 97 5f 72 be 45 02 85 3d
       0.12614383 0.12291595 -0.23669277 0.064945735
0001d0 5c 0c bf bd ae fc 2e be e9 f2 89 3d 2e 7b 29 be
       -0.09328529 -0.17088577 0.067357846 -0.16550896
0001e0 db d4 37 3e 78 53 30 3d 17 3c 84 be f1 9f c5 bd
       0.17952292 0.043048352 -0.25827095 -0.09649647
0001f0 9e 25 4d be de ac aa bd 56 f7 5a 3d f2 b3 9a 3d
       -0.20033881 -0.08333753 0.053458534 0.07553853
000200 0b c3 c4 3d ba f3 1b be ef ee b5 3e ae b2 4f 3e
       0.09607514 -0.15229693 0.35533854 0.20283005
000210 58 80 45 bd b7 a3 d5 bd 88 58 7c 3c 58 79 37 3e
       -0.0482181 -0.10431617 0.015401967 0.17917383
000220 54 47 ca 3d a7 5d c1 3e 86 45 04 3e 42 05 19 3e
       0.09876886 0.37766764 0.12917146 0.14943412
000230 c1 5e 50 3e a2 06 8b 3e 4d 9d b7 3e 09 54 9a 3e
       0.20348646 0.27153498 0.35862198 0.3014224
000240 74 8b 51 3e 89 59 8b 3e d1 22 a4 3e 9b 0b 67 3e
       0.20463353 0.27216747 0.32057813 0.22563021
000250 bc b6 8b 3e 35 9e be 3e 46 87 41 3e 22 d0 92 3e
       0.27287853 0.37230077 0.18899259 0.28674418
000260 23 41 66 3e 2d 6d a6 3e 99 28 2e 3e 55 f6 ca 3e
       0.22485785 0.3250517 0.17007674 0.3964106
000270 53 13 29 3e 79 f2 9e bd 50 bb 1d 3d 82 08 01 3e
       0.16511278 -0.07761092 0.038508713 0.12600902
000280 31 ef b3 3e e8 9b 71 3e 97 63 fa 3d 43 42 5f 3e
       0.35143426 0.2359463 0.122260265 0.2180262
000290 04 df 75 3e dd 65 04 3d c5 36 46 be b6 ef b1 bc
       0.24010855 0.032323707 -0.1935683 -0.021720748
0002a0 09 92 0b bd 50 60 05 3e 24 20 dd bc 55 8d 27 3d
       -0.034074817 0.13025022 -0.026992865 0.04090627
0002b0 d2 a1 28 3e 92 ab d5 3d 91 ab 45 be bd c0 38 be
       0.1646798 0.10433115 -0.19303729 -0.18042274
0002c0 5b 6d a7 bd 5a 19 89 3d 0d 82 26 be 2e 6f 85 3e
       -0.08175155 0.066942886 -0.16260548 0.26061386
0002d0 a6 b2 d6 bd e5 7a 55 3c 10 61 4c 3d 21 6e 95 3d
       -0.10483293 0.013029789 0.049897254 0.07296396
0002e0 36 6e 85 3d 1b c8 d5 ba 99 dc 8c 3b a9 37 51 bd
       0.06515162 -0.0016310246 0.004298758 -0.051078472
0002f0 3c 4c ce 3d fb dd 16 3e 46 1a 2b 3e 7b 61 26 3e
       0.10073134 0.14733116 0.16709241 0.16248123
000300 7b a3 56 3e f5 16 01 be b2 c0 4b 3e 82 67 61 3e
       0.209608 -0.12606414 0.19897726 0.22012141
000310 e9 b7 33 3e f8 70 32 bd 81 f8 e2 3d 0c ef 80 3e
       0.17550625 -0.043564767 0.110825546 0.25182378
000320 6c e5 84 bd 97 be 4e 3d b4 0d e6 bc 3a cb 5c 3e
       -0.06489071 0.05047473 -0.028082706 0.215619
000330 8e 7c ef 3d bd 8d c6 bd 03 71 75 3e 94 9a a0 3e
       0.11693679 -0.09695003 0.23968892 0.31367934
000340 dc 86 d3 3c d6 2a ef bd 85 90 a7 bd 4d 41 b3 bd
       0.025821142 -0.11678092 -0.08181862 -0.087526895
000350 05 37 98 bd 92 04 66 bd 17 e0 6a 3b e6 48 de bd
       -0.07432369 -0.056156702 0.0035839134 -0.10853748
000360 50 fc 55 3e e8 cd 03 bd b1 bc 5f bd e1 ca 1a be
       0.20897031 -0.03217879 -0.05462331 -0.15116455
000370 68 81 0c be 77 53 a6 be 7d b0 5d be 64 5d 8b be
       -0.1372124 -0.32485554 -0.21649356 -0.2721969
000380 e0 ac bc 3b d7 33 5e 3e 8d 48 74 3d 99 95 2a 3e
       0.005757913 0.21699463 0.059639502 0.1665863
000390 9d c4 5c 3d 64 1a 1a 3e 81 f4 30 3e 02 b6 dc 3d
       0.053898443 0.1504913 0.17280771 0.10776903
0003a0 7f 9f 70 3d 43 85 8f 3d 4e 9d e2 3c 63 a2 1b 3e
       0.058745857 0.070078395 0.0276629 0.15198664
0003b0 c9 a5 0f 3e 4d a5 0d be 1b 84 10 3d c3 7e 33 3d
       0.14028086 -0.13832588 0.035282236 0.04382206
0003c0 f7 2d 4e 3e 44 41 ee 3d 9b ce 18 3e 54 65 d4 bd
       0.20134722 0.11633542 0.14922564 -0.10370889
0003d0 3b b9 7c 3c a7 31 93 3d 9e 05 a5 bd 5a cd 6e bd
       0.015425022 0.07187205 -0.08057712 -0.058301307
0003e0 c9 62 fd 3c 08 59 37 be fc c8 0f be 7d 95 f6 bd
       0.030930893 -0.17905056 -0.14041513 -0.120402314
0003f0 4d b6 e0 bb de c9 26 be c5 b0 66 be 58 36 54 3d
       -0.0068576694 -0.16287944 -0.2252837 0.05180964

bias f4 [32]
000000 92 53 94 bb 90 78 0a 3b 78 4b e9 b9 04 3b 32 3d
       -0.004526564 0.002112899 -0.00044497452 0.043513313
000010 fa d4 77 bc 65 12 ae bb cf dc dc bb a4 34 8a bb
       -0.015126461 -0.0053122514 -0.0067401896 -0.004217701
000020 fc 83 47 bc ac 84 0b ba d3 04 bf bb 1b 33 8c bb
       -0.012177464 -0.0005322199 -0.0058294325 -0.004278553
000030 a2 4f 87 ba e1 72 8c bb 64 91 ea 3c 57 92 25 ba
       -0.0010323415 -0.0042861556 0.02863378 -0.0006316057
000040 b9 87 12 3c 44 f7 60 ba 9c d3 3d ba 56 de e0 bb
       0.008943492 -0.00085817673 -0.000724131 -0.006862442
000050 96 b8 49 bb 4e 55 9c bb 72 f6 2e bc e6 24 52 ba
       -0.0030780188 -0.0047709113 -0.010678874 -0.00080163626
000060 35 62 fe ba 0c 55 56 bb 77 d1 cc bb 48 e6 21 bc
       -0.001940793 -0.00327045 -0.006250556 -0.0098815635
000070 0e 20 d2 3c 2d 5a ac ba df b3 5f bc b6 7d bc ba
       0.02565005 -0.0013149433 -0.013653724 -0.0014380726

weight f4 [64, 32, 4, 4]
000000 72 e4 05 3e cf 26 0b 3e c5 a0 03 3d a6 bd 57 be
       0.13075426 0.13589023 0.032135744 -0.21068439
000010 0f dd 02 3a 84 28 2e 3e 25 74 8a 3c 20 bd 21 3e
       0.0004992047 0.17007643 0.016901085 0.15794802
000020 e3 a0 48 3d 2c b8 4d bc 07 7a 0f 3d aa 7f eb 3c
       0.04898156 -0.012556117 0.035028484 0.028747398
000030 86 0a 5b 3e 78 92 35 bd 8e 66 67 bd ad 90 a5 bd
       0.21390733 -0.044329137 -0.05649429 -0.08084235
000040 50 d4 25 be de 3b 1e bd e2 23 ae be 83 a3 c0 bd
       -0.16194272 -0.038631313 -0.3401175 -0.094061874
000050 4e 73 41 be 99 b4 1f be 6a d5 74 bc 58 e6 94 bd
       -0.18891641 -0.15596236 -0.01494346 -0.07270497
000060 a5 40 d2 bd 14 5c 33 bd 10 3e 0d be 84 4e 43 bd
       -0.10266236 -0.043788984 -0.13793206 -0.0476823
000070 a1 e5 ed bd 59 52 af bd 1f 9e 82 bc 6e 56 34 3e
       -0.11616064 -0.085606284 -0.015944539 0.17611095
000080 87 e4 27 be 83 e7 a8 3d 7d de bf 3b c9 18 44 3d
       -0.1639577 0.08247282 0.00585538 0.0478752
000090 aa 26 e3 3b 42 c2 b8 bc 89 6f ce bc bb 51 12 3e
       0.0069320993 -0.022553567 -0.025199668 0.1428899
0000a0 ee 3f da bd 59 5e 8b bd 16 ed e5 3c 0f 53 bb 3b
       -0.10656725 -0.06805105 0.028067153 0.0057166885
0000b0 af 15 e3 3d 07 e8 44 be 01 84 91 3d 1a 05 5a 3d
       0.1108812 -0.19229136 0.07105256 0.05322752
0000c0 27 9b b9 bc 50 ed 49 bd f3 b2 c7 bd e5 34 db bc
       -0.02265699 -0.049298584 -0.09750929 -0.02675862
0000d0 36 e1 2e 3e ba 71 f1 3c 70 8f 79 bc 25 67 b9 3d
       0.17078099 0.029473174 -0.015231952 0.090528764
0000e0 aa 24 1e 3c 61 14 dd 3d c8 d4 68 3d e8 ec 53 3d
       0.009652296 0.107949026 0.05684355 0.051739603
0000f0 45 76 2d 3e 56 f7 ec 3c 97 4f be bd 21 f5 9b 3d
       0.16939647 0.028926533 -0.09292524 0.07615114
000100 4c 60 2d bd e9 a0 bf 3c 60 6b a7 bd dd f9 47 be
       -0.042328164 0.023392158 -0.08174777 -0.19528909
000110 b6 42 40 3d f4 14 76 bd 49 9a 9a 3b 8d 90 95 3d
       0.04693862 -0.060078576 0.0047180993 0.073029615
000120 af 1a cd bd 7d 05 07 39 76 08 9d bd 22 59 f0 3d
       -0.10014855 0.00012876648 -0.076676294 0.11735751
000130 77 ea b2 3c a8 8b 40 bc aa 5f 22 be d5 0f a2 bd
       0.021840317 -0.011752047 -0.15856805 -0.07913176
000140 a7 71 21 3d d2 8c f0 3d 0e 0b 54 3d c7 2b 3d bc
       0.039415028 0.11745609 0.051768355 -0.011546082
000150 bf 30 d6 bc 50 82 32 bc c7 f6 0d 3e 1f 98 b4 3c
       -0.02614629 -0.010895327 0.1386367 0.022045193
000160 9d 56 fd bd f3 a6 77 bd 57 c6 36 bd 74 b7 01 3e
       -0.12370036 -0.06046195 -0.044622745 0.12667638
000170 b1 37 24 bd 98 41 99 bd d8 08 03 3c e0 d9 e5 3d
       -0.040092174 -0.07483214 0.007997714 0.11223197
000180 53 f3 48 bd 03 98 8e 3d bf 2d 89 bd 02 b5 22 be
       -0.049060177 0.06962588 -0.066981785 -0.15889362
000190 03 9c 82 bb 41 2d 45 bd 9b d2 8b 3c 8f 0b a8 3d
       -0.003985883 -0.04813886 0.017068198 0.082053296
0001a0 6e f9 81 bd bd 6f 75 3c d5 00 ab bd 0c d2 c5 bd
       -0.06346403 0.014980254 -0.08349768 -0.09659204
0001b0 79 f4 7f bd 0e cc c4 bd ee 33 c0 3d 04 b7 88 bd
       -0.062489007 -0.09609233 0.09384905 -0.066755325
0001c0 7c 0c 24 3e 72 1b 11 3d 60 c7 48 3c 0e 11 41 3d
       0.16020387 0.035426565 0.012254566 0.047135405
0001d0 cd ac 02 3e 29 0c 86 3d 2d 81 8a bb b1 4e 33 bc
       0.12761231 0.06545288 -0.0042268247 -0.010944054
0001e0 45 a0 c0 3c 64 e8 4b bc f3 f8 fd 3c 49 b7 f0 3d
       0.023513922 -0.012445543 0.031002497 0.11753709
0001f0 62 6c cf 3d a9 a5 36 3e 74 9d 80 bd 29 c4 24 bd
       0.10128094 0.17836632 -0.06280032 -0.040226135
000200 84 35 3a 3d e1 36 ca bd 69 4d 8a bd db 29 81 bd
       0.045461193 -0.098737486 -0.06753046 -0.063068114
000210 6a 49 f1 3d 0f 0c c9 bc b7 ce 81 3b 55 07 33 3e
       0.11781581 -0.024541883 0.00396141 0.17483266
000220 6d 58 a6 bd 33 c6 91 bd 4e 74 3d be e9 a9 28 3d
       -0.08122335 -0.071178816 -0.18501398 0.041177664
000230 fc f0 30 be 27 82 a7 bd 3a a0 73 3d a4 5a 0c bc
       -0.17279428 -0.081791215 0.059478976 -0.008566532
000240 64 05 79 3d fd 65 c6 3d 89 00 ea bd 46 c0 1f bd
       0.060796157 0.096874215 -0.11425883 -0.039001726
000250 6f 85 04 bb 98 0e 1f 3e 53 2b f5 3c 6d 7d 95 bd
       -0.0020221134 0.15532911 0.029927885 -0.07299314
000260 b4 7c e2 bc ed b8 b4 3d ad d3 85 bd fe f5 e7 bc
       -0.027647354 0.08824334 -0.065345146 -0.02831554
000270 5a 7b d2 bc 02 81 bc 3b 87 f9 53 3d e6 6f 99 bd
       -0.025693584 0.0057526836 0.05175164 -0.07492046
000280 7c 67 bf 3c 5e 63 02 3d fe 54 54 bd 9f f0 58 3d
       0.023364775 0.031833045 -0.051838867 0.05296385
000290 76 7a 43 be 55 35 85 bc f6 f2 53 be 67 51 43 bd
       -0.19089684 -0.016260782 -0.20698151 -0.047685053
0002a0 ff 9a 0f 3d 51 64 0a 3c bf 1e f2 bd 64 b7 42 be
       0.035059925 0.008446769 -0.118222706 -0.1901527
0002b0 33 31 48 3d 74 8e 9b bd 99 8b 20 3d 86 87 ef 3c
       0.048875045 -0.0759553 0.03919563 0.029239427
0002c0 6c 93 c4 bd c3 53 b9 bd f6 c3 95 bd 42 a8 a2 bd
       -0.09598431 -0.090491794 -0.07312767 -0.07942249
0002d0 a4 eb 82 bd 66 05 81 bd 1b 66 84 3c 8d 16 81 3d
       -0.06392601 -0.06299858 0.016161969 0.06303129
0002e0 48 21 84 bc 80 b8 51 be 4f ea e4 3b 3b 76 54 bd
       -0.016129151 -0.20480537 0.0069859396 -0.051870566
0002f0 86 da 82 bd 3c a2 c5 3d 51 7e 37 3e 37 dd fe bc
       -0.06389336 0.096500844 0.1791928 -0.031111343
000300 b6 30 1e 3c 14 d5 b2 3d 63 21 f4 bc c3 00 f7 3c
       0.009655168 0.08732048 -0.029801076 0.03015173
000310 64 6e 42 3e 4b f3 17 3d fc 65 d0 3d d8 9f 58 bd
       0.18987423 0.037097257 0.10175702 -0.052886814
000320 13 6c f2 bc 99 de bd bd a2 af 10 be e1 89 2b 3d
       -0.02959255 -0.09270973 -0.14129499 0.04187954
000330 5a a8 cf 3d ba 1f fd bc 4d 1e 49 bd 7c 34 2f be
       0.101395324 -0.030898917 -0.049101163 -0.17109865
000340 a2 e3 1c 3d 7f 0e b0 bd 82 05 8d 3d 4f cc 12 3c
       0.038303025 -0.08596515 0.06885816 0.008959844
000350 51 8f ab 3c 06 ea 96 3d 89 7c d9 bd 55 de 83 bd
       0.020942362 0.07368855 -0.10619456 -0.06438891
000360 4b ac 11 bd 11 11 a7 3d 8b 94 9b 3c 23 ec bc 3d
       -0.035564702 0.08157552 0.01899173 0.09224727
000370 22 8d 9d 3d bf a4 43 bd 9b b8 71 3c 70 a6 56 3d
       0.076929346 -0.047764536 0.014753486 0.05240482
000380 a9 9c 22 3d 86 22 7f 3d c7 f7 b0 bd 09 d5 bd 3d
       0.039700184 0.062288783 -0.0864101 0.09269149
000390 f1 49 bf bd 01 ce 7c 3d bd dc ad bc 67 15 21 3d
       -0.09340275 0.061719898 -0.02122342 0.03932705
0003a0 04 7b 3b bc f0 2e 91 bd 57 4c 28 bc 41 f2 1d 3d
       -0.011442903 -0.07089031 -0.010272107 0.03856111
0003b0 83 ce d4 3d 87 3b 9a 3d 42 18 21 bd 5d 33 b6 bd
       0.103909515 0.07530885 -0.039329775 -0.088965155
0003c0 1e 1f 05 bd d8 b3 cd bc 0a bf d7 bc ac bb af bd
       -0.03250038 -0.02511017 -0.026336212 -0.085807174
0003d0 23 cc a2 bd 99 ba 4c bd f9 0f 16 3d cd aa 92 bc
       -0.07949092 -0.04998264 0.036636326 -0.01790371
0003e0 e3 98 c4 bc 36 c7 1f bd a0 f0 35 3d 91 ff 98 3c
       -0.023998683 -0.03900834 0.04441893 0.018676551
0003f0 41 67 f5 3c a0 14 d2 bb 5e 33 86 3d 50 44 1b bd
       0.029956462 -0.00641115 0.06552766 -0.037906945

bias f4 [64]
000000 26 fa 1b 3d 79 03 95 bb 5f cd 08 bc a5 12 67 bc
       0.038080357 -0.004547533 -0.008349746 -0.014103566
000010 93 be 17 3d a1 ac 39 bd e9 c5 dd 3d 96 9c 66 ba
       0.03704698 -0.045330647 0.10828764 -0.0008797137
000020 29 6c 20 bd f3 57 97 3b 49 84 98 3d 9d f1 8b bc
       -0.03916565 0.0046186387 0.074471064 -0.017082984
000030 c8 84 25 bc 94 33 81 bc ad e5 84 3d 0f 44 8a 3d
       -0.010102458 -0.015771665 0.0648912 0.067512624
000040 70 e0 8a bb 6b d1 0b be 96 56 0e bd 2a e3 1f bd
       -0.004238181 -0.13654105 -0.034750544 -0.039035
000050 32 17 a3 bc 25 cc 01 3b ab 3a 77 bc 21 a8 46 bc
       -0.019908521 0.0019805518 -0.015089671 -0.012125046
000060 e3 b6 4c 3d b1 d6 6f 3d d1 e1 b2 3d 7c 40 81 bd
       0.049979102 0.058554355 0.08734477 -0.063111275
000070 22 ec cf bd a0 7d cb 3d 3f e5 8f 3c f7 f6 b4 bc
       -0.10152461 0.099360704 0.017565368 -0.022090418
000080 dd 73 7a 3a 45 3c cd bd 13 b4 63 bb a2 d8 b0 bc
       0.0009554008 -0.10021261 -0.0034744784 -0.021587674
000090 4f f9 5f 3c 98 34 dc bd 4a f3 2b bd 58 36 b3 3d
       0.01367028 -0.10752219 -0.041980065 0.087505996
0000a0 b2 4c c2 bd 87 ac 8b 3c 2e 01 8d bc ba 25 46 3d
       -0.09487285 0.01705004 -0.017212477 0.048375823
0000b0 e8 87 33 3d 4d d3 13 3d a7 77 c9 bc 46 4d 14 bc
       0.043830782 0.036090184 -0.024593187 -0.009051627
0000c0 9a f1 23 bd 11 62 97 bb 31 f3 e3 3c bf d0 ce bc
       -0.04002533 -0.0046198447 0.027825924 -0.025246022
0000d0 7c 4e 96 bc 75 1e 96 bd 87 10 30 3d f1 84 3d bc
       -0.018347971 -0.07330028 0.04298451 -0.01156734
0000e0 f0 50 e1 3b 1a e7 9f 3d 28 5c 0c bd 75 8f 99 bd
       0.0068761036 0.07807751 -0.034267575 -0.074980654
0000f0 e3 68 73 3d e0 89 1a bd 4b 6f 67 3d df bf d2 bb
       0.0594262 -0.037729144 0.05650262 -0.006431564

weight f4 [64, 64, 3, 3]
000000 cc 2e b9 bc 39 3a 25 bb 58 50 d1 bc 30 35 86 3d
       -0.022605322 -0.0025211705 -0.025551006 0.065531135
000010 e0 da 4e 3d 0d 4a 8f 3d 49 f2 b0 bd 91 50 7e 3c
       0.050501704 0.06996546 -0.08639962 0.015522138
000020 9c e8 b0 bd c2 10 91 bd 68 b0 fe 3d 61 c1 09 bc
       -0.08638117 -0.070832744 0.124359906 -0.0084079215
000030 7b 1f a6 3b b8 70 de bd 01 60 79 bc 27 7e d5 bb
       0.0050696707 -0.10861343 -0.015220643 -0.0065152827
000040 18 92 8e 3c 98 d3 7e bd ef d8 ba 3c c8 d3 99 bc
       0.017403647 -0.06221351 0.02280852 -0.018777743
000050 35 1e a9 bd 4a 41 d0 bd d6 ab 74 bd a7 93 c5 bd
       -0.08257715 -0.10168703 -0.059734188 -0.09647303
000060 fd ea 8c 3d db bd 00 3e d5 80 0f 3e 33 6a 47 3d
       0.06880758 0.12572424 0.1401399 0.048685264
000070 a1 8c 00 be ab 66 9a 3d 15 14 6c be 13 4a 01 3e
       -0.12553646 0.075391136 -0.23054536 0.12625913
000080 68 64 b2 3d 71 2e d7 3d ca c6 83 bd 2e af 8d 3d
       0.08710557 0.10506905 -0.064344004 0.069181785
000090 cc 94 95 bd db 0a 2e 3e 49 15 44 3e c9 5e 70 ba
       -0.073037714 0.16996329 0.19148745 -0.00091693975
0000a0 2f 2d fb bd a6 54 2c be 38 e2 8c 3b 6c fc 59 bd
       -0.122644775 -0.16829166 0.0042994283 -0.053219244
0000b0 3c 6b 4d bd e9 ac de bd bc fa 53 bd 40 22 ae bd
       -0.050151095 -0.10872824 -0.05175279 -0.085026264
0000c0 28 06 1d bd a5 5e 44 bd 54 84 e6 bd f3 1f 49 3d
       -0.03833595 -0.047941823 -0.11255708 0.049102735
0000d0 d7 4a 3c 3d b2 4f c1 bc 12 37 2a 3d 79 92 19 3d
       0.04596981 -0.023597572 0.041556425 0.037493203
0000e0 3f c0 a6 bd e3 94 d8 bc 42 45 33 bd fe 17 fd bd
       -0.08142137 -0.026438182 -0.04376722 -0.12358092
0000f0 03 0d f9 3d c2 67 43 3e e9 13 ea 3d 76 50 e3 bd
       0.12160685 0.19082549 0.11429579 -0.11099331
000100 20 6f 7e bd 3d 40 94 bd 82 12 b4 3b 79 f0 38 3e
       -0.062117696 -0.07238815 0.0054953704 0.18060483
000110 d3 a3 0d 3d c7 9b 74 3d 6f 09 07 3d 7f ce 87 bd
       0.034580063 0.059718873 0.03296798 -0.06631183
000120 83 6d 8c be f9 fa 62 bc ce 26 92 bc 50 b4 b9 bd
       -0.274273 -0.013853782 -0.01784077 -0.09067595
000130 b5 63 1f bd 62 fc 82 bd 63 c0 a1 3b 49 b4 d6 3c
       -0.038913447 -0.063957945 0.0049362644 0.026209014
000140 30 90 8a 3d cc 4e 23 bd dd 98 98 3d 84 f7 83 3d
       0.06765783 -0.03987007 0.07451031 0.06443694
000150 55 37 16 3d a2 5a 1f 3c a4 7c ea bd 56 bf 1f be
       0.036673862 0.009726198 -0.114495546 -0.15600333
000160 e4 7c db 3d 6f a0 55 bd 29 59 aa 3c df 7c 1c 3e
       0.1071718 -0.052154955 0.020794468 0.1528201
000170 ef 1e 91 3c f9 f9 d1 bc e5 80 ea bb cb 35 d8 3d
       0.017714946 -0.025631892 -0.0071564787 0.10557135
000180 59 3c 2e bd 5f 43 ad ba 0a e4 c9 3d de 63 86 bd
       -0.04253802 -0.0013218931 0.09857948 -0.06562017
000190 58 be 35 bd 9c 24 e4 3d 92 d8 db bd 9b f0 83 bd
       -0.04437098 0.11139795 -0.10734667 -0.06442376
0001a0 f2 87 d7 bd f9 ce f0 bd 06 6d a2 bc b7 a5 06 bd
       -0.105239764 -0.11758227 -0.019827377 -0.03287288
0001b0 41 80 b0 3b 5b 96 ee 3c 22 5e 11 3e 63 2b 02 be
       0.005386383 0.02912443 0.14196065 -0.12711863
0001c0 fb 09 1a 3d b8 23 13 3d 54 10 0a 3c 0f 4a 80 bd
       0.037607174 0.035922736 0.0084267445 -0.062641256
0001d0 96 88 42 3d 86 fc 49 bd f9 fd fe bd 7d 0c a7 bc
       0.04749354 -0.04931309 -0.12450785 -0.020391697
0001e0 e9 3a 90 3d 16 78 5d 3e 27 43 ec 3d 01 e3 19 bd
       0.07042486 0.2162784 0.11536246 -0.037570003
0001f0 ce 1e eb bd 43 54 1b 3a 44 84 72 bc d1 0f a5 3c
       -0.11480485 0.0005925337 -0.014802042 0.020149143
000200 2a 39 bf bb 76 e6 22 3d f1 3c 92 bd 9f 59 62 bd
       -0.005835672 0.039770566 -0.0714053 -0.05526125
000210 01 15 27 3d bd 9a de bc f6 8d bf 3b ce 36 ad 3c
       0.040791515 -0.027173394 0.0058457805 0.021144297
000220 28 25 f2 bc 52 90 c5 bd 8a 87 1c be 74 5b 13 be
       -0.029558733 -0.096466675 -0.15286079 -0.14390355
000230 a4 73 95 bc 6b d8 02 3e e5 57 f7 3c 07 03 5f be
       -0.018243618 0.1277787 0.030193279 -0.21778499
000240 df cf d9 bd 03 b8 34 bc 32 9c 4e bd f2 3c 7c bd
       -0.106353514 -0.0110302 -0.05044193 -0.06158156
000250 dd 1a 88 bc 25 dd 2d 3e 8b 75 8b 3c b8 a9 cb 3a
       -0.016614372 0.16978891 0.017023822 0.0015538251
000260 3a b7 e6 3d 3c 91 01 bd 1e a3 e8 bd 2c c3 c0 bd
       0.112654164 -0.031632647 -0.11359237 -0.09412226
000270 92 97 f4 3c 3b ec c0 3c a3 d0 30 3d 30 93 39 3c
       0.02985743 0.023550143 0.04316772 0.011326596
000280 ca c5 d0 3d e6 1c 44 3d 85 bc 15 3c f5 cf 2f 3d
       0.10193975 0.047879122 0.009139185 0.042922933
000290 73 75 54 3d a3 82 c0 3c 4a 6e 21 3e 5e 81 0c 3e
       0.05186982 0.023499792 0.15764728 0.13721225
0002a0 93 19 f2 bd 46 c2 ff bb a3 b8 3d 3e 02 7d 1d bd
       -0.11821284 -0.0078051416 0.18527465 -0.038449295
0002b0 f2 60 c0 bd e2 68 54 bd 4e 7c b6 bd a7 4d 0e be
       -0.09393491 -0.051857837 -0.08910428 -0.1389681
0002c0 2c 86 5e bd df 45 0d bd 08 12 60 bd 2b 8e 07 3e
       -0.054327175 -0.034490462 -0.054704696 0.13237827
0002d0 df ab 50 bd 11 c4 85 3d 18 f4 8e 3d cf 48 4e 3d
       -0.05094516 0.06531537 0.06980151 0.050362404
0002e0 7a 64 55 bc 18 62 32 3d 76 28 ff 3d 63 8b 09 be
       -0.013024444 0.04355058 0.12458889 -0.13432078
0002f0 c8 99 c0 3d 36 d4 09 3d 46 24 82 bd bf de 80 bd
       0.094043314 0.033649646 -0.06354575 -0.062924854
000300 4c 5a bd bd 33 27 13 3c ec b7 83 b6 fd 36 37 3d
       -0.092457384 0.008981514 -3.9255156e-06 0.044730175
000310 07 0b 0a be 9b a4 80 bd f9 47 07 be 12 5a 3d bd
       -0.13480769 -0.06281396 -0.13211049 -0.046228476
000320 32 c4 aa bc 4b 3f 51 bd c6 24 ff 3d 1f 2c d1 3c
       -0.020845506 -0.05108575 0.12458186 0.025533734
000330 a0 0c e5 3d 71 ce 5d bd 7a 91 90 3d ea 20 ec bd
       0.11184049 -0.054151956 0.070589975 -0.11529715
000340 76 20 df 3d 06 c6 21 be 96 e7 f9 bc 02 53 b8 bd
       0.10894863 -0.15798196 -0.030505937 -0.090002075
000350 70 96 b9 bb e5 2c bd bd 4c 4b 9b bc 1a ee 2d 3d
       -0.0056636855 -0.092370786 -0.018956803 0.0424634
000360 51 72 c5 bd 09 a2 8d 3d e3 99 b7 bd df 29 af bb
       -0.09640945 0.069156714 -0.089648984 -0.0053455676
000370 c3 ef a7 bd 27 bf 76 3c 98 bc 11 3c 9d 33 28 3c
       -0.08200028 0.015060223 0.008895062 0.010266212
000380 66 49 9f 3d ae ee 8a 3b dc 4d bd bd a9 c8 ca bd
       0.077776715 0.0042398786 -0.09243366 -0.09901554
000390 da 5e 56 3c a5 59 d7 3d 36 35 7f bd c0 5f 65 3d
       0.013084138 0.10515145 -0.062306605 0.055999517
0003a0 ca 8b 0e bd 9b a3 cd 3d 5f 47 00 3d 72 10 8c 3d
       -0.034801282 0.10040971 0.031318065 0.06839074
0003b0 8b e0 5a bd a8 b1 f4 3d ef c7 ab 3d 83 b5 d0 3c
       -0.053436797 0.11947948 0.08387744 0.025477177
0003c0 a3 e8 96 3d 49 f6 35 3d 96 aa 4c 3e 10 cd 06 bd
       0.07368591 0.04442433 0.19986948 -0.032910407
0003d0 d7 24 51 bd 46 d5 a5 bd f5 6c 62 bd 0e 26 0b 3e
       -0.051060524 -0.08097319 -0.05527969 0.13588735
0003e0 58 b1 83 3d 79 5b 9b bd 02 57 4f 3d d7 6a b5 bc
       0.0643031 -0.075858064 0.050620086 -0.022145672
0003f0 31 24 1e be 51 40 41 be 4c f4 e4 bc aa 29 17 3d
       -0.15443493 -0.18872191 -0.027948521 0.03690497

bias f4 [64]
000000 04 9d 2c 3d cc 76 6b 3c 4a 3a 03 3d 88 fa e8 3c
       0.04214193 0.014371585 0.03203801 0.028439775
000010 54 2d c8 bc 76 59 a0 3c b5 dd cc bb 4b 10 62 3d
       -0.024435677 0.019573908 -0.0062520155 0.05519132
000020 de 27 90 3d b3 df 10 bc 8e 41 3e 3c db 81 1d 3d
       0.07038854 -0.008842397 0.011612309 0.038453918
000030 19 a0 9b 3d 77 1b 95 3b 70 d5 0a 3d aa e1 87 3d
       0.075988956 0.004550393 0.033894956 0.06634839
000040 1f 5f 40 bc 37 67 bf bd da 49 ee 3c b2 72 1d bd
       -0.011741429 -0.093458585 0.02908795 -0.03843946
000050 9b 71 34 3d 0e d9 2d bd 6f f5 d3 3d 93 37 ad 3d
       0.044053655 -0.042443328 0.10349547 0.084578656
000060 a0 cf bc ba c0 6c b9 ba 65 25 f2 3d 45 07 62 3d
       -0.0014405139 -0.001414679 0.11823539 0.055182714
000070 04 d4 98 bd f9 4b d2 3c 2e 4e a8 3d 42 d6 80 3d
       -0.07462314 0.025670992 0.082180366 0.062908664
000080 da b2 ff 3c c8 4b a7 3d e5 3e ca 3c fd 3f b8 3d
       0.031213213 0.08168751 0.024688194 0.0899658
000090 6c ea 4e 3d 6c dc ec 3c db 27 48 bd b1 6d b3 3c
       0.05051653 0.0289137 -0.048866134 0.02190289
0000a0 34 df 74 3d 42 87 b4 3c c5 3b 3c bd 07 dd 8b bd
       0.059783176 0.022037152 -0.04595544 -0.06829267
0000b0 53 f7 d6 3c 7e cc 88 bd 04 b8 bb bd 34 a6 f1 3b
       0.02624098 -0.06679629 -0.091659576 0.0073745493
0000c0 92 13 67 bd 5a 82 56 bd e5 66 02 be 01 ca 89 3d
       -0.056415148 -0.052370407 -0.12734564 0.06727982
0000d0 e7 82 ab 3b a1 da a4 bb 0e 7e bf bb 0b 0f ab 3c
       0.0052341106 -0.0050309454 -0.0058438843 0.020881196
0000e0 9a 36 ca 3d 20 9c b8 bc ea 7f 58 3d bd a0 6a 3d
       0.09873696 -0.022535384 0.052856363 0.0572822
0000f0 cd b2 87 3d 39 d5 7f 3c 82 2c bb 3d 2d 00 e0 3d
       0.066259004 0.015614801 0.091393486 0.109375335

weight f4 [128, 1024]
000000 1b e3 a2 3d 44 44 ac 3d 9c a1 ad 3d a3 5f d6 3c
       0.07953473 0.08411458 0.0847809 0.02616865
000010 a1 19 04 3d 99 00 96 3d 08 cb 99 3c 78 29 af 3d
       0.032251004 0.07324333 0.01877357 0.085528314
000020 09 9d ee 3b 32 2d 7f 3d af 5b d1 3c 93 0a aa bd
       0.0072819036 0.06229896 0.025556413 -0.08302798
000030 d4 f0 8e bd 14 60 ed 3b aa c1 b7 bd 0d c3 64 3d
       -0.06979528 0.0072441194 -0.08972485 0.055850077
000040 6d cc 32 bd 9b 61 dd bc a7 c7 ab 3d f8 fe d3 3d
       -0.043651987 -0.027024081 0.0838769 0.10351366
000050 8b ce d0 3c ac 6a 55 bd 97 d1 a2 3c 13 24 42 bd
       0.025489112 -0.052103683 0.01987533 -0.047397684
000060 7a 1d 95 bc 23 38 8e 3d 85 63 bd 3c 31 15 3d 3e
       -0.018202532 0.06944301 0.023118744 0.18465115
000070 e1 18 22 3e 4d 1b da bd 47 2d 9f bc 40 6b 32 3d
       0.15829803 -0.106497385 -0.01943077 0.043559313
000080 2e a4 47 3c 16 0f ba bd 07 d0 5d 3d 9d 7f 27 3e
       0.01218514 -0.09084909 0.05415347 0.16357274
000090 06 60 b3 3d 10 6b 26 bc 8b 86 c9 3c 53 80 8f 3c
       0.087585494 -0.010157362 0.024600288 0.017517244
0000a0 94 8e 08 3d 25 5e 0b ba cc 78 b5 bd 94 fa 12 3e
       0.033339098 -0.0005316458 -0.08860931 0.143534
0000b0 cd 7d 2a bd 07 6e 0f bd 17 f3 c8 3d db a4 14 3e
       -0.04162388 -0.03501704 0.09811991 0.14516012
0000c0 6c e9 79 be 6d 70 23 3d 8f a6 6c 3c ae 0f 58 3e
       -0.2440545 0.03990214 0.014444008 0.21099731
0000d0 f0 24 97 3d 99 c2 4a be 2d 19 c1 bb c3 3b 88 3d
       0.07380092 -0.19800796 -0.0058928938 0.06652024
0000e0 d7 3a 2e bc 8e a2 1c 3c 83 d0 df bb 66 26 d4 3d
       -0.010634146 0.00956024 -0.0068302765 0.103588864
0000f0 27 2c 4f bc da 6b 3a 3c fc d2 eb bc 7b a1 06 3d
       -0.012644804 0.011378253 -0.028787129 0.032868844
000100 64 27 f6 bd 0f b1 8c 3d d4 0b 97 bc b5 b5 37 3d
       -0.12019232 0.06869709 -0.018438257 0.044851024
000110 5c 7a a4 3d a1 02 27 3d 6a ac d4 3c 8b 50 e5 3c
       0.08031151 0.04077399 0.02596112 0.027992507
000120 31 7e af bd fd a8 54 bd ea 56 30 3d 71 6a ff 3c
       -0.08568991 -0.051918972 0.043051638 0.031178685
000130 8a a4 bd 3b 7e 6b fa bd 69 53 60 bc 71 94 e0 3d
       0.005787437 -0.12227534 -0.0136917615 0.10965813
000140 ee 91 cc bd 5d 58 a2 3d 52 17 ac 3c 31 0d ab 3d
       -0.099887714 0.0792701 0.021007214 0.083521254
000150 13 d7 f9 bc 07 60 b0 3c 53 12 31 3d d6 03 f5 3b
       -0.030498063 0.021530164 0.043230366 0.007477264
000160 f8 37 f7 bd 25 08 ef bc 71 39 ef bc da 6d a6 3d
       -0.12071222 -0.029178688 -0.029202195 0.08126421
000170 17 7b 97 bd 8e 0e 52 bd 7a db 73 3c 85 d9 e5 3c
       -0.073965244 -0.05128341 0.01488387 0.028057823
000180 7b 70 84 bd 39 0d ff bd 98 15 33 3d dc 64 12 3d
       -0.064667664 -0.12453694 0.043721765 0.03574072
000190 69 0a 93 3c b3 c1 56 3d 64 33 9b 3d f9 77 49 bc
       0.0179493 0.05243082 0.07578161 -0.01229667
0001a0 6e 78 88 bd 76 d4 2a 3d eb 6d 83 bc 4a 9e 19 3c
       -0.06663595 0.041706525 -0.016043624 0.009376118
0001b0 ca 23 24 be f8 ab 18 bd 2e e9 74 3d bd 87 1e bd
       -0.16029277 -0.037273377 0.05979269 -0.03870367
0001c0 92 09 48 bc 72 9f cf 3d f5 47 99 bc 74 30 8a bd
       -0.012209313 0.10137834 -0.01871107 -0.06747523
0001d0 d9 20 d7 3d 59 31 df 3a 75 ca 8c 3d 1f 13 05 be
       0.10504312 0.0017028257 0.06874553 -0.12995575
0001e0 2c af 9a bd 6e 0a 5b 3d 50 d2 b0 bc b5 25 64 bd
       -0.07552943 0.053476743 -0.02158466 -0.055700023
0001f0 54 b4 cd bd 2c 9f ba bc 42 bc ec bc 6a fd fa 3d
       -0.100441605 -0.022780977 -0.028898362 0.12255366
000200 aa 13 75 3c 24 23 ba bc 46 b7 85 3d 85 25 d7 bd
       0.014958302 -0.022721834 0.06529097 -0.10505203
000210 46 3e 0c bd 26 75 39 3d aa 5f 9a 3d 36 e7 79 3d
       -0.034239076 0.045277737 0.07537778 0.061011516
000220 40 70 9e 3c f8 7e f5 bd 8d c1 1c bd 9f 06 a1 3d
       0.019340634 -0.11987108 -0.038270522 0.07862591
000230 ab 70 c8 3d 87 78 13 be f7 a5 4c 3d 22 fd 82 3d
       0.09787115 -0.14401446 0.049962964 0.063959375
000240 55 2c 58 bc 63 41 92 bc e8 c4 0f 3c 1c e7 07 3b
       -0.013194163 -0.017853444 0.008774973 0.0020737117
000250 a1 fd 3e 3d 44 e1 be bc d5 4a c4 3d df a8 79 3c
       0.046628598 -0.023300774 0.095845856 0.015238016
000260 06 e8 7c bd 58 3b 65 3d 1b e0 18 bd 3d 2f b8 bd
       -0.061744712 0.055964798 -0.0373231 -0.08993385
000270 71 8d 77 bd c7 df 89 bd f9 45 2e 3c 9e 85 23 3d
       -0.060437623 -0.06732135 0.0106368 0.03992235
000280 d3 ce 82 bd 3a fc 79 3d 20 71 05 3e 3b c0 8f 3d
       -0.06387105 0.061031558 0.13031435 0.07019087
000290 55 3b 86 bd 23 83 ef bd ef 3e 1f 3d 26 31 2c bd
       -0.065542854 -0.11694934 0.038878378 -0.04203906
0002a0 6d 9f 33 3e 09 7a e3 3d c7 93 8b bd b9 a4 e6 3d
       0.17541285 0.11107261 -0.06815296 0.11261887
0002b0 c9 c1 f5 bc 11 28 20 be 94 bd cf bc ae 0c 23 bd
       -0.02999963 -0.15640284 -0.025358953 -0.039807014
0002c0 5d 05 c0 3d 07 a3 40 bd 34 d0 31 3d 53 12 23 3d
       0.09376023 -0.047030475 0.04341145 0.039812397
0002d0 85 7d 98 3d 44 3f d8 bc 6e 81 8b bd 8a ba 69 3d
       0.07445816 -0.026397355 -0.06811796 0.057062663
0002e0 69 f0 06 be 59 df d5 bd f2 31 02 3c ce f8 83 3c
       -0.13177647 -0.10442991 0.007946478 0.01610985
0002f0 d4 9c 9f 3d ad 22 55 3d ec af 86 b9 90 3c 60 bd
       0.077935845 0.052035023 -0.00025689544 -0.054745257
000300 05 18 2c be 89 2f 87 bd ac e6 b1 3d eb 87 78 3d
       -0.16806038 -0.066008635 0.08686575 0.060676496
000310 8c 6c b5 bd f1 ab 22 3d 61 ea 99 3d 40 45 5f bd
       -0.08858594 0.039714757 0.07515407 -0.0545094
000320 43 e5 48 bc c1 ec c0 bd 4e 44 05 3d 7e a1 54 bd
       -0.0122616915 -0.09420157 0.032535844 -0.051911823
000330 e7 21 06 be 64 e8 82 3c 5c bc 75 3d 3b 46 88 bb
       -0.1309887 0.015979953 0.059994087 -0.0041587627
000340 78 ee 2b 3e 3d 76 c3 b8 5b a0 8b 3d b3 e8 03 3e
       0.16790187 -9.320348e-05 0.06817695 0.12881736
000350 b8 cd ac 3b ed c5 54 bd fc 9e 49 bd f6 15 e4 3d
       0.005273547 -0.05194657 -0.049223885 0.11137001
000360 ae bb c5 bd d0 4b 8d bd 48 c2 12 3e a4 c9 f5 3d
       -0.09654938 -0.06899226 0.14331925 0.120013505
000370 ab fe c0 3c 34 4c 94 bd 59 c3 ce 3c d3 2a 4f bb
       0.023558935 -0.07241097 0.025239633 -0.0031611219
000380 f7 83 b7 3d 89 fe 1b 3d a2 f3 8d bd ad 7f 18 be
       0.08960717 0.03808454 -0.06931235 -0.14892454
000390 d3 8f d6 bc d6 46 45 bd a2 06 8a bd 26 4a bb 3d
       -0.026191628 -0.048163258 -0.06739546 0.09145002
0003a0 2f 04 4d 3e 8c b8 d8 3b 66 ff 8a bd fb fc 37 3d
       0.20021127 0.0066137966 -0.06786995 0.044918995
0003b0 8e 11 88 3c 05 4b bb bd cc 81 96 3d d6 7a d9 bd
       0.016609933 -0.09145168 0.073489755 -0.10619132
0003c0 30 bb 80 3d f3 8c 0a bd 8e 68 00 bd a1 14 cf 3d
       0.06285703 -0.033825826 -0.03134971 0.101113565
0003d0 91 63 39 bd 20 fe 0e 3d 74 41 8f 3d 58 b4 79 3d
       -0.04526097 0.03491032 0.06994906 0.060963005
0003e0 cf 76 cf 3c c0 96 63 3e 16 cb ea 3c 11 e9 5c bc
       0.025325207 0.22225475 0.028661292 -0.013483302
0003f0 62 b5 91 3d d5 1b 8e 3d 8f c6 cb bd 03 9d 9e bd
       0.07114674 0.06938902 -0.099499814 -0.07744791

bias f4 [128]
000000 dc c9 be 3c ab a4 59 bd 0b e3 94 bd b3 ee 1b 3d
       0.023289613 -0.053135555 -0.072698675 0.03806944
000010 1f bb 52 3c 5b 6b 63 3d 00 a4 d2 3d cb 09 1e 3c
       0.012861996 0.055522304 0.10285187 0.0096458895
000020 6b ad de 3d ca ff d3 bd 20 f8 95 bd 70 63 5d bd
       0.108729206 -0.10351522 -0.07322717 -0.05404991
000030 eb f1 12 3d da 3f e0 bc ea ac fb bb 97 e4 eb bc
       0.035875242 -0.027374197 -0.007680525 -0.028795524
000040 7c 67 17 3d 7b 7e cc 3d 75 60 c3 bd cd 3d 83 3d
       0.036963925 0.09985062 -0.09539882 0.06408272
000050 b1 45 e5 3c 3c 44 7e bd c9 4b 3e bd 58 a4 69 3d
       0.027987333 -0.062076792 -0.046458993 0.057041496
000060 58 aa 82 bd cd 0d 6b bd 79 1a b7 3d 04 6e ce bd
       -0.06380147 -0.05738621 0.08940596 -0.100795776
000070 e9 1a 28 bd 6e be 16 3b 5b a6 12 3e 11 02 13 3d
       -0.04104129 0.0023001689 0.14321272 0.035890643
000080 9d 57 60 3d 33 65 5b 3d 74 2d 19 bc f8 23 64 bd
       0.054771055 0.053563308 -0.009349216 -0.055698365
000090 20 7d ed 3d a7 04 86 3d fc 65 86 3e 1d 1a 7b 3d
       0.11596131 0.06543856 0.26249683 0.0613042
0000a0 8c f2 99 3d 57 b1 b4 bc 03 a3 1f bd b3 23 95 3d
       0.07516965 -0.022057218 -0.03897382 0.072822
0000b0 cb 5e 57 bd af 42 d2 3d 1b 1c 1e bd c5 ca 68 3d
       -0.052580636 0.10266625 -0.038601022 0.056834
0000c0 89 20 be 3d 4f 6f 5a 3d b1 77 0f bd c1 63 2e bd
       0.09283549 0.05332881 -0.035026256 -0.0425756
0000d0 26 b5 97 3d c1 ad 1c bd 3b cd dc bc 78 ce f6 3c
       0.07407598 -0.038251642 -0.02695333 0.030127749
0000e0 bc 7d 0d 3e 5c c1 ea bc b2 3a 25 bd 1d fd 9e bd
       0.13817495 -0.028656654 -0.04033918 -0.07763121
0000f0 69 7d f9 3d ac 6c e0 3c 15 c0 d5 bd 31 1d 04 3d
       0.12182123 0.027395569 -0.10437027 0.0322544
000100 f9 e1 4c 3d 00 1d 10 3e 49 79 4d 3d 3e 58 bb 3b
       0.05002019 0.14073563 0.050164495 0.0057173064
000110 f3 d4 36 bd cd a0 7f 3d 3c 56 53 bd 26 20 e6 bd
       -0.044636678 0.06240921 -0.05159591 -0.112366006
000120 05 c7 10 3e db 41 5c bd bd 90 59 bd ae ed 2a 3c
       0.1413842 -0.053773742 -0.05311655 0.010432644
000130 53 78 40 3b 02 e7 a9 3d b1 ba 4a 3d 2e fb 0c 3d
       0.0029368594 0.08296014 0.04949445 0.03441923
000140 37 9b 3b 3d 16 1b 57 3d 2b 55 ab bd ff 2d f4 3d
       0.04580232 0.052516066 -0.08365854 0.119228356
000150 ac 48 1b 3d ee 8f 50 bd b7 0a 1c 3d 7a b5 9d 3d
       0.037911102 -0.050918512 0.038096156 0.077006295
000160 eb 9b b1 3d 47 5e 6d bd cb 14 1f bd 21 2d 33 3d
       0.08672317 -0.057951238 -0.03883819 0.04374421
000170 65 4f 74 ba 2a 4f ce 3d 3c 6f e1 3d bc fc d7 bd
       -0.0009319692 0.10073693 0.110075444 -0.10546252
000180 22 9a b0 bc fb 60 a0 3a 81 61 82 3d 93 ef 6d 3c
       -0.021557871 0.0012235934 0.06366254 0.014522451
000190 31 e1 0f 3e 8c 06 12 3e 0b 36 9e bc c6 ab b8 ba
       0.14050747 0.1426031 -0.01931288 -0.0014089278
0001a0 ff fc ee 3c db d2 1b bd 69 1a 9d bd b3 b5 6a 3d
       0.029173372 -0.038042884 -0.07671053 0.057302188
0001b0 5a 3d 2c 3e 68 ef 1e bb 20 56 a4 3d 94 ab 69 3d
       0.16820279 -0.0024251584 0.080242395 0.057048395
0001c0 da 4f 46 3b e3 0d 8b 3d 9b 34 7e bd c4 77 8c 3c
       0.0030259998 0.06789758 -0.062061887 0.017146952
0001d0 fb a9 29 3d e9 f4 d8 3d c0 97 e1 3c 7b 56 94 3d
       0.04142187 0.10593588 0.02753818 0.07243057
0001e0 3b a4 05 3d 11 57 99 bc 6d 3a 49 bd 78 1c a1 3d
       0.032627326 -0.018718274 -0.049127985 0.07866758
0001f0 49 c0 42 bd 3d d6 8b 3d 26 2e 9e 3d 61 31 13 3e
       -0.04754666 0.06827972 0.07723646 0.14374305

weight f4 [15, 128]
000000 a4 db 69 bd b9 04 03 3e 68 b8 f6 bd 3d a5 82 bc
       -0.05709423 0.1279477 -0.120468915 -0.015947932
000010 f3 9a a3 3c b3 10 8d bd 3b f9 c7 3d 8d 15 20 3e
       0.019971346 -0.06887951 0.09764334 0.15633221
000020 11 44 54 bd 9f ae ab bd f1 95 60 3d 16 81 a5 bd
       -0.051822726 -0.08382916 0.054830495 -0.08081262
000030 1c f0 42 be 45 3d 0b bd a7 0d ea 3d 0d 0b ba bd
       -0.19036907 -0.033993978 0.11428385 -0.09084139
000040 0f 46 53 3d 79 08 48 bd b7 3c 27 bd 5a 30 74 3c
       0.051580485 -0.048836205 -0.040829387 0.014904106
000050 1c 67 1a bd aa 32 e1 bd 85 80 1e 3d 77 40 23 3d
       -0.03769599 -0.109959915 0.038696785 0.0398564
000060 98 88 c8 bd 93 ea 45 bd c7 ec 8d be 7c 5e ff 3d
       -0.09791678 -0.04831941 -0.2771971 0.12469193
000070 c4 62 45 bd 22 dc 83 3d 65 95 4d bd 46 1b 50 be
       -0.048189893 0.064384714 -0.0501913 -0.20322904
000080 20 4f 84 bd 7d 89 97 bc 71 13 f2 3b d7 6d 0c 3e
       -0.064604044 -0.018498177 0.0073875715 0.13713776
000090 3a 88 c2 bc 4a 4f 68 3d 5f fa 2e bc 6b 8c 47 bd
       -0.023746599 0.05671624 -0.01067981 -0.048717897
0000a0 08 04 19 be 67 13 13 3e ac 8c 07 be 06 85 33 be
       -0.14942944 0.1436287 -0.13237256 -0.17531213
0000b0 2f a5 de bd ec 78 34 3c c0 4a d6 3c dc 38 fc 3d
       -0.1087135 0.011015158 0.02615869 0.123155326
0000c0 df c1 7e be 77 90 eb bc ea d7 fc bd ea ca 05 be
       -0.24878643 -0.02875541 -0.1234587 -0.13065687
0000d0 6f c5 3e bd 93 1c 34 3e 92 36 bc 3d a4 c7 50 bd
       -0.046575006 0.17589025 0.09190096 -0.050971642
0000e0 88 5a 58 3d fe 84 23 3e dc 77 28 3e e9 d8 13 3e
       0.052820712 0.15968701 0.16451973 0.14438213
0000f0 51 73 fe 3a 96 ae b6 bd 01 fa aa 3d 8b 95 ff bc
       0.0019413029 -0.089200184 0.08348466 -0.031199237
000100 20 9a 2c bd 01 4a 92 bb 47 5b 18 be 41 2c 27 be
       -0.042139173 -0.0044643884 -0.1487857 -0.16325475
000110 71 1b b9 3d a9 5c a9 3b b7 6e a5 3d be 0b 71 3e
       0.09038437 0.0051685167 0.08077758 0.23539636
000120 27 f8 11 bd 43 b0 47 3d d2 0b bd 3d e3 6a e8 3d
       -0.035637047 0.04875208 0.0923077 0.11348512
000130 d9 bd 00 3d 2b 05 0d bc 97 8e 5c bc 2a c1 f5 bc
       0.031431053 -0.008607189 -0.01346173 -0.029999334
000140 2b b6 aa bc cd 00 92 bc 3f 0c 65 3d d6 fa 0f 3e
       -0.020838818 -0.017822647 0.055919882 0.1406053
000150 21 17 d3 bd 45 8e 1e be ae fd e2 bd 0e b3 d9 3d
       -0.10307146 -0.15483959 -0.11083542 0.10629855
000160 5e fa 2d bd 1d 1b dd 3c 21 1d 36 bd f8 05 4d bd
       -0.042475097 0.026990468 -0.044461373 -0.05005452
000170 e5 42 18 3e 48 74 41 be 5a 99 0c 3d 6d 13 6f 3d
       0.14869268 -0.18892014 0.034325935 0.058368135
000180 e9 87 99 3e e1 9d ee 3d 2e 3e 4f be 21 76 b6 3d
       0.29986504 0.11651207 -0.20238563 0.0890925
000190 86 8b 0b be 95 ad c6 bc 5e e7 85 be 06 05 3e be
       -0.13627443 -0.024252692 -0.26153082 -0.18556604
0001a0 4e 3b 12 bc c1 c5 a2 3d 69 08 73 bd ec 2a 33 3d
       -0.008925272 0.07947875 -0.059334192 0.043742105
0001b0 ad a4 09 3d e9 df 90 bc e9 b3 94 bd 21 e7 33 3d
       0.033604313 -0.017684894 -0.07260878 0.043921594
0001c0 ca 0f 11 3b 01 10 ba 3d 0e a3 06 be 60 4b 83 3e
       0.0022134655 0.09085084 -0.13148138 0.25643444
0001d0 03 9d 64 bc 01 b9 49 3d 9f bf d3 bd a6 3d 49 3d
       -0.01395345 0.0492487 -0.10339283 0.04913106
0001e0 ac 58 f0 bc 9e 3f c0 3d d6 e8 ed bd 52 26 b0 bd
       -0.029339157 0.09387134 -0.116166756 -0.08601059
0001f0 5b de e8 3d 5d 06 67 3d 16 16 d7 bd 06 5a d3 bd
       0.11370536 0.056402553 -0.105022594 -0.10319905
000200 f6 e5 f0 3b 83 22 d9 3d 3f a9 98 bc be 8b 68 3c
       0.007351632 0.10602286 -0.01863539 0.014193473
000210 cc 45 4a 3c bd 24 d5 3d b5 fb 84 3d 96 d0 4c 3e
       0.012345742 0.10407398 0.06493322 0.20001444
000220 34 b6 8d bd 2c 3e 34 be 51 49 5a 3b 14 0b dc bd
       -0.06919518 -0.17601842 0.003330786 -0.107443005
000230 c8 7e 8d bd 39 7a d6 bd e1 e2 b6 3d e1 ce 48 bc
       -0.06908947 -0.10472531 0.089299925 -0.012256355
000240 bf 76 3b bc 57 63 f8 bd fc 51 4d 3c ba a9 25 3d
       -0.0114418855 -0.121283226 0.012531754 0.040445067
000250 5e f7 00 bd 19 0c d8 3c 8a 82 33 3d 59 08 e5 bd
       -0.031485908 0.026372956 0.043825664 -0.11183233
000260 e0 65 ee 3d 1b 8b 32 bc 3b 00 9d bd 56 14 89 bd
       0.11640525 -0.010897423 -0.076660596 -0.06693332
000270 50 ab b1 3d 18 06 7f 3b 89 32 2e 3c 3f 3b e1 bc
       0.086752534 0.0038913544 0.010632166 -0.027494071
000280 94 a5 80 3d 51 5c 04 3e 20 ed ff 3a ae a8 46 3e
       0.062815815 0.12925841 0.0019525625 0.19400284
000290 85 f6 e9 bc 12 3d a0 3c b2 04 6b bc 7c 59 25 bd
       -0.028559932 0.01956037 -0.014344381 -0.040368542
0002a0 bc 28 a3 3d 9f 80 5a bc 74 bc 3d be 06 6e a6 bd
       0.07966754 -0.01333633 -0.1852892 -0.08126454
0002b0 40 30 12 bd d9 39 ce bd b7 46 8a bd 93 21 a3 3d
       -0.035690546 -0.10069627 -0.06751769 0.07965388
0002c0 c3 f6 e6 3b a2 92 02 bd c0 c7 82 bb 6c 1f fe 3c
       0.0070484593 -0.03187812 -0.003991097 0.031020842
0002d0 e9 46 65 3d 6b 17 8c 3d 4f 58 dd 3d c1 bd 82 3c
       0.05597583 0.06840404 0.10807859 0.015959622
0002e0 f8 91 02 be bb 4c 9b bc c1 e9 04 be 54 b6 f1 bd
       -0.12750995 -0.018957486 -0.12979795 -0.118023545
0002f0 12 3a 60 3c b4 bf e0 bd f6 9b e8 bd e6 e1 17 3d
       0.01368572 -0.109740645 -0.11357872 0.037080668
000300 33 fc 24 be c5 f7 02 be 72 47 e4 bc f3 16 40 3c
       -0.16111831 -0.12789829 -0.027866099 0.0117242215
000310 ce 39 79 bd b2 fd 9d 3d 31 df aa 3d 4f ac a2 bd
       -0.060846142 0.07714404 0.08343352 -0.079430215
000320 06 3d 29 3d f5 18 63 be ca fe c9 bd b7 20 9b 3d
       0.041317962 -0.22177489 -0.0986305 0.07574599
000330 44 8a 99 3d 56 1c c5 bc 43 8f b3 bd 0a e6 8a bd
       0.07497075 -0.024061363 -0.087675594 -0.06782158
000340 5a 84 12 3e 2e 1b 0c be 65 84 43 3d 0d fc 9e 3d
       0.143083 -0.13682243 0.047733683 0.077629186
000350 9f a1 ed bc 4e 59 08 be f3 3e 13 b8 9a 66 66 3c
       -0.029007731 -0.13315317 -3.5106157e-05 0.014062548
000360 54 2f cb bd 79 bf 59 bd 0f f0 9a 3d cf 78 8e 3d
       -0.099211365 -0.05316112 0.07565319 0.06956636
000370 8d c0 e8 bd 37 b8 51 bc ad 9c 31 bc 74 e5 ac bd
       -0.11364851 -0.012800268 -0.010840577 -0.08442202
000380 f8 dd b0 bd 8f a7 0b be 5b cf b9 bc a3 6d 8e bd
       -0.08636087 -0.13638137 -0.022681883 -0.06954505
000390 3b 68 a4 bd 07 1d 3d 3c 49 af 92 bc 5c d3 b9 bd
       -0.08027693 0.011542565 -0.017905848 -0.09073517
0003a0 3e 9d a3 bc 0e b3 85 3e 65 0f 37 3d 9a d8 ba bc
       -0.01997244 0.2611317 0.044692416 -0.022808362
0003b0 42 13 08 3b 4b a0 43 3d c6 35 d1 bd 3e 22 97 bd
       0.0020763432 0.04776029 -0.102153346 -0.07379578
0003c0 8f b1 33 3e b5 eb b4 38 15 28 cb bd c5 2b 02 3e
       0.17548202 8.626973e-05 -0.099197544 0.12712009
0003d0 b9 06 a7 3d 10 a0 1c 3e 08 c8 16 bc 35 de d0 bb
       0.08155579 0.15295434 -0.009202965 -0.0063741454
0003e0 55 b0 42 bd f4 c1 5b bc 4d 06 cf bc 8f 08 95 bc
       -0.047531445 -0.013412941 -0.02527156 -0.018192558
0003f0 d4 27 f4 bd 84 ee 38 3c 0e 16 a9 bd 26 28 13 be
       -0.11921659 0.011287335 -0.0825616 -0.14370784

bias f4 [15]
000000 cc ba cc 3c 40 c3 b9 3b 8a f0 10 3c f2 57 b8 3b
       0.024991415 0.0056690276 0.0088464115 0.0056257183
000010 6b 25 7e bb 85 4d 80 3c b4 67 84 bc ea dd b1 3b
       -0.0038779627 0.015661964 -0.01616273 0.0054280655
000020 3f 7c 02 3c f5 1b b3 3a 38 e6 2c bc 22 02 55 3b
       0.007964193 0.0013664948 -0.010552935 0.0032502492
000030 1f 22 0f bc 8b 54 44 3c bc f7 5d 3c
       -0.008736162 0.011983047 0.013547834

weight f4 [1, 128]
000000 02 96 a3 3b 6e 66 46 bc 9e 8f 16 bd d8 9e 29 3d
       0.0049922476 -0.012109382 -0.036758058 0.04141125
000010 c8 ad cc 3b 45 6b ef bb 36 e5 89 3c a3 92 3e bc
       0.0062463023 -0.0073064887 0.01683293 -0.011631641
000020 f1 ee 2b 3d b2 ee 1a bd 02 ce 21 bd 46 5b 96 ba
       0.04197592 -0.037825294 -0.039503105 -0.0011471293
000030 94 cb 0b 3d 26 6e cc bb 9e 77 39 bc ab 7e d0 bb
       0.034129694 -0.0062387167 -0.011320023 -0.0063627562
000040 56 5f a7 3b e2 23 64 3d 15 ce 92 bc 83 7f b0 3b
       0.0051078005 0.055698283 -0.017920533 0.0053862943
000050 d6 7d 55 3c 4b cd b8 bc 73 e9 d1 bb ee b3 29 3c
       0.01303049 -0.022558829 -0.006406003 0.01035784
000060 9f c9 0c bd b8 65 36 bc ad 39 02 3c 35 d6 a3 ba
       -0.03437197 -0.01113265 0.007948321 -0.0012499752
000070 00 35 08 bc c6 73 d0 bb e8 41 a7 3d 1e 0a 8d 3b
       -0.008313417 -0.0063614575 0.081668675 0.0043041846
000080 b0 05 20 bc 35 2a 71 3c 14 0c 7d b9 a8 c2 0a bc
       -0.009766981 0.014719536 -0.0002413246 -0.008469261
000090 98 ec d8 3c 81 67 3f 3c 1b 37 0f 3e e5 ab d7 3d
       0.026480004 0.011682392 0.13985865 0.10530833
0000a0 00 09 c9 3a 3c 19 15 3c b8 68 98 bc ff 9d ae b9
       0.0015337765 0.009100255 -0.018604621 -0.00033305582
0000b0 3f e3 04 3b 96 73 01 3d 3f 44 77 bb ab e7 5c 3d
       0.002027705 0.031604372 -0.0037729887 0.053931873
0000c0 eb f0 eb 3c 81 64 23 bc 82 29 60 bc e8 47 2a 3c
       0.028801402 -0.0099726925 -0.013681771 0.01039312
0000d0 4b 11 64 3c bc f5 df ba 9d 55 d2 bb 3f 16 05 3d
       0.013920139 -0.0017086784 -0.0064188973 0.03249192
0000e0 63 f8 34 3d fe d4 a5 3c 69 fa 1e bc 51 85 fe 3b
       0.044182193 0.020243164 -0.009703257 0.0077673574
0000f0 2d 39 12 3d 2a ae 01 3b d9 4c ce bc 2a ef 07 bc
       0.03569906 0.0019787648 -0.025183128 -0.008296767
000100 34 0b 29 3c 2d 54 90 3c 8d b8 0d 3e e7 ed 39 3c
       0.010317612 0.017618263 0.13839932 0.011348224
000110 d6 dc 12 3c e8 e0 5e 3c f5 a5 15 3c 30 34 95 bc
       0.008963784 0.0136034265 0.0091338055 -0.018213362
000120 50 35 0b 3d 8c c6 bb ba 5f 0f 0e 3c f7 85 05 3c
       0.03398639 -0.0014326139 0.008670657 0.0081496155
000130 7f fe 61 bc 1d 85 88 3d 0d 00 85 3d bc 04 96 3c
       -0.013793587 0.06666014 0.0649415 0.018312804
000140 be 7d 9e 3b 82 5e 18 3b 8e 5e 1b bd b2 b7 be 3c
       0.004836767 0.002324969 -0.03793197 0.023280952
000150 f0 fb 32 3a 06 4f 64 bc 0d 9e f7 b9 4a 90 1d 3c
       0.0006827703 -0.013934856 -0.00047229268 0.009616921
000160 ec a2 1a 3d ed 54 a9 bc fb 68 cb bb 19 af 42 3d
       0.03775303 -0.020670379 -0.006207583 0.047530267
000170 b7 a7 51 3b 74 ae 0c 3c f7 6e 15 3d e8 d5 a7 bd
       0.0031990835 0.008586515 0.036482777 -0.08195096
000180 a1 cd c3 3b e6 76 75 bb 5d ee 92 3b 5a cd 44 bb
       0.0059754406 -0.0037454902 0.0044839815 -0.0030029626
000190 87 e4 79 3d fe cb 80 3d db 1f 27 bc 8d e1 fc ba
       0.061008956 0.062889084 -0.010200466 -0.0019293294
0001a0 14 73 d8 3b d4 71 f3 bb 48 31 8a bc be dc 38 3a
       0.0066055153 -0.007429341 -0.016869202 0.0007051936
0001b0 28 78 c9 3c 5a 3f 60 ba cf df 54 3d e7 5e 56 bc
       0.024593428 -0.0008554362 0.051971253 -0.01308415
0001c0 e9 96 15 3c 11 df fd 3b 86 cb 24 bc 8e ca 74 3c
       0.009130218 0.007747539 -0.010058289 0.014940871
0001d0 dd c3 90 bc 53 ba c8 3b d6 f7 39 3d 99 08 0c 3d
       -0.01767152 0.006125727 0.04540237 0.034187887
0001e0 f2 15 80 bb 23 8b b0 3b 6b 59 21 bd 8c cf 7d 3c
       -0.003908866 0.00538768 -0.039391916 0.015491378
0001f0 83 fa 00 bc 4c a1 65 3b 12 d6 bd ba f3 99 bd 3d
       -0.007872227 0.0035038767 -0.0014483354 0.09257879
