results/generalization-128fd/400levels-128fd-policy.pt (torch, 843679 bytes, 11 tensors)

weight f4 [32, 3, 8, 8]
000000 88 ce bd 3d 55 9c 8c 3d bc 03 76 bd 27 da 9e 3d
       0.09267908 0.068657555 -0.060062155 0.07756453
000010 93 b8 d7 3d 14 eb 10 bc a2 f2 82 bd 3f 34 ed bd
       0.105332516 -0.0088451095 -0.06393935 -0.11582231
000020 10 25 1b be cb 76 23 bd 41 7d 0f bd e2 84 35 bd
       -0.15150857 -0.03990821 -0.03503156 -0.04431618
000030 e4 f3 ec 3d 21 2c f4 3d 3b 41 75 bd 2a 51 d6 bc
       0.11569956 0.119224794 -0.05987666 -0.026161749
000040 cc 87 13 3e d1 1a 39 3e e4 5a 93 bd d7 f0 97 3d
       0.14407271 0.18076636 -0.071950704 0.074189834
000050 97 a1 8d 3d 6a 2c 7c bb dc a2 9e 3d 86 82 48 3e
       0.069155864 -0.0038478621 0.07745907 0.1958104
000060 c7 a9 09 3e bb 5f d3 3d 3c c4 2a 3d f1 b5 c5 bd
       0.13443671 0.103209935 0.04169105 -0.09653843
000070 7f 81 57 3e 10 0e 83 bd 15 a6 80 bd cd 97 02 bd
       0.21045493 -0.063991666 -0.06281678 -0.03188305
000080 71 27 22 3e 4a fa b6 bd 77 45 9f bd 81 ab 9b bd
       0.15835358 -0.089344576 -0.07776921 -0.07601071
000090 e7 5f c4 3d 83 a3 a1 3b 76 3c ca bd 6f 0a 76 ba
       0.095886044 0.004932822 -0.09874813 -0.000938571
0000a0 49 14 4c 3b ea b1 1b bd 58 8a b6 3d fc 54 71 bd
       0.003114002 -0.03801147 0.08913106 -0.058918938
0000b0 4d bf 9c bc 03 6d 3f bd cb 92 15 bd 56 01 2e bd
       -0.019134188 -0.04673482 -0.036516946 -0.042481743
0000c0 f1 55 f8 bd df 7f 2d 3d fc a2 89 3c 83 8a c2 bd
       -0.12125767 0.042358276 0.01680135 -0.09499075
0000d0 ea b8 58 3e 15 1d b4 3b e8 ca 94 bd 07 08 ae 3b
       0.21164289 0.005496631 -0.07265264 0.0053110155
0000e0 3c 51 4f 3d 6f f1 5c 3d 1f 81 c6 bc c1 14 45 bd
       0.05061458 0.053941187 -0.024231492 -0.048115496
0000f0 3e 68 7b 3e 6a 1c 25 3d 86 a4 10 bd 41 26 ba bd
       0.24551484 0.0403103 -0.03531315 -0.090893276
000100 b9 61 e5 bc 18 0b 55 bd e2 dc 82 3d bd b4 6f bd
       -0.0280007 -0.052012533 0.06389786 -0.058521975
000110 01 16 00 3d a1 ea 40 3e e3 a1 b8 bd 1f 0d 88 bd
       0.031270985 0.18839504 -0.090152524 -0.06643128
000120 1a 96 15 3d b2 48 ab 3d 27 b9 2e 3e 13 47 d9 3d
       0.0365201 0.08363475 0.17062818 0.106092595
000130 99 2e 88 3d 4f 7d 09 3e 99 98 b3 be 0a 26 f1 bd
       0.06649513 0.13426708 -0.3507736 -0.117748335
000140 53 2b b0 3d 15 d0 50 3e d7 c8 67 3e 90 bc 83 bd
       0.086020134 0.20391877 0.22635208 -0.0643245
000150 c6 2a e4 3d cf 85 fd ba 69 b9 1d be b1 47 3b bc
       0.11140971 -0.0019342246 -0.1540276 -0.011430667
000160 18 ef 1c 3e 51 2c 1f 3e 2c 76 07 be d3 58 1e be
       0.15325582 0.15544249 -0.13228673 -0.15463571
000170 af 5c 8f 3c a2 95 e8 bc 2a 0a 45 be 22 3e 6c bd
       0.01750025 -0.028391663 -0.19242159 -0.057676442
000180 74 61 3b 3e 4b eb 22 bc 46 bd 94 bc 91 d8 8d 3e
       0.18298894 -0.0099437935 -0.018156659 0.2770429
000190 7c 59 b7 3d 7a 34 56 3d b3 f3 7d bc 97 38 cc 3c
       0.08952615 0.05229614 -0.015499997 0.024929328
0001a0 8a a4 a5 3c 72 04 91 bc f5 2a 33 be c2 00 22 3e
       0.02022006 -0.017702315 -0.17496856 0.15820602
0001b0 b5 97 7d bc 6f 83 87 bd 24 f9 4a 3e cc aa 53 bd
       -0.015478064 -0.06616866 0.19821602 -0.051676556
0001c0 fe 14 54 3d 60 71 1a 3e 9e 9f 8d be 46 42 f9 3d
       0.051777832 0.15082312 -0.2766084 0.12170844
0001d0 e3 e2 04 3e 57 45 8a bc 6a d6 b2 bd 19 84 f0 bd
       0.12977175 -0.016878767 -0.087323025 -0.11743946
0001e0 1a 37 d7 3d d4 de 57 3c a4 f3 f8 bd d1 1b 1e 3e
       0.10508557 0.013175685 -0.12155846 0.15440299
0001f0 ea 97 db bd fe 75 2b 3d 66 9d 9a bd 45 bb af bd
       -0.10722335 0.041860573 -0.075495526 -0.08580641
000200 3d fa e5 3d e3 fd 48 bd d0 7e 66 3e 5c a9 35 3e
       0.1122937 -0.04907025 0.22509313 0.17740387
000210 31 c4 6e bd 61 bb 1f be 1a ab 91 be fa 94 99 bc
       -0.05829257 -0.15598823 -0.28450853 -0.018747795
000220 b6 b9 05 3e 8e 01 8e 3e 87 93 f2 3d f3 21 ab 3d
       0.13059124 0.2773556 0.11844545 0.08356085
000230 19 92 f8 3d b3 29 4a 3e 6e e6 31 3e 91 16 8f 3d
       0.12137241 0.1974247 0.17373058 0.06986726
000240 e4 b4 4f 3e c1 48 85 3e 1d ee 50 3e 9c bf 95 3e
       0.20283848 0.2603207 0.20403333 0.2924775
000250 be dd 6e 3e 49 2e 1e 3e f4 88 bc 3c 04 22 0f 3e
       0.23326775 0.15447344 0.023014523 0.1397782
000260 86 23 d1 3d 6f 36 07 3e 20 b1 ea 3d f4 94 9f 3e
       0.10211854 0.13204359 0.11459565 0.3116833
000270 f2 e5 5a 3e 98 cd 3a be e9 44 1b 3d ca 4e 35 3d
       0.2137678 -0.1824249 0.037907515 0.044264592
000280 14 d7 80 3e 40 24 50 3e e1 07 9b 3d 2d 31 24 3e
       0.25164092 0.20326328 0.07569862 0.16034384
000290 fd 8b da 3e 20 78 f9 3d 04 eb a7 bd 9d 67 b4 3d
       0.42684928 0.12181115 -0.081991225 0.08808825
0002a0 a3 d9 45 bc e9 b1 86 3d 78 83 17 be c3 b9 b3 3b
       -0.012075814 0.065769024 -0.14796245 0.005484791
0002b0 c8 58 bb 3d 19 5e 80 3e 7a e9 9c bd fe dc cb bd
       0.09147793 0.2507179 -0.076617196 -0.0995426
0002c0 84 dc 18 be 46 eb d4 3c 9b 01 4f be c4 67 7c 3e
       -0.1492787 0.025991093 -0.20215456 0.24648958
0002d0 31 70 8f 3c 66 fa df 3d 66 5f b0 bd ea 3b 4d 3e
       0.017509552 0.109364316 -0.08611946 0.20042387
0002e0 29 64 d3 bd d3 79 5a bd e4 fb 76 3c 78 37 db 3d
       -0.103218384 -0.053338837 0.015074704 0.10703939
0002f0 9e 79 a0 3d b4 a4 85 3e 8f 4e 13 3d b8 33 26 ba
       0.07835697 0.2610222 0.03596359 -0.0006340104
000300 67 52 9b 3e d0 33 17 be 58 29 e0 3d 87 0c 2d 3e
       0.30336305 -0.14765859 0.10945386 0.1689931
000310 f3 da d3 3d 1d a6 cb bd eb 1d 0a 3d ee 24 91 3d
       0.103444956 -0.09943793 0.03371994 0.07087122
000320 9c f7 8d 3d d6 21 de 3d 00 cc 8f bd 69 ea 64 3e
       0.06931993 0.108462974 -0.07021332 0.22355045
000330 e7 ca b6 3d e0 33 be bc ba 5d cb 3e 04 18 98 3e
       0.08925419 -0.023218095 0.39719945 0.29705822
000340 e5 4e 23 3e 56 57 bf bc c0 e1 96 bd f8 46 05 bd
       0.15948065 -0.023357075 -0.07367277 -0.032538384
000350 73 eb 5b 3b dc bc fd bd a7 ae d1 3d 39 12 fd bd
       0.0033557087 -0.12389538 0.102383904 -0.12356991
000360 b1 c1 07 3e 82 59 d0 bd 93 0e 9a bd a3 52 41 bd
       0.13257481 -0.10173322 -0.07522311 -0.04719795
000370 61 ba 1b be ce dc a5 be 58 02 65 be 62 4b 20 be
       -0.15207817 -0.32395023 -0.22364175 -0.15653756
000380 fc fa d6 3c cc 73 32 3d dc c5 b5 3d f7 87 41 3e
       0.026242726 0.043567464 0.08875629 0.18899523
000390 c0 21 af bd 48 bb 22 be ec d7 0f 3e b5 c8 be 3d
       -0.08551359 -0.15891755 0.14047211 0.093156256
0003a0 d5 26 ae 3d 09 82 0b be 96 a0 33 be ef 19 15 3e
       0.085035 -0.13623823 -0.17541727 0.14560674
0003b0 5f 81 47 3d d7 d1 78 be c9 48 e5 bc c3 dd 50 3d
       0.048707362 -0.24298798 -0.027988808 0.05099274
0003c0 75 7e 16 3e 9d 17 1f 3d 05 11 0d 3e f6 69 2a bd
       0.14696677 0.03884088 0.13776024 -0.04160496
0003d0 29 be 30 3e 71 69 41 3e f4 1b f5 bd 9d fd c5 3c
       0.1726004 0.18887879 -0.11968222 0.024168784
0003e0 ef 00 27 3b 08 9e 9c bd 0b 60 96 3c 2f 17 42 bd
       0.0025482734 -0.076473296 0.018356344 -0.04738539
0003f0 0c aa aa 3d 43 0c ce bd 18 93 78 be 44 74 c5 3d
       0.08333215 -0.100609325 -0.24274862 0.096413165

bias f4 [32]
000000 5b 41 96 bd a8 e8 c5 bb 26 e0 86 bc 07 26 23 bc
       -0.07336684 -0.0060396977 -0.016464304 -0.009957797
000010 49 60 05 bd 58 af 8c bb a8 a9 ac bb bb 1c 13 bc
       -0.032562528 -0.0042933635 -0.005269248 -0.008979018
000020 d0 92 f9 ba c1 60 41 bb 61 8a ba bb 15 47 ef ba
       -0.0019040946 -0.0029507133 -0.0056927656 -0.0018255437
000030 f5 8d ac 3b 99 8f bf ba cd c7 32 3d ac d8 a1 bb
       0.005265946 -0.0014614939 0.043647576 -0.0049391594
000040 15 f5 d1 3c 5d f7 40 bc 76 7d 96 ba a8 8f 0d bb
       0.02562956 -0.011777726 -0.0011481482 -0.0021600518
000050 e1 fd af bc 0b 60 6a bb 13 2f 0e bc fc 57 98 bb
       -0.021483364 -0.0035762812 -0.008678216 -0.0046491604
000060 ec c6 8a 3b 8e 8e 82 bc f6 e5 86 3c d1 42 8a bc
       0.004235139 -0.015937116 0.016467076 -0.016877564
000070 07 1a 11 3d 5e 88 15 3c 60 49 56 bd c1 f5 ae bb
       0.035425212 0.009126751 -0.05231607 -0.0053393547

weight f4 [64, 32, 4, 4]
000000 d1 e1 a1 3d ee 30 a0 3d 5a df 90 3c 8f a8 ca bd
       0.07904399 0.078218326 0.017684627 -0.09895431
000010 fc 11 cf 3b 35 55 b4 3d cc 8b b3 bc 95 b4 ae 3c
       0.0063192826 0.088053145 -0.021917246 0.021326343
000020 cb d5 66 3c 77 30 46 bd e1 14 b8 3d a1 35 e5 3d
       0.014089058 -0.048386063 0.08988357 0.111918695
000030 f7 32 66 3d da ed ba bc 4b ea 14 bc 6b 9b 48 be
       0.056200948 -0.022818495 -0.009089063 -0.19590537
000040 51 42 08 be 6f fb 22 3e bf ea 17 be 23 21 68 bd
       -0.13306548 0.15916227 -0.14835642 -0.056672227
000050 7e b3 55 be 37 c6 f9 3c 09 c8 d0 3d 05 27 4b bd
       -0.20869252 0.030490024 0.10194404 -0.04959776
000060 48 d9 8b 3b 50 1e 2e 3e a3 d8 5d bd 98 8d 4c bd
       0.0042678453 0.17003751 -0.05416168 -0.04993972
000070 1e e9 80 bd 1a 5a 27 bb 1d 3c 94 3d 18 95 29 bd
       -0.062944636 -0.0025535882 0.07238028 -0.041401953
000080 94 d3 20 be c6 ba c4 3d 84 29 ac 3d fe 61 09 3d
       -0.1570571 0.09605937 0.08406356 0.03354072
000090 ea 2b a2 3c 3f 1f be 3a 45 bd c4 3d 53 04 c0 3d
       0.01979633 0.0014505162 0.09606413 0.09375825
0000a0 8c e4 02 be d1 be 9d bc 65 7a 5a 3d 3d 77 0d bd
       -0.12782496 -0.019256027 0.05333938 -0.034537543
0000b0 b2 07 37 3e 47 68 97 3b fe db 2f bd db 8a a2 3d
       0.1787403 0.004620585 -0.04293441 0.07936641
0000c0 5c d6 52 3d c9 a5 e0 bd 49 33 9a bd fb d9 e4 bd
       0.05147396 -0.10969121 -0.07529313 -0.11174389
0000d0 c1 7f f9 3d fd 60 1c 3e 55 9a d9 bd 29 bd 16 3e
       0.1218257 0.15271373 -0.106251396 0.14720596
0000e0 ce f9 1f 3d eb c7 67 3e aa 20 20 3e fe 1d 88 3d
       0.03905659 0.22634856 0.1563746 0.066463456
0000f0 d9 63 4a 3e 94 9c a3 3d 44 ff 95 3c 35 33 82 3d
       0.19764651 0.07988849 0.018310197 0.06357423
000100 b4 1e 95 bd 7f 28 00 3d 22 ad a3 bc 85 b5 5a bd
       -0.07281247 0.03128862 -0.019980017 -0.053395767
000110 b8 12 ea bc ce 78 ec bd 24 20 d2 bb 58 c7 eb 3d
       -0.028573379 -0.11546479 -0.006412523 0.11512631
000120 ad 70 96 bd ea 02 08 3d 4b 7e 36 bd 3b 11 db 3a
       -0.0734571 0.033205904 -0.044554036 0.0016713509
000130 82 9f e6 3c 95 d6 05 3e 10 91 b8 bd 52 f5 fb bd
       0.028152231 0.13070138 -0.090120435 -0.123026505
000140 9e 91 c9 3c 70 72 40 3e dd 14 25 3c dc 43 91 bd
       0.024605568 0.18793654 0.010075775 -0.07093021
000150 71 4f 09 3d 6e ec b7 bd af 15 90 3d 80 37 c5 3d
       0.033523027 -0.08980642 0.07035386 0.096297264
000160 04 56 63 bd 22 04 62 3e 1c fb 12 be 52 5a ec bb
       -0.055501953 0.22071889 -0.14353603 -0.0072129155
000170 7c 86 1a 3d 51 86 18 be b9 57 ea 3b 9e 30 c6 3d
       0.03772591 -0.14894988 0.0071515706 0.09677242
000180 84 98 2d 3d 9c 71 86 3c 4b 89 76 bd e6 1b b0 bd
       0.04238178 0.016411595 -0.060189527 -0.08599071
000190 7c f5 91 bd 23 5f a7 bd f8 74 a9 bd 97 9e 2b bc
       -0.071269006 -0.08172443 -0.08274263 -0.0104748225
0001a0 79 1e 28 bd 46 44 53 bd ba 7d 63 bd df bd cf 3d
       -0.041044686 -0.051578782 -0.055539824 0.10143637
0001b0 4f d7 ae bd 4d fd 23 3d 9a 6c f8 3d 6a c0 09 be
       -0.085371606 0.04003649 0.12130089 -0.13452306
0001c0 f8 f2 9a 3c 63 c2 25 bd a9 ea de 3a 41 7d a5 bd
       0.018914685 -0.040468585 0.001700719 -0.08080531
0001d0 8c 93 34 3e 41 d6 42 3e 0b 6a a7 3d 06 02 49 3d
       0.1763441 0.19027044 0.08174523 0.049074195
0001e0 e2 cc 57 3b 73 b7 d1 3d 6e af 0f 3e 5a 47 28 bd
       0.0032928516 0.10240068 0.14031765 -0.04108367
0001f0 cd 92 33 3d 89 20 15 3e 3c f1 b6 bd b4 8f db bd
       0.043841172 0.14563192 -0.089327306 -0.107207686
000200 be 49 52 3c 3f 4e 02 be e1 21 ab bd ad 31 7a 3c
       0.012834964 -0.12725161 -0.08356071 0.015270633
000210 66 41 1f 3e 85 db 91 3c d5 cd 2a be 93 5e 24 3e
       0.15552291 0.01780487 -0.16680081 0.16051702
000220 a1 bc d6 3c 8b 9e 35 3d 97 e1 80 bd c8 f0 21 3d
       0.026212992 0.04434065 -0.06293028 0.039536268
000230 9d af b4 bd 60 d9 fa 3d 2a 23 98 bd ce 1f 3d bd
       -0.08822558 0.12248492 -0.07428582 -0.04617291
000240 c9 49 13 3e 78 91 cd bc 4e bb 16 be aa 4d 9e 3b
       0.14383616 -0.025093779 -0.14719889 0.0048310356
000250 62 4c 20 3d 24 51 97 3d a5 5e 41 3d 39 70 82 3d
       0.039135344 0.07388523 0.0472094 0.06369061
000260 c8 22 fa bc d9 64 7e 3a 69 78 d6 bd d0 6e e5 3d
       -0.030534163 0.00097043585 -0.10472185 0.112027764
000270 59 e5 80 bc cb 40 ab bc f4 3d 23 bd b1 1b d5 bd
       -0.015734361 -0.02090492 -0.039854005 -0.10405672
000280 de 41 74 3c e0 ef 79 bd 02 59 ba bd 59 78 95 bd
       0.014908282 -0.06101978 -0.09099008 -0.07298345
000290 62 34 39 bd 17 69 0b bd f0 63 a4 bd 7c 29 93 3b
       -0.04521597 -0.03403577 -0.08026874 0.0044910293
0002a0 21 9a 42 bd 53 d0 be 3d 0f 5b a3 bd 34 97 38 bd
       -0.04751027 0.093170784 -0.079763524 -0.045066074
0002b0 ca b6 57 bb e3 c8 9d bd 30 1f 15 bd 5a 6c f3 bd
       -0.0032915347 -0.07704332 -0.036406696 -0.11885901
0002c0 95 6d cd bc 83 d4 29 3d 48 eb 84 3c d3 5e 12 3d
       -0.025076667 0.041462433 0.016225472 0.035734963
0002d0 65 30 8b 3c 2c c9 94 3d 20 60 7e 3e 4c 85 be 3d
       0.01699085 0.07264933 0.24841356 0.09302768
0002e0 7e 3c 34 bd 1a 3f e6 bd 4d bd 50 3e 8a 55 29 bb
       -0.044003002 -0.112425044 0.20384713 -0.0025838339
0002f0 f1 86 22 be 71 37 64 3c 0a 95 97 3d ba 69 39 bd
       -0.15871789 0.013929234 0.07401474 -0.045266844
000300 19 a5 66 bd 33 9f 3a bd 65 22 95 bd 6a e2 9f 3d
       -0.056309793 -0.04556198 -0.07281951 0.07806857
000310 7e e4 1f 3e 48 77 fa bc 08 7f 98 3d a2 38 a9 3c
       0.15614507 -0.030574456 0.07446104 0.020656887
000320 ca 7c 2a 3d be 50 c1 bc 2a da e8 bd 9b 30 d9 bc
       0.041622914 -0.023598071 -0.113697365 -0.026512435
000330 6f a8 6d 3d d8 db 4e 3c e7 72 33 bd d6 0d 68 be
       0.05802196 0.012625657 -0.04381075 -0.22661528
000340 7a 52 67 3d 6b 0b ae bd a4 79 30 bd 22 58 32 3d
       0.05647514 -0.084982716 -0.043084756 0.04354108
000350 a1 9b 0e 3e 65 26 9c bc 80 67 e7 bd aa c1 84 3c
       0.13926555 -0.019061277 -0.11299038 0.016205627
000360 fa e4 92 39 a0 08 b3 bd 82 65 33 3d 4f 76 e7 3d
       0.0002801789 -0.087418795 0.043797977 0.113018624
000370 4c 44 ab 3d 45 91 e7 3b 77 6f 3c bd e0 41 c1 bc
       0.08362636 0.007066878 -0.04600474 -0.023590982
000380 48 b3 c8 3c df 73 9e bd 45 f1 74 be c4 a0 1e 3e
       0.02449955 -0.077369444 -0.23920162 0.15491015
000390 c5 9b 3e bc 96 d1 0c bd 99 12 db bc 9c bf de 3d
       -0.011633818 -0.034379564 -0.026742266 0.1087639
0003a0 5c 74 a0 3d 7f b6 20 bd aa dc 88 3c 79 33 7d bd
       0.07834694 -0.03923654 0.016706783 -0.061816666
0003b0 ec 16 b8 3c 39 39 90 3c 44 f2 d8 bd e0 49 e8 bd
       0.022471868 0.01760541 -0.105930835 -0.113422155
0003c0 59 25 27 3e f5 6f 8a 3c ab 4e cb 3d 66 54 d1 bd
       0.16322841 0.016899088 0.09927114 -0.10221176
0003d0 c5 e1 96 bd 6c 94 dc bd dc 0c ae bc 1e c2 13 bc
       -0.07367281 -0.10770497 -0.021246366 -0.009018449
0003e0 f0 ab 32 be 37 1e 4b bd b3 61 4d 3d 04 0e 7c 3c
       -0.17448401 -0.049589362 0.050142 0.015384201
0003f0 89 36 cf bb 74 b4 c8 bd ab e2 46 be 44 68 9d bc
       -0.00632364 -0.09800044 -0.19422404 -0.019214757

bias f4 [64]
000000 86 5b b9 3c e8 9d 9f bd b6 c4 1b 3c c5 67 2d 3d
       0.02262665 -0.0779379 0.009507349 0.04233529
000010 e4 7d 78 bc 16 5f 88 3c b5 64 a5 3d ef 03 29 bc
       -0.015166733 0.016646903 0.08075849 -0.010315879
000020 b6 19 98 3c d9 14 ce 3d c6 a0 80 3d bb 79 1b 3b
       0.018566947 0.1006257 0.06280665 0.002372368
000030 fc 40 d1 3c 89 cc bc bc 31 65 85 3d 5d 81 34 3d
       0.025543682 -0.023046749 0.06513441 0.044068683
000040 9a bd df bc 3e d8 7f bc ac 49 b2 bd e6 0b bf bc
       -0.027312089 -0.015615521 -0.08705458 -0.023321103
000050 8b 13 03 3c f0 fc ab bc bc 90 85 bd d6 db ec bc
       0.008000265 -0.020994633 -0.065217465 -0.02891342
000060 71 36 ac 3d e4 96 b3 3b 58 0e 96 3d f7 43 3f bd
       0.084088214 0.005480634 0.073269546 -0.046695676
000070 4d ae d9 bc b6 6a e7 bb 36 e0 a6 bc 1f 13 2f be
       -0.02657237 -0.0070622815 -0.020370584 -0.17097138
000080 3f 54 24 bd db 18 3e 3d be 79 c4 3d c4 be 89 bb
       -0.040119406 0.046410423 0.09593533 -0.0042036492
000090 8b 71 1f 3d 62 ec af bb 17 c2 aa 3b fe d3 c3 bc
       0.038926642 -0.005368755 0.0052111256 -0.023904797
0000a0 bb 8d d5 bd e4 15 e3 ba 92 51 e5 3c 7d c9 a5 3d
       -0.104274236 -0.001732525 0.027992997 0.080950715
0000b0 47 bf 2a bd 53 f3 76 bc 38 5a 0a 3d fc 3a c3 39
       -0.041686323 -0.015072661 0.033777446 0.00037237245
0000c0 3e ce 5d bd 18 04 74 3c 2c b3 c5 3d a8 79 58 bc
       -0.054151766 0.014893554 0.09653315 -0.013212599
0000d0 97 38 5c bb 77 23 fd bd e8 0c fd 3b ad 93 b5 bc
       -0.0033603066 -0.1236028 0.007722486 -0.022165144
0000e0 f3 f6 16 bd 48 01 20 3d 13 89 b8 bd 8f 67 9a 3d
       -0.036856603 0.039063722 -0.0901052 0.075392835
0000f0 75 45 8b 3d 0f 31 02 bd 9e 08 76 3c f8 cc f0 3b
       0.06800357 -0.031785067 0.015016703 0.007348653

weight f4 [64, 64, 3, 3]
000000 da 62 1a be 6d 70 f7 3d 28 b9 8f 3d fe d1 eb 3d
       -0.15076771 0.120819904 0.070177376 0.11514662
000010 4c 07 4e bd ee 48 45 3d d6 0f d3 bd 52 1b 0b be
       -0.050299928 0.048165254 -0.10305755 -0.1358464
000020 f3 cc 32 3d 1f e5 cf 3c c7 bc 95 38 8d 8e 35 bd
       0.043652486 0.025377808 7.140036e-05 -0.0443254
000030 60 e2 98 3d 76 7e 63 3b 29 90 9b bd 74 a1 cb bc
       0.074650526 0.0034712828 -0.07595856 -0.02485726
000040 2d a2 9f 3c 7a 21 9b bd 3a 4b 3e 3e be 5f 07 3e
       0.019486511 -0.075747445 0.18583384 0.13220116
000050 8b d9 89 3c a2 10 59 bc 2f f1 8d 3b a0 9c b1 bb
       0.016827365 -0.0132485945 0.00433173 -0.0054202825
000060 dd 1c 0c 3d 3e e2 d9 3b 4a ef d0 bd e4 09 0c 3c
       0.034207214 0.0066492846 -0.10201891 0.00854728
000070 40 5b 46 3d 8d b9 43 3d ce b6 f0 bd ab e6 1c 3d
       0.048426867 0.047784377 -0.11753617 0.03830592
000080 7a 37 4f bd 6c 27 0c 3d 77 1c 36 3d 94 56 43 be
       -0.050590016 0.034217283 0.04446074 -0.19075996
000090 92 ad 87 bd ab 51 26 3e c7 55 38 3e 74 50 e3 bc
       -0.06624903 0.16242091 0.18001471 -0.027748324
0000a0 dc 5f 88 bd bf 35 37 be a4 f8 2f bd d7 a1 29 be
       -0.06658909 -0.17891596 -0.04296173 -0.16565643
0000b0 fa 06 f8 bd d1 b2 b5 bc 8a e0 c4 3c f6 0d c9 bb
       -0.12110706 -0.022179993 0.02403285 -0.0061356975
0000c0 bb 36 3a bd 7d b4 01 be 6f fd 5a bc 64 9d be 3c
       -0.04546235 -0.12666507 -0.013366087 0.02326841
0000d0 85 1a aa bb 8b c9 d4 3b ef 43 7b 3d 80 c9 14 3e
       -0.0051911497 0.0064937524 0.061344083 0.14529991
0000e0 bf a0 94 3c b6 f0 b4 bd 2b db b7 bd 9a a1 e4 bd
       0.018143056 -0.088349745 -0.0897735 -0.111636356
0000f0 44 ad 6c 3d 54 01 ba 3d 3a 24 82 3d 1b 0e 5b 3d
       0.057782426 0.090822846 0.06354566 0.05348025
000100 27 e4 90 3d c0 8f 83 3c 0d 9c e7 bd 00 16 14 3d
       0.070747666 0.016059756 -0.11309061 0.036153793
000110 c8 cd 9c 3d 21 fc a4 3a 71 01 fa ba d5 eb b9 bd
       0.07656437 0.0012587347 -0.0019073916 -0.090781845
000120 d0 a8 8b be 77 7f d0 ba c3 50 e6 3d 5e c1 aa bd
       -0.2727723 -0.0015907128 0.11245873 -0.08337663
000130 0e 34 15 3d 95 bb 2b be 3b e1 a8 3c 3c 67 89 3c
       0.036426596 -0.16770776 0.02061521 0.016772859
000140 29 f8 13 3d 8a 8f bc bd f6 d4 0a 3e dc be c6 3d
       0.036125336 -0.092070654 0.135578 0.09704372
000150 51 19 9c 3d 1d 1b 9d 3d 7b 6a 8b 3b 34 da 00 be
       0.07622016 0.07671187 0.004254637 -0.12583238
000160 b8 bd 1b 3e 44 8f 18 3d ad 3f 14 bd 9b 54 1c bb
       0.1520909 0.037246004 -0.03619354 -0.002385414
000170 11 8d 8e bd c9 76 8c 3c 43 90 9b 3c 2d 86 c4 3d
       -0.069605 0.017146485 0.018989688 0.095959045
000180 de a3 cf bd f2 32 06 3e 54 5b 5e 3e 7d d1 26 be
       -0.10138677 0.13105372 0.21714526 -0.16290851
000190 b0 5d a3 bd 15 6e a0 3c 28 75 83 bd d6 4a 03 bd
       -0.07976854 0.019583741 -0.0641883 -0.03205379
0001a0 01 89 a6 bd ae cd 9e bd 97 12 d8 3d 3a 97 f3 bd
       -0.081316 -0.07754074 0.10550421 -0.118940786
0001b0 99 2c 4c bd 04 61 8d bd 5e 2d 48 3d 90 f1 e0 bd
       -0.04984722 -0.0690327 0.04887139 -0.109835744
0001c0 41 68 2f 3b 75 f5 a5 3d 80 ec 9e 3d 2d 17 2f bd
       0.002676502 0.08103458 0.077599525 -0.04274671
0001d0 8c 66 81 3d aa ab 91 3b 74 be 1b 3e e8 6e 92 3c
       0.063183874 0.004445513 0.15209371 0.01787515
0001e0 b8 2a 4f 3e ad cd 20 3e 25 aa a4 3d 1f 9a 17 bd
       0.2023114 0.15703459 0.08040265 -0.037012216
0001f0 aa d0 8b bd 2d 96 f9 3c fc ff a0 bd 72 48 db 3d
       -0.06826909 0.030467117 -0.07861325 0.10707177
000200 a7 c9 61 3d d6 03 dd 3d e4 d4 81 3d 3a d1 4c be
       0.05512395 0.10791747 0.06339434 -0.20001689
000210 03 27 b2 b7 f5 ad 63 bc 0c 39 50 3d 0c 10 4c bd
       -2.123742e-05 -0.013896455 0.050835654 -0.04981999
000220 1d d5 e7 3d 57 3b 39 3d d2 9e 84 bc 2a b4 11 be
       0.11319945 0.045222607 -0.016189013 -0.14228883
000230 c8 66 24 bd 33 39 5b 3c 8c a0 94 bd 9f 02 49 be
       -0.040137082 0.013380337 -0.072571844 -0.19629906
000240 64 df a3 bd 29 72 0a 38 43 d7 8e 3b f7 e8 84 bd
       -0.08001593 3.3008084e-05 0.0043591573 -0.06489747
000250 2a 2a be bd dd 1c 8a 3c 37 2e 42 bd fb a4 7d bd
       -0.09285386 0.016859466 -0.047407355 -0.061924916
000260 ba f1 d9 3d ed 56 d2 3d 21 1c a9 bc 9c 0d bc bd
       0.10641809 0.10270486 -0.020643296 -0.09182283
000270 f9 79 5e bd ef 1a cb bd 7b 2c 9b 3c ec ae c5 3a
       -0.05431554 -0.099172466 0.018942108 0.0015082038
000280 df 20 ad 3d d8 69 13 b9 73 64 e3 3d 77 31 17 bc
       0.08453535 -0.00014058442 0.111031435 -0.009228102
000290 4c 3e ee 3d 17 01 6e 3d ac 67 0e 3e 33 79 c9 bc
       0.11632976 0.058106508 0.13906735 -0.024593925
0002a0 2b 5c d0 bd 35 36 81 bc e5 f8 99 3c 9a bd 0c bd
       -0.1017383 -0.015772918 0.01879544 -0.034360506
0002b0 b0 b4 36 bd 5b 48 dc bc d3 76 7d bd 91 c8 11 be
       -0.04460591 -0.02688997 -0.061880898 -0.14236666
0002c0 53 61 aa bb a1 1e 57 bd 66 3c 7d 3c c2 1e 13 3e
       -0.00519959 -0.052519444 0.015456295 0.14367202
0002d0 6b 3f 15 bd 64 1a 74 3c 31 67 e6 3b 6a f1 0b be
       -0.036437433 0.01489887 0.0070313443 -0.13666311
0002e0 c4 72 01 bd 61 c8 0c bd 3b 7b 16 3c 05 7d 26 be
       -0.03160359 -0.034370784 0.009184654 -0.16258629
0002f0 bf b4 3e 3d bb 7b a7 3d 37 4b cb 3c 2b d8 52 3d
       0.04655909 0.081778966 0.024816139 0.051475685
000300 03 5c ec bc 6b 71 98 3c db e3 4f 3d f8 da 4a 3d
       -0.028852468 0.01860877 0.05075441 0.04952523
000310 c4 fc 66 bd 8d b1 ae 3c 7a 47 21 bb 0f e6 b3 bc
       -0.0563934 0.021324897 -0.0024609254 -0.021960286
000320 72 6e f3 bc 1e 3d de bd 67 ea ea bc 58 e0 ef 3c
       -0.02971575 -0.10851501 -0.028676225 0.02928178
000330 79 57 aa bc 8a 7b 0f bd d1 14 f4 3c d2 0b 60 bd
       -0.020793663 -0.035029925 0.029795082 -0.054698773
000340 d8 df 3a 3d 5a 5f 37 be ec be 53 3d 42 4b ea bc
       0.04562363 -0.17907467 0.05169575 -0.028600339
000350 81 24 13 3d c0 e6 b8 bd 93 58 27 3d c8 1a 10 3e
       0.035923485 -0.09028387 0.040855955 0.14072716
000360 ee 70 9d bd 4c 76 14 3e 4c e2 cd bd dd bd a1 bd
       -0.07687555 0.14498252 -0.10052928 -0.07897542
000370 91 c9 3a bd a4 e5 79 3b b6 b6 d9 bd 09 e7 8e bd
       -0.045602385 0.0038131261 -0.106305525 -0.0697766
000380 29 a2 bf bb 98 35 59 bd 63 8b a1 bd 59 06 c5 3d
       -0.0058481884 -0.053029627 -0.07887914 0.09620351
000390 17 99 40 be 26 69 22 bb 6e 7f 44 bc 8c d6 27 3b
       -0.18808399 -0.0024781912 -0.011993272 0.0025610058
0003a0 bf d5 1f 3c 0b d8 5d bc c2 f3 94 3c e5 03 8b bd
       0.009755551 -0.013540278 0.018182639 -0.06787852
0003b0 e4 e7 03 be d7 41 b9 3d 28 a9 b8 bd 6e 8e 60 bd
       -0.12881428 0.09045761 -0.09016639 -0.05482333
0003c0 e6 dd ee 3c 30 60 f2 3d f1 f2 88 3e 4c 2c cc 3d
       0.029158544 0.118347526 0.2674785 0.099693865
0003d0 c8 f7 70 bd 22 8d 50 bd 90 76 07 be 3e da 49 3d
       -0.058830053 -0.050915845 -0.13228822 0.049280398
0003e0 05 2c 03 3d 89 f6 01 be 9f 0c 98 bd 25 56 72 3d
       0.032024402 -0.12691702 -0.07424282 0.059164185
0003f0 da 2d 13 bd ad 9c 3e bd 46 40 08 3d ea 1f ef 3b
       -0.0359324 -0.046536136 0.03326442 0.0072975056

bias f4 [64]
000000 ff c7 2a 3d 5a 64 09 3d 90 ae 28 3d c8 76 8f 3c
       0.041694637 0.03354297 0.0411821 0.017512694
000010 7c 5e 7e 3c 4c 9e 3f 3d f1 4c d0 bd 3f d2 46 bd
       0.0155254565 0.046781823 -0.101709254 -0.04854035
000020 fe d5 05 3d 76 aa 56 3d 56 fd 18 bd 2d 03 3a 3d
       0.032674782 0.052408658 -0.037350975 0.045413185
000030 0e 40 cd 3d 35 78 a6 3c 2b f6 c4 3d 9d 8d f6 bc
       0.10021983 0.020320991 0.09617265 -0.030096823
000040 22 42 35 3d 5d 8d 0c bd 5c cc 8e 3d e8 32 c0 3c
       0.044252522 -0.034314502 0.06972572 0.023461774
000050 b8 3b fe 3d 9a c0 7d bd db 42 b3 3d 28 d7 85 3c
       0.12413734 -0.061951257 0.08752986 0.016337946
000060 4e 80 69 3d 01 d0 0d bd 72 57 8d 3b 02 a5 2e 3d
       0.057007127 -0.034622196 0.004313403 0.042637832
000070 40 cd d6 3c af 21 da 3d 6c 61 72 3d a6 e6 95 3d
       0.026220918 0.10650956 0.05917494 0.07319383
000080 bc 79 96 bc 4f 0d 81 3d a0 e8 2f 3d 17 1d f5 3c
       -0.018368594 0.063013665 0.042946458 0.029921098
000090 b7 76 a9 3c ea 27 31 bd 9d fc 7f 3d 77 92 b6 3b
       0.02068649 -0.043250956 0.06249677 0.005571659
0000a0 50 e3 23 3d 09 3a 05 3d c6 df ab 3d c8 79 81 bc
       0.040011704 0.03252605 0.08392291 -0.01580514
0000b0 8b 1a d6 3c 5c bb 30 bc c0 11 be bd f4 b3 18 bd
       0.026135704 -0.010786857 -0.09280729 -0.03728099
0000c0 05 77 6f 3d 81 a0 06 bd 8d 92 83 bc 27 9a 91 bb
       0.058463115 -0.032867912 -0.016061092 -0.004443425
0000d0 ef c7 3a 3c f6 1d 5f bc b2 31 92 bd 8d 79 dc 3b
       0.011400207 -0.013617983 -0.07138385 0.006728357
0000e0 3d 65 ee 3d 5b d8 06 3d 97 07 a4 3d e9 8c a9 3b
       0.116404034 0.032921176 0.0800926 0.0051742685
0000f0 b2 c7 b3 3d 5b 1e f1 3c 12 0d 53 39 40 7a 93 3c
       0.08778323 0.02943342 0.00020127397 0.01800263

weight f4 [128, 1024]
000000 04 c5 f5 3d 7c 0c 2f bd 99 eb 19 3d 9d 39 e9 bc
       0.120004684 -0.042736515 0.0375782 -0.028469855
000010 18 14 0b 3d 95 87 6b bc e0 6d 08 bb 41 e6 c9 3c
       0.03395471 -0.014375587 -0.0020817444 0.024645926
000020 75 1d 8f 3d e2 d6 2a be 1d a2 96 3c 41 ba 80 bd
       0.0698804 -0.16683534 0.018387849 -0.06285525
000030 47 7d 17 bd fc d9 90 3d f4 09 04 3d 6e 79 4d bd
       -0.03698471 0.07072827 0.032236055 -0.050164632
000040 4a 80 5b bd eb e0 b8 3b 7c 97 09 3d 41 e5 ce 3d
       -0.053589143 0.0056420467 0.033591732 0.101023205
000050 7d b0 62 bb 33 7b 83 3c 74 06 2f 3d 80 ce 57 bc
       -0.0034590058 0.016049957 0.042730764 -0.013171792
000060 5c 34 58 bd a7 7f 99 bc 27 b3 2b bd 12 86 ed 3d
       -0.05278431 -0.018737627 -0.0419189 0.115978375
000070 40 f3 27 3e 2d 7f b0 bd b9 9f 95 3b c4 42 e6 3d
       0.16401386 -0.08618007 0.0045661596 0.11243203
000080 5c 0a b1 3c 70 9b 29 bc 57 3a d0 bc b3 bf d9 3d
       0.021611385 -0.010352001 -0.025418444 0.10632267
000090 11 3f 91 3d e2 99 36 bd db 92 77 3d a1 c4 bf bc
       0.07092107 -0.044580348 0.060442787 -0.02340919
0000a0 b2 bc 17 3e e0 9c db 3c 0a cf 44 bd eb 2b e6 3d
       0.14818075 0.026808202 -0.04804901 0.112388454
0000b0 d2 51 27 bd 38 ca b2 bc 7d e2 82 bc 1b 55 a1 3d
       -0.040849514 -0.021824941 -0.015977139 0.07877561
0000c0 c3 0d 32 be 45 67 97 3c 2e 21 7b bd eb ec d5 3d
       -0.17388062 0.01848186 -0.06131094 0.10445579
0000d0 e7 03 d4 3c a9 9f ac bd c5 27 04 bd 2b 7f ad 3d
       0.025880767 -0.0842889 -0.03226449 0.08471521
0000e0 2e e1 69 3d 99 78 4c bb 34 35 c5 3c bd a7 cb 3d
       0.057099514 -0.0031199811 0.02407322 0.09944103
0000f0 c9 b0 34 3d 22 21 8d bd 13 59 ae bb 00 38 34 3d
       0.044113908 -0.06891085 -0.005320677 0.04399872
000100 0f bf 70 bd d4 da 46 bd 89 21 36 be c5 9c b4 3d
       -0.058775958 -0.048548535 -0.1778623 0.08818964
000110 cb 7f db 3d e2 d1 f0 bc f8 af f0 bd 14 e0 86 bd
       0.10717734 -0.029396955 -0.117523134 -0.06585708
000120 d5 a4 b7 bd 77 54 46 bd 26 4b b9 3d 7c 92 a5 bc
       -0.08966986 -0.048420396 0.090475366 -0.02021145
000130 0c 60 38 3d 80 28 d4 bc ba f6 bb bd be d1 07 bd
       0.045013472 -0.025898218 -0.09177919 -0.03315901
000140 ce b7 d2 bd 6d e1 ea bc a1 db 58 3d 51 7c a0 bd
       -0.10288964 -0.028671945 0.05294383 -0.078362115
000150 8d 95 3a bc 3a f6 2e 3d df 04 1e bd bc b3 17 3c
       -0.011388195 0.04271529 -0.038578864 0.009259161
000160 49 59 9c bc 14 d6 0c bd 5d f9 8e bd 2b 61 86 3b
       -0.019085543 -0.03438385 -0.06981156 0.004100939
000170 5e 76 39 3c 61 00 d8 3c e5 2a 79 3d 93 28 d5 39
       0.011319725 0.026367368 0.060831923 0.00040656756
000180 f0 75 ad bc fa 21 6a bd 64 b5 54 3d e9 9e 0f 3d
       -0.021174401 -0.05716131 0.0519308 0.035063658
000190 c4 59 29 3d 5f a6 9f bd 39 73 57 bd ec e4 48 bd
       0.041345373 -0.07795405 -0.05260012 -0.049046442
0001a0 39 7c b6 3c f9 18 51 3d 55 6c 11 3c 86 ec d6 bc
       0.02227603 0.051049206 0.008875926 -0.02623583
0001b0 e1 02 b3 3d ac 4c e4 3c fc 43 f4 3d 43 47 30 3d
       0.087407835 0.027868591 0.119270295 0.04303671
0001c0 6f 37 88 bd 37 53 13 3d ff 2d 0c bd c0 67 0b 3d
       -0.06651198 0.03596803 -0.034223553 0.03403449
0001d0 86 cb 25 3b bb 10 1a be d8 3e 86 bc 71 56 81 3d
       0.0025298311 -0.15045445 -0.016387388 0.063153155
0001e0 8e 50 0d 3c 1b 52 80 3d 9a bb c3 bd c1 02 21 3d
       0.008625163 0.062656604 -0.095572665 0.039309267
0001f0 ea 3b 65 3d 66 2a c9 3d ed 0e a5 3d 89 18 c9 3b
       0.05596534 0.0982254 0.080594875 0.006136958
000200 f0 fb b6 3d 87 84 d4 3c f6 20 b2 3d ab 79 7b bc
       0.08934772 0.0259421 0.08697693 -0.015348832
000210 e4 2f e9 bb cf 79 68 3d fa 00 aa 3d d8 f3 9e 3c
       -0.0071163047 0.05675679 0.083009675 0.019403383
000220 61 30 ff 3d cc c9 0b bb 41 ca 85 bd 3c 63 51 3d
       0.124603994 -0.0021329997 -0.065327175 0.051120028
000230 96 91 38 bd 16 47 47 bd 06 52 0b bd ee fb a7 3d
       -0.045060717 -0.048651777 -0.03401377 0.08202349
000240 b1 a4 4e 3d 06 75 f5 bd 6e 4a 4c 3d 90 94 34 3d
       0.05045003 -0.11985211 0.04987567 0.044086993
000250 50 2b 23 3d c6 e3 80 bd b0 75 a3 bd 1a d0 35 3c
       0.039836228 -0.06293444 -0.079814315 0.011096979
000260 d9 9c c4 bd 2f 04 6c 3c 82 4c c0 3c 33 ff 8b bc
       -0.09600229 0.014405294 0.023473982 -0.017089462
000270 41 2b 2a 3d 68 c5 ce bd 0b 3f 94 bd 35 36 cb 3d
       0.041545156 -0.10096246 -0.07238587 0.099224485
000280 a1 63 b0 bd d1 6e 30 bd 16 dc c4 3d 74 d2 36 3e
       -0.08612753 -0.043074433 0.096122906 0.17853719
000290 7a c7 7d bd c1 83 28 be 1a 43 ec bc 6a 80 2b be
       -0.061957814 -0.1645651 -0.02884059 -0.16748205
0002a0 10 d5 c0 3d 6d 7d 17 bd 4f fb 90 bd 93 fd 8f bd
       0.094156384 -0.03698485 -0.07079183 -0.07030787
0002b0 49 dd 5d 3d ed 1c 94 bd e5 2b f8 3b 12 d2 6d bd
       0.054166112 -0.0723208 0.007573592 -0.058061667
0002c0 e8 fc 52 bd 66 55 8e 3b 59 58 1e 3d 37 df d8 bc
       -0.05151072 0.0043436764 0.038658474 -0.026473625
0002d0 d1 cd 14 bd 69 5f 94 bd 45 99 57 3e f5 e8 e2 3d
       -0.036329094 -0.072447605 0.21054561 0.11079589
0002e0 6f b2 2c 3d 9b d0 2b 3e f0 5a 39 3e 2f 41 a0 bd
       0.042162355 0.16778795 0.18101096 -0.07824933
0002f0 a3 3a b3 3c e5 d1 ce bd 35 98 24 3d 1c 90 18 bd
       0.021878546 -0.10098628 0.04018422 -0.03724681
000300 12 d1 f9 bd bc 61 8b bd 05 f8 94 3d a4 d5 b0 3d
       -0.1219808 -0.06805751 0.072738685 0.08634499
000310 8a 8a 55 bd 20 ca c1 3c 64 c5 bb 3d a4 fe 81 3d
       -0.052134074 0.023655951 0.09168509 0.06347397
000320 43 4e 22 bd 85 be cd bd 54 b5 f7 3d 17 b3 06 be
       -0.039625417 -0.10046104 0.120951325 -0.13154255
000330 61 54 e4 bc 84 b8 4e bc 50 1d 63 3d d3 e4 cb 3b
       -0.027872266 -0.012617234 0.055447876 0.0062223463
000340 d6 99 0d 3e 29 b8 60 b9 20 96 d8 3d 6a ab 71 3d
       0.13828215 -0.0002143091 0.10575509 0.059001364
000350 09 88 f1 3d 09 4b f7 3c d8 76 d9 3c f3 1a 1b 3e
       0.11793525 0.030187147 0.026545927 0.15146999
000360 f8 30 4f 3c a7 5b 37 bd ca 37 a5 3c 9d c3 8d 3d
       0.012645952 -0.04476514 0.020168204 0.06922076
000370 60 3b 79 bd af 0c b9 bd c5 33 87 3e 54 41 c5 3d
       -0.06084764 -0.09035622 0.26406685 0.09631601
000380 10 e0 52 3b eb 18 5a 3c d6 f3 61 3c 45 51 27 3d
       0.0032177009 0.013311605 0.013791045 0.04084899
000390 04 ef 5c bd b4 c3 cd bc 1b 5f a7 bd 56 49 12 3e
       -0.05393888 -0.025117733 -0.08172437 0.14285788
0003a0 09 55 84 bd 60 e3 86 3b 32 60 9e bd 17 33 27 bd
       -0.06461532 0.0041164607 -0.077331915 -0.040820207
0003b0 82 b5 2e bd 31 0a aa bd 53 e7 36 3e 6d 84 ac bb
       -0.042653568 -0.08302725 0.1786168 -0.00526481
0003c0 cd c6 3e bd 89 3a 91 3d 46 63 1c be 05 fe 20 3d
       -0.04657631 0.07091243 -0.15272245 0.039304752
0003d0 1a b1 94 bd 7a 0f dd bc 37 99 07 3b c4 d3 16 3e
       -0.07260342 -0.026984919 0.0020690688 0.1472922
0003e0 70 54 32 3c b4 35 d6 3d e3 e7 51 3d 63 af 3d bd
       0.010884389 0.10459462 0.051246535 -0.04630984
0003f0 f5 01 0e 3e 18 ea bc bb 72 32 5c 3d 2e 7f 92 3d
       0.13867934 -0.005765211 0.053759046 0.07153164

bias f4 [128]
000000 39 7e ba ba c6 79 a4 bd 7f 04 47 bd dc 3a 9f 3d
       -0.0014228291 -0.08031039 -0.048588272 0.077748984
000010 99 78 21 bd 12 24 3b 3d 23 6d 82 3d 43 2d 14 bc
       -0.03942165 0.045688696 0.063684724 -0.009043994
000020 1b f2 f3 3d 78 90 27 bd cc 91 24 bd 90 5f 2a bd
       0.11911412 -0.04090926 -0.040178105 -0.04159504
000030 ba 25 9f 3d 21 a9 3a bd 54 b7 2a 3d 84 4f ad 3b
       0.07770868 -0.04557145 0.04167874 0.00528902
000040 2e 81 75 3d 04 f6 91 3d 65 88 d8 bd 81 3e f3 3d
       0.05993765 0.07127002 -0.1057289 0.11877156
000050 07 d3 3a 3d 16 0b 58 bd af 5d 0d bd 30 15 69 3d
       0.045611408 -0.052744947 -0.03451317 0.05690497
000060 63 ec ba bd f4 ba 3f bd 8c 03 d1 3d 53 c9 8f bd
       -0.091271184 -0.04680915 0.10205755 -0.070208214
000070 6c 5c 6e bd 79 3a 42 3d c2 27 95 3c c2 96 47 3c
       -0.05819361 0.047419045 0.018207435 0.01218194
000080 96 29 4d 3d 7f 48 65 3e 78 49 06 bd fd 15 76 bd
       0.050088488 0.22390936 -0.03278491 -0.060079563
000090 7e af 6b 3d f7 39 57 3d 5a 95 7f 3e 54 9c 42 3d
       0.05754041 0.052545514 0.24959317 0.047512367
0000a0 7a 18 75 3d 05 82 32 bd f4 26 1c bd bc 0b 99 3d
       0.059837796 -0.043581028 -0.038123086 0.07472941
0000b0 7d be cd bc af 1e 11 3e 69 74 4b bd f2 06 d1 3d
       -0.025115246 0.14171861 -0.049671564 0.10206403
0000c0 83 99 b1 3d 17 63 7c 3c 07 ff 7b bc 15 45 5a bd
       0.08671858 0.015404484 -0.0153806275 -0.053288538
0000d0 46 5f 1d 3e b5 08 0a bd 4f c3 04 3d 70 bf 19 3d
       0.15368375 -0.03369971 0.032412823 0.037536085
0000e0 86 47 a6 3d 2f 31 86 3d 22 b4 a8 bd f2 cf ca bc
       0.08119111 0.0655235 -0.082374826 -0.02475736
0000f0 92 89 96 3d e5 6f 31 3c 4b 76 17 bd 6d b7 68 3d
       0.07350458 0.0108299 -0.036978047 0.056815553
000100 e4 32 0c 3d f8 ba a2 3d c9 72 95 3d 53 55 aa bd
       0.03422822 0.07945818 0.07297284 -0.083170556
000110 a1 61 cc 3b d8 40 10 3d 8e 79 bd bc f4 db 70 bd
       0.006237224 0.03521809 -0.02312925 -0.058803514
000120 2d 79 1d 3e bc af 60 bc b5 0a 4b bd 71 38 10 bd
       0.15378256 -0.013713773 -0.049570758 -0.035210077
000130 1f 13 9e 3c 8f ab c0 3d 2d 97 a8 3d 68 ae a2 3d
       0.019296227 0.09407722 0.082319595 0.079434216
000140 cf 4f 90 3d 57 0f 98 3d d7 52 4a bd 41 92 f4 3c
       0.07046472 0.07424801 -0.04939541 0.029854896
000150 da ad 0b 3e 8a 0e a0 bd fe b9 42 3a 3e 77 b1 3c
       0.13640538 -0.07815273 0.00074282277 0.021663304
000160 e1 62 d3 3d 11 e3 3f bd 44 49 df bc 27 ff 58 3d
       0.10321594 -0.046847407 -0.027256615 0.052977707
000170 d7 91 11 bd d4 de 76 3d 17 8f f6 3d dd df 7c bc
       -0.035539474 0.0602711 0.12039011 -0.015434233
000180 bd 9f 66 bd 1f 5b 23 3d 15 5a 8c 3c 19 16 c1 3c
       -0.056304682 0.03988182 0.017132798 0.023570107
000190 f0 1f a4 3d 12 33 62 3e fc 49 9e 3b 7c d2 99 3c
       0.08013904 0.22089794 0.004830597 0.018777125
0001a0 42 80 8e bb 6d 44 06 bd f7 66 1d bd 86 d3 88 bb
       -0.0043487856 -0.0327801 -0.038428273 -0.004175606
0001b0 a3 e2 76 3d 3f 32 db 3b 3d 37 e7 3d de 21 b9 3c
       0.06027473 0.0066893394 0.11289833 0.022599157
0001c0 08 a6 4f bd 97 ce 95 3d 8d ce f4 bc d1 68 9d bc
       -0.05069545 0.073147945 -0.029883647 -0.01921502
0001d0 2b d0 0a 3d f7 3d 4c 3d e5 5f 9a 3d 4f 57 9b 3d
       0.03388993 0.04986378 0.07537822 0.07585012
0001e0 8a e2 47 3d 90 e7 ad 3c 00 58 a8 bc cd cd 3c 3d
       0.04880003 0.021228582 -0.020549774 0.046094704
0001f0 c5 24 81 bd 9c 92 a0 3d 99 7b 2e 3d 4e cc 23 3e
       -0.06305841 0.078404635 0.04259834 0.15995905

weight f4 [15, 128]
000000 04 1d a8 bd b9 57 6b bd c1 06 56 3e c6 ee d9 bd
       -0.08208659 -0.057456706 0.20901014 -0.106412455
000010 18 53 60 bd b4 7e c9 3d 4c f5 d3 3c a0 95 77 be
       -0.054766744 0.0983862 0.025873803 -0.24178171
000020 ff 81 1f be 1a ab aa 3d 4a ab 0e be 2d 9b e9 bd
       -0.15576933 0.08333416 -0.13932529 -0.114065506
000030 7a 36 f7 bd 22 d6 7b 3e 3b e5 d6 bc 7e e5 6a bd
       -0.120709375 0.24593404 -0.026232352 -0.057347767
000040 f0 1c e2 3d 18 9d 5a 3d 10 00 30 3e be 9c f6 3c
       0.11040676 0.053372473 0.17187524 0.030104037
000050 03 e7 1a 3e 8a 28 28 bd 8b 94 55 bd 7c c1 be 3c
       0.15127186 -0.041054286 -0.052143615 0.02328562
000060 d4 94 0f bd ce eb b4 3c 23 cd 0a bd 12 49 92 3d
       -0.035054043 0.022085097 -0.03388704 0.07142843
000070 72 2e 6c bd 16 1e 7a bd ae 8a 18 be 5c 54 20 3d
       -0.05766148 -0.06106385 -0.14896652 0.03914295
000080 c5 9b 18 3d 55 33 b9 bc 72 71 c3 3d 9e b7 2a 3e
       0.03725793 -0.022607485 0.09543122 0.16671607
000090 5e 2e ea 3d bd fd 31 3d 32 60 7c 3c 2e 2c 33 be
       0.11434625 0.043454874 0.015403794 -0.17497322
0000a0 17 bc 72 bc 91 c5 ec bd 65 03 04 be 1e 33 3e be
       -0.014815352 -0.1156112 -0.1289192 -0.18574187
0000b0 d7 8b 0b 3e 8e 1e e8 bc 8a ec 4c 3e 7d 93 3c bc
       0.13627563 -0.028334882 0.20012107 -0.011509773
0000c0 c0 06 f0 3d 5c da a3 3c 29 7f 3e be ee d0 6f bd
       0.117200375 0.020001583 -0.18603195 -0.05854886
0000d0 d1 71 e9 3d c1 de 33 be e6 1b 3e 3d 96 e0 8c 3d
       0.11398662 -0.17565443 0.046413325 0.06878774
0000e0 31 1b 1f 3c 5a 73 64 bc 16 cd bb bb cc f5 1c bd
       0.009711073 -0.013943518 -0.0057312353 -0.038320348
0000f0 75 fb 2b bc 9b f1 b8 bd 3d 7f ca 3d 5f 2d b0 3d
       -0.010496964 -0.090304576 0.0988755 0.08602404
000100 ff 9a 81 3d 4b 89 1b be d1 a0 2f be 3b 45 12 be
       0.06328391 -0.15189092 -0.1715119 -0.14284222
000110 2c 7a 07 3e 2b 61 8a 3c 36 af b2 3d 11 88 2c 3e
       0.13230199 0.016892036 0.08724825 0.1684878
000120 9d 8d 38 3c ad 34 55 3e 2c ca 2b 3e ae b8 e7 3d
       0.011264232 0.20820875 0.16776341 0.11314522
000130 3a db 13 be 4d d9 31 be 7f ba 1d 3d 07 c6 78 bd
       -0.14439097 -0.1736805 0.038507935 -0.06073573
000140 38 b5 59 bd 4a 28 00 be 1f f3 b5 3d 57 53 f7 bd
       -0.05315134 -0.12515369 0.08884262 -0.12076443
000150 1b ec 8f 3d ea dd ef 3d 2c b2 3b 3c 4d 39 4d be
       0.070274554 0.117122486 0.011456054 -0.2004139
000160 3f a9 0d be 13 a6 2b 3e 67 21 44 3e ce 3d e2 bc
       -0.13834094 0.16762571 0.19153367 -0.027617361
000170 f6 69 c1 3d ef a5 b4 3c ed d3 29 3d 48 3f 96 bc
       0.094440386 0.02205178 0.041461874 -0.018340722
000180 4d 26 fd bd ff 91 bc 3c 03 a2 8f 3d 59 72 c0 3c
       -0.12360821 0.023018835 0.07013323 0.023492025
000190 29 b2 1a be b9 f5 23 bb 58 9a 21 3e 04 57 14 be
       -0.15107025 -0.0025018288 0.15781534 -0.14486319
0001a0 db 5a 7a 3d 5d 18 02 be 24 a0 58 3e 7e 84 ff bc
       0.061121803 -0.12704606 0.21154839 -0.031191107
0001b0 4f 2e 2c bd 93 6d ca bd 44 32 8e be c4 59 40 bd
       -0.04203635 -0.09884181 -0.27772725 -0.046960607
0001c0 c0 59 32 3d b4 89 8a bd b4 e7 18 3c a6 cf 2b 3e
       0.043542624 -0.06764546 0.009332586 0.1677843
0001d0 99 2c b6 3c c1 7e 42 3d 14 85 42 3d b3 c8 46 ba
       0.022238063 0.047484163 0.047490194 -0.0007583007
0001e0 fb ba 16 3d f0 7f 01 be 79 fb 63 3b cb c7 cf 3d
       0.036799412 -0.1264646 0.003478734 0.10145529
0001f0 fa 36 b4 3b 49 c4 5a 3d 81 80 2d bd 71 06 9c bd
       0.005499718 0.05340985 -0.04235888 -0.07618416
000200 69 5b 3b be b1 bd 85 bd 1b 01 84 3d 2c 5a 88 bd
       -0.18296589 -0.065303214 0.06445523 -0.06657824
000210 ee b3 b8 bd 38 23 3f bd 0c f8 39 be 7c 5e 3e 3d
       -0.09018694 -0.046664447 -0.18161029 0.046476826
000220 3b ab c7 bd dc 19 c5 ba d3 df 34 3d b1 ad 81 3c
       -0.097494565 -0.0015037614 0.044158768 0.015829893
000230 4c 3f 58 3d e0 bd ab 3c 30 19 06 3d d5 7c 86 3d
       0.05279474 0.020964563 0.032738864 0.065667786
000240 29 71 ef 3d dd ca 92 3b d2 a6 e1 bd 8c b8 37 bd
       0.116915055 0.0044797496 -0.110181466 -0.044853732
000250 8f d9 1d 3c cf 6c 7c 3c f0 b3 59 be 70 11 00 be
       0.00963439 0.015406801 -0.21260047 -0.12506652
000260 05 dc 92 bc 74 ac 73 bd ce 6e b6 bc 00 44 18 3e
       -0.01792718 -0.059490636 -0.022269633 0.1486969
000270 58 6b 3d be a7 b0 0a bd 56 99 f9 3c 80 60 f0 bd
       -0.1849798 -0.033859875 0.030468624 -0.11737156
000280 a3 b5 f7 3c a3 01 f2 bc 8d 29 13 be 2f 21 0e 3d
       0.030237978 -0.029541796 -0.14371319 0.034699615
000290 ad 32 9b bd 09 51 a1 bd 77 1d 6d bd db 90 04 3d
       -0.07578025 -0.07876784 -0.057889428 0.032364707
0002a0 d0 19 74 3d 98 b5 ff 3d 8a ac 01 3d 3b 73 d8 3d
       0.05959493 0.12485808 0.031658687 0.105688535
0002b0 c1 7a 14 bd db ca 3e bd d3 5d 1e be 85 c8 49 bd
       -0.03624988 -0.046580177 -0.15465479 -0.049263496
0002c0 5a 0e 5d be 31 06 05 be 25 3a b0 bd 2e 5d 79 bc
       -0.21587506 -0.12990643 -0.0860484 -0.01521997
0002d0 48 ce ee bd 7d a4 9a 3c a9 ae a9 bd d9 d6 af bd
       -0.11660439 0.018877262 -0.08285267 -0.08585901
0002e0 2f 6e dd 3d 5a 72 30 be 17 a0 20 3d 60 ff 4a 3d
       0.108120315 -0.17231122 0.039215174 0.04955995
0002f0 e5 ba a6 3d a8 3b ee bc 5f cb 21 3d d2 f2 b6 bc
       0.08141116 -0.02908118 0.03950059 -0.022332583
000300 21 a7 17 3d 61 03 18 bc 6c 39 f5 3d 76 63 55 3d
       0.03702462 -0.009278149 0.11973843 0.052096806
000310 f1 b0 28 3e 08 72 4f 3d 8d 04 21 3e f6 df 3b 3d
       0.16473748 0.050645858 0.15724392 0.045867883
000320 24 46 de bc 46 4b 0d be 14 fa fd bd 19 f9 ea bc
       -0.027133055 -0.13798246 -0.12401214 -0.028683232
000330 05 5e 8f bc ef fd 23 3d 89 8b e6 3c a3 23 a6 bd
       -0.017500887 0.04003709 0.028142707 -0.08112266
000340 d1 99 3f 3d 48 28 10 bd b5 7d 4c 3c e5 84 a9 bd
       0.04677755 -0.035194665 0.012481143 -0.08277301
000350 3d e9 92 3d 32 49 bb bb 2d 88 b7 bc 33 e7 a2 bc
       0.07173393 -0.0057155127 -0.0224038 -0.019885635
000360 53 e1 9f bc 39 1a 84 3d 3f f8 3d 3d 64 58 a1 bd
       -0.019516623 0.06450314 0.046379324 -0.07878187
000370 3f f0 d1 bd be 48 c3 3c fd 4b 59 3b c8 eb f0 bc
       -0.102509014 0.023838397 0.0033156865 -0.029409304
000380 f7 06 33 3e 95 f8 b6 3d f2 ef 10 3e 07 08 1e 3d
       0.17483126 0.08934132 0.14154032 0.038581874
000390 c4 1f 99 3c ec 14 95 bc 07 08 15 bc 19 99 b2 bd
       0.018691905 -0.018198453 -0.009096152 -0.08720607
0003a0 94 6f ae bc 1a 85 c4 3d a5 6e 47 3d 39 68 f9 bc
       -0.021293439 0.095956996 0.048689503 -0.030445205
0003b0 32 86 17 3d ff 5e 84 bb 80 d8 1b bd dc e8 0a 3d
       0.036993213 -0.0040396447 -0.038048267 0.03391348
0003c0 a2 1c 3c bd b6 96 c4 3b 81 4e 20 bc 55 a2 49 bd
       -0.045925744 0.0059994115 -0.009784342 -0.049227078
0003d0 14 cd 96 3b c1 d9 bd 3d 4e 6f 80 3d 4f 13 7a bd
       0.004602084 0.09270049 0.0627123 -0.06105357
0003e0 20 30 32 3d e4 f0 a1 3c 5e 96 c1 3d 55 2f 14 3d
       0.043502927 0.019768186 0.094525084 0.03617795
0003f0 cd 9f a1 bd d3 7a 28 bd f9 e8 f2 3c f3 5a 48 3d
       -0.07891808 -0.04113276 0.029652106 0.04891486

bias f4 [15]
000000 6f 32 a8 3c 17 cd a6 bc ce 2e 30 3d 2c 88 b1 bc
       0.020531861 -0.020361466 0.043013386 -0.021671377
000010 d0 6f 3a bc 1a c6 53 3c d3 6f 23 bc 57 2c 20 bd
       -0.011379197 0.012925649 -0.009975391 -0.039104786
000020 df 13 34 bd d2 b1 1d bc 45 44 25 b9 d7 dc a4 bb
       -0.043964263 -0.009624915 -0.00015761059 -0.005031209
000030 65 f0 8d 3c fa 1a f6 3c 64 f2 52 3c
       0.017326543 0.03004216 0.012875173

weight f4 [1, 128]
000000 1d b8 67 bb 1c da d7 bb 10 e2 65 bd 15 c5 97 3c
       -0.0035357543 -0.00658728 -0.056123793 0.018526593
000010 49 be 8c bb 8f 7a 75 3a 95 69 77 3b 3e f1 a4 bb
       -0.0042951447 0.0009364271 0.003775214 -0.005033641
000020 a6 d1 18 3d 7b 15 ce bc 5d 4b 39 bd 0a 8d 3c bd
       0.03730931 -0.025156727 -0.045237888 -0.046032943
000030 c9 ad 57 3d 28 52 2c bb 40 6c b2 bb 3f 03 97 ba
       0.05265597 -0.0026294086 -0.0054450333 -0.0011521353
000040 86 62 91 3b e6 d0 0b 3c 69 18 9f bc 36 b4 56 3c
       0.0044367937 0.008533692 -0.01942082 0.013104489
000050 8b e8 5f 3c d5 fa c4 bb 27 5d 6f 3a ba b2 a7 ba
       0.013666282 -0.006011347 0.0009131007 -0.0012794354
000060 3f 49 76 bd 88 b7 22 bb 45 20 6b 3d 2c b4 f8 bc
       -0.060128447 -0.0024828631 0.05740382 -0.03035935
000070 ce 35 21 bd 1e 93 10 bb 1e 55 e8 3d c0 db f4 b9
       -0.039357953 -0.0022060345 0.1134436 -0.00046703033
000080 c7 b6 f6 3b 90 1f 42 3d f4 54 03 38 6f ec 66 bc
       0.007529113 0.04739338 3.1311953e-05 -0.014094456
000090 9e 6b 25 ba d9 cf b7 3c e9 ae 02 3e d0 7c 3d 3c
       -0.00063102867 0.022437977 0.12762035 0.011565402
0000a0 45 18 30 3c fd 66 17 bb f3 bb c0 bb 12 ff 4d bb
       0.010747974 -0.0023102157 -0.0058817803 -0.0031432551
0000b0 22 94 c7 bb af 01 97 3c 9c 0c d5 bb 9e 68 83 3c
       -0.006090657 0.01843342 -0.0065017473 0.016041096
0000c0 46 76 2e 3c aa 02 03 bc 0c c1 14 bb 99 37 58 3b
       0.010648316 -0.007996241 -0.0022698073 0.0032992123
0000d0 8d 75 4e 3d 0a 0e 85 bb f3 58 85 3b c9 11 f3 3b
       0.050405074 -0.0040605115 0.0040694415 0.0074178916
0000e0 5e ca b6 3c 45 76 2d 3c cd f7 87 bc a0 c5 82 ba
       0.022313293 0.01058728 -0.016597653 -0.000997711
0000f0 df 25 f0 3c 83 89 8f 3b 2d 5b 28 3c 87 10 e9 bb
       0.029314933 0.0043804063 0.010275644 -0.007112566
000100 a6 38 cb 3b f1 5d ba 3c 9a 6b 77 3c 1b e1 66 bd
       0.0062018214 0.022749873 0.015101338 -0.05636702
000110 1e 9f cb 3b 2f b4 b6 3a b9 8e 96 3a 3d bf a5 bc
       0.0062140366 0.0013939197 0.0011486626 -0.020232791
000120 17 10 6b 3d f5 ab c7 bb 71 e1 3c bc 5b 7b eb bc
       0.05738839 -0.006093497 -0.011528359 -0.028745344
000130 79 8c 2a 3c 08 63 fc 3c 6e 95 bf 3b 95 5e 24 3c
       0.010409468 0.03080894 0.005846671 0.010032316
000140 ec 61 1a 3c 24 7b b3 3c 5f cd fc bb eb ea 76 bb
       0.00942276 0.021909304 -0.007714912 -0.0037676643
000150 2e f7 42 3d d4 a0 b2 bd d6 6b 0a 3c 3f 26 e7 3b
       0.04759901 -0.08722082 0.008448562 0.00705412
000160 43 d9 8a 3c 78 5c a8 3b 9f 26 ff 3b c6 e3 1f 3c
       0.016949302 0.0051379763 0.0077865864 0.009758895
000170 c5 0a 54 bb c4 ea 87 3c dc eb 30 3c 6d bb a0 bb
       -0.0032355052 0.016591437 0.010798421 -0.0049051554
000180 bc 0d a4 bb 48 c7 ad bb 19 6f f9 3b cc 2e 69 3c
       -0.00500652 -0.005303297 0.007612121 0.014232349
000190 91 6f d4 3c 7c 29 30 3d 0d 64 cb 3b 9d b0 94 bb
       0.025932105 0.043008313 0.0062069953 -0.0045376555
0001a0 5c 29 22 3b 51 4a 2c bd 19 b2 8d 3a 20 b0 a1 bb
       0.002474389 -0.04206306 0.0010810524 -0.004934326
0001b0 b8 bd 9e 3d ea 4b b2 3b 0b 70 3a 3d fb f1 64 ba
       0.0775103 0.0054411786 0.04551701 -0.00087335677
0001c0 f4 3b 50 ba 28 80 5b ba bf c8 29 bb 6b 06 cf 3b
       -0.0007943504 -0.0008373284 -0.0025907008 0.0063179038
0001d0 91 a7 ba bb 39 89 96 3b ce 85 1c 3d 3e 76 47 3d
       -0.005696245 0.004593995 0.038213544 0.04869675
0001e0 c4 64 ea 3b 2e 86 3a bb 24 42 98 bc 8d c0 b4 3c
       0.0071531255 -0.0028461325 -0.018586226 0.022064472
0001f0 b2 70 68 bc b1 45 64 3c d3 4d 8b 3a 7e 0f ab 3d
       -0.014187025 0.013932631 0.0010628052 0.08352564
