results/generalization-128fd/600levels-128fd-policy.pt (torch, 843679 bytes, 11 tensors)

weight f4 [32, 3, 8, 8]
0	0xbcc68ccb	-0.024237057
1	0x3d30d0d5	0.043167908
2	0xbe370149	-0.17871584
3	0xbdca7daf	-0.098872535
4	0xbdd4e80f	-0.10395824
5	0xbc92c36e	-0.017915454
6	0x3cee3004	0.02907563
7	0xbbf2fef8	-0.0074156485
8	0xbe6e9f6d	-0.23303004
9	0xbdd24253	-0.102665566
10	0xbda991c3	-0.08279755
11	0xbe0a3f41	-0.13500692
12	0xbd924cad	-0.07143531
13	0x3e28a071	0.16467454
14	0x3c4fc789	0.01268185
15	0x3c67ba64	0.01414356
16	0x3a75d873	0.0009378262
17	0x3e00a375	0.12562354
18	0xbcb2f4ba	-0.02184521
19	0x3c8759f5	0.016522387
20	0x3d6dc82d	0.05805223
21	0x3df374c5	0.118875064
22	0x3df2d767	0.11857491
23	0x3e0cb27c	0.13739961
24	0x3d2d4ea3	0.042311322
25	0xbd53f95c	-0.05175148
26	0x3d9aa37a	0.07550712
27	0x3d1012e0	0.03517425
28	0x3e6f9a4f	0.23398708
29	0x3d548ba5	0.051890988
30	0x3c597be8	0.01327417
31	0xbd6acd29	-0.057324562
32	0x3d29b954	0.04143651
33	0xbe6beaf9	-0.23038854
34	0x3ca03dc5	0.019560704
35	0xbdc8fc39	-0.09813733
36	0x3dfebaeb	0.124379955
37	0x3dff59fd	0.12468336
38	0xbd829c97	-0.063775234
39	0x3b114ed8	0.0022172239
40	0x3c32574b	0.01088507
41	0xbeaf7384	-0.3426782
42	0x3dd62782	0.10456754
43	0xbe02734d	-0.12739296
44	0xbd291c27	-0.041286614
45	0x3db7e7e3	0.08979776
46	0xbd4ef26e	-0.050524168
47	0xbda4a4fb	-0.0803928
48	0xbdefa1f0	-0.11700809
49	0x3b9f0f33	0.004854107
50	0x3cd483e5	0.025941798
51	0xbe3f6a58	-0.1869291
52	0x3dfeae2a	0.12435563
53	0xbd7484a4	-0.05969681
54	0xbd095271	-0.033525888
55	0x3d0615e8	0.032735735
56	0x3d408181	0.046998505
57	0xbc23a7d4	-0.009988744
58	0x3d2b3a27	0.041803505
59	0xbe09bcc3	-0.13450913
60	0x3dd113d8	0.10208863
61	0xbaebfb9d	-0.0018004064
62	0xbd00686c	-0.031349584
63	0xbd9a863c	-0.075451344
64	0xbe338a22	-0.17533162
65	0xbdb70c5d	-0.08937905
66	0xbd069ff7	-0.032867398
67	0xbe45bca4	-0.19310242
68	0xbe2eb90a	-0.17062774
69	0x3e3ba21c	0.18323559
70	0x3cddb6e2	0.027064744
71	0x3dd303e9	0.1030348
72	0xbd54797e	-0.051873676
73	0x3cb67765	0.022273729
74	0x3df2047b	0.11817261
75	0xbc4a28f3	-0.012338865
76	0xbd9fe145	-0.07806639
77	0x3dd543ca	0.1041332
78	0xbea37b9a	-0.31930238
79	0xbd9b4b77	-0.07582753
80	0xbb932f50	-0.004491724
81	0x3e46662a	0.1937491
82	0x3e877e92	0.26463753
83	0xbd956a99	-0.072957225
84	0x3ce94248	0.028473988
85	0x3e15d94d	0.14633675
86	0xbe09b949	-0.13449587
87	0xbd0fc044	-0.03509547
88	0x3de4bfa4	0.11169365
89	0x3d7c8d8d	0.06165843
90	0xbd0c922b	-0.034319084
91	0xbc8a5bdc	-0.016889505
92	0x3dbaa1db	0.09112903
93	0x3d7244a8	0.059147507
94	0xbe3f1512	-0.18660381
95	0xbe01db81	-0.1268139
96	0x3dc0f371	0.09421433
97	0xbe100ec3	-0.14068131
98	0x3d99f770	0.07517898
99	0x3e73a3ac	0.23792905
100	0x3d245659	0.04012141
101	0x3e3c9a80	0.18418312
102	0xbd9067b1	-0.070510276
103	0x3d0b894c	0.034066483
104	0xbd8e4e65	-0.06948546
105	0xbe969b8f	-0.29415557
106	0xbde29bd9	-0.11064882
107	0x3dec6c45	0.11544088
108	0x3cd16d98	0.025564954
109	0xbcd9106b	-0.026497087
110	0x3de0a71d	0.10969374
111	0xbe0387c8	-0.12844765
112	0x3d507436	0.050892077
113	0x3e0b490d	0.13602085
114	0xbe948ea9	-0.2901509
115	0xbb4f132c	-0.003159712
116	0x3dbe335f	0.09287142
117	0xbd494db6	-0.049146377
118	0xbd416662	-0.04721678
119	0xbd92b8c1	-0.07164145
120	0x3df31d66	0.11870842
121	0xbda35f19	-0.07977123
122	0xbd5b1507	-0.05348685
123	0x3d856b94	0.065146595
124	0xbe42928d	-0.19001217
125	0xbc835931	-0.01603374
126	0xbd91bdfb	-0.07116314
127	0xbc29ddca	-0.01036782
128	0x3cfeb3b4	0.031091549
129	0xbda9b970	-0.082873225
130	0x3e56747e	0.20942876
131	0x3dcf9411	0.10135663
132	0xbe1949a2	-0.14969495
133	0xbdbf1784	-0.09330657
134	0xbe4f69f3	-0.2025526
135	0x3e552aba	0.2081708
136	0x3e1a75bd	0.15083976
137	0x3e7fc00f	0.24975608
138	0x3d98e2bf	0.074651234
139	0x3c5cfa1b	0.013487364
140	0x3c986a13	0.018605268
141	0x3dc0fe93	0.09423556
142	0x3e069539	0.13142861
143	0x3d837eef	0.06420695
144	0x3e0f6ce6	0.14006385
145	0x3e8dfc7e	0.277317
146	0x3e4daac1	0.20084669
147	0x3e48fd44	0.19627863
148	0x3c97a18b	0.018509647
149	0x3e7235b2	0.23653296
150	0x3b294063	0.002582573
151	0x3e313f44	0.1730929
152	0x3e020d82	0.12700465
153	0x3dd30359	0.10303373
154	0x3e53a66a	0.2066895
155	0x3e98874a	0.29790717
156	0x3e9f2361	0.3108168
157	0xbe203581	-0.1564541
158	0xbe52a1b8	-0.20569503
159	0xbd12bc5b	-0.03582416
160	0x3df85737	0.1212601
161	0x3dad9074	0.08474818
162	0x3e2fbdd5	0.17162259
163	0x3e2c0f48	0.16802704
164	0x3eb3b5bd	0.35099593
165	0x3e06be04	0.13158423
166	0xbe4ba9fe	-0.19889066
167	0x3d620c86	0.055187725
168	0xbe3a7bcb	-0.18211286
169	0xbdd6e3c8	-0.104926646
170	0xbc404f71	-0.01173769
171	0x3ce258ee	0.027630296
172	0x3e4a1991	0.19736315
173	0x3e61e6c1	0.22060682
174	0xbe540aa1	-0.2070718
175	0xbde3cee3	-0.11123445
176	0xbdf02dcd	-0.11727486
177	0x3e006aca	0.12540737
178	0xbe34914f	-0.17633556
179	0x3e1f8277	0.15577112
180	0x3dc95990	0.09831536
181	0x3e4bfafd	0.19919963
182	0xbd200229	-0.03906456
183	0x3e9d3c93	0.30710277
184	0x3d5a0a3b	0.053232413
185	0x3c3d93a5	0.011570846
186	0x3e66d8cb	0.22543637
187	0x3e208863	0.15677027
188	0x3e591f19	0.21203269
189	0x3ea1acc0	0.3157711
190	0x3e216e90	0.15764832
191	0x3e7659be	0.24057671
192	0x3e72c5a7	0.23708211
193	0xbd1ff6b6	-0.03905364
194	0x3e849156	0.25892133
195	0x3e2d3f33	0.1691864
196	0x3dda8396	0.10669629
197	0xbe1b6c5b	-0.15178053
198	0xbe08cdd8	-0.13359773
199	0x3cf6bc0e	0.030118968
200	0xbd38808e	-0.045044474
201	0x3d435b0c	0.04769425
202	0xbd1f4d5e	-0.038892142
203	0x3e644b3b	0.22294323
204	0x3d888792	0.06666483
205	0xbdf9a797	-0.12190168
206	0x3e842f69	0.2581742
207	0x3e723844	0.23654276
208	0x3e543eaf	0.20727037
209	0xbdb8b863	-0.09019544
210	0xbd885115	-0.0665609
211	0x3d08dc16	0.033413015
212	0x3cdbe072	0.026840422
213	0x3cf97307	0.030450357
214	0x3d642a81	0.055704597
215	0xbe23e2c4	-0.16004473
216	0x3e4ecc8f	0.2019522
217	0xbca37b08	-0.019956127
218	0x3c00ca8f	0.007860794
219	0xbd5a49ba	-0.053292967
220	0xbe5e725f	-0.21723317
221	0xbe836eea	-0.25670558
222	0x3cfbbb98	0.0307291
223	0xbe0fb361	-0.14033271
224	0x3df8e378	0.12152761
225	0x3dda8eb8	0.10671753
226	0x3ccb6a27	0.02483089
227	0x3e82c15a	0.2553814
228	0xbd5572b0	-0.052111328
229	0x3b41c815	0.002956872
230	0xbd72f17f	-0.05931234
231	0x3dc14515	0.094370045
232	0x3e1c04c4	0.15236193
233	0x3d510915	0.051034052
234	0xbc0b1c05	-0.008490567
235	0x3db97127	0.09054785
236	0x3d4872dc	0.048937663
237	0xbe1e200a	-0.1544191
238	0xbe40fa44	-0.18845469
239	0xbdf40a82	-0.11916067
240	0x3e78dbd1	0.24302603
241	0x3d8e34f8	0.06943697
242	0x3df40e99	0.11916847
243	0xbd31e669	-0.043432627
244	0x3df99370	0.121863246
245	0xbcb64b9c	-0.02225285
246	0xbe63c141	-0.2224169
247	0x3d205f69	0.03915349
248	0xbc11ec88	-0.008906491
249	0xbda19759	-0.078901954
250	0xbe2c04e1	-0.16798736
251	0xbd5ee6db	-0.05441938
252	0x3d7013fc	0.05861281
253	0xbdbae1ea	-0.09125121
254	0xbe5c92a7	-0.21540318
255	0x3e39bd82	0.18138698

bias f4 [32]
0	0xbb43837d	-0.0029833012
1	0xbc2f18e7	-0.0106870895
2	0xbb788eca	-0.0037926906
3	0x3c9c3f87	0.019073261
4	0xbc8ec333	-0.017427063
5	0xbbc567ba	-0.006024328
6	0xba993bf1	-0.0011690838
7	0xbbc73b8c	-0.0060800966
8	0xbc75c958	-0.015001617
9	0xbb7d886f	-0.0038686057
10	0x3aff2e91	0.0019468834
11	0xbb52bdc9	-0.0032156578
12	0xba97fd6d	-0.0011595913
13	0xbc4c493d	-0.012468633
14	0xbc2e1fe4	-0.0106277205
15	0x3b5e3318	0.0033904966
16	0x3cdfd594	0.027323522
17	0xbaea4f8e	-0.0017876492
18	0x3d4e0b70	0.050303876
19	0xbbf17d1b	-0.00736965
20	0xbb8e0de5	-0.0043351525
21	0xbc358220	-0.0110783875
22	0xbbb81b60	-0.0056184977
23	0xbab6c14b	-0.0013943104
24	0xba62a2a8	-0.00086454535
25	0xbc6aba4e	-0.014326645
26	0xbca2daca	-0.019879717
27	0x3cc19bb9	0.023633825
28	0x3ceeac6c	0.029134952
29	0xbccd4973	-0.025059437
30	0xbc3fb71d	-0.011701372
31	0xbbd09e19	-0.006366503

weight f4 [64, 32, 4, 4]
0	0x3d521ebc	0.05129884
1	0x3d6a5e28	0.0572187
2	0xbbef5094	-0.007303307
3	0xbe33d6b3	-0.1756237
4	0xbd0bec3b	-0.034160834
5	0x3d9211b5	0.071322836
6	0xbda9699f	-0.08272099
7	0x3da5361a	0.0806696
8	0x3ccfdf72	0.025375102
9	0xbda821c3	-0.082095645
10	0xbcef9be3	-0.029249137
11	0x3c993118	0.018700168
12	0x3e3ed80a	0.186371
13	0xbabdf418	-0.0014492301
14	0xbb9396f9	-0.0045040813
15	0xbd36aa93	-0.044596266
16	0xbe211a54	-0.157327
17	0x3c8486a9	0.016177492
18	0xbdaaf098	-0.08346671
19	0x3d8ddb75	0.06926624
20	0xbe8a5b28	-0.27022672
21	0x3d5df04f	0.054184254
22	0x3dc08a03	0.09401324
23	0xbcc07cb6	-0.023496967
24	0xbdb65b4b	-0.089041315
25	0x3db469fa	0.08809276
26	0xbdbb2655	-0.09138171
27	0xbe31ccb5	-0.17363246
28	0xbd97a06d	-0.07403646
29	0x3d3c3d99	0.04595718
30	0x3ba5f49a	0.005064559
31	0x3ba3b64d	0.004996097
32	0xbe3c75b3	-0.18404274
33	0x3e07358c	0.1320402
34	0x3d91a75e	0.07112001
35	0x3d49f185	0.049302597
36	0xbc5c480c	-0.013444912
37	0xbc910f29	-0.017707424
38	0xbd38a596	-0.04507979
39	0x3c64dcd6	0.013968667
40	0xbc9406ec	-0.018069707
41	0x3d757028	0.059921414
42	0xbd5499b1	-0.051904384
43	0x3d1a6db4	0.037702277
44	0x3e478470	0.19484115
45	0x3d1095af	0.035299
46	0x3e0119af	0.12607454
47	0xbc7b0672	-0.015321361
48	0x3dcb68e5	0.099321164
49	0xbdc21184	-0.09475997
50	0xbdb1e45e	-0.08686136
51	0xbce19008	-0.0275345
52	0x3e20f46d	0.15718241
53	0x3c0ddd9a	0.008658791
54	0x3d02a564	0.03189601
55	0x3b177d5c	0.0023115491
56	0x3dca61f1	0.09881962
57	0x3dc6c99d	0.097064234
58	0x3de09816	0.10966508
59	0x3d90f17b	0.07077309
60	0x3e819325	0.25307575
61	0x3db6980e	0.08915721
62	0xbcb6a22c	-0.022294126
63	0x3d991aee	0.074758396
64	0xbc8f3a04	-0.017483719
65	0x3da9e4e5	0.08295611
66	0xbd933295	-0.07187382
67	0xbde1d1b0	-0.11026323
68	0xbd69d29a	-0.05708561
69	0xbb587600	-0.0033029318
70	0x3d3866bc	0.04501985
71	0xbbbab3b7	-0.005697693
72	0xbe06c0a0	-0.13159418
73	0x3c82bad6	0.015958231
74	0xbdc7e2d4	-0.09760061
75	0xbe192553	-0.14955644
76	0x3d55ca93	0.052195143
77	0x3cd3f100	0.025871754
78	0xbd8c9dde	-0.06866048
79	0xbdf84df4	-0.121242434
80	0x3d94fd19	0.07274837
81	0x3d9ebd30	0.077509284
82	0xbce4f3ea	-0.027948339
83	0x3d5b1507	0.05348685
84	0xbdb811d4	-0.089877754
85	0x3da7206c	0.08160481
86	0xbc2d67c3	-0.010583821
87	0x3c5513fc	0.013005253
88	0xbe1ac4ba	-0.15114108
89	0x3db11b03	0.0864773
90	0xbe35b9f4	-0.17746717
91	0x3ddf257d	0.10895822
92	0x3abb3840	0.0014283732
93	0x3b975134	0.0046178345
94	0x3e0141c0	0.12622738
95	0xbd3a4419	-0.0454751
96	0x3dcc2f38	0.09969944
97	0x3d499f43	0.04922415
98	0xbe01accd	-0.12663575
99	0x3d01df2f	0.031706985
100	0x3b6ba191	0.0035954455
101	0xbb1fa346	-0.0024358793
102	0xbca87577	-0.020563824
103	0x3da9ee64	0.082974225
104	0xbd11ffbc	-0.035644278
105	0xbd195f57	-0.03744444
106	0xbdd9e6e4	-0.10639742
107	0xbce6f516	-0.028193038
108	0xbdbb2a07	-0.091388755
109	0x3d237f3a	0.039916255
110	0x3dea64fd	0.11445043
111	0xbc552680	-0.013009667
112	0xbc102065	-0.008796786
113	0x3d55d98c	0.052209422
114	0x3c7c4c43	0.015399042
115	0xbdec30bf	-0.11532735
116	0x3d96b920	0.073595285
117	0x3e6b30ee	0.22967884
118	0x3c99e301	0.018785002
119	0xbe195ff3	-0.14978008
120	0xbd8cca98	-0.06874579
121	0x3d854cd8	0.065087974
122	0xbd7a51a2	-0.061113007
123	0xbdbc4f3e	-0.09194802
124	0x3da35427	0.07975035
125	0x3d20f4d1	0.039295975
126	0xbe185698	-0.14876783
127	0xbca659eb	-0.020306548
128	0x3d8b5eed	0.06805215
129	0xbc1e9a75	-0.00968038
130	0x3b5dee54	0.0033863978
131	0xbb3805ac	-0.0028079553
132	0x3d4432ed	0.04790013
133	0xbdaa282c	-0.083084434
134	0xbdb58a00	-0.08864212
135	0xbc62b639	-0.013837391
136	0xbdedcec9	-0.11611707
137	0xbdd5d91f	-0.10441803
138	0xbd369eee	-0.04458516
139	0x3dd9a0e3	0.1062639
140	0xbd263728	-0.040579945
141	0xbcb5d51a	-0.022196341
142	0xbd963fd0	-0.0733639
143	0x3da16b64	0.07881811
144	0x3d01502a	0.03157059
145	0xbc3b9217	-0.011448405
146	0xbddd88fb	-0.108171426
147	0x3c675a9b	0.014120723
148	0x3d63979c	0.055564508
149	0x3d6bd7ae	0.057578735
150	0xbd06069c	-0.032721147
151	0xbd51b62a	-0.051199116
152	0x3e0e0a63	0.1387115
153	0x3c400d85	0.011721973
154	0xbe25751b	-0.16157953
155	0xbde78629	-0.11304886
156	0x3c9f4867	0.019443704
157	0x3d0025e8	0.03128615
158	0x37401475	1.1448855e-05
159	0xbe14090b	-0.14456575
160	0x3c374fae	0.011188431
161	0xbe1c09eb	-0.15238158
162	0xbcc8f3b3	-0.024530267
163	0xbdd40ca8	-0.103539765
164	0xbde13af6	-0.10997574
165	0xbb873397	-0.004126023
166	0xbd09be41	-0.033628706
167	0xbd64d7f9	-0.05587003
168	0x3d89730a	0.06711395
169	0xbd411f1e	-0.047148816
170	0xbe40d7d0	-0.18832326
171	0xbd202a77	-0.039102998
172	0x3c045948	0.008077927
173	0xbdbbcf96	-0.09170453
174	0x3e487a6f	0.19577955
175	0x3dc56d3b	0.09639975
176	0xbd30f47b	-0.043201905
177	0xbd28dd22	-0.041226514
178	0x3dcb4d52	0.09926857
179	0xbd1fe92f	-0.03904074
180	0xbdfd981c	-0.12382528
181	0xba8bee12	-0.0010675809
182	0x3df59b73	0.1199254
183	0x3cd05e4e	0.025435593
184	0x3c48a1f6	0.012245646
185	0xbdf26fc6	-0.11837725
186	0x3da446d6	0.080213234
187	0x3d0013ac	0.03126876
188	0xbb1b68b8	-0.002371354
189	0x3b7bf5aa	0.0038445988
190	0x3d0b8fcc	0.034072682
191	0xbd78d240	-0.060747385
192	0xbdd2b7ab	-0.10288938
193	0x3d4e8b83	0.050426017
194	0xbcb59a8d	-0.022168422
195	0x3cd9860e	0.02655318
196	0x3e21feb1	0.15819813
197	0xbcd725d3	-0.026263153
198	0xbcfff9b4	-0.031246997
199	0xbe05f1e9	-0.13080563
200	0x3cba7dd6	0.022765081
201	0xbc53dc3f	-0.012930929
202	0xbe275b0a	-0.16343322
203	0xbca90cde	-0.020636018
204	0x3db64021	0.0889895
205	0x3cefb6a6	0.029261898
206	0xbd90d4ab	-0.07071813
207	0xbe3f384e	-0.18673822
208	0x3e072fe5	0.13201864
209	0xbdda16aa	-0.10648854
210	0x3b421bf2	0.0029618707
211	0x3b8f9a60	0.0043824166
212	0x3df64c2b	0.12026247
213	0x3c8284f5	0.01593254
214	0xbe851d7d	-0.2599906
215	0x362d4a06	2.5822096e-06
216	0x3d5d88e4	0.054085627
217	0xbda42df2	-0.08016576
218	0xbd8ad6c8	-0.067792475
219	0x3dc9519d	0.098300196
220	0xbd2fa2bc	-0.042879805
221	0x3da265a6	0.07929544
222	0x3de9459c	0.1139023
223	0xbcbba26f	-0.022904603
224	0xbd1bd139	-0.038041327
225	0xbd7c57f0	-0.0616073
226	0xbe1c2e30	-0.15251994
227	0x3dc27c05	0.09496311
228	0xbe062988	-0.1310178
229	0x3cbaa26a	0.022782523
230	0x3d4f8bca	0.050670423
231	0x3e08033c	0.13282484
232	0x3db85ea3	0.090024255
233	0xbdc9b0ba	-0.09848161
234	0xbccec979	-0.025242554
235	0xbd361378	-0.04445216
236	0x3e1920a5	0.14953859
237	0x3e5c54b7	0.21516691
238	0xbd67ee42	-0.056623705
239	0xbe0a1313	-0.13483839
240	0x3dc19393	0.09451976
241	0x3d9e1b3f	0.077200405
242	0x3c8a4c5f	0.01688212
243	0x3cb7c42f	0.022432415
244	0xbde55c73	-0.11199274
245	0xbe35d910	-0.17758584
246	0xbde12889	-0.109940596
247	0xbd8d6330	-0.06903684
248	0x3d4f2890	0.050575793
249	0xbdd88d34	-0.10573807
250	0x3ba44ac9	0.005013798
251	0x3d20b028	0.039230496
252	0x3e10f4b2	0.14155844
253	0xbdd280a4	-0.102784425
254	0x3daba968	0.08381921
255	0x3e0ba237	0.13636099

bias f4 [64]
0	0x3d803555	0.06260172
1	0xbcfc5cc9	-0.030805962
2	0xbceae6f8	-0.028674588
3	0xbc53aed3	-0.012920099
4	0x3aefcc26	0.0018295094
5	0x3c8ecb26	0.017430853
6	0x3dc556f9	0.09635729
7	0xbca70202	-0.0203867
8	0x3be099f4	0.00685429
9	0x3d91e594	0.07123867
10	0x3d1db12c	0.038499042
11	0xbd699e91	-0.057035986
12	0x3cb74ed4	0.022376455
13	0xbaae4ac0	-0.0013297424
14	0x3d6fdcc6	0.058560155
15	0xbab60833	-0.0013887942
16	0xbc988a6c	-0.018620692
17	0xbd896294	-0.067082554
18	0xbdd916f8	-0.10600084
19	0xbc4cb3eb	-0.012494068
20	0x3bc326a4	0.005955534
21	0xbd0e772d	-0.034781624
22	0xbd3a491c	-0.04547988
23	0xbc7da525	-0.015481268
24	0xbcaccb52	-0.021093044
25	0xbccd0879	-0.025028454
26	0x3d48e6c7	0.04904821
27	0xbd2f7074	-0.042831853
28	0xbca67b58	-0.020322487
29	0x3d9e7f70	0.077391505
30	0xbbda5b01	-0.0066636805
31	0xbd1ea235	-0.03872891
32	0x3c6a3b74	0.014296401
33	0xbd9aa146	-0.07550292
34	0x3da2def6	0.07952683
35	0xbc912eda	-0.017722536
36	0xbc46c52b	-0.012131969
37	0xbd33ec70	-0.043926656
38	0xbcc6e324	-0.024278231
39	0xbc7a61f7	-0.015282146
40	0xbd013e6e	-0.03155368
41	0xbb764df9	-0.0037583096
42	0x3b589572	0.003304806
43	0x3c20546d	0.009785754
44	0x3d2ada86	0.041712306
45	0xbd65785d	-0.05602299
46	0xbcd64b67	-0.026159002
47	0xbd12eeea	-0.035872377
48	0x3beac003	0.007164003
49	0x3dd355f4	0.10319129
50	0xbc8c8ca5	-0.017156908
51	0xbb579f9f	-0.0032901538
52	0xbc3f6f2f	-0.011684223
53	0xbdba1360	-0.09085727
54	0x3c91c22a	0.01779278
55	0x3b39ca13	0.0028349205
56	0xbd5ebb6c	-0.05437796
57	0x3dce9911	0.10087789
58	0xbae09c96	-0.001713651
59	0x3cde8372	0.027162287
60	0xbcacb676	-0.021083098
61	0x3812e471	3.5021865e-05
62	0x3cffc3bd	0.031221265
63	0xbd10cefc	-0.035353646

weight f4 [64, 64, 3, 3]
0	0x3d0a8318	0.033816427
1	0x3d6a14de	0.057148807
2	0x3d0fb56d	0.03508513
3	0x3c95c9a7	0.018284632
4	0xbc26d0d4	-0.010181624
5	0x3d4447e6	0.04792013
6	0xbe305ca0	-0.17222834
7	0xbe0a471b	-0.13503687
8	0xbe392e8a	-0.1808416
9	0xbe3db1ac	-0.18524808
10	0xbd53f3df	-0.051746245
11	0xbe07e01e	-0.13269088
12	0x3d24ab5b	0.04020248
13	0xbdead7cc	-0.11466941
14	0xbcb147a3	-0.021640604
15	0xbd9aebef	-0.07564532
16	0x3e24cd95	0.16094048
17	0xbda0a04d	-0.07843075
18	0x3dfedf42	0.12444927
19	0x3da4c489	0.080452986
20	0x3c347628	0.011014499
21	0xbd77c9ca	-0.060495175
22	0xbd833a25	-0.064075746
23	0xbdd240f3	-0.10266294
24	0x3d5a81b1	0.05334634
25	0x3ad2c9a9	0.0016081828
26	0xbda97526	-0.082742974
27	0xbc3560ba	-0.011070425
28	0xbdc22617	-0.09479921
29	0x3d97ad11	0.07406057
30	0xbd6cce2b	-0.057813805
31	0x3db65681	0.08903218
32	0x3d137513	0.036000323
33	0x3dff1cb0	0.124566436
34	0x3aa01d9d	0.0012215857
35	0x3d9b8251	0.07593215
36	0x3c6ec1a8	0.014572538
37	0x3dfc7e0f	0.12328731
38	0x3d3e892a	0.04651753
39	0xbd364b21	-0.044505242
40	0xbd8f73ec	-0.07004532
41	0xbd9c3b5b	-0.07628509
42	0x3d04c1a4	0.032411233
43	0xbc75c604	-0.015000824
44	0x3e46faeb	0.19431655
45	0xbd19356b	-0.03740446
46	0xbc9afe65	-0.018920133
47	0xbce5730f	-0.028008966
48	0x3cd33294	0.025780953
49	0xbde1f37d	-0.1103277
50	0xbd09c12c	-0.03363149
51	0x3c52a0a4	0.0128556825
52	0xbc5ca9a9	-0.0134681845
53	0x3cb17cef	0.021666018
54	0x3cbf6ddb	0.023367813
55	0x3d9613ed	0.07328019
56	0x3d4ba710	0.04971987
57	0xbbf568a9	-0.007489283
58	0x39865ab4	0.0002562605
59	0xbd954b0c	-0.07289705
60	0xbda0a01c	-0.078430384
61	0x3e1415fc	0.14461511
62	0x3e55b0bd	0.20868202
63	0x3dce7e7e	0.1008272
64	0xbcaf272d	-0.021380985
65	0xbd889b39	-0.06670231
66	0x3d0f5c27	0.034999993
67	0x3e5feaf8	0.21866977
68	0x3c59a78c	0.013284575
69	0xbd35ecfc	-0.04441546
70	0xbdc4dda2	-0.096125856
71	0xbc8588aa	-0.016300518
72	0xbe543087	-0.20721637
73	0xbd8cf174	-0.06881991
74	0xbd93afdc	-0.07211277
75	0x3d9ed2c4	0.07755044
76	0xbc71391b	-0.014723088
77	0xbd0fe09f	-0.035126325
78	0x3dc357df	0.095382445
79	0x3d657265	0.0560173
80	0x3be48d62	0.006974862
81	0xbd7b7ac8	-0.06139639
82	0x3e2b3b39	0.1672181
83	0x3d795fad	0.06088226
84	0x3c404697	0.01173558
85	0x3d715b6c	0.058925077
86	0x3d28dd77	0.04122683
87	0xbd944236	-0.07239191
88	0x3dd2915c	0.10281631
89	0xbcfb510d	-0.030678296
90	0xbd9be9c2	-0.07612945
91	0xbca1fad5	-0.019772926
92	0xbe0eed7c	-0.1395778
93	0xbd433262	-0.04765547
94	0xbc2341a6	-0.009964382
95	0x3e0400c6	0.1289092
96	0xbd23ae82	-0.039961345
97	0xbc76c75f	-0.015062182
98	0x3da75f4f	0.081724755
99	0xbdb20c1d	-0.08693717
100	0xbda1441c	-0.07874319
101	0x3c0e52fd	0.008686778
102	0xbd2a81b7	-0.041627612
103	0xbce5748b	-0.028009674
104	0xbd15db39	-0.03658602
105	0xbe215d3b	-0.15758221
106	0xbd227753	-0.039664578
107	0xbdf24183	-0.118289016
108	0x3c85a272	0.016312812
109	0xbd3f85c5	-0.046758432
110	0x3c6720cd	0.014106941
111	0xbd9cbe67	-0.07653504
112	0x3d9d5aed	0.07683358
113	0x3d4fb05b	0.050705295
114	0xbdd78162	-0.10522725
115	0xbd9db343	-0.07700207
116	0x3e17b031	0.14813305
117	0x3d3c9d08	0.046048194
118	0x3c4ff4c7	0.012692637
119	0x3d638562	0.055547126
120	0x3da4b248	0.08041817
121	0x3ced7486	0.028986227
122	0x3d895912	0.06706442
123	0xbd9f22f1	-0.077703364
124	0xbc96b927	-0.018398834
125	0xbd5e67c1	-0.054298166
126	0x3d8dbd90	0.06920922
127	0x3da62ab1	0.081136115
128	0x3c5d18fc	0.013494726
129	0xbdab3064	-0.08358839
130	0xbd3d8ba0	-0.046275735
131	0xbdca83fe	-0.09888457
132	0x3c3ac2c7	0.011398978
133	0xbc21efec	-0.009883862
134	0xbc6023af	-0.013680383
135	0x3d6eea8f	0.05832916
136	0x3cddcc52	0.027074967
137	0xbcc47c1e	-0.023984965
138	0xbd2d7e3b	-0.04235671
139	0xbe0e8b29	-0.13920273
140	0xbd73e936	-0.05954858
141	0x3dff12ab	0.124547325
142	0x3de7b830	0.11314428
143	0xbdc69a39	-0.096973844
144	0x3cae19d2	0.021252546
145	0xbd624c6f	-0.055248674
146	0x3d6891a2	0.05677951
147	0xbd43b07c	-0.04777573
148	0xbd018449	-0.031620298
149	0x3d2b043b	0.04175208
150	0xbd1ba458	-0.037998527
151	0xbd138ad1	-0.036021058
152	0x3cbba439	0.022905456
153	0x3cd395b8	0.025828227
154	0xbddfe7a0	-0.10932851
155	0x3c4ee0d7	0.012626848
156	0x3c8d1cf2	0.017225716
157	0xbc623613	-0.013806838
158	0xbd2d8f1f	-0.04237282
159	0xbbcf6742	-0.006329448
160	0x3c520344	0.012818161
161	0x3c0ebb9d	0.008711723
162	0x3d6030eb	0.05473415
163	0xbc652120	-0.013984948
164	0x3d897ba0	0.06713033
165	0x3da8a840	0.08235216
166	0x3d84e4d7	0.0648896
167	0x3dbef87b	0.09324738
168	0xbd2cd217	-0.042192545
169	0xbc921008	-0.01782991
170	0x3e0f44b9	0.1399106
171	0xbba5f44d	-0.0050645233
172	0xbdaa7917	-0.08323877
173	0xbcf45aee	-0.029828515
174	0xbd1601ad	-0.036622692
175	0xbe211b45	-0.15733059
176	0xbd9cc380	-0.07654476
177	0xbc625bca	-0.0138158295
178	0xba50420a	-0.0007944411
179	0x3e6dc55e	0.23219821
180	0x3cec98f3	0.028881526
181	0x3d2b48f8	0.041817635
182	0x3d5f91b4	0.054582313
183	0xbd7328ae	-0.059364967
184	0xbd7109ab	-0.05884711
185	0xbd8bf956	-0.068346664
186	0x3dab2b54	0.083578736
187	0xbd2526c9	-0.04032019
188	0x3e2721f9	0.16321553
189	0xbd118c09	-0.03553394
190	0xbd0b9c70	-0.034084737
191	0xbb51a191	-0.003198717
192	0xbd73f3a4	-0.059558526
193	0xbd755b38	-0.059901446
194	0xbd42b806	-0.04753878
195	0xbe05b54e	-0.13057443
196	0xbe1bfb4b	-0.1523258
197	0xbd4a7d58	-0.049435943
198	0xbdd40ab2	-0.103536025
199	0xbd7eb043	-0.062179815
200	0xbba90835	-0.005158449
201	0xbc1c9e75	-0.0095592635
202	0x3d2f0e37	0.042738166
203	0xbd9e9a00	-0.07744217
204	0x3d4f9bf7	0.05068585
205	0xbd7e57f9	-0.062095616
206	0x3d8744e7	0.06604939
207	0xbd030ba9	-0.031993542
208	0x3d1a7f30	0.03771895
209	0xbd95f4e5	-0.073221005
210	0x3c5cc952	0.013475733
211	0xbe1a2711	-0.15053965
212	0x3c7beab8	0.0153757855
213	0xbe164268	-0.1467377
214	0x3d42c18c	0.047547862
215	0x3cda9d2d	0.026686275
216	0x3d843ccb	0.06456908
217	0x3d136447	0.035984304
218	0xbc979b3f	-0.018506644
219	0x3e0bd9d2	0.1365731
220	0xbe1c1ae5	-0.15244634
221	0xbd235e0d	-0.039884616
222	0xbd603cdf	-0.05474555
223	0xbd10da08	-0.03536418
224	0xbd575620	-0.05257237
225	0xbd968c09	-0.07350928
226	0x3b8febe4	0.004392134
227	0x3e4c17ed	0.19931002
228	0xbe06079e	-0.13088843
229	0x3ddf7e83	0.10912802
230	0x3dce8d10	0.10085499
231	0x3db1bb21	0.0867827
232	0xbd1a1148	-0.037614137
233	0x3c20d298	0.009815834
234	0x3c883c36	0.016630273
235	0x3d073edf	0.033018943
236	0xbc46bd7a	-0.012130136
237	0x3dc1b2d7	0.09457939
238	0xbd55e40d	-0.05221944
239	0xbd07e90f	-0.033181246
240	0xbdde4f12	-0.10854925
241	0x3df17be9	0.11791212
242	0x3e9ce12f	0.3064055
243	0xbae82f2f	-0.0017714257
244	0xbd2e54a8	-0.042561203
245	0x3cd47b42	0.02593768
246	0xbd5d98df	-0.054100867
247	0x3cafab97	0.021444125
248	0xbd996ce7	-0.074914746
249	0xbd4fac3a	-0.050701357
250	0xbd3254f3	-0.043538045
251	0xbd77f851	-0.060539547
252	0xbcf10bf5	-0.029424647
253	0xbd7abd51	-0.061215702
254	0x3df2477e	0.11830042
255	0x3cd3cca3	0.025854414

bias f4 [64]
0	0x3d3caafc	0.0460615
1	0xbc8bbae9	-0.0170569
2	0xbd23ac17	-0.03995904
3	0xbbfbecc9	-0.007688139
4	0xbc41be4b	-0.011825155
5	0x3d22a1e9	0.03970519
6	0xbaa2c883	-0.0012419376
7	0x3d1caf36	0.03825303
8	0x3d813a96	0.063100025
9	0xbd374692	-0.044745035
10	0xbd9da6d4	-0.076978356
11	0x3dc4a118	0.09601039
12	0x3ddd15c4	0.10795167
13	0x3ca927e3	0.020648902
14	0x3d2a37db	0.041557174
15	0x3cd6493f	0.026157973
16	0x3ccf6c04	0.02532006
17	0x3ca334db	0.019922664
18	0x3d10c952	0.035348244
19	0x3cd9c11a	0.026581336
20	0x3d917d9b	0.071040355
21	0xbd6f7448	-0.058460504
22	0x3d862a74	0.06551066
23	0x3d912a20	0.07088113
24	0x3d8fce64	0.07021788
25	0xbcb69ed9	-0.022292541
26	0x3bc8b7a4	0.0061254073
27	0xbd36887d	-0.04456376
28	0x3d8679bb	0.06566187
29	0x3ce3cd67	0.027807904
30	0x3caa77bc	0.020809047
31	0xbc9155cc	-0.017741106
32	0xbcbd42bf	-0.023103116
33	0x3c95a54b	0.018267294
34	0x3da861ee	0.082218036
35	0x3cd406ec	0.025882207
36	0x3c30dd08	0.010794885
37	0x3d4f2a17	0.05057725
38	0xbd9a2a8e	-0.07527648
39	0xbd298feb	-0.041397016
40	0x3bc489d5	0.005997876
41	0xbd39c37d	-0.045352448
42	0x3db73ac2	0.08946754
43	0xbd23c1e2	-0.039979823
44	0xbc4deffc	-0.012569424
45	0xbad8146a	-0.0016485576
46	0x3d4fa7ab	0.05069701
47	0x3c48f5da	0.012265647
48	0xbc4c7d2e	-0.012481017
49	0xbdab6283	-0.08368399
50	0xbd90e20f	-0.07074367
51	0x3a3bd1c6	0.00071647426
52	0x3d000243	0.031252157
53	0x3b193299	0.0023376106
54	0xbd598883	-0.053108703
55	0x3d28fbf1	0.041255895
56	0x3d59aa8e	0.05314117
57	0xbd138158	-0.036012024
58	0xbc1c3973	-0.009535181
59	0xbc86ef34	-0.016471483
60	0x3d425f6f	0.047454294
61	0x3deae4cb	0.1146942
62	0x3d783921	0.060601357
63	0xbc84663f	-0.016162036

weight f4 [128, 1024]
0	0xba8fc48a	-0.0010968607
1	0x3ca7b661	0.020472707
2	0x3b9c21a5	0.004764753
3	0x3ca8d820	0.020610869
4	0xbd3e6c52	-0.04649002
5	0xbd4f38e5	-0.05059137
6	0x3cf8bfa8	0.030364826
7	0x3e114c01	0.1418915
8	0xbd4071c2	-0.046983488
9	0xbd834c2e	-0.064110145
10	0xbc4e09c0	-0.012575567
11	0x3c9fc47e	0.019502874
12	0xbe16846b	-0.14698951
13	0x3d35319c	0.044236764
14	0xbddd503c	-0.10806319
15	0xbe141f7c	-0.14465135
16	0xbe3af1a5	-0.18256243
17	0xbe1e1cb5	-0.15440638
18	0x3cdfb6aa	0.02730878
19	0x3d9c3c35	0.07628671
20	0xbd8a2b3a	-0.06746526
21	0xbdfa0fce	-0.12210046
22	0xbd318e4e	-0.043348603
23	0xbc5abc26	-0.013350522
24	0xbdf8d680	-0.12150288
25	0xbd5a12e2	-0.053240664
26	0xbe00736e	-0.12544033
27	0x3d89bc73	0.06725397
28	0x3df39141	0.11892939
29	0xbcc45dfb	-0.023970595
30	0xbdeb959d	-0.11503146
31	0x3d0b56a8	0.03401819
32	0x3d565c51	0.052334134
33	0x3bbb4ec5	0.005716177
34	0x3d739c0e	0.059474997
35	0xbac1f31b	-0.0014797183
36	0xba6a80f2	-0.0008945606
37	0xbcee1499	-0.029062556
38	0xbdb448cd	-0.08802948
39	0xbcb1504a	-0.02164473
40	0x3e022933	0.12711029
41	0x3d875e95	0.06609837
42	0x3cd2ead8	0.025746748
43	0x3d4a6a88	0.049418002
44	0x3cb6fcb9	0.022337304
45	0xbd213b0b	-0.03936295
46	0xbd7acf91	-0.061233107
47	0x3d576b11	0.05259234
48	0x3cbd5713	0.02311281
49	0x3d36f200	0.044664383
50	0x3bba4987	0.0056850347
51	0x3e4357c3	0.19076447
52	0x3d900215	0.07031647
53	0xbdfbdf93	-0.12298503
54	0x3a68829f	0.0008869562
55	0x3ce9e9eb	0.028553924
56	0x3d30e2d3	0.043185066
57	0xbd4497d3	-0.047996353
58	0x3ae93649	0.0017792667
59	0x3d672802	0.05643464
60	0xbd0b71f5	-0.034044225
61	0x3c85bdd8	0.016325876
62	0xbceb4dfd	-0.028723711
63	0x3cadfae3	0.021237796
64	0x3d57fb7d	0.052730072
65	0xbd881bda	-0.06645937
66	0xbd2169f6	-0.039407693
67	0xbc9b6e1d	-0.018973405
68	0x3da27177	0.07931798
69	0xbdbc59b2	-0.091967955
70	0x3d5b9582	0.05360938
71	0xbb5c01b8	-0.003357036
72	0x3d941447	0.0723043
73	0xbd5940b6	-0.05304023
74	0x3cbc94db	0.023020199
75	0xba923b88	-0.0011156658
76	0x3cfc58ef	0.030804126
77	0xbe17a792	-0.14810017
78	0xbc6b42c5	-0.014359181
79	0x3cd52545	0.026018748
80	0xbd877343	-0.06613781
81	0x3db6cd33	0.089258574
82	0x3d85e885	0.0653849
83	0x3d68fdfc	0.056882843
84	0xbd599d9f	-0.053128835
85	0x3d8ad0e9	0.06778128
86	0xbe1a4c23	-0.15068106
87	0xbddc8789	-0.10768039
88	0xbc33fb0c	-0.010985147
89	0xbcb88e16	-0.02252869
90	0xbdba451f	-0.09095215
91	0xbd606c25	-0.054790635
92	0x3d370882	0.044685848
93	0x3d3b8b84	0.04578735
94	0x3cab7821	0.020931305
95	0xbd9edb0f	-0.07756626
96	0xbd394263	-0.045229327
97	0x3aa3f069	0.0012507561
98	0x3d91194a	0.07084902
99	0x3da414b7	0.080117635
100	0x3c720aef	0.014773115
101	0xbba8e0f6	-0.0051537706
102	0xbdb21e94	-0.086972386
103	0xbdce4014	-0.10070816
104	0xbb777e7f	-0.0037764607
105	0xbce1faf5	-0.027585486
106	0xbdf7aaa4	-0.12093094
107	0x3c571ba2	0.013129147
108	0xbd40093a	-0.0468838
109	0x3dbdf425	0.092750825
110	0x3dd7221f	0.10504555
111	0xbdb012aa	-0.0859731
112	0xbd4fbbe1	-0.050716285
113	0x3d39447d	0.04523133
114	0x3cc2738a	0.023736734
115	0xbcf7254c	-0.030169152
116	0x3d28ce51	0.041212384
117	0xbdf2c312	-0.11853613
118	0xbd6270b1	-0.055283252
119	0xbd39a8bf	-0.045326944
120	0xbd2fe9dd	-0.04294764
121	0xbd445a52	-0.0479377
122	0xbd42855b	-0.04749046
123	0x3bad9eab	0.0052984557
124	0xbd6b0227	-0.0573751
125	0xbccf5d27	-0.025312973
126	0xbd8a1756	-0.06742732
127	0x3d75b378	0.059985608
128	0xbd28c0ed	-0.041199613
129	0x3cec1e6d	0.028823102
130	0xbc93a18e	-0.018021371
131	0xbdbd28a7	-0.092362694
132	0xbd01f431	-0.03172702
133	0xbcf23c41	-0.029569747
134	0xbb03006a	-0.001998926
135	0xbdbf5842	-0.09343006
136	0x3d0378f4	0.03209777
137	0xbc7a78c0	-0.015287578
138	0xbdbbf503	-0.09177592
139	0x3cc737ca	0.024318594
140	0xbccd1c46	-0.025037896
141	0xbe124ef5	-0.14287932
142	0x3cc95cef	0.024580447
143	0x3d04c6c8	0.032416135
144	0xbd8053d6	-0.062659904
145	0x3c219c98	0.009863995
146	0x3d56181f	0.052269097
147	0x3df6ab07	0.120443396
148	0x3c2a5430	0.010396048
149	0xbdd4463e	-0.1036496
150	0x3d0567ef	0.032569822
151	0x3ccb9aa7	0.024854017
152	0xbe5b7e89	-0.21434988
153	0xbda9f5d6	-0.082988426
154	0x3c06713a	0.008205706
155	0x3d000ac4	0.031260267
156	0xbdf842fd	-0.12122152
157	0x3d3fafdf	0.046798583
158	0x3da10e51	0.07864059
159	0xbe150964	-0.14554363
160	0x3bc11ec4	0.00589356
161	0xbc1a9b05	-0.009436374
162	0xbd9e82f4	-0.07739821
163	0x3d454481	0.048161034
164	0x3c5f342f	0.013623281
165	0x3d0ca225	0.03433432
166	0xbd1ad73f	-0.03780293
167	0xbdd52475	-0.10407344
168	0xbc049b62	-0.008093687
169	0xbc3e5e92	-0.011619227
170	0xbd31f94b	-0.043450635
171	0x3a9dfc1e	0.0012053286
172	0xbd94d28e	-0.072667226
173	0xbc75b72d	-0.014997286
174	0x3ce9bc3c	0.02853214
175	0xbdb50978	-0.08839697
176	0xbc214891	-0.009843961
177	0x3cde807c	0.027160875
178	0xbd933342	-0.07187511
179	0x3d5102a0	0.051027894
180	0xbd8ef433	-0.06980171
181	0x3c1faf96	0.009746453
182	0x3d4f4c9a	0.050610162
183	0x3cb1d2a0	0.02170688
184	0xbd94e8c2	-0.072709575
185	0x3c60c909	0.0137198055
186	0x3cf1452e	0.029451933
187	0xbc57f453	-0.01318081
188	0xbcf4be07	-0.029875768
189	0x3bee79af	0.0072776894
190	0xbcb18396	-0.02166919
191	0xbd7e59d4	-0.062097386
192	0x3a3736d5	0.00069890666
193	0xbceae87f	-0.028675316
194	0xbcfcebd4	-0.03087417
195	0x3d03dfe7	0.03219595
196	0x3cda2495	0.026628772
197	0x3ccb912d	0.024849499
198	0x3b94298b	0.004521554
199	0xbcb73f34	-0.022369005
200	0x3e01ab82	0.12663081
201	0xbdf6bc47	-0.1204763
202	0xbd912807	-0.07087713
203	0xbe5fe87a	-0.21866027
204	0xbd9c3f51	-0.07629264
205	0xbdbb1374	-0.0913457
206	0x3cd51ba9	0.026014166
207	0xbd41efd1	-0.047347847
208	0xbca79a73	-0.02045939
209	0xbd36dfef	-0.044647153
210	0x3dcc8071	0.09985436
211	0x3db3f9c1	0.08787871
212	0x3cb4d5a0	0.02207452
213	0x3ca5f3cd	0.020257855
214	0x3d56c15d	0.0524305
215	0x3c15575c	0.009115066
216	0xbceafa61	-0.028683843
217	0x3d46729c	0.048449144
218	0xbc0f3720	-0.00874117
219	0x3e02d9d6	0.1277841
220	0xbdbcc522	-0.092172876
221	0xbdf5f30d	-0.12009249
222	0x3c8292c6	0.015939128
223	0x3db627cc	0.088943094
224	0xbe12e119	-0.1434368
225	0xbda36a96	-0.07979314
226	0xbd5d49b1	-0.054025356
227	0x3d5b2b66	0.053508185
228	0xbe3b1fd8	-0.18273866
229	0xbcde785b	-0.027157
230	0xbd6ea302	-0.058260925
231	0x3e0c26ad	0.13686629
232	0xbe22dee9	-0.15905346
233	0xbe1d972d	-0.153897
234	0xbe3dc644	-0.18532664
235	0xbcc23ae8	-0.02370973
236	0xbd2e537e	-0.042560093
237	0xbdd8e57d	-0.105906464
238	0xbd75d647	-0.060018804
239	0x3b721d60	0.0036943778
240	0xbd495bfc	-0.04915999
241	0x3bc25720	0.0059307963
242	0x3d4a5872	0.049400754
243	0x3da1285d	0.07869027
244	0x3c80efa4	0.01573927
245	0xbd9e924a	-0.07742746
246	0x3cabf312	0.020989928
247	0x3e094e89	0.13408865
248	0xbb949d89	-0.004535381
249	0x3cb967df	0.022632537
250	0x3d7e12df	0.062029716
251	0x3d8632ab	0.06552633
252	0x3cd85dcd	0.026411915
253	0x3c9593d0	0.018258959
254	0xbc78165f	-0.015142052
255	0xbd5d555f	-0.054036494

bias f4 [128]
0	0xbd02d7cf	-0.031944092
1	0xbd85a184	-0.06524947
2	0xbcdc2874	-0.026874758
3	0x3c96a479	0.018388974
4	0xbc130054	-0.008972246
5	0x3d4f715c	0.050645217
6	0x3ca8d49d	0.020609194
7	0x3b2ef00f	0.002669338
8	0x3daa40d6	0.08313148
9	0xbb760dc8	-0.0037544835
10	0xbd9846e6	-0.07435398
11	0xbda4d499	-0.08048362
12	0x3db4b05c	0.088227004
13	0xbb82fb0a	-0.0039972113
14	0x3cec68db	0.028858593
15	0xbc98ca54	-0.018651165
16	0x3dc39e0b	0.09551629
17	0x3e0d89d2	0.13822106
18	0xbc2b955c	-0.010472622
19	0x3d11b177	0.035569634
20	0x3dde3732	0.108503714
21	0xbdc004f6	-0.09375946
22	0xbd80218c	-0.062563986
23	0x3d2fba01	0.042901997
24	0xbcd5dde3	-0.02610678
25	0xbce28e2e	-0.027655687
26	0x3e02536d	0.12727137
27	0xbd8d67c3	-0.069045566
28	0x3b32412d	0.0027199492
29	0x3d8e63b5	0.06952611
30	0x3e160515	0.14650376
31	0x3d28432c	0.041079685
32	0x3cc7346c	0.024316989
33	0x3d807077	0.06271451
34	0xbcf2f8fb	-0.029659739
35	0xbd80de2d	-0.06292377
36	0x3e6e60a9	0.2327906
37	0x3e086876	0.13321099
38	0x3db92842	0.09040882
39	0x3e4ee32d	0.20203848
40	0x3deb2819	0.114822574
41	0xbc11ccd5	-0.008898933
42	0xbd039e7a	-0.032133557
43	0x3dc8ddd4	0.09807935
44	0xbcb0bbc1	-0.021573903
45	0x3d5639ec	0.052301332
46	0xbd656503	-0.056004535
47	0x3e298ed8	0.16558397
48	0x3e420dec	0.18950623
49	0x3ce91254	0.028451122
50	0xbb0ec6fb	-0.0021786082
51	0xbd2c928c	-0.042131945
52	0x3d86e9fa	0.06587596
53	0xbc473038	-0.012157492
54	0xbcb35eb7	-0.02189575
55	0x3cbee79c	0.0233038
56	0x3dc7171c	0.09721205
57	0x3cc920c4	0.024551757
58	0xbdb14660	-0.08656001
59	0xbd368bd4	-0.044566944
60	0x3ddef005	0.10885624
61	0x3d039f39	0.03213427
62	0xbde62737	-0.112379484
63	0x3cf57922	0.029964987
64	0x3ca64b8a	0.020299692
65	0x3dcc6ae8	0.09981328
66	0x3db64414	0.088997036
67	0xbcc087d5	-0.02350227
68	0x3c6765e6	0.014123416
69	0xbc4aa0b4	-0.012367416
70	0x3d1ceff8	0.03831479
71	0xbd37bf6b	-0.044860285
72	0x3e68e33e	0.22742936
73	0xbd15af14	-0.03654392
74	0xbd8beb15	-0.06831948
75	0xbda309e8	-0.07960874
76	0x3d9c35aa	0.07627423
77	0x3da057b3	0.07829227
78	0x3d733777	0.059379067
79	0x3d589ba9	0.052882824
80	0x3d7fec78	0.062481374
81	0x3e04efbc	0.12982076
82	0xbdce6a27	-0.10078841
83	0x3d7efcce	0.062252812
84	0x3d897f38	0.06713718
85	0xbd14d60f	-0.036336955
86	0x3d0d9268	0.034563452
87	0x3d814b02	0.06313135
88	0x3dce8122	0.10083224
89	0xbd064631	-0.032781783
90	0xbda0de5f	-0.07854914
91	0x3dee2927	0.11628943
92	0xbd1a24f8	-0.037632912
93	0x3d54116a	0.05177442
94	0x3dc76f72	0.097380534
95	0xbc3aeff4	-0.011409748
96	0xbcc2f6b2	-0.023799274
97	0x3d300dd3	0.042981934
98	0xba953ecc	-0.0011386513
99	0x3d081f38	0.033232898
100	0x3de204d9	0.11036081
101	0x3df13278	0.11777204
102	0x3c8da9a1	0.0172928
103	0x3c8c0516	0.017092269
104	0xbb7b6493	-0.0038359507
105	0xbcb60cbd	-0.022222871
106	0xbd331d83	-0.043729316
107	0x3d61981e	0.05507671
108	0x3d1c6ce5	0.038189787
109	0x3cf6b2ed	0.030114615
110	0x3dde20ae	0.10846077
111	0x3d3a1fd5	0.045440514
112	0xbc79c8eb	-0.0152456565
113	0x3cccf661	0.025019826
114	0xbd9c921e	-0.07645057
115	0xbd25eeee	-0.040511064
116	0x3c9fcf5c	0.019508056
117	0x3d302443	0.043003332
118	0x3d44db59	0.04806075
119	0x3dbabc42	0.091179386
120	0x3be9d481	0.007135928
121	0x3c6fe5ea	0.014642218
122	0xbd34a292	-0.04410035
123	0x3dcc3b53	0.09972253
124	0xbc5092ec	-0.012730341
125	0x3e0dddc2	0.13854125
126	0x3d3a457f	0.045476433
127	0x3d9b21f1	0.07574833

weight f4 [15, 128]
0	0x3e17cc09	0.14823927
1	0x3de574d0	0.11203921
2	0x3e725331	0.23664548
3	0x3de6f3fc	0.11277005
4	0xbe1c849c	-0.15284961
5	0x3dbac1cd	0.09118996
6	0x3d164c54	0.036693886
7	0x3e2a7101	0.1664467
8	0xbe636f16	-0.22210345
9	0x3dd91e4c	0.10601482
10	0xbc352a40	-0.0110574365
11	0x3e6ca89a	0.23111191
12	0xbe4438b2	-0.19162253
13	0x3d8eed94	0.06978908
14	0x3c053311	0.008129851
15	0xbe096602	-0.13417819
16	0xbc5ae6ef	-0.013360723
17	0xbc6210da	-0.013797963
18	0xbde0f2f1	-0.109838374
19	0x3d867eb1	0.06567133
20	0xbdc51a02	-0.09624101
21	0x3d65527c	0.055986866
22	0xbe01e32e	-0.12684318
23	0x3cb2a8a4	0.02180893
24	0x3c9c940d	0.019113565
25	0x3d1d2a12	0.0383702
26	0xbdeb479f	-0.1148827
27	0x3da798df	0.08183455
28	0x3ded237a	0.11579032
29	0x3d04bc27	0.032406
30	0xbde6a38a	-0.11261661
31	0x3de783b4	0.11304417
32	0xbd3c547b	-0.045979004
33	0xbddd5452	-0.108070984
34	0xbd8c2f63	-0.06844976
35	0x3dba9355	0.091101326
36	0xbd76cecc	-0.06025581
37	0xbd32cb13	-0.043650698
38	0x3d64aa81	0.055826668
39	0x3d5b95c8	0.05360964
40	0xbdd0741a	-0.101783946
41	0xbe422018	-0.18957555
42	0x3df14054	0.11779848
43	0xbd9985c8	-0.0749622
44	0x3da749df	0.08168387
45	0xbcbf1454	-0.023325123
46	0x3c8be846	0.01707853
47	0xbd528bc2	-0.051402815
48	0x3dadbca3	0.08483245
49	0xbcd82846	-0.026386391
50	0x3e13e6b4	0.14443475
51	0xbd55da23	-0.052209985
52	0x3d4aed32	0.049542613
53	0x3d0ff754	0.03514798
54	0x3e01da39	0.12680902
55	0x3d84afef	0.06478869
56	0x3de32a96	0.11092107
57	0x3e19c100	0.1501503
58	0x3c1135b2	0.0088629
59	0xbe611285	-0.21979721
60	0x3d03f8a3	0.03221954
61	0xbdd64212	-0.10461821
62	0x3da5d608	0.08097464
63	0x3d1f8e03	0.038953792
64	0x3d3f0f02	0.046645172
65	0xbe8bac4d	-0.27279893
66	0xbdfecab1	-0.12441004
67	0xbe190fba	-0.14947405
68	0x3e10d82a	0.1414496
69	0xbd0c160d	-0.034200717
70	0x3e187491	0.14888217
71	0x3ddd3375	0.1080083
72	0x3d50e794	0.0510021
73	0x3d586f8c	0.052840754
74	0x3d1aaf5f	0.037764903
75	0xbd75829a	-0.059939004
76	0xbe0af2e7	-0.13569222
77	0xbe3dd82d	-0.18539496
78	0x3d1410ec	0.03614895
79	0x3dabb686	0.08384423
80	0x3d8ded4b	0.06930026
81	0xbe403381	-0.18769647
82	0x3dd4a3f3	0.10382833
83	0x3d148e18	0.036268324
84	0xbe3a9a00	-0.18222809
85	0x3cc148cf	0.023594288
86	0x3dc6fb00	0.09715843
87	0x3c68e371	0.0142143825
88	0x3db07606	0.08616261
89	0x3e376371	0.17909028
90	0xbe53025b	-0.20606367
91	0x3d54fb46	0.051997446
92	0xbe82531d	-0.25454035
93	0xbb825c50	-0.0039782897
94	0x3da5ca4d	0.080952264
95	0x3de20c99	0.11037559
96	0xbdfdc131	-0.12390364
97	0x3d8f8e36	0.070095465
98	0x3c0019bd	0.0078186365
99	0xbb0df022	-0.0021658023
100	0x3d63c7d1	0.05561048
101	0xbd848423	-0.064705156
102	0x3db5f6d8	0.08884972
103	0x3c7f7384	0.015591506
104	0xbe2ba947	-0.16763793
105	0x3e36f246	0.17865857
106	0x3dc91218	0.09817904
107	0xbd769968	-0.060204893
108	0x3dcc6b0f	0.09981357
109	0xbe8613e7	-0.2618706
110	0xbd6f32ea	-0.058398165
111	0x3d4ca345	0.049960393
112	0x3dc30d82	0.09524061
113	0xbd856968	-0.06514245
114	0xbd383343	-0.044970762
115	0x3d054496	0.03253611
116	0xbe3b321b	-0.18280832
117	0x3d4205aa	0.047368683
118	0xbbb482b6	-0.005508746
119	0xbd7884ff	-0.06067371
120	0x3c5cb977	0.013471953
121	0xbe5c9be9	-0.2154385
122	0x3d86c049	0.06579644
123	0xbd010766	-0.031501196
124	0x3cdd462c	0.027011
125	0xbd940a6d	-0.07228551
126	0x3e14d965	0.14536054
127	0xbe400e38	-0.18755424
128	0x3c1375bc	0.009000238
129	0x3d29cabe	0.041453116
130	0xbe054c42	-0.13017371
131	0x3cb1f8cd	0.021725083
132	0xbe1a50af	-0.15069841
133	0xbdb020b0	-0.08599985
134	0x3d43b5e9	0.047780905
135	0xba848a58	-0.001011203
136	0x3ce49b7f	0.027906178
137	0x3d071c7d	0.032986153
138	0x3d10827e	0.035280697
139	0x3dd5a9b7	0.10432761
140	0x3db8b79b	0.09019395
141	0x3d62de27	0.055387642
142	0x3da22796	0.07917707
143	0xbdfdd40b	-0.123939596
144	0x3d9a0f71	0.075224765
145	0xbd0357f1	-0.03206629
146	0x3d7f7777	0.06236979
147	0xbd5c7db2	-0.05383081
148	0x3cbd0c4a	0.023077149
149	0xbce0795b	-0.027401617
150	0xbd1b14d6	-0.037861668
151	0x3d634e9b	0.055494886
152	0x3e608b0f	0.21928047
153	0xbdcd8be0	-0.10036445
154	0xbc8e7d09	-0.017393606
155	0x3be39359	0.0069450554
156	0x3e1f7c1d	0.15574689
157	0xbc3860da	-0.01125356
158	0x3d64f3a8	0.05589643
159	0xbd042ba4	-0.03226818
160	0x3bd266c4	0.006420942
161	0x3d195863	0.037437808
162	0xbe701526	-0.23445567
163	0xbd98df03	-0.07464411
164	0xbc57a551	-0.013161973
165	0xbd8e295a	-0.06941481
166	0xbd1233a3	-0.035693776
167	0xbd108f4d	-0.035292912
168	0x3b9cc956	0.0047847433
169	0xbd4e2a32	-0.05033321
170	0x3e0faca3	0.140307
171	0xbe21f139	-0.15814675
172	0xbd1f6147	-0.03891113
173	0xbd5cbf98	-0.053893656
174	0xbe354539	-0.17702188
175	0x3def1154	0.11673227
176	0x3cccd115	0.025002042
177	0x3d58bcaf	0.052914318
178	0xbde47585	-0.111552276
179	0x3bd7bcef	0.006583802
180	0x3d0e505c	0.034744605
181	0x3e024de0	0.1272502
182	0xbdc4a2c4	-0.096013576
183	0x3c87e45e	0.016588386
184	0xbd569df9	-0.05239675
185	0x3d5c3588	0.05376199
186	0x3dcf4e8b	0.10122403
187	0x3d62ec86	0.055401348
188	0x3bfb1916	0.0076629026
189	0xbd96a427	-0.07355528
190	0x3d3881bd	0.045045603
191	0x3c21e5b0	0.009881422
192	0x3c8191ba	0.015816558
193	0x3d61e3c5	0.05514886
194	0xbd7cf547	-0.061757352
195	0xbe101c10	-0.14073205
196	0x3e25c4d9	0.16188373
197	0xbc1c026a	-0.00952206
198	0xbdcb35ac	-0.099223465
199	0xbd72f675	-0.05931707
200	0xbc6fcd8c	-0.014636409
201	0x3d2ab796	0.041678987
202	0x3c08bb61	0.008345456
203	0xbe4c7605	-0.19966896
204	0xbe2a29cb	-0.16617505
205	0x3c903765	0.01760454
206	0xbdf44858	-0.11927861
207	0xbd326600	-0.043554306
208	0x3c7ef4c5	0.015561287
209	0x3d49e057	0.049286213
210	0xbe071887	-0.1319295
211	0x3c8d0d18	0.017218158
212	0xbd7424e8	-0.05960551
213	0xbd198139	-0.037476752
214	0xbc3de942	-0.0115912575
215	0xbc83adfc	-0.016074173
216	0x3bb66b15	0.0055669644
217	0x3dce0ba9	0.10060818
218	0x3dd8c634	0.10584679
219	0x3cef7a7e	0.029233214
220	0x3d9d5e10	0.076839566
221	0xbdfe192a	-0.124071434
222	0x3d547b49	0.051875386
223	0x3dd81259	0.105503745
224	0x3e2544e8	0.16139567
225	0xbd531d19	-0.05154142
226	0xbca483db	-0.020082405
227	0xbd131b95	-0.035914976
228	0x3c03caaa	0.008043924
229	0x3c289397	0.010289094
230	0x3dd2b2cd	0.1028801
231	0xbd4431cc	-0.047899053
232	0xbe33f5af	-0.1757419
233	0x3def9dc7	0.117000155
234	0xbdc6d377	-0.097083025
235	0xbe03c166	-0.12866744
236	0xbd0bf89c	-0.03417264
237	0x3d1b51c4	0.037919775
238	0x3cdaa846	0.026691567
239	0xbd7bcf53	-0.061477017
240	0xbd74abde	-0.059734218
241	0xbdef71e9	-0.116916485
242	0xbd75054f	-0.059819516
243	0xbd596c5b	-0.05308185
244	0xbd359303	-0.044329654
245	0xbdbef6e5	-0.09324435
246	0xbbf749d7	-0.007546644
247	0x3db90755	0.090346016
248	0xbdcd6b11	-0.10030187
249	0x3c2d52f5	0.0105788605
250	0xbcc83545	-0.024439463
251	0xbd7ace76	-0.061232053
252	0x3d5b9097	0.05360469
253	0xbb4d4567	-0.0031321885
254	0xbd3f9776	-0.046775304
255	0xbc463713	-0.012098092

bias f4 [15]
0	0x3c5351bd	0.012897906
1	0x3be00325	0.0068363124
2	0x3d2f5c96	0.042812906
3	0xbcb1a302	-0.021684173
4	0xbd04b2ca	-0.03239707
5	0x3c08d980	0.008352637
6	0xbd13a033	-0.03604145
7	0xbd02b8c3	-0.031914484
8	0xbc9d333c	-0.01918947
9	0xbc334bc6	-0.010943359
10	0xbba53477	-0.0050416547
11	0x3d2358ce	0.039879613
12	0x3ce5e2ab	0.028062185
13	0x3d11f2f7	0.0356321
14	0xbc90e26c	-0.017686091

weight f4 [1, 128]
0	0x3b84331c	0.004034413
1	0x3b367783	0.002784223
2	0xbbe7a445	-0.007069143
3	0x3b6bc2a6	0.0035974174
4	0x3c05e139	0.008171373
5	0x3c32f130	0.010921761
6	0x3c8f2037	0.017471416
7	0x3b939075	0.0045033046
8	0x3c608b51	0.013705091
9	0x3c4a4007	0.012344367
10	0xbd8f77b1	-0.07005251
11	0xbc8591e4	-0.016304918
12	0x3cff81a6	0.03118975
13	0xba4b8e91	-0.00077650795
14	0x3b4cc5bb	0.0031245786
15	0x3b8d3564	0.004309343
16	0x3bb4b596	0.005514811
17	0x3d4786af	0.04871243
18	0xbaf50c43	-0.0018695671
19	0x3b1bfc58	0.0023801532
20	0x3cb4346d	0.021997655
21	0x3b479d86	0.0030458882
22	0xbc92550e	-0.017862823
23	0x3d3bd94c	0.045861527
24	0xbbb0afb7	-0.0053920406
25	0x3bf89b01	0.0075868373
26	0x3d06354b	0.032765668
27	0xbc4a0960	-0.012331337
28	0x39005e65	0.00012242196
29	0x3c3d8486	0.011567241
30	0x3d82a575	0.06379215
31	0x3c40eace	0.011774732
32	0x3c3da0ac	0.011573952
33	0x3b619921	0.0034423547
34	0xbb949c45	-0.0045352303
35	0xbd1826e1	-0.037146453
36	0x3d8b670d	0.06806765
37	0x3d3a4e6d	0.04548495
38	0x3d61fe64	0.055174246
39	0x3cf65f47	0.030074729
40	0x3c255d0a	0.010092983
41	0xbbb5a101	-0.005542875
42	0x3c1de7e8	0.00963781
43	0x3c1453a1	0.009053142
44	0x3c7e099b	0.01550522
45	0xbbf388cf	-0.0074320803
46	0xbd5a3bb2	-0.053279586
47	0x3d504518	0.050847143
48	0x3d0f7e5f	0.035032626
49	0xbb98a2f7	-0.004658099
50	0xbbabe179	-0.0052453843
51	0xb85de7eb	-5.2906496e-05
52	0x3cc4bd9a	0.02401619
53	0x3b7bf410	0.0038445033
54	0x3b18ca7c	0.002331405
55	0xbc229cb1	-0.009925053
56	0x3ce7db3d	0.028302783
57	0x3c132a23	0.008982214
58	0xbd00d5da	-0.031453945
59	0x3b9cbf2d	0.004783532
60	0x3d84d468	0.06485826
61	0x3c2e38fc	0.010633703
62	0xbd0020f1	-0.031281415
63	0xbc3be653	-0.011468488
64	0xbd2679dc	-0.040643558
65	0x3c448cf2	0.011996495
66	0x3ceb76a9	0.028743105
67	0x3be27388	0.006910745
68	0x3c561cd8	0.0130684
69	0xbb0f9564	-0.0021909112
70	0x3c802563	0.015642827
71	0xbc1e94d8	-0.009679042
72	0x3d73cb5f	0.05952012
73	0xbbdca57a	-0.0067335935
74	0xbb09bb69	-0.0021016246
75	0xbca67251	-0.020318182
76	0x3c8754bb	0.016519895
77	0x3c3c8b39	0.011507803
78	0x3c3768d6	0.011194428
79	0x3c5832bc	0.01319569
80	0x3b1c70ca	0.0023870938
81	0x3d99772b	0.074934326
82	0xbd26001a	-0.04052744
83	0x3b36d54f	0.0027898138
84	0x3c2a61de	0.01039931
85	0xbc0f7c99	-0.008757734
86	0x3bff98b5	0.0078001865
87	0xbb32efa3	-0.002730348
88	0x3d1aad73	0.03776307
89	0xbc018d64	-0.007907245
90	0xbcb5907f	-0.022163628
91	0x3cc61cd4	0.024183668
92	0x3b9432f6	0.0045226766
93	0x39b5e0ea	0.00034690584
94	0x3ce230c5	0.027611146
95	0xbd2d5c58	-0.042324394
96	0x3bfaefd9	0.0076579866
97	0x3cba3818	0.022731826
98	0x38cf5399	9.8861005e-05
99	0xbb8fc820	-0.0043878704
100	0x3c80e0b7	0.015732152
101	0x3c138cb9	0.009005719
102	0x3cb31379	0.021859871
103	0x3a50094f	0.00079359574
104	0x3c1f5634	0.009725142
105	0x3ba92d99	0.0051629064
106	0xbc0d90c5	-0.008640473
107	0xbc362c45	-0.011118953
108	0x3d6feaf8	0.058573693
109	0x3acf4b41	0.0015815274
110	0x3c486dac	0.012233179
111	0x3bf862db	0.007580144
112	0x3b41c8c4	0.0029569129
113	0xbcb2c3c5	-0.021821866
114	0xbd48ca3b	-0.049020987
115	0xbc48f3cc	-0.012265157
116	0xbc8de090	-0.017318994
117	0x3c1e35b9	0.009656363
118	0xbb3abd5a	-0.002849421
119	0x3b7f7251	0.003897805
120	0x3caa4882	0.020786528
121	0xb9e99f0a	-0.00044559716
122	0xbc2e6a52	-0.010645466
123	0x3cf04005	0.029327402
124	0x3b4f6684	0.0031646797
125	0x3cff056c	0.031130515
126	0xbc593243	-0.013256612
127	0x3dc0c4a3	0.094125055
