results_final/generalization-32fd/300levels-policy.pt (torch, 443935 bytes, 11 tensors)

weight f4 [32, 3, 8, 8]
0	0xbe45ec5f	-0.1932845
1	0x3db7cbd8	0.08974427
2	0x3e102ba7	0.14079152
3	0xbdf4aa3e	-0.119465336
4	0xbc078b37	-0.0082729375
5	0xbc09a87b	-0.008401985
6	0x3e33e7e9	0.17568935
7	0xbd8ebae9	-0.06969244
8	0xbd3dc017	-0.04632577
9	0xbdbe47a9	-0.09291012
10	0xbd090e07	-0.033460643
11	0xbe911c56	-0.2834193
12	0xbcc85a71	-0.024457188
13	0x3e29a2d2	0.16566017
14	0xbcc5b7ab	-0.024135431
15	0x3d17bf05	0.037047405
16	0x3cacafdd	0.021079952
17	0x3dd51c90	0.104058385
18	0x3e7aff3f	0.24511431
19	0xbd99e8e6	-0.07515125
20	0xbe12bbdd	-0.14329477
21	0x3d087d9e	0.033322923
22	0xbd62ffaf	-0.05541962
23	0xbd915ffd	-0.070983864
24	0x3e24936b	0.1607186
25	0x3e0a6bca	0.13517681
26	0x3e0a532a	0.13508287
27	0xbe0327bb	-0.12808125
28	0xbdb6f64f	-0.089336984
29	0xbd8836bd	-0.066510655
30	0x3bc40da4	0.0059830714
31	0xbdf9ea3a	-0.12202878
32	0xbe4984a3	-0.19679503
33	0xbd8184b9	-0.06324143
34	0x3d1198a4	0.03554596
35	0x3e1d0a59	0.15335979
36	0x3db3fd61	0.087885626
37	0x3e0d9ff5	0.1383055
38	0x3e919b43	0.28438768
39	0x3df064d8	0.117379844
40	0x3cf56f0a	0.029960174
41	0xbde6db07	-0.11272245
42	0x3d879cf8	0.06621736
43	0xbcffb46d	-0.031213963
44	0xbdeb6ea4	-0.114957124
45	0xbd82a86f	-0.063797824
46	0xbc4b30bd	-0.012401757
47	0x3d8768e4	0.06611803
48	0x3e811866	0.25213927
49	0x3d3c069e	0.04590475
50	0xbde46580	-0.11152172
51	0x3e381e73	0.17980365
52	0x3e342f72	0.17596224
53	0xbe3c4383	-0.18385129
54	0xbe4368a2	-0.19082883
55	0xbb393127	-0.0028258057
56	0xbe1c69ff	-0.1527481
57	0xbda5dc09	-0.08098609
58	0x3d6ab52e	0.057301693
59	0x3deefbb7	0.116691045
60	0x3e97a571	0.2961841
61	0x3d78f8f5	0.0607843
62	0xbe803876	-0.25043076
63	0x3d64de56	0.0558761
64	0xbe1572c7	-0.14594565
65	0x3d0bd460	0.034138083
66	0xbd75b40f	-0.05998617
67	0xbcb80c7e	-0.022466894
68	0xbe090880	-0.13382149
69	0x3e663479	0.22480954
70	0xbd99a597	-0.07502287
71	0xbc193fa4	-0.009353552
72	0xbddb522a	-0.10709031
73	0xbe3c79d7	-0.18405853
74	0xbd929f86	-0.07159333
75	0x3b7274f1	0.0036995972
76	0xbc61be8a	-0.013778338
77	0x3de528b5	0.11189405
78	0x3dcbbd13	0.099481724
79	0x3db90e42	0.090359226
80	0x3e0babf5	0.13639815
81	0x3db3f826	0.08787565
82	0x3e35da45	0.17759044
83	0x3db05d18	0.08611506
84	0xbdb36e5c	-0.08761284
85	0x3d90ff37	0.07079928
86	0xbcdde79f	-0.027087985
87	0xbd9521b6	-0.072818205
88	0x3e1fae92	0.15593937
89	0x3bc53cb7	0.0060192007
90	0x3e6840dc	0.22680992
91	0xbc80b687	-0.015712036
92	0xbe3479c3	-0.17624573
93	0xbd7c3bf0	-0.0615806
94	0x3da04a35	0.07826654
95	0xbe29571c	-0.16537136
96	0xbe22fd3e	-0.15916917
97	0xbd3e5301	-0.046465877
98	0xbdb2230d	-0.08698092
99	0xbd72ef2a	-0.059310116
100	0xbdc905fa	-0.09815593
101	0x3d9fb7c8	0.07798725
102	0x3e1b09af	0.15140413
103	0xbc8db6f2	-0.01729915
104	0x3c3bdcd5	0.011466225
105	0xbcac8d22	-0.021063391
106	0xbe156534	-0.14589387
107	0x3d636334	0.05551453
108	0xbd885731	-0.066572554
109	0xbe73c892	-0.2380698
110	0xbe303fcc	-0.17211837
111	0x3d5dbcd5	0.054135162
112	0x3e3a332b	0.18183582
113	0xbc27befa	-0.010238403
114	0xbd5c4b23	-0.053782593
115	0x3e12ebea	0.14347807
116	0x3eb62072	0.3557163
117	0x3a9f4b3d	0.001215316
118	0x3c0d14be	0.008610902
119	0xbd90fff0	-0.07080066
120	0x3d1d2752	0.038367577
121	0x3ddf887c	0.10914704
122	0xbe4926d4	-0.19643718
123	0x3cb68ccf	0.02228394
124	0x3d023b63	0.031794917
125	0xbe01013c	-0.12598127
126	0x3d93c553	0.07215371
127	0x3df09744	0.11747602
128	0xbda7dbeb	-0.08196243
129	0xbd33bbff	-0.04388046
130	0xbe85a7f0	-0.2610469
131	0xbeaa95bc	-0.33317363
132	0xbd26db43	-0.040736448
133	0x3bf785b4	0.0075537805
134	0xbd85a185	-0.06524948
135	0xbdfbe0bb	-0.12298723
136	0x3d8521c5	0.06500582
137	0xbd681a0b	-0.05666546
138	0x3d33a3b4	0.04385729
139	0x3af598a4	0.0018737507
140	0x3b30cca4	0.0026977444
141	0xbe31d79e	-0.17367408
142	0xbde821ea	-0.113345936
143	0x3dda020c	0.10644922
144	0x3c95d1f4	0.01828859
145	0x3df8eb1a	0.12154217
146	0xbd93f1ad	-0.0722383
147	0x3d63f096	0.055649363
148	0x3e3da5cf	0.18520282
149	0xbbc5f2d3	-0.00604091
150	0xbd0bd9c5	-0.034143228
151	0xbe5ab673	-0.21358661
152	0xbdc841c4	-0.09778169
153	0xbe610f4e	-0.21978495
154	0xbe25d564	-0.16194683
155	0x3ddf7659	0.10911245
156	0xbdf2b3f6	-0.11850731
157	0x3ce7d8f8	0.028301701
158	0xbc2748a9	-0.010210195
159	0x3df4f236	0.119602606
160	0xbe2fc2b0	-0.17164111
161	0x3b14d60f	0.0022710597
162	0xbe1fb5ea	-0.15596738
163	0xbdb320a5	-0.08746461
164	0xbe8b7c5d	-0.2724332
165	0xbe15b1d9	-0.14618625
166	0x3dfb3bbf	0.12267255
167	0x3e49248a	0.19642845
168	0xbd8229be	-0.06355618
169	0x3e1cf33b	0.1532716
170	0xbd9fe45f	-0.0780723
171	0xbe1881f2	-0.1489332
172	0xbe9e8897	-0.30963585
173	0xbe6b074f	-0.22952007
174	0xbd376eb5	-0.044783313
175	0xbd9e5177	-0.07730382
176	0xbd6b5507	-0.057454135
177	0x3ceaa469	0.02864285
178	0xbe846233	-0.2585617
179	0xbe13590d	-0.14389439
180	0xbe8e32e7	-0.2777321
181	0xbc37a100	-0.011207819
182	0xbe0eb86e	-0.13937542
183	0xbcb5d5c6	-0.022196662
184	0xbc2e1440	-0.010624945
185	0xbd953ecd	-0.07287369
186	0xbe82e89c	-0.25568092
187	0xbe5e76e8	-0.21725047
188	0xbc5f8b88	-0.013644107
189	0xbe3de2ad	-0.18543501
190	0xbd843b1f	-0.06456589
191	0xbd820c90	-0.06350052
192	0x3e023dc9	0.12718882
193	0x3d8c1bc7	0.068412356
194	0xbe4be3c9	-0.19911112
195	0xbcded40c	-0.027200721
196	0x3d3026ff	0.04300594
197	0xbe9d16b0	-0.30681372
198	0xbe4376df	-0.19088314
199	0xbe057679	-0.13033475
200	0xbe6491c5	-0.22321232
201	0xbd96c32b	-0.07361444
202	0xbdb35bd1	-0.08757747
203	0x3cc2ea3a	0.023793329
204	0xbd430c07	-0.047618892
205	0xbdfa7001	-0.12228394
206	0xbb8921bd	-0.00418493
207	0xbce95dce	-0.028487112
208	0xbd88cb15	-0.0667936
209	0x3e1009ef	0.1406629
210	0xbd9d387a	-0.07676788
211	0xbbca07d7	-0.0061654854
212	0xbe6bbc03	-0.2302094
213	0x3bb644cf	0.005562402
214	0x3d851534	0.06498185
215	0x3c82760f	0.015925435
216	0x3cf7191c	0.03016334
217	0xbe0028f7	-0.12515627
218	0xbe51fe60	-0.20507193
219	0xbd302797	-0.043006506
220	0x3e8ad6ad	0.2711691
221	0x3da390ff	0.0798664
222	0x3cfa8424	0.030580588
223	0xbdc6341f	-0.0967791
224	0xbd34805e	-0.044067733
225	0xbd6c23bc	-0.057651266
226	0x3e0cb15d	0.13739534
227	0xbe4adb9f	-0.19810341
228	0xbc102e86	-0.008800155
229	0x3e20aaf6	0.15690216
230	0xbd46fc39	-0.048580382
231	0x3c764ba0	0.015032679
232	0x3d3712b2	0.044695564
233	0xbd6b9a5b	-0.05752025
234	0xbdc4136d	-0.09574018
235	0xbcf7a762	-0.030231182
236	0x3cb21446	0.021738183
237	0x3cb824a5	0.022478411
238	0xbd48afd6	-0.048995815
239	0xbd6b9549	-0.057515416
240	0xbdc53fc7	-0.09631305
241	0x3c7b03c9	0.015320727
242	0xbdee6204	-0.11639789
243	0x3d7a823d	0.06115936
244	0xbe55f532	-0.20894316
245	0xbe3a61ec	-0.18201417
246	0x3d26b542	0.040700205
247	0x3d4529d5	0.048135597
248	0x3dd0ed31	0.10201491
249	0xbd816561	-0.063181646
250	0xbed2d105	-0.41175094
251	0xbe4ac988	-0.1980344
252	0xbe9a1e1f	-0.30101106
253	0xbdb4525d	-0.08804772
254	0xbc732cac	-0.014842194
255	0xbf00dad3	-0.503339

bias f4 [32]
0	0xba1633cf	-0.0005729766
1	0x3ced76fa	0.028987397
2	0xbb3b02cd	-0.0028535605
3	0x3c2af0c4	0.01043338
4	0xbd1ccc45	-0.038280744
5	0xbbcd896f	-0.006272487
6	0xbc5c4659	-0.013444507
7	0xbd38b26b	-0.045092028
8	0x3b9ef883	0.0048514022
9	0xbbf27612	-0.007399329
10	0xbadda7c9	-0.0016910966
11	0xbb40ed88	-0.0029438455
12	0xbc0b5f35	-0.008506586
13	0xbb70d196	-0.0036746017
14	0xbbd40e9c	-0.006471468
15	0xbbd6aeb3	-0.0065515875
16	0xbb6b6966	-0.0035920977
17	0xbbd1dae9	-0.00640427
18	0xbbd6adef	-0.006551496
19	0xbb206659	-0.0024475066
20	0xbaeee230	-0.0018225368
21	0xba514dd1	-0.0007984313
22	0x3cc8cb3b	0.02451097
23	0xba960758	-0.001144628
24	0xba34d65c	-0.0006898397
25	0xba117ffa	-0.0005550381
26	0xba6f840b	-0.00091368024
27	0xbbab703e	-0.005231886
28	0xbba4684f	-0.0050173174
29	0xba5a9e8b	-0.0008339665
30	0xbc280723	-0.010255608
31	0xbc56297a	-0.013071412

weight f4 [64, 32, 4, 4]
0	0x3db8798c	0.09007558
1	0x3d4e9d23	0.050442826
2	0x3e1ce477	0.15321527
3	0x3c7b0b9d	0.015322593
4	0x3cefa7e5	0.029254863
5	0x3d060f9b	0.032729726
6	0xbd7c32a3	-0.06157173
7	0xbe2c7449	-0.16841234
8	0xbd9d873a	-0.07691808
9	0x3ddd5e86	0.108090445
10	0xbd771b11	-0.060328547
11	0x3c6645ee	0.0140547585
12	0xbebbef37	-0.36705944
13	0xbe05c52f	-0.13063501
14	0xbc84a42b	-0.016191563
15	0xbe26ccf3	-0.1628912
16	0x3d84200d	0.06451426
17	0xbc57e971	-0.013178215
18	0x3d9d25d3	0.0767323
19	0xbc461d0d	-0.012091887
20	0x3e2f5bee	0.17124912
21	0x3e5076f6	0.2035788
22	0x3db240b5	0.08703748
23	0xbaf6c279	-0.0018826268
24	0x3d5d783c	0.054069743
25	0xbdc2b956	-0.09508006
26	0x3c57f9f5	0.013182153
27	0x3c616b57	0.013758502
28	0xbbc7ca32	-0.0060971016
29	0xbd369958	-0.044579834
30	0x3da154c8	0.07877499
31	0x3d27ee5f	0.040998813
32	0x3d8577f6	0.06517021
33	0x3e16b0ca	0.14715877
34	0x3b71b2ca	0.0036880248
35	0xbca57d34	-0.020201303
36	0x3db91cc0	0.09038687
37	0xbc7ee7dc	-0.015558209
38	0x3e19878b	0.14993112
39	0x3ddf89c5	0.10914949
40	0xbdd5b5e7	-0.10435086
41	0xbe179f91	-0.14806964
42	0x3d625091	0.055252615
43	0x3c850f82	0.016242746
44	0xbdc80b1e	-0.097677454
45	0xbdb6ba84	-0.08922294
46	0x3e050eac	0.12993878
47	0x3cf428c3	0.029804593
48	0x3d2ef523	0.04271425
49	0x3cfd3dfe	0.03091335
50	0x3dabd6a6	0.0839055
51	0xbd312248	-0.043245584
52	0x3dd9bb12	0.10631384
53	0xbe2affe5	-0.16699179
54	0xbd766f42	-0.060164697
55	0xbd8ecd05	-0.06972698
56	0xbdf6cf18	-0.12051219
57	0xbe064a87	-0.13114367
58	0xbe0cba29	-0.1374289
59	0xbd5e834c	-0.054324433
60	0xbe2e4109	-0.17016996
61	0xbe2102c7	-0.15723716
62	0x3c0cb38f	0.008587732
63	0x3d259024	0.040420666
64	0xbe15ed18	-0.14641225
65	0x3c97dc52	0.018537674
66	0x3ca31c72	0.019911025
67	0xbcbad522	-0.022806708
68	0xbd5ee8cf	-0.054421242
69	0xbd739b64	-0.059474364
70	0x3cb8032b	0.022462448
71	0xbd8aa606	-0.06769948
72	0xbdb9c10c	-0.09070024
73	0xbe11435c	-0.14185852
74	0x3d0750ee	0.033036165
75	0xbe138e4b	-0.14409749
76	0xbf539417	-0.8264784
77	0xbee09e53	-0.43870792
78	0xbd884ef6	-0.066556856
79	0x3dbd3fcf	0.09240686
80	0xbdcff7de	-0.10154699
81	0x3d9fbb95	0.0779945
82	0x3d6a637f	0.057223793
83	0xbdcaa1ae	-0.09894119
84	0x3d3c5bab	0.04598586
85	0xbc370335	-0.011170198
86	0xbbd1bd4d	-0.0064007402
87	0xbd21187a	-0.039329983
88	0x3e08c2a7	0.13355504
89	0xbe81e0d7	-0.25366852
90	0x3d0ff5a9	0.03514639
91	0xbd151dcf	-0.03640538
92	0xbe8946e7	-0.26811907
93	0xbe786781	-0.24258234
94	0xbe2676b7	-0.16256224
95	0xbd8e7bc2	-0.06957199
96	0x3d2ecebf	0.042677637
97	0x3d63b1fd	0.055589665
98	0xbce163fb	-0.027513495
99	0xbcc37b92	-0.023862634
100	0x3e83e561	0.2576094
101	0x3dfb538a	0.12271793
102	0xbc6ef3e3	-0.014584514
103	0xbd1eb9ad	-0.038751293
104	0x3b0bacba	0.002131267
105	0xbe3efb22	-0.18650487
106	0xbec8dd6f	-0.3923144
107	0xbd17320b	-0.03691296
108	0xbe68f6a7	-0.2275034
109	0xbdcc55bb	-0.09977289
110	0xbdaf5a05	-0.08562092
111	0xbb81c8af	-0.003960691
112	0x3d6cb31d	0.057788003
113	0xbd306491	-0.043064658
114	0xbd16bfa7	-0.036803868
115	0x3deb97e1	0.11503578
116	0x3e0057ef	0.12533544
117	0x3cf6b186	0.030113947
118	0x3e26f831	0.16305615
119	0x3d2ebb63	0.042659175
120	0xbce9d0c8	-0.028541937
121	0xbd67d8d3	-0.056603264
122	0xbd503b4b	-0.050837796
123	0xbd7b8321	-0.06140435
124	0xbdfe8b89	-0.12428958
125	0xbd6a80c3	-0.057251703
126	0xbe2d5d69	-0.16930164
127	0x3d20eed1	0.039290253
128	0x3c7265e0	0.014794797
129	0x3db8e4fb	0.090280496
130	0xbdcb36e3	-0.09922578
131	0xbdcce612	-0.1000482
132	0xbd0162a0	-0.031588197
133	0xbd99bbd3	-0.07506528
134	0x3b003472	0.001956251
135	0x39c1d975	0.00036973847
136	0xbe21b0d8	-0.15790117
137	0xbe283ae5	-0.16428716
138	0xbe405aa7	-0.18784581
139	0xbd944e2f	-0.07241475
140	0xbefeec65	-0.4978973
141	0xbe4286b6	-0.189967
142	0x3d78e9e6	0.060769938
143	0x3c949ba7	0.018140627
144	0x3df57dd7	0.11986893
145	0x3d2255d5	0.039632637
146	0x3e1ff300	0.15620041
147	0xbcb27307	-0.021783365
148	0x3d995fbd	0.07488964
149	0xba141024	-0.0005648157
150	0x3e0e7057	0.13910042
151	0x3e1821cc	0.14856642
152	0xbd564440	-0.052311182
153	0x3d8fd413	0.07022872
154	0x3cb70b12	0.022344146
155	0x3ad81062	0.0016484375
156	0xbf523d2e	-0.821246
157	0xbed782ab	-0.4209188
158	0xbe2cea40	-0.16886234
159	0xbd1c244a	-0.038120545
160	0x3e0a7cdb	0.13524191
161	0x3dce944e	0.100868806
162	0x3c9d5c59	0.019209074
163	0x3dc19a5a	0.09453268
164	0x3e34ae3b	0.17644589
165	0x3e4539aa	0.19260278
166	0x3e0f8f7e	0.14019582
167	0xbd30e43d	-0.043186415
168	0xbe5cb09c	-0.21551746
169	0xbe647016	-0.22308382
170	0xbd824737	-0.063612394
171	0xbd88d782	-0.0668173
172	0xbe6a8c4d	-0.22905083
173	0xbdeb76f8	-0.11497301
174	0x3e1cc916	0.15311083
175	0x3dc07de3	0.09399011
176	0x3e448b32	0.19193724
177	0x3e5e6b3d	0.21720596
178	0x3e36c965	0.17850263
179	0x3d300abb	0.042978983
180	0x3e61533a	0.22004405
181	0x3d35c369	0.04437581
182	0xbdc8372c	-0.09776148
183	0x3db24b7f	0.08705806
184	0x3e89e785	0.26934448
185	0x3ded8637	0.11597865
186	0xbd41c51b	-0.047307115
187	0xbe1089e6	-0.14115104
188	0x3c010dea	0.0078768525
189	0xbea17030	-0.31530905
190	0xbe6a7631	-0.22896649
191	0x3ca5ac2c	0.0202237
192	0xbdc120cc	-0.09430084
193	0x3d84d5bd	0.0648608
194	0x3d041850	0.03224975
195	0x3c9e72ac	0.01934179
196	0xbd2e0c0c	-0.042491958
197	0x3d845956	0.06462352
198	0x3da0a771	0.07844437
199	0x3dd6128d	0.10452757
200	0xbd716b5f	-0.058940288
201	0xbda9ce30	-0.0829128
202	0x3daea6dc	0.0852792
203	0x3d3123de	0.043247096
204	0xbe8393d7	-0.2569873
205	0xbdfb0bba	-0.12258096
206	0x3d596487	0.053074386
207	0x3dd57a7f	0.10423755
208	0x3d4f48c2	0.050606497
209	0x3e054ca7	0.13017522
210	0x3df7fee3	0.12109163
211	0x3d2b394a	0.041802682
212	0x3e5b693c	0.21426862
213	0x3dec2ff1	0.115325816
214	0x3e46fbc5	0.1943198
215	0x3e0943c1	0.13404752
216	0x3c4c6bf0	0.012476906
217	0xbe2baad0	-0.16764379
218	0xbcc32d32	-0.023825262
219	0xbd89d8e5	-0.067308225
220	0xbc80a6df	-0.01570457
221	0xbdba78b2	-0.09105052
222	0xbdde9da6	-0.10869913
223	0x3cd465b4	0.025927402
224	0x3c0ffe2d	0.008788628
225	0x3d21facd	0.039545823
226	0xbc771710	-0.015081182
227	0xbb320f30	-0.0027169697
228	0x3b3a6f6e	0.0028447765
229	0x3cf8a317	0.030351205
230	0xbd707f55	-0.058715183
231	0xbd20e9c9	-0.039285455
232	0xbd4ffc72	-0.05077786
233	0xbde04706	-0.10951047
234	0x3d4e3701	0.050345425
235	0xbd7321d8	-0.059358448
236	0xbdebc58c	-0.115122885
237	0xbe703b06	-0.23460016
238	0x3d5219c5	0.051294107
239	0x3cf73052	0.030174408
240	0x3d88c9fc	0.066791505
241	0x3d924bcb	0.071433626
242	0xbccd7bdb	-0.025083473
243	0xbd589e83	-0.052885544
244	0x3dff1088	0.12454325
245	0xbd8d4d98	-0.068995655
246	0xbd2e132e	-0.04249876
247	0x3d1fe716	0.03903874
248	0x3dd43f19	0.103635974
249	0xbd6a30d2	-0.057175465
250	0xbd523fe0	-0.051330447
251	0xbdcb75e2	-0.09934594
252	0xbe75bd0c	-0.23997897
253	0xbe8f9841	-0.28045848
254	0xbe3b310c	-0.18280429
255	0x3dfa1d75	0.1221265

bias f4 [64]
0	0x3b633092	0.0034666401
1	0x3c764a30	0.015032336
2	0x3dc228ff	0.09480476
3	0x3bb87219	0.005628836
4	0xbd1c5ae8	-0.038172632
5	0xbc8fcc76	-0.01755355
6	0xbd69c55b	-0.05707298
7	0xbd1ce646	-0.038305543
8	0xbc59815a	-0.013275469
9	0x3c71ee9c	0.014766362
10	0x3ad1996b	0.0015991157
11	0xbc07309a	-0.008251334
12	0xbbc42521	-0.0059858714
13	0x3d602e3f	0.054731604
14	0xbd8d1749	-0.06889207
15	0xbd9720ea	-0.07379325
16	0xbd0a9635	-0.033834655
17	0x3d09858c	0.033574626
18	0x3da3fc27	0.080070786
19	0xbced2d24	-0.028952189
20	0xbbd9779d	-0.0066365735
21	0x3c956ab4	0.018239357
22	0x3d86bcbd	0.06578968
23	0x3c9f1096	0.019417088
24	0xbc34d367	-0.01103673
25	0xbbb48275	-0.0055087158
26	0xbd300faa	-0.04298369
27	0x3d843516	0.06455438
28	0x3d8bfd23	0.06835391
29	0xbcf4c4c8	-0.029878989
30	0x3d9f48c7	0.07777553
31	0x3da4e116	0.08050744
32	0xbc93349a	-0.017969418
33	0x39e1be4c	0.00043057126
34	0xbcda1882	-0.026623014
35	0x3d119738	0.035544604
36	0xbd9b8c78	-0.07595152
37	0xbd97f461	-0.074196585
38	0xbcf45010	-0.029823333
39	0x3d9b2755	0.07575861
40	0x3dc3f65f	0.09568476
41	0x3dca82a5	0.098882
42	0x3c020bc7	0.007937378
43	0xbd933fa0	-0.0718987
44	0xbb43c20c	-0.00298703
45	0x3ca4d5c4	0.020121463
46	0xbc6a5588	-0.014302619
47	0x3d3d2214	0.046175078
48	0xbb3c75d8	-0.0028756764
49	0xbc1200fc	-0.0089113675
50	0x3a62ac35	0.00086468767
51	0xbd5870cc	-0.052841946
52	0xbc8cba6a	-0.017178733
53	0x3da1bb61	0.07897068
54	0x3c5b2de4	0.01337764
55	0xba6396e1	-0.00086818455
56	0xbca8b75b	-0.020595243
57	0x3d8e2830	0.06941259
58	0xbc737fba	-0.014861995
59	0xbc1e4d4f	-0.0096619865
60	0x3d832e80	0.064053535
61	0xbcdcd406	-0.02695657
62	0xbc7f06f6	-0.015565624
63	0xbc779592	-0.015111344

weight f4 [64, 64, 3, 3]
0	0xbdd02ca7	-0.10164767
1	0xbd1891f6	-0.037248574
2	0xbe3cd06d	-0.18438883
3	0xbb307a64	-0.002692842
4	0x3da5470d	0.080701925
5	0x3cc16cea	0.023611505
6	0xbdd48693	-0.103772305
7	0xbc89935a	-0.016793896
8	0xbd41cabf	-0.047312494
9	0xbd61486d	-0.05500071
10	0xbd966c51	-0.073448785
11	0x3d9bd4ca	0.07608946
12	0xba89b062	-0.0010504837
13	0x3d83d836	0.06437723
14	0xbc3d8370	-0.011566982
15	0x3dae8c05	0.085228
16	0xbc9bc781	-0.01901603
17	0x3e0a9060	0.13531637
18	0x3e390ce4	0.18071324
19	0x3d5013a1	0.05079997
20	0x3dab4617	0.08362978
21	0xbd24cd08	-0.040234596
22	0xbceb79ea	-0.028744657
23	0xbc167a0a	-0.00918437
24	0xbc203668	-0.009778596
25	0xbdab467f	-0.083630554
26	0x3d1af015	0.037826616
27	0x3c907327	0.017633034
28	0xbca728ca	-0.020405192
29	0x3dc3a764	0.095534116
30	0xbd827736	-0.06370394
31	0x3d1124c6	0.03543546
32	0xbe2a3f14	-0.16625625
33	0xbe01135a	-0.12605038
34	0xbd10492c	-0.035226032
35	0xbd20d776	-0.03926798
36	0x3e6d5734	0.23177797
37	0x3e196f4a	0.1498386
38	0xbcc943ee	-0.024568524
39	0x3d7bb20a	0.06144909
40	0x3dd1b764	0.10240057
41	0xbdbdd0f4	-0.0926837
42	0x3e0c3208	0.1369096
43	0x3db1f6f0	0.08689678
44	0xbda4b243	-0.08041813
45	0x3de5ea24	0.112262994
46	0x3e0e0d71	0.13872315
47	0xbc87e111	-0.016586812
48	0x3d0966da	0.033545353
49	0xbd395b74	-0.045253232
50	0xb8c52d73	-9.4021576e-05
51	0x3d0fdb9f	0.035121556
52	0x3d0cd15f	0.03437936
53	0xbdd069aa	-0.10176404
54	0x3e65de2e	0.22448036
55	0xbe1b3790	-0.15157914
56	0xbceac0cb	-0.028656384
57	0x3e2e4256	0.17017493
58	0xbdb3481c	-0.08753988
59	0xbd79628b	-0.060884994
60	0x3de5321c	0.11191198
61	0x3b87ce0b	0.0041444353
62	0x3da8cb37	0.08241885
63	0xbd4f90f4	-0.050675347
64	0xbd4fe9c6	-0.050760053
65	0x3cad823b	0.021180263
66	0x3d3faea6	0.046797417
67	0xbe0ed63a	-0.13948908
68	0x3d42150f	0.047383364
69	0x3c9d687e	0.019214865
70	0x3dfc4c7e	0.12319277
71	0x3d44cb44	0.04804541
72	0xbd0d940d	-0.03456502
73	0xbd600206	-0.05468943
74	0xbd07a0cf	-0.033112343
75	0xbd952005	-0.07281498
76	0xbd1e4e6b	-0.038649004
77	0xbe18a960	-0.14908361
78	0x3d86a57b	0.06574532
79	0x3bd8a163	0.0066110357
80	0xbdcb5d74	-0.09929934
81	0x3d5245a0	0.05133593
82	0x3d31570f	0.043295916
83	0x3cb66163	0.022263234
84	0xbe386dc9	-0.1801063
85	0xbd0a30d9	-0.03373799
86	0xbc164bb3	-0.009173322
87	0xbd0b3178	-0.033982724
88	0xbe139071	-0.14410569
89	0xbdd73bb8	-0.10509437
90	0x3deaaf7a	0.11459251
91	0xbd51b670	-0.051199377
92	0xbe12401a	-0.14282265
93	0x3dd1b7ef	0.10240161
94	0x3d0095ec	0.031392977
95	0x3d27b0e2	0.040940173
96	0x3dde8d53	0.10866799
97	0x3dbfb03c	0.09359786
98	0x3e261deb	0.1622235
99	0xbe330112	-0.17480877
100	0xbdf081af	-0.11743485
101	0xbdb5015a	-0.088381484
102	0x3d871da7	0.065974526
103	0xbd861802	-0.06547548
104	0x3cf96f3f	0.030448554
105	0xbcbf319f	-0.02333909
106	0xbd6b8bec	-0.057506487
107	0x3d2c6840	0.042091608
108	0x3e910228	0.28321958
109	0xbdc9f45c	-0.09861061
110	0x3d942006	0.072326705
111	0x3e71a58b	0.23598306
112	0xbca0c739	-0.019626247
113	0x3c8e161c	0.017344527
114	0x3e808bf3	0.25106773
115	0xbdae1a7b	-0.085011445
116	0xbe4364d0	-0.19081426
117	0x3d2af966	0.04174175
118	0xbd96cfbe	-0.073638424
119	0xbde429cc	-0.111407846
120	0x3d6abc76	0.057308637
121	0xbbb255a0	-0.005442336
122	0x3dc78aff	0.09743308
123	0xbd29c8e8	-0.041451365
124	0xbd15393d	-0.03643154
125	0x3c083540	0.008313477
126	0xbdc8c032	-0.09802283
127	0xbe509675	-0.20369895
128	0xbd1ac706	-0.03778746
129	0xbc96bf2a	-0.018401701
130	0xbd860e42	-0.06545688
131	0x3d88c3f1	0.06677998
132	0x3e1aa467	0.15101777
133	0x3cf12a0a	0.029438991
134	0x3d77d44e	0.060505204
135	0xbd3aa15c	-0.04556404
136	0x3c983f28	0.018584803
137	0xbd573ca5	-0.05254807
138	0xbe0e3e2a	-0.13890901
139	0xbdbe2548	-0.092844546
140	0xbd0e8d9e	-0.034803025
141	0xbd0d67d5	-0.03452285
142	0xbd84bfda	-0.06481905
143	0xbd3e69dc	-0.046487674
144	0xbc86f772	-0.016475413
145	0x3d7317c7	0.059348848
146	0x3ca69223	0.020333355
147	0xbe08226d	-0.13294382
148	0x3d816937	0.06318896
149	0x3c123469	0.008923628
150	0x3e1464eb	0.14491622
151	0x3e4fd403	0.2029572
152	0xbd570ead	-0.05250423
153	0xbd9a1a6e	-0.07524572
154	0x3d9d5b87	0.07683473
155	0x3c7e0500	0.015504122
156	0xbdec08f0	-0.11525142
157	0xbc1ce76e	-0.0095766615
158	0xbe14a742	-0.14516929
159	0xbd33e515	-0.04391964
160	0xbd11afc2	-0.035568006
161	0xbe84fa3b	-0.2597216
162	0x3dafeef4	0.085904986
163	0xbbe2b383	-0.006918372
164	0xbc48c058	-0.01225289
165	0xbe1a1687	-0.15047656
166	0xbda934be	-0.08262013
167	0x3d2e06be	0.0424869
168	0x3c468642	0.0121169705
169	0x3b2d6ca8	0.002646247
170	0xbc1c106b	-0.009525399
171	0xbe5ae51f	-0.21376465
172	0xbed69765	-0.4191238
173	0xbe131e82	-0.14367107
174	0x3db7f55a	0.08982344
175	0x3c1bb527	0.009503639
176	0xbdacbea6	-0.08434801
177	0x3db3ca9a	0.087788776
178	0x3d06ff6f	0.032958444
179	0x3c61a633	0.013772535
180	0xbe1539f0	-0.14572883
181	0x3d919298	0.07108039
182	0x3e0cd69b	0.1375374
183	0xbe4279dc	-0.18991798
184	0x3d3aae75	0.04557653
185	0xbdb87d70	-0.090083
186	0xbc95d2c0	-0.01828897
187	0xbc87564e	-0.016520645
188	0xbd2477ff	-0.0401535
189	0xbcc4c76d	-0.024020875
190	0x3d687b0b	0.056757968
191	0x3dd9f9a1	0.10643316
192	0xbe15d2d5	-0.14631207
193	0xbcf83935	-0.030300716
194	0x3e0b83ce	0.13624498
195	0x3cd44f98	0.02591686
196	0xba8f593d	-0.0010936629
197	0xbdb9726b	-0.090550266
198	0x3db7962f	0.08964192
199	0x3d2a7c7c	0.041622624
200	0x3d40edfd	0.047101963
201	0xbdd1ab5e	-0.10237764
202	0x3b1d37cb	0.0023989554
203	0x3dbbd5b1	0.09171618
204	0xbe0d955b	-0.13826506
205	0x3dac969b	0.08427163
206	0xbe07823c	-0.13233274
207	0xbd1e4174	-0.03863664
208	0x3c492b92	0.012278454
209	0xbd0883e5	-0.03332891
210	0xbdb26891	-0.08711351
211	0x3c42ba92	0.011885302
212	0x3e4b9bd1	0.19883658
213	0x3d1632cf	0.03666955
214	0xbd010d60	-0.031506896
215	0x3c10de53	0.008842069
216	0x3d887b2c	0.06664118
217	0xbd49444a	-0.04913739
218	0x3df20320	0.11817002
219	0x3ba72e2c	0.0051019397
220	0xbd95f50a	-0.07322128
221	0x3df08aa6	0.11745195
222	0xbd88fb63	-0.06688573
223	0xbc943d90	-0.018095762
224	0x3c6291ee	0.013828738
225	0x3dcf8c39	0.10134167
226	0xbd2cc522	-0.042180188
227	0xbcb38e73	-0.021918511
228	0xbe4c2e82	-0.19939616
229	0xbdbec5a7	-0.09315043
230	0xbe0ba5cc	-0.13637465
231	0xbd53d37d	-0.051715363
232	0xbda2c5e0	-0.07947898
233	0xbdb54eb3	-0.08852901
234	0x3d824a56	0.06361835
235	0xbe61f98e	-0.22067854
236	0xbc0a60a8	-0.008445896
237	0xbd85ab36	-0.065267965
238	0xbe08ed08	-0.1337167
239	0x3d53de14	0.051725462
240	0x3d9ba5ab	0.07599958
241	0x3e292204	0.16516882
242	0x3b9737a8	0.004614789
243	0x3dcb3132	0.09921493
244	0x3dd06df1	0.1017722
245	0x3d21c5e8	0.03949538
246	0xbcc30987	-0.023808254
247	0x3df865af	0.121287696
248	0x3e1cb31a	0.15302697
249	0x3c5218cd	0.012823296
250	0xbe04d3c7	-0.12971412
251	0xbdf20554	-0.118174225
252	0xbd850d29	-0.06496651
253	0x3de514c4	0.11185601
254	0x3d596f38	0.053084582
255	0xbd1edd2a	-0.038785137

bias f4 [64]
0	0x3d8d041e	0.06885551
1	0x3d180f45	0.037123937
2	0x3d4834d7	0.048878517
3	0xbd4063df	-0.046970244
4	0x3ca42a92	0.02003983
5	0x3d7d1106	0.061783813
6	0x3dc0e7a8	0.09419185
7	0xbd0f111a	-0.03492842
8	0x3d598f9a	0.053115465
9	0xbd8452aa	-0.064610794
10	0x3d8a569f	0.06754803
11	0xbc9a57d5	-0.01884071
12	0x3d4e9b79	0.05044124
13	0x3c306301	0.010765792
14	0x3e1321ff	0.14368437
15	0x3dfefae6	0.12450199
16	0xbd2b61e6	-0.04184141
17	0x3d923094	0.07138172
18	0xbcaaf86e	-0.020870414
19	0x3d908765	0.070570745
20	0xbb903cc2	-0.004401774
21	0x3cf1ac27	0.029501034
22	0x3d86d859	0.06584234
23	0x3d5930f5	0.053025205
24	0xbda075e1	-0.078349836
25	0x3cd2fe4a	0.02575602
26	0x3c6bdba2	0.014395626
27	0x3d9fb1ec	0.07797608
28	0xba27598c	-0.0006383888
29	0x3ce86ebf	0.02837312
30	0x3ddd81d9	0.10815782
31	0x3d3c0b39	0.04590914
32	0x3dc82c6f	0.097741
33	0x3dbe61d1	0.09296001
34	0x3dadcdc7	0.084865145
35	0xbb4e6662	-0.003149413
36	0x3daa4430	0.08313787
37	0x3db2b52c	0.08725962
38	0x3d0742a1	0.033022527
39	0x3d4077d4	0.046989277
40	0xbc4ab4f2	-0.012372242
41	0xbbe99be7	-0.0071291807
42	0xbc2808a1	-0.010255964
43	0xbdb1d018	-0.08682269
44	0x3d1d70cb	0.038437646
45	0x3d712e99	0.05888233
46	0x3dc261d6	0.09491317
47	0xbd8b012a	-0.067873314
48	0x3d608167	0.054810908
49	0x3cd875de	0.026423391
50	0x3ce45c5d	0.027876073
51	0xbc76c239	-0.015060955
52	0xbc9165f1	-0.017748805
53	0x3d3e53b3	0.04646654
54	0x3da6d25a	0.0814559
55	0x3cc5bd80	0.024138212
56	0x3ccc4a60	0.024937809
57	0x3d883850	0.06651366
58	0x3d28e2e9	0.041232023
59	0x3d0c04b1	0.03418416
60	0xbc4a3fd1	-0.012344317
61	0xbbde5b9d	-0.0067858235
62	0xbac14fbf	-0.0014748498
63	0xbd5b388d	-0.053520728

weight f4 [32, 1024]
0	0xbda881ee	-0.08227907
1	0x3e0a6eb2	0.1351879
2	0xbcc6ec7c	-0.024282686
3	0x3d04dbb6	0.032436095
4	0xbd9a4227	-0.07532149
5	0x3d0435c5	0.03227784
6	0xbc862c14	-0.01637844
7	0x3d8abb31	0.06773985
8	0x3db33c4e	0.087517366
9	0x3b43d454	0.0029881196
10	0x3a9a8ca2	0.001179118
11	0x3da2dcf0	0.07952297
12	0x3dfaf845	0.12254385
13	0xbc68088f	-0.014162197
14	0x3cd6be07	0.026213659
15	0xbc210447	-0.00982768
16	0x3d7b4802	0.06134797
17	0x3c27b430	0.010235831
18	0x3a737465	0.00092870585
19	0x3e337808	0.17526257
20	0x3dad3631	0.08457602
21	0x3d4a494c	0.049386308
22	0x3adbef65	0.0016779719
23	0xbc74cb17	-0.0149409985
24	0x3a2771f7	0.00063875265
25	0x3c9c1565	0.01905317
26	0xbe0dda38	-0.13852775
27	0xbbfb778d	-0.0076741637
28	0xbd6118c2	-0.05495525
29	0xbcbf171d	-0.023326451
30	0x3d559c85	0.05215122
31	0xbcc0006f	-0.023437707
32	0xbbd2dabc	-0.0064347666
33	0x3ce334da	0.027735163
34	0x3dc5d477	0.09659665
35	0x3d826763	0.06367376
36	0x3d99c166	0.07507591
37	0xbc714e7f	-0.014728188
38	0xbd5b09dc	-0.0534762
39	0xbc973807	-0.018459333
40	0x3e0f3f4e	0.13988993
41	0x3cc97052	0.024589691
42	0x3dc3a7dc	0.09553501
43	0x3d8ca9ab	0.06868299
44	0xbe6b2902	-0.22964862
45	0xbd25b700	-0.040457726
46	0xbd4a5033	-0.04939289
47	0x3dc6a447	0.09699302
48	0xbd0c96c9	-0.034323487
49	0x3e0f2d7b	0.13982193
50	0x3cbd5107	0.023109926
51	0x3d18bf2c	0.03729169
52	0x3d20cfc7	0.039260652
53	0x3d4dd820	0.05025494
54	0xbb4ba9d2	-0.0031076563
55	0xbd2d0708	-0.042243034
56	0xbda3c9d4	-0.0799748
57	0xbe386b97	-0.18009792
58	0xbcd94263	-0.026520913
59	0xbd8825b3	-0.066478156
60	0xbc2a9446	-0.010411328
61	0xba582674	-0.0008245476
62	0x3d9031a3	0.070407175
63	0x3d62203d	0.055206526
64	0xbdaf950b	-0.085733496
65	0xbdaf8004	-0.08569339
66	0xbc7ad5a7	-0.015309728
67	0xbd8a121a	-0.06741734
68	0x3dc767f3	0.097366236
69	0xbd8199a3	-0.06328132
70	0xbe03b997	-0.12863766
71	0x3dae1626	0.08500318
72	0xbdc962e2	-0.098333135
73	0x3bb22534	0.005436564
74	0xbd6aa537	-0.057286467
75	0x3ded5bec	0.11589798
76	0x3d30778d	0.043082763
77	0xbda5904c	-0.08084163
78	0xbdac0380	-0.08399105
79	0xbe3b1680	-0.18270302
80	0x3d00b639	0.03142378
81	0x3c700aef	0.014651044
82	0x3d6baffc	0.05754088
83	0x3bee2441	0.0072675054
84	0xbdb007ce	-0.085952386
85	0x3ce796fb	0.028270235
86	0xbd7ef955	-0.0622495
87	0x3cb46bc0	0.022024035
88	0xbd0725e7	-0.03299513
89	0x3d58a692	0.05289323
90	0xbd6b4f38	-0.057448596
91	0xbd98ac48	-0.07454735
92	0xba8a3b52	-0.0010546243
93	0x3c018db0	0.007907316
94	0x3d25e092	0.04049737
95	0xbd2f1a7a	-0.04274986
96	0xbe2920e6	-0.16516456
97	0xbc971588	-0.018442884
98	0xbd53fe1d	-0.051756013
99	0x3d74031e	0.059573285
100	0x3a9a7604	0.0011784439
101	0xbce9d125	-0.02854211
102	0xbd1cec77	-0.038311448
103	0xbd6f9a75	-0.05849691
104	0x3da01453	0.078163765
105	0xbbfea9d6	-0.007771711
106	0x3c33d6bc	0.01097649
107	0xbcc50b1d	-0.02405315
108	0x3dab93b9	0.08377785
109	0xbd039f21	-0.03213418
110	0xbca90bba	-0.020635474
111	0x3d8a643d	0.067574
112	0x3d70abdc	0.058757648
113	0x3ca1863c	0.019717328
114	0xbdf95764	-0.121748716
115	0xbcbe305f	-0.023216425
116	0x3e011264	0.12604672
117	0x3df3b18b	0.11899098
118	0x3d90e5d4	0.07075086
119	0xbc7c5d5b	-0.015403117
120	0x3ddf5026	0.10903959
121	0xbd223554	-0.03960164
122	0x3d1b349e	0.037891977
123	0xbd0268b6	-0.03183814
124	0xbe4faba1	-0.20280315
125	0xbe14e873	-0.14541797
126	0xbd36c6d2	-0.044623204
127	0xbe218ac3	-0.1577559
128	0xbd18e473	-0.03732724
129	0x3ca79887	0.020458473
130	0xbd172e52	-0.03690941
131	0x3d674a4e	0.056467347
132	0xbda22032	-0.07916297
133	0xbd83189e	-0.0640118
134	0x3d502a7a	0.05082176
135	0xbd447cd7	-0.04797062
136	0xbd501a7b	-0.050806504
137	0xbe009de8	-0.12560236
138	0xbcb63d9f	-0.02224618
139	0x3d354f2f	0.04426497
140	0x3a19cfdc	0.000586746
141	0x3d66b077	0.056320634
142	0xbd768f49	-0.06019524
143	0xbac0d3d8	-0.0014711572
144	0x3ddfd134	0.10928574
145	0x3c50358e	0.012708081
146	0xbd224ae8	-0.039622217
147	0xbbd1df57	-0.006404798
148	0x3dc4bb18	0.09605998
149	0x3c832f78	0.016013846
150	0xbb548652	-0.0032428694
151	0x3d8d4ea8	0.06899768
152	0xbda6f0ae	-0.08151375
153	0xbe108278	-0.1411227
154	0x3b34ffdb	0.0027618322
155	0xbce7a432	-0.028276537
156	0xbd963b86	-0.07335572
157	0xbd49092f	-0.049081024
158	0xbdcd7919	-0.10032863
159	0xbe21b3d3	-0.15791254
160	0xbddd604e	-0.10809384
161	0xbdbbd5f5	-0.091716684
162	0xbdbdd083	-0.09268286
163	0xbcf8fa24	-0.030392714
164	0xbdc1c5af	-0.09461533
165	0x3cb570c2	0.022148494
166	0x3dc435f4	0.09580603
167	0x3d0bdddf	0.03414714
168	0xbd1b839f	-0.03796732
169	0xbd95ded4	-0.07317892
170	0xbd9132ec	-0.07089791
171	0x3cf45188	0.029824033
172	0xbd9caf76	-0.07650654
173	0xbcc021fc	-0.023453705
174	0x3c71a798	0.01474943
175	0xbdb20508	-0.08692366
176	0xbe3aea0f	-0.18253349
177	0xbe291837	-0.16513143
178	0x3c4edecd	0.012626362
179	0xbce98551	-0.028505953
180	0xbd2d1512	-0.042256422
181	0xbb289a2b	-0.0025726657
182	0x3c812abd	0.01576745
183	0xbc910e84	-0.017707117
184	0xbbaf572f	-0.0053509693
185	0x3ca0cd0d	0.019629026
186	0x3c905934	0.01762066
187	0xbd15a5b4	-0.03653498
188	0xbd5eb6d4	-0.054373577
189	0x3cb6e3d1	0.022325428
190	0x3d26dd57	0.04073843
191	0x3d8fe7af	0.07026612
192	0x3d87b600	0.066265106
193	0x3c7e7904	0.015531782
194	0xbc8b1db7	-0.016981943
195	0x3db93b8f	0.09044563
196	0xbd4819a8	-0.048852593
197	0xbc14bc49	-0.009078094
198	0xbd24cddf	-0.040235396
199	0x3d8743c0	0.06604719
200	0xbd992ad1	-0.0747887
201	0xbd888377	-0.066657
202	0xbd4ab623	-0.049490105
203	0x3cba8e77	0.02277301
204	0xbd28d4cd	-0.041218568
205	0xbd52cdcb	-0.05146579
206	0x3dc6f9d1	0.097156174
207	0x3cdbfebd	0.026854867
208	0x3e156db4	0.1459263
209	0x3cf190a3	0.029487913
210	0x3cbb4f85	0.022865066
211	0x3be55353	0.0069984584
212	0x3d990108	0.074709
213	0x3dc75124	0.09732273
214	0x3d95d42b	0.073158585
215	0xbd82170b	-0.06352051
216	0xbc7be8c2	-0.015375318
217	0xbcf88a3e	-0.030339357
218	0xbd5c557b	-0.053792458
219	0xbbccc253	-0.006248751
220	0xbd1fbd22	-0.03899873
221	0x3c25d5c4	0.0101217665
222	0x3b1a4cb4	0.0023544254
223	0x3cb0e0fa	0.021591652
224	0xbdc0097a	-0.093768075
225	0xbddf9770	-0.10917556
226	0x3d09a3d8	0.03360352
227	0x3de479ea	0.11156066
228	0xbd2a7abd	-0.04162096
229	0xbd28f035	-0.041244704
230	0x3c882a56	0.01662175
231	0x3cf76102	0.030197624
232	0xbd086021	-0.0332948
233	0xbdc06407	-0.09394079
234	0xbd5f5735	-0.054526526
235	0xbd29db89	-0.04146913
236	0xbdbe711f	-0.0929892
237	0x3cd68f2d	0.026191318
238	0x3db9204a	0.09039362
239	0x3d53b9ca	0.051690854
240	0xbde10ece	-0.10989152
241	0x3cb61fd6	0.022231977
242	0x3c4c63fc	0.01247501
243	0x3bf3fc96	0.007445882
244	0xbd4b372b	-0.04961316
245	0xbce1caa4	-0.027562447
246	0xbc3a7abb	-0.0113818
247	0x3d0dbd9a	0.034604646
248	0x3b41370c	0.0029482273
249	0xbc7c425e	-0.015396683
250	0x3d75c852	0.060005493
251	0xbc7c80ba	-0.01541155
252	0x3d1ca77d	0.038245667
253	0x3d764123	0.060120713
254	0xbd1b9c24	-0.037990704
255	0x3ca9dfc1	0.020736577

bias f4 [32]
0	0xbd4b9670	-0.049704015
1	0x3d5e6555	0.054295857
2	0x3d355b3c	0.04427646
3	0xbd032775	-0.03202005
4	0x3e1598f2	0.14609125
5	0x3d2a2c91	0.041546408
6	0x3dd2a1ac	0.10284743
7	0xbc9bc714	-0.019015826
8	0x3e057fe9	0.13037075
9	0xbd5b4711	-0.05353457
10	0x3e18583d	0.1487741
11	0x3e3978ba	0.1811246
12	0x3c50b4d8	0.012738429
13	0xbc7b8bfe	-0.015353201
14	0x3d9c5611	0.07633603
15	0xbcbda352	-0.023149166
16	0xbd8044fc	-0.06263158
17	0x3df849b0	0.1212343
18	0x3d51588f	0.051109847
19	0x3d81e2db	0.06342097
20	0x3e2090c3	0.15680222
21	0x3df1ad8b	0.11800679
22	0x3aa0ded6	0.0012273442
23	0x3de0d8a8	0.10978824
24	0x3d7eb943	0.062188398
25	0x3d9f3826	0.07774381
26	0xbd799b42	-0.06093908
27	0xbd469cee	-0.048489504
28	0x3d925478	0.071450174
29	0x3cb3be7a	0.021941412
30	0x3d399fa8	0.045318276
31	0xbd385f40	-0.045012712

weight f4 [15, 32]
0	0x3e84982a	0.25897342
1	0xbda6e59d	-0.08149264
2	0xbe26a959	-0.16275539
3	0xbe0ce160	-0.13757849
4	0x3e075882	0.13217357
5	0xbde7f031	-0.1132511
6	0xbd103ae4	-0.035212412
7	0x3dd09c6a	0.101860836
8	0x3d6fe4e7	0.058567908
9	0x3e6e35da	0.2326273
10	0xbdd5adfd	-0.10433576
11	0xbd58dd9e	-0.052945726
12	0x3e791017	0.24322544
13	0x3ded7876	0.11595242
14	0xbce33aeb	-0.027738055
15	0xbe8da259	-0.27662924
16	0x3d067259	0.032823894
17	0x3dff2e69	0.12460024
18	0x3c6b3b73	0.0143574355
19	0x3e724abf	0.23661326
20	0xbd2cf685	-0.042227287
21	0xbd27307b	-0.04081772
22	0x3dfab563	0.12241628
23	0xbea3a0ff	-0.31958768
24	0xbe5633d3	-0.20918207
25	0xbcf6abb4	-0.030111171
26	0xbe3d191d	-0.18466611
27	0x3da0630d	0.078313924
28	0xbe662dee	-0.22478458
29	0x3cd2791c	0.025692515
30	0x3d4a4d2f	0.049390014
31	0xbdf1f9d8	-0.11815232
32	0xbdbf76e5	-0.09348849
33	0xbe017e35	-0.126458
34	0xbd9929ca	-0.07478674
35	0x3b6ff273	0.0036613017
36	0x3bab0269	0.005218793
37	0xbda8d9ec	-0.0824469
38	0x3d795cf4	0.060879663
39	0xbbc25783	-0.0059308424
40	0xbdbfe3f6	-0.09369652
41	0x3e362fa5	0.17791612
42	0x3d6514ae	0.055927925
43	0xbcf927f2	-0.030414555
44	0xbde45ec8	-0.111508906
45	0x3b9dff74	0.004821712
46	0xbd1e8ed6	-0.038710438
47	0x3c90219f	0.017594157
48	0x3e95f9b0	0.2929206
49	0x3e16d48f	0.14729522
50	0xbddb7956	-0.10716502
51	0xbd1853a4	-0.03718914
52	0xbd97e457	-0.07416599
53	0x3cb67d61	0.022276582
54	0x3df20811	0.11817945
55	0x3d315d75	0.04330202
56	0x3cd0f143	0.025505668
57	0xbd445ce2	-0.047940142
58	0x3bf36649	0.007427965
59	0xbe1ed1e4	-0.15509754
60	0xbdce7926	-0.10081701
61	0xbc9a65db	-0.018847397
62	0x3c138c80	0.009005666
63	0x3d80ac9f	0.06282925
64	0x3de054e6	0.10953693
65	0x3dde52e6	0.10855655
66	0xbe608f04	-0.21929556
67	0x3e81d331	0.2535644
68	0xbd99d5e3	-0.07511499
69	0xbe4e112c	-0.20123738
70	0xbe1c79f6	-0.152809
71	0x3e0eed1e	0.1395764
72	0xbdce405a	-0.10070868
73	0x3d9639d8	0.073352516
74	0xbb8584d4	-0.0040746722
75	0xbbbf008d	-0.005828923
76	0xbeaa70c8	-0.3328917
77	0xbdd88138	-0.105715215
78	0x3dde71e2	0.10861565
79	0x3dde804e	0.10864316
80	0xbe6e5061	-0.2327285
81	0x3dcddc8b	0.10051831
82	0xbe72f19f	-0.23724984
83	0xbe40e890	-0.18838716
84	0x3d694fe0	0.05696094
85	0x3df35538	0.118814886
86	0x3e991260	0.29896832
87	0xbe0026f9	-0.12514867
88	0x3d95aa6f	0.07307898
89	0x3d87f624	0.066387445
90	0x3ea0e70d	0.31426278
91	0x3eb97705	0.36223617
92	0xbbc6038b	-0.006042903
93	0xbe6d31ec	-0.23163575
94	0xbda6a17b	-0.08136269
95	0xbd51e7ca	-0.051246442
96	0x3e4c4ae4	0.19950444
97	0xbe500bb8	-0.2031697
98	0x3d436d32	0.04771156
99	0xbeb8ba92	-0.36079842
100	0xbbf3b24b	-0.0074370257
101	0xbd0da460	-0.03458059
102	0x3d9a30dc	0.075288504
103	0x3dfaa1ba	0.12237878
104	0x3d8bb26e	0.06821142
105	0xbda7e4cd	-0.08197937
106	0xbdf5f582	-0.120097175
107	0x3d921389	0.07132632
108	0x3e461f26	0.1934782
109	0x3e53bd77	0.20677744
110	0xbd34fe05	-0.044187564
111	0xbe30005d	-0.17187639
112	0x3e9249e1	0.2857199
113	0x3d608598	0.054814905
114	0x3e651952	0.2237294
115	0x3e42ba3f	0.1901636
116	0x3d5cbaf3	0.053889226
117	0xbe5cf5d8	-0.21578157
118	0xbd925062	-0.07144238
119	0xbe6b67f2	-0.2298887
120	0xbe970954	-0.29499304
121	0xbda34590	-0.07972252
122	0x3da75e9d	0.08172343
123	0x3e20ce5c	0.1570372
124	0xbdd046d5	-0.1016976
125	0xbd35e64d	-0.044409085
126	0xbd7c10f1	-0.061539594
127	0x3e131583	0.14363675
128	0x3e82ab96	0.25521535
129	0x3c822895	0.015888492
130	0xbca7fd1c	-0.020506434
131	0xbdddc665	-0.108288564
132	0xbe038ce6	-0.12846717
133	0xbd84252d	-0.06452403
134	0xbdef1c08	-0.116752684
135	0xbdf9ed05	-0.12203411
136	0xbd48b5b6	-0.049001418
137	0x3d7270c5	0.059189577
138	0x3c51ca72	0.012804614
139	0xbc04ecc6	-0.008113092
140	0xbd98c52d	-0.07459483
141	0x3d7fb22b	0.062425774
142	0xbda0c0b1	-0.07849253
143	0x3c30dd4b	0.010794948
144	0x3e319ebb	0.17345707
145	0xbc96dd56	-0.018416088
146	0xbd687cb0	-0.056759536
147	0x3c4ba467	0.012429333
148	0xbc52ba45	-0.012861793
149	0x3d69e957	0.057107296
150	0xbd9e8f61	-0.07742191
151	0xbd4720b8	-0.048615187
152	0x3bebe7f7	0.007199283
153	0xbdfae8ab	-0.12251409
154	0x3e346acf	0.17618869
155	0xbda63e06	-0.08117299
156	0xbe3db360	-0.18525457
157	0xbdecdf71	-0.115660556
158	0xbe5b9913	-0.21445112
159	0x3daa18a8	0.08305484
160	0x3c3c5288	0.011494286
161	0x3cd8ce0f	0.026465444
162	0xbe981359	-0.2970226
163	0x3e332ea3	0.17498259
164	0xbd9ff0dc	-0.07809612
165	0x3d8b861d	0.068126895
166	0xbdedb966	-0.116076276
167	0xbd931f38	-0.07183689
168	0xbd71030b	-0.058840793
169	0x3e58a657	0.21157204
170	0x3dc56afd	0.09639547
171	0x3b0e91b4	0.0021754326
172	0xbe20080f	-0.15628074
173	0xbd0f5e27	-0.0350019
174	0x3d1b90a9	0.037979756
175	0x3e4554ed	0.19270678
176	0xbbb31b61	-0.0054659103
177	0xbe512d06	-0.20427331
178	0xbe233356	-0.15937552
179	0xbe30db82	-0.17271236
180	0xba805d9d	-0.0009793524
181	0x3d2568ed	0.04038327
182	0xbc4054e2	-0.011738988
183	0x3e0efed8	0.13964403
184	0x3e5c3057	0.21502815
185	0x3d3e3a6e	0.04644244
186	0x3e04102b	0.12896793
187	0x3cbabe80	0.022795916
188	0xbd6a596e	-0.057214193
189	0xbd5bcae4	-0.05366029
190	0xbdb27378	-0.0871343
191	0x3bc145f1	0.0058982302
192	0xbd23b18f	-0.039964255
193	0xbd8ab8a7	-0.06773501
194	0xbd3aa089	-0.045563255
195	0xbe21d67c	-0.15804476
196	0xbd1a7620	-0.03771031
197	0x3bebcdf7	0.007196184
198	0xbe3c14ba	-0.18367282
199	0xbd79be06	-0.060972236
200	0xbd04c405	-0.0324135
201	0x3dbf6323	0.09345081
202	0xbd7bd571	-0.06148285
203	0xbcf94f55	-0.030433336
204	0x3d96511a	0.07339688
205	0xbc91b2ba	-0.017785419
206	0xbe104ac9	-0.14091028
207	0x3c885180	0.016640425
208	0x3c62a7ac	0.013833921
209	0xbdd3d607	-0.10343557
210	0xbcd03a6c	-0.025418483
211	0xbe0a4c46	-0.13505659
212	0xbdaa8a23	-0.08327129
213	0xbe452166	-0.19251022
214	0xbdf06055	-0.11737124
215	0xbe00d6ad	-0.12581892
216	0xbdfa3197	-0.1221649
217	0xbda8d610	-0.08243954
218	0x3cf44ee2	0.02982277
219	0xbcafa266	-0.021439742
220	0xbdfab550	-0.12241614
221	0xbda610cd	-0.08108673
222	0xbe54a687	-0.2076665
223	0xbd81659b	-0.06318208
224	0xbd6c4eb0	-0.05769223
225	0xbdcb94c8	-0.09940487
226	0xbc58ea4b	-0.013239454
227	0xbdf2b3e7	-0.1185072
228	0xbe056f4d	-0.13030739
229	0x3d957281	0.072972305
230	0xbd6f6df1	-0.058454458
231	0xbd307c95	-0.04308756
232	0xbdbd41c1	-0.09241057
233	0x3dc4d1a6	0.096103
234	0xbdcf63f4	-0.101264864
235	0xbdaaefa5	-0.0834649
236	0xbde6c909	-0.11268813
237	0xbd360ed0	-0.04444772
238	0xbd67e027	-0.056610253
239	0xbdcbb593	-0.09946742
240	0x3c6492a5	0.013950978
241	0xbd62de00	-0.055387497
242	0x3bf79068	0.0075550564
243	0xbdc5ed6f	-0.096644275
244	0xbdc84eea	-0.09780677
245	0xbc99c579	-0.01877092
246	0x3bafa89c	0.005360676
247	0xbdb1f354	-0.08688989
248	0xbdf56c90	-0.11983597
249	0xbd9875a8	-0.07444316
250	0x3dc10340	0.09424448
251	0xbd388ebc	-0.045057997
252	0x3c23a455	0.00998791
253	0x3c996ed3	0.018729603
254	0xbdaa15aa	-0.08304913
255	0xbd45a481	-0.048252586

bias f4 [15]
0	0x3d2beb21	0.041972283
1	0x3bccc773	0.006249362
2	0x3cebfa59	0.028805899
3	0x3ca6d593	0.020365512
4	0xbcc95418	-0.024576232
5	0xbcbf4c0d	-0.023351694
6	0xbd8be2e4	-0.06830385
7	0xbd64bbb3	-0.055843066
8	0xbde39a70	-0.11113441
9	0x3d04e444	0.032444254
10	0x3d1414cd	0.03615265
11	0x3d39aac9	0.04532889
12	0x3cb277c1	0.021785619
13	0xbc84db4c	-0.01621785
14	0x3d248c09	0.04017261

weight f4 [1, 32]
0	0xbce73b99	-0.02822666
1	0x3c6e47b8	0.014543466
2	0xbb1f44bf	-0.002430245
3	0xbd22000c	-0.039550826
4	0x3d80af5d	0.06283448
5	0x3d07857f	0.033086296
6	0x3d8766dc	0.06611416
7	0xbb5e63c3	-0.0033933974
8	0x3d955b36	0.07292788
9	0x3b5ff393	0.003417228
10	0x3d55b6b3	0.05217619
11	0x3de2d8fb	0.11076542
12	0xbc63e103	-0.013908627
13	0xbccb405e	-0.024810966
14	0x3c45b57e	0.012067197
15	0xbb571b2b	-0.003282259
16	0xbc96b3d8	-0.018396303
17	0x3cad173d	0.021129245
18	0x3d891c67	0.066948704
19	0x3c4bc032	0.01243596
20	0x3d3be32b	0.04587094
21	0x3d26a6c0	0.04068637
22	0xbb8c9670	-0.0042903945
23	0x3d56ebfe	0.052471153
24	0x3cd438ef	0.025906054
25	0x3c45d342	0.012074294
26	0xbcd25aab	-0.025678
27	0xbbabe99d	-0.0052463547
28	0x3ded77ce	0.115951166
29	0x3d0eb700	0.03484249
30	0xbbc2607b	-0.0059319115
31	0xbbb961e8	-0.0056574233
