results_final/generalization-32fd/50levels-policy.pt (torch, 443935 bytes, 11 tensors)

weight f4 [32, 3, 8, 8]
000000 e9 d7 ea bd f2 b4 e0 3d c4 85 0c 3e b8 ac e4 bd
       -0.11466963 0.109720126 0.13722903 -0.11165756
000010 0d 29 e0 3c c8 29 6d 3c 22 d8 d6 3d cc 38 8c be
       0.027363325 0.014475293 0.10490443 -0.27387083
000020 bc c4 a5 bc 50 49 b0 bd 2c bc 80 b8 f0 e3 81 be
       -0.020235412 -0.08607733 -6.1385654e-05 -0.25369215
000030 58 96 a7 bc 09 03 2f 3e 38 39 95 bd 1c fe 92 3d
       -0.020457432 0.17091002 -0.07286304 0.07177374
000040 f1 b0 64 bd 71 58 9f bc e3 1a 65 3e 29 55 b5 bd
       -0.055832807 -0.019451352 0.22373538 -0.08854134
000050 dc 27 c6 bd 5c 40 d8 3d 63 7a 80 bc 7f 77 0e 3d
       -0.09675571 0.105591506 -0.015683359 0.03478193
000060 d2 f4 ee 3d e7 14 79 3d 01 58 86 3d 9e ed 4b be
       0.116677895 0.06081095 0.06559754 -0.19914863
000070 95 0c 97 bb 39 b6 cd 3c ea 6c 00 be 88 d7 2e bd
       -0.004609654 0.025111305 -0.12541547 -0.042686015
000080 7d 0d e5 bd 77 bb 4d be bf 52 18 3d cf 40 9f 3d
       -0.11184213 -0.20091043 0.037188288 0.07776033
000090 79 65 fb 3d 1a 39 05 3e 7a 58 59 3e 46 d7 56 3e
       0.12275214 0.13010064 0.21225157 0.20980558
0000a0 43 52 f6 3c f8 1d 29 be 50 98 87 3d bf a1 de 3c
       0.030068522 -0.16515338 0.06620848 0.027176736
0000b0 93 d6 a3 bd ac 29 99 3d c8 b7 d1 bb 02 30 a9 3d
       -0.07999911 0.074786514 -0.0064000823 0.0826111
0000c0 fd 75 3e 3e 6c 2a f4 3c 86 63 28 be 66 5c e0 3d
       0.18599696 0.029805385 -0.16444215 0.109551236
0000d0 33 c1 11 3d d3 59 95 be 89 a8 2b be 7b 47 04 3e
       0.03558464 -0.29170093 -0.1676351 0.12917893
0000e0 f1 24 16 be 4e 45 8e bd 76 c3 18 3e 33 3d 87 3d
       -0.1466253 -0.069468126 0.14918312 0.0660347
0000f0 cc c1 8d 3e 56 4f 0f bd 77 04 54 be 8e 29 25 3d
       0.27686918 -0.03498777 -0.20704828 0.040322833
000100 88 e7 f1 bc d5 4c de 3d 52 e1 95 bd 4d 9f 4f 3d
       -0.029529348 0.10854498 -0.07318367 0.05068903
000110 1c a9 f2 bd cb aa a5 3e ed e5 90 bd d3 fc 76 be
       -0.11848661 0.32356867 -0.07075105 -0.24119882
000120 0f 5a bc bd d4 b5 22 be 4d 82 9e 3a 6a 69 d9 bc
       -0.09196865 -0.15889674 0.0012093276 -0.026539523
000130 84 2b 4d bd d2 39 18 3e 5d 51 8a 3d 9f 8d 6c 3d
       -0.050090328 0.14865807 0.067538 0.057752248
000140 55 c9 c8 3d 88 ac e9 3c 97 79 e4 3d 0d 0f 2e ba
       0.09804026 0.028524652 0.11156004 -0.0006639816
000150 27 ea ca bd b8 bc aa 3d 24 47 81 bd 6f ea 59 bd
       -0.09907942 0.083367765 -0.06312397 -0.05320209
000160 39 ea 41 3e 19 31 2d bd 34 eb 49 3e a4 da bf bd
       0.18937005 -0.04228315 0.19718629 -0.09367874
000170 8a d0 4a bc a4 68 99 3d b6 80 70 3c 10 87 a6 bd
       -0.012378821 0.07490662 0.014679125 -0.0813123
000180 8d d2 89 bd d2 2a 6e be 42 9a 5c bd 88 53 20 be
       -0.067296125 -0.23258522 -0.05385805 -0.15656865
000190 d9 ba 8b bd 70 27 b6 3d 93 c7 c2 3c 41 b3 b6 3c
       -0.06822748 0.08894241 0.023776805 0.022302272
0001a0 44 a3 07 3d 7e 3c 8b bd c9 0e 3b be 36 c8 ce 3d
       0.033114687 -0.06798647 -0.18267359 0.10096781
0001b0 44 d1 28 bd a3 71 01 be b7 61 55 be 70 f9 b2 3d
       -0.041215196 -0.12641005 -0.20838057 0.08738983
0001c0 51 14 1e 3e e4 be 20 bc a4 fd 34 bd 4d 9f c6 3d
       0.15437438 -0.009811137 -0.044187203 0.09698353
0001d0 74 af 5e 3e cf 9c 1c be 2f 31 56 3b 0a 7b 60 bd
       0.21746618 -0.15294193 0.0032683124 -0.05480484
0001e0 fb f3 ba 3d b2 ac d6 3d f9 f5 4d bd 83 8a d8 bd
       0.09128567 0.10482158 -0.050283406 -0.10573294
0001f0 79 b9 6e bc f3 58 82 be 89 00 fe 3d 0d 18 e8 3c
       -0.014570587 -0.25458488 0.12402446 0.02833178
000200 d6 24 36 bd d2 e5 7a 3d fa a2 8d be 84 7d 87 be
       -0.044468723 0.06125433 -0.27663404 -0.26462948
000210 c6 87 90 bd 4a 6d c5 3d d1 96 da 3c 51 43 d4 be
       -0.07057147 0.09639986 0.026683243 -0.41457608
000220 ce 2c 4f 3e 42 57 2c 3d 37 62 0a 3e 09 ff 62 3d
       0.20231935 0.042075403 0.13514028 0.055419
000230 4b 7e 75 3d d5 88 bb bd fa d4 ac bd 9b 79 92 3d
       0.059934895 -0.09156958 -0.084390596 0.07152101
000240 d4 d3 07 3e b5 6e 60 3e 9c 4b 8f bd 64 7d 07 3d
       0.132644 0.21917231 -0.06996843 0.033078566
000250 32 c8 82 3e 83 c4 ba 3d c4 43 2b 3d 5a d3 ac bd
       0.25543362 0.09119513 0.041812673 -0.084387496
000260 e9 39 7f 3d bd 27 ae bc 60 f3 5c bd 32 08 1a 3e
       0.062311087 -0.021259183 -0.053943038 0.15042189
000270 36 70 4a 3e 75 db 76 3e 4c ba 15 3e 03 5a a1 3e
       0.19769368 0.24107154 0.14621848 0.31513986
000280 ee 7b 3f 3c 71 a2 96 3c 08 76 fd 3d 34 b0 6a bb
       0.011687262 0.018388005 0.12376028 -0.0035810592
000290 40 fa 9e 3d 10 3f 00 3e 5e 22 3d 3e 74 b7 fa 3e
       0.07762575 0.12524056 0.18470141 0.4896809
0002a0 ab ec 59 3d e8 5e 27 3e de 40 60 be 71 c0 cc bd
       0.05320422 0.16344798 -0.21899745 -0.09997643
0002b0 98 4d 85 be a6 36 31 be 74 df 9a bd 5d f5 02 3e
       -0.26035762 -0.17306003 -0.075621516 0.12788911
0002c0 72 b2 3b bd 22 85 b4 3d 3c b2 22 be 59 7c 5b be
       -0.045824476 0.088144556 -0.15888304 -0.21434154
0002d0 a2 20 92 be 2b f7 55 be 27 ab 19 be 51 a2 05 3d
       -0.28540522 -0.20895068 -0.15006696 0.0326255
0002e0 3e f6 c0 3d 37 36 f8 3d 81 fe 44 bb 5b cd 94 be
       0.09421967 0.12119716 -0.0030058923 -0.29062924
0002f0 e3 2b a0 3d 2b 83 92 be 04 e1 eb 3c 40 49 1f be
       0.07820871 -0.28615698 0.02879382 -0.15555286
000300 6d 56 28 bd 3a 4d b2 bc 96 4b 16 bd 5a 6b ce 3c
       -0.041098047 -0.02176534 -0.036693178 0.025197674
000310 0e 1f 34 3c 67 d3 77 be 55 d6 06 bc 2b 9d 0a be
       0.010993732 -0.24201737 -0.008229812 -0.13536517
000320 ec 2b 6f be a0 13 08 be f4 a1 bf bd 86 41 dc bd
       -0.23356599 -0.13288736 -0.09357062 -0.10754685
000330 c6 af 52 be 9a a9 6e be e3 56 d1 bd b0 e5 0f 3e
       -0.20574865 -0.23306885 -0.102216505 0.14052463
000340 56 4a 4c bd db 22 6a 3e 23 70 2c bd dc 24 a9 3d
       -0.04987558 0.22864859 -0.04209913 0.082589835
000350 cc 6d 40 be e9 ec 0f 3d d6 e2 af 3d 9d 27 02 3d
       -0.18791884 0.035138045 0.085881874 0.03177606
000360 d1 d0 5c bb b3 76 9c bd ce 67 09 be c5 c8 cd bd
       -0.00336938 -0.076398276 -0.13418505 -0.100480594
000370 5e e0 7d 3e 09 82 99 3c be b8 a9 bc b1 06 3c be
       0.2479262 0.018738763 -0.020717975 -0.18361928
000380 f7 ab f5 3b ab c1 4a bd 9e 26 2d 3e e6 04 37 be
       0.0074973064 -0.049501102 0.16909263 -0.17872962
000390 47 dc ea 3c 63 2d 02 3e a8 7a 2e bd 71 de 5f 3d
       0.02866949 0.12712626 -0.042597443 0.054655496
0003a0 09 2a b0 bb 30 d1 85 bd b3 a5 ae bd 31 1d 64 bd
       -0.0053761047 -0.0653404 -0.08527698 -0.0556919
0003b0 74 22 16 bd 5a 3c 3c bd a6 65 02 bd 79 e9 4a bd
       -0.03665395 -0.045955993 -0.03183522 -0.049539063
0003c0 70 7c 1f be 0a 08 82 3d f0 f9 14 be 31 55 87 3d
       -0.15574813 0.063491896 -0.14548469 0.06608046
0003d0 4a d9 0e be 93 4c 05 be fa 3c b1 3d 86 1c 62 3e
       -0.13950077 -0.13017492 0.086542085 0.22081193
0003e0 77 85 8b bc 2d d9 62 be 43 dd f0 be 50 ae 87 be
       -0.017031414 -0.22153158 -0.4704381 -0.26500177
0003f0 68 d2 07 bf ab db a8 be 42 28 61 be 9d dd 00 bf
       -0.5305543 -0.32980093 -0.21988013 -0.50338155

bias f4 [32]
000000 98 69 57 3a ec a4 48 ba c7 51 df ba 4d 3a b7 3c
       0.0008217334 -0.000765397 -0.0017037921 0.022366667
000010 c2 0d 1a bb 87 a2 6d bd 33 99 b8 3b 78 e2 3a ba
       -0.0023506735 -0.058016326 0.005633497 -0.00071290834
000020 54 a9 eb bb 5a 3e 38 bc c3 a0 2d 3d 21 a2 9a b9
       -0.0071918163 -0.0112453345 0.042389642 -0.00029493964
000030 1f 2f de ba 7e 97 0a bc 8c fb fc b9 ba 72 3a bc
       -0.0016951299 -0.00845897 -0.00048252603 -0.011379892
000040 cb ee d8 ba 40 2f 42 bb 02 64 10 bc cb 10 89 bb
       -0.0016550658 -0.0029630214 -0.008812906 -0.00418291
000050 55 a5 81 bb 38 48 11 bb d1 a9 87 bb e5 ab ec 3c
       -0.0039564767 -0.002216829 -0.0041401167 0.02889056
000060 78 ce 0d bb 02 d5 ab 3c 16 04 b8 ba 0b c5 b3 bb
       -0.0021637958 0.020975593 -0.0014039304 -0.005486136
000070 53 a1 0e bc 34 5c 0e bb d8 7d 11 bb 45 c4 1e bc
       -0.008705455 -0.0021722438 -0.0022200253 -0.009690349

weight f4 [64, 32, 4, 4]
000000 2e 85 c1 3d b7 50 15 3e b7 2a 45 3e 4b b2 f8 3d
       0.0944923 0.14581572 0.19254576 0.12143382
000010 3b 2d 67 bd b8 35 f6 3d 19 0c 16 3e 7d 2b 84 3d
       -0.05643962 0.12021965 0.14653052 0.06453607
000020 7a 91 ab bd 3d 0f 8a bd 50 c8 0d be ce 16 e0 bd
       -0.08377357 -0.06741188 -0.13845944 -0.1094185
000030 51 4c 89 be f6 cc eb bd d6 07 86 bd e0 6a 57 be
       -0.26816037 -0.115137026 -0.06544463 -0.21036863
000040 af 33 4c 3e 7b b6 c3 3d 8d 77 2e 3e 2c c5 0d 3e
       0.1994159 0.0955629 0.17037793 0.13844746
000050 1a 09 7c b7 63 71 0b 3e 64 84 b7 3c ab 0b e9 bb
       -1.502249e-05 0.13617472 0.022401996 -0.0071119866
000060 3e c1 5b be 2c ee 07 3d 03 d7 83 bd 87 9b e1 bc
       -0.21460435 0.033186123 -0.064374946 -0.027539982
000070 e0 46 7f bd 14 69 98 3b cc 9a d0 3d 73 10 fd 3d
       -0.06232345 0.004651198 0.10185775 0.12356653
000080 c0 47 ee 3d a0 ff 4f 3e a4 c0 24 3d 31 89 12 3b
       0.11634779 0.20312357 0.04022278 0.0022359604
000090 47 05 18 3d 93 c2 3c bd 24 aa 1a bc 1f 85 34 bb
       0.037114408 -0.046083998 -0.009439979 -0.0027545167
0000a0 f0 0c 71 bd f5 4f 50 be 04 97 a8 3d f8 70 d8 3d
       -0.05885023 -0.20343001 0.08231929 0.10568422
0000b0 a1 96 88 bd b3 16 5f be e6 f0 bb bb b0 65 53 be
       -0.06669355 -0.21786003 -0.0057355044 -0.2064426
0000c0 16 40 98 bd 26 23 91 3d cb 4c 0b 3e d3 ea 35 bd
       -0.074340984 0.07086782 0.13603513 -0.0444134
0000d0 7d 76 8a 3d 76 57 e8 bd 59 a5 00 3d b6 39 73 3d
       0.06760881 -0.11344807 0.031407688 0.05938121
0000e0 89 e6 08 be 35 e4 b8 bd 1a 87 cf 3d 1b e3 ae bc
       -0.13369192 -0.09027902 0.101331905 -0.021348527
0000f0 8e a0 00 3d 24 bf 9a bc c7 ea 3b 3c e0 32 12 be
       0.031403117 -0.018889971 0.0114695495 -0.1427722
000100 7f 83 14 bd 58 09 3b bd 3f 23 05 3d fd 82 26 bc
       -0.036258217 -0.045663208 0.032504316 -0.010163066
000110 f5 69 f0 bc 2c c8 3b bc b9 6b 3f 3d 76 e1 ca bc
       -0.0293474 -0.011461299 0.04673359 -0.024765711
000120 cb 1e e4 bd 03 e1 d6 bd e2 b3 65 bd 5b 42 3d be
       -0.11138686 -0.10492136 -0.056079753 -0.18482344
000130 85 13 95 be af cd 62 be c4 9f ff bc d4 03 78 bd
       -0.29116455 -0.22148775 -0.031204112 -0.060550526
000140 37 3c 8e bd 19 f4 2d 3d 3f 21 71 bc f5 e6 71 bd
       -0.06945079 0.042469118 -0.014717399 -0.05905815
000150 8c dd 15 3d 9d 45 89 3c 30 52 7b bd 80 4b 8d bd
       0.036588237 0.016756827 -0.061357677 -0.06899166
000160 b6 ac 77 3d fe 23 92 be 9c 77 19 be fc df 19 be
       0.060467444 -0.28543085 -0.14987034 -0.1502685
000170 07 e2 4a be 63 91 cb bd 04 15 36 be 82 fd 1f be
       -0.19812785 -0.0993984 -0.17781454 -0.1562405
000180 f6 42 25 3d 0b 5b 0a 3e 91 26 bb 3d 69 77 b1 3c
       0.040347062 0.13511293 0.09138215 0.021663385
000190 42 38 18 bc 39 e4 aa 3d b1 a0 c1 bd 37 7c d5 3c
       -0.009290757 0.08344311 -0.094544776 0.026060207
0001a0 13 eb 9a be d5 19 3b bd c4 40 f8 bd 67 b7 b3 bc
       -0.30257472 -0.045678932 -0.12121728 -0.021938039
0001b0 42 cd e5 bd f0 cb 92 bd 46 e3 b4 bd 9f b8 c5 bd
       -0.112207904 -0.07167804 -0.088324115 -0.09654354
0001c0 b0 d6 d3 3d 2d bc e6 bc cd d7 84 3d ec 73 cd 3d
       0.10343683 -0.028165901 0.06486473 0.10031876
0001d0 5f dd 91 ba ae 4a 3d 3d 6b 42 a1 3c c7 4a 77 3d
       -0.0011128596 0.0462138 0.01968499 0.060374048
0001e0 05 fa 85 be 33 d2 a7 3d fc 02 34 be 6b e0 d6 bd
       -0.26167312 0.08194389 -0.17579263 -0.10492023
0001f0 a4 07 3f be b9 20 90 bd 02 b9 5c be e0 f0 14 bd
       -0.18655258 -0.07037491 -0.2155495 -0.03636253
000200 68 07 be 3d 3d 65 0e 3e 78 5e b3 3d 20 ac 5f bd
       0.092787564 0.13905807 0.08758253 -0.05460751
000210 72 e0 24 3e 77 b3 9a 3d 9b 3b 1b bd db 53 22 3d
       0.16101244 0.075537615 -0.03789864 0.039630752
000220 0f 70 07 be 58 4d 14 be 4f df 8c bd 0b de 32 be
       -0.1322634 -0.1448263 -0.0687853 -0.17467515
000230 2b 05 52 be c9 96 25 be 48 d9 44 3d 52 4e 94 be
       -0.20509784 -0.16170801 0.048058778 -0.28966004
000240 cc 48 32 3e b8 2f 7d 3d 4a 4e e4 3d 99 d2 36 3d
       0.17410582 0.061813086 0.11147745 0.044634435
000250 33 18 0a 3e 78 b8 07 3b 7a b8 a1 bb 19 c2 1b 3d
       0.13485794 0.0020709317 -0.0049353214 0.038026903
000260 50 8c 79 3d 4f f5 d8 3d a6 98 c1 bc 98 e6 b8 3d
       0.060924828 0.10593664 -0.023632359 0.09028357
000270 85 67 9e be d0 f9 d3 bd bf 8f b5 bd 4c 8e 51 be
       -0.30938354 -0.10350382 -0.08865308 -0.20464438
000280 f7 56 be 3d 2f 56 92 bd 89 06 29 bd 82 a4 8d 3d
       0.09293931 -0.071453445 -0.041265998 0.06916143
000290 8f f3 19 3e a8 db df 3d 06 b8 2e 3d 3e f0 68 bd
       0.15034316 0.10930568 0.042655967 -0.056869738
0002a0 29 7a aa 3d 55 42 50 be 70 ae 90 bd d1 f7 e3 bb
       0.083240815 -0.20337804 -0.07064521 -0.0069570323
0002b0 a9 86 4f bb 4c 74 0e 3c 11 b9 95 3d 38 86 be 3d
       -0.0031665957 0.0086947195 0.07310689 0.09302944
0002c0 94 a9 04 3e cf e5 af 3d 7d ce 96 bb 39 42 8f 3d
       0.12955314 0.085887544 -0.004602252 0.06995053
0002d0 5a c3 6b 3d e8 82 cb 3d 11 5c 96 bd d9 e4 96 3d
       0.05755935 0.09937078 -0.07341779 0.07367868
0002e0 9f d9 c3 3d 58 48 90 3d 6e e6 71 bd 2a ce e4 3c
       0.09562992 0.070450485 -0.059057645 0.027930338
0002f0 6e 3b 38 be b5 4c 5c 3d fc b5 fa bd 00 52 74 bc
       -0.1799142 0.05378409 -0.12241742 -0.014912128
000300 75 92 f7 bb ab 95 78 3d 8f 90 84 3d 8a 5a 1c bd
       -0.007555301 0.06068961 0.06472885 -0.038172282
000310 69 72 fa bd d6 0e e7 bb 0d c2 09 3c 0e 91 09 bd
       -0.12228853 -0.007051329 0.008408082 -0.0335856
000320 86 8f 83 be e6 ba e6 bd 9e 0e af bd 8f ba fd 3b
       -0.25695437 -0.11266117 -0.0854771 0.007743187
000330 16 2e 45 be f2 ae a2 bd 68 b3 71 bc 6f 76 00 3d
       -0.19255862 -0.079435244 -0.014752246 0.031362947
000340 c1 92 37 3d bf 0f bc 3d f6 04 45 3d fb a5 c8 bc
       0.04481769 0.09182691 0.048100434 -0.024493208
000350 b3 db 55 3d bc f5 29 3d 05 c4 92 3d e1 da 2a 3c
       0.052211475 0.041494116 0.07166294 0.010428161
000360 60 a3 e7 bd a6 d4 f7 bd ec 8e 11 be 65 b3 0d be
       -0.11310458 -0.12101106 -0.14214677 -0.13837965
000370 2b 5e 4f 3d f8 cc 86 3d 92 7a 60 bc 29 c9 b4 bc
       0.050626915 0.065820634 -0.013701098 -0.022068577
000380 8a 76 1a 3d 24 60 5f 3d ae 6c 44 bd 9b 7c 59 3d
       0.037710704 0.054535046 -0.047955208 0.05309735
000390 6f be b3 3b d2 20 5e 3d 0b 28 2b bd 32 4e 94 bc
       0.005485348 0.05423052 -0.041786235 -0.018103693
0003a0 5c 67 2b be 43 7e e3 bd 55 67 f9 bc 80 ad 89 be
       -0.16738647 -0.11108067 -0.03044478 -0.26890182
0003b0 37 e7 a6 be f7 26 24 be bb e3 9e bd 31 60 01 be
       -0.32598278 -0.16030489 -0.0775828 -0.1263435
0003c0 16 fa d0 3d 14 1b c6 3b 18 cb 4f 3d a2 60 77 3d
       0.1020395 0.0060457084 0.050730795 0.06039489
0003d0 e3 88 d9 3c 0d f1 cd bc 55 70 cb bd a7 bd 7c 3d
       0.02655453 -0.025139356 -0.09933535 0.061704304
0003e0 7f 75 ca bc d5 38 33 bd aa dc a6 bd f7 11 0b be
       -0.02471423 -0.04375537 -0.08147557 -0.13581072
0003f0 d0 b4 14 be 29 cd 90 3d 01 7e 2c be ad 72 21 be
       -0.145221 0.07070381 -0.16844942 -0.15766402

bias f4 [64]
000000 d7 0b 12 3d 6e 67 0d bd 31 45 5a bc a6 9c 59 3d
       0.035655823 -0.034522466 -0.013322161 0.053127907
000010 7f 4d 33 3d 68 57 8c bc 0a 35 b0 3b de 7c b0 bb
       0.043775078 -0.017131522 0.0053774165 -0.005385979
000020 47 b2 6b bd 3d 45 07 3d dd 1a 59 bd ad c1 9a bc
       -0.057543065 0.033025015 -0.053004134 -0.01889118
000030 db 80 47 3d 65 b9 66 3d 83 62 f6 bb 68 73 f7 3c
       0.04870687 0.05632915 -0.0075190677 0.030206397
000040 bc 39 c3 bb 3c 6d 66 bc 17 bf c1 3d 60 b2 f7 bc
       -0.00595781 -0.014064129 0.094602756 -0.030236423
000050 f3 84 d0 bc 3b f7 3d 3d ed a7 8f 3d 81 44 49 bc
       -0.02545402 0.046378355 0.07014451 -0.012284399
000060 4b d3 59 bc b1 cd 0a bc 95 af 7c 3b 8e 11 b4 3d
       -0.013295005 -0.008471892 0.0038556803 0.08792411
000070 da ed b6 3d 0c 8d 06 bd a5 c6 17 3c eb b3 ba 3d
       0.08932085 -0.032849357 0.009263669 0.09116348
000080 4a 0c 92 bc 94 16 70 bd cb 30 55 bb d4 cb ea 3d
       -0.017828126 -0.058615282 -0.0032530304 0.114646584
000090 f0 d5 95 bd 8b ac 1e 3b d1 22 f5 3c d4 74 a9 3d
       -0.07316196 0.002421173 0.029923828 0.08274236
0000a0 dd 45 1a bc 43 a8 f2 3c cb e7 fb bb f0 c7 69 bc
       -0.009416071 0.029621249 -0.007687544 -0.01426886
0000b0 38 b8 2c bc 3f 6d 01 3d 45 b3 d6 bc c9 39 15 3d
       -0.010541968 0.031598326 -0.02620853 0.03643206
0000c0 1e f1 f0 bc 16 aa 5c bd 3c 94 2f bc 88 2d 69 bc
       -0.029411849 -0.053873144 -0.010716494 -0.014232047
0000d0 31 1f 1a bd fc d5 3b 3d 93 21 e7 3c 40 18 3b 3c
       -0.037627403 0.04585837 0.028214252 0.011419356
0000e0 ff 9e c4 ba ab 8a d0 3c f5 1d ab bb 33 31 4b bc
       -0.0015000998 0.025456747 -0.005222077 -0.012401867
0000f0 21 0f b0 3b f4 06 bc bd a0 b3 b3 bc 9e 1a 00 bd
       0.0053728973 -0.09181014 -0.021936238 -0.031275384

weight f4 [64, 64, 3, 3]
000000 55 2f e3 bc 8f bf cd 3d 3a e2 46 3d 6e 81 40 3d
       -0.02773253 0.100463025 0.04855559 0.046998434
000010 c0 60 f6 3d 0e b6 5d 3d 9c 42 78 bb f4 e6 48 3d
       0.12030172 0.0541287 -0.00378815 0.04904838
000020 97 5d 5b bd c9 19 9b 3d 79 89 a1 bd 9c b5 a3 3d
       -0.05355605 0.075732775 -0.07887549 0.079936236
000030 18 39 a4 bd 15 36 a0 3d 3b e3 9e bd 20 da ea bd
       -0.08018702 0.07822815 -0.077581845 -0.11467385
000040 fc d3 9f bd 1b c3 1b 3e 60 f4 76 3c 65 99 fd bc
       -0.07804105 0.15211146 0.015072912 -0.030956933
000050 1b db ba 3c 5c 88 1a 3e 7a e1 a0 3c 91 11 2b bd
       0.022809556 0.1509108 0.019638766 -0.0417648
000060 fc bd 06 3e d5 d9 31 3d 82 5c 66 bd 89 25 41 3d
       0.13158411 0.04342063 -0.056240566 0.047154937
000070 07 ae cb bc a1 1b 19 3e 37 92 8c bd f5 c9 25 bd
       -0.024863256 0.14951946 -0.06863826 -0.040475804
000080 93 f5 07 bd 6d 40 ce bd 25 f5 8a bc fc be 57 be
       -0.033193182 -0.10070882 -0.016962597 -0.21068949
000090 a4 b9 19 3e d0 9b 5b 3d 10 9e 07 be ef 76 5c bc
       0.15012223 0.05361539 -0.1324389 -0.01345609
0000a0 e0 01 ba 3d 9a 5a ee bd 2e 6b 42 bd 06 98 2f 3d
       0.09082389 -0.116383746 -0.047465496 0.04286959
0000b0 0e 4d 07 bd 0e 14 e7 bb cf 8c cd 3d 88 d3 54 be
       -0.03303247 -0.0070519513 0.10036623 -0.20783818
0000c0 5b 87 bc bd da dd d3 bc 2a 7e f4 3d 0c 3a 71 b7
       -0.092055045 -0.025862623 0.119381264 -1.43782345e-05
0000d0 9e 24 db 3d 68 55 3c be 34 12 08 3e d8 f1 97 bd
       0.107003435 -0.18391955 0.13288194 -0.07419175
0000e0 10 87 94 bc af f6 56 3e 84 96 51 3c d4 d3 a4 bd
       -0.01813081 0.2099254 0.012792233 -0.080482155
0000f0 83 33 12 bc 0b 9d c8 3d 3b 89 8b 3c 4d 2e 02 3d
       -0.008923414 0.097955786 0.01703321 0.031782437
000100 65 04 f7 3d 33 6c 55 3d ab 1e 23 3b 4c 1f 1d be
       0.12061385 0.05210514 0.0024890106 -0.1534397
000110 ff be 81 3d 40 43 d6 bd 3f 09 71 3c 61 f0 ba bc
       0.06335258 -0.10462046 0.014711677 -0.0228197
000120 09 33 23 bd 3f 5e 47 bd b3 10 5f bb a0 68 9f bd
       -0.039843593 -0.048673864 -0.0034037053 -0.077836275
000130 14 d7 58 bd 16 ae 3a bc ad c8 a9 3c 69 72 48 bc
       -0.05293949 -0.011394044 0.020725572 -0.012234309
000140 11 a6 25 be 9c 38 26 3e c7 3d 88 3c 34 ec ab 3d
       -0.1617663 0.16232532 0.01663102 0.083946615
000150 8e 5f 59 3d 6e 9e a7 3b fd 42 0d 3e 69 7c c6 bd
       0.053069644 0.005115322 0.13795085 -0.09691698
000160 f1 7d 91 be 66 c8 8f be ab cd 1c 3e 9b 14 89 3d
       -0.28416398 -0.2808258 0.15312831 0.06693383
000170 6b 06 7a bc b9 2a ed 3c 1c 89 ad bd bc 68 13 3d
       -0.015260319 0.028951036 -0.08473417 0.035988554
000180 b7 34 9f bd c4 88 fc bd d4 61 54 bd 30 89 e5 bd
       -0.077737264 -0.123307735 -0.05185111 -0.11207807
000190 27 a0 d3 bd ae 1e 5c bd 4a c4 dc 3c 73 89 85 bd
       -0.10333281 -0.053740196 0.026949067 -0.06520357
0001a0 cb c4 cd bc 5a e0 7c 3b 81 93 79 bd e4 27 5b bd
       -0.025118252 0.0038585872 -0.060931686 -0.05350484
0001b0 b5 b9 58 3e 8a c4 a6 3d 97 a4 e2 3d 45 5d d9 3d
       0.21164592 0.081429556 0.11066549 0.10613493
0001c0 84 64 f9 bc bc 60 57 3d b1 dd fd bd 47 25 57 bd
       -0.030443437 0.052582487 -0.123958 -0.052525785
0001d0 43 1c 32 be 90 01 33 bd 00 a4 d3 3d 15 45 27 bd
       -0.17393593 -0.043702662 0.10334015 -0.040837366
0001e0 d1 17 28 3d 27 c3 52 3d ac d2 1d bd 56 c9 8c 3d
       0.041038338 0.051455643 -0.03853099 0.06874339
0001f0 d2 00 9e bd d7 ae e4 bb 6b 06 03 be eb 57 3d 3c
       -0.07715 -0.0069788503 -0.12795417 0.011556606
000200 8d ea 5c 3e 25 00 ea bd 98 3f 08 bd c4 72 ec 3c
       0.21573849 -0.11425809 -0.033263773 0.028863318
000210 9e f3 f2 3d f9 63 e1 bd f1 8f a3 bd 9c dc 12 be
       0.118628725 -0.110053964 -0.07986439 -0.14341968
000220 19 3d 9a bd e4 7c 27 be 02 5b 90 bd f7 3d 96 3c
       -0.07531185 -0.16356236 -0.07048608 0.018340094
000230 a0 ef 55 3d ad 5b cb 3c 61 1a 84 bd d3 80 c7 bd
       0.052230477 0.024823988 -0.06450344 -0.09741368
000240 eb dd b5 bd 20 f2 1c 3c a6 27 b3 3d dc 26 07 bd
       -0.08880218 0.0095792115 0.08747797 -0.032996044
000250 c1 99 48 3d 45 29 fe bd a5 19 d6 3d 46 8a 11 3e
       0.048974756 -0.12410215 0.1045411 0.14212903
000260 e5 49 2e be f3 6b fc 3d 3c 75 65 3c 7a 29 34 3d
       -0.17020376 0.12325277 0.014005002 0.043984868
000270 02 af a3 3d 12 06 68 ba a5 2d 9e bd d9 cf 06 3e
       0.079923645 -0.0008851002 -0.0772355 0.13165225
000280 eb 3d c0 39 2c 23 00 bb 81 9e 3a 3d 19 a1 3f bd
       0.00036667226 -0.0019552214 0.045561317 -0.046784494
000290 09 3e c6 bd a6 7f 35 be 03 c9 b7 bd f0 b2 18 be
       -0.09679801 -0.17724475 -0.08973887 -0.14912009
0002a0 43 98 91 bd a0 f8 a8 3d b6 6b a7 bc 33 54 94 3c
       -0.0710912 0.082505465 -0.020437103 0.018106556
0002b0 70 3e 25 be 7c 9e 69 3d 9e 00 a1 3d a0 28 12 3c
       -0.161371 0.057035908 0.07861446 0.008920819
0002c0 d5 b2 2e 3d 2b 31 94 3d cb d3 cf 3c 7a bb c9 3d
       0.042651016 0.072359405 0.025369545 0.098502114
0002d0 bc 40 60 be 96 70 12 bc 54 12 82 3c 7b 18 0c be
       -0.21899694 -0.008937975 0.01587788 -0.13681214
0002e0 10 f8 83 3d 62 0c 48 bc c4 81 5a 3c ba 93 18 be
       0.064437985 -0.012209984 0.013336603 -0.14900103
0002f0 39 f8 38 be 49 3b 01 bd 66 1d ad 3d ee b3 46 3d
       -0.1806344 -0.03155068 0.08452873 0.048511438
000300 7f fb a8 bd 3d 7f 10 3d 9a 6c 1f 3e 4f 15 15 3d
       -0.08251094 0.035277594 0.15568772 0.036397275
000310 fd 3f 04 be c0 44 67 3d 67 c4 30 bd 75 7c 1b 3e
       -0.12915035 0.05646205 -0.043156054 0.15184195
000320 62 6f ce 3d 2a 1d 88 3d 4e 9a f7 bc 2d 38 03 3e
       0.10079838 0.066461876 -0.030224945 0.12814398
000330 b0 2c 09 be 9c 80 57 bc eb 40 e7 bd 8e d3 3e bc
       -0.13395953 -0.013153221 -0.11291679 -0.011647118
000340 0d 77 86 3d a2 d9 b6 bc 11 3d 11 bd 69 fc a9 bd
       0.06565676 -0.022320572 -0.035458628 -0.083000965
000350 3e 30 50 3e 9e 88 3c bd 1b 28 45 be db 64 28 3c
       0.20330903 -0.046028726 -0.1925358 0.010277952
000360 f5 36 05 bd 57 b4 07 be 4e 1d 81 bd aa 2d 02 bd
       -0.032523114 -0.13252388 -0.063044176 -0.03178183
000370 9f b4 26 bd 6b 1d ee 3d 55 3a e6 bd b4 56 29 bd
       -0.040699597 0.11626705 -0.11241595 -0.041342452
000380 e3 52 85 bd 9a 45 c3 3d f2 f0 6f bd cc 63 23 bc
       -0.0650995 0.0953476 -0.058579393 -0.009972524
000390 c9 67 2e be 75 c5 ad 3d 6b 8b b7 3d e6 d0 12 3e
       -0.17031778 0.084849276 0.08962139 0.14337501
0003a0 83 a3 b8 3c 53 5d 4d be da 05 4d 3d a7 1b b9 bd
       0.022538906 -0.20055132 0.05005441 -0.090384774
0003b0 fd 94 1b 3d 01 6e 2e 3d d3 76 d7 bc 27 a8 13 3e
       0.037983883 0.042585377 -0.026301777 0.14419614
0003c0 7a f7 b7 3d 42 41 83 3d cd 2a e4 bc 27 83 53 3e
       0.08982749 0.06408931 -0.02785244 0.206555
0003d0 16 61 8f 3e 58 6b 5e bc be 3f c7 bd f2 40 6d 3c
       0.28003758 -0.013575397 -0.09728955 0.014480816
0003e0 95 6c 96 3d 7a 52 e7 bd 7d 85 0f be 29 a7 f9 bc
       0.07344929 -0.11295028 -0.14015765 -0.030475216
0003f0 1c 4e a3 bd 3c f0 c9 3d c1 ee 14 be ca 60 f5 bd
       -0.079738826 0.09860274 -0.14544202 -0.11981352

bias f4 [64]
000000 85 1e 5e bd b9 1c 1d bc 9f d2 c2 3c 25 ae a8 3b
       -0.054228324 -0.009589368 0.023782073 0.005147713
000010 4b 89 75 bb a5 27 23 3d 4f c4 90 3d 19 a7 98 bd
       -0.0037465866 0.03983273 0.07068693 -0.07453746
000020 1c a4 df 3c 99 1c e3 bc dc a4 d5 3d 5e f7 11 3c
       0.027299933 -0.027723597 0.10431835 0.008909075
000030 d5 c0 12 3d 2e e8 86 3d a1 6a 93 3d a6 fc 81 3d
       0.03582843 0.065872535 0.07198072 0.06347017
000040 a9 64 df bc ef 61 71 3c 90 96 8f 3c 3b b9 bc 3c
       -0.027269678 0.014732822 0.017527848 0.023037544
000050 a2 99 a6 bb 08 40 75 3c df 33 81 3d 1c c2 b1 3d
       -0.0050842324 0.0149688795 0.06308722 0.086796016
000060 48 3b 82 bd c5 a3 5f 3d 64 13 81 bd 39 23 30 3d
       -0.06358963 0.054599542 -0.063025266 0.04300234
000070 1f 90 7d bc cc 3b a8 3d 54 e3 17 3d 56 87 1d 3d
       -0.015476256 0.0821453 0.03708203 0.038459145
000080 0e b7 01 3d a0 82 3c 3d 0a 03 cc 3d bb 44 de bc
       0.031668715 0.04602301 0.09961517 -0.027132383
000090 6f 7f d4 3d c5 d4 23 3d cd 70 70 bb ae ba 04 bd
       0.103758685 0.039997835 -0.0036688328 -0.032404594
0000a0 6f 89 b4 3c e3 35 de bc 71 b9 d6 3d 19 42 1c 3d
       0.02203819 -0.027125305 0.10484589 0.038148973
0000b0 a9 4d 0a be 76 c4 b6 3d 80 70 a7 3d 41 5c 19 bd
       -0.13506187 0.08924191 0.081757545 -0.037441496
0000c0 9d 4a b8 3b dc a4 02 bb 17 2d 91 3c 18 41 2d 3d
       0.005624129 -0.001993469 0.017721696 0.042298406
0000d0 7d 4e 75 bd 08 ca c0 3c f1 57 52 3d 76 52 5b bc
       -0.059889305 0.023533836 0.0513534 -0.013386359
0000e0 8b 00 18 3c 85 7d e5 3b b2 f3 65 3d 08 bc 58 3d
       0.009277473 0.0070034885 0.05614061 0.052913696
0000f0 52 28 c0 3c 67 92 1e bd 9e 9d 14 3c 78 98 9b 3c
       0.023456726 -0.03871384 0.009070782 0.018993601

weight f4 [32, 1024]
000000 b7 20 ff bd f4 58 bf 3b 17 d2 04 bd 29 ec 6f be
       -0.12457412 0.0058394615 -0.03242692 -0.23429932
000010 a9 6a 9c 3c 5f 20 b0 3d 9a 4b 06 be 34 4c 77 bd
       0.019093828 0.08599924 -0.13114777 -0.060375407
000020 d4 bf 9e bd 4b e3 bc bc 45 2d 47 3d c8 23 c8 bc
       -0.07751432 -0.0230576 0.048627157 -0.024431124
000030 11 53 e8 bd 1f e7 d7 bd 9d 1d b4 bd 39 e9 eb bd
       -0.11343969 -0.1054213 -0.08794711 -0.11519093
000040 19 a5 bd bd e0 db ac bd 56 57 98 bd be 2a c9 3c
       -0.092600055 -0.08440375 -0.07438533 0.024556514
000050 60 84 55 3c 30 9f 50 bd a5 ae 84 bc dd ea 07 3d
       0.013032049 -0.050933063 -0.016196558 0.033182967
000060 9d c3 31 3d c3 12 cc 3d 90 a2 9d bd 9c e0 26 3d
       0.043399442 0.09964516 -0.07697022 0.040741548
000070 87 d5 b5 3d 88 56 26 bd df ef 05 3d 16 43 9a bc
       0.08878618 -0.040609866 0.032699462 -0.018830817
000080 ee 9f 91 bd 95 06 ed 3a 61 7e d8 3c ef b0 13 bd
       -0.07110582 0.0018083627 0.02642745 -0.03605741
000090 66 ed 0c 3d b7 30 00 3c 72 74 05 3c 47 8d 19 3d
       0.03440609 0.0078241145 0.0081454385 0.03748825
0000a0 32 20 95 3d 21 a7 39 3d a2 23 ca 3c a9 92 b3 3c
       0.072815314 0.045325402 0.024675194 0.021920519
0000b0 c7 e4 5c be 58 25 87 bd e1 62 5b bd 8d 6f 0f 3d
       -0.21571647 -0.0659892 -0.053561095 0.035018492
0000c0 6e 37 a5 bd 8b 08 53 bc 57 fb c0 3d 38 98 ab 3d
       -0.08067213 -0.012880455 0.09422939 0.08378643
0000d0 4e 04 ad 3d 9a e2 6a 3d 13 87 24 3d 68 c0 93 bb
       0.08448087 0.05734501 0.04016788 -0.0045090206
0000e0 f7 1f f3 bd c5 49 84 bd de 64 28 3d e7 90 60 3b
       -0.11871331 -0.06459383 0.04111182 0.0034266056
0000f0 98 6e 5d bd 1e 74 0a 3d e7 67 cf 3c e4 8c f2 bd
       -0.05406055 0.033802144 0.0253181 -0.11843279
000100 7b f3 af bd 0b a8 7f bd e1 f7 b8 3d 7f 03 13 bd
       -0.08591362 -0.062416118 0.09031654 -0.035892006
000110 da f8 52 3d e2 0c 25 3c fc cd 58 3d 1e d9 b3 3c
       0.051506855 0.010073872 0.052930817 0.021954115
000120 13 06 35 3d c0 a3 93 b8 63 b9 ad bd b9 60 ab bd
       0.044195246 -7.040007e-05 -0.08482625 -0.08368058
000130 a4 8d e5 3c d3 2d 73 3d 4b 9b e8 3c b5 a1 33 3d
       0.028021641 0.059369873 0.028394362 0.043855388
000140 9b b5 78 3d 67 ea 50 bd 44 d5 9c bc f9 65 a3 bd
       0.060720067 -0.051004793 -0.019144662 -0.07978434
000150 2f a4 62 bd d7 0e df 3b 74 09 51 bd 0c 41 13 3d
       -0.05533236 0.006807189 -0.051034406 0.035950705
000160 23 38 e4 bd 3e 75 4f 3d 21 4b cb 3d ed 2a 2e 3e
       -0.1114352 0.05064892 0.09926439 0.17008562
000170 3a 1a 1d 3d cb 30 4b 3d f2 46 8f 3d 02 4d 52 bd
       0.03835509 0.04960708 0.069959536 -0.05134297
000180 6c 4b 21 bd 49 2e 70 3d a1 e0 ec 3c 45 e3 01 3d
       -0.03937857 0.05863789 0.028915705 0.03171088
000190 49 7b bc 3d f4 de 3a 3c 05 73 48 3d b3 e9 84 bb
       0.09203202 0.011405695 0.048937816 -0.0040561794
0001a0 ca 34 7f bb d2 0d 82 ba 6a 11 56 3d dd e0 00 3e
       -0.0038941377 -0.0009922332 0.0522627 0.12585779
0001b0 62 53 35 bc 38 92 2b bd 0a 42 01 be a6 02 f8 bd
       -0.011067243 -0.041887492 -0.12622848 -0.1210988
0001c0 56 2d e4 3d 6e a1 2b 3e d9 98 55 3c 9d 89 12 bd
       0.1114146 0.167608 0.01303693 -0.03577577
0001d0 5a 86 c7 3d 90 fa cd 3d 28 05 ba 3c 1a 47 b9 3c
       0.097424224 0.10057557 0.022707537 0.022616912
0001e0 3b bf ec 3d f3 11 0a bd 5d 47 ae 3d 1d 7d a3 3d
       0.11559912 -0.033708524 0.08509705 0.07982848
0001f0 9f 86 0c bd 83 35 5f 3d 98 50 9f 3d d4 d9 86 3d
       -0.034308072 0.054494392 0.07779044 0.06584516
000200 37 dd de 3c fb 85 46 3d 5a 47 2e 3c 40 c7 07 3e
       0.027205093 0.048467617 0.010637129 0.13259602
000210 6d d4 d7 bb 5d 39 de 3b c5 6d 46 3d 2c 33 ac bb
       -0.0065866024 0.0067817406 0.048444528 -0.0052551236
000220 c6 ab 96 bc 6c 4f 9f bb 5f 2b be 3c 99 be 44 3d
       -0.018392455 -0.0048617627 0.02321404 0.04803333
000230 be 82 76 3d 4e f8 15 3d 40 27 e0 3c 46 7a 80 3c
       0.06018328 0.036613755 0.027362466 0.015683305
000240 6f 68 ba 3b f2 4f ed bd 51 75 52 3a ad 35 fd bd
       0.005688719 -0.11587514 0.0008028346 -0.123637535
000250 9e 06 0e 3d d2 e8 f6 3b 58 8b 6b bc dd db d3 3d
       0.03467428 0.0075350786 -0.014376484 0.1034467
000260 b9 6c 9a 3c 54 26 85 3c 49 a3 34 bd 7a ab 05 be
       0.018850671 0.016253628 -0.044101033 -0.13053694
000270 7c 20 ae 3d 31 32 8e 3d 2b d4 14 bd 81 16 b0 3d
       0.0850229 0.06943167 -0.03633515 0.08598042
000280 3d 62 01 bc 55 7f 99 bc b0 bb 20 3d c7 ef e1 3d
       -0.007896957 -0.018737474 0.039241493 0.11032062
000290 b7 cc c9 3b a1 23 83 3d 3e 93 3c 3e f0 1c a6 3d
       0.006158437 0.0640328 0.18415543 0.08110988
0002a0 4c 5b 8b 3c c7 9d a4 ba c9 38 32 3c 96 9b 0d bd
       0.017011307 -0.0012559228 0.010877796 -0.034572206
0002b0 d9 22 75 3d d8 2f 23 3d eb 33 d1 bd 64 e0 40 be
       0.059847686 0.03984055 -0.10214981 -0.18835598
0002c0 f5 c5 8f bd e7 be 92 bd f9 68 b3 bc 76 ab cd bd
       -0.07020179 -0.07165318 -0.02190064 -0.10042469
0002d0 e9 53 ba 3b 40 b8 5d 3c 6c 31 21 bd 4e 8f 97 bc
       0.0056862724 0.013532698 -0.039353773 -0.01850095
0002e0 e7 6d 24 bd 2e 06 02 bd d1 2c 11 bd 26 bb 7d 3d
       -0.040143874 -0.031744175 -0.03544313 0.061946057
0002f0 5d 00 11 bd e5 ea e5 3c 3c 4e 1a 3c 90 32 6f bd
       -0.035400737 0.028066108 0.009418067 -0.05839783
000300 3e 4c 00 3e 9d 8f 3a 3d cd 69 83 3b 1a 8f 97 3d
       0.12529084 0.045547117 0.004010415 0.07400341
000310 a2 b6 46 3d d0 d2 3b bc 91 25 a8 bd f4 d6 70 3d
       0.048514016 -0.011463836 -0.0821029 0.058798745
000320 45 15 00 be eb 33 b0 bd b5 18 1b be f4 75 50 3d
       -0.12508114 -0.086036526 -0.15146144 0.05089374
000330 89 44 cf bc 0d c6 a7 bc a0 3f 2b 3d 84 fc ed 3c
       -0.025301235 -0.02048018 0.041808724 0.029051073
000340 4e b4 4c 3d a2 ca 06 3e 38 08 98 3d 81 78 89 3d
       0.04997664 0.13163236 0.074234426 0.067124374
000350 66 fa 4f 3d 49 e7 5c 3d fb ae d8 3c c2 b4 d1 bc
       0.050775908 0.05393151 0.026450625 -0.025598887
000360 1a 41 36 bd d5 0d 10 bd d6 d2 eb bd d0 b0 1f be
       -0.04449568 -0.03516944 -0.11514823 -0.15594792
000370 c5 72 19 bd df 38 c5 3d 5e 17 85 bb 0c 2c 96 3d
       -0.03746297 0.09629988 -0.0040616235 0.0733262
000380 f3 82 b9 3d 34 16 17 bd a1 17 12 3d e5 8e 6e bd
       0.0905818 -0.03688641 0.035667066 -0.058241744
000390 c8 10 31 be ed b0 50 bd 0f 92 1d bd 72 6b 84 bd
       -0.17291558 -0.05094998 -0.03846937 -0.06465806
0003a0 c4 32 1e 3d 96 62 8b bd a2 fe f9 3c fd c3 3a 3d
       0.038622633 -0.06805913 0.030516926 0.045597065
0003b0 2c 4e 2e bd b4 dd 9a 3a 4e 76 c8 3d 49 54 a2 3d
       -0.04255502 0.001181534 0.0978819 0.07926232
0003c0 b6 91 09 bd 7a 7c 70 3d e0 f5 9d 3c 4b 5c b6 bd
       -0.033586226 0.05871246 0.019282281 -0.08904322
0003d0 43 0c 4b 3d c3 f9 62 bc 40 75 3f bd 3e 68 02 3d
       0.04957224 -0.013853493 -0.046742678 0.031837694
0003e0 86 1a 87 3d e8 73 f6 bb c7 23 e3 bc 59 10 05 3e
       0.06596856 -0.0075211413 -0.02772702 0.12994517
0003f0 60 52 9f 3d 0a 88 30 bd 76 52 39 bd 65 00 8a bd
       0.07779384 -0.043098487 -0.045244657 -0.067383565

bias f4 [32]
000000 71 04 c9 bc b4 15 1d 3d 29 19 f1 3c 31 72 70 bd
       -0.02453825 0.038350776 0.029430943 -0.05870265
000010 e1 dd 20 3e 4f bf 90 3d 2e bf 53 3d f9 ad f9 3c
       0.1570964 0.07067739 0.051695995 0.030478464
000020 9d a9 c6 3d a4 01 4a bd 39 93 94 3d 2a 3a 18 3e
       0.0970032 -0.04931797 0.07254643 0.14865938
000030 ff e4 e8 bc 5b a0 4b bc 7f 0d 58 3d 24 b6 22 3d
       -0.028429506 -0.012428368 0.052747246 0.039724484
000040 4e d2 96 bd 14 7a 98 3d 90 1a b1 3d e1 bb 19 bc
       -0.07364331 0.074451596 0.086476445 -0.009383173
000050 bf 7c 2b 3e 38 8f 9d 3d 9e 3c 3c bd f2 87 c7 3d
       0.16746806 0.076933324 -0.045956247 0.097427264
000060 50 76 a1 3c fe fc 14 3d af 93 28 bd a3 a8 b6 bd
       0.019709736 0.036374085 -0.041156467 -0.08918884
000070 64 bd 50 3d ae 5b 1a 3d 64 1b 0d 3d 92 2f 77 bc
       0.050961867 0.03768509 0.03444995 -0.015087025

weight f4 [15, 32]
000000 58 28 87 bd 7a 04 df 3d 26 94 6a bd 24 71 7c 3e
       -0.06599492 0.10889526 -0.05727019 0.24652535
000010 85 23 82 3b 69 b0 60 be 93 94 ed bd c9 86 37 be
       0.0039715194 -0.21942295 -0.11600604 -0.1792251
000020 54 13 02 be 3b 8b 11 3d 68 39 34 bc 3f 1c a5 3d
       -0.12702686 0.03553317 -0.011000015 0.08062028
000030 6d d0 15 be 45 1e 7e bc f7 05 7a bd 4c 75 2e be
       -0.1463029 -0.0155101465 -0.061040845 -0.17036933
000040 d7 e7 bc bd b2 ae ae 3d b7 87 71 be e4 0d 9b 3e
       -0.092239074 0.08529414 -0.23586927 0.30284035
000050 9c 99 b3 3c 3d 09 86 3d 7d 9f 5e be 94 85 7b be
       0.021923833 0.06544731 -0.21740527 -0.24562675
000060 69 71 0e be 85 5f f5 3d d3 7f 63 3e 0b 9d 61 3e
       -0.1391045 0.119811095 0.2221673 0.22032563
000070 30 69 21 be f1 49 10 be f1 d2 02 be ad 68 2b be
       -0.15762782 -0.14090706 -0.1277578 -0.1673915
000080 59 5b 92 3d a2 fb 3f be 33 b1 40 bd 64 6e 9f 3e
       0.071463294 -0.18748334 -0.04704399 0.3113891
000090 a2 22 ab bb 2e e6 14 3d 03 96 f5 bb 8e c1 28 3c
       -0.0052226344 0.03635233 -0.0074946894 0.010300053
0000a0 5e 02 1e bd b6 20 4f bb 0f 42 c8 bd 39 c8 8b bd
       -0.038576476 -0.003160519 -0.09778225 -0.06825299
0000b0 79 b5 62 3b 8d 9a 23 3c 5e b9 ea 3d 5d 5c 7d 39
       0.003459303 0.009985578 0.11461137 0.00024162368
0000c0 a9 f8 3e be 0f 2f 0c 3e 2d 72 fe bb d5 3d 3b bc
       -0.18649544 0.13689826 -0.0077650757 -0.011428316
0000d0 ee b4 34 bc 3d fc 19 be d0 d7 fa bd e2 1b 4f bd
       -0.011029465 -0.15037628 -0.12248194 -0.0505637
0000e0 b4 ca 88 bd bb d9 e3 3d 41 c8 be 3d 51 e6 15 be
       -0.066792876 0.11125513 0.09315539 -0.1463864
0000f0 6c ee 29 be c1 2a 4c 3c 3f 14 4d bd 20 2e 81 be
       -0.16594857 0.012461365 -0.050068136 -0.25230503
000100 b5 d0 52 3e e5 14 81 be 58 49 3f be fc 65 32 bb
       0.20587428 -0.25211254 -0.18680322 -0.0027221432
000110 87 b1 ff 3c 53 27 02 3e 60 26 3c be d5 3f 57 3e
       0.031212581 0.12710313 -0.18374014 0.21020444
000120 01 b2 1f bd 2b 4a 70 3d 1d 21 c9 bd 39 0e 2b 3d
       -0.038988117 0.058664482 -0.09820769 0.04176161
000130 98 99 94 3e d5 ae b4 b9 58 48 b0 3d af 4b 0a 3e
       0.29023433 -0.00034462535 0.086075485 0.13505433
000140 87 ec f6 bd ae 79 68 3d aa 3e 14 be b8 11 5d be
       -0.12056833 0.056756668 -0.1447703 -0.2158879
000150 29 2a a9 3d 0b c3 19 bd 47 60 a6 3e b2 af 21 be
       0.082599945 -0.037539523 0.3249533 -0.15789679
000160 c9 6f 42 be 44 1b 23 bd ab 07 12 be 31 87 c0 3d
       -0.18987955 -0.039820924 -0.14260738 0.09400786
000170 af 6f 1a 3d 4b ae c9 bd 70 7e 33 be 81 9b f7 3d
       0.037704166 -0.09847697 -0.17528701 0.12090207
000180 67 e9 1f 3d e1 d0 12 3e 71 f3 40 3d 3d cb 1f 3e
       0.03904095 0.14337493 0.047107164 0.15604873
000190 cd 9b 62 bd df 9c 3c be 0a 6f 96 bd 43 90 ca 3d
       -0.055324364 -0.18419217 -0.07345398 0.09890797
0001a0 91 18 00 be 7f 4e d1 bd e3 52 9f be b1 38 b7 bd
       -0.12509371 -0.1022005 -0.31117925 -0.0894636
0001b0 5b 93 8d be 57 0c ae 3c 71 41 aa bd 3a 05 29 be
       -0.27651486 0.021246118 -0.08313263 -0.165059
0001c0 34 97 aa 3e fb 0a 93 bd 9a 4c b0 bd 82 6f 57 3e
       0.33318484 -0.07179829 -0.086083606 0.2103863
0001d0 3d 33 40 3a 2d ef 0a 3e 59 ac 90 bd 24 38 4f bd
       0.0007331854 0.13567801 -0.07064123 -0.05059065
0001e0 71 b6 07 be f4 d0 1c be 62 0a 94 3e 99 f7 b5 3d
       -0.1325319 -0.15314084 0.2891417 0.08885116
0001f0 f9 84 21 be 53 ff 7b be 6d de 03 be 7e 40 8e bc
       -0.15773381 -0.24609117 -0.12877817 -0.017364737
000200 d5 10 b4 3d 4d 87 45 3c 0a 69 94 bd f4 0b 43 bd
       0.08792273 0.012056184 -0.07246597 -0.04761882
000210 ed 07 30 b9 69 f4 66 bd d6 6a 0a bd 74 f2 52 bc
       -0.0001678762 -0.05638543 -0.033793293 -0.012875188
000220 92 23 55 bd 30 54 e8 b6 55 11 15 3e 4c 9c 75 bd
       -0.052035876 -6.9239395e-06 0.14557393 -0.05996351
000230 02 a0 d9 bd 38 b2 fa 3a fb c7 87 bd e2 b6 0c be
       -0.10626222 0.00191266 -0.0662994 -0.1374164
000240 d6 ff 18 be 27 6b a2 bd 59 87 11 bd ce 7c 4e 3d
       -0.14941344 -0.07930594 -0.03552947 0.05041199
000250 d9 cf 26 3b 36 98 49 3d 5c 90 6a bd 8e 95 9e 3d
       0.0025453477 0.049217425 -0.057266578 0.07743369
000260 64 a0 e1 3d 4b 46 bd bb fd f1 ad bc 96 ca d3 3b
       0.1101692 -0.005776202 -0.021233553 0.006463359
000270 6d 70 57 3d 3a 0c 05 3b e5 19 8e 3b 37 33 6b bd
       0.052597452 0.0020301477 0.004336583 -0.05742189
000280 11 0c 8a 3e b8 45 73 be d1 4a 69 be 35 72 f2 3c
       0.2696233 -0.23757064 -0.22782446 0.029595474
000290 ec cf 27 3d aa b2 65 bd 01 28 72 be f5 b2 89 3e
       0.040969774 -0.05607859 -0.23648073 0.26894346
0002a0 bb b8 06 bc 3b 6d 25 be 02 ef 24 be da e4 07 3d
       -0.008222754 -0.1615495 -0.16106799 0.033177234
0002b0 db b0 72 bd 86 d7 ba 39 f6 2b 57 bd 87 9c 35 3e
       -0.059250694 0.00035637262 -0.05253216 0.17735492
0002c0 ce c7 c2 3c b1 ec 60 3d f1 00 63 3d 7b 5c 34 be
       0.023776915 0.054913227 0.05542082 -0.17613403
0002d0 11 17 3d 3d 41 6d ba be f8 be 1a be b0 8e d9 bd
       0.046164576 -0.3641148 -0.15111911 -0.106229186
0002e0 04 7a 9f bd d7 f7 37 3d fd 51 e1 bc f0 51 c5 bc
       -0.077869445 0.044914093 -0.027504915 -0.024086922
0002f0 cf 71 aa bd e7 5a 8b 3a 2e 34 d6 bd 5d 99 b3 3e
       -0.083224885 0.0010631949 -0.10459171 0.35077944
000300 ae 13 df 3d 26 ad 85 3c b5 1c b3 3a 78 32 2e 3d
       0.108924255 0.016317915 0.0013665172 0.0425286
000310 a8 87 19 be d2 92 0b be c6 9c 14 be 83 9f 63 bd
       -0.14993155 -0.13630226 -0.1451293 -0.055572044
000320 b2 30 97 b9 f0 6e 2b bd e8 96 4c bc 95 0d 2b be
       -0.00028837245 -0.041853845 -0.012487151 -0.167044
000330 8a 6f 8d bd 5d f3 63 3a 40 2a ba bd 6b b8 29 be
       -0.0690604 0.0008695627 -0.0909009 -0.16574256
000340 24 8c e3 3d cc 49 36 be 46 f8 bf bd 1a 68 91 3b
       0.11110714 -0.17801589 -0.09373526 0.0044374587
000350 8b af 1c be 08 a5 ac 3c 70 99 96 3d 8c 7e 41 be
       -0.1530134 0.021074787 0.07353485 -0.1889593
000360 77 a0 1b be 95 50 1b be 65 3d c9 bc 15 cc b2 bb
       -0.15197931 -0.15167458 -0.024565408 -0.0054564574
000370 d2 21 1b bd 33 4b 31 be 5b b6 03 3d 6a 11 2e be
       -0.03787405 -0.17313842 0.03215633 -0.1699883
000380 84 31 ca bc ed a3 bc bb 42 89 82 bd a3 ac af 37
       -0.024681814 -0.005756846 -0.06373836 2.0942016e-05
000390 75 e8 99 bd fc 0e a0 3d ab 5d 98 bc 0e 49 6f bc
       -0.07515041 0.07815358 -0.018599352 -0.01460482
0003a0 3c f7 a6 bb 77 3a 37 3d 3d c3 cb bd b5 c3 55 bd
       -0.0050953906 0.04473349 -0.09949348 -0.052188594
0003b0 34 25 a1 3d b5 b4 06 bc 7e 7f 0d be a0 05 e5 bd
       0.07868424 -0.008221795 -0.13818166 -0.111827135
0003c0 80 3e b3 bd 9e f9 3e be e8 74 e6 bc d1 12 a2 3d
       -0.08752155 -0.18649909 -0.028131917 0.07913745
0003d0 e5 0f bf bd 04 52 4f be 44 62 dc 3d c3 77 66 be
       -0.093292035 -0.2024613 0.1076093 -0.22506623
0003e0 e3 fd e3 bd 17 fa ab bd 0e f8 01 bd d4 db 8b 3c
       -0.111324094 -0.0839731 -0.031730704 0.017072596
0003f0 dc ea 97 3d eb 34 9b bd 00 8e e7 3d 2c 06 13 3d
       0.07417843 -0.07578453 0.11306381 0.035894558

bias f4 [15]
000000 8b 0a 53 3d 21 47 b0 bb e2 50 92 3d 17 26 b5 ba
       0.051523726 -0.005379573 0.071443334 -0.0013820556
000010 bb 1d 9a 3c f9 ef a9 3d e0 86 c7 bd f6 15 b4 bc
       0.018813005 0.08297724 -0.09742522 -0.021983128
000020 02 b5 82 bd 6f 9b eb 3c 32 a0 8a 3c 6f e0 dd bb
       -0.06382181 0.02876064 0.01692209 -0.0067711393
000030 42 bb 00 bc b2 9d c3 bc bd 64 1a 3d
       -0.007857146 -0.023878906 0.037693728

weight f4 [1, 32]
000000 ac 3d fb bd 07 73 10 3c 9e 38 6c 3d 97 92 07 bc
       -0.12267622 0.008816487 0.05767118 -0.008274696
000010 d8 f7 bf 3d 82 8a c6 3d 39 62 d8 3c e2 ce 3b 3c
       0.09373444 0.09694387 0.026414024 0.011462899
000020 17 6e c8 3d 86 24 61 bc 54 fd 83 3c ec a0 d9 3d
       0.09786623 -0.013741618 0.016112007 0.106263965
000030 09 07 01 bb f4 c1 7a be fa 6b 80 bb 0e e6 91 3c
       -0.0019688031 -0.2448805 -0.003919122 0.017809894
000040 e5 5b e0 bc ce bf a7 b8 ca e9 b2 3d a0 c8 bc 3b
       -0.027387569 -7.998907e-05 0.08735998 0.005761221
000050 0c 2d a2 3d f7 4a 3a 3d 0e e0 35 bd 4e 24 ba 3c
       0.07918748 0.04548165 -0.04440313 0.02272239
000060 14 50 69 3e 2a 33 29 bb 12 4a 9f bc cc 9d d1 bc
       0.22784454 -0.002581785 -0.0194445 -0.025587939
000070 a6 5a e6 3d ad 71 32 3e 63 d1 cc 3c 28 d4 b6 bc
       0.112477586 0.17426176 0.025002187 -0.02231796
