results_final/generalization-32fd/60levels-policy.pt (torch, 443935 bytes, 11 tensors)

weight f4 [32, 3, 8, 8]
000000 be e7 60 be ef bd db 3b 01 d9 99 3d ab 0a 90 bd
       -0.21963403 0.0067059915 0.07512093 -0.07033285
000010 aa 45 0e bd f6 74 b5 3c ee 94 3f 3e 88 17 f1 bc
       -0.034734406 0.022150498 0.18709156 -0.029430166
000020 b3 29 35 be d2 3c 54 be c0 63 1e be 79 bd 23 be
       -0.17691688 -0.20726326 -0.15467739 -0.15990247
000030 0c 37 83 bd 1b a7 33 3e 36 a5 8d 3d f6 e5 ed 3d
       -0.06406984 0.17544214 0.06916277 0.11616127
000040 75 3d 96 3c 7c 3d 89 3d e8 3b 1b 3e ec 92 6a be
       0.018339852 0.0670118 0.15159571 -0.22907609
000050 bd 2e 30 be 88 5c 2c ba 96 c7 67 be c8 ed 08 be
       -0.17205329 -0.00065750675 -0.2263473 -0.13371956
000060 9b 54 61 3e 59 e9 67 3e d5 ec b1 3d 0d 72 03 be
       0.2200493 0.22647609 0.0868775 -0.12836476
000070 eb 38 91 3d 29 b9 73 bc cd 9f 05 be a1 47 23 be
       0.07090934 -0.014875689 -0.1304924 -0.15945293
000080 79 17 ba bd 5d 4b 19 be 53 67 b6 bd 0f 1a 4b 3c
       -0.09086508 -0.14970155 -0.08906426 0.01239635
000090 e6 1c b5 3d 14 e2 18 3e 81 45 90 3e 14 99 54 3e
       0.088434026 0.14929992 0.28178027 0.2076152
0000a0 fd 32 51 3d 35 f9 07 bd 60 fe 3d bd 30 5d 96 bd
       0.051074017 -0.033196647 -0.04638517 -0.07341993
0000b0 2e 8d 74 bd 80 99 f6 bd c1 1d 92 bd e8 ef a6 3d
       -0.059704952 -0.120409966 -0.07134581 0.08151227
0000c0 ed fa 4a 3e 5a b6 5f 3d 04 68 bf bd fc 02 1d 3e
       0.19822283 0.054617263 -0.09346011 0.1533317
0000d0 b1 bc 1e 3e b9 fb 44 be 77 da d9 bd 40 26 ba 3d
       0.15501668 -0.1923665 -0.10637372 0.09089327
0000e0 cf 1d 8c be 27 7e 32 be e5 0c a1 3d a6 00 92 3d
       -0.27366492 -0.17430936 0.078637876 0.0712903
0000f0 fe 49 66 3e 01 a1 e6 3c 2d 3c 51 be d8 2c 8d 3d
       0.22489163 0.028152945 -0.20433111 0.06893319
000100 55 42 00 be cc 8c f2 3c 17 28 0b be 1b 63 bc 3d
       -0.12525304 0.029608153 -0.13589512 0.0919859
000110 d5 af 5a be 7b 8d 9f 3e e2 0c f5 bc 60 20 a4 bc
       -0.21356137 0.3116263 -0.02991337 -0.020034969
000120 9e 4b 2d be b1 af 7c be 1f 4c 0e be 33 c8 fc 3d
       -0.16923377 -0.24676396 -0.13896225 0.123428725
000130 45 c1 63 bd 1b 78 f4 3d 0b 3c 13 3e 22 e6 39 3e
       -0.055604238 0.11936971 0.14378373 0.18154195
000140 25 b5 0b 3e cb 3c 12 3e 8c c9 94 3d c4 a9 9a bd
       0.1364332 0.14281003 0.072650045 -0.075519115
000150 61 aa 44 bd 2d 8f 7b 3d ff 9a 64 be 82 25 53 be
       -0.04801405 0.06141584 -0.22324751 -0.20619777
000160 96 b2 89 3e 1b 34 a2 3d e9 ac 65 3e f1 ae 72 bd
       0.26894063 0.079200946 0.22429241 -0.05924887
000170 2e a0 76 ba df ce 50 bc bd 13 6a bd a2 25 7c be
       -0.0009408024 -0.012744634 -0.05714773 -0.24623731
000180 2e 78 88 bd 7a d5 0e be 9c 26 23 be 99 c9 62 be
       -0.066635475 -0.13948622 -0.15932697 -0.22147216
000190 2f 32 b9 bd bf 5d f2 3d 4e c9 d7 3d e8 8b 95 bc
       -0.09042775 0.11834287 0.10536443 -0.018255189
0001a0 01 b6 35 3d 0d 45 34 3d d2 07 80 be 29 4c 17 3d
       0.044363026 0.044011164 -0.25005966 0.036937866
0001b0 13 8a 4c bd 65 04 8e be 7f f3 63 be 88 01 c3 3d
       -0.049936365 -0.27737728 -0.22260855 0.095217764
0001c0 1b 53 0d 3e 06 3d 9d 3c 58 4f 75 3c c4 5d c6 3d
       0.13801233 0.019194137 0.01497253 0.09685853
0001d0 d7 a3 9c 3e 12 fb 0b 3d 0a 88 5c 3d 09 05 04 bd
       0.3059375 0.034174986 0.053840674 -0.032231364
0001e0 9e bd fa bc 2b 86 88 3b 32 5d b9 bd 3f 58 48 bd
       -0.030607995 0.0041663847 -0.09050979 -0.048912283
0001f0 c7 69 5b 3b 32 72 19 be 75 f8 fc 3d 30 4c 0a 3e
       0.0033479796 -0.14984968 0.12352077 0.13505626
000200 ab 2f f1 bd 83 fc 8a 3d 7a 18 58 be 52 1f 8f bd
       -0.1177667 0.06786444 -0.21103087 -0.06988396
000210 92 4e 24 be fa ae fa 3d 41 1b 23 3d 8b 42 17 be
       -0.16045597 0.122404054 0.039820913 -0.14771478
000220 7d e0 f7 3d d7 e5 9b 3c 25 89 17 3e f8 c4 01 3e
       0.121033646 0.019030495 0.1479841 0.12672794
000230 ff 2e b2 bc b0 80 14 be 4f 49 33 be 35 89 6d 3e
       -0.021750925 -0.14502215 -0.17508434 0.23196872
000240 be 87 06 3e ff 9b 86 3e 4d 94 fe bd be 23 46 3d
       0.13137719 0.2629089 -0.1243063 0.04837393
000250 f8 7b 93 3e ee a9 a4 3d 82 4f f5 bd 78 1a 9a be
       0.28805518 0.08040224 -0.119780555 -0.3009832
000260 dc 4e b8 bb 8b e3 a5 bd 18 12 14 be 10 c7 01 3d
       -0.005624635 -0.08100041 -0.14460027 0.03168398
000270 c6 4e 8e bc c4 05 5a 3d 27 99 9f bd 10 ea 4e 3d
       -0.017371546 0.053228155 -0.07792883 0.05051619
000280 91 cc 87 bd 29 15 b3 bd 62 23 bc bc 95 40 77 be
       -0.06630815 -0.0874427 -0.02296609 -0.2414573
000290 bf e2 7e be a4 77 e9 3c 72 dd 2a 3e 60 d0 8d 3e
       -0.24891184 0.028499432 0.16686037 0.2769804
0002a0 34 03 7a bd 8f c0 f4 3d 75 c7 37 be 0a 87 03 be
       -0.06103821 0.1195079 -0.1794718 -0.12844482
0002b0 fd a0 7e be 6e b6 79 be fc df cd 3c 91 94 02 3e
       -0.248661 -0.24385998 0.025131218 0.12751986
0002c0 6e 8d 91 bd 1a e4 8f 3d e5 62 d7 bd 26 15 8d be
       -0.07107054 0.07025929 -0.105169095 -0.27555197
0002d0 13 3c cf be 86 98 a5 3d 08 67 05 be f0 db 78 bd
       -0.4047552 0.08085732 -0.13027585 -0.060756624
0002e0 01 33 9e bd 8a 09 0b be 13 8a 7b bd 8c 67 8e be
       -0.07724572 -0.13577858 -0.061410975 -0.27813375
0002f0 a1 9a 87 3d fd 77 84 be df d5 95 bc 4d 6c 93 bd
       0.0662129 -0.25872794 -0.018290458 -0.07198391
000300 6d 90 27 3d f5 46 11 3b da 28 0d bb fe fe 17 3e
       0.04090922 0.0022167538 -0.0021539242 0.14843366
000310 ca 67 1c 3e f5 11 2a be 37 b4 12 bd 02 9a cb bc
       0.15273967 -0.16608413 -0.035816398 -0.02485371
000320 59 59 6b be a0 d0 1c be a4 a8 c6 bd bc 9f 2d bd
       -0.22983302 -0.15313959 -0.097001344 -0.042388663
000330 08 94 62 be ec 68 95 be 73 9c 31 be b8 69 cd bd
       -0.22126782 -0.29181612 -0.17344837 -0.1002993
000340 5b 9c 1e bd 88 84 fa 3d 54 51 b2 bd b6 71 87 3d
       -0.03872333 0.122323096 -0.08706918 0.066134855
000350 09 11 15 be 43 35 1b bd 89 45 dc 3d 2e d6 d9 3d
       -0.1455728 -0.03789259 0.1075545 0.10636555
000360 3b dc 85 bb a3 66 ed bd bf e6 cf bd d7 4f 49 bb
       -0.0040850914 -0.11591842 -0.10151433 -0.0030717754
000370 72 35 81 3e b7 3e 86 3d 2c ea 00 bd 11 a0 f7 bd
       0.25236088 0.06554931 -0.031473324 -0.12091077
000380 41 30 14 3d 0c b4 c6 bb 9d 39 33 3e 8d 0f e8 bd
       0.03617883 -0.0060639437 0.17502446 -0.11331091
000390 38 8e 23 3d a1 5f 19 3e 53 96 ad 3c 63 91 09 3e
       0.039930552 0.14977886 0.021189844 0.13434367
0003a0 df a5 bf 3d ff fb 08 bd 3b 8a 02 3d 2d c4 79 bc
       0.09357809 -0.033443447 0.031870108 -0.015244526
0003b0 9b e4 5b 3d c7 1c 85 3d a7 76 6f 3d b9 0c 42 3d
       0.053684812 0.064996295 0.058462765 0.047375415
0003c0 ff bf b6 3c 81 33 a4 3d 9e 05 24 3d f5 23 e0 3d
       0.022308348 0.08017636 0.04004442 0.10944358
0003d0 fe 61 16 bd 23 3e 89 bd 6d 71 81 3d 68 ee b9 3d
       -0.036714546 -0.06701305 0.063204624 0.090786755
0003e0 d7 dc cf 3d 8f 4d f8 bd 70 f0 99 be cb f8 83 be
       0.10149544 -0.12124168 -0.30066252 -0.2577575
0003f0 5f 77 fe be a3 5d 94 be d6 7a 3b be b9 fc 13 bf
       -0.49700448 -0.2897769 -0.18308577 -0.578075

bias f4 [32]
000000 05 f3 0d bc 3f eb 23 bc f4 ef c4 bb 77 8a 97 3a
       -0.008663897 -0.0100048175 -0.00601005 0.0011561651
000010 2e 54 55 bc a3 d0 b9 bd 4d e1 54 ba 38 1d 09 3b
       -0.013020558 -0.090729974 -0.00081207306 0.0020921957
000020 89 07 04 bc 9f cc 17 bc 1f 81 a3 3c 90 ae c3 bb
       -0.008058437 -0.009265094 0.01995903 -0.005971737
000030 6a f9 e2 bb 14 86 a2 bb d4 44 9c 3a e7 7f 27 bc
       -0.006926705 -0.004959831 0.0011922368 -0.010223365
000040 2e 7b 03 3a 1d 44 46 bb 24 a6 df 3b e4 91 3c bc
       0.00050156086 -0.0030253 0.0068252254 -0.011509392
000050 df dc 02 bb 12 b6 69 bb 19 7d 06 ba 7f 4d 28 3d
       -0.0019968075 -0.00356615 -0.00051303353 0.04108953
000060 52 90 a6 ba 11 55 8d bb 8d b2 92 ba d3 73 61 bb
       -0.0012707806 -0.004313119 -0.0011192128 -0.0034401312
000070 e3 4c c0 bb 42 76 3c bb f0 d0 9d b9 24 33 1e bd
       -0.0058685406 -0.002875701 -0.00030101044 -0.03862299

weight f4 [64, 32, 4, 4]
000000 3c 08 0a 3e 47 32 22 3d 80 3d 02 3e 44 35 d2 b9
       0.13479704 0.03959873 0.12718773 -0.00040094007
000010 33 ab 31 bd dd b9 80 3d 03 04 09 3d 47 62 83 3b
       -0.04337616 0.062854506 0.03345109 0.0040095183
000020 fd 46 d7 bd fe 33 7e bc 43 4e 97 bd 70 2c 2b be
       -0.10511587 -0.015515326 -0.07387974 -0.1671617
000030 bc 06 aa be 5e d1 6a 3c f0 b4 b7 bd db 7f db bd
       -0.33208263 0.014332144 -0.08970058 -0.10717746
000040 1b 62 0e 3e 47 40 20 3c f9 c0 99 3d 1f b0 b0 bb
       0.13904612 0.00978095 0.0750751 -0.005392089
000050 28 97 c5 3d 18 2b e2 3d 50 89 8d 3c 30 9f c1 bd
       0.096479714 0.11043376 0.01727739 -0.09454191
000060 c4 ea 74 be a4 0e 07 be 2f 37 c9 be 26 65 44 be
       -0.23917681 -0.13189179 -0.39299914 -0.1917921
000070 b8 f8 a0 bd 6c 9a 27 be 60 bf 9e 3d 7b 1d 92 3d
       -0.07859939 -0.16367501 0.07751346 0.07134529
000080 e2 ce 08 3e 4c 5c 1a 3e d1 b1 1c 3e 9d 2b 2f 3d
       0.1336017 0.15074271 0.15302207 0.042766202
000090 8e a8 11 3e 16 7a 4b 3d b6 1e 91 3c b2 cb f7 bc
       0.14224455 0.049676977 0.01771484 -0.030248497
0000a0 11 40 69 bd a9 78 85 be 65 6b 04 3e e4 8e 70 bd
       -0.056945864 -0.2606862 0.12931593 -0.05873002
0000b0 a5 36 34 be 32 eb 1f be 3d cd 50 3d 24 b6 91 3d
       -0.1759897 -0.15617064 0.05097698 0.07114819
0000c0 77 06 b0 bd b1 84 10 3d 6f 9d 20 3e bd 0e 39 bd
       -0.08594983 0.035282794 0.15685056 -0.04518007
0000d0 b3 b0 32 bd 0a f6 14 be b3 ec d1 bd e1 51 4a bd
       -0.043625545 -0.14546981 -0.10250225 -0.049394492
0000e0 12 46 38 be 77 f1 2d be d9 91 62 3d 02 9d c5 bd
       -0.1799548 -0.16986643 0.055314872 -0.096490875
0000f0 53 dc 81 be 11 d7 35 be 96 13 49 be 6a ef 88 bd
       -0.25363407 -0.17757823 -0.19636378 -0.066862896
000100 32 a9 8d bc 1e d7 08 bd 35 d6 3e bd b9 f8 c9 3c
       -0.017292593 -0.033408277 -0.046591002 0.024654733
000110 25 66 96 bd 97 0a 22 bd b8 0b 19 3c 17 c7 e3 3c
       -0.07343701 -0.03956088 0.009341173 0.027804894
000120 34 e7 38 be a3 66 7e be 50 93 09 be 7f c3 a8 be
       -0.18056947 -0.2484384 -0.13435102 -0.32961652
000130 1d ab d6 be 33 15 8a be 9c 00 8e ba cf 1e fe 3d
       -0.41927424 -0.269693 -0.0010833922 0.1240822
000140 d1 3f ee 3b b3 8d 04 3d 29 6d b1 3d 62 61 7c bd
       0.007270791 0.032361697 0.08663399 -0.06161631
000150 8d 00 98 3d b4 ef 38 3d 10 fa eb 3a 7e fa ce bc
       0.0742198 0.045150474 0.0018003602 -0.025265928
000160 e4 35 51 bb 5d ff 9c be 72 60 3d be f7 d1 4b be
       -0.003192299 -0.30663577 -0.18493822 -0.19904314
000170 ab e0 ec bd 10 58 28 3d bc 1c c9 bd f5 d6 c8 bd
       -0.115662895 0.041099608 -0.09819934 -0.09806625
000180 51 47 08 3e 63 b3 02 3e b6 65 dd 3a b1 fb 22 3d
       0.13308455 0.12763743 0.0016891274 0.039790813
000190 0d 92 e0 3d 0e a6 a9 3c 41 1b 18 be 96 0a f2 3d
       0.10965357 0.020709064 -0.14854147 0.11818425
0001a0 ce 00 96 be 68 cb 47 bd 6b 42 84 be 56 19 0d be
       -0.2929749 -0.048777968 -0.25831923 -0.13779196
0001b0 29 85 7a bc 7c 9d 33 bd d5 13 8e 3d a4 85 d1 bd
       -0.015290537 -0.04385136 0.069373764 -0.10230568
0001c0 a9 7b 0a 3e 14 c7 af bd 53 36 35 bd 57 6f 26 3d
       0.13523735 -0.08582893 -0.04424126 0.040633526
0001d0 55 9a 78 3d 11 2e dd 3b d2 ab 57 3d 5d f5 11 bd
       0.060694057 0.0067498763 0.052654095 -0.035634387
0001e0 5a a0 4f bd c5 0a 88 3d c5 82 ca bd b5 b0 6b be
       -0.050690033 0.06642679 -0.098882236 -0.23016627
0001f0 94 a6 9f be a6 8b 47 be ec 7d 0d be 02 33 bd 3d
       -0.31181777 -0.19486865 -0.13817567 0.092382446
000200 24 5f 3e 3d 04 66 f0 bc a5 5b 39 bd cb 5d 67 bd
       0.046477452 -0.02934552 -0.045253415 -0.056485932
000210 cc 0d c6 3c 0a 02 d3 bd 40 a1 79 bd da 05 6f bc
       0.0241765 -0.10303123 -0.060944796 -0.014588797
000220 b1 d6 9c be 79 d1 d1 be 80 0a 96 be 44 e6 54 be
       -0.30632547 -0.40980127 -0.29304886 -0.20790964
000230 ee 5e b7 be 60 60 05 be 86 ca 07 be b8 11 37 3a
       -0.35814613 -0.13025045 -0.1326085 0.00069835363
000240 3d 75 04 3e 80 4d 0c bc 45 b9 bf 3c 6f e6 a6 3c
       0.12935348 -0.008563399 0.023403773 0.020373551
000250 76 d6 57 bd 49 cf 15 be 0d 64 70 bc 70 f0 96 bd
       -0.05269476 -0.14629854 -0.014672291 -0.073700786
000260 72 70 30 3c cc da 36 bd 80 0c 50 be c6 15 67 3d
       0.010768997 -0.044642255 -0.20317268 0.05641725
000270 2d 2a d6 be f4 30 66 be 3d ec a7 bd 80 db cf bd
       -0.41829053 -0.22479612 -0.08199356 -0.10149288
000280 d6 5d 9b 3d a7 76 0c bc 36 8f b4 bd 08 2c b1 3b
       0.07586257 -0.008573211 -0.08816378 0.0054068603
000290 68 1a 94 3d 7b dc f1 bc 22 bf 29 bd 35 01 25 be
       0.07231599 -0.029524079 -0.041442044 -0.16113742
0002a0 29 fb 62 be 12 7f 90 be 8a c4 9c bd 0f 0f af bd
       -0.22166122 -0.28221947 -0.07654674 -0.08547794
0002b0 dc 7f 23 be 20 6f e2 bd 34 d5 f0 3c 92 84 e9 3c
       -0.15966743 -0.11056352 0.029398538 0.028505597
0002c0 7c 12 11 3e 80 49 bc 3d c7 e5 a2 3d e7 53 c2 3d
       0.14167207 0.091937065 0.07953983 0.09488659
0002d0 6d 72 7b 3d 87 9c 00 3d 0e 2b 51 bc f7 3b 9c 3d
       0.06138842 0.031399276 -0.012766613 0.07628625
0002e0 eb 9e 10 3e 5b 3e 4c 3d 91 39 91 bd d0 82 82 3c
       0.14123122 0.049864154 -0.07091058 0.015931517
0002f0 4a 14 24 be 07 7a 74 bd 99 6f 69 3b eb 38 25 3d
       -0.16023365 -0.059686687 0.0035619496 0.040337484
000300 99 ca 9e bd c4 d0 92 bd b5 7b 49 bc 04 4a b9 bd
       -0.07753486 -0.07168725 -0.01229756 -0.090473205
000310 5f dd 40 3c 9f 31 4d bd ca e9 6e bd 4e 89 ed 3b
       0.011771529 -0.05009615 -0.058328427 0.007249034
000320 31 2a 80 be 44 08 23 be e0 de ea bc 48 79 db bd
       -0.2503219 -0.15921122 -0.028670728 -0.10716492
000330 02 30 6f be e0 0f 95 bd f2 29 2a bd e2 eb ea 3d
       -0.23358157 -0.072784185 -0.04154391 0.11470772
000340 12 a8 3c 3d 9c ca de 3d 41 f1 64 3d dc ff 07 ba
       0.04605872 0.108784884 0.05589414 -0.00051879673
000350 e3 32 ab 3d 08 82 f7 3c fe e2 d7 3d 8e eb c1 3d
       0.08359315 0.03021337 0.10541342 0.094687566
000360 c6 86 63 bd 02 f1 7b bd 54 7b bd bc 8d 9c 19 be
       -0.05554845 -0.06150914 -0.023130096 -0.15001126
000370 69 ea 96 bd a1 ff 6e bd d9 e5 68 bd da 5c d6 3d
       -0.07368929 -0.058349255 -0.056859825 0.10466929
000380 83 b2 49 3d 1b 46 93 3d 8b ff 9d bd 9c bf 7a 3d
       0.049242508 0.07191106 -0.077147566 0.06121789
000390 b5 65 4b 3d 9a 0a 2b 3d e1 64 b1 bd b5 15 1a 3b
       0.049657542 0.041758157 -0.08661819 0.0023511474
0003a0 9b 23 01 be 9a d4 ae bd b1 49 fa bd 4b 8c 32 be
       -0.12611239 -0.08536644 -0.12221087 -0.1743633
0003b0 be c1 71 be f2 c9 ed bd d3 c3 18 3c 84 4f 48 bc
       -0.23609063 -0.11610784 0.009324032 -0.012225989
0003c0 79 c3 95 3d 3c 09 91 bd eb f7 c6 bd fb 50 3d bd
       0.07312674 -0.070818394 -0.09715255 -0.046219807
0003d0 b9 c0 31 3d 50 42 e9 bc d6 7c 67 3d 01 d4 8e 3d
       0.043396685 -0.028474003 0.056515537 0.0697403
0003e0 ed 75 dc bd 57 48 75 bd 8d ba ce bd f6 47 32 bd
       -0.1076468 -0.05988344 -0.100941755 -0.04352566
0003f0 b5 3b 75 be 05 ab 94 bd 7d a5 3a bd 53 96 de bd
       -0.23948558 -0.07259182 -0.04556798 -0.10868516

bias f4 [64]
000000 01 b0 4f 3a c9 c0 da ba 9d d6 20 bd af 84 7a 3b
       0.000792265 -0.0016689535 -0.03926717 0.0038226058
000010 75 32 b4 3c 73 40 27 3c 76 5d 2f bd 69 5a a0 bd
       0.021996716 0.010208237 -0.04281374 -0.07829744
000020 c9 1f 96 bd 8e 40 eb 3c ad c8 20 bc 4d ca 87 bd
       -0.07330281 0.028717306 -0.00981347 -0.06630383
000030 c1 aa 9a 3d d9 c6 ba 3b 5a 0a c7 bd ac 87 34 bb
       0.075521 0.005699974 -0.09718771 -0.0027546687
000040 d2 10 ef bd da 94 c2 bd 7e af 90 bc f8 f6 1a bd
       -0.1167313 -0.095010474 -0.017661806 -0.037833184
000050 bc 14 a7 bc 3e 0c 17 3d 85 1a 6f 3d 16 22 17 3c
       -0.02039563 0.03687691 0.0583749 0.009224435
000060 4f e6 eb bc 16 e3 21 bd f9 7a b5 3d 98 df 9e 3d
       -0.028796343 -0.039523207 0.08861346 0.07757491
000070 3f 52 42 3d de 59 bf bc 44 29 45 bc 03 3c 89 3d
       0.047441717 -0.023358282 -0.012033764 0.067008995
000080 c7 14 63 ba 24 5b a7 bd 4f 20 23 bd a7 fa 47 3c
       -0.0008662459 -0.081716806 -0.039825734 0.012205756
000090 fb 08 02 be 8f 01 36 3a bd 20 f4 3c eb 52 ba 3d
       -0.12698738 0.0006942981 0.029800767 0.090978466
0000a0 36 ae 17 3d b9 95 a1 3c 3e 8d 5f b9 2a 79 10 bd
       0.037031375 0.019724714 -0.00021319554 -0.0352718
0000b0 77 81 b4 bc 4e 7d 9e 3d 6f 27 6d 3a af fc 10 bd
       -0.02203439 0.07738744 0.00090467086 -0.035397228
0000c0 dd 0d df bc dd 33 18 bb 7d 19 ae 3c cb 59 48 3b
       -0.02722829 -0.0023224272 0.021252388 0.00305711
0000d0 12 fd 41 bd 9e 2d 51 3d 79 a7 a9 3d 47 05 4c 3d
       -0.047360487 0.051068895 0.08283896 0.04980972
0000e0 f2 a4 2b 3b 93 1d 79 3d dc a8 6f 3c 09 6a 8f bc
       0.0026190844 0.06081922 0.014627662 -0.017506616
0000f0 eb c6 9b bb 51 8a 72 3c fc 0c aa bd 35 a2 db bc
       -0.0047539375 0.014803485 -0.08303258 -0.026810745

weight f4 [64, 64, 3, 3]
000000 50 46 b1 bc 92 f1 4d bd a3 e8 32 3d ea f4 40 3e
       -0.021639973 -0.050279208 0.04367889 0.18843427
000010 85 d0 a2 3d 65 e5 d0 3d 25 be 64 bd 9b 73 09 3d
       0.07949928 0.102000035 -0.0558454 0.033557516
000020 da 39 1f bd 64 51 f1 3a c5 7f 34 be bb fc 7c 3d
       -0.03887353 0.0018411097 -0.17626865 0.06176446
000030 e9 fb 70 bd cd 7a 8b 3c 12 c2 48 bd 65 0a 77 bd
       -0.05883399 0.01702633 -0.049013205 -0.060312647
000040 35 5d 89 bd b5 13 de 3d fa 13 e3 3d fb 65 11 bd
       -0.06707231 0.108436026 0.110877946 -0.035497647
000050 9d 76 b4 bd f6 e4 ac bd a8 0d e7 3b fb cc 6f 3d
       -0.08811686 -0.08442108 0.0070511885 0.058545094
000060 11 cd 19 3e 90 f9 d8 3c 72 2d 7c 3d 97 5e 70 3c
       0.15019633 0.026486188 0.061566778 0.0146709895
000070 4c 74 0a bd 3f de 09 bc f7 87 61 bd 62 e7 fa bc
       -0.033802316 -0.008414804 -0.055061307 -0.03062791
000080 e8 ac a0 bd df c2 3e 3c 20 55 11 bb da db a0 bd
       -0.07845479 0.011643141 -0.0022175983 -0.07854433
000090 b4 75 3b 3e 33 22 df 3d d3 a1 96 3d c7 3d 17 3c
       0.18306619 0.10895195 0.07355084 0.009231037
0000a0 cc b0 3d 3e 5d ff 26 bd 47 bf 97 3c f4 9e 3e bd
       0.18524474 -0.040770877 0.018523825 -0.04653831
0000b0 e2 d4 bd 3b 02 4e ed bb 87 6a e6 3d 33 41 cf bd
       0.0057932 -0.0072419653 0.11250787 -0.10119858
0000c0 b4 e2 2a 3d c8 7d 56 bd a0 73 d9 bb cf e0 ff bc
       0.041720107 -0.052366048 -0.006636098 -0.031235127
0000d0 42 d4 83 3a 3f 7a 30 be 56 bc 3e 3d 1c 29 31 be
       0.0010057765 -0.17234133 0.04656633 -0.17300838
0000e0 3f 69 85 bd 52 9d 47 3e d7 b7 c2 3d 98 cd 43 3e
       -0.06514215 0.19493607 0.09507721 0.19121397
0000f0 0d ee a4 3d c7 9c 80 3d 34 bf 76 3d f8 66 5f bd
       0.08053217 0.06279903 0.06024094 -0.054541558
000100 07 34 49 bd e9 89 09 be fe 30 80 bd 08 48 c3 bd
       -0.049121883 -0.13431515 -0.062593445 -0.09535223
000110 58 0b c4 3d 49 eb 12 be 31 2f 5f 3b ee da 76 bc
       0.09572476 -0.14347567 0.0034055228 -0.015066845
000120 9b 36 cf bd 12 13 24 3d 09 9d b7 bc a3 23 2b 3d
       -0.10117837 0.04005725 -0.022413747 0.041782033
000130 58 c2 b6 bd d7 1b 27 be 2a 5c 14 bb 1d 8a 92 3d
       -0.08923787 -0.16319214 -0.0022637942 0.07155249
000140 f1 68 fb bd 01 82 61 bc a8 3e d4 bb d8 b8 0d 3d
       -0.12275875 -0.0137639055 -0.006477196 0.03460011
000150 ec 72 0c bd 59 20 a4 bd 8a 28 ea bd b6 14 70 3d
       -0.034289286 -0.08013982 -0.114335135 0.0586135
000160 22 8a 27 bd 9a 67 97 bd 97 25 c9 3d 5e 91 d0 bc
       -0.040903218 -0.07392807 0.09821623 -0.025459941
000170 f8 17 42 be 92 61 56 3d d1 72 9a bd 38 69 ea 3c
       -0.18954456 0.052339144 -0.07541431 0.028614625
000180 9e 1b 23 3d 64 0b b4 bc d0 e3 af 3c 43 a9 07 3b
       0.03982126 -0.021978088 0.021470934 0.0020700253
000190 2b 4c 10 be 05 92 ad bb 93 f7 83 ba e2 b9 64 bc
       -0.14091556 -0.005296948 -0.001006829 -0.013960334
0001a0 50 b9 19 bd fb 86 ce bd 5d cf 00 bd 8f c3 89 3d
       -0.037530243 -0.10084339 -0.031447757 0.06726753
0001b0 e0 d2 31 3e 6d 87 cb bc 64 4c 91 3c 5c 5f 13 ba
       0.17365599 -0.02484485 0.017736621 -0.00056218146
0001c0 54 b9 11 be 7c 77 58 3d a4 8a dd 3b 7e 94 80 bd
       -0.14230853 0.052848324 0.006760912 -0.06278323
0001d0 94 df 0a 3d e5 d4 1b bd d3 64 97 bd a9 3c 39 bc
       0.033904627 -0.03804483 -0.073922776 -0.011305966
0001e0 c5 dd ff 3d d4 75 70 3d bd c2 92 3d f3 92 07 be
       0.12493471 0.05870612 0.0716605 -0.1323965
0001f0 74 f5 0f be d5 65 12 3d 90 4d a8 bd 57 8d 29 be
       -0.14058477 0.035741646 -0.08217919 -0.16557823
000200 c0 38 1d be 4e 0a 15 bd f8 ed d0 bc 04 cc 8a 3d
       -0.1535368 -0.03638678 -0.025504097 0.06777194
000210 11 3c 0f 3e b9 8e b5 3d 63 06 ac 3d 27 0b 86 bc
       0.13987757 0.08865113 0.08399656 -0.01636274
000220 75 5b 06 3c 9a 1c 08 3c 5d d2 d0 bd aa 2e 66 bd
       0.008200516 0.0083076 -0.101963736 -0.056196846
000230 c0 53 01 3d b9 da 27 bd 85 97 8f bc d2 77 3e ba
       0.03157401 -0.040980075 -0.017528305 -0.00072657794
000240 7c 99 12 3d ba 4c 2f 3d ab 0c 1b bb 08 7c 28 be
       0.035790905 0.04279778 -0.0023658674 -0.16453564
000250 9e 21 e3 3d b8 b6 cc 3c c2 a0 d1 3d cb 30 f0 3d
       0.11090396 0.02498947 0.1023574 0.117280565
000260 56 e6 6e bc 3d e0 4f bd d2 28 e5 bc db b3 40 bd
       -0.014581284 -0.05075096 -0.027973566 -0.047046524
000270 3a 25 ef bb 34 2f 4e 3c aa 9b 23 be 63 97 da 3d
       -0.007298139 0.012584496 -0.1597735 0.10673406
000280 87 28 c8 3c 79 f6 b5 bd ea 30 07 3d b9 17 d1 bd
       0.024433387 -0.088849016 0.033005632 -0.10209603
000290 e8 97 a3 bd a5 e8 67 bd dc a2 ec bd bb 13 e5 bd
       -0.07987958 -0.05661835 -0.115545005 -0.11185404
0002a0 ac 9e 36 3d 51 89 38 3d a5 b6 44 3d f3 39 53 bd
       0.044584915 0.04505283 0.048025746 -0.051568937
0002b0 19 54 c1 be 21 e7 06 be f4 ec ae 3d 5a be 8c bd
       -0.37759474 -0.13174106 0.08541289 -0.06872244
0002c0 8f 19 f6 bd 5d cc 5e 3d f1 f9 2f bc a6 fb 97 bc
       -0.12016594 0.054394115 -0.010740743 -0.018552613
0002d0 8d 4f 1e be 32 43 40 3d 54 21 01 3d 0b 01 07 be
       -0.15460034 0.046939082 0.031525925 -0.13183992
0002e0 28 56 64 bb bc b4 51 bd 1d 9c 3c bc 1a ac b7 bd
       -0.0034841392 -0.051197752 -0.01151183 -0.08968373
0002f0 3b 55 09 bd 0b 66 ce 3d 02 4a 68 3d 33 e9 15 3d
       -0.033528548 0.10078057 0.056711204 0.03659935
000300 54 bd 81 3b 3b 54 35 bd 44 78 f9 3d 28 c3 bb 3c
       0.0039593372 -0.04426978 0.12181142 0.022920206
000310 65 cf 07 be 33 b1 80 ba a1 3e a4 3d 23 fb 69 3d
       -0.13262708 -0.0009818434 0.08019758 0.05712427
000320 48 0c 8c bd 7f fc c0 bd bf 0b 84 bc ea b2 a6 3d
       -0.0683828 -0.0942316 -0.016118882 0.08139594
000330 82 56 6c 3d 69 95 d1 3d 44 5b df bd eb bd 0e bc
       0.057699688 0.10233576 -0.109060794 -0.008712272
000340 4a d6 bb ba e1 e9 38 bd 82 53 bc bc 92 64 78 bd
       -0.0014330831 -0.04514492 -0.022989038 -0.060642786
000350 a0 43 0f 3e 51 a7 72 3d 18 c1 07 be 99 fb 16 bd
       0.1399064 0.059241597 -0.13257253 -0.036861036
000360 b7 90 f2 ba 78 41 38 be 21 05 03 bd 65 fc ea 3d
       -0.0018506263 -0.17993724 -0.031987313 0.11473922
000370 db 7e 0c bb 64 69 ab 3d ca 1d b8 bb 2b 54 b4 bc
       -0.0021437916 0.08369711 -0.0056187855 -0.02201279
000380 8a 42 a6 bb e0 30 04 bd 99 5e 93 3d 73 94 aa 3b
       -0.00507385 -0.032273173 0.071957774 0.005205685
000390 fb 09 1e be 3e ea 09 bc 90 53 0b be 97 70 06 3d
       -0.15433495 -0.008417664 -0.13606095 0.032822218
0003a0 c0 66 58 bd a6 1a d4 bd b3 9e 9f bc e6 4a f9 bd
       -0.052832365 -0.10356645 -0.019484853 -0.12172489
0003b0 e7 10 79 bd f1 72 52 bc 78 ae a0 bd bb 1a e8 3d
       -0.060807135 -0.012844787 -0.07845777 0.113332234
0003c0 d2 e6 eb bc 2a a4 4b 3e 3c 80 02 3d f6 c7 ae 3d
       -0.028796587 0.19886842 0.031860575 0.08534233
0003d0 14 15 ae 3d dc 19 00 bc 5b 05 09 3c 06 2d 5d 3d
       0.08500114 -0.007818665 0.008363093 0.053998016
0003e0 c1 71 61 3d d7 cb 7a bd 62 77 03 be 73 b3 df 3c
       0.055040125 -0.061229553 -0.1283851 0.027307248
0003f0 6d 7d c3 bc e8 6f 65 3d 97 57 82 bd cd fa ed 3c
       -0.023863519 0.056014925 -0.06364363 0.029050255

bias f4 [64]
000000 86 2c 80 3d 77 80 8e bc 66 a6 40 3d 05 76 49 3b
       0.06258492 -0.017395241 0.04703369 0.003074051
000010 65 e6 b2 3d 54 0d c8 3c 7a cf c2 3c 3f 2a 59 bd
       0.087353505 0.024420418 0.023780573 -0.053018805
000020 c6 4a 00 3c b3 37 d5 bd dc 09 5b 3d c3 a0 77 bd
       0.007830327 -0.104110144 0.0534762 -0.06045605
000030 26 96 c1 3c 56 da 31 3d 4f 56 2c bc 30 6f ac 3d
       0.023631167 0.043421112 -0.010518624 0.08419645
000040 b5 79 ce bc ef 33 25 3d 0b f4 08 3d bf 14 64 3c
       -0.025204519 0.04033273 0.033435863 0.013920962
000050 ff b0 8c bc e1 2b 56 3d 43 61 30 3c e7 c6 a1 3d
       -0.017174242 0.05228794 0.0107653765 0.07899266
000060 32 27 be bc 71 8c 86 bc 53 a2 6f bd 1a 1c 6c 3d
       -0.02321205 -0.01642439 -0.058504414 0.057643987
000070 62 8b 30 3d f1 fd 21 3d eb a3 be 3d 9f 10 5d 3d
       0.043101676 0.039548818 0.093086086 0.05397093
000080 2b 2a a5 3c bf b5 37 3d cf 44 be 3d b9 fb 4b 3d
       0.020161709 0.04485106 0.09290468 0.04980061
000090 99 92 a1 3d c1 0f d5 bc 8b a5 4c 3b 91 32 98 3c
       0.078892894 -0.026008489 0.00312266 0.0185788
0000a0 42 3f cc 3b 5e 3b f3 bc 43 b6 e8 3b ca d3 d6 bd
       0.006233127 -0.029691394 0.0071018054 -0.10489614
0000b0 64 70 af bd 1f 71 ac 3d 2b a7 8e 3d 53 8a 27 3c
       -0.08566359 0.08420014 0.069654785 0.01022585
0000c0 94 49 eb 3c f6 a8 82 3c ad 2c f4 3c ea a9 84 3c
       0.028721608 0.015949707 0.02980646 0.016194303
0000d0 86 75 7f bc 63 e7 ba 3d a5 fd bc 3d a3 6c b1 3c
       -0.015591985 0.09126165 0.09228066 0.021658247
0000e0 80 9f 8c 3b ad a9 44 3d ac 80 89 3c 41 5e d2 3d
       0.004291475 0.048013378 0.016784988 0.10271884
0000f0 9d 5a a8 bc 63 04 02 3c 5f b1 ac bd c2 bf 17 bd
       -0.02055102 0.007935616 -0.08432268 -0.03704811

weight f4 [32, 1024]
000000 0b ee 78 3c ac 3b a9 3c af ef 44 be da f7 19 be
       0.015193473 0.020658337 -0.19232057 -0.15035954
000010 08 cc 93 bd 1d f0 30 bb 26 1b 80 bc b6 34 e3 3a
       -0.0721665 -0.0026998587 -0.015637945 0.0017334435
000020 09 16 b1 bd 7b 0c a0 3c 7d 68 08 bc 61 c1 8d 3d
       -0.08646781 0.019537201 -0.008325693 0.0692165
000030 f0 a7 02 3e 93 53 a4 3d 78 72 08 3d 1e df 31 3d
       0.12759376 0.08023753 0.03331229 0.04342567
000040 80 a7 18 3d 44 48 4a bd 64 29 30 3d 0a 9b 83 bd
       0.037269115 -0.049385324 0.043008223 -0.06426056
000050 44 81 62 bc d1 52 b4 bd ec e1 0a be 3e a4 9f bd
       -0.013824765 -0.088048585 -0.13562745 -0.077949986
000060 db cb 85 bd a0 8c 3c bc ac 6c b9 bd c0 33 e8 3d
       -0.06533023 -0.011508137 -0.09053931 0.113379955
000070 2d a5 1a 3e 29 4d 3a ba 7a 75 5b 3c 27 7d 75 be
       0.15102072 -0.00071068347 0.013394708 -0.23973523
000080 aa 59 c8 bc 14 b5 36 bd 02 1d 4f bd 83 53 8e bd
       -0.024456818 -0.044606283 -0.050564773 -0.06949522
000090 9e 7b 2d bd 66 4a 55 bd 1f 2c 63 bc 3f 22 c5 bd
       -0.04235422 -0.052072905 -0.0138655 -0.096256725
0000a0 45 0c d3 39 99 00 36 3d 56 e2 22 3b fe ce a6 3d
       0.00040254198 0.044434164 0.0024854145 0.081449494
0000b0 fc 09 b3 bd 1f 1c 44 bd 8e 54 9d 3d f4 d5 f8 3d
       -0.08742139 -0.04787838 0.07682143 0.12150183
0000c0 5a 6f fd bc 63 f4 49 bd 70 2f d6 bd 73 41 ee bd
       -0.030936886 -0.04930533 -0.10458267 -0.11633577
0000d0 c0 0a e0 3d 7a eb 00 3e f6 cb cc 3d b2 67 d4 3c
       0.109395504 0.12589827 0.0999984 0.025928352
0000e0 ab c4 35 3b ea 23 96 bc 4f 6c f9 3d 6a 09 e1 3d
       0.0027735631 -0.018327672 0.12178861 0.10988124
0000f0 57 c7 a1 bd 79 7b 9d 3c e0 90 f2 3b 4b a9 4a 3d
       -0.07899349 0.019223915 0.0074025244 0.049477857
000100 d5 56 16 3d 29 91 ab bc 9b 96 98 3d 95 0a 8b 3d
       0.036703903 -0.020943241 0.07450601 0.06789128
000110 99 d4 a7 3d e6 6c 25 bc e5 4d 85 bc 85 46 01 3e
       0.08194847 -0.010096764 -0.016272495 0.12624557
000120 0f 64 06 ba 7f d7 b6 bd 35 14 8c bd b8 1c b4 bd
       -0.0005126604 -0.08927821 -0.06839792 -0.0879454
000130 df 01 1c 3d 84 af c8 3d 62 c3 91 3d 84 81 8a bc
       0.038087722 0.09799102 0.071173444 -0.016907461
000140 56 26 b8 bd 1e de b0 bc 94 4b 7c bd 61 f9 24 3d
       -0.08991687 -0.021590289 -0.061595514 0.04027689
000150 e1 be 84 bd 5f 8b 16 3d 30 20 11 be 92 3b ad bc
       -0.0648172 0.03675401 -0.14172435 -0.02114657
000160 db 21 73 b9 03 65 23 bd 4a 3a ef bd 39 28 f9 3d
       -0.00023186898 -0.039891254 -0.1168104 0.12165875
000170 8a 9e 06 3d 8e 04 e3 3d 74 a8 ac 3d d5 fb 38 bd
       0.03286604 0.11084853 0.084305674 -0.04516204
000180 21 48 b1 bd 2c 7e 85 3d df f7 89 bc ee 1e a2 3b
       -0.086563356 0.06518206 -0.016841827 0.0049475348
000190 73 6a f4 bd 40 39 53 bd a3 ad 93 bd 04 0d e4 bd
       -0.11934366 -0.05156827 -0.07210853 -0.11135295
0001a0 6c 92 ff bd 90 88 6a 3d 55 2e 93 3d 1b a0 59 3d
       -0.124791 0.057259142 0.071865715 0.053131204
0001b0 62 98 64 bc 17 1c 54 3b a1 a8 a7 bd cd 58 50 3e
       -0.0139523465 0.0032365376 -0.0818646 0.20346375
0001c0 e8 b4 c3 3d b7 94 c6 3d fb 9d 80 3d e2 cc e8 3d
       0.095559895 0.09696334 0.062801324 0.11367203
0001d0 13 eb 1c 3d 56 54 3d bd df 78 89 3d d7 58 f8 bd
       0.03831012 -0.046223007 0.067125075 -0.1212632
0001e0 6d 7a 5f bd a5 51 29 3e eb 15 28 3c 35 f3 21 bd
       -0.054560114 0.16535051 0.010259132 -0.03953858
0001f0 3b 15 53 be 74 24 69 bd f3 89 f5 bc f7 14 0d bc
       -0.20613568 -0.05691953 -0.029973006 -0.008610955
000200 0a d9 07 be 86 d8 54 bd 6f 19 be bd 1a c8 85 3c
       -0.13266388 -0.051964305 -0.09282195 0.016330767
000210 55 d3 e6 bc 88 0d bf 3d dc e1 3f 3d 5c 7b a9 bd
       -0.028176943 0.09328753 0.046846256 -0.08275482
000220 01 4f 85 bd 41 74 a8 3d 0e 79 91 3d f3 b7 4a 3d
       -0.065092094 0.08225299 0.071031675 0.049491834
000230 0c e2 2c bd af 9e 73 3c 7d a0 e9 bd 29 e2 e7 bc
       -0.042207763 0.014869376 -0.11407564 -0.028306084
000240 8d 19 24 3d 9d 09 7d bd 97 94 0a 3e ec 1e c4 3c
       0.04006343 -0.061776746 0.13533245 0.023940526
000250 be ee 81 bd fe cd 6b 3d 84 3f cb bc 92 72 8b 3d
       -0.063443646 0.057569496 -0.02481056 0.06808962
000260 85 42 c0 bd 15 d2 7a bd 5f ed 92 3d ff 77 d7 3c
       -0.093876876 -0.061235506 0.07174181 0.026302336
000270 d8 e3 83 bc 99 fd 87 bd 24 c0 06 be 1e cf 44 bd
       -0.016099855 -0.06640167 -0.13159233 -0.048049085
000280 9d 4b eb bd 20 98 93 bd ad b8 18 bd 63 e4 09 bd
       -0.114890315 -0.0720675 -0.037285496 -0.033665072
000290 e0 a6 b7 3d 66 f2 b9 3d 14 e0 f6 3d 17 b6 e2 3d
       0.08967376 0.09079437 0.12054458 0.11069887
0002a0 d0 70 ff bc 5e 23 96 bd 66 df 80 bc 00 79 92 3d
       -0.031181723 -0.073309645 -0.015731525 0.07151985
0002b0 03 34 fc 3c 91 4f 68 3d d8 ec 75 3d ea 3b 0b bd
       0.03078652 0.056716505 0.060040325 -0.033992685
0002c0 96 40 40 be bf 85 20 be ad bc b2 bd de 13 d0 bd
       -0.18774638 -0.1567602 -0.08727393 -0.10160039
0002d0 c2 57 41 bd 70 49 60 3c 3c 5e 71 3d 43 22 e9 3c
       -0.047202833 0.013689384 0.05892776 0.02845872
0002e0 f8 82 8d 3b 58 9f c1 3b c2 2a 6a bc 7c 35 b0 3b
       0.004318591 0.005908888 -0.014292421 0.0053774696
0002f0 8d 84 ca 3c 74 77 e1 3d e9 11 ab bc 9f a2 50 3c
       0.024721408 0.11009112 -0.020882564 0.012734084
000300 5a 53 53 3e 69 ab d0 3d 2a 96 a2 bd 22 fd 6d 3d
       0.20637265 0.10188944 -0.07938798 0.058102734
000310 8d 14 bd bd 5e 24 0b 3d 0b 26 98 bd 1c df c4 3c
       -0.092324354 0.03397023 -0.07429131 0.024032168
000320 c9 28 41 bd 55 b3 e9 ba b6 b3 97 3d bf ba 0a 3e
       -0.047158036 -0.0017829934 0.07407324 0.135478
000330 cc 4a 92 3d 9b 0c 35 3d fc 5e b1 3c b6 53 8f bd
       0.071431726 0.044201475 0.021651737 -0.069983885
000340 4c 29 d9 bd 17 36 c6 bc 43 27 39 3b 3a 8a 64 bd
       -0.1060358 -0.024195714 0.0028252162 -0.055795886
000350 2b 13 ce bc e3 a9 90 3d 9a 2d a9 3c b7 56 f9 bd
       -0.025155624 0.07063653 0.020651627 -0.12174743
000360 d6 02 82 3d a3 c7 6b bc 6c 2b 92 bb cf a4 88 3c
       0.06348197 -0.014390859 -0.0044607427 0.01668015
000370 3f 9b e1 3c 8c 2a c9 3d 29 d3 c0 3c db 52 d2 b8
       0.027539847 0.09822568 0.023538189 -0.00010029013
000380 3d 3d 04 3e 74 e7 53 3d e0 76 1e 3d e3 0e 37 3e
       0.12913986 0.051734403 0.038687587 0.17876773
000390 02 7a f8 bc 6f 59 ba 3c 4a 4f a9 bc f3 15 0c be
       -0.030331615 0.022747723 -0.02066769 -0.13680248
0003a0 64 1e 58 bc db 0c 34 3d d9 f0 96 bc d5 21 8b bd
       -0.013190839 0.043957572 -0.018425392 -0.06793562
0003b0 63 a7 19 be ed 0d 3a bd dc c4 b0 bd 60 fa 5f bc
       -0.15005259 -0.045423437 -0.08631298 -0.013670534
0003c0 bb 1e 58 3d 96 bc 9b 3d 92 4b 54 3b 8b fb 6c bd
       0.05276368 0.07604329 0.0032393676 -0.057857078
0003d0 f5 59 ad bd 70 21 24 3c 3f 74 92 bc 68 89 5f 3d
       -0.084644236 0.010017738 -0.017877696 0.0545744
0003e0 cc 24 5c bd 11 70 37 3d 0c 43 5a bd 7c 45 0e 3d
       -0.05374603 0.04478461 -0.053286597 0.034734234
0003f0 de ab 98 3d 29 cb 37 3d c1 ef 2d be 8b 01 06 be
       0.07454656 0.044871483 -0.1698599 -0.13086526

bias f4 [32]
000000 74 ab 23 bd 24 11 52 3d 18 7b 9d 3d cd 2a 43 bd
       -0.039958432 0.051285878 0.07689494 -0.04764824
000010 ed b1 4a 3e 82 32 39 3d 05 9f ce 3d 62 96 3e 3d
       0.19794436 0.045214184 0.10088924 0.046530135
000020 ba df a0 3d d4 d8 90 bd ad c6 77 3d 85 8f 29 3e
       0.078551725 -0.07072607 0.060492206 0.16558655
000030 a1 08 14 bc 35 fe 43 bd 2a 01 ba 3d 00 45 7c bc
       -0.00903526 -0.047849853 0.09082253 -0.01539731
000040 7a 27 b1 bd 54 b1 a4 3d e9 ba ae 3d 56 68 dd bc
       -0.08650108 0.08041635 0.08531744 -0.02702729
000050 24 74 0a 3e f1 a7 90 3d f6 e8 00 bd 53 e4 02 3e
       0.13520867 0.07063282 -0.03147217 0.12782411
000060 53 55 a6 3d 43 08 22 3d 10 3a c5 bc 8f ae 5a bd
       0.08121743 0.03955866 -0.024075538 -0.05338913
000070 c4 78 0a 3d 03 da 52 3d 87 96 9e 3d c3 0b dd bc
       0.033806577 0.051477443 0.077435546 -0.026983147

weight f4 [15, 32]
000000 10 10 b7 3d d0 4e ab 3d 2d 0e 1d 3e 51 2e 92 3d
       0.089386106 0.08364642 0.15337439 0.071377404
000010 58 93 c6 bd e9 ce 4e bd c6 5a 2b be 55 03 ad 3e
       -0.09696072 -0.050490294 -0.16733846 0.33791605
000020 e0 b3 0b bb 7c 38 ae be 7a 03 6c be b9 7c 8b bd
       -0.002131693 -0.3402747 -0.23048201 -0.06810898
000030 7c 71 85 3e dd d7 75 3d d2 b9 9c bd 54 82 c2 bc
       0.26063144 0.060020316 -0.0765263 -0.023743786
000040 e7 79 a8 bc ef 73 e0 bd 93 18 0d be 91 6b 30 3d
       -0.02056594 -0.109596126 -0.13778906 0.043071333
000050 de 4c da bd b4 9d 1e 3e a8 23 7c 3e b4 7d a6 be
       -0.106591925 0.15489846 0.24622977 -0.3251778
000060 d8 45 09 be 01 4c 68 3c 98 de a9 3d b2 e4 86 be
       -0.1340555 0.014178277 0.082944095 -0.26346356
000070 9b cb 85 bc ac 6f 0a 3e 7e e6 68 3e 9c 68 b5 3d
       -0.016332438 0.13519162 0.22744176 0.08857843
000080 30 b0 0b bd 37 cf 11 bd 4c 04 b4 bd c5 ba 36 be
       -0.034103572 -0.035598006 -0.08789882 -0.17844684
000090 c0 fd 8b bd 26 b9 37 be 4d 24 bc bd 91 8c 18 bc
       -0.06835508 -0.17941722 -0.09186611 -0.009310857
0000a0 d4 69 7b bd e0 66 e6 bd 88 dc c8 3d 86 2b 7e bd
       -0.061380222 -0.112500906 0.09807688 -0.062053226
0000b0 59 40 8f bd aa 5f e8 bd 11 d2 50 bd a8 7c 0e 3d
       -0.06994695 -0.113463715 -0.050981585 0.03478685
0000c0 1a 84 a7 3d 37 2c ca 3b 95 31 f0 bd 14 bc 89 3b
       0.08179493 0.0061698216 -0.11728207 0.004203329
0000d0 61 d1 8e bd 36 01 74 bd ef 4b ec 3d 41 86 f8 3a
       -0.069735296 -0.059571467 0.11537921 0.0018960909
0000e0 b6 60 3c 3d 3d d5 3f bd 5b e2 8c 3d ef 51 38 bd
       0.04599067 -0.04683422 0.068791114 -0.045000013
0000f0 7a dc ab bb e0 18 86 3d b3 8b 2f bd c3 07 6f bd
       -0.0052447887 0.06547713 -0.042857837 -0.05835701
000100 f7 2f cd bc c9 c9 73 be 86 56 f9 3c 81 7d 73 3e
       -0.025047285 -0.23807444 0.030436765 0.23778345
000110 78 11 69 3d 51 e0 8b be cb 70 e6 bd 46 f8 94 3e
       0.056901425 -0.27319577 -0.11251982 0.29095668
000120 cb 8e 7c be 07 cf 45 3e 12 19 3e bd 46 cf fe bb
       -0.24663846 0.19317256 -0.046410628 -0.0077761738
000130 c5 49 e6 bd d8 d8 b8 bd bc 39 fb 3d d1 b3 97 3d
       -0.11244539 -0.09025735 0.12266871 0.07407344
000140 4f f4 08 3e 8b e2 42 3e 97 5e be 3d f1 b7 40 3e
       0.13374446 0.19031732 0.09295385 0.18820168
000150 d6 b5 80 3d 6e 91 3b be 0e df 96 bd e3 53 ea 3d
       0.062846825 -0.18317196 -0.07366763 0.11441781
000160 1a e0 2d be ca aa 0d 3d c5 a4 f5 bd 2d 05 75 3e
       -0.16980019 0.034586705 -0.11994318 0.23927756
000170 81 e3 0f be d6 b0 94 be 5e 76 84 be 8f cd 73 3e
       -0.1405163 -0.29041165 -0.25871557 0.23808883
000180 7a f3 b0 3e 69 97 10 3e 43 72 89 be b5 a8 0d bd
       0.34560758 0.14120258 -0.26844987 -0.03458472
000190 91 1d fc bd b6 c4 98 3b a2 bb 12 be 56 61 00 be
       -0.12310327 0.0046621216 -0.14329389 -0.1253713
0001a0 8e a9 86 3d b1 2f 1d be 28 56 75 bd 69 a9 21 3c
       0.06575309 -0.15350224 -0.059896618 0.009867051
0001b0 e7 11 68 3e 23 ee a0 3e 69 4c 19 be 82 67 d5 bd
       0.22663079 0.31431684 -0.14970554 -0.10420133
0001c0 09 de 52 3e 84 4f 46 3d 06 ec ec 3c e5 a7 50 be
       0.20592512 0.048415676 0.028921138 -0.20376547
0001d0 4d aa 77 bd 97 f2 f8 bc 59 a7 75 3e de 53 87 be
       -0.060465146 -0.030389113 0.2398962 -0.26431173
0001e0 d4 4f a1 bd 3f 4a 43 3c 17 1c 41 bd e9 42 fd bc
       -0.07876554 0.011919557 -0.04714593 -0.030915694
0001f0 9c 71 44 3c 83 77 f2 3d 5e d7 37 3e f6 49 1f be
       0.011989977 0.11839201 0.1795325 -0.15555558
000200 8d df 82 3d c9 09 2d bd 84 f3 a0 3d c9 63 e1 bb
       0.06390295 -0.04224566 0.07858947 -0.0068783504
000210 a3 99 6f 3c 5d 27 8c 3d cc 39 1e bd b5 9b 0b be
       0.014624032 0.068434455 -0.03862934 -0.13633616
000220 04 50 da bc 26 32 df 39 8b 8e 46 3d e8 e6 a7 bd
       -0.026649483 0.00042571238 0.048475783 -0.08198339
000230 1f 95 04 be c0 a5 18 be 2c 8d 72 bd 29 dd 8a bd
       -0.1294751 -0.14906979 -0.059216663 -0.06780464
000240 62 89 99 bd 68 f4 bc bd 4c 1b 43 be e4 be a1 3d
       -0.07496907 -0.09226304 -0.19053382 0.078977376
000250 c1 cf 97 bc 9c 90 9f bd 72 73 eb 3d a4 57 5b bd
       -0.018531682 -0.07791254 0.11496629 -0.053550377
000260 8d c9 21 bc a4 2f f2 bd 88 3a 86 3d a0 1e 1f 3e
       -0.009874714 -0.11825493 0.06554133 0.15539026
000270 55 05 3e be 5c 52 c4 bc 7d 5e 04 be 40 fa fa 3d
       -0.18556722 -0.023965053 -0.1292667 0.12254763
000280 1e 46 29 be 35 10 fd bd e2 37 36 3c 90 fe 13 3e
       -0.16530654 -0.12356607 0.011121722 0.14452577
000290 26 42 0d 3d d8 eb 8f bd 81 75 05 be 22 d7 d2 ba
       0.034486912 -0.070274055 -0.13033105 -0.0016085843
0002a0 32 aa 50 3c 1c 38 26 3d 1c 07 6b be f5 77 3a 3d
       0.01273589 0.040580854 -0.22951931 0.045524556
0002b0 c4 f4 19 be a9 a9 a0 3d ad 66 39 3d 1d b2 1e be
       -0.15034777 0.0784486 0.045263935 -0.15497632
0002c0 41 ac 14 be 9b 11 f0 bc a5 cb 25 be 63 28 e1 bd
       -0.14518835 -0.02930527 -0.16190965 -0.10994031
0002d0 0b 20 6a 3c 73 f8 aa bd 9a ab 3b be 68 da 77 3d
       0.014289866 -0.08348169 -0.1832718 0.060511023
0002e0 58 a8 5b 3c ae 07 b7 bd 82 92 03 3e dc 17 d0 3c
       0.0134068355 -0.08937012 0.12848857 0.025402002
0002f0 9e 46 73 be ce 88 4c be d8 3c 37 be 34 b3 be bd
       -0.23757407 -0.19974062 -0.17894304 -0.09311524
000300 7f cd e3 3d 3b fb ea 3c bc 38 f4 3d fc 60 18 3c
       0.1112318 0.02868425 0.11924884 0.009300467
000310 6d 16 97 bd 1e 34 c2 bd 3a 9a 3b bd 86 80 a0 bd
       -0.07377324 -0.09482597 -0.04580138 -0.07837014
000320 86 31 4c be ca 30 bc bd 6b 69 f3 bd 36 8f fd bc
       -0.19940767 -0.09188993 -0.11885341 -0.030952077
000330 f4 d3 6b 3d 94 a0 e5 3d e5 77 68 be d9 ee da bd
       0.05757518 0.112122685 -0.22701986 -0.10690088
000340 61 82 c9 3d fa fa f3 bd 0e 37 7e 3d 0f bb c8 3b
       0.09839321 -0.11913104 0.062064223 0.0061258147
000350 a9 79 09 be fd 07 cc bc 35 e8 36 3e d3 6d 2c be
       -0.13425316 -0.024906153 0.17862017 -0.1683877
000360 02 1d 18 be 3f 9b 9a bd 9d 9a 9a 3d d2 f3 82 bd
       -0.14854816 -0.07549142 0.075490214 -0.06394161
000370 17 87 8f 3d 68 91 d6 3d 69 a0 1a 3d fc b9 e7 3b
       0.07008188 0.10476953 0.037750635 0.0070717316
000380 2a 80 73 3e 1d 47 5d bc 3f 8a 8f bd a8 79 04 be
       0.2377936 -0.013505724 -0.0700879 -0.12937033
000390 f7 ec 6a bb 19 c5 a6 bd 4f 92 9e b9 bf ef 11 be
       -0.0035846808 -0.08143062 -0.00030245117 -0.14251612
0003a0 8d 4e 13 3d 09 48 f5 3d 09 a2 3f bc 08 17 6b bd
       0.035963584 0.1197663 -0.011696347 -0.05739501
0003b0 e5 75 d8 bd 4a 33 c9 3d c2 2d ab bd d2 70 65 bd
       -0.105693616 0.09824236 -0.08358337 -0.056015797
0003c0 ef b5 25 3e 98 c9 a6 3c 67 9c 4a bc c4 b9 50 be
       0.16182683 0.0203598 -0.012366391 -0.20383364
0003d0 60 dc 21 bd 36 73 72 be e0 ab 12 3d 10 11 8d bd
       -0.039516807 -0.23676762 0.035808444 -0.0688802
0003e0 be 3d f3 bd 26 48 d7 bd dc f1 85 3d a3 e7 14 3e
       -0.11877011 -0.10511808 0.06540272 0.14541487
0003f0 5d 4c 19 be 74 dc 24 be 7f f0 93 3d 16 e6 1f 3d
       -0.14970537 -0.16099721 0.07223605 0.039037786

bias f4 [15]
000000 13 1f a7 3c 2d ae 83 bc 1f f6 7a 3c 8c 55 42 bd
       0.02040056 -0.016074264 0.015317469 -0.047444865
000010 ff 5e 29 3d 76 23 98 3a 66 ea 02 bd ab 58 3a 3c
       0.04135036 0.0011607248 -0.03196182 0.011373679
000020 ed 87 19 3d ed 93 00 3c 7a c4 12 bc 2b e7 2f 3d
       0.037483145 0.007847768 -0.0089579765 0.04294507
000030 9b 45 6d bb 26 a0 8f 3c 31 d2 0f 3d
       -0.0036204818 0.01753242 0.035112564

weight f4 [1, 32]
000000 35 6c a9 bc 9e 82 5d 3c 08 dc be 3c 32 f0 1d bd
       -0.02068148 0.013519911 0.023298278 -0.038559146
000010 e1 87 0d 3e d8 0c 8e 3d 25 97 d7 3c 41 14 07 3c
       0.13821365 0.069360435 0.026317189 0.008244575
000020 34 18 ad 3d 86 f6 e8 bc 7b 42 0f 3e 60 81 a1 3d
       0.08451882 -0.028437864 0.13990204 0.078860044
000030 37 04 ba bb e5 c0 9c bc 88 47 29 3c 10 6c ca bb
       -0.005676772 -0.019134948 0.010331996 -0.006177433
000040 74 fb 6a bd fd 68 c8 3c 03 18 e2 3d 18 af b3 bc
       -0.05736871 0.024464125 0.11039736 -0.021934077
000050 9e 8d 19 3d 80 81 ab 3c 91 4b 72 3b 6b 21 6c 3d
       0.037488572 0.020935774 0.003697131 0.057649057
000060 57 50 97 3d e9 92 9c bb 66 c0 ed b9 da bd a5 ba
       0.073883705 -0.0047782552 -0.0004534751 -0.0012645081
000070 48 bc 2f 3e fe 1e 51 3d 0b 16 0e 3d 00 00 4a bc
       0.17161667 0.051054947 0.03468899 -0.012329102
