results_final/generalization/20levels-policy.pt (torch, 443935 bytes, 11 tensors)

weight f4 [32, 3, 8, 8]
-0.2376772 0.055940747 0.048738237 -0.12723374 -0.028800314 0.0011787293 0.062990695 0.036890507
-0.15853362 -0.1816915 -0.21278302 -0.27314457 -0.042842798 0.1258148 -0.029411837 0.15840621
-0.016616087 0.004495351 0.19868954 -0.050278988 -0.018339477 -0.0011502914 -0.3055824 -0.06381212
0.12958276 0.1408808 0.10117832 -0.07989731 0.12645538 -0.070071556 -0.10971213 -0.06845593
-0.103156835 -0.12977627 0.019546831 0.12187332 0.18317787 0.05948792 0.29040262 0.14421125
0.040321656 -0.13204648 -0.014100193 0.07915192 0.032318704 0.06422046 -0.074742176 0.09210582
0.26587704 0.028244093 -0.11111121 0.11021936 0.1569309 -0.18188635 -0.110903285 0.097552836
-0.30572045 -0.09697222 0.12822586 -0.014410059 0.2595405 0.13637966 -0.10528756 0.09325412
-0.15845904 0.11920525 -0.101512656 0.043661747 -0.12261771 0.30431947 -0.12223261 0.06947453
-0.24738014 -0.16303419 -0.16594332 0.06320403 0.03143947 0.09503827 0.09509415 0.181232
0.11878055 0.07227268 0.13306302 0.14396134 0.075714484 0.067523256 -0.24524906 0.02993552
0.16330872 0.020029146 0.25093865 -0.04801759 0.1283664 -0.084033415 -0.05370293 -0.11382878
-0.069223516 -0.08537428 -0.06047928 -0.16323398 -0.00096740655 -0.002444158 0.13892092 -0.054337613
0.053979542 -0.06538542 -0.2356022 0.12886015 0.07492562 -0.11916119 -0.22166128 0.104514696
0.19202779 0.0033480318 -0.042419367 0.10082561 0.33255154 -0.0013550185 0.036720466 -0.018047132
-0.09854267 0.08467697 -0.08324876 -0.08696401 -0.021553485 -0.07091474 0.20758566 0.13465214
-0.16972987 0.18112858 -0.17376049 -0.27391315 -0.072052844 0.12820554 -0.032614578 -0.18620709
-0.05395372 0.021591896 0.049409077 0.04402882 0.08192171 -0.24292578 -0.24559985 0.14021555
0.075710066 0.13544153 -0.110070154 0.099475406 0.29286107 0.018567469 -0.27761707 -0.098698765
-0.00799156 -0.057494264 -0.05416385 0.016474422 0.23125789 -0.033286154 -0.1328399 0.1532644
-0.012529728 0.044146962 -0.08374746 -0.32004967 -0.14228706 -0.16313517 0.08162882 0.13577875
-0.017195348 0.06066682 -0.23950806 -0.21912327 -0.16756834 -0.27832812 -0.13222815 0.022408519
-0.10557742 -0.01623538 -0.3787318 -0.20667274 -0.29240823 -0.0869464 -0.26143885 -0.037361264
0.016602008 0.04799551 -0.07689789 -0.25468692 0.0030533278 -0.23075661 -0.07691338 -0.10278674
-0.026420837 -0.0230594 -0.047859337 0.0019931411 0.01644756 -0.066351146 -0.05890469 -0.13776386
-0.20233543 -0.090602554 -0.05715334 -0.052538503 -0.09701329 -0.005018766 0.06637296 0.08094559
-0.08289512 0.054855723 -0.15703438 0.13697805 -0.16860752 0.019690923 0.07384018 -0.022692941
-0.12107143 -0.14515649 -0.19345608 -0.10084517 0.09278045 -0.12747802 -0.11314163 -0.17071362
0.032204576 -0.010529305 0.160076 -0.16400115 0.013499158 0.120418906 -0.0049552186 0.089077204
0.08423031 -0.10593545 -0.045343988 -0.019224469 0.021298787 -0.057751223 -0.03428442 0.027282258
-0.07648295 0.007503729 -0.08464742 0.029653361 -0.24030422 -0.22388004 -0.048706044 -0.023829116
0.17957352 -0.026333818 -0.23152204 -0.17105503 -0.10712417 -0.09854921 -0.27509642 -0.3605385
00000000: a761 73be 2022 653d bfa1 473d 9049 02be
00000010: a3ee ebbc 987f 9a3a 4401 813d 801a 173d
00000020: a356 22be 560d 3abe cbe3 59be 9bd9 8bbe
00000030: ee7b 2fbd 98d5 003e 18f1 f0bc 3d35 223e
00000040: 761e 88bc bd4d 933b 4575 4b3e 57f1 4dbd
00000050: ac3c 96bc 60c5 96ba 4c75 9cbe eeaf 82bd
00000060: 58b1 043e 0e43 103e 9436 cf3d 33a1 a3bd
00000070: 857d 013e ad81 8fbd c1b0 e0bd 9f32 8cbd
00000080: e443 d3bd 12e4 04be ad20 a03c b898 f93d
00000090: fb92 3b3e 9ba9 733d a7af 943e 1dac 133e
000000a0: 5228 253d 3137 07be 7f04 67bc 671a a23d
000000b0: 9e60 043d 0486 833d 6d12 99bd faa1 bc3d
000000c0: 0921 883e 2860 e73c 468e e3bd b0ba e13d
000000d0: 7eb2 203e 6a40 3abe 4321 e3bd c8c9 c73d
000000e0: 6487 9cbe 5f99 c6bd a44d 033e 2b18 6cbc
000000f0: 7ee2 843e 1ca7 0b3e 01a1 d7bd 04fc be3d
00000100: 1643 22be e221 f43d dee5 cfbd a9d6 323d
00000110: fe1e fbbd c3cf 9b3e 1755 fabd aa48 8e3d
00000120: 3851 7dbe 6ff2 26be 0ced 29be 1d71 813d
00000130: acc6 003d 6da3 c23d b9c0 c23d e294 393e
00000140: 3843 f33d b303 943d ac41 083e 9a6a 133e
00000150: 3210 9b3d a249 8a3d 9222 7bbe 563b f53c
00000160: 673a 273e 2a14 a43c 087b 803e 18ae 44bd
00000170: 7b72 033e b619 acbd 9bf7 5bbd 101f e9bd
00000180: 0fc5 8dbd b6d8 aebd 1fb9 77bd cf26 27be
00000190: 8e99 7dba 2b2e 20bb 4941 0e3e 1e91 5ebd
000001a0: a719 5d3d cbe8 85bd b441 71be eaf3 033e
000001b0: 9a72 993d c80a f4bd 2dfb 62be cd0b d63d
000001c0: efa2 443e a76a 5b3b eebf 2dbd a87d ce3d
000001d0: 3244 aa3e e09a b1ba 3368 163d 94d7 93bc
000001e0: bdd0 c9bd 1f6b ad3d 537e aabd 301a b2bd
000001f0: ef90 b0bc bf3b 91bd 5691 543e 40e2 093e
00000200: abcd 2dbe c579 393e 45ee 31be 583e 8cbe
00000210: 7190 93bd 5048 033e dd96 05bd 12ad 3ebe
00000220: 93fe 5cbd 7de1 b03c 2c61 4a3d 9057 343d
00000230: 92c6 a73d 89c1 78be 877e 7bbe aa94 0f3e
00000240: e10d 9b3d 2fb1 0a3e 766c e1bd c3b9 cb3d
00000250: e3f1 953e ce1a 983c d323 8ebe 9422 cabd
00000260: 08ef 02bc 1b7f 6bbd eada 5dbd 5ef5 863c
00000270: dece 6c3e 1057 08bd 2f07 08be 58f1 1c3e
00000280: 7d49 4dbc 72d3 343d ca83 abbd 8ddd a3be
00000290: b3b3 11be e80c 27be 032d a73d 9609 0b3e
000002a0: 42dd 8cbc c57d 783d 9a41 75be da61 60be
000002b0: 0997 2bbe 0681 8ebe d166 07be 1292 b73c
000002c0: f938 d8bd 0f00 85bc 22e9 c1be 05a2 53be
000002d0: 88b6 95be f410 b2bd 50db 85be 2008 19bd
000002e0: ef00 883c f196 443d a47c 9dbd 5366 82be
000002f0: 571a 483b 764b 6cbe c384 9dbd db81 d2bd
00000300: 8370 d8bc 11e7 bcbc 2708 44bd 5c9f 023b
00000310: 09bd 863c 1ce3 87bd 0b46 71bd f811 0dbe
00000320: 0531 4fbe d58d b9bd 9f19 6abd 9d32 57bd
00000330: e7ae c6bd 7674 a4bb 8cee 873d cdc6 a53d
00000340: ebc4 a9bd 65b0 603d 9fcd 20be f943 0c3e
00000350: 73a7 2cbe dc4e a13c 8539 973d 8ce6 b9bc
00000360: 4cf4 f7bd e7a3 14be 5a19 46be ea87 cebd
00000370: ad03 be3d 9989 02be cdb6 e7bd 8dcf 2ebe
00000380: f2e8 033d 1b83 2cbc f7ea 233e ebef 27be
00000390: 932b 5d3c 309e f63d 635f a2bb 1c6e b63d
000003a0: f180 ac3d aff4 d8bd 9eba 39bd a27c 9dbc
000003b0: cb7a ae3c 8c8c 6cbd d26d 0cbd 0b7f df3c
000003c0: 18a3 9cbd d7e1 f53b a05b adbd 9beb f23c
000003d0: 4f12 76be cf40 65be fd7f 47bd 4735 c3bc
000003e0: 1fe2 373e 05ba d7bc 1d14 6dbe 0d29 2fbe
000003f0: eb63 dbbd 2bd4 c9bd 70d9 8cbe 8198 b8be

bias f4 [32]
0.008032644 0.026043229 -0.0010179508 -0.0006116615 -0.041829214 -0.029799374 -0.0142862685 -0.0118893795
-0.011472841 -0.0035883025 -0.00835421 0.0009830599 -0.00040148408 -0.0033021932 -0.0005815924 -0.0021946603
-0.00052879454 0.0072756917 -0.003920991 0.03316843 -0.0010420412 -0.0022881436 0.007991346 0.030933073
-0.003665096 0.011981755 -0.0033968145 -0.0048311204 -0.0090183 -0.019377302 -0.0003904319 -0.026719004
00000000: 5a9b 033c 9c58 d53c c36c 85ba e957 20ba
00000010: 1c55 2bbd d11d f4bc f410 6abc accb 42bc
00000020: 95f8 3bbc ba29 6bbb 19e0 08bc 04da 803a
00000030: 487e d2b9 9c69 58bb 0176 18ba 4ad4 0fbb
00000040: cd9e 0aba ed68 ee3b a87b 80bb 9fdb 073d
00000050: 1a95 88ba aef4 15bb 22ee 023c 5b67 fd3c
00000060: 1b32 70bb 1f4f 443c 179d 5ebb 604e 9ebb
00000070: 7ec1 13bc 26bd 9ebc e2b2 ccb9 d0e1 dabc

weight f4 [64, 32, 4, 4]
0.03742825 0.0014281443 0.15852942 -0.03163946 0.011454667 0.073979594 0.028827202 -0.077324554
-0.07840909 -0.012132975 -0.054394573 -0.038577687 -0.070029326 0.055094574 -0.06984404 -0.013557327
0.076533064 -0.14492463 0.055479098 0.04927605 0.032047134 0.115832046 0.042449262 -0.10230568
-0.007384456 -0.04275195 -0.1815298 -0.08950856 -0.08247625 -0.031181077 0.075559504 0.050494403
0.10723204 0.0903446 0.012050648 0.09096135 -0.10470404 -0.01064044 0.120854184 0.026706181
-0.009867341 -0.10338601 0.016385596 -0.0039315363 -0.080096655 -0.086466074 0.2976768 0.021993956
-0.0061796657 0.18320705 0.13729905 0.009868607 0.006540015 -0.14059168 0.06472208 0.085576564
-0.09133327 -0.08868472 -0.05166592 -0.10763966 -0.04552179 -0.18652143 -0.046397272 -0.14239809
-0.22214001 -0.09713749 0.041773614 0.046912607 -0.110933416 -0.13400741 0.05348298 -0.02344687
-0.07804846 -0.20056455 -0.06430451 -0.19390681 -0.03532386 -0.042868003 0.036608357 0.061666757
-0.13419253 -0.01303203 0.047281273 -0.0695736 0.023911355 0.02039163 0.011853289 -0.08354665
0.1342009 -0.26673704 -0.047232606 -0.21248716 -0.075520955 -0.067418404 -0.104173854 -0.056180056
-0.013705786 0.08872317 0.06590224 0.05713533 0.09512604 0.049970306 -0.049492788 0.073791474
-0.11891482 0.07210385 -0.16414265 -0.09105587 0.019301606 -0.057250246 -0.13737527 -0.15751028
0.02738521 -0.18298152 0.005958451 0.09100902 0.036343466 0.036379617 0.0877183 -0.050336473
0.017510999 0.13497943 -0.030918198 -0.21491104 -0.07653226 0.020512817 -0.20811462 0.029628137
-0.04470173 -0.018485451 0.048098385 -0.093478866 0.11166025 0.03734908 -0.07372789 -0.019994413
-0.14361459 -0.19534719 -0.185629 -0.24068668 -0.08881167 -0.06369052 -0.01964298 -0.080152676
0.19428425 0.014311618 0.18412516 0.0063753636 -0.015492608 -0.039162636 0.022961989 -0.052972864
0.015694795 0.07979577 -0.057538882 0.0032897003 -0.16670342 0.0059893536 0.062413827 0.0229014
0.024920924 0.010815818 0.024616448 0.15625274 0.03356994 0.08243277 0.1052285 -0.049692746
-0.0049923477 -0.19069722 -0.067424566 -0.0036996957 0.08806009 0.16926643 0.13778299 0.26125792
0.12830378 -0.010455509 -0.0030019681 0.07486096 0.12049694 0.011436498 -0.03278286 0.08869048
0.15391606 -0.0099921785 -0.13844866 0.0057667093 0.06633743 0.09354944 -0.010512883 0.18114686
-0.039982807 -0.015549331 0.091831386 0.05193134 -0.023304813 -0.04148395 -0.020853387 0.10281948
-0.13915278 -0.03504594 0.05983711 -0.12211781 -0.04508031 0.06125181 0.07699002 0.11995151
-0.011478259 0.038428098 -0.03726354 -0.03175358 0.01957059 0.040770892 0.14129421 0.06403462
-0.033811353 -0.10739204 -0.15453656 -0.040509343 0.116655484 0.057407722 0.023498198 0.16539955
0.13842702 0.038256332 0.03292683 0.16246478 0.09398388 0.1452576 -0.048507486 -0.08102155
-0.20627761 -0.004328072 -0.051583447 -0.028993068 -0.106928244 0.095538035 0.13282594 -0.036348127
0.1233226 0.1456685 0.070571184 0.059694987 -0.033649 -0.087989844 -0.053077552 0.12420011
0.017631175 -0.0812545 -0.022961771 -0.18927638 -0.09106887 0.076748334 -0.22679223 -0.081442714
00000000: 5d4e 193d 9230 bb3a 8955 223e 6198 01bd
00000010: 5bac 3b3c 9d82 973d 0627 ec3c 565c 9ebd
00000020: f294 a0bd 63c9 46bc d8cc 5ebd a303 1ebd
00000030: 896b 8fbd d9aa 613d 640a 8fbd 8d1f 5ebc
00000040: 5ebd 9c3d 1f67 14be 0d3e 633d afd5 493d
00000050: db43 033d 5a39 ed3d 47df 2d3d a485 d1bd
00000060: 4ff9 f1bb ab1c 2fbd f3e2 39be 4450 b7bd
00000070: 4fe9 a8bd 756f ffbc f1be 9a3d 38d3 4e3d
00000080: 799c db3d 9706 b93d 1570 453c f249 ba3d
00000090: 126f d6bd 3d55 2ebc 6682 f73d ecc6 da3c
000000a0: a1aa 21bc 0bbc d3bd 163b 863c 1ed4 80bb
000000b0: b709 a4bd 2015 b1bd 1869 983e ab2c b43c
000000c0: cb7e cabb a19a 3b3e 1f98 0c3e f0af 213c
000000d0: 9f4d d63b 44f7 0fbe 038d 843d c442 af3d
000000e0: f00c bbbd 56a0 b5bd a59f 53bd 2f72 dcbd
000000f0: 0e75 3abd 79ff 3ebe 110b 3ebd ced0 11be
00000100: ac78 63be 05f0 c6bd cf1a 2b3d 6f27 403d
00000110: 0f31 e3bd 3d39 09be f810 5b3d a613 c0bc
00000120: dfd7 9fbd cb60 4dbe 15b2 83bd 828f 46be
00000130: c0af 10bd 5c96 2fbd a5f2 153d 4896 7c3d
00000140: c469 09be 4c84 55bc 02aa 413d 9b7c 8ebd
00000150: bfe1 c33c 590c a73c 4c34 423c 821a abbd
00000160: f66b 093e c291 88be fa76 41bd 3c96 59be
00000170: bbaa 9abd a912 8abd 1a59 d5bd 0f1d 66bd
00000180: 3c8e 60bc 7eb4 b53d c1f7 863d bc06 6a3d
00000190: 71d1 c23d aaad 4c3d f3b8 4abd fc1f 973d
000001a0: 9d89 f3bd 2fab 933d 0315 28be 807b babd
000001b0: 671e 9e3c 3c7f 6abd 1aac 0cbe 604a 21be
000001c0: f356 e03c 825f 3bbe 1c3f c33b f062 ba3d
000001d0: e3dc 143d cb02 153d a7a5 b33d 9e2d 4ebd
000001e0: 3a73 8f3c 0c38 0a3e 2948 fdbc a411 5cbe
000001f0: f2bc 9cbd 7f0a a83c 001c 55be b5b6 f23c
00000200: 2919 37bd cd6e 97bc d002 453d d971 bfbd
00000210: 21ae e43d 59fb 183d a6fe 96bd 53cb a3bc
00000220: b40f 13be 1809 48be 8715 3ebe 9276 76be
00000230: e5e2 b5bd 2d70 82bd 51ea a0bc 1627 a4bd
00000240: 73f2 463e 477b 6a3c 4e8b 3c3e 6de8 d03b
00000250: b5d4 7dbc 0069 20bd c81a bc3c 13fa 58bd
00000260: 5f92 803c f76b a33d e4ad 6bbd 0398 573b
00000270: 4db4 2abe 5742 c43b a4a5 7f3d b89b bb3c
00000280: f726 cc3c d434 313c 6fa8 c93c b800 203e
00000290: a280 093d 83d2 a83d 0a82 d73d 9f8a 4bbd
000002a0: d996 a3bb 2246 43be e415 8abd 9876 72bb
000002b0: d958 b43d 2e54 2d3e fc16 0d3e 99c3 853e
000002c0: 1162 033e 954d 2bbc abbc 44bb b450 993d
000002d0: 1ac7 f63d 2660 3b3c 5247 06bd 5ba3 b53d
000002e0: 2c9c 1d3e 3cb6 23bc 7cc5 0dbe aaf6 bc3b
000002f0: ebdb 873d d996 bf3d 3a3e 2cbc 907e 393e
00000300: 03c5 23bd 9fc2 7ebc 1812 bc3d f5b5 543d
00000310: bce9 bebc 13eb 29bd b9d4 aabc 0593 d23d
00000320: 117e 0ebe 558c 0fbd c217 753d e718 fabd
00000330: 22a6 38bd 2ee3 7a3d f2ac 9d3d 23a9 f53d
00000340: 4f0f 3cbc c866 1d3d a7a1 18bd 0b10 02bd
00000350: 8152 a03c 61ff 263d 6eaf 103e 9524 833d
00000360: c67d 0abd 5cf0 dbbd d53e 1ebe 20ed 25bd
00000370: 12e9 ee3d 5c24 6b3d 4b7f c03c 805e 293e
00000380: d0bf 0d3e acb2 1c3d 49de 063d 2b5d 263e
00000390: 9f7a c03d 69be 143e c9af 46bd a0ee a5bd
000003a0: 703a 53be 80d2 8dbb 2a49 53bd df82 edbc
000003b0: 32fd dabd 72a9 c33d 8603 083e c6e1 14bd
000003c0: 8f90 fc3d 202a 153e a087 903d bb82 743d
000003d0: 89d3 09bd 0534 b4bd d967 59bd a15c fe3d
000003e0: 416f 903c c268 a6bd 531a bcbc abd1 41be
000003f0: 5182 babd 3b2e 9d3d 393c 68be 70cb a6bd

bias f4 [64]
-0.03071014 0.043430053 -0.024238903 0.04179371 0.0007603555 -0.008571662 0.009204417 -0.024470966
-0.019666374 0.010394793 -0.00044767166 -0.04912946 0.083640024 0.029000923 -0.092267096 -0.09426995
-0.08048988 -0.0015604959 0.08501328 -0.012857925 -0.0066635064 -0.055660564 0.092908055 -0.027630048
-0.04732733 0.029595695 0.025048515 0.060157064 0.09179025 -0.013420204 0.0030482872 0.047891516
-0.10649793 -0.031163525 -0.05071749 0.018713186 -0.1069696 -0.03247098 0.021493934 0.067714736
0.018298142 0.020313587 -0.029362077 0.0130198635 -0.062685475 0.037405595 -0.015711114 0.09893754
0.0019572263 0.017298376 -0.021805039 0.058586176 -0.00750755 0.010719626 -0.0067478935 -0.024292704
0.007903768 0.037316244 0.008426488 0.005750514 -0.002633291 -0.053408552 -0.030279156 -0.04955311
00000000: d593 fbbc b6e3 313d aa90 c6bc e22f 2b3d
00000010: 9852 473a 2870 0cbc 1fce 163c 5677 c8bc
00000020: 601b a1bc ec4e 2a3c 79b5 eab9 f93b 49bd
00000030: 764b ab3d 5893 ed3c 88f6 bcbd 9b10 c1bd
00000040: e1d7 a4bd 8e89 ccba 711b ae3d 0caa 52bc
00000050: 8b59 dabb 55fc 63bd 9446 be3d 6958 e2bc
00000060: 4dda 41bd ac72 f23c 8b32 cd3c 4167 763d
00000070: 87fc bb3d 6ae0 5bbc c6c5 473b e529 443d
00000080: 961b dabd a64a ffbc 25bd 4fbd 654c 993c
00000090: e112 dbbd 4a00 05bd 0c14 b03c 06ae 8a3d
000000a0: fce5 953c ae68 a63c bd88 f0bc 4451 553c
000000b0: 3e61 80bd 9c36 193d 98b4 80bc c49f ca3d
000000c0: cf44 003b 53b5 8d3c 7ba0 b2bc 0ff8 6f3d
000000d0: e501 f6bb 5fa1 2f3c 6f1d ddbb 7e01 c7bc
000000e0: ce7e 013c ebd8 183d 410f 0a3c cf6e bc3b
000000f0: 4b93 2cbb edc2 5abd fe0b f8bc 34f8 4abd

weight f4 [64, 64, 3, 3]
-0.060193274 -0.009543488 -0.047336496 0.12097594 0.183074 0.057216633 0.043331113 0.01794325
-0.03728129 0.02513492 -0.1178532 0.080858886 0.022677518 0.006383041 -0.03423938 -0.08288443
0.010604092 0.09318278 0.061232544 -0.07281814 -0.0016591148 -0.06748537 -0.14101313 -0.04515569
0.062244307 0.047720775 0.12239814 0.03219367 0.038762286 0.0771717 -0.02726182 -0.00074915914
-0.050679695 -0.14903331 -0.07760389 -0.15120055 0.11105734 0.025669707 0.028210107 0.034753107
0.09568214 -0.13639714 -0.076407135 0.012023205 -0.060370345 0.00075799396 0.15271854 -0.042226657
-0.0059689363 -0.12986393 -0.039099846 0.0003222064 -0.048094627 -0.29923633 0.09128158 0.004444988
0.08241775 0.14006832 -0.060956556 -0.026497941 0.06592624 0.07824909 0.002819379 -0.03027146
-0.06875418 -0.023461869 0.025188873 -0.08373033 0.075299956 -0.21542002 0.01200867 -0.101091266
-0.18214068 -0.1312249 -0.016174484 -0.070162706 -0.08663454 -0.06947438 0.07462116 -0.016537013
-0.11781835 0.048124976 -0.0446178 -0.022344887 -0.039166484 -0.013174529 0.02827101 -0.07869845
-0.076121025 -0.18112859 0.04770141 -0.056751072 0.006210931 0.07593985 -0.012904834 0.12508129
0.03486981 -0.009584836 -0.12467842 -0.060779233 -0.08630441 -0.0219599 0.08248131 -0.03974673
0.016041407 0.010003848 -0.07236173 0.028856363 0.14253913 -0.121894464 0.08395548 0.14150454
-0.021163598 0.04234145 0.0016573442 -0.022124339 -0.1327762 -0.07545602 -0.03126574 -0.043559622
0.17065799 0.088080816 0.066953376 0.08394796 0.07287711 0.12766163 -0.12976845 -0.20715797
0.014547906 -0.00019607013 -0.019603377 0.1675595 0.058556963 -0.038767856 0.008842859 -0.097449265
-0.05206121 -0.027813243 -0.11053982 -0.057999518 0.06442928 -0.04707319 -0.11810894 -0.07249402
-0.053258058 -0.0079829935 -0.029193081 -0.1305499 0.083911814 -0.056060974 0.0557759 0.031442758
-0.1032898 -0.06476984 0.028478151 2.3894652e-05 0.083342746 -0.021817354 -0.04513204 -0.11787642
0.0033087137 -0.036087383 0.05808598 -0.09364753 -0.10626428 -0.08876651 -0.17935722 -0.0038872396
0.075912625 0.0009900572 -0.036269806 -0.12181592 -0.18341513 -0.01302737 0.05131171 0.03807962
-0.06496378 0.061399255 -0.0472711 0.0046912716 -0.11469963 0.092341706 0.11036861 -0.1279425
0.0804225 0.054946713 -0.075657204 -0.019473165 -0.19757777 0.04186153 0.07035008 0.1858542
0.018427989 0.02293252 0.17401592 -0.036547672 0.012539782 0.0064811064 -0.10358457 -0.012847952
-0.038046468 -0.048143987 -0.019651094 0.026231624 -0.011403577 0.13068578 -0.10541337 -0.0057738386
-0.0033946838 0.007820323 -0.05795237 -0.023897776 0.15826681 -0.06279166 -0.078449614 0.026382722
-0.005964271 -0.093236946 0.097303204 -0.023147393 0.026127031 0.08964916 -0.11797065 -0.024979625
-0.08078306 0.008423015 -0.09281525 -0.08781236 -0.13822706 -0.05299746 -0.026110781 -0.05167742
0.037580732 -0.004667752 0.028553644 -0.07865344 0.07288219 0.057474997 -0.014969899 0.29009297
0.063576914 0.1328371 0.02304667 0.13472575 0.06470314 -0.0421037 -0.0075060516 0.0055853664
0.0610384 -0.15117173 -0.10040066 0.019077064 -0.016276777 0.06456025 -0.087327324 -0.06284771
00000000: 398d 76bd 4a5c 1cbc eae3 41bd 3cc2 f73d
00000010: c077 3b3e fd5b 6a3d f77b 313d b9fd 923c
00000020: 44b4 18bd bfe7 cd3c 055d f1bd 5899 a53d
00000030: 34c6 b93c d428 d13b 983e 0cbd 50bf a9bd
00000040: c9bc 2d3c 9dd6 be3d face 7a3d ad21 95bd
00000050: a876 d9ba c535 8abd bf65 10be 2cf5 38bd
00000060: e3f3 7e3d dc76 433d e0ab fa3d 82dd 033d
00000070: 34c5 1e3d 320c 9e3d 2e54 dfbc 3863 44ba
00000080: 8395 4fbd 309c 18be caee 9ebd 51d4 1abe
00000090: 0872 e33d 4749 d23c e218 e73c 4659 0e3d
000000a0: fff4 c33d b1ab 0bbe 587b 9cbd fafc 443c
000000b0: e546 77bd 1db4 463a 4062 1c3e dcf5 2cbd
000000c0: 1197 c3bb 0dfb 04be 2927 20bd d0ed a839
000000d0: dffe 44bd 8135 99be d6f1 ba3d 43a7 913b
000000e0: a3ca a83d 126e 0f3e 95ad 79bd 3612 d9bc
000000f0: 5604 873d 0f41 a03d 55c5 383b dafb f7bc
00000100: fece 8cbd 1b33 c0bc e558 ce3c cf7a abbd
00000110: dd36 9a3d 1197 5cbe 03c0 443c f008 cfbd
00000120: 1683 3abe d25f 06be 5a80 84bc 77b1 8fbd
00000130: 736d b1bd 9548 8ebd fbd2 983d a178 87bc
00000140: bf4a f1bd b21e 453d 27c1 36bd a00c b7bc
00000150: 096d 20bd fbd9 57bc 9b98 e73c a72c a1bd
00000160: 57e5 9bbd c679 39be 8e62 433d d073 68bd
00000170: 1185 cb3b 5a86 9b3d cc6e 53bc 4f15 003e
00000180: a5d3 0e3d b709 1dbc 6657 ffbd a5f3 78bd
00000190: 5ec0 b0bd 40e5 b3bc f6eb a83d 78cd 22bd
000001a0: 4569 833c 2ee7 233c 6332 94bd 2e64 ec3c
000001b0: c7f5 113e cea3 f9bd daf0 ab3d 91e6 103e
000001c0: 485f adbc 3a6e 2d3d 3e3b d93a 1a3e b5bc
000001d0: 7cf6 07be b088 9abd 8110 00bd 936b 32bd
000001e0: f8c0 2e3e b763 b43d da1e 893d e8ec ab3d
000001f0: 9840 953d bbb9 023e 05e2 04be 3821 54be
00000200: 575a 6e3c 2d98 4db9 4397 a0bc b894 2b3e
00000210: 6dd9 6f3d 0bcb 1ebd a4e1 103c 7b93 c7bd
00000220: 233e 55bd 99d8 e3bc b362 e2bd e790 6dbd
00000230: 80f3 833d d1cf 40bd 1ae3 f1bd bf77 94bd
00000240: 1f25 5abd 1acb 02bc 5426 efbc dfae 05be
00000250: f5d9 ab3d 31a0 65bd 4575 643d 1fca 003d
00000260: 9a89 d3bd 0da6 84bd 034b e93c 6071 c837
00000270: 9aaf aa3d 4fba b2bc 60dc 38bd 3169 f1bd
00000280: 01d7 583b 5dd0 13bd 91eb 6d3d 47ca bfbd
00000290: 16a1 d9bd 37cb b5bd 6ba9 37be 0fc1 7ebb
000002a0: 1478 9b3d cfc4 813a a68f 14bd a07a f9bd
000002b0: 2dd1 3bbe c070 55bc 3a2c 523d 60f9 1b3d
000002c0: bb0b 85bd c97d 7b3d 579f 41bd 3db9 993b
000002d0: a4e7 eabd a61d bd3d f008 e23d 5c03 03be
000002e0: 8db4 a43d ce0f 613d 2af2 9abd 3086 9fbc
000002f0: d451 4abe ff76 2b3d b413 903d 9050 3e3e
00000300: 4bf6 963c fbdc bb3c 3b31 323e 03b3 15bd
00000310: a873 4d3c 765f d43b 2624 d4bd 3780 52bc
00000320: 9dd6 1bbd a132 45bd 55fb a0bc b4e3 d63c
00000330: 12d6 3abc 7ed2 053e f7e2 d7bd 7832 bdbb
00000340: 5879 5ebb d020 003c 775f 6dbd 45c5 c3bc
00000350: b210 223e ea98 80bd 31aa a0bd 9420 d83c
00000360: ee6f c3bb 03f3 bebd e746 c73d 9a9f bdbc
00000370: 5b08 d63c fb99 b73d 999a f1bd 12a2 ccbc
00000380: 9771 a5bd af00 0a3c ec15 bebd f7d6 b3bd
00000390: 658b 0dbe dd13 59bd 47e6 d5bc b4ab 53bd
000003a0: 41ee 193d f1f3 98bb 55e9 e93c 0e15 a1bd
000003b0: 4243 953d e76a 6b3d 4f44 75bc 1187 943e
000003c0: 9d34 823d 7306 083e 5fcc bc3c 8cf5 093e
000003d0: 1483 843d ee74 2cbd 53f5 f5bb 7305 b73b
000003e0: 6703 7a3d c3cc 1abe dc9e cdbd 8147 9c3c
000003f0: e056 85bc 2a38 843d abd8 b2bd 4db6 80bd

bias f4 [64]
-0.018710922 -0.012631871 0.082377315 -0.009187245 0.025098648 0.052034445 0.057297494 -0.004266058
0.052702907 -0.000813745 0.03504735 0.020660402 0.045736037 0.01694512 0.055434387 0.039737266
-0.083408855 0.054379527 -0.028127262 -0.009456332 -0.004698347 0.10208054 0.08402447 0.07160627
-0.07494096 -0.07896212 -0.013786495 0.07942412 0.112318985 0.025443409 0.10943289 0.037988827
0.03921477 0.026482832 0.10007625 0.028353143 0.07312858 -0.0062772585 0.02565176 0.005660176
0.034423076 -0.013157933 -0.0026114497 0.07329181 -0.026137177 0.04171299 -0.0009046465 -0.023745101
-0.006482398 0.00721104 0.04492907 0.051972356 -0.08465871 0.044095118 0.030638717 0.02550153
0.043266773 -0.008989478 -0.0033715763 0.06862181 0.021330502 -0.03823892 -0.04776887 -0.029131943
00000000: a647 99bc e8f5 4ebc 70b5 a83d 1986 16bc
00000010: ae9b cd3c 1222 553d c7b0 6a3d 4aca 8bbb
00000020: 01df 573d 8151 55ba cf8d 0f3d 0140 a93c
00000030: b655 3b3d 7ed0 8a3c 2b0f 633d 8bc3 223d
00000040: 43d2 aabd 11bd 5e3d 256b e6bc bbee 1abc
00000050: 97f4 99bb 9a0f d13d 0515 ac3d 4fa6 923d
00000060: a57a 99bd e4b6 a1bd c0e0 61bc 1da9 a23d
00000070: 7f07 e63d b26e d03c 5a1e e03d 2c9a 1b3d
00000080: ab9f 203d 86f2 d83c c7f4 cc3d da44 e83c
00000090: 70c4 953d 76b1 cdbb a423 d23c ff78 b93b
000000a0: 36ff 0c3d 5f94 57bc db24 2bbb 041a 963d
000000b0: a21d d6bc 3ddb 2a3d cd25 6dba 1685 c2bc
000000c0: 4c6a d4bb 964a ec3b 8b07 383d f7e0 543d
000000d0: 8c61 adbd 159d 343d 0cfe fa3c 96e8 d03c
000000e0: 8038 313d 9b48 13bc aaf5 5cbb 9789 8c3d
000000f0: 4ebd ae3c 6aa0 1cbd 4aa9 43bd 1da6 eebc

weight f4 [32, 1024]
-0.0027082185 0.09147642 0.024366813 0.014102017 0.05869889 0.066527665 -0.006381935 0.10161473
0.029879898 -0.12685049 -0.01650427 -0.04651684 0.08744588 0.051703632 -0.086531 0.012763522
0.021263598 -0.04223852 -0.05880591 -0.07264929 0.011443241 -0.017138297 0.03768971 -0.08345593
-0.04093499 0.010010264 -0.0928381 -0.054066874 0.09450539 0.04870169 0.03607843 0.03760406
-0.073944554 0.00162295 0.026804704 -0.042030185 0.040943023 0.025771327 0.08194234 -0.04112223
0.12907939 0.08731529 0.02189997 0.038897168 -0.03629033 0.05253656 0.04994593 0.03260022
0.004012842 -0.027984805 0.043115083 0.024927435 0.02730515 0.024501814 0.094765626 0.028936168
-0.029852055 -0.085205816 -0.030392611 0.12191521 0.03296215 0.036771666 0.06349258 -0.059170954
-0.105923615 -0.14804488 0.03374012 -0.015395973 -0.0731553 -0.12378199 -0.10214744 0.004414238
0.02786622 0.037240703 0.009589647 0.03706559 -0.026907746 -0.021455921 0.014225772 -0.018902548
0.07860308 0.124600574 -0.046323124 -0.09842374 0.012829878 0.050307788 -0.03901564 0.08139893
0.09241687 0.12041296 -0.02208717 0.01499907 0.043807168 0.101301715 -0.03438439 -0.25034073
-0.028595302 0.082012795 0.096913986 0.035347547 0.12091143 0.076027736 -0.003854122 -0.004605299
0.047358606 0.09171666 -0.019874183 -0.05927446 0.09942757 0.0063290135 -0.0062865242 0.058084242
0.044584725 0.07712108 0.005466188 -0.08330304 -0.060318336 0.013642279 0.04843212 -0.18092328
-0.03891176 -0.022078088 0.015448408 -0.13088243 0.0031221814 -0.018388392 -0.030742481 -0.060592927
-0.032045633 0.10040887 -0.07526508 0.0144788185 -0.010162108 -0.001252117 0.12104199 -0.0062564705
0.09923161 0.040782504 0.047864497 0.018217247 0.19701438 0.0609179 -0.04584367 -0.06397976
-0.0855281 -0.14396928 0.012817156 -0.14209683 0.12728775 0.06694814 -0.0007979147 -0.0024344989
0.16354844 -0.020158434 0.021151733 0.020068923 -0.056344315 -0.02805301 -0.017637419 -0.05848913
-0.13316457 -0.050502103 -0.16863784 -0.12347242 -0.014531443 0.012093415 0.107325405 0.048779562
0.06325911 -0.10245344 0.038591046 -0.04973241 0.056931727 0.038859356 -0.05477806 0.031554878
-0.09300874 -0.19869354 -0.010139299 0.08386166 -0.005077645 0.036379915 -0.008920715 -0.0042737713
-0.0501895 0.10703194 0.016905408 0.034766976 0.09142534 0.030868597 -0.036403693 0.020900426
0.024544435 -0.00633136 0.07165738 0.09007513 -0.079983965 -0.009993299 -0.060436502 -0.05573062
0.07499689 0.085946344 0.052216224 -0.022449741 0.02902733 0.016939815 0.09270396 0.005679342
-0.15694483 0.011150251 -0.007760724 0.10599591 0.0034019665 -0.020213064 0.07352426 0.022931768
0.036929194 0.016952846 0.015172494 -0.020895893 -0.010109254 0.046370447 0.025812395 0.004823123
0.109260954 0.085348874 0.10263731 0.1171754 -0.045982268 -0.028044827 0.011470592 0.1072588
0.07302348 -0.028176451 -0.10176969 -0.23933464 0.019010803 -0.056991767 0.0052842447 -0.07032622
-0.022340115 0.03993678 0.062822476 -0.060996443 0.062433418 0.069248475 -0.05930691 -0.015755318
-0.062436745 -0.0013773737 -0.027947757 -0.05494335 0.13130827 0.030545361 -0.061195735 -0.07457764
00000000: 5e7c 31bb fd57 bb3d e99c c73c 250c 673c
00000010: 3f6e 703d a83f 883d 8d1f d1bb 621b d03d
00000020: b0c6 f43c 18e5 01be f633 87bc 7188 3ebd
00000030: d316 b33d 30c7 533d 2a37 b1bd 171e 513c
00000040: ff30 ae3c 4c02 2dbd 77de 70bd 27c9 94bd
00000050: 6e7c 3b3c 9d65 8cbc 8660 1a3d f1ea aabd
00000060: 73ab 27bd 1702 243c e721 bebd 3a75 5dbd
00000070: 0b8c c13d 6c7b 473d fac6 133d b706 1a3d
00000080: 3e70 97bd 2ab9 d43a 8a95 db3c d827 2cbd
00000090: dfb3 273d 641e d33c 63d1 a73d c96f 28bd
000000a0: 632d 043e 5cd2 b23d 9167 b33c a352 1f3d
000000b0: 2ba5 14bd 9330 573d 1a94 4c3d cf87 053d
000000c0: 297e 833b 6440 e5bc 7199 303d 9f34 cc3c
000000d0: 0daf df3c 07b8 c83c 7b14 c23d 8b0b ed3c
000000e0: 4c8c f4bc 6380 aebd edf9 f8bc aeae f93d
000000f0: 5203 073d e39d 163d 6608 823d 3e5d 72bd
00000100: 7bee d8bd 1499 17be 1433 0a3d 643f 7cbc
00000110: 72d2 95bd 6981 fdbd ad32 d1bd 50a5 903b
00000120: b347 e43c b589 183d e51d 1d3c 17d2 173d
00000130: a26d dcbc 54c4 afbc 3613 693c 84d9 9abc
00000140: a7fa a03d 962e ff3d 51bd 3dbd 6392 c9bd
00000150: 6934 523c 8a0f 4e3d ddce 1fbd 7bb4 a63d
00000160: 0e45 bd3d 129b f63d 27f0 b4bc a9be 753c
00000170: 256f 333d 4677 cf3d a5d6 0cbd a92c 80be
00000180: b240 eabc 53f6 a73d d77a c63d 97c8 103d
00000190: 69a0 f73d 6eb4 9b3d 7095 7cbb 0ce8 96bb
000001a0: 19fb 413d f2d5 bb3d 2fcf a2bc c7c9 72bd
000001b0: afa0 cb3d 9d63 cf3b 30ff cdbb bee9 6d3d
000001c0: 799e 363d a8f1 9d3d b51d b33b c99a aabd
000001d0: 5c10 77bd de83 5f3c c260 463d f443 39be
000001e0: f061 1fbd 1bdd b4bc 521b 7d3c 0b06 06be
000001f0: 839d 4c3b 41a3 96bc a8d7 fbbc 4a30 78bd
00000200: 4842 03bd 2aa3 cd3d 9424 9abd 9138 6d3c
00000210: f87e 26bc 131e a4ba dde4 f73d 1403 cdbb
00000220: f139 cb3d 8e0b 273d 900d 443d 563c 953c
00000230: 23be 493e 0c85 793d 92c6 3bbd d207 83bd
00000240: 5b29 afbd af6c 13be 0cff 513c d581 11be
00000250: b857 023e 1b1c 893d 262b 51ba 1d8c 1fbb
00000260: 3e79 273e 4d23 a5bc 6646 ad3c 9567 a43c
00000270: 4cc9 66bd 6dcf e5bc 597c 90bc 4c92 6fbd
00000280: 4b5c 08be 4bdb 4ebd 66af 2cbe 1cdf fcbd
00000290: 4a15 6ebc 7523 463c 6ccd db3d 14cd 473d
000002a0: fe8d 813d 1cd3 d1bd a511 1e3d 36b4 4bbd
000002b0: 3e31 693d fd2a 1f3d f65e 60bd b03f 013d
000002c0: 5e7b bebd 5276 4bbe 4d1f 26bc a9bf ab3d
000002d0: 6062 a6bb 1b03 153d 3128 12bc fe0a 8cbb
000002e0: 8193 4dbd 9033 db3d 367d 8a3c d167 0e3d
000002f0: 353d bb3d 24e0 fc3c 0a1c 15bd 5f37 ab3c
00000300: 6911 c93c 4c77 cfbb 1bc1 923d 4f79 b83d
00000310: a2ce a3bd efba 23bc 448c 77bd ca45 64bd
00000320: f897 993d a304 b03d aee0 553d 85e8 b7bc
00000330: b9ca ed3c 5ec5 8a3c 93db bd3d c619 ba3b
00000340: 25b6 20be 8baf 363c ac4d febb 6214 d93d
00000350: 87f3 5e3b de95 a5bc e393 963d 67db bb3c
00000360: 1143 173d b2e0 8a3c 0d96 783c dd2d abbc
00000370: 49a1 25bc f0ee 3d3d 8474 d33c 4a0b 9e3b
00000380: 35c4 df3d 64cb ae3d 8333 d23d a8f9 ef3d
00000390: e757 3cbd 44be e5bc 26ef 3b3c 80aa db3d
000003a0: 568d 953d 4dd2 e6bc a16c d0bd 2414 75be
000003b0: 8bbc 9b3c 3370 69bd 7527 ad3b 3107 90bd
000003c0: 9e02 b7bc c094 233d 12a9 803d 68d7 79bd
000003d0: 2fba 7f3d 25d2 8d3d cdeb 72bd 4c11 81bc
000003e0: acbd 7fbd fe88 b4ba b2f2 e4bc 470c 61bd
000003f0: ad75 063e 443a fa3c 61a8 7abd 29bc 98bd

bias f4 [32]
-0.07934637 0.09996198 0.04391909 -0.017623844 0.078229755 0.049793497 0.049153052 0.050526764
0.10996046 -0.021246145 0.0033571927 0.053772595 2.0573816e-05 0.025487032 -0.0024510904 0.06363773
-0.040879086 0.007028864 0.089642055 0.023595266 0.18993717 0.05547319 -0.051526804 0.13974705
0.06193385 0.051096868 -0.10018414 -0.044736523 0.07648548 0.023072468 0.08322064 -0.018740391
00000000: 5a80 a2bd deb8 cc3d 81e4 333d e15f 90bc
00000010: ec36 a03d 44f4 4b3d b654 493d 27f5 4e3d
00000020: f332 e13d 650c aebc 5904 5c3b a740 5c3d
00000030: ef95 ac37 2eca d03c 79a2 20bb 8054 823d
00000040: d470 27bd 6352 e63b 4196 b73d dc4a c13c
00000050: e47e 423e db37 633d c50d 53bd da19 0f3e
00000060: 59ae 7d3d f34a 513d 582d cdbd a53d 37bd
00000070: 6ba4 9c3d 7902 bd3c 956f aa3d 7385 99bc

weight f4 [15, 32]
-0.113576084 0.15296382 -0.006984597 -0.046618994 -0.0377633 -0.4116773 -0.35126945 0.27472293
-0.0005859361 -0.21527657 -0.2091137 -0.100266136 -0.08572701 0.06787132 0.005175624 0.10687654
0.182608 -0.019646278 0.031594966 -0.018084288 0.0032074384 -0.16011138 -0.3474918 -0.18359034
-0.23462547 0.13436796 0.15436362 -0.019136887 -0.028833754 -0.45617032 0.07843828 0.30198392
-0.15331326 -0.046266288 -0.06431084 -0.11329877 -0.00030518897 -0.036273252 0.05562724 0.042684346
-0.034235023 0.32582805 -0.1636609 0.022036988 0.14911833 -0.07556349 -0.0035461897 0.2171889
-0.097010836 0.10834029 -0.29862204 0.010357916 -0.018994028 0.06983054 0.043789968 -0.17843226
-0.08532556 0.01693959 -0.07681509 -0.01877933 -0.24857417 -0.09438995 -0.076797284 0.038628686
0.012197658 -0.21372399 -0.22947663 -0.18358135 -0.18097642 -0.14538574 0.031784136 -0.013891873
0.040299855 0.18314129 -0.21734227 -0.35172263 0.22725824 0.19594936 -0.038795635 -0.21773256
0.18243892 -0.008221274 -0.13289545 0.20079727 0.002831042 0.0744274 0.17202444 0.07082549
-0.43335468 0.022251388 -0.11084274 0.3420449 -0.18215571 -0.027316699 -0.03712753 -0.08378048
0.21041666 0.1158598 -0.15493037 0.27029374 -0.24321164 -0.082093425 -0.29334497 0.11280433
-0.008107277 0.00234781 -0.26288846 -0.25582978 -0.057557218 0.18374288 0.012540466 0.06387524
-0.114404276 -0.089166306 -0.26150993 -0.25912395 0.03211051 -0.10662194 -0.123593144 -0.21300688
-0.092256546 -0.03875918 0.07693862 -0.106227286 -0.03808317 -0.3894942 0.10707112 -0.01370034
-0.03138891 -0.049639784 -0.20762305 0.104987256 -0.058532316 0.14522871 -0.02816125 0.019450162
-0.19913623 -0.08106879 0.015621674 -0.024538625 -0.0269888 -0.009151462 -0.099558175 -0.05153514
-0.16377962 -0.117663704 -0.04719256 0.0830328 -0.036856696 0.006690286 0.036019236 -0.059608947
0.026420707 -0.063552566 0.029676197 -0.06393158 -0.022380475 -0.049046446 -0.072452895 -0.09504628
0.037002828 -0.15126385 -0.19667691 0.103329204 -0.010793977 -0.18113479 -0.038858082 -0.1003639
-0.09225308 0.12181326 -0.16241996 -0.22028095 0.012183975 -0.0646088 -0.08324572 -0.032583144
-0.19593184 0.08207172 -0.18668847 0.20554592 0.027802937 -0.14485727 0.24421406 0.098540485
-0.3038857 -0.15905087 -0.043492652 0.21923007 -0.022391327 -0.2552111 -0.20021063 -0.09922311
0.36673865 0.016311241 -0.06052417 0.09126847 -0.2605507 -0.06147733 -0.18507257 0.069967
-0.19863904 -0.04365739 -0.16156675 -0.23921396 0.05395767 0.21024473 0.012255146 0.06090259
0.18027477 -0.116899826 -0.20400997 -0.20887026 0.027558813 -0.12606743 0.1142754 -0.2600439
-0.08577854 -0.07464052 0.040784128 -0.06115424 -0.11271558 -0.27349767 -0.006394621 0.024507374
0.04133971 -0.0658901 -0.069823965 -0.023416266 0.028479438 -0.06695025 -0.17035548 -0.055906966
0.038968924 0.118777856 -0.075262025 0.007917363 -0.16055155 0.103748225 -0.06513034 -0.041194953
0.07223604 -0.048183344 0.0013499911 -0.09193888 -0.04669057 0.0034811085 0.053150527 -0.057042297
-0.035388894 -0.056902505 -0.063611604 0.075048156 -0.030680502 -0.03985196 -0.042136252 -0.11717041
00000000: 949a e8bd 8ca2 1c3e 0cdf e4bb 8ff3 3ebd
00000010: b1ad 1abd 5ec7 d2be 97d9 b3be 7ca8 8c3e
00000020: 8299 19ba 7671 5cbe e721 56be 5558 cdbd
00000030: a591 afbd 1e00 8b3d 4898 a93b 16e2 da3d
00000040: 97fd 3a3e 3bf1 a0bc b969 013d 8025 94bc
00000050: e333 523b 3df4 23be 72ea b1be 1bff 3bbe
00000060: a941 70be c197 093e 7f11 1e3e f6c4 9cbc
00000070: c434 ecbc 288f e9be 40a4 a03d a39d 9a3e
00000080: 27fe 1cbe b881 3dbd 67b5 83bd 2f09 e8bd
00000090: c501 a0b9 4393 14bd 64d9 633d c8d5 2e3d
000000a0: 063a 0cbd efd2 a63e b996 27be ea86 b43c
000000b0: 7ab2 183e 08c1 9abd 3167 68bb c466 5e3e
000000c0: 9ead c6bd 84e1 dd3d fde4 98be 40b4 293c
000000d0: 5d99 9bbc 5003 8f3d 1c5d 333d f2b6 36be
000000e0: 2bbf aebd e5c4 8a3c 3b51 9dbd 1cd7 99bc
000000f0: 3a8a 7ebe 854f c1bd e547 9dbd 1d39 1e3d
00000100: b0d8 473c 76da 5abe ecfb 6abe c0fc 3bbe
00000110: e251 39be 00e0 14be 1530 023d bd9a 63bc
00000120: 7611 253d 6489 3b3e f98e 5ebe fd14 b4be
00000130: 62b6 683e f3a6 483e 2ce8 1ebd 49f5 5ebe
00000140: 45d1 3a3e 86b2 06bc bf15 08be cd9d 4d3e
00000150: 0189 393b 656d 983d 2d27 303e f40c 913d
00000160: aae0 ddbe 8b48 b63c 8501 e3bd 8220 af3e
00000170: 0787 3abe 45c7 dfbc 0913 18bd 1a95 abbd
00000180: 7777 573e e747 ed3d 11a6 1ebe f163 8a3e
00000190: 790c 79be 9920 a8bd 5031 96be f505 e73d
000001a0: 62d4 04bc b7dd 193b 5199 86be 1ffc 82be
000001b0: 1ec1 6bbd 1827 3c3e 8776 4d3c 06d1 823d
000001c0: ca4c eabd d39c b6bd a1e4 85be e5ab 84be
000001d0: 4f86 033d 9b5c dabd 671e fdbd 7a1e 5abe
000001e0: 00f1 bcbd f2c1 1ebd ff91 9d3d b18d d9bd
000001f0: 19fd 1bbd c96b c7be 1a48 db3d 6477 60bc
00000200: a891 00bd 1653 4bbd 239b 54be 8f03 d73d
00000210: 95bf 6fbd d6b6 143e 6cb2 e6bc f255 9f3c
00000220: 5eea 4bbe 6507 a6bd 0df2 7f3c 3a05 c9bc
00000230: 9e17 ddbc 04f0 15bc 28e5 cbbd 8316 53bd
00000240: d8b5 27be abf9 f0bd fc4c 41bd 1a0d aa3d
00000250: 0cf7 16bd 303a db3b e888 133d 8328 74bd
00000260: 3d70 d83c d927 82bd 7f1b f33c 8fee 82bd
00000270: 4257 b7bc ede4 48bd 2f62 94bd a0a7 c2bd
00000280: 4790 173d e9e4 1abe ac65 49be 439e d33d
00000290: 39d9 30bc 667b 39be a729 1fbd 978b cdbd
000002a0: 2fef bcbd 3b79 f93d 6b51 26be 5491 61be
000002b0: 4c9f 473c 9e51 84bd bb7c aabd e775 05bd
000002c0: 5ba2 48be 3815 a83d 432b 3fbe a17a 523e
000002d0: fcc2 e33c 7755 14be 4013 7a3e 98cf c93d
000002e0: e896 9bbe 3bde 22be 5a25 32bd d97d 603e
000002f0: 046e b7bc 08ab 82be 0404 4dbe 7c35 cbbd
00000300: 2bc5 bb3e 279f 853c 31e8 77bd f7ea ba3d
00000310: e766 85be a7cf 7bbd aa83 3dbe dc4a 8f3d
00000320: 0868 4bbe 17d2 32bd c171 25be 81f4 74be
00000330: b802 5d3d 654a 573e cfc9 483c ff74 793d
00000340: f399 383e 2d69 efbd fde7 50be 16e2 55be
00000350: 05c3 e13c d217 01be 3909 ea3d 7924 85be
00000360: a9ac afbd 21dd 98bd 420d 273d de7c 7abd
00000370: 6dd7 e6bd e307 8cbe f889 d1bb b0c3 c83c
00000380: d453 293d 64f1 86bd deff 8ebd 78d3 bfbc
00000390: b64d e93c 361d 89bd ab71 2ebe b4fe 64bd
000003a0: e19d 1f3d ce41 f33d fa22 9abd d4b7 013c
000003b0: a067 24be f379 d43d 0e63 85bd 0abc 28bd
000003c0: 7df0 933d e65b 45bd 2ff2 b03a 744a bcbd
000003d0: 9c3e 3fbd 4f23 643b 5eb4 593d 2fa5 69bd
000003e0: f2f3 10bd 9a12 69bd cd46 82bd d9b2 993d
000003f0: ad55 fbbc cf3b 23bd 1097 2cbd 0af7 efbd

bias f4 [15]
0.065716855 -0.0040576276 0.045425944 -0.0038458619 -0.019711772 0.0098580895 0.047969885 -0.008363879
-0.045000672 -0.0074047437 -0.051369283 0.034764238 0.041502137 0.02468588 -0.021276705
00000000: 8f96 863d d9f5 84bb 8e10 3a3d db0a 7cbb
00000010: 957a a1bc d383 213c 127c 443d a708 09bc
00000020: a052 38bd 7ea3 f2bb 9968 52bd f264 0e3d
00000030: 25fe 293d 0b3a ca3c 7c4c aebc

weight f4 [1, 32]
-0.050031606 0.028130498 0.011700837 -0.006443501 0.05712329 0.12808928 0.044109065 0.023091221
0.071870126 0.0078038145 0.13264416 0.06258055 -0.016709218 -0.3458114 -0.006439201 0.05398244
-0.051855754 -0.020664832 0.14297165 0.011735997 0.10847653 0.030827954 -0.029352231 0.07608889
0.11746917 0.003052535 -0.05762895 -0.023278425 0.099789545 0.1023028 0.01269525 -0.013768914
00000000: f1ed 4cbd ee71 e63c deb4 3f3c 0124 d3bb
00000010: 1cfa 693d d629 033e b5ab 343d cd29 bd3c
00000020: a530 933d 24b7 ff3b dfd3 073e 3b2a 803d
00000030: c5e1 88bc 310e b1be efff d2bb b11c 5d3d
00000040: b366 54bd 4b49 a9bc 2967 123e 5748 403c
00000050: f128 de3d e88a fc3c 1774 f0bc 7ed4 9b3d
00000060: ad93 f03d 0a0d 483b 550c 6cbd 65b2 bebc
00000070: 765e cc3d 2184 d13d bdff 4f3c 0397 61bc
