results_final/generalization/400levels-policy.pt (torch, 443935 bytes, 11 tensors)

weight f4 [32, 3, 8, 8]
-0.3193043 0.10239045 0.19648603 -0.016318649 0.011138012 0.0039960663 0.11241862 -0.0074530984
-0.023444695 -0.04301156 -0.012779741 -0.1358766 0.040618405 0.19167061 -0.003519341 0.11859507
-0.006360383 0.06425299 0.15935683 -0.09177244 -0.11242908 0.07663135 -0.09415886 -0.05527382
0.17057662 0.13659336 0.08222798 -0.12795097 0.054388534 -0.09911349 -0.036417168 -0.10238881
-0.26545075 -0.20513803 -0.053365257 0.099603236 0.11972316 0.1304983 0.26999933 0.09053914
0.060259074 -0.023276018 0.071323395 0.06752171 0.01735785 0.042100403 0.022665942 0.07073189
0.27700874 0.0122118965 -0.104754746 0.15285192 0.21252258 -0.14688951 -0.1565619 0.051088274
-0.27132118 -0.006372169 0.15259224 0.06715801 0.29535896 0.04689681 -0.18268542 0.013718391
-0.20293842 0.09119489 0.011337852 0.14421211 -0.1681129 0.25332475 -0.14426419 0.073581
-0.06279208 -0.07790011 -0.042833842 0.12593253 0.012965516 0.13910526 0.07895829 0.15345088
0.10095472 0.08364698 0.053683925 0.06758767 -0.09381056 0.040520724 -0.11865045 -0.062069
0.18348883 0.024397654 0.16516075 -0.05715404 -0.0036498369 -0.11940022 0.026468543 -0.15066542
-0.20637277 -0.16906545 -0.14325806 -0.09195541 -0.066929445 0.064047985 0.1394626 -0.06717008
0.02848667 0.049664117 -0.11751756 0.143011 0.039910074 -0.1314417 -0.16882172 0.032988608
0.20747305 -0.047476344 0.002507716 0.10015799 0.3691651 -0.0044087763 0.00028070124 -0.04443729
-0.013815541 0.19514744 -0.06541333 -0.034547888 0.018898306 -0.15854934 0.13901447 0.023539577
-0.1284924 0.06198633 -0.15978096 -0.24207658 -0.18321252 0.039764535 -0.097112834 -0.10316452
0.19833052 0.095444635 0.09623759 0.046767738 -0.050641384 -0.2446434 -0.14065619 0.096060224
-0.03736575 0.11577575 -0.19111133 -0.030153353 0.0357565 -0.066901006 -0.10585064 -0.27141953
-0.03162289 -0.10395363 -0.1424068 -0.026105873 0.032995332 -0.0034920003 -0.0023397868 0.12300432
-0.14123 -0.075516894 -0.12807874 -0.09413655 -0.29857078 -0.10993158 0.1646973 0.14902548
-0.103513665 0.1234932 -0.121506125 -0.09747458 -0.18438515 -0.20428775 0.0058216406 -0.091173545
-0.04811101 -0.019720966 -0.114337094 -0.27117106 -0.2818043 -0.0055176686 -0.24627778 -0.046859495
0.018344149 0.07508139 -0.128938 -0.29206464 -0.0011047038 -0.35243848 0.00070918776 -0.27565938
0.14544605 0.047847163 -0.12036292 0.07976554 0.13143504 -0.2495741 -0.10642176 -0.062231604
-0.20108503 -0.0080829235 -0.2837471 -0.09960488 -0.192908 -0.12128665 -0.13933232 -0.13246553
-0.079110235 0.03959039 -0.07992809 -0.01702941 -0.20253089 0.04561059 0.18766405 -0.06939906
-0.016212052 -0.1997863 -0.2798651 -0.14203872 0.17344433 0.06103526 -0.0376947 -0.15535836
-0.08916329 -0.118953355 0.14120154 -0.24112588 -0.13828123 0.09780121 -0.08574825 -0.10823344
0.1302001 -0.01581729 0.0364785 0.037119042 -0.06795506 -0.0051870174 -0.016717464 -0.019059863
-0.061899025 -0.017604448 -0.091608696 -0.007007245 -0.15106025 -0.17483707 -0.047910396 -0.039216064
0.17899705 -0.10532784 -0.2581293 -0.20271607 -0.16249867 -0.036747526 -0.120015286 -0.42017785
00000000: da7b a3be 16b2 d13d a233 493e b0ae 85bc
00000010: 357c 363c 6ff1 823b bc3b e63d 1f39 f4bb
00000020: 170f c0bc e42c 30bd 1e62 51bc 3c23 0bbe
00000030: 7c5f 263d 4d45 443e bea4 66bb f9e1 f23d
00000040: c26a d0bb 1297 833d 702e 233e 30f3 bbbd
00000050: 3841 e6bd e6f0 9c3d 5cd6 c0bd cd66 62bd
00000060: a3ab 2e3e 21df 0b3e 2567 a83d 9405 03be
00000070: 83c6 5e3d 03fc cabd 2b2a 15bd 39b1 d1bd
00000080: 29e9 87be b40f 52be 8795 5abd c8fc cb3d
00000090: 6b31 f53d 59a1 053e 5a3d 8a3e 966c b93d
000000a0: 38d2 763d 59ad bebc 0012 923d d348 8a3d
000000b0: 0d32 8e3c 7971 2c3d edad b93c e2db 903d
000000c0: 17d4 8d3e 6814 483c a889 d6bd 3785 1c3e
000000d0: 859f 593e 346a 16be c351 20be f041 513d
000000e0: 9cea 8abe a1cd d0bb 2441 1c3e 248a 893d
000000f0: 4a39 973e df16 403d e311 3bbe 1ac3 603c
00000100: 17cf 4fbe 63c4 ba3d 66c2 393c 57ac 133e
00000110: ca25 2cbe c8b3 813e feb9 13be a3b1 963d
00000120: 2299 80bd 188a 9fbd 8a72 2fbd 75f4 003e
00000130: 516d 543c 9c71 0e3e e2b4 a13d 3a22 1d3e
00000140: 59c1 ce3d 1c4f ab3d ade3 5b3d 686b 8a3d
00000150: c01f c0bd 0ff9 253d 02ff f2bd 103c 7ebd
00000160: 7fe4 3b3e 97dd c73c e61f 293e 5b1a 6abd
00000170: 1a32 6fbb 1a88 f4bd 8fd4 d83c 0948 1abe
00000180: 6253 53be 7e1f 2dbe 3eb2 12be 1e53 bcbd
00000190: 4e12 89bd 972b 833d 49cf 0e3e 7890 89bd
000001a0: e15c e93c 9a6c 4b3d 0cad f0bd 7a71 123e
000001b0: bf78 233d a798 06be 9adf 2cbe 101f 073d
000001c0: d173 543e 8e76 42bd 7e58 243b a21f cd3d
000001d0: 3503 bd3e 7f77 90bb 152b 9339 e003 36bd
000001e0: 945a 62bc bbd4 473e 6df7 85bd 1682 0dbd
000001f0: 9fd0 9a3c c25a 22be cf59 0e3e 12d6 c03c
00000200: 8393 03be 61e5 7d3d 9f9d 23be ece2 77be
00000210: 109c 3bbe 23e0 223d 18e3 c6bd eb47 d3bd
00000220: 2817 4b3e 7a78 c33d 3718 c53d 878f 3f3d
00000230: 576d 4fbd cd83 7abe 2d08 10be 39bb c43d
00000240: d40c 19bd d61b ed3d b0b2 43be 2a04 f7bc
00000250: 6875 123d 6503 89bd 38c8 d8bd 80f7 8abe
00000260: 0187 01bd a4e5 d4bd 17d3 11be fcdb d5bc
00000270: 1d26 073d 0bda 64bb 1c57 19bb b0e9 fb3d
00000280: 999e 10be 9aa8 9abd 1327 03be aaca c0bd
00000290: 45de 98be cf23 e1bd 69a6 283e 239a 183e
000002a0: f9fe d3bd 01ea fc3d 34d8 f8bd c1a0 c7bd
000002b0: 76cf 3cbe cf30 51be 76c3 be3b 32b9 babd
000002c0: 0d10 45bd dd8d a1bc 9129 eabd efd6 8abe
000002d0: a748 90be 8fcd b4bb 3e30 7cbe beef 3fbd
000002e0: 7846 963c 46c4 993d 5308 04be 7f89 95be
000002f0: b5cb 90ba d172 b4be c9e8 393a 3a23 8dbe
00000300: cfef 143e 63fb 433d d680 f6bd 1e5c a33d
00000310: e896 063e 5a90 7fbe a7f3 d9bd 91e6 7ebd
00000320: 3ce9 4dbe 3d6e 04bc 4d47 91be a5fd cbbd
00000330: ad89 45be 2365 f8bd 22ad 0ebe 0ba5 07be
00000340: 8c04 a2bd 8829 223d 57b1 a3bd 4381 8bbc
00000350: 4264 4fbe 2cd2 3a3d 012b 403e 1821 8ebd
00000360: 23cf 84bc c894 4cbe 7a4a 8fbe 9972 11be
00000370: 649b 313e 1c00 7a3d c265 1abd 4316 1fbe
00000380: 3e9b b6bd d19d f3bd 2397 103e b4e9 76be
00000390: 9899 0dbe 004c c83d c79c afbd 7ea9 ddbd
000003a0: 2d53 053e 4393 81bc 7b6a 153d 230a 183d
000003b0: 062c 8bbd dbf7 a9bb 10f3 88bc 6e23 9cbc
000003c0: d589 7dbd 3437 90bc 579d bbbd 089d e5bb
000003d0: 8aaf 1abe 7d08 33be b13d 44bd 06a1 20bd
000003e0: 014b 373e 1fb6 d7bd 8629 84be cd94 4fbe
000003f0: 0d66 26be 9384 16bd 93ca f5bd 8d21 d7be

bias f4 [32]
0.008483321 -0.0046912483 -0.0027573046 -0.0040748273 0.0030816866 -0.04837957 -0.015510952 -0.0076627415
-0.004518783 0.020135513 -0.002124295 -0.0070036086 0.017110929 -0.0247304 -0.0036478136 -0.0033214784
-0.0022829405 -0.0020294646 -0.008628271 0.043736268 0.0010314889 -0.0029541973 0.044857856 -0.02783136
-0.004088361 -0.003654905 -0.009895718 -0.0072492533 -0.0034497532 -0.005603762 -0.012528033 -0.013444751
00000000: a1fd 0a3c 0bb9 99bb e5b3 34bb 2186 85bb
00000010: 1ff6 493b a829 46bd a621 7ebc bc17 fbbb
00000020: 4d12 94bb 3bf3 a43c c237 0bbb 877e e5bb
00000030: 382c 8c3c 6897 cabc 2810 6fbb 29ad 59bb
00000040: 639d 15bb c400 05bb 975d 0dbc cd24 333d
00000050: 0633 873a 359b 41bb dfbc 373d 98fe e3bc
00000060: a8f7 85bb 2187 6fbb a621 22bc 258b edbb
00000070: 4115 62bb c39f b7bb 6142 4dbc 5f47 5cbc

weight f4 [64, 32, 4, 4]
0.13643445 0.09989463 0.25625965 0.060680926 0.006996157 0.11879038 0.18762387 0.08387913
-0.11189368 0.15909292 -0.057589572 0.037349336 -0.057745274 -0.06995181 -0.30711195 -0.2127709
-0.013425484 -0.049322817 0.017648416 -0.019739171 0.050546493 0.31301796 0.15118285 0.1227856
-0.0073315925 0.0023785143 -0.09966165 -0.06517537 0.06256149 0.15065007 0.13362984 0.105856724
0.14534733 0.2162007 0.025463298 0.07339586 0.07977344 0.06875646 0.20330471 0.1159601
0.106510535 -0.14363909 0.13151294 0.09169395 -0.07684327 0.03079204 0.10798031 -0.058053255
-0.07836096 -0.047957342 0.11492173 -0.021378815 0.078815185 -0.04246243 0.08625332 0.09643758
0.027114429 -0.0077831047 0.18594374 0.011597863 0.0619227 -0.013735904 0.01839295 -0.15563947
-0.13321993 -0.016027443 0.04204364 -0.008366081 -0.06021541 0.0028051916 0.06324368 -0.03259074
0.016001027 0.0010322346 0.09444249 -0.032303337 -0.07975228 -0.03486014 -0.011477723 -0.11348503
-0.04031326 -0.06091566 -0.014892144 -0.14736988 0.03046022 0.040645793 0.020198982 -0.011417606
0.058129437 -0.23172791 -0.045958858 -0.07052217 -0.117609896 -0.015764583 -0.1032317 -0.17007743
0.15381774 -0.01047502 -0.09819092 -0.031402253 0.13528167 0.11739093 -0.028924812 0.15373234
-0.14433978 0.02000973 -0.09163693 -0.027921481 -0.10926522 -0.019106928 -0.026566748 0.030230012
0.039595976 -0.21020105 -0.12452086 -0.025053734 -0.04129653 0.029082945 0.11423724 0.024841363
-0.018271659 0.13819705 -0.08624267 -0.17325257 0.0218154 0.11491274 -0.027557906 0.1383446
-0.07173142 -0.0076800548 0.024896976 -0.06240119 0.11884932 0.00690624 0.04876859 0.0883932
-0.07867902 -0.08028372 0.0029988426 -0.17856972 -0.038667206 -0.013589758 -0.093880236 -0.05000273
0.14374174 0.11238834 0.084400386 0.009069573 0.1381596 0.014782164 0.012334464 0.11433134
0.068980075 0.11916115 0.050972678 0.15759042 -0.14336225 -0.15406394 0.04097907 -0.037942972
0.06901477 0.05767019 -0.031021705 0.1342514 0.09034266 0.18833162 0.09041929 0.13383341
0.029069098 -0.12082077 -0.021524278 0.0317011 0.10121545 0.09162343 -0.028403707 0.08646234
0.06657855 0.017302642 0.04913074 0.082817085 0.05100505 0.040185772 -0.103581056 0.16238193
0.21090306 0.015748885 0.039997973 -0.05146597 -0.14239503 0.0068055857 -0.17325534 0.019863328
-0.068659656 -0.006656108 0.025614886 -0.078083076 0.030504715 0.006326173 0.028990488 0.060456406
-0.11057742 0.13112183 0.17431217 0.11991322 -0.088770956 -0.104939505 -0.02990717 0.050452776
0.02576494 0.054822676 -0.0035361773 -0.009205137 0.052696697 0.062051196 0.13840184 0.1597786
0.054138247 0.022019185 0.06418384 -0.010398534 0.013664411 -0.042377613 -0.07022548 0.11031709
0.043778054 0.021670856 -0.08617048 -0.01835149 -0.01213051 0.0506392 -0.1441827 -0.12685978
0.019795453 0.019016836 0.17181444 -0.18510735 -0.029878978 -0.031705312 0.008906517 -0.0022245005
0.055456296 0.017105201 -0.014817824 0.043829966 0.055952888 -0.10603726 0.04924513 0.12671906
-0.015098968 0.05120701 0.050122842 -0.042168394 0.031039534 0.02063675 -0.14491001 -0.03427825
00000000: 79b5 0b3e 8e95 cc3d 7734 833e 908c 783d
00000010: 0540 e53b 5f48 f33d 7920 403e d2c8 ab3d
00000020: 8428 e5bd 41e9 223e 0be3 6bbd 9efb 183d
00000030: 4f86 6cbd e542 8fbd c73d 9dbe 9de0 59be
00000040: 90f6 5bbc b906 4abd 6993 903c 0bb4 a1bc
00000050: d709 4f3d e443 a03e adcf 1a3e 0477 fb3d
00000060: db3d f0bb d9e0 1b3b 681b ccbd aa7a 85bd
00000070: 3d20 803d 0344 1a3e 43d6 083e 69cb d83d
00000080: eed5 143e b763 5d3e 6898 d03c 9250 963d
00000090: 4260 a33d 30d0 8c3d 1c2f 503e 7d7c ed3d
000000a0: 3222 da3d 2016 13be 54ab 063e 0aca bb3d
000000b0: 0160 9dbd 973f fc3c c824 dd3d 40c9 6dbd
000000c0: b67b a0bd eb6e 44bd 155c eb3d a022 afbc
000000d0: db69 a13d 16ed 2dbd 95a5 b03d 1181 c53d
000000e0: 141f de3c 6a09 ffbb 0968 3e3e f704 3e3c
000000f0: a8a2 7d3d 8f0c 61bc d0ac 963c f45f 1fbe
00000100: ce6a 08be fc4b 83bc f435 2c3d e311 09bc
00000110: 6fa4 76bd 4ed7 373b e785 813d de7d 05bd
00000120: 9614 833c 0c4c 873a 106b c13d 8150 04bd
00000130: 2a55 a3bd 82c9 0ebd 0f0d 3cbc d76a e8bd
00000140: 841f 25bd b382 79bd 2efe 73bc 21e8 16be
00000150: b687 f93c 347c 263d 5678 a53c e910 3bbc
00000160: 2219 6e3d 154a 6dbe 5b3f 3cbd ed6d 90bd
00000170: 75dd f0bd ba24 81bc 246b d3bd c728 2ebe
00000180: 6682 1d3e 6b9f 2bbc 5218 c9bd a69f 00bd
00000190: 4787 0a3e a86a f03d baf3 ecbc 036c 1d3e
000001a0: cfcd 13be 72eb a33c 25ac bbbd 97bb e4bc
000001b0: 72c6 dfbd 2286 9cbc 82a2 d9bc eea4 f73c
000001c0: 642f 223d f23e 57be cb04 ffbd 7d3d cdbc
000001d0: 8d26 29bd 5b3f ee3c 37f5 e93d 1d80 cb3c
000001e0: 72ae 95bc 8783 0d3e ff9f b0bd 1f69 31be
000001f0: 36b6 b23c 5f57 eb3d 1ec1 e1bc 35aa 0d3e
00000200: ece7 92bd f8a8 fbbb bef4 cb3c 6498 7fbd
00000210: 4667 f33d bd4d e23b 93c1 473d 7e07 b53d
00000220: 7722 a1bd ca6b a4bd 3b88 443b fbda 36be
00000230: 8161 1ebd 94a7 5ebc 4844 c0bd aacf 4cbd
00000240: 0931 133e dc2b e63d 1cda ac3d 8c98 143c
00000250: b679 0d3e e430 723c 7e16 4a3c 8d26 ea3d
00000260: 6d45 8d3d c30a f43d bac8 503d 625f 213e
00000270: 8ecd 12be f0c2 1dbe abd9 273d 176a 1bbd
00000280: 9e57 8d3d 9437 6c3d 3b21 febc 3379 093e
00000290: 9305 b93d 01da 403e c02d b93d a00b 093e
000002a0: 5122 ee3c e170 f7bd af53 b0bc 03d9 013d
000002b0: 0c4a cf3d 11a5 bb3d e4ae e8bc 2b13 b13d
000002c0: 565a 883d 45be 8d3c 513d 493d 019c a93d
000002d0: acea 503d d699 243d 4e22 d4bd 7347 263e
000002e0: f9f6 573e ce03 813c ead4 233d fbcd 52bd
000002f0: 01d0 11be 6401 df3b d969 31be 6bb8 a23c
00000300: 6f9d 8cbd 7b1b dabb 4fd6 d13c 05ea 9fbd
00000310: 06e5 f93c c94b cf3b 767d ed3c 23a1 773d
00000320: 6a76 e2bd cd44 063e e47e 323e 1095 f53d
00000330: 8ccd b5bd 86ea d6bd e2ff f4bc 92a7 4e3d
00000340: ff10 d33c be8d 603d 36bf 67bb 25d1 16bc
00000350: 7ed8 573d 6529 7e3d 36b9 0d3e 009d 233e
00000360: 11c0 5d3d 9461 b43c d172 833d 9d5e 2abc
00000370: b2e0 5f3c 2694 2dbd 60d2 8fbd eded e13d
00000380: 9e50 333d 1487 b13c 267a b0bd dd55 96bc
00000390: 0cbf 46bc 0d6b 4f3d a1a4 13be 88e7 01be
000003a0: 132a a23c 32c9 9b3c 20f0 2f3e c88c 3dbe
000003b0: c2c4 f4bc 6edd 01bd a4ec 113c edc8 11bb
000003c0: 2426 633d 3520 8c3c 75c6 72bc 0d87 333d
000003d0: db2e 653d 102a d9bd 43b5 493d a4c2 013e
000003e0: a961 77bc 71be 513d 9c4d 4d3d c4b8 2cbd
000003f0: 9f46 fe3c 670e a93c 4a63 14be 5a67 0cbd

bias f4 [64]
-0.047616534 -0.020801082 -0.05250077 0.043119047 -0.013739202 -0.014663043 -0.06015582 0.017640878
-0.019306049 -0.024394123 0.016094178 -0.038301308 0.08285754 -0.00909588 -0.0076542003 0.008094604
-0.07133357 0.0024728214 0.055386 0.006129167 -0.0011992863 0.0098124035 -0.03427014 -0.0008024229
-0.0050288746 -0.068381995 0.043749638 0.08475127 0.09130919 -0.03394859 0.016630664 0.020567147
-0.026791895 -0.007379392 -0.0017694024 0.014539747 -0.049822863 0.04273977 0.023061905 0.070701554
0.06621744 0.07385536 -0.011348504 0.012192842 0.026563905 0.017715078 -0.042644963 0.08560447
0.0327155 -0.052475046 -0.02655661 -0.037310958 0.008194254 0.005221106 0.008439603 -0.02702139
-0.026991706 0.11649561 0.015269585 -0.0020865037 0.024255428 0.013490331 -0.05647046 0.046333976
00000000: 8e09 43bd 0867 aabc 0c0b 57bd 999d 303d
00000010: 641a 61bc 433d 70bc f365 76bd 9a83 903c
00000020: b827 9ebc 2fd6 c7bc f0d7 833c d5e1 1cbd
00000030: 37b1 a93d e306 15bc 16d0 fabb 3b9f 043c
00000040: 5617 92bd 0f0f 223b 6edc 623d 2ed7 c83b
00000050: 5f31 9dba 34c4 203c d95e 0cbd b059 52ba
00000060: 42c9 a4bb dc0b 8cbd d232 333d 1392 ad3d
00000070: 5000 bb3d ad0d 0bbd 083d 883c 6f7c a83c
00000080: ad7a dbbc d4ce f1bb 4beb e7ba 1e38 6e3c
00000090: 0f13 4cbd e60f 2f3d 52ec bc3c facb 903d
000000a0: 029d 873d 7b41 973d 13ef 39bc 7cc4 473c
000000b0: 8c9c d93c 361f 913c 7cac 2ebd 6551 af3d
000000c0: b000 063d 13f0 56bd 3f8d d9bc 60d3 18bd
000000d0: 3141 063c d015 ab3b 4346 0a3c f65b ddbc
000000e0: b61d ddbc 4095 ee3d 482d 7a3c b9bd 08bb
000000f0: 52b3 c63c 8d06 5d3c 924d 67bd b2c8 3d3d

weight f4 [64, 64, 3, 3]
0.018724488 0.027605237 0.022649985 0.1240458 -0.008446765 -0.12485034 -0.047275607 0.068491384
0.029307652 -0.06613594 -0.14036398 0.022568904 -0.04894885 -0.035377912 -0.12764448 -0.0106076915
-0.006627833 0.15026428 0.06677763 -0.023892287 -0.10026212 -0.10178485 -0.12107033 0.025774205
0.12446332 0.0005099714 0.043579128 0.060287062 -0.036364127 -0.006419966 -0.062238827 0.029613864
-0.13043846 -0.0664311 -0.010448945 -0.08572112 0.21938471 0.089960575 -0.075865485 0.026935922
0.21109068 0.039166935 0.06886573 0.002513695 -0.015297508 0.068864815 0.014022078 -0.14951622
0.06551934 0.001322836 0.008884649 -0.1865457 -0.0022200067 -0.059888486 0.0820866 -0.009602066
-0.029303942 0.17331429 0.021897992 0.00026086555 -5.9376198e-05 0.055627 -0.009201533 -0.11541759
-0.16794154 -0.037609424 0.040625535 -0.067029744 0.0875805 0.02934532 0.10770776 0.037254684
-0.29513898 -0.115665965 -0.100898184 0.018714743 -0.059805803 -0.12527388 -0.04459969 -0.026259465
-0.104890816 -0.0064424253 0.037813984 -0.058087394 -0.068635315 -0.113710806 -0.07862546 -0.044705603
0.05356293 0.022580964 0.060576137 0.006364154 -0.13171503 0.07708715 0.00828438 0.057535145
-0.13081408 -0.025325315 0.11243817 0.06320689 -0.19436568 -0.06261196 0.11618025 0.0069836914
-0.025435966 -0.19225965 -0.02470198 0.0392253 0.30818114 -0.11952895 0.020080829 0.17557642
0.0049522426 0.009204136 -0.12654519 -0.10061403 -0.118417665 -0.05960735 -0.14425972 -0.07033276
0.023317732 -0.062525034 -0.03867325 0.08516513 -0.024996532 0.111583956 -0.06220205 -0.14754713
-0.040576003 -0.09586736 0.017226547 0.119329415 0.14379051 0.045929532 -0.017255662 -0.010351023
0.03966674 0.052103177 -0.0141678015 0.046790235 0.043215312 -0.032222923 -0.14016664 -0.02972823
0.022949927 0.05960239 0.027582524 -0.09457744 0.14468327 -0.017178442 0.06974381 0.14029685
-0.0955018 -0.07112565 -0.03168766 -0.049985934 -0.0041351155 0.0824787 -0.014254826 0.17556058
0.14043596 -0.05524464 0.089092486 -2.672293e-05 0.004131388 -0.09482653 -0.15221539 -0.12697594
0.14983243 0.088537976 0.037280984 0.014698959 -0.2596927 -0.021605186 0.058092944 -0.059710376
-0.122461006 0.07162768 0.05357137 0.10925492 -0.13693187 0.033432327 0.04647623 -0.20916387
-0.062360562 -0.0716378 -0.015273016 -0.112748995 0.08495604 -0.02554355 0.03262677 -0.006922748
-0.053226676 -0.014477803 0.14127955 0.007816628 -0.038889512 -0.045003895 -0.07502608 -0.14458904
-0.16218017 -0.03482593 0.07018406 0.02660329 -0.04904928 0.1308198 0.0054946677 -0.03999467
0.03814242 -0.036327127 -0.050772816 0.025320703 0.13850679 -0.002235769 -0.018787717 -0.014821586
0.1269985 0.022342036 0.09956722 -0.029425599 -0.023341522 0.0625596 -0.05216963 0.07756099
0.12276513 0.019615566 -0.108247496 -0.0111539485 -0.117791474 -0.060665313 -0.118186094 -0.05408446
0.031981606 -0.04701191 -0.064047284 -0.21809809 -0.25374678 -0.042736378 -0.10489914 0.073563546
0.03300476 0.05147042 0.07661239 0.16534258 0.14911331 0.033762675 -0.1854202 0.02269743
0.056871675 -0.06947882 -0.11605341 0.03889899 -0.083836675 0.08922097 -0.09877702 -0.10999552
00000000: 1964 993c 6124 e23c 768c b93c b90b fe3d
00000010: 4d64 0abc 89b1 ffbd 11a4 41bd 3645 8c3d
00000020: 9a16 f03c 4872 87bd 93bb 0fbe 6ce2 b83c
00000030: 977e 48bd 6ee8 10bd 3cb5 02be e2cb 2dbc
00000040: 4b2e d9bb e1de 193e b6c2 883d c2b9 c3bc
00000050: 3a56 cdbd 9374 d0bd b9f3 f7bd 6d24 d33c
00000060: a0e6 fe3d 9aaf 053a 0780 323d 91ef 763d
00000070: 8df2 14bd 945e d2bb 24ee 7ebd c698 f23c
00000080: a991 05be 070d 88bd 0d32 2bbc 8e8e afbd
00000090: 63a6 603e 403d b83d 5d5f 9bbd b9a8 dc3c
000000a0: 2828 583e 826d 203d 7a09 8d3d cebc 243b
000000b0: 66a2 7abc ff08 8d3d dcbc 653c c81a 19be
000000c0: 012f 863d 0363 ad3a eb90 113c d605 3fbe
000000d0: 887d 11bb a14d 75bd 051d a83d fc51 1dbc
000000e0: d20e f0bc 4d79 313e 6b63 b33c c8c4 8839
000000f0: b50a 79b8 23d9 633d 07c2 16bc 0f60 ecbd
00000100: def8 2bbe 570c 1abd f666 263d e446 89bd
00000110: 685d b33d 9965 f03c e395 dc3d 5e98 183d
00000120: 751c 97be 47e2 ecbd b5a3 cebd a94f 993c
00000130: eef6 74bd cc47 00be 2aae 36bd 171e d7bc
00000140: ffd0 d6bd fb1a d3bb d6e2 1a3d 0ced 6dbd
00000150: ac90 8cbd 36e1 e8bd 6306 a1bd 391d 37bd
00000160: ce64 5b3d b7fb b83c af1e 783d 658a d03b
00000170: 4ee0 06be dedf 9d3d 35bb 073c f9a9 6b3d
00000180: 20f4 05be 0977 cfbc fc45 e63d 9d72 813d
00000190: cc07 47be b33a 80bd e9ef ed3d 73d7 e43b
000001a0: 165f d0bc b7df 44be cf5b cabc b5aa 203d
000001b0: ebc9 9d3e 98cb f4bd 8d80 a43c 4eca 333e
000001c0: 6c46 a23b f2cc 163c 1095 01be bb0e cebd
000001d0: f684 f2bd d626 74bd d2b8 13be 9f0a 90bd
000001e0: d404 bf3c 200d 80bd d767 1ebd 0e6b ae3d
000001f0: 87c5 ccbc 2186 e43d 94c7 7ebd 9816 17be
00000200: 0633 26bd 1b56 c4bd b01e 8d3c fb62 f43d
00000210: d23d 133e 9b20 3c3d bf5b 8dbc 5697 29bc
00000220: 9779 223d 246a 553d 1120 68bc 1ea7 3f3d
00000230: 8a02 313d 2ffc 03bd d887 0fbe 9e88 f3bc
00000240: 7c01 bc3c a321 743d bff4 e13c d1b1 c1bd
00000250: da27 143e ceb9 8cbc d8d5 8e3d faa9 0f3e
00000260: 7396 c3bd 53aa 91bd ebca 01bd 0dbe 4cbd
00000270: dd7f 87bb 98ea a83d 138d 69bc 27c6 333e
00000280: 72ce 0f3e 3448 62bd 1f76 b63d 0e2b e0b7
00000290: 9860 873b 6934 c2bd 5ade 1bbe fb05 02be
000002a0: ac6d 193e 6653 b53d f2b3 183d e7d3 703c
000002b0: 71f6 84be 5cfd b0bc def2 6d3d de92 74bd
000002c0: d6cc fabd 88b1 923d a76d 5b3d 0bc1 df3d
000002d0: de37 0cbe 56f0 083d dc5d 3e3d 0e2f 56be
000002e0: ca6d 7fbd d7b6 92bd ac3b 7abc f2e8 e6bd
000002f0: 6ffd ad3d b540 d1bc a6a3 053d 38d8 e2bb
00000300: 3704 5abd 4f34 6dbc 96ab 103e 5011 003c
00000310: 9c4a 1fbd 0156 38bd 46a7 99bd 260f 14be
00000320: 8f12 26be a2a5 0ebd a9bc 8f3d 25ef d93c
00000330: e6e7 48bd a0f5 053e 9d0c b43b 73d1 23bd
00000340: 3a3b 1c3d c1cb 14bd 28f7 4fbd 5d6d cf3c
00000350: b9d4 0d3e fb85 12bb b3e8 99bc 3dd6 72bc
00000360: e50b 023e a506 b73c e6e9 cb3d f40d f1bc
00000370: b836 bfbc 3f1f 803d d2af 55bd 4cd8 9e3d
00000380: 496c fb3d d3b0 a03c ddb0 ddbd 0dbf 36bc
00000390: a83c f1bd 317c 78bd 8d0b f2bd ab87 5dbd
000003a0: 25ff 023d 8f8f 40bd 392b 83bd 1b55 5fbe
000003b0: 19eb 81be 570c 2fbd 5cd5 d6bd 7ca8 963d
000003c0: 0030 073d a6d2 523d f5e6 9c3d 914f 293e
000003d0: 29b1 183e bb4a 0a3d cbde 3dbe f6ef b93c
000003e0: 46f2 683d e94a 8ebd 69ad edbd 8c54 1f3d
000003f0: 90b2 abbd 7cb9 b63d 9b4b cabd 5545 e1bd

bias f4 [64]
0.07157669 -0.0544567 0.11045321 0.013302243 0.0041070255 0.06133846 0.08651907 -0.070026875
0.03436413 -0.041693952 0.018929292 0.01698275 -0.022326063 0.025748162 0.11421074 0.07945788
-0.035632484 0.06135906 -0.024486043 0.038073406 -0.014418393 0.096965514 0.07830011 0.05956081
-0.068525024 -0.0071321963 -0.06431174 0.05707073 0.0014930423 0.058317594 0.09515432 0.04723923
-0.0028315778 0.07234519 0.098889016 0.0035994044 0.10311601 0.02504583 0.012883303 -0.063253805
-0.023373289 0.045837488 -0.031050742 0.08851897 0.009518003 0.08510073 -0.0056188432 -0.004209328
0.021418747 0.037270833 0.05615731 0.06281875 -0.0770342 -0.014009998 0.05160568 -0.035005488
0.027313316 -0.039612647 0.055070136 -0.044373896 -0.024784626 -0.061645325 -0.079412624 -0.020544797
00000000: cd96 923d fd0d 5fbd 4b35 e23d a7f1 593c
00000010: 3a94 863b 093e 7b3d e930 b13d 406a 8fbd
00000020: 67c1 0c3d 47c7 2abd 9a11 9b3c 681f 8b3c
00000030: 26e5 b6bc cfed d23c 52e7 e93d d0ba a23d
00000040: 5ef3 11bd a353 7b3d f496 c8bc dcf2 1b3d
00000050: 203b 6cbc db95 c63d cf5b a03d 09f6 733d
00000060: d956 8cbd 33b5 e9bb e0b5 83bd ffc2 693d
00000070: 30b2 c33a 6ede 6e3d 45e0 c23d ec7d 413d
00000080: fe91 39bb b729 943d 5386 ca3d fce3 6b3b
00000090: 7d2e d33d ea2c cd3c 7d14 533c 368b 81bd
000000a0: 5779 bfbc 17c0 3b3d 205e febc 6f49 b53d
000000b0: 66f1 1b3c 4b49 ae3d 461e b8bb 67ee 89bb
000000c0: 5e76 af3c 4da9 183d 3505 663d 1ea7 803d
000000d0: 1bc4 9dbd 318a 65bc 7a60 533d ea61 0fbd
000000e0: 2dc0 df3c df40 22bd 3991 613d 67c1 35bd
000000f0: 2109 cbbc cf7f 7cbd 16a3 a2bd 904d a8bc

weight f4 [32, 1024]
0.116402544 0.12125066 -0.111333854 -0.028045649 -0.123945005 0.018375596 -0.031022254 0.08579296
0.052049793 -0.057254743 0.0720566 0.1983355 -0.08504081 -0.03345772 -0.044757318 0.006994019
0.19105616 0.060173314 0.028943008 0.11062211 -0.049370043 -0.031826634 0.0112091955 0.0060280007
-0.054557834 -0.024396652 -0.08295362 -0.047915623 0.06998821 -0.019342905 0.008148357 -0.011265884
0.07668525 0.005430269 0.060947146 -0.07965067 -0.02863146 -0.090739824 0.10199953 0.070907995
-0.0002863422 0.09224707 -0.07963742 0.012348621 -0.025772616 -0.04725873 0.0070327725 -0.09530569
0.032399327 0.06460693 -0.041154504 -0.010121189 0.06447323 0.12001827 0.07426911 0.004517967
-0.039379913 0.009742239 0.121230826 0.09183168 0.058990784 0.041816354 0.046850767 0.0713812
-0.046437707 -0.071279444 0.005557893 -0.04676772 0.09710367 -0.04640757 -0.024451049 0.15578349
0.055710144 0.006620271 0.0050985464 0.062073138 -0.013135312 -0.08789175 0.03773237 -0.042533968
-0.01733104 0.016031962 -0.00745662 0.047724813 -0.023689974 0.052036025 -0.14466725 -0.04372301
0.05297693 0.14437303 0.03869763 0.046599936 0.044178743 0.06059774 0.018469952 -0.18741319
-0.15830314 0.06891757 0.02120933 0.08282388 -0.038865697 -0.03514038 -0.023968171 -0.11845845
0.010889361 -0.0031436526 0.033556506 -0.10556947 -0.029471379 -0.033758257 -0.11434236 0.046528768
0.07305499 0.2068235 0.06567417 0.041659534 0.01744403 0.13634126 -0.07749759 -0.2018794
0.018911134 0.00524357 0.036596958 -0.013666977 0.0060578487 0.043778896 0.024383033 0.042599283
0.047376182 0.011717094 0.03652786 0.052089367 -0.030024031 -0.02940498 0.10047901 0.0030998667
0.07791471 0.0007827774 0.07212989 0.016117113 0.14757079 0.05040664 -0.051230907 0.06544538
0.013308958 -0.11706011 -0.10492126 -0.14159039 0.11013108 0.11417746 0.03723708 0.0989371
0.10911721 0.00091210677 0.110134155 0.010919344 0.07612556 0.058104016 -0.031629708 -0.036582924
-0.00921101 0.05291396 -0.0071057887 0.01417834 -0.045983877 0.001827205 0.11768843 0.083327435
0.10006836 -0.004705397 0.003145429 -0.04940284 0.10534009 0.13979839 0.10525987 -0.06235985
0.0024382556 -0.03408113 0.03199137 0.011953721 0.0059972918 -0.02238495 0.07215451 0.03074818
0.048048608 0.07499191 0.0516091 -0.006821551 0.054310642 0.1647431 0.090822965 0.029400429
0.2240514 0.08735446 -0.037624277 0.08412621 -0.08099645 0.027510699 0.009299273 0.12225084
-0.0128315175 -0.077384 0.07114601 -0.021834832 0.028000245 -0.027835907 0.03986298 0.062492922
0.00899585 -0.056801837 -0.03796072 -0.07946614 0.12908033 0.050551455 0.063297786 -0.03739516
-0.06763698 0.012595744 0.060788482 0.060596447 -0.033085074 0.101172306 0.033215895 -0.051930558
0.00829823 -0.04409025 0.1017923 0.062190443 -0.033662677 0.007754541 0.07997966 0.02906379
0.0017080422 -0.029731227 0.0049541183 -0.085812606 -0.14877725 -0.05847126 -0.055994615 -0.09168772
0.016689435 0.06047388 -0.00533591 0.037996188 0.008414016 0.0341793 0.010893746 0.05593439
0.00060100376 0.07312549 0.0423575 -0.047263738 0.09656888 0.010281924 -0.02550866 0.043816395
00000000: 7564 ee3d 4452 f83d 0103 e4bd fdbf e5bc
00000010: e1d6 fdbd 6b88 963c 6222 febc 38b4 af3d
00000020: 2a32 553d f383 6abd 6992 933d 7618 4b3e
00000030: e029 aebd f60a 09bd 7353 37bd 152e e53b
00000040: 3aa4 433e 4b78 763d e319 ed3c d88d e23d
00000050: 3e38 4abd a55c 02bd c6a6 373c 8986 c53b
00000060: 0978 5fbd 7ddb c7bc 96e3 a9bd 2c43 44bd
00000070: fb55 8f3d 0375 9ebc b080 053c 8b94 38bc
00000080: 280d 9d3d 66f0 b13b b7a3 793d e41f a3bd
00000090: 868c eabc cdd5 b9bd 21e5 d03d 3638 913d
000000a0: 3320 96b9 08ec bc3d f218 a3bd df51 4a3c
000000b0: 1821 d3bc 5f92 41bd 2c73 e63b a12f c3bd
000000c0: 28b5 043d a350 843d a091 28bd 58d3 25bc
000000d0: 8a0a 843d 24cc f53d 671a 983d 740b 943b
000000e0: d54c 21bd e99d 1f3c de47 f83d 3f12 bc3d
000000f0: 52a0 713d a047 2b3d 97e6 3f3d 4e30 923d
00000100: 7735 3ebd f5fa 91bd fc1e b63b 828f 3fbd
00000110: 4ade c63d dd15 3ebd 914d c8bc b585 1f3e
00000120: 5230 643d dcee d83b b511 a73b 6740 7e3d
00000130: 7e35 57bc 9700 b4bd 428d 1a3d 1938 2ebd
00000140: d3f9 8dbc 7655 833c aa56 f4bb 187b 433d
00000150: 7a11 c2bc ba23 553d a723 14be e616 33bd
00000160: 56fe 583d 86d6 133e 6881 1e3d 93df 3e3d
00000170: c5f4 343d 5635 783d 4c4e 973c 3ee9 3fbe
00000180: 381a 22be a824 8d3d 30bf ad3c 919f a93d
00000190: a331 1fbd 5cef 0fbd e658 c4bc 589a f2bd
000001a0: 4a69 323c bd05 4ebb 8c72 093d ce34 d8bd
000001b0: f66d f1bc 1946 0abd 542c eabd f394 3e3d
000001c0: db9d 953d 8ac9 533e 2e80 863d 30a3 2a3d
000001d0: c8e6 8e3c 0b9d 0b3e 0eb7 9ebd 79b9 4ebe
000001e0: 86eb 9a3c 41d2 ab3b b1e6 153d 75eb 5fbc
000001f0: eb80 c63b 8051 333d edbe c73c 967c 2e3d
00000200: 870d 423d 0ef9 3f3c 3d9e 153d a95b 553d
00000210: f5f4 f5bc b6e2 f0bc f0c7 cd3d 2227 4b3b
00000220: bf91 9f3d 4d33 4d3a d6b8 933d 0908 843c
00000230: cc1c 173e 3177 4e3d 80d7 51bd 3a08 863d
00000240: d10d 5a3c 36bd efbd f5e0 d6bd 12fd 10be
00000250: 678c e13d dfd5 e93d e985 183d 899f ca3d
00000260: d878 df3d 731a 6f3a 048e e13d 0ce7 323c
00000270: b8e7 9b3d 7afe 6d3d 278e 01bd fad7 15bd
00000280: c7e9 16bc 4fbc 583d add7 e8bb 454c 683c
00000290: 9759 3cbd d37e ef3a a206 f13d 93a7 aa3d
000002a0: a4f0 cc3d bb2f 9abb 8b23 4e3b a25a 4abd
000002b0: 8cbc d73d 4f27 0f3e 7d92 d73d 0b6d 7fbd
000002c0: 24cb 1f3b a898 0bbd 6209 033d 8ad9 433c
000002d0: ee84 c43b a560 b7bc bec5 933d 9be3 fb3c
000002e0: 9ece 443d 5c95 993d 1064 533d 5187 dfbb
000002f0: d674 5e3d 6ab2 283e 6401 ba3d 2bd9 f03c
00000300: bb6d 653e e5e6 b23d ea1b 1abd 5d4a ac3d
00000310: 77e1 a5bd 1e5e e13c fa5b 183c a65e fa3d
00000320: 493b 52bc 817b 9ebd 00b5 913d f6de b2bc
00000330: c560 e53c 2108 e4bc 5d47 233d 94f8 7f3d
00000340: 5463 133c 0ba9 68bd b37c 1bbd 25bf a2bd
00000350: a22d 043e 0b0f 4f3d 45a2 813d ab2b 19bd
00000360: 4285 8abd 615e 4e3c 58fd 783d fb33 783d
00000370: 3784 07bd 6d33 cf3d 640d 083d 23b5 54bd
00000380: 4df5 073c fa97 34bd 7b78 d03d 68bb 7e3d
00000390: e0e1 09bd ce19 fe3b 60cc a33d 2f17 ee3c
000003a0: 63e0 df3a e78e f3bc 2856 a23b 85be afbd
000003b0: 1059 18be 8f7f 6fbd 9c5a 65bd c5c6 bbbd
000003c0: 48b8 883c 76b3 773d dbd8 aebb e4a1 1b3d
000003d0: f1da 093c 98ff 0b3d af7b 323c 751b 653d
000003e0: ae8c 1d3a d1c2 953d 0f7f 2d3d 9f97 41bd
000003f0: e8c5 c53d 8475 283c 8af7 d0bc d278 333d

bias f4 [32]
-0.058817327 0.045223106 0.11486082 -0.07316097 0.14030652 0.054557066 0.05813116 -0.0651183
0.12689605 -0.025563426 0.10437559 0.18527107 0.002328828 -0.019341284 0.04805126 0.0025002037
-0.027264494 0.046941515 0.080614306 -0.03255337 0.13741916 0.10611245 0.026306568 0.07138023
0.13641518 0.099676594 -0.058244262 -0.05250863 0.052147407 0.10213234 0.03008866 -0.024529072
00000000: 70ea 70bd dd3b 393d 263c eb3d 6bd5 95bd
00000010: 83ac 0f3e 3b77 5f3d f01a 6e3d be5c 85bd
00000020: 0af1 013e 646a d1bc dfc2 d53d b3b7 3d3e
00000030: 409f 183b 9d71 9ebc 66d1 443d 75da 233b
00000040: ca59 dfbc bf45 403d 1d19 a53d af56 05bd
00000050: 9cb7 0c3e 7c51 d93d df80 d73c cc2f 923d
00000060: 6cb0 0b3e 3e23 cc3d 8991 6ebd 4a13 57bd
00000070: 8598 553d c32a d13d 7e7c f63c 31f1 c8bc

weight f4 [15, 32]
-0.062413666 -0.14009023 -0.10340158 -0.26499307 -0.06815942 -0.20326991 -0.040278774 0.06910686
0.0036147817 0.062012665 -0.17866533 -0.034435675 0.26136705 -0.016842239 -0.116999045 0.112690456
0.16458227 0.082889974 -0.012786323 -0.0032267794 -0.07191635 0.033573788 0.20253682 -0.38147312
-0.10859022 0.15719472 0.04078839 -0.022832721 0.036707487 0.06717542 -0.09854811 0.19487903
-0.028044634 -0.07601145 -0.0052692397 0.08698811 0.1236664 -0.04947326 0.010137856 -0.042779732
0.0044935998 -0.0045398725 -0.052303806 -0.053736866 0.056081224 -0.012142528 -0.02264679 -0.07930679
-0.007986097 -0.06846309 0.06930004 -0.14603642 -0.03440527 -0.16424565 -0.058818884 -0.060822718
-0.049418602 -0.015498119 -0.006106834 0.07847158 -0.022718353 0.12552078 -0.01829867 -0.117974244
0.22099444 0.11266613 -0.15390806 0.22961962 0.062843435 -0.17552415 0.03667501 -0.010765757
-0.23208246 0.22236861 0.1520933 -0.01600896 -0.28786862 0.02111165 0.08428376 -0.10520133
-0.007975345 0.07923595 -0.1905064 0.09289483 0.03653661 0.11431168 0.37021524 0.10761883
0.10160588 -0.11512241 0.26115286 0.3260781 -0.0773847 -0.20939828 0.0026686299 0.15138672
0.26787183 -0.15528776 -0.043217737 -0.28699142 -0.19488864 -0.17513151 -0.13152859 0.046177875
0.1287439 -0.27195057 -0.25514504 0.03998535 0.26554558 -0.00069173874 -0.10334151 0.14233626
0.19128895 -0.12878813 0.034702774 0.05623237 -0.04671341 -0.18763776 0.014604212 -0.26426792
-0.21191444 0.12427599 0.12065324 -0.0915307 -0.15475866 0.20640834 -0.077148385 0.044579856
-0.040529016 0.0058773546 -0.122904085 -0.048225984 -0.07909659 -0.12217731 -0.0119532775 0.011714051
-0.042030834 -0.088527925 -0.0010287662 -0.037620794 -0.10688173 -0.015185982 -0.015876321 -0.096727245
-0.03564359 -0.11314342 -0.11599728 -0.06412999 -0.035463344 -0.023071561 -0.00436919 0.024247654
-0.049317192 0.012778868 0.076465935 -0.06756646 -0.032188926 -0.07336138 -0.019613389 -0.01027197
0.17462923 -0.022206988 0.083866656 0.22070459 -0.07925674 0.09849219 -0.13926794 -0.06418366
-0.25290257 0.13541393 0.035871852 -0.0069601275 -0.065173015 0.005302964 0.027405236 -0.12604418
-0.26573908 -0.043192636 -0.018919785 -0.11949202 0.012406316 -0.05060452 0.04949605 0.113410175
-0.06967022 -0.19697076 0.1748631 0.34138697 0.045722503 -0.28198636 -0.10613507 -0.10090443
-0.050621383 -0.21481672 0.06189854 0.07020773 -0.052417096 -0.10746302 -0.09299156 -0.21048713
0.050427146 -0.00084517087 -0.2023102 -0.03456322 0.12764014 -0.020551305 -0.1750869 -0.042152207
0.11387193 -0.13202874 -0.027296426 -0.023801422 -0.060884863 -0.13986339 -0.22482544 -0.25165242
-0.3119372 -0.030177973 -0.0032327746 0.11074902 -0.09812405 0.022446888 -0.1535563 -0.037607994
0.05666965 -0.09559342 -0.0063735554 -0.042971347 -0.06631109 0.0825222 -0.018802276 -0.087644994
0.008244539 -0.073153995 -0.090902954 -0.060916033 -0.014704354 -0.012129849 -0.12873565 -0.11349781
-0.009394879 -0.063567385 -0.06387637 0.026900684 -0.06005558 -0.08244702 -0.10818642 -0.05419344
-0.0071045957 -0.15051648 0.104601726 0.0605086 -0.10051856 -0.037093747 -0.06552886 -0.117995225
00000000: 79a5 7fbd d073 0fbe 35c4 d3bd 2cad 87be
00000010: 2a97 8bbd fd25 50be 5bfb 24bd e687 8d3d
00000020: f9e5 6c3b fe00 7e3d 0bf4 36be 6c0c 0dbd
00000030: e7d1 853e bcf8 89bc 329d efbd 41ca e63d
00000040: 4188 283e 38c2 a93d ba7d 51bc 6078 53bb
00000050: e148 93bd ab84 093d d065 4f3e 7250 c3be
00000060: 8d64 debd a7f7 203e ba11 273d b00b bbbc
00000070: 975a 163d 4493 893d 97d3 c9bd 5e8e 473e
00000080: dcbd e5bc e4ab 9bbd 96a9 acbb d226 b23d
00000090: cf44 fd3d 79a4 4abd 4019 263c cd39 2fbd
000000a0: 0c3f 933b 36c3 94bb 843c 56bd 301b 5cbd
000000b0: 6db5 653d 74f1 46bc c385 b9bc 996b a2bd
000000c0: 1ed8 02bc 6036 8cbd 2eed 8d3d 928a 15be
000000d0: 8aec 0cbd 0330 28be 12ec 70bd 3e21 79bd
000000e0: 296b 4abd d3eb 7dbc d61b c8bb b5b5 a03d
000000f0: d71b babc 8588 003e 18e7 95bc 7b9c f1bd
00000100: 5e4c 623e 80bd e63d 139a 1dbe 6821 6b3e
00000110: 0fb4 803d 9abc 33be 8938 163d dc62 30bc
00000120: 06a7 6dbe 99b4 633e 59be 1b3e 3925 83bc
00000130: 8463 93be 57f2 ac3c f79c ac3d cb73 d7bd
00000140: 05ab 02bc 7546 a23d 1c14 43be a53f be3d
00000150: 6aa7 153d 3e1c ea3d da8c bd3e 4367 dc3d
00000160: be16 d03d 4cc5 ebbd d4b5 853e b5f3 a63e
00000170: df7b 9ebd 816c 56be 2ee4 2e3b 1f05 1b3e
00000180: 7f26 893e c103 1fbe 1505 31bd 8af0 92be
00000190: e390 47be ad55 33be 6eaf 06be 0325 3d3d
000001a0: 71d5 033e 1b3d 8bbe 5fa2 82be aec7 233d
000001b0: 97f5 873e cd55 35ba b7a4 d3bd 99c0 113e
000001c0: 40e1 433e 09e1 03be 7f24 0e3d ea53 663d
000001d0: 9056 3fbd 1d24 40be 8146 6f3c 204e 87be
000001e0: 1900 59be 6984 fe3d 0c19 f73d 7374 bbbd
000001f0: 0e79 1ebe b55c 533e f9ff 9dbd 5e99 363d
00000200: c101 26bd d396 c03b 23b5 fbbd 9c88 45bd
00000210: 65fd a1bd 1938 fabd aed7 43bc 4aec 3f3c
00000220: 8628 2cbd 214e b5bd aad7 86ba 4318 1abd
00000230: cfe4 dabd a0ce 78bc 0f0f 82bc ef18 c6bd
00000240: 03ff 11bd bdb7 e7bd fb8f edbd 9656 83bd
00000250: 0342 11bd 9200 bdbc 6c2b 8fbb 04a3 c63c
00000260: d300 4abd 755e 513c 2c9a 9c3d 4960 8abd
00000270: 89d8 03bd 7e3e 96bd 42ac a0bc c44b 28bc
00000280: 01d2 323e 6eeb b5bc 48c2 ab3d 6200 623e
00000290: 5c51 a2bd 46b6 c93d 419c 0ebe b972 83bd
000002a0: 727c 81be f3a9 0a3e 5dee 123d c811 e4bb
000002b0: 6e79 85bd 7cc4 ad3b f280 e03c ba11 01be
000002c0: f40e 88be c3ea 30bd aafd 9abc 3bb8 f4bd
000002d0: dc43 4b3c af46 4fbd 5fbc 4a3d 9843 e83d
000002e0: 43af 8ebd b4b2 49be 500f 333e 46ca ae3e
000002f0: 8547 3b3d 8460 90be 585d d9bd fba6 cebd
00000300: 5e58 4fbd eaf8 5bbe 5389 7d3d 12c9 8f3d
00000310: 4fb3 56bd 9215 dcbd 5c72 bebd f089 57be
00000320: b28c 4e3d 758e 5dba 682a 4fbe 2a92 0dbd
00000330: 19b4 023e 365b a8bc fb49 33be cba7 2cbd
00000340: b035 e93d 8b32 07be c19c dfbc 33fb c2bc
00000350: 6862 79bd 5938 0fbe a438 66be 96d8 80be
00000360: 3cb6 9fbe cc37 f7bc f5dc 53bb 62d0 e23d
00000370: 43f5 c8bd 89e2 b73c dd3d 1dbe d70a 1abd
00000380: 6f1e 683d 7cc6 c3bd 42d9 d0bb b902 30bd
00000390: 1cce 87bd 6601 a93d 3b07 9abc 387f b3bd
000003a0: 1a14 073c c3d1 95bd 542b babd 1783 79bd
000003b0: 88ea 70bc 46bc 46bc 47d3 03be 8a71 e8bd
000003c0: fbec 19bc 9e2f 82bd 9dd1 82bd d35e dc3c
000003d0: d7fc 75bd fcd9 a8bd d790 ddbd f1f9 5dbd
000003e0: abcd e8bb fe20 1abe 6e39 d63d ded7 773d
000003f0: addc cdbd 9def 17bd ff33 86bd 7ba7 f1bd

bias f4 [15]
0.05833695 -0.0080941515 -0.0012955231 0.018632505 -0.04092193 0.0069424994 -0.03829626 -0.046877574
-0.04916571 0.008993876 -0.005328102 0.02239942 0.033246744 0.04252253 0.034121107
00000000: baf2 6e3d 559d 04bc 8bce a9ba 32a3 983c
00000010: c19d 27bd e87d e33b 8adc 1cbd b302 40bd
00000020: fc61 49bd 0d5b 133c 5c97 aebb fd7e b73c
00000030: bd2d 083d 1b2c 2e3d 93c2 0b3d

weight f4 [1, 32]
-0.025500229 -0.00088857254 0.021737285 -0.035136797 0.06823816 0.047487766 0.07762453 -0.01577582
0.08896743 -0.01830807 0.030748563 0.13008046 -0.0124706775 -0.24560173 0.009173036 0.0015095288
-0.08191947 0.004633732 0.097946845 -0.008143337 0.042723496 0.023907518 -0.010679243 0.018915065
0.063071854 0.014944005 -0.012084609 0.011311076 0.09092425 0.063269086 -0.021332463 0.0023164942
00000000: dbe5 d0bc 18ef 68ba 6412 b23c 9aeb 0fbd
00000010: 73c0 8b3d 8882 423d 9cf9 9e3d 4b3c 81bc
00000020: 8e34 b63d cefa 95bc 69e4 fb3c d033 053e
00000030: d051 4cbc 057f 7bbe 804a 163c 62db c53a
00000040: 65c5 a7bd 90d6 973b 5b98 c83d a26b 05bc
00000050: d5fe 2e3d b3d9 c33c fef7 2ebc c4f3 9a3c
00000060: d12b 813d b3d7 743c 86fe 45bc 1752 393c
00000070: 7e36 ba3d 3993 813d 6bc1 aebc 53d0 173b
