results_final/generalization/40levels-policy.pt (torch, 443935 bytes, 11 tensors)

weight f4 [32, 3, 8, 8]
0	0xbea36a3d	-0.3191699
1	0x3da65ae5	0.081228055
2	0x3e81b00c	0.25329626
3	0xbd8b3bbc	-0.06798503
4	0xbab01dc2	-0.0013436603
5	0x3d50d8bb	0.05098794
6	0x3e220a01	0.15824129
7	0xbd4d8fa0	-0.0501858
8	0xbe43be4b	-0.1911556
9	0xbe052c13	-0.13005094
10	0xbc9ecdd9	-0.019385265
11	0xbe8461a9	-0.2585576
12	0xbcdc6f3e	-0.026908513
13	0x3e09b3ea	0.13447538
14	0xbd88b4f9	-0.06675143
15	0xbc8cdef9	-0.017196165
16	0x3c6c23cb	0.014412831
17	0xbc3afc11	-0.011412636
18	0x3e087086	0.13324174
19	0xbe1b6575	-0.15175422
20	0xbe4dd850	-0.20102048
21	0xbd125489	-0.03572515
22	0xbe303a55	-0.17209752
23	0xbda25177	-0.079256944
24	0x3e34d99b	0.17661135
25	0x3e5e32b3	0.21699028
26	0x3e2751b8	0.16339767
27	0xbe154eb2	-0.14580801
28	0x3c9dd3c3	0.019266015
29	0xbe0fd2b9	-0.14045228
30	0xbe7a363c	-0.24434751
31	0xbe3476ce	-0.17623445
32	0xbe07b536	-0.1325272
33	0xbe27a3b2	-0.16371039
34	0x3ce1815a	0.0275275
35	0x3e0e2cdd	0.13884301
36	0x3d9381f0	0.07202518
37	0x3b9c2c79	0.0047660437
38	0x3e414b67	0.1887642
39	0x3e49cb37	0.19706427
40	0x3d3b4412	0.045719214
41	0xbe250311	-0.16114451
42	0x3d24811c	0.04016219
43	0x3d84c05d	0.06482003
44	0xbad48cfe	-0.0016216335
45	0xbe0b7e11	-0.1362231
46	0xbd9adeb8	-0.075620115
47	0x3dfc185f	0.12309336
48	0x3e28df78	0.16491497
49	0xbddeb9e6	-0.10875301
50	0xbdc43393	-0.095801495
51	0x3e6061b1	0.21912266
52	0x3e300551	0.17189528
53	0xbe49a5a0	-0.19692087
54	0xbd562092	-0.052277155
55	0x3dec58d9	0.11540384
56	0xbe320aa1	-0.17386867
57	0xbd920eff	-0.071317665
58	0x3e46fd68	0.19432604
59	0x3e54af6b	0.20770042
60	0x3ea20d3e	0.31650728
61	0x3dd1a42a	0.1023639
62	0xbddeebca	-0.10884817
63	0x3dd002a4	0.10156754
64	0xbe2cae22	-0.16863301
65	0x3df370ab	0.11886724
66	0x3dba776c	0.09104809
67	0x3d67d6cb	0.056601327
68	0xbe0b311f	-0.13592957
69	0x3e9538d6	0.29144925
70	0xbd8bfcc8	-0.068353236
71	0xbd22b441	-0.039722685
72	0xbe4d9ecf	-0.20080112
73	0xbe1a8dae	-0.15093109
74	0xbd88d6da	-0.06681605
75	0x3c33f7cd	0.010984373
76	0xbcae8f50	-0.021308571
77	0x3dd1c82c	0.10243258
78	0x3d186e59	0.03721461
79	0x3dc910ac	0.09817633
80	0x3e2b56b6	0.16732296
81	0x3d921b97	0.071341686
82	0x3d8c627f	0.06854724
83	0xbd899d76	-0.067194864
84	0xbe242660	-0.16030264
85	0xbd3600d6	-0.04443439
86	0xbe72455a	-0.23659268
87	0xbdf02e9b	-0.11727639
88	0x3e668c0c	0.22514361
89	0x3d66d182	0.056352146
90	0x3e8faa78	0.28059745
91	0xbde68702	-0.112562194
92	0xbc79574d	-0.015218568
93	0xbdfdd9b0	-0.12395036
94	0xbe11f990	-0.14255357
95	0xbe10872c	-0.14114064
96	0xbda89678	-0.08231825
97	0xbe0cc95e	-0.1374869
98	0xbd808dc6	-0.06277041
99	0xbd94e856	-0.07270877
100	0xbdc0f714	-0.094221264
101	0xbd3654f9	-0.04451463
102	0x3b86473e	0.004097848
103	0xbc1976d7	-0.0093667125
104	0x3cf3afe0	0.02974695
105	0xbda1dd17	-0.07903498
106	0xbe107e8f	-0.14110778
107	0x3e0a4348	0.13502228
108	0xbb48b77e	-0.0030626948
109	0xbe96a489	-0.29422405
110	0xbe5612d2	-0.20905617
111	0x3e17097f	0.14749716
112	0x3d96c50a	0.07361801
113	0xbe0d5037	-0.13800131
114	0xbbe955e1	-0.0071208333
115	0x3e11bc83	0.14232068
116	0x3eb271cc	0.34852445
117	0xbd00bc81	-0.03142977
118	0x3da61c33	0.08110847
119	0xbce07394	-0.027398862
120	0x3c749af9	0.0149295265
121	0x3d5edea6	0.054411553
122	0xbc74f350	-0.014950588
123	0x3d501fea	0.050811686
124	0x3bdb0b33	0.0066846847
125	0xbdb97fa4	-0.09057549
126	0x3e3d3be7	0.18479882
127	0x3d8c1495	0.06839863
128	0xbd9c450f	-0.076303594
129	0x3d2457c3	0.04012276
130	0xbdca0d46	-0.09865813
131	0xbe95873c	-0.29204738
132	0xbdac37df	-0.08409094
133	0x3d62b8b0	0.055351913
134	0xbd0254ed	-0.031819273
135	0xbe75f512	-0.24019268
136	0x3db20849	0.086929865
137	0x3d516b10	0.051127493
138	0x3c40e40e	0.0117731225
139	0xbd428681	-0.047491554
140	0xbd00a864	-0.03141059
141	0xbe7b2698	-0.24526441
142	0xbe41fc86	-0.18943986
143	0x3e02dde0	0.12779951
144	0x3dd5ef0a	0.10445984
145	0x3e5752be	0.21027657
146	0xbe5c2a55	-0.21500523
147	0xbdf845a8	-0.12122661
148	0x3dd0ab29	0.10188896
149	0xbd8f5643	-0.06998875
150	0xbdf2a3e7	-0.11847668
151	0xbe418a31	-0.18900372
152	0xbca37707	-0.019954218
153	0xbd3276b6	-0.043570243
154	0xbdb713e0	-0.08939338
155	0xbdf55c4b	-0.11980494
156	0x3d0ec1bd	0.034852732
157	0x3d1cbf19	0.038268182
158	0xbdc1e653	-0.09467759
159	0x3e564443	0.20924477
160	0xbd67afb3	-0.056564044
161	0xbbd78870	-0.006577544
162	0xbbf7b925	-0.0075599127
163	0xbca55277	-0.020180924
164	0xbdaba9dc	-0.083820075
165	0xbddf76b1	-0.109113105
166	0x3da1e0e8	0.079042256
167	0x3e92460a	0.2856906
168	0xbc6245ef	-0.013810619
169	0x3d6e2fcf	0.058151063
170	0xbdee9824	-0.11650112
171	0xbe331ecb	-0.17492215
172	0xbee6a51a	-0.45047837
173	0xbe9cdf19	-0.3063896
174	0xbd009f37	-0.03140184
175	0x3d8f92a2	0.0701039
176	0xbe22bba6	-0.15891895
177	0xbb6aeef3	-0.0035847991
178	0xbe54d438	-0.2078408
179	0xbe866742	-0.26250654
180	0xbe988fa3	-0.29797086
181	0xbd2d5837	-0.042320456
182	0xbe5ba83f	-0.214509
183	0xbd7741ee	-0.06036561
184	0x3d1b4010	0.03790289
185	0xbdc75f93	-0.09735026
186	0xbe045dd8	-0.12926424
187	0xbe89bfcd	-0.26904145
188	0x3cdc8ffa	0.026924122
189	0xbdf9734d	-0.12180195
190	0xbe1d65d7	-0.1537088
191	0xbe6037f3	-0.21896343
192	0x3d8a1a25	0.06743268
193	0xbda56ac7	-0.08077007
194	0xbc6595b4	-0.014012743
195	0x3d4a41e7	0.049379256
196	0x3d0e369e	0.034720056
197	0xbe83af23	-0.25719556
198	0xbe19a1de	-0.15003154
199	0xbe8173e5	-0.25283733
200	0xbe3bc5af	-0.18337129
201	0xbe0e5402	-0.13899234
202	0xbe0c8ae6	-0.1372486
203	0xbc3961cd	-0.011314821
204	0xbe45ce8d	-0.19317074
205	0x3cd1ecd8	0.025625631
206	0x3d7da429	0.061924133
207	0x3da42642	0.080151096
208	0xbd395724	-0.04524912
209	0x3da3dfbe	0.0800166
210	0xbd980059	-0.07421941
211	0x3d5743a0	0.052554727
212	0xbe91aeb8	-0.28453612
213	0x3d61cd43	0.055127393
214	0x3e24df27	0.16100751
215	0xbc2f9b1b	-0.010718132
216	0xbdc50c7c	-0.09621522
217	0xbdef3f3a	-0.116819814
218	0xbe6751fe	-0.22589871
219	0xbe1a0a4b	-0.15042989
220	0x3e1a71c7	0.15082465
221	0xbd6a660a	-0.05722622
222	0xbd946dc9	-0.07247502
223	0xbe3d2cd7	-0.18474136
224	0xbd71c18b	-0.059022468
225	0xbd4438f0	-0.047905862
226	0x3e51f2f5	0.20502837
227	0xbe2b1bfa	-0.16709891
228	0xbb1f1ea1	-0.002427973
229	0x3e1e3f77	0.15453897
230	0x3c456322	0.012047561
231	0x3dd366ad	0.10322318
232	0x3d6c97a3	0.0577618
233	0xbd098a2c	-0.033579037
234	0xbd385057	-0.044998493
235	0xbc7695c6	-0.015050357
236	0x3d8fc608	0.07020193
237	0x3d897847	0.06712394
238	0x3d534126	0.051575802
239	0x3c07e41d	0.008294133
240	0xbd67a80c	-0.056556746
241	0x3cc8f67e	0.0245316
242	0xbd423518	-0.047413915
243	0x3d8ca7d5	0.06867949
244	0xbdfe9de4	-0.12432459
245	0xbe7c64fb	-0.24647896
246	0xbd60a1b3	-0.05484171
247	0xbd09d915	-0.03365429
248	0x3e255771	0.16146637
249	0xbe0be51d	-0.13661619
250	0xbeddebf4	-0.4334408
251	0xbea26694	-0.31718886
252	0xbef1cf71	-0.47228578
253	0xbe810d27	-0.25205347
254	0xbe44211e	-0.19153258
255	0xbefb1a0b	-0.49043307

bias f4 [32]
0	0xbbb26bfb	-0.005445001
1	0xbc2a6eed	-0.010402423
2	0xba906659	-0.001101683
3	0xbb8299c7	-0.003985617
4	0xbc62981c	-0.013830211
5	0xbcbd534d	-0.02311101
6	0xbb01be39	-0.001979722
7	0xbc33b07b	-0.010967369
8	0xbadc68c0	-0.0016815886
9	0xbb103e0e	-0.0022009644
10	0x3bacce47	0.0052736136
11	0xbc3c3c49	-0.0114889825
12	0xbc03f22a	-0.008053342
13	0xbb845e2e	-0.0040395474
14	0xbb349033	-0.002755177
15	0xbbf2a1e1	-0.0074045514
16	0x3a640fea	0.0008699881
17	0xbb8de0a2	-0.004329757
18	0xbbb98fa0	-0.0056628734
19	0x3ca84bf6	0.020544033
20	0xbbe2246f	-0.006901316
21	0x3b7ed31f	0.0038883162
22	0xbc5c7cbd	-0.013457474
23	0x3d30b679	0.04314277
24	0x3b7d4e8e	0.0038651559
25	0x3cc9031d	0.024537617
26	0xbb58ed51	-0.0033100436
27	0xbb4421fa	-0.0029927478
28	0xbc52c4e6	-0.012864327
29	0xba88e458	-0.0010444028
30	0x3c2ab6f8	0.0104196
31	0xbc2919ba	-0.010321075

weight f4 [64, 32, 4, 4]
0	0x3e237bdd	0.15965219
1	0x3e1097f2	0.14120463
2	0x3e56026b	0.2089936
3	0x3dd8dcbf	0.10588979
4	0xbd618d89	-0.05506662
5	0x3e286ac3	0.16446976
6	0x3dd3072f	0.103041045
7	0x3d065d94	0.032804087
8	0xbe4af27a	-0.1981906
9	0x3dae7966	0.08519249
10	0xbd5b11ab	-0.053483646
11	0xbdc03d4f	-0.09386694
12	0xbe0ef1bc	-0.13959402
13	0xbd04899c	-0.032357797
14	0xbd082822	-0.0332414
15	0xbd5bf2fa	-0.053698517
16	0x3e5b9aa1	0.21445705
17	0x3d1263ab	0.035739582
18	0x3e474538	0.19459999
19	0x3d09736e	0.033557348
20	0xbcab9ef6	-0.020949822
21	0x3e058ff2	0.13043192
22	0xbdb91e51	-0.090389855
23	0xbd7c2264	-0.061556235
24	0xbd0e6696	-0.034765802
25	0xbcc110fc	-0.02356767
26	0xbe09dddb	-0.13463537
27	0xbd97a5da	-0.074046806
28	0x3e05ff13	0.13085584
29	0x3dd7181c	0.105026454
30	0x3e189b67	0.14903031
31	0x3e04a7e8	0.12954676
32	0x3e1a3f4c	0.15063208
33	0x3dfd9d05	0.12383465
34	0xbd13ee99	-0.036116216
35	0xbb9d319e	-0.0047971746
36	0x3e3485f3	0.17629223
37	0xbcd9430d	-0.02652123
38	0x3dea2fe6	0.11434917
39	0xbd3463eb	-0.0440406
40	0xbd7aaaf3	-0.061198186
41	0xbe94537a	-0.28969938
42	0x3dea5c20	0.11443353
43	0xbdccf36f	-0.10007369
44	0xbd808d95	-0.06277005
45	0xbd07ce2e	-0.033155613
46	0x3e0af6d8	0.13570726
47	0x3d9ee0ae	0.07757698
48	0xbd134035	-0.035949904
49	0x3d7d4bf8	0.061840028
50	0x3e0f52a3	0.13996367
51	0x3d899b01	0.06719018
52	0x3e28444c	0.16432303
53	0xbdf98969	-0.12184412
54	0x3d4f95af	0.05067986
55	0x3c595013	0.01326372
56	0xbe24c1d6	-0.16089568
57	0x3a5e4cc0	0.00084800646
58	0x3d9ea541	0.077463634
59	0xbd0ecc1d	-0.034862626
60	0x3c1e7dd8	0.009673558
61	0x3de25ad8	0.11052483
62	0x3d80ad17	0.06283014
63	0x3d8cca6f	0.06874549
64	0xbcd2a168	-0.02571173
65	0xbc5fb6f1	-0.0136544565
66	0x3d0a4280	0.033754826
67	0x3cd336be	0.025782939
68	0xbc76f426	-0.015072858
69	0xbd39a166	-0.045319937
70	0x3c209f90	0.009803668
71	0xbcdf7ad4	-0.027280249
72	0xbe69227f	-0.22767065
73	0xbe41a2a5	-0.189097
74	0x3dabe4ae	0.083932266
75	0xbd25c3e4	-0.04047002
76	0xbe10255f	-0.14076756
77	0x3d0a11d0	0.033708394
78	0x3dd3751e	0.10325073
79	0x3cf0dee5	0.02940316
80	0xbda550a4	-0.080720216
81	0xbac82303	-0.0015269223
82	0xbcd22c45	-0.025655875
83	0xbdf0f86f	-0.11766135
84	0x3db059b5	0.0861086
85	0x3daa0a3c	0.08302733
86	0x3d1a870b	0.037726443
87	0xbc93bcff	-0.018034456
88	0x3c9d2860	0.019184291
89	0xbeaed8df	-0.34149835
90	0xbdf7f120	-0.12106538
91	0xbe34a339	-0.1764039
92	0xbd48814c	-0.048951432
93	0x3c3b6a80	0.011438966
94	0xbde90d41	-0.11379481
95	0xbe047a04	-0.1293717
96	0x3e08e640	0.13369083
97	0x3e17af24	0.14812905
98	0x3ceacb92	0.028661523
99	0x3c4322e4	0.011910174
100	0x3e5c0bb8	0.21488845
101	0x3c600837	0.013673834
102	0x3c8fd6bb	0.017558446
103	0x3dbe0f8a	0.092803076
104	0xbe5fc70d	-0.21853276
105	0xbd22f580	-0.03978491
106	0xbdfc4377	-0.123175554
107	0xbde3c8b9	-0.11122269
108	0xbcc882f8	-0.024476513
109	0x3d334e87	0.04377606
110	0xbd0b9039	-0.03407309
111	0xbe01ac60	-0.12663412
112	0x3df4021e	0.11914466
113	0xbd99d692	-0.07511629
114	0xbd5f552b	-0.054524582
115	0x3d9854ef	0.07438075
116	0xbdb5782f	-0.08860814
117	0x3ba1e8fd	0.0049411044
118	0xbb8d4f62	-0.0043124417
119	0x3bc360cc	0.005962467
120	0xbdaea8ab	-0.085282646
121	0x3c74988b	0.014928947
122	0xbd8b9fec	-0.06817612
123	0xbdd6b3da	-0.10483523
124	0x3dcfd02f	0.1014713
125	0x3e27b12f	0.16376184
126	0xbdb6411a	-0.08899136
127	0x3d6d5674	0.057943776
128	0x3cef8233	0.029236889
129	0x3dcb3ab7	0.09923308
130	0x3e0de3a7	0.13856374
131	0x3d0e8b57	0.034800854
132	0x3d22f491	0.039784018
133	0xbd3d029b	-0.046145063
134	0xbe23420b	-0.15943162
135	0xbdd3af8f	-0.103362195
136	0xbe7838b7	-0.24240385
137	0xbe4c47a4	-0.19949204
138	0xbd89ba71	-0.06725014
139	0xbe0166d9	-0.1263689
140	0xbdd62d77	-0.104578905
141	0x3d88e225	0.06683759
142	0x3c892f2b	0.016746124
143	0xbda311e1	-0.079623945
144	0x3e20ba5b	0.15696089
145	0xbc9a9d92	-0.018873964
146	0x3d054614	0.032537535
147	0x3def763c	0.11692473
148	0x3db12511	0.08649648
149	0xbd55a855	-0.052162487
150	0x3c2da9c3	0.010599556
151	0x3d1692be	0.036761038
152	0xbdd4f49b	-0.10398217
153	0x3d28b2fc	0.041186318
154	0x3d479495	0.048725683
155	0x3e067eda	0.13134328
156	0xbe5c0c1b	-0.21488993
157	0xbdbd44ea	-0.0924166
158	0xbc861f7c	-0.016372435
159	0x3e34c6de	0.17653987
160	0x3d621e6e	0.0552048
161	0x3d10707f	0.035263535
162	0x3d209e69	0.03921357
163	0x3e27a2d1	0.16370703
164	0x3def56d2	0.116864815
165	0x3e231a64	0.15928036
166	0x3da82642	0.08210422
167	0x3cd7feea	0.02636667
168	0xbe8aca87	-0.2710764
169	0xbea51f0f	-0.32250258
170	0x3d64fac6	0.05590322
171	0x3d9ecb23	0.07753589
172	0xbb90d579	-0.004419979
173	0xbba742b3	-0.0051043867
174	0xbc8b4d64	-0.017004676
175	0x3e56a3c1	0.20960905
176	0x3db3baa3	0.087758325
177	0x3cd007b3	0.025394296
178	0xbca44282	-0.020051245
179	0xbd4a12c6	-0.04933431
180	0x3d96e8d2	0.07368626
181	0x3da083c1	0.0783763
182	0xbc392aae	-0.01130168
183	0x3e8bb618	0.27287364
184	0x3d9b942d	0.07596622
185	0xbdbc2385	-0.09186462
186	0xbd48f19a	-0.049058534
187	0x3d6ae405	0.057346363
188	0x3e15c9aa	0.1462771
189	0x3dc86dff	0.09786605
190	0x3e0a9d65	0.13536604
191	0x3e7b6387	0.24549685
192	0xbd7d392c	-0.0618221
193	0xbd28cecd	-0.041212846
194	0xbced5ddd	-0.028975422
195	0xbd7b621f	-0.061372872
196	0xbd13f3ef	-0.036121305
197	0xbddc44a5	-0.107552804
198	0xbdd135e8	-0.1021536
199	0x3ccf9544	0.02533973
200	0xbea9187d	-0.33026496
201	0xbd941029	-0.07229645
202	0xbba16269	-0.0049250615
203	0xbd202925	-0.03910174
204	0xbca96f03	-0.020682817
205	0x3dc95007	0.09829717
206	0x3cb8326a	0.022484977
207	0x3e2f2210	0.17102838
208	0x3dce9ff4	0.100891024
209	0x3dfb2d40	0.1226449
210	0x3c6280d0	0.013824657
211	0xbcfef439	-0.031122314
212	0x3d0c49d0	0.03425008
213	0x3d1b67bb	0.037940722
214	0x3d9ced15	0.07662407
215	0x3e058858	0.13040292
216	0xbdb71063	-0.089386724
217	0xbe039861	-0.12851097
218	0xbd4d6e1a	-0.05015383
219	0xbe14407a	-0.14477721
220	0x3de2ef17	0.11080759
221	0x3d6fc839	0.058540557
222	0xbc65aa16	-0.014017602
223	0x3e185181	0.14874841
224	0x3e0903bc	0.13380331
225	0x3d9c6628	0.07636672
226	0xba996026	-0.0011701628
227	0x3dc1a6ce	0.094556436
228	0xbd20aba7	-0.0392262
229	0xbc8fcd1e	-0.017553862
230	0xbe0293c2	-0.12751678
231	0xbdd66129	-0.104677506
232	0xbe0812b9	-0.13288392
233	0x3d59293c	0.05301784
234	0xbdf57dce	-0.11986886
235	0xbdf9a562	-0.121897474
236	0x3d78cab1	0.060740177
237	0xbbe7e544	-0.007076891
238	0x3d884497	0.066537075
239	0x3bfab723	0.007651226
240	0x3d8567e3	0.065139554
241	0x3a6a4761	0.0008937028
242	0xbdda6881	-0.10664464
243	0xbd3f84bf	-0.046757456
244	0x3dad23cb	0.084540926
245	0x3d9edf80	0.07757473
246	0xbced6e3b	-0.028983226
247	0x3da75744	0.081709415
248	0xbda14604	-0.078746825
249	0xbe2e768d	-0.17037411
250	0xbc32cfef	-0.010913833
251	0xbde1ca24	-0.110248834
252	0xbdd55de8	-0.10418302
253	0x3d2c942a	0.042133488
254	0xbd62dc6b	-0.05538599
255	0xbd9628f7	-0.07332032

bias f4 [64]
0	0x3c865c8f	0.016401557
1	0xbd5acfc4	-0.053420797
2	0xbc9570a3	-0.018242186
3	0x3bde7f90	0.006790109
4	0x3ca045b1	0.019564481
5	0x3c58978e	0.013219727
6	0xbc23a566	-0.0099881645
7	0xbcd35961	-0.025799455
8	0x3b081d8e	0.002076957
9	0x3c9a03e7	0.018800689
10	0x3cb30404	0.0218525
11	0xbd013be7	-0.031551268
12	0x3d965a1d	0.073414065
13	0x3d30ba4e	0.043146424
14	0xbccbb2c1	-0.02486551
15	0xbd698854	-0.05701478
16	0xbd976a39	-0.07393307
17	0x3d27521a	0.040849783
18	0x3cff7af0	0.03118655
19	0xbd049c05	-0.032375354
20	0xbb6df048	-0.003630655
21	0x3c8380f8	0.016052708
22	0x3d71cac7	0.059031274
23	0xbbdaee07	-0.006681207
24	0xbd3ba472	-0.045811124
25	0xb939c666	-0.00017716884
26	0x3c8e6451	0.017381819
27	0x3dc6dba5	0.097098626
28	0x3d9c5be9	0.07634718
29	0xbcdadf79	-0.026717888
30	0xbc834930	-0.01602611
31	0x3d19cde0	0.037549853
32	0xbdb02ced	-0.08602319
33	0xbdda9c40	-0.106743336
34	0xbc9cb6c6	-0.019130122
35	0x3bfe3181	0.007757366
36	0xbd4a1aec	-0.04934208
37	0x3c71a66a	0.014749149
38	0x3d404c9e	0.046948068
39	0x3d87e0f8	0.06634706
40	0xbc727fc2	-0.014800968
41	0x3d0edbd2	0.034877606
42	0x3c5d0bac	0.013491552
43	0xbcbf41bf	-0.02334678
44	0x3ce78a8b	0.028264305
45	0xb8d611c8	-0.00010207627
46	0xbd6a450d	-0.05719476
47	0x3db409ff	0.08790969
48	0x3bfcc662	0.0077140788
49	0xbd4c2809	-0.049842868
50	0xbbb705cf	-0.0055854092
51	0x3d82409a	0.06359978
52	0xbc268ee0	-0.0101659
53	0x3d38a63c	0.04508041
54	0x3dd2c53c	0.10291526
55	0xbd379251	-0.044817273
56	0xbc8b5c60	-0.017011821
57	0xbca6c27a	-0.020356406
58	0x3d1e4313	0.038638186
59	0x3b045aee	0.00201958
60	0xbc8b3e90	-0.016997606
61	0xbbc5fc37	-0.0060420292
62	0xbd138aef	-0.03602117
63	0x3bd17238	0.0063917898

weight f4 [64, 64, 3, 3]
0	0xbc7dbf82	-0.015487554
1	0xbb011770	-0.0019697808
2	0x3a7eb24b	0.0009715899
3	0x3daa281e	0.08308433
4	0x3dd5a901	0.104326256
5	0xbca2d3ac	-0.019876324
6	0x3d1bb2db	0.038012367
7	0x3d7c5448	0.061603814
8	0xbaaca4a5	-0.0013171626
9	0xbdebf3d2	-0.115211144
10	0xbd33d990	-0.043908656
11	0x3e033101	0.12811662
12	0x3d5dde45	0.05416705
13	0x3cdcaadb	0.026936939
14	0xbc9092db	-0.017648151
15	0xbd8a6d1f	-0.067590944
16	0x3ceb82cd	0.028748894
17	0x3df1b6fd	0.1180248
18	0x3d74fa18	0.05980882
19	0x3d899122	0.06717135
20	0x3e020167	0.12695847
21	0x3a0c2376	0.000534586
22	0xbd5544bd	-0.052067507
23	0x3cde915a	0.027168918
24	0x3ce1e9be	0.027577277
25	0xbd38b53d	-0.045094717
26	0x3d0d87e4	0.034553424
27	0x3d81db92	0.06340708
28	0x3ddb0ac1	0.106954105
29	0x3e086760	0.13320684
30	0xba48a9d0	-0.00076546986
31	0x3d7aa96f	0.06119674
32	0xbd7fc48d	-0.062443305
33	0xbd5678e7	-0.052361395
34	0xbda00f2b	-0.07815393
35	0xbe39e924	-0.18155342
36	0x3e77ab46	0.2418643
37	0x3e018527	0.1264845
38	0x3d87065c	0.0659301
39	0x3ce9755e	0.028498348
40	0x3dadfe74	0.08495799
41	0xbc8f1a62	-0.017468635
42	0xbdd06ea7	-0.10177355
43	0x3b3fcde2	0.0029267003
44	0xbdf2fa14	-0.11864105
45	0x3d5f3c0f	0.054500636
46	0x3dfe4e3d	0.124172665
47	0xbc340a1c	-0.010988738
48	0x3d2a0c2a	0.041515507
49	0xbd913f90	-0.07092202
50	0x3dbf1ca3	0.09331634
51	0x3dbc6c4e	0.09200345
52	0x3df4da0b	0.11955651
53	0xbeca8712	-0.39556175
54	0xbd03ee1e	-0.032209508
55	0xbb824577	-0.003975566
56	0xbd96e92f	-0.07368695
57	0x3e25b482	0.1618214
58	0xbd6e0ec2	-0.058119543
59	0xbcd6bf0b	-0.026214143
60	0x3d5cd900	0.053917885
61	0x3d2bb01e	0.041916005
62	0xbc2c3770	-0.010511264
63	0xbdaf423a	-0.085575536
64	0x3cbc29cc	0.022969149
65	0xbcf61a96	-0.030041974
66	0x3e0498a4	0.12948853
67	0xbba1a9cc	-0.0049335714
68	0x3d9d54ae	0.07682167
69	0xbdd52509	-0.104074545
70	0x3d93a44b	0.07209071
71	0x3d146514	0.036229208
72	0xbda558eb	-0.080736004
73	0xbc499383	-0.012303236
74	0x3cd4b9f4	0.025967576
75	0xbd3debd4	-0.04636748
76	0xbd44a8b9	-0.04801247
77	0xbde107ee	-0.109878406
78	0xbd347fe2	-0.04406727
79	0x3d468e44	0.04847552
80	0xbe65833d	-0.22413345
81	0x3ca3f1d2	0.02001277
82	0x3e03f219	0.12885322
83	0xbc7e9789	-0.0155390585
84	0x3d5aff0f	0.0534659
85	0x3c1d9528	0.009618081
86	0xbb6fce5f	-0.0036591513
87	0xbd70e04b	-0.058807652
88	0xbd90938d	-0.07059393
89	0xbde7f975	-0.11326877
90	0x3dd91fd8	0.10601777
91	0x3e02d26a	0.12775579
92	0xbd605e26	-0.054777287
93	0xbcb88118	-0.022522494
94	0xbd265f3d	-0.04061817
95	0x3df561e2	0.1198156
96	0xbc1cb2e7	-0.009564138
97	0x3d28d8bc	0.04122232
98	0x3cc6ebf6	0.024282437
99	0xbc84b72e	-0.016200628
100	0xbd1ebeca	-0.03875617
101	0xbc841d9c	-0.0161274
102	0x3dcb981b	0.09941121
103	0xbd61ee06	-0.055158637
104	0x3d05773b	0.03258441
105	0xbdd3e82a	-0.10347016
106	0xbdbca3d7	-0.092109375
107	0xbd619389	-0.05507234
108	0xbc6bb95b	-0.014387454
109	0x3a9414d3	0.001129771
110	0x3d2aa811	0.041664187
111	0x3e0062c2	0.12537673
112	0xbd2ad8d0	-0.041710675
113	0xbac40321	-0.0014954546
114	0x3b9dad22	0.004811899
115	0xbd1a261c	-0.037634
116	0xbcf1d512	-0.029520545
117	0x3de5cf16	0.11221139
118	0x3dbc7075	0.09201137
119	0x3d333bd9	0.043758247
120	0x3d8b75a0	0.068095446
121	0xbdb00fc0	-0.08596754
122	0x3e5049c8	0.20340645
123	0xbd3a0e27	-0.045423653
124	0xbde22148	-0.11041504
125	0xbc3a1404	-0.011357311
126	0xbca351e2	-0.019936506
127	0xbda0505f	-0.078278296
128	0xbd2d250d	-0.042271663
129	0xbc8f677e	-0.017505404
130	0xbcef0801	-0.029178621
131	0x3d8b6cf6	0.06807892
132	0x3e257c67	0.16160737
133	0xbd2edc1d	-0.042690385
134	0xbd8cdb7d	-0.068778016
135	0xbe856c4c	-0.26059186
136	0xbcfee7bc	-0.031116359
137	0x3d9c19f2	0.07622136
138	0xbd8a03a1	-0.067389734
139	0x3cc43a47	0.02395357
140	0x3d889eb4	0.06670895
141	0xbd3a5fc3	-0.04550148
142	0xbe321faf	-0.17394899
143	0xbd3352d4	-0.043780163
144	0xbca73cfc	-0.020414822
145	0x3cda6d99	0.026663588
146	0x3c0080c4	0.0078432
147	0xbe060357	-0.13087212
148	0x3d251d10	0.04031092
149	0xbda29356	-0.07938258
150	0x3c4d805c	0.01254281
151	0x3e2339e4	0.15940052
152	0xbde78bd1	-0.11305965
153	0xbba9938b	-0.005175059
154	0x3cccd375	0.025003174
155	0xbc5023ce	-0.012703849
156	0xbbb8ee60	-0.005643651
157	0xbbcbea6f	-0.006223015
158	0xbdac2843	-0.08406117
159	0x3dccdcde	0.100030646
160	0x3dcdbc0b	0.10045632
161	0xbd488b96	-0.048961245
162	0x3dddbd39	0.10827107
163	0xbd321bc8	-0.043483526
164	0x3c06572e	0.008199496
165	0xbd2ececc	-0.042677686
166	0xbc09a5de	-0.008401362
167	0x3d39f297	0.045397367
168	0x3d651d3c	0.055936083
169	0x3cb99129	0.022652226
170	0xbe28d52c	-0.16487569
171	0x3cd06f2e	0.02544364
172	0xbe3de3c4	-0.18543917
173	0xbd86095d	-0.06544755
174	0x3d55b6a4	0.052176133
175	0x3cde94ff	0.027170656
176	0x3d03cde3	0.03217877
177	0x3dee3c2f	0.11632573
178	0x3cc5667f	0.024096726
179	0x3d04b76a	0.03240148
180	0xbddbf290	-0.107396245
181	0x3dfb2ac7	0.122640185
182	0x3e0b33a8	0.13593924
183	0xbd821846	-0.06352286
184	0x3d78c972	0.06073899
185	0xbc432e2b	-0.011912863
186	0x3d09b538	0.03362009
187	0x3e130882	0.14358714
188	0xbd973a38	-0.07384151
189	0xbc223422	-0.009900125
190	0x3d6956a1	0.05696738
191	0x3dea4fb4	0.114409834
192	0xbdb22afc	-0.08699605
193	0x3d09f130	0.03367728
194	0x3d8a9a89	0.067677565
195	0xbcd940c1	-0.026520135
196	0x3c510e1c	0.012759712
197	0xbd9cc972	-0.0765561
198	0xbd116c5e	-0.035503738
199	0x3d2bc988	0.041940242
200	0xbbd3b6d1	-0.0064610024
201	0xbcce1b97	-0.02515964
202	0x3c811973	0.015759205
203	0x3dd9babc	0.1063132
204	0xbcb4a7f6	-0.022052746
205	0x3e022818	0.12710607
206	0xbd207a50	-0.039179146
207	0xbd241bb3	-0.04006548
208	0x3a86ae5d	0.0010275353
209	0x3d317205	0.043321628
210	0xbc2f4ed0	-0.010699943
211	0xbd8f7f74	-0.07006732
212	0x3daecdb4	0.085353285
213	0xbd0feb9f	-0.035136815
214	0x3ae9c8f9	0.0017836384
215	0xbdade91f	-0.0849173
216	0xbd4503a5	-0.04809918
217	0xbd4c9434	-0.049946025
218	0xbbede0a0	-0.0072594434
219	0x3e0445ab	0.12917201
220	0xbc9f4370	-0.019441336
221	0x3dbba924	0.091631204
222	0xbe0604f2	-0.13087824
223	0xbd5e7ab5	-0.05431624
224	0x3d68058f	0.056645926
225	0xbd8f263c	-0.069897145
226	0xbd18efd6	-0.0373381
227	0x3d69a59e	0.05704271
228	0xbe1c63a4	-0.15272385
229	0x3da82b12	0.0821134
230	0xbdec25f4	-0.115306765
231	0x3d914e65	0.07095031
232	0xbe0edfde	-0.13952586
233	0xbcaa0c43	-0.0207578
234	0x3e12e68c	0.14345759
235	0xbdc1d0fa	-0.09463687
236	0x3d003e69	0.03130952
237	0x3cc9794a	0.024593968
238	0xbcc9e102	-0.024643425
239	0x3e01c3fe	0.12672421
240	0x3e11d660	0.14241934
241	0x3e092446	0.13392743
242	0x3d65697d	0.056008805
243	0x3df1a37d	0.11798761
244	0x3e42389e	0.1896691
245	0x3ddac5aa	0.10682233
246	0xbd66a226	-0.05630698
247	0x3a5783a2	0.0008221214
248	0xbd09fe7d	-0.033689965
249	0xbded91f3	-0.11600103
250	0xbdd039b2	-0.101672545
251	0xbd63a8c7	-0.05558088
252	0x3b8e8f3d	0.0043505714
253	0x3dce118a	0.10061939
254	0x3cad12bb	0.021127095
255	0xbde121ab	-0.1099275

bias f4 [64]
0	0x3ca93c7f	0.02065873
1	0xbbaaeb75	-0.005216057
2	0x3d603a78	0.05474326
3	0x3cac037a	0.020997752
4	0x3d897e7d	0.06713579
5	0x3c5e8254	0.013580877
6	0x3d996b61	0.07491184
7	0x3ca7f013	0.020500218
8	0xbbf22c59	-0.0073905406
9	0x3d576f31	0.052596275
10	0x3dd19501	0.10233498
11	0xbc9e7f11	-0.0193477
12	0x3c9130fc	0.017723553
13	0x3d901ee1	0.0703714
14	0x3c763373	0.015026915
15	0x3d747e62	0.05969084
16	0xbd47cfdb	-0.04878221
17	0x3d925729	0.07145531
18	0x3d254ee7	0.04035845
19	0x3d65f903	0.05614568
20	0x3cd30384	0.025758512
21	0x3db0e477	0.08637326
22	0xbc0f34f7	-0.008740655
23	0x3d962b9a	0.07332535
24	0xbdaff5ba	-0.085917905
25	0xbb47c3b1	-0.0030481631
26	0xbd1e6429	-0.03866974
27	0x3db3fde9	0.08788664
28	0x3d71cad7	0.059031334
29	0x3d182ccd	0.0371521
30	0x3d8b3a47	0.06798225
31	0x3c9aa439	0.018877136
32	0xbcc94682	-0.024569754
33	0x3da8e152	0.082461014
34	0x3de57391	0.11203683
35	0xbb853efa	-0.0040663453
36	0x3dc3188f	0.095261686
37	0xbc82d5fb	-0.015971174
38	0x3d1eb379	0.038745377
39	0x3cfcd218	0.0308619
40	0xbbe9cdcc	-0.0071351286
41	0x3d9e94ef	0.077432506
42	0x3d0a1738	0.03371355
43	0x3c9dd380	0.01926589
44	0xbd22a24b	-0.039705556
45	0x3d82d901	0.063890465
46	0x3d154ecc	0.0364521
47	0xbb9056b2	-0.004404866
48	0x3d3df0af	0.046372112
49	0x3b1eda38	0.0024238955
50	0x3d2867fc	0.041114792
51	0xbb77c14c	-0.0037804423
52	0xbcf7598e	-0.03019407
53	0x3db5055a	0.08838911
54	0x3d0bc19b	0.034120183
55	0xbd917e22	-0.07104136
56	0xbc2677e5	-0.010160421
57	0x3ce8d6ec	0.028422795
58	0x3c69bce1	0.014266224
59	0x3da5344a	0.08066614
60	0xbd1d8d88	-0.038465053
61	0xbc839236	-0.01606093
62	0xbdf8327b	-0.121190034
63	0xbd4498f9	-0.04799745

weight f4 [32, 1024]
0	0xbd119b7b	-0.03554867
1	0x3d190d8e	0.037366442
2	0xbd9267f5	-0.071487345
3	0x3c81063a	0.01575004
4	0xbd5ff993	-0.054681372
5	0xbcc0d1a4	-0.023537464
6	0x3d0af23a	0.03392241
7	0x3d0db3db	0.03459535
8	0xbe0af368	-0.13569415
9	0xbd706a19	-0.058694933
10	0x3cf1bc61	0.029508771
11	0x3d8fa07b	0.07013031
12	0xbe5188ef	-0.20462392
13	0xbdbf7ce6	-0.09349994
14	0xbd8affdf	-0.06787085
15	0xbe10a5be	-0.14125726
16	0x3d3df132	0.0463726
17	0xbc94e344	-0.018174775
18	0xbd3960fe	-0.045258515
19	0xbd1f0b40	-0.03882909
20	0xbe0faa4b	-0.14029805
21	0xbe09811e	-0.1342816
22	0xbd54e367	-0.05197468
23	0xbd7bd8ab	-0.061485928
24	0xbd868c66	-0.065697476
25	0xbbd4df57	-0.0064963507
26	0xbdf443c0	-0.11926985
27	0xbc7e6980	-0.015528083
28	0x3e04b929	0.12961258
29	0x3d3ebcbb	0.046566706
30	0x3d1136bc	0.03545259
31	0xbd512490	-0.05106026
32	0xbdfd82c4	-0.12378457
33	0xbd44497e	-0.04792165
34	0x3d0bd1e9	0.034135733
35	0xbcffb008	-0.031211868
36	0xbd234b07	-0.039866474
37	0xbe04b8d1	-0.12961127
38	0xbdcd665e	-0.100292906
39	0xbe2de767	-0.16982804
40	0x3b5329bb	0.0032220918
41	0xbd6d1157	-0.057877865
42	0xbc84713d	-0.016167277
43	0x3ce33103	0.027733332
44	0xbe472706	-0.1944848
45	0xbd9af243	-0.07565739
46	0xbde54b23	-0.11195972
47	0x3d266d88	0.0406318
48	0xbbbd4063	-0.0057754978
49	0x3c558315	0.013031741
50	0x3d5588e6	0.05213251
51	0x3d4e4d20	0.05036652
52	0x3d4393cf	0.047748383
53	0xbd10349c	-0.035206422
54	0x3c168a15	0.009188195
55	0xbd5320e6	-0.051545046
56	0xbd2f3ac0	-0.042780638
57	0xbdcb6995	-0.099322475
58	0x3d84e825	0.064895906
59	0xbd049fe7	-0.032379057
60	0x3ca0e554	0.019640602
61	0xbd45f471	-0.04832882
62	0xbcaa622b	-0.020798763
63	0xbd316b80	-0.04331541
64	0xbdd2df13	-0.10296454
65	0xbda9ff21	-0.08300615
66	0xbc749b34	-0.014929581
67	0x3d9aa26c	0.07550511
68	0xbd0b7852	-0.034050293
69	0xbcb48f6e	-0.022041049
70	0xbcb1a837	-0.021686656
71	0x3d50a10d	0.05093484
72	0xbd480764	-0.048835173
73	0xbce521a0	-0.027970135
74	0x3c9175d9	0.01775639
75	0x3cfdfe56	0.031005066
76	0x3d9144c1	0.07093192
77	0x3d0d1d84	0.034451976
78	0x3d2bc031	0.041931335
79	0x3ceb4c05	0.028722772
80	0xbdeb55dd	-0.114909865
81	0xbdb23330	-0.087011695
82	0x3a3ff6f6	0.0007322872
83	0x3dd6ca62	0.1048782
84	0xbdcc526c	-0.09976658
85	0xbd83dbca	-0.06438406
86	0xbd89fcbd	-0.06737659
87	0xbc19934b	-0.009373496
88	0x3d483398	0.04887733
89	0x3e5bd423	0.21467642
90	0x3d9458b9	0.07243485
91	0x3daa2e46	0.08309607
92	0xbd672eab	-0.05644099
93	0x3d658fd2	0.05604536
94	0x3cbf06aa	0.023318607
95	0xbe1d70bb	-0.15375035
96	0x3c9bf967	0.019039823
97	0x3e0f53a6	0.13996753
98	0x3ba98aee	0.0051740324
99	0xbd4de603	-0.050268184
100	0x3d3cef0b	0.046126407
101	0x3cf20bca	0.029546637
102	0x3daf9224	0.08572796
103	0x3dab0c66	0.08351974
104	0xbb14c413	-0.0022699877
105	0x3d0f59b7	0.034997668
106	0xbd0a5184	-0.033769146
107	0xbe612bda	-0.21989384
108	0xbd043ee9	-0.03228656
109	0x3dc40869	0.095719166
110	0x3d89ac83	0.06722357
111	0x3d9d917f	0.07693767
112	0x3d02793c	0.0318539
113	0x3e0f2b0b	0.13981263
114	0x3c125846	0.008932179
115	0xbb7f4ca2	-0.0038955589
116	0xbc28f75a	-0.010312879
117	0xbb6f3bf3	-0.0036504238
118	0x3d8e84ce	0.06958924
119	0xbb3b999f	-0.00286255
120	0x3d117cb5	0.03551932
121	0x3d00d7c5	0.031455774
122	0x3d1b3de2	0.037900813
123	0xbd77bdd8	-0.060483783
124	0xbdd3d789	-0.103438444
125	0xbd3c2155	-0.045930225
126	0xbd8e493f	-0.06947564
127	0xbe0970df	-0.13421963
128	0xbe2b42b6	-0.16724667
129	0xbd351c7c	-0.044216618
130	0xbc5cf480	-0.013486028
131	0x3d87ecf8	0.06636995
132	0xbe737ad3	-0.23777322
133	0xbd4fe061	-0.050751094
134	0x3d928679	0.07154555
135	0xbc0cb908	-0.008589037
136	0xbbc5528b	-0.006021803
137	0xbd43ccd3	-0.047802757
138	0x3ccebed2	0.025237475
139	0xbc8e8e92	-0.017401967
140	0xbd00dfe0	-0.031463504
141	0xbc8e4c9a	-0.01737051
142	0xbe226600	-0.15859222
143	0xbe1a820b	-0.1508867
144	0xbc5ab2f4	-0.01334833
145	0xbdd6cbd6	-0.10488097
146	0xbd331d64	-0.0437292
147	0xbe6aa93e	-0.22916123
148	0xbbcd2f62	-0.006261752
149	0x3d9e60bf	0.077332966
150	0xbd44bcdf	-0.048031684
151	0x3e0c1a5e	0.13681933
152	0xbc1fab0b	-0.00974537
153	0xbd1dfe77	-0.038572755
154	0x3c89f2e2	0.016839448
155	0xbd07ef84	-0.033187404
156	0x3df4ea1a	0.11958714
157	0x3d9bb67c	0.076031655
158	0x3d006b47	0.031352308
159	0xbcb96a81	-0.022633793
160	0xbde4a48b	-0.111641966
161	0xbc8d2a9e	-0.017232236
162	0x3d6d0ea9	0.05787531
163	0xbc54a898	-0.012979649
164	0x3bbf582d	0.005839369
165	0xbc98ee6b	-0.018668374
166	0x3cb9bbc2	0.022672538
167	0xbd2e85a2	-0.04260791
168	0xbcbf1686	-0.02332617
169	0xbdd5bbbc	-0.10436198
170	0x3c500397	0.012696168
171	0x3dd6dd52	0.10491432
172	0x3c398b31	0.01132469
173	0xbd4ae0d5	-0.049530823
174	0xbe0b6343	-0.13612084
175	0xbd73f986	-0.059564136
176	0xbe17094f	-0.14749645
177	0xbe253a0f	-0.16135429
178	0x39a9355f	0.00032273956
179	0x3ca029d5	0.019551197
180	0xbd96e425	-0.07367734
181	0x3d5c4a88	0.053782016
182	0x3d7f20de	0.062287204
183	0xbcab2d12	-0.020895515
184	0xbddccd47	-0.10781341
185	0xbd8cb5f2	-0.06870641
186	0xbe00d5eb	-0.12581603
187	0xbd5b80dd	-0.05358969
188	0xbdc6ea3f	-0.09712648
189	0x3df94143	0.12170651
190	0x3d90e37b	0.070746385
191	0x3e1eb1dd	0.15497537
192	0xbd3b3bb9	-0.045711253
193	0x3c445a85	0.011984472
194	0xbcb8d861	-0.022564115
195	0xbd36cb5d	-0.044627536
196	0xbc489c64	-0.012244318
197	0x3c51e61c	0.01281121
198	0xbc449ed3	-0.012000757
199	0xbcabd5f5	-0.020976046
200	0x3d4f9807	0.050682094
201	0xbd05ea3b	-0.032694083
202	0xbd3e6171	-0.046479646
203	0x3cba15b0	0.02271542
204	0x3b498680	0.0030750334
205	0xbca9e6fa	-0.020740021
206	0x3c972e64	0.018454738
207	0x3e0b7899	0.13620223
208	0x3d062f2c	0.03275983
209	0xbd96fd89	-0.07372577
210	0xbcfac834	-0.030613042
211	0xbe267b8a	-0.16258064
212	0xbd084c3d	-0.03327583
213	0x3d501e04	0.050809875
214	0x3dad62c3	0.08466103
215	0xbcbdfb3e	-0.02319109
216	0xbde6bf8e	-0.11267005
217	0xbd0baa68	-0.03409806
218	0x3cb4d1dc	0.022072725
219	0x3bbec41a	0.005821717
220	0xbdafaa58	-0.08577412
221	0x3da5ce14	0.08095947
222	0x3dce183b	0.10063215
223	0x3cc63c59	0.024198698
224	0xbcf02a23	-0.029316967
225	0xbe1d8660	-0.15383291
226	0xbd9a4c93	-0.075341366
227	0xbe9240d3	-0.28565082
228	0xbd83aad6	-0.06429069
229	0xbdb4f635	-0.08836023
230	0x3cb4c9c1	0.02206886
231	0x3cab4e1b	0.020911267
232	0x3d83f1bf	0.06442594
233	0xbdb4f226	-0.08835249
234	0x3c977e43	0.018492823
235	0xbd38bcc1	-0.045101885
236	0x3d82b6c3	0.06382515
237	0x3d80f5ec	0.06296906
238	0x3bac0cf9	0.00525057
239	0x3dba7e30	0.091060996
240	0x3d34af96	0.044112764
241	0x3def66bd	0.11689518
242	0x3dbb6348	0.09149796
243	0x3af0f8e2	0.001838472
244	0x3d2ac04d	0.0416873
245	0x3dbbfb80	0.09178829
246	0x3d9b0ec1	0.075711735
247	0x3cd9f78c	0.026607297
248	0x3b4cd506	0.0031254902
249	0x3d927701	0.071516044
250	0x3d4c6177	0.049897637
251	0xbdaf6fe3	-0.085662626
252	0xbcb43e05	-0.02200223
253	0x3dbd586c	0.09245381
254	0x3c8ddf38	0.017318353
255	0x3ccb3d57	0.024809523

bias f4 [32]
0	0xbb98d6d3	-0.004664281
1	0x3d6666d0	0.056250393
2	0x3d5a58a3	0.053307187
3	0xbc884128	-0.016632631
4	0x3cd6b16c	0.026207648
5	0x3d33d041	0.04389978
6	0x3e19f12a	0.15033403
7	0x3d1d3626	0.038381718
8	0x3e197d78	0.14989269
9	0xbcc5b1bd	-0.024132604
10	0x3cfa9ff9	0.030593859
11	0x3dc50ef2	0.09621991
12	0x3b8ae8bf	0.0042391713
13	0xbd5a2d88	-0.05326608
14	0x3dae56a6	0.08512621
15	0x3cf11292	0.0294278
16	0xbcaccd57	-0.021094007
17	0x3d334913	0.04377086
18	0x3df06306	0.11737637
19	0x3d1a04e3	0.037602317
20	0x3e105c07	0.14097606
21	0x3cbc84bd	0.023012513
22	0xbcb2afc2	-0.021812323
23	0x3d9621d8	0.07330674
24	0x3d0cda50	0.034387887
25	0x3d83af8c	0.06429967
26	0xbd234eda	-0.03987012
27	0xbd93b7e7	-0.07212811
28	0x3d26dbb5	0.040736873
29	0x3d9f16d8	0.07768029
30	0x3ddde40c	0.10834512
31	0xbd73b18f	-0.059495505

weight f4 [15, 32]
0	0x3e7b2c6b	0.24528663
1	0x3e278152	0.16357926
2	0xbe9dbc8d	-0.30807915
3	0x3ea4977b	0.3214682
4	0xbe2962ab	-0.16541545
5	0xbe80feb5	-0.25194326
6	0xbd681f30	-0.056670368
7	0x3e604af0	0.21903586
8	0xbdf3e4cd	-0.11908875
9	0xbe1eda5f	-0.1551299
10	0xbe0eeba3	-0.13957076
11	0x3d45bdc6	0.048276685
12	0x3d2e5f63	0.042571437
13	0xbd8ed57f	-0.06974315
14	0x3d18706f	0.0372166
15	0x3e6d21fa	0.23157492
16	0x3da71f6d	0.08160291
17	0x3dad7885	0.08470253
18	0xbd86c204	-0.06579974
19	0x3d3142ee	0.04327672
20	0xbd15432a	-0.036441006
21	0xbe6d5859	-0.23178233
22	0x3e6a4ac6	0.22880086
23	0xbecdc345	-0.4018804
24	0xbecc1738	-0.39861465
25	0x3e0fe7e7	0.14053307
26	0x3d16294c	0.036660478
27	0xbd125e78	-0.035734624
28	0xbe5f00c7	-0.2177764
29	0xbee02b5c	-0.4378308
30	0x3e52d30d	0.20588322
31	0x3e2245f6	0.15847
32	0x3cfad374	0.030618407
33	0xbdc312bb	-0.09525057
34	0xbdc75d12	-0.09734549
35	0x3e0570cd	0.13031311
36	0xbd6dc98a	-0.05805353
37	0xbe3d7c59	-0.18504466
38	0x3bd297d6	0.0064267917
39	0xbdd69fbe	-0.10479687
40	0xbb07b61c	-0.002070791
41	0xbd94941f	-0.07254814
42	0xbdd0c933	-0.10194626
43	0xbdad4927	-0.08461218
44	0x3d42529f	0.047442075
45	0x3d3116e0	0.043234706
46	0xbd4837aa	-0.04888121
47	0xbe0878f1	-0.13327385
48	0x3c957263	0.01824302
49	0xbc134429	-0.008988419
50	0xbddef1d2	-0.10885967
51	0xbcffbbe3	-0.031217521
52	0x3cac621c	0.021042876
53	0x3c8ad2f8	0.0169463
54	0x3dac4e0c	0.08413324
55	0x3ae1b906	0.0017221279
56	0x3c8d55ca	0.017252821
57	0xbdd476aa	-0.10374196
58	0x3c373e05	0.01118422
59	0xbd8a6bd8	-0.06758851
60	0x3cfeb433	0.031091785
61	0xbd8076a3	-0.06272628
62	0xbcd11065	-0.025520513
63	0x3c86e3a9	0.016465979
64	0x3bce5bde	0.0062975725
65	0xbe2652ab	-0.16242473
66	0x3cb2133c	0.021737687
67	0xbf009a45	-0.50235397
68	0xbe880b38	-0.2657106
69	0xbd3041dc	-0.04303156
70	0x3dbb3425	0.09140805
71	0x3df70f92	0.12063517
72	0x3ddc7ff8	0.107665956
73	0x3e079223	0.1323934
74	0xbe92f91c	-0.2870568
75	0xbe9ef301	-0.31044772
76	0xbdab9321	-0.08377672
77	0x3dfaa6d5	0.12238852
78	0x3e084c85	0.1331044
79	0xbe555e85	-0.20836838
80	0x3dbcc20d	0.092167
81	0xbced0bbb	-0.028936258
82	0x3d884bed	0.06655107
83	0x3e26e340	0.16297626
84	0x3dc264eb	0.09491905
85	0x3d9f865f	0.07789301
86	0xbd820116	-0.063478634
87	0xbd138e46	-0.036024354
88	0xbe5975d6	-0.21236357
89	0xbdf9f866	-0.12205581
90	0x3e8df891	0.27728704
91	0xbdab79dd	-0.08372853
92	0xbdee8073	-0.116455935
93	0x3e261249	0.16217913
94	0xbe5ec945	-0.21756466
95	0x3dd5a35e	0.104315504
96	0x3d456abb	0.04819749
97	0x3d875974	0.06608859
98	0xbe239fda	-0.15978947
99	0x3de2461b	0.11048528
100	0xbd1dad3d	-0.03849529
101	0xbdaddfd5	-0.08489958
102	0xbe07cc1f	-0.1326146
103	0x3d52dcd9	0.051480148
104	0xbd5affdb	-0.05346666
105	0x3e3a7dc9	0.18212046
106	0xbde784bb	-0.11304613
107	0xbcc830e6	-0.02443738
108	0x3d610937	0.05494043
109	0xbd0580fa	-0.032593705
110	0xbdf0c008	-0.11755377
111	0x3e0095fd	0.12557216
112	0x3de671f8	0.112522066
113	0x3d38a2d5	0.045077164
114	0xbc647ecf	-0.013946249
115	0xbe2526ac	-0.16128033
116	0xbdad9579	-0.08475775
117	0xbd41ac3b	-0.047283392
118	0x3e59fc94	0.21287757
119	0xbe3e2143	-0.18567376
120	0xbd853e9d	-0.06506083
121	0x3cb0283e	0.021503564
122	0x3def167f	0.11674213
123	0xbc853c0a	-0.01626398
124	0xbe4ac098	-0.19800031
125	0xbe81169c	-0.25212562
126	0x3db3f319	0.087866016
127	0x3cfdae50	0.030966908
128	0x3e4ac4d7	0.19801651
129	0xbde8be59	-0.11364431
130	0xbd8d4cdb	-0.06899425
131	0x3d08dde8	0.03341475
132	0xbd8772ec	-0.066137165
133	0xbd531ab1	-0.051539127
134	0xbc961f8f	-0.018325595
135	0xbd825dac	-0.06365523
136	0xbcc1daa9	-0.023663836
137	0xbd103a47	-0.035211828
138	0x3c20e2fb	0.009819741
139	0x3d7e28c4	0.062050596
140	0xbd14dce6	-0.036343478
141	0x3dcf6ec2	0.10128547
142	0xbe0354fa	-0.12825385
143	0xbd2742a0	-0.040835023
144	0xbdccd2e7	-0.10001164
145	0xbd8c5a7a	-0.068531945
146	0xbdab8801	-0.0837555
147	0xbd3d2ab8	-0.046183318
148	0xbd549cbd	-0.05190729
149	0xbd5d5122	-0.054032452
150	0xbc0dd349	-0.008656331
151	0xbcd35035	-0.025795082
152	0xbc0cc686	-0.008592254
153	0xbda69106	-0.0813313
154	0xbe0d9dd1	-0.13829733
155	0x3dbdcb76	0.09267323
156	0xbcab7e9c	-0.020934395
157	0xbd48c132	-0.04901237
158	0xbbe51957	-0.006991546
159	0xbdbdb636	-0.092632696
160	0x3e71f0d0	0.23627019
161	0xbe4e3160	-0.20136023
162	0xbe23372b	-0.15939014
163	0xbdc178a2	-0.09446837
164	0xbca9ab63	-0.020711606
165	0xbddb359c	-0.107035846
166	0x3e2c6e4b	0.16838948
167	0x3dc833e8	0.09775525
168	0xbc41ec95	-0.011836191
169	0x3e92e35a	0.2868908
170	0xbc70c217	-0.014694712
171	0xbe94d3ea	-0.29067928
172	0x3dae6e0d	0.08517084
173	0x3d95a0a5	0.07306031
174	0xbcc1119b	-0.023567965
175	0xbd2b6c04	-0.04185106
176	0xbd82be00	-0.06383896
177	0xbc0d8ee6	-0.008640027
178	0xbe1f8b5c	-0.15580505
179	0x3e3da6bc	0.18520635
180	0x3c8da39d	0.017289931
181	0xbe13c592	-0.14430836
182	0x3e53b30a	0.20673767
183	0x3d5ebbc7	0.054378297
184	0x3ca4632f	0.020066826
185	0xbea8b56b	-0.3295091
186	0x3c06767c	0.00820696
187	0x3dd1dd67	0.10247307
188	0xbdb32014	-0.08746353
189	0x3dd5375f	0.10410952
190	0xbeb107c7	-0.34576246
191	0xbde6d7eb	-0.11271652
192	0x3d90ea9b	0.070759974
193	0xbd83d66c	-0.06437382
194	0xbdf1f864	-0.11814955
195	0x3e66657b	0.22499649
196	0xbd96a77e	-0.07356165
197	0xbda848f0	-0.08217037
198	0xbd56d847	-0.052452352
199	0x3d387487	0.045033004
200	0xbe599724	-0.21249062
201	0xbca05b1b	-0.019574692
202	0xbd94323f	-0.07236146
203	0xbd074b74	-0.033030942
204	0x3d866b5f	0.06563448
205	0x3e3017e2	0.1719661
206	0xbe42e721	-0.19033481
207	0x3d9f885d	0.07789681
208	0x3dcd971e	0.10038589
209	0xbe126cd7	-0.14299332
210	0x3bc72197	0.0060770023
211	0xbc1f21d4	-0.009712655
212	0xbde1811c	-0.11010954
213	0xbe58e5e7	-0.21181451
214	0xbe038e95	-0.1284736
215	0xbe0a39ec	-0.13498658
216	0x3c92328f	0.017846374
217	0x3dfeee51	0.12447799
218	0xbd56dc47	-0.052456167
219	0x3e2233cf	0.15840076
220	0xbddce18c	-0.10785207
221	0xbe21f048	-0.15814316
222	0x3e0fd9fa	0.14047995
223	0xb8feff2b	-0.000121591926
224	0xbd8305ff	-0.06397628
225	0xbdb2d367	-0.08731728
226	0x3bc7b245	0.0060942494
227	0x3e27fe84	0.16405684
228	0xbe1b60cb	-0.15173642
229	0xbe13bfa6	-0.14428577
230	0x3d393b16	0.045222364
231	0xbdb7fa1b	-0.08983251
232	0xbdc51078	-0.09622282
233	0xbcfb2a4f	-0.030659823
234	0xbd218d9a	-0.039441682
235	0xbd97a481	-0.074044235
236	0x3e1671c6	0.14691839
237	0x3dda0c57	0.10646885
238	0xbdc8705f	-0.09787058
239	0x3d741bcf	0.059596833
240	0xbd1b450f	-0.037907656
241	0xbd746fef	-0.05967706
242	0x3c082cd7	0.008311472
243	0xbe009883	-0.12558179
244	0xbd045307	-0.032305744
245	0xbe0113d5	-0.12605222
246	0xbe0eb972	-0.1393793
247	0xbe11feac	-0.14257306
248	0xbd8e241b	-0.0694048
249	0xbdb134e5	-0.08652667
250	0x3dceb4c5	0.10093073
251	0x3d972fbf	0.07382154
252	0xbd2888c7	-0.041146066
253	0x3c7bcd3b	0.015368755
254	0x3a5279ca	0.0008029012
255	0xb8d48f3c	-0.00010135627

bias f4 [15]
0	0xbc9e6de1	-0.019339504
1	0xbb1d4a92	-0.0024000746
2	0x3db2071e	0.08692764
3	0x3a98c7ea	0.0011656259
4	0xbc30087d	-0.010744211
5	0x3d81072f	0.06300198
6	0xbcc0ec89	-0.023550289
7	0xbc81ace4	-0.015829511
8	0x3c36d18f	0.011158361
9	0x3adaa6e2	0.0016681815
10	0xbc876a03	-0.016530043
11	0x3cb51058	0.02210252
12	0xbc499174	-0.012302745
13	0x3cce15ec	0.025156938
14	0x3c8c06f0	0.017093152

weight f4 [1, 32]
0	0xbdc9758f	-0.09836876
1	0x3c42d90b	0.011892567
2	0x3c506e25	0.012721573
3	0xbab249ff	-0.0013602375
4	0x3dfeefc6	0.12448077
5	0x3e0fb445	0.14033611
6	0x3dd3ecc0	0.10347891
7	0x3c83b353	0.01607672
8	0x3dce01a1	0.100589044
9	0xbb9a1995	-0.0047027566
10	0x3aef0318	0.0018235175
11	0x3dcf05da	0.10108538
12	0x3ae43466	0.0017410635
13	0xbd6392c9	-0.055559907
14	0xba891a20	-0.0010460056
15	0x3b31fc23	0.0027158342
16	0xbdcc7598	-0.09983367
17	0x3c47fd31	0.012206362
18	0x3e191793	0.14950399
19	0x3c0a07b7	0.008424691
20	0x3d3e4ab4	0.04645796
21	0xbc4e7358	-0.012600742
22	0xbd640eaa	-0.055678047
23	0x3dd34024	0.10314968
24	0x3cc065b5	0.023485998
25	0x3c92e2ab	0.01793035
26	0xbcf493ff	-0.029855726
27	0xbcd4359a	-0.025904465
28	0x3e911f34	0.2834412
29	0x3d367939	0.0445492
30	0x3d061f1a	0.032744505
31	0xbcb3c355	-0.021943728
