results_final/generalization/600levels-policy.pt (torch, 443935 bytes, 11 tensors)

weight f4 [32, 3, 8, 8]
000000 ea 3f 69 be 31 00 ab 3d 97 10 42 3d 9e 33 62 bd
       -0.22778288 0.08349646 0.047379103 -0.055225007
000010 5a fd 11 bd 32 14 65 3c 22 10 4b 3e 76 eb 9c 3d
       -0.035642006 0.013981866 0.19830373 0.07662098
000020 08 2f 79 be 3b f2 2b be c9 55 aa bd dc 02 85 be
       -0.24334347 -0.16791622 -0.083171435 -0.25978744
000030 e9 d5 07 bd 58 fd 3c 3e 4a 61 14 3d 96 33 56 bc
       -0.033162985 0.18456018 0.036225595 -0.0130738225
000040 ce 7f c5 bc ac 66 2a 3d a9 c2 2a 3e 6f e6 fd bd
       -0.024108794 0.04160182 0.1667582 -0.12397467
000050 27 8c 3f be 63 bd d0 bc cf f5 21 be f7 26 c5 bd
       -0.18705808 -0.025480932 -0.15816425 -0.096265726
000060 b4 c0 53 3e b1 6f 5b 3e e4 60 21 3e ba 56 17 bd
       0.20678979 0.21429326 0.15759617 -0.036947943
000070 cb 94 00 3e 73 70 5e bd ae 0c 2f be 56 d0 0e be
       0.1255676 -0.05430646 -0.1709468 -0.13946661
000080 3f 78 f8 bd e9 6c 75 bd e5 e1 ac 3c 05 b8 02 3e
       -0.1213231 -0.059918318 0.021103809 0.1276551
000090 be 57 36 3e bf d7 3b 3e 4e 87 65 3e 96 c8 68 3d
       0.17806908 0.1834402 0.22414896 0.05683192
0000a0 f7 29 ca 3c 0a 20 4b bd 01 1c 29 3d 98 67 7d 3d
       0.024678214 -0.0495911 0.041286472 0.061866373
0000b0 e2 0b a3 3d 70 ea 05 3e 01 89 de 3c ed ca cf 3d
       0.07961251 0.13077712 0.027164938 0.10146127
0000c0 c3 ee 4f 3e 7d f3 90 3d c3 4a 82 bd 6b a7 22 3e
       0.20305924 0.07077692 -0.06361916 0.15884177
0000d0 25 b4 1b 3e 58 a5 3b be 76 a3 20 be 11 65 b0 3d
       0.15205438 -0.18324792 -0.15687355 0.08613027
0000e0 a3 3c 67 be ca c2 35 be 5b 70 c6 3d c9 e8 cc 3d
       -0.22581725 -0.17750087 0.09689399 0.10005338
0000f0 45 1b 4e 3e 05 61 b1 bc ef b7 c2 bd b4 2f 74 3d
       0.2012759 -0.021652708 -0.09507739 0.059615806
000100 8b 3e 22 be be c6 b0 3d 68 98 10 be ae 2e cc 3d
       -0.15844171 0.08631657 -0.14120638 0.09969841
000110 7c e8 6d be bd 53 95 3e 94 b6 36 bd 8d ef e2 3d
       -0.23233217 0.2916545 -0.044607714 0.11080847
000120 e3 97 88 be 62 77 65 be c0 1b 28 be b1 47 c9 3c
       -0.2667838 -0.22408822 -0.16416836 0.024570318
000130 a6 1b 7a bc 42 af 36 3e 72 ab df 3d 08 a3 88 3d
       -0.015265381 0.17840293 0.109213725 0.06671721
000140 f2 ca d4 3d cd 7c d0 3d e3 34 3d 3d b7 c9 15 bc
       0.10390271 0.10180054 0.046193015 -0.009142331
000150 6b 7b 05 be ff eb 60 3c 60 8a 4f be 0f ed c9 bd
       -0.13035361 0.013728141 -0.2026763 -0.098596685
000160 fe 0a 6a 3e 07 93 88 3d c3 97 85 3e 32 9f 01 3d
       0.22855756 0.06668668 0.26092348 0.03164596
000170 c9 d7 8c 3d 99 5b 8c bd b4 f1 dc bd ed fd 5d be
       0.06877095 -0.06853408 -0.10788289 -0.21678896
000180 fb 03 ac bd a0 91 95 bd 2e 71 87 bd 88 75 cd bd
       -0.08399197 -0.073031664 -0.06613384 -0.10032183
000190 dd 0a 47 bd 12 b2 0c 3e b8 9b 2f 3d 16 1c 97 bd
       -0.048594344 0.13739803 0.042873114 -0.07378404
0001a0 36 54 88 bb ab bc 76 3c 83 48 58 be 92 f0 06 3e
       -0.0041604294 0.01505963 -0.21121411 0.13177708
0001b0 ff 5d d4 3d d7 76 f5 bc 48 f6 f9 bd 00 23 ac 3d
       0.10369491 -0.029963894 -0.122051775 0.08405113
0001c0 d6 1a 12 3e 98 0f 91 3c 7e 6b 66 3d 70 26 0e 3e
       0.1426805 0.017707631 0.056254856 0.1388185
0001d0 55 fd 89 3e 1f 8b b3 bc 84 a7 b5 bb 18 22 9a ba
       0.2695109 -0.021916924 -0.005543651 -0.0011759428
0001e0 7e 4c 14 3d 6a e0 05 3c c3 a5 15 be b4 ae af bc
       0.03620576 0.00817118 -0.14614014 -0.02144561
0001f0 af 0d bf bd 5a 21 56 be 03 2b 5b 3e f7 27 ea 3d
       -0.09328782 -0.2091116 0.21403126 0.11433404
000200 be b9 8f 3b 1e 08 f5 3d 00 6c 52 be 62 7d 0c be
       0.004386156 0.11964439 -0.20549011 -0.13719705
000210 75 8a de bd b9 a3 14 3e 64 70 67 bd df 16 82 bd
       -0.10866252 0.1451558 -0.05650367 -0.063520186
000220 91 55 db 3c d3 33 e6 3b f3 c6 c4 bc 81 83 03 3d
       0.0267742 0.007025221 -0.024020648 0.032107834
000230 20 35 62 3d 71 41 08 be 99 3b 3c be f7 1f 41 3d
       0.055226445 -0.13306214 -0.1838211 0.047149625
000240 5e 55 9f 3d bb 8c 6c 3e e7 2e 79 be a0 9f 3a bd
       0.077799544 0.2310056 -0.24334298 -0.045562387
000250 f5 01 5e 3e 95 2e a8 3c 7a 29 69 be 05 18 5b be
       0.21680434 0.020530025 -0.22769728 -0.21395881
000260 af d1 04 3c 4d eb e0 bd f9 47 7c bd 98 7d ab 3d
       0.008106633 -0.1098238 -0.061592076 0.083735645
000270 c6 b2 17 3d fc cf 9a bd f1 a4 12 be 76 9c ab 3b
       0.037035726 -0.07559201 -0.14320733 0.0052371575
000280 01 21 ab bd 29 31 c4 bd a6 47 0d bd 90 b1 14 be
       -0.08355904 -0.09579689 -0.034492157 -0.1452086
000290 5a 05 72 be 91 af 12 be 00 6e ce bb 79 89 1b 3e
       -0.23634854 -0.14324786 -0.006299734 0.1518916
0002a0 57 64 cf bd 19 ee 1a 3d 49 1a 70 be f3 ca b4 bd
       -0.1012656 0.037824724 -0.23447527 -0.08827772
0002b0 bc 96 8e be 82 4b 2c be 97 6d 11 bc a4 1b 10 bd
       -0.27849376 -0.16825679 -0.008876226 -0.03518261
0002c0 70 c6 fe 3b 43 26 ee 3c fa 34 02 be 67 1a 31 be
       0.0077751204 0.029070979 -0.12715521 -0.17295228
0002d0 69 db e1 be df a5 fb bd d0 e7 41 be b7 da dd bc
       -0.4411271 -0.12287497 -0.18936086 -0.02708183
0002e0 32 e7 b6 3d fc 59 13 be 52 b4 e5 bd fe b1 aa be
       0.08930816 -0.14389795 -0.11216034 -0.33338922
0002f0 1d bd 95 bd ae cb 75 be fa 02 14 3c 89 59 fd bd
       -0.07311461 -0.24003479 0.009033913 -0.12370593
000300 21 fd 27 3e 02 00 56 be 1a 13 2e be 51 55 20 be
       0.16405155 -0.2089844 -0.16999474 -0.15657546
000310 8c 3b 8d bd 88 75 c1 be 87 96 10 be f9 ea 68 be
       -0.06896123 -0.37784982 -0.14119922 -0.22745885
000320 02 e8 82 be 3b 43 27 be f8 8c 2f be 05 98 0f be
       -0.25567633 -0.1633424 -0.17143619 -0.14022835
000330 92 77 49 be 12 dd 24 be ae ba 14 bd 70 c8 16 3d
       -0.19674519 -0.16099957 -0.036310844 0.036812246
000340 cc 15 6c bd 08 cf d0 3d 00 bd d8 bd 87 ce b6 3d
       -0.057637975 0.10195738 -0.10582924 0.08926111
000350 82 b9 f3 bd 8f b5 bc bd 98 af d0 3d 98 97 8c 3c
       -0.11900617 -0.09214317 0.10189742 0.01716213
000360 ac 91 ab 3c 56 5a 16 be 8b ba 1e be 29 90 0c bb
       0.020943485 -0.14682898 -0.15500848 -0.002144823
000370 28 fc 64 3e 05 07 5d bb 52 62 57 bd b6 f7 20 be
       0.22361815 -0.0033726108 -0.052584 -0.15719494
000380 08 e6 00 bc 3f ab 18 bd 5f d5 27 3e f2 cd 27 be
       -0.007867344 -0.037272688 0.16389988 -0.16387156
000390 80 82 ce 3c 91 1d 2e 3e 4b 63 d9 3a 7e ce 57 bc
       0.025208712 0.17003466 0.0016585378 -0.01317179
0003a0 1a e3 35 3e ea d9 4e bd 11 8a 0f bd 90 d9 3c bd
       0.17762414 -0.050500788 -0.03504378 -0.04610592
0003b0 a7 e0 ae bc 88 40 41 bd 32 33 15 bd 0e b8 fb bc
       -0.021347357 -0.047180682 -0.036425777 -0.030727413
0003c0 97 b7 1a 3d 85 3d 08 3c fd 19 bd bd bf 77 94 3d
       0.03777274 0.008315449 -0.092334725 0.07249402
0003d0 f1 cb ff bd 45 58 c0 bd 66 f5 23 bb 00 62 a7 3c
       -0.124900706 -0.09391836 -0.0025018095 0.020432472
0003e0 e5 48 46 3e 54 98 08 be 09 b5 97 be 6b ed 6f be
       0.19363745 -0.13339359 -0.29630306 -0.23430412
0003f0 27 da 25 be 6d e5 46 be e2 3d 8c be 90 5e fa be
       -0.161965 -0.19423456 -0.27390963 -0.4890027

bias f4 [32]
000000 a4 db cc 3c 3b 3c 9b 3b 1b 89 d2 bb c5 48 30 3d
       0.025007077 0.0047374046 -0.0064250357 0.04303815
000010 06 bd 70 bb ad 2c 45 bc 97 60 07 bb 43 73 b4 bc
       -0.003673376 -0.012034577 -0.0020656937 -0.022027617
000020 d0 64 83 bb 1e 3f 0b bc d9 52 f9 3b b4 df 98 bb
       -0.0040098205 -0.008498935 0.007608753 -0.0046653394
000030 fb fc 4c ba a4 68 ed ba 26 ad b0 ba 86 71 34 ba
       -0.00078196794 -0.001811285 -0.0013479337 -0.00068833714
000040 a7 65 40 bc fa fc 56 bb 3a 3b 59 bb f8 ac b3 3c
       -0.011742986 -0.0032804594 -0.0033146874 0.021933064
000050 70 76 60 bc a8 f6 0c bb 3e 13 9b bb af 23 3f ba
       -0.013700113 -0.0021509323 -0.0047325185 -0.0007291389
000060 90 18 e7 bb f5 c6 65 bc 6e 3d ae 3c f6 4f f4 ba
       -0.0070524886 -0.014024486 0.021269526 -0.0018639553
000070 6b c6 8a bb 85 ed 38 bb 26 2e 80 b9 2c 14 8b bb
       -0.004235079 -0.0028217745 -0.00024448446 -0.004244348

weight f4 [64, 32, 4, 4]
000000 9f 90 00 3e 15 b4 61 3c 19 88 1e 3e 1b 60 c7 3c
       0.12555169 0.013775845 0.15481605 0.024337819
000010 37 1a 2e bd 2d b1 22 3e a9 ce 84 3d 44 0f a3 bd
       -0.04250547 0.158879 0.0648473 -0.07961896
000020 4c 25 11 bd 91 ed 4d 3d 9c 9f c7 bd df 44 b5 bd
       -0.03543596 0.05027539 -0.0974724 -0.08851027
000030 ed a6 dc bd cb 97 1a bd ff a0 bd bd 81 ea 0c be
       -0.10774026 -0.037742417 -0.09259223 -0.13761331
000040 f9 44 fb 3d e1 31 6a bc 9a 77 f9 3d f7 5c f7 3d
       0.12269015 -0.014294119 0.12181015 0.120782785
000050 c8 fb f3 3d 76 a7 21 3e 75 4c dc 3d 37 fe dd bb
       0.11913258 0.15786538 0.107567705 -0.0067746895
000060 c7 d2 20 bd 24 eb ef bd 05 0c 3a be 20 c1 ab bc
       -0.039263513 -0.117147714 -0.18168648 -0.020966113
000070 a9 9c bf bc 9f ee dd 3c 24 05 4a 3e ad 31 9e bd
       -0.023390131 0.027091322 0.19728523 -0.07724319
000080 b4 65 cf 3d 15 9c 27 3e ae 93 84 3d 90 6c b5 3d
       0.1012682 0.16368134 0.0647348 0.08858597
000090 c9 67 89 3c 74 fa b4 bb 0f 6a d2 3d 92 6b 62 3d
       0.016773121 -0.0055230204 0.10274135 0.05527837
0000a0 55 dc d6 bd c6 a3 21 be 87 2d a7 3d 2c b3 a2 3d
       -0.10491244 -0.15785131 0.081629805 0.079443306
0000b0 e5 52 7b be 49 25 f7 bd eb 26 4a 3d 3a ea 93 bd
       -0.2454334 -0.120676585 0.04935352 -0.072224095
0000c0 b4 40 16 3c 9b ad 02 3e 3c ba 08 3e 79 da e9 bc
       0.0091707 0.12761538 0.13352293 -0.028546559
0000d0 be 93 b2 3d 67 22 95 bd 7d ac 00 bd 30 1c 8f 3d
       0.08719586 -0.07281952 -0.031414498 0.06987798
0000e0 72 72 12 be a5 eb c9 bc 27 44 8d 3d e3 e0 6f bd
       -0.1430147 -0.024648497 0.06897765 -0.058564078
0000f0 75 54 a8 3c f2 9f 44 bc 1b ef ba 3c 49 41 92 bd
       0.020548085 -0.012001025 0.022819092 -0.071413584
000100 3b fc a2 bb 5c 0a 82 3d 72 4b 8b 3d 43 2d 97 3d
       -0.004973916 0.06349632 0.068014994 0.0738168
000110 a1 55 1b bd b6 57 97 bd d5 3a d2 3c 59 5f ca bd
       -0.03792346 -0.073897764 0.025662819 -0.09881467
000120 ca 4e 17 be 84 98 37 be f4 d1 94 bc 93 ba 6d be
       -0.1477615 -0.17929274 -0.01816652 -0.23215704
000130 0b 91 ce be a5 1d 3e be 52 0b ab 3c 0e a5 66 be
       -0.40345034 -0.18565996 0.020879421 -0.22523901
000140 04 d6 2f bd 5d ab 26 3b a2 67 c1 3c 6a 56 a9 bd
       -0.04292871 0.002543173 0.023608986 -0.08268435
000150 85 39 25 3d fe 06 59 3b 68 96 00 3d 5e 73 25 bd
       0.040338058 0.003311574 0.03139344 -0.040393226
000160 a7 71 b4 3d 91 48 a6 be 8f 4e 9e 3c a9 6c da bd
       0.0881074 -0.3247724 0.019324569 -0.106652565
000170 a3 f0 00 be 24 33 52 3d 8b 04 a7 bd b2 5f 82 be
       -0.12591796 0.051318303 -0.081551634 -0.25463635
000180 b3 43 a8 3d 84 59 42 3e c2 9d bc bc 37 a7 4b 3c
       0.082160376 0.1897946 -0.023024444 0.012430004
000190 62 12 cd 3d 74 17 11 3e a8 e5 f8 bd bc f5 46 3e
       0.10013272 0.14169103 -0.121531785 0.19429678
0001a0 5e b9 23 bd 9f b9 f3 bb 58 2e 08 be 06 84 88 bc
       -0.0399717 -0.0074378992 -0.13298929 -0.016664516
0001b0 1c 2e da 3c 62 f9 0a be 42 08 f3 3d 81 e6 1f be
       0.026633315 -0.13571694 0.118668094 -0.15615274
0001c0 2f 00 a2 3d 9f 8a c1 bd 7d 64 3e 3a 8e 0c de 3c
       0.07910191 -0.09450268 0.0007262899 0.027105596
0001d0 45 c2 e6 bb 4e 1e d9 bc a6 58 80 3d ff fe 45 3d
       -0.0070422017 -0.026503708 0.06266908 0.048338886
0001e0 58 08 8a bd 56 c3 bc 3d 6b 2e 2b be 7d 75 6c bd
       -0.06739873 0.09216945 -0.16716926 -0.057729233
0001f0 5c a6 b1 bd b3 25 6a bc a9 79 42 bd 3e 88 91 bb
       -0.08674309 -0.014291215 -0.047479305 -0.00444129
000200 30 37 f3 3c 2b fd 26 3c 19 80 51 3c 3d 31 80 bd
       0.029689401 0.010192196 0.0127868885 -0.062593915
000210 e9 70 7b 3d 91 7e 33 bd 74 c8 bc bc 0b 10 ce 3d
       0.061386976 -0.043821875 -0.023044802 0.10061654
000220 eb 73 05 be ba 11 06 be 07 33 4f bd de 75 52 be
       -0.130325 -0.130927 -0.050585773 -0.20552775
000230 b3 3f 50 be 4c 03 4f bd d7 d9 a8 bc 21 1a e6 bd
       -0.203368 -0.050540254 -0.020611687 -0.112354524
000240 d4 63 7c 3e 7f 45 e4 3d c5 b0 22 3e a6 81 d1 3c
       0.24647456 0.11146068 0.15887745 0.025574517
000250 64 b6 d0 3b 29 5c 96 bd e3 8a 50 bc 1a 97 d0 3d
       0.006369399 -0.07341797 -0.012728426 0.1018507
000260 d3 3f 1e 3d 97 f6 3c 3d 22 ee cc bd 33 6b 49 3d
       0.038635086 0.046133604 -0.10006358 0.0491745
000270 6f 21 ca be c4 56 7f be 01 24 93 bd 9a 75 6f bd
       -0.39478633 -0.24935442 -0.071846016 -0.058461763
000280 35 69 64 bd bb 79 25 3d 67 1a 05 bd 97 1f 3e 3e
       -0.055764396 0.040399294 -0.032495882 0.18566738
000290 2c 92 95 3d cb 52 86 3d ad 32 36 3b 8c 2d 42 bd
       0.07303271 0.0655876 0.0027801201 -0.047406718
0002a0 02 28 ff bd f1 eb 3f be 4e 0f 14 be ff 2f ec bd
       -0.12458803 -0.18742348 -0.14458963 -0.11532592
0002b0 e1 f3 e5 bd 56 9f 04 be 4e 1e 59 3d 06 39 2f bd
       -0.11228157 -0.12951407 0.053007416 -0.04277899
0002c0 32 37 36 3e ff 88 c9 3d bd a7 4f 3d 86 32 9b 3c
       0.17794493 0.09840583 0.050697077 0.01894499
0002d0 cc ff cc 3d 66 19 9d 3d 90 5a 92 3b d5 77 a3 3e
       0.10009727 0.0767086 0.0044663623 0.31927362
0002e0 1d 79 dd 3d b1 4f a6 3c 05 47 20 be c6 06 3d bc
       0.10814116 0.020301672 -0.15652092 -0.011537259
0002f0 af 79 eb bd 04 dc 1f be 6b 20 28 be d3 32 d8 bd
       -0.11497819 -0.15611273 -0.16418616 -0.10556569
000300 60 a4 b4 3d d8 82 43 3d 3d 9f 9d 3d 89 ce e4 bd
       0.088204145 0.047732204 0.07696388 -0.11172206
000310 be a9 43 bd ba 79 12 be c4 c0 17 bd f1 64 86 bd
       -0.0477693 -0.14304247 -0.03704907 -0.06562222
000320 e4 e0 85 be 0e e2 27 bd 87 de 4b 3d b4 d8 57 be
       -0.2614814 -0.040987067 0.049772765 -0.2107876
000330 1a 72 85 be e2 18 c4 3b b5 51 44 bd 75 08 2f bd
       -0.26063615 0.0059844116 -0.047929484 -0.042732675
000340 72 67 bc bb ff 38 85 3d cf 8c 0b 3d 05 75 77 3c
       -0.0057496363 0.06505012 0.034069832 0.015103583
000350 e8 c1 3c 3d 80 d6 95 3c e9 cd 2b 3e 39 46 14 3e
       0.04608336 0.018290758 0.16777767 0.14479913
000360 9b 59 dc bd 12 93 59 be d0 6e 32 be 80 49 14 be
       -0.107592784 -0.21247509 -0.17425084 -0.14481163
000370 98 c6 fc bd fd 80 03 be 9b 38 33 be ce 74 e4 bd
       -0.12342566 -0.12842174 -0.17502062 -0.11155091
000380 93 04 12 3e f8 12 5f 3d 0c 05 8e bc 8c d5 13 3e
       0.14259557 0.05446145 -0.01733639 0.1443693
000390 13 50 13 3d 67 3b 02 3d 8b fa 0c be 3a 89 1e 3d
       0.035965037 0.03179493 -0.1376745 0.03870509
0003a0 cd a6 33 be c4 af 4e 3c 37 29 8a bd f0 b8 09 be
       -0.17544098 0.012615148 -0.06746142 -0.13449454
0003b0 16 58 d4 bd c6 f2 70 bc 84 50 c6 bc 44 de 7b bd
       -0.103683636 -0.014706319 -0.024208315 -0.061491266
0003c0 81 73 bd 3c 01 f3 af 3d 27 9f 93 3c 8f 82 9b 3d
       0.023126366 0.08591271 0.018020226 0.075932615
0003d0 6f 0e c2 3c 15 79 71 bd 7a cd ac bd e0 46 79 bb
       0.023688523 -0.058953363 -0.08437629 -0.003803663
0003e0 4c cd b7 bb c0 43 4c bd 6f 61 95 bc 10 04 72 bc
       -0.00560919 -0.0498693 -0.018234937 -0.014771476
0003f0 0a 0a 6b be 37 eb df bd 12 e0 3d be 86 6a 39 be
       -0.22953048 -0.109335355 -0.18542507 -0.18107042

bias f4 [64]
000000 07 09 e9 3c 07 d7 13 bd 69 82 48 3c 93 79 83 bc
       0.028446687 -0.036093738 0.012238123 -0.016049182
000010 83 77 91 3d 69 57 27 bc ae e5 8f 3b ef df b4 3c
       0.07102873 -0.010213711 0.0043913936 0.022079436
000020 09 ee c8 bc 6e 66 68 bb 2d 83 25 bc 0c d9 4a bd
       -0.024527567 -0.0035461443 -0.0101020755 -0.0495234
000030 4f 7e 29 3d b4 87 92 3d 1b 7d 7d bd 0b 58 e6 3c
       0.041380223 0.071547896 -0.061886888 0.028118154
000040 a4 0d 87 bd a8 85 dc bc 33 1e a8 3d 20 95 44 bd
       -0.065943986 -0.026919201 0.08208885 -0.04799378
000050 f3 95 48 bc cf f2 cc 3b b1 95 98 3d 80 91 a0 3b
       -0.012242782 0.006254531 0.07450426 0.0049001575
000060 f5 9e 79 bd 90 1c 32 3c 57 46 3c 3c eb db b6 bc
       -0.06094261 0.010871068 0.01149138 -0.022321662
000070 66 2b a3 3d 91 26 4a bd 4e b9 63 3d 09 a7 05 3d
       0.07967262 -0.049353186 0.055596642 0.03263
000080 d5 50 24 bd bb 7d da ba 46 db 79 bc 0a d5 c9 3d
       -0.04011615 -0.0016669551 -0.015250033 0.09855087
000090 cb da a9 bc 73 6e 1f bb 55 75 0f 3c f0 e3 98 3d
       -0.020734211 -0.0024327307 0.0087560015 0.07465351
0000a0 f6 c2 10 3c ee 11 8c 3d 90 a3 17 ba b1 e0 b1 bc
       0.008835545 0.06839357 -0.00057845656 -0.021713587
0000b0 9d 08 60 3c 3d b6 16 3c 7b 8b 48 bc 4c ef cf 3d
       0.013673929 0.009198722 -0.012240286 0.10153064
0000c0 ab 5c 65 bc ff 7b e4 bc b4 3a 8f bc 40 ae 82 3d
       -0.013999145 -0.027891157 -0.017484047 0.06380892
0000d0 79 8f ec bc 8e 47 90 3c 87 48 ab 3c af 09 32 bb
       -0.028877007 0.017612245 0.020908607 -0.0027166416
0000e0 e9 f6 0e bd c2 e6 b1 3c 53 a9 d5 3c 06 e1 81 3a
       -0.03490344 0.02171648 0.026081717 0.0009908981
0000f0 55 fb 85 3b 34 61 c2 bd 9e d2 02 3c 1f 41 09 3d
       0.004088799 -0.09491196 0.007984785 0.03350937

weight f4 [64, 64, 3, 3]
000000 2c 8d ed bd de 08 0c 3c 7d 4b 72 3d 9e 3c 21 3e
       -0.11599192 0.008547036 0.059154022 0.1574578
000010 24 1c f9 3d 1b 85 82 bc 83 3c 63 3c 06 db 45 3d
       0.121635705 -0.01593261 0.013869408 0.04830458
000020 aa 07 95 bd f7 c8 94 3b 1e e9 c2 bc 65 ce cf 3d
       -0.072768524 0.0045405584 -0.0237928 0.101467885
000030 e2 41 6b 3d ce 46 9b 3c 6c d3 32 bd e7 38 d1 bd
       0.057435878 0.01895466 -0.04365866 -0.102159314
000040 22 1d 13 bd 9b 7b 5a 3d c6 0e aa 3d 19 5f f0 3a
       -0.035916455 0.053340536 0.08303599 0.0018338888
000050 57 7d 7e bd 5a 21 f9 bd bb 36 0d bd d5 6b 91 bc
       -0.062131252 -0.121645644 -0.034476023 -0.017751614
000060 fa db 05 3e b7 8b 39 3c 4c 98 67 3d 74 c4 5f 3d
       0.13072196 0.0113248145 0.056541726 0.05463071
000070 79 ed e9 bc 94 93 c2 bc 50 02 4c bd 9f a1 69 3c
       -0.028555619 -0.023752011 -0.049806893 0.014259725
000080 47 99 01 be 2f 51 c5 bd c2 f6 2d bd 48 5b 92 bd
       -0.12656127 -0.09634625 -0.042471655 -0.07146317
000090 37 1d 09 3e 70 d7 28 3e 94 77 b8 3d e7 4b a5 3d
       0.13390051 0.16488433 0.09007183 0.08071118
0000a0 d0 18 b6 3d 27 f1 2e bd 29 27 03 3d 69 9a e7 bc
       0.08891451 -0.04271045 0.032019768 -0.02827187
0000b0 cb 1d 20 bc 95 9a 89 3c c4 99 fd 3d 2e f8 e3 bd
       -0.009772728 0.016797343 0.12382844 -0.11131321
0000c0 d2 59 4f 3d 7a f2 5c bc c2 a0 8e 3d 29 81 4a 3d
       0.05062277 -0.013485545 0.06964256 0.049439583
0000d0 4e dd e3 3c d6 0a de bd c8 62 ba 3d 02 05 5d bd
       0.027815487 -0.108419105 0.09100872 -0.053959854
0000e0 27 2a 4a bd 8c 01 2f 3e 41 f6 de 3c f9 a3 89 3d
       -0.049356606 0.17090434 0.027217032 0.067207284
0000f0 40 64 e4 3c 55 32 78 3d 50 3b 19 3d 5b e9 57 3d
       0.027879834 0.060594875 0.03741008 0.05271278
000100 1e f5 fc 3d 5b 35 d4 bd 3d 8f 66 3c 49 63 8a be
       0.1235144 -0.10361739 0.014072237 -0.27028874
000110 0f c4 7f 3d 08 50 ea 3c 23 6c eb 3d e3 ea 62 3d
       0.062442835 0.028602615 0.11495235 0.055399787
000120 05 1d 17 be bf 98 ce bc d6 6d 92 bd 4d 0d 60 bd
       -0.14757164 -0.02521932 -0.07149856 -0.054700185
000130 63 23 c3 bd 22 a4 c0 3c 09 62 81 bc d4 15 70 bc
       -0.09528234 0.023515765 -0.015793817 -0.014653642
000140 a8 e5 3b be 6b cf 58 bd 65 02 a4 bc 82 32 52 3c
       -0.18349326 -0.052932184 -0.020020673 0.012829425
000150 d0 0a 80 bd 8a 53 6e bc 68 b1 05 bd 12 c1 d1 3c
       -0.06252062 -0.014546284 -0.03263989 0.025604758
000160 b4 84 95 bc 99 5a 55 3d 7c 36 83 3d 90 7f 24 3a
       -0.018251754 0.052088354 0.064068764 0.0006275112
000170 c6 46 92 3c c5 aa 82 3d bd 97 f3 bd 19 6e 8a 3d
       0.017856013 0.06380228 -0.11894176 0.06759281
000180 10 dc 25 bd 90 aa 6b bc 22 4d 95 bd 58 78 84 bd
       -0.04049307 -0.014383927 -0.072901025 -0.06468266
000190 90 de e8 bc 7f 14 b5 3c f6 b5 62 3d 4d c4 15 bd
       -0.028426439 0.0221045 0.055349313 -0.03656416
0001a0 88 4b f2 bc 62 bc b1 bd 50 a6 b8 bc 6d 4f 28 3d
       -0.029577032 -0.08678509 -0.022540241 0.04109137
0001b0 39 28 28 3e 6b 02 cf bc 5c 1f 0b 3d af 27 c9 3d
       0.16421594 -0.025269708 0.033965454 0.09822022
0001c0 69 d8 81 3a 92 4a 72 3c c4 df 71 3d 1c 4d 94 bd
       0.0009906414 0.014788287 0.05905129 -0.0724127
0001d0 fa fa d6 bd e0 50 6b 3d a0 a5 fe 3a d1 76 49 3d
       -0.10497089 0.057450175 0.0019428022 0.049185578
0001e0 ea 6e 19 3e 11 68 81 3c fa 4c d2 bc 5a 12 2d 3d
       0.14983717 0.015796693 -0.02567147 0.04225383
0001f0 88 f9 f8 b6 44 3f bf 3d f4 fb d7 bd 7a 0c 13 be
       -7.420025e-06 0.09338239 -0.10546103 -0.14360228
000200 f1 42 4d bc c5 66 f7 bc c0 d2 16 bd cf 0c c5 3d
       -0.012528167 -0.030200372 -0.03682208 0.09621584
000210 b8 e3 94 3d 9a 8e c0 bc e0 f7 dc 3c 83 fd ff bc
       0.072699964 -0.023505498 0.026973665 -0.031248813
000220 04 dc fb 3c d9 d6 a9 3c 53 92 b4 3c 34 0d d1 3a
       0.03074456 0.02073233 0.02204243 0.0015949369
000230 1e cf 20 3c 65 73 07 3d 84 aa ba bd a2 ff 3f be
       0.009815006 0.033069033 -0.091145545 -0.1874986
000240 1d ca f2 bc bc 93 ef 3a a3 f5 a0 bd cb 37 96 bd
       -0.02963739 0.0018278281 -0.078593515 -0.073348604
000250 17 e2 9a 3d 05 15 0a bc 8a 72 78 3d 46 79 a4 3d
       0.075626545 -0.008427863 0.060656108 0.080309436
000260 05 e0 ef bd 94 52 24 bd 91 ab a7 bd 9e 8b 2b be
       -0.1171265 -0.040117815 -0.081870206 -0.16752478
000270 b5 32 ab 3d e1 73 a4 bc e5 56 74 be c7 ab c8 3d
       0.08359281 -0.020074787 -0.23861273 0.09798389
000280 25 61 96 3d 8d c1 14 be 24 c9 96 3d 88 7d 0c bd
       0.073427476 -0.14526959 0.07362583 -0.034299403
000290 20 20 f2 bb f3 53 26 bd f0 61 03 be d4 47 26 bc
       -0.0073890835 -0.040607404 -0.12830329 -0.010148961
0002a0 ea 6d a0 3d cc eb 94 bb c4 cc cb bd a1 ad 7e be
       0.078334644 -0.0045447107 -0.09951165 -0.24870922
0002b0 5c f0 89 be 30 13 46 3d 2d 24 45 3d 66 5d 81 3b
       -0.26941192 0.048358142 0.048130203 0.0039479015
0002c0 98 70 c0 bd 7c 89 9d 3d 6f 11 58 3c 55 de 6e 3d
       -0.093964756 0.07692239 0.01318775 0.0583175
0002d0 3e 61 5c be 81 02 16 3d 1d 38 22 3e af 08 37 be
       -0.2152147 0.03662348 0.15841718 -0.17874406
0002e0 46 d1 34 3d 40 cd 67 bd 12 77 29 3d ba 42 74 bc
       0.04414489 -0.056592226 0.04137332 -0.014908487
0002f0 7b 2f a4 bd 3c e8 c6 3d 03 93 04 3e 7c 54 e8 3d
       -0.08016869 0.09712264 0.12946706 0.11344239
000300 86 83 09 bd 6f 29 9e bc be b9 26 3e cb 04 8b 3d
       -0.033572696 -0.019306866 0.16281793 0.067880236
000310 8d bd c1 bc 39 6c e3 bd cd d1 aa bc ec 83 84 3d
       -0.023649955 -0.11104626 -0.020851994 0.064704746
000320 bf 1f d8 bb 46 8f 88 bd 7d 88 36 3d 4e 79 6a 3c
       -0.0065955813 -0.06667952 0.04456376 0.014311148
000330 0e f5 f2 3b 05 5e fc 3d ef af 98 bd 93 9e 92 bc
       0.0074144667 0.1232262 -0.07455432 -0.01789788
000340 60 cc 3e 3d d1 76 08 bd 75 77 64 bc 8e c0 a2 ba
       0.046581626 -0.033316437 -0.013944496 -0.0012417005
000350 00 ea fb 3d d3 c7 c2 bb 41 57 97 bd 30 48 0a 3d
       0.12300491 -0.005944231 -0.07389689 0.03376025
000360 0a e6 31 3d 3d 06 61 bd 70 c8 be 3d 98 4a 7f 3d
       0.043432273 -0.05493759 0.09315574 0.062326998
000370 11 f8 18 bd 9e 17 b7 3d 95 e7 cf bd 31 26 dc bd
       -0.03734595 0.089400515 -0.10151593 -0.10749472
000380 89 a8 09 be 8a ad 6a bd 6e b6 56 bc b7 7a 87 bc
       -0.13443197 -0.057294406 -0.013105018 -0.016538007
000390 4f 19 6e bd 2b 43 9f 3d 8c 6d 3b bc 41 f0 e9 bd
       -0.058129605 0.07776483 -0.011439692 -0.11422778
0003a0 8e 04 ba bd bd c9 e0 bd 31 1a 46 bd a3 23 f1 bd
       -0.090829 -0.109759785 -0.04836482 -0.11774375
0003b0 27 78 ac 3d 7d 01 c5 bc f2 94 d4 bd d8 be ab 3d
       0.08421355 -0.024048561 -0.103799716 0.0838601
0003c0 33 2a 5c bd b1 f1 15 3e 66 5f 62 3d aa b7 c6 3d
       -0.05375118 0.14642979 0.05526676 0.09703
0003d0 ae 1d 0e 3e 68 68 fd bc 45 38 5c 3d c6 71 8f 3c
       0.1387851 -0.030933574 0.0537646 0.017510306
0003e0 46 2c c3 3c 37 2f 00 bd 5f 08 06 3d 6e cb 4b 3d
       0.023824822 -0.031295028 0.032722827 0.049754553
0003f0 d7 d6 b1 bd c4 80 c6 3d 08 9b 3a bd 4c 6a 14 be
       -0.086835556 0.09692529 -0.045558006 -0.14493674

bias f4 [64]
000000 cc b3 8b 3d ae a5 26 bd a1 74 7f 3d fe 64 e0 bc
       0.06821403 -0.04068535 0.062367085 -0.027391907
000010 82 bc 14 3c f8 30 69 bc 7b db 2f 3d 03 8c 30 3d
       0.009078147 -0.0142328665 0.042933922 0.043102276
000020 a8 8a 95 3b d2 b2 71 bd ee 22 78 3d e9 87 31 3c
       0.0045636483 -0.059008427 0.060580187 0.010835626
000030 21 e3 87 3d eb 8c f9 3c d3 31 bc 3d 1b 75 65 3d
       0.06635118 0.030462703 0.09189191 0.056019884
000040 3f 4b a6 3d 97 ae e3 3d bb 1e 97 3d 12 9a 9b bc
       0.08119821 0.11117285 0.07378908 -0.018994365
000050 50 8d ee bd 2c cc 23 3d 52 91 9c 3d 5e 6c a6 3d
       -0.11648047 0.039989635 0.07644905 0.08126138
000060 9e 2b 9f 3d cc e8 60 3c 6f dc a1 bd eb 51 af 3d
       0.07771991 0.013727378 -0.079033725 0.085605465
000070 94 f9 9f 3d 4f fb 89 3d 45 8c 3f 3d bd bc 5d 3d
       0.07811275 0.067373864 0.04676463 0.054135073
000080 9a 42 d3 bc c0 68 97 3d 23 3f 8d 3d f4 b1 2a bc
       -0.025788594 0.07393026 0.06896808 -0.010418404
000090 1a 8c 92 3d 05 72 14 bc b9 a3 4e 3d 30 57 32 bd
       0.071556285 -0.0090603875 0.050449107 -0.04354018
0000a0 e4 b9 ea 3c f3 7c 55 bd 81 f5 a9 3a 7c 41 41 3d
       0.028653093 -0.052121114 0.0012966843 0.04718159
0000b0 29 c9 71 3d 60 4c 08 3d 45 73 1b 3d 77 ec d1 bc
       0.059029732 0.033275962 0.037951726 -0.02562545
0000c0 ab 30 d0 3c 6d b0 d3 3c 2b d8 86 3d 08 18 11 3d
       0.025413832 0.025840962 0.065841995 0.03542331
0000d0 81 d9 3b bd be c7 d5 3a ad c2 9d 3d b1 05 21 bd
       -0.045861725 0.0016310138 0.07703147 -0.03931207
0000e0 7d 1b 85 bc 56 8d 32 3d 56 29 8b bd 04 44 92 3d
       -0.016248459 0.04359182 -0.067949936 0.07141879
0000f0 ee 7c 0c bd 00 f5 49 bd 64 94 0d bd 49 67 6e 3d
       -0.03429883 -0.049305916 -0.034565344 0.05820397

weight f4 [32, 1024]
000000 2a ba ec bd ad 91 b1 3c 61 e8 fa bd 91 40 5a bc
       -0.115589455 0.021675909 -0.12251354 -0.013321058
000010 c2 ac f1 bd 0f b2 59 bd 7d f3 27 3d 6c 43 26 3d
       -0.11800529 -0.053148326 0.041003693 0.040591642
000020 c0 06 85 3d fb b1 e2 bd ac 7b 41 bd 9e 10 2c 3d
       0.06495428 -0.11069103 -0.047237083 0.042008035
000030 2d 74 28 3e e6 0f 0e bd 4a 10 d6 bd 7c 70 af bc
       0.16450568 -0.03468313 -0.10452326 -0.021415941
000040 50 f6 55 3e e7 15 ec bc 7d 8b 10 3d 6c de 68 3d
       0.20894742 -0.028819038 0.035289276 0.056852743
000050 e3 d7 a4 bd c2 ea 84 bd 8c d3 17 3c 38 42 1c 39
       -0.080489896 -0.06490089 0.009266745 0.00014901988
000060 9c 34 54 bd 21 4f fb 3c 0b a4 ed bc e8 88 f4 3c
       -0.051807985 0.03067738 -0.029008886 0.029850438
000070 20 ea bf 3d 0c 0b 29 3d 42 08 9d 3d b8 ac 89 bd
       0.09370828 0.0412703 0.07667591 -0.067223966
000080 2c b3 c2 3c 26 e5 d5 3c d8 62 8e ba 42 1d 56 bd
       0.023767076 0.026110243 -0.0010863198 -0.052273996
000090 f6 8f 03 3e ed 4b 44 3c dd 2d 06 bd 55 05 c1 3c
       0.12847885 0.011980993 -0.032758582 0.023562113
0000a0 6c f1 1e 3e ca 72 8b 3d c1 5a 44 be ab 1a 81 bd
       0.15521783 0.06809004 -0.19175245 -0.06303915
0000b0 78 c6 08 3d 81 58 5b 3c 2b 6f d1 3d e4 f7 06 3e
       0.0333924 0.0133878 0.10226282 0.131805
0000c0 54 ba 1e bc 04 3c a4 3c 00 53 95 bb 9f 5a e9 3c
       -0.009687979 0.020048149 -0.0045570135 0.028485594
0000d0 ca c4 9d bd c3 da cc bc 95 c3 c7 3d ca f3 ba 3d
       -0.0770355 -0.025006657 0.09754101 0.0912853
0000e0 3a 53 1a bd 86 a7 b8 bd e2 5a d4 3b 19 6c bf 3b
       -0.037677027 -0.090163276 0.0064805606 0.0058417437
0000f0 98 a4 6f 3d 2a e0 ce bd 7c 5f 92 bc d2 70 bf 3d
       0.05850658 -0.1010135 -0.017867796 0.09347691
000100 b3 06 5a bd 76 0f a8 bc db 84 06 3d 8f c1 e9 3d
       -0.053229045 -0.020515185 0.032841545 0.114138715
000110 6c 98 3e bd b3 d2 98 bd 63 da df bd c9 4c 25 3e
       -0.04653208 -0.07462063 -0.10930326 0.16142572
000120 06 69 4e bd 6d 36 81 bc 30 fb 83 3c 22 06 c3 3c
       -0.050393127 -0.015773023 0.016110986 0.023806635
000130 11 cf 0f 3e 50 c2 7e bd af dd eb bc 6f 72 4c bd
       0.14043833 -0.06219703 -0.02879223 -0.04991382
000140 4d 9c 79 bd 3d 5f 15 3d 94 a5 07 ba 33 9c 33 3c
       -0.060940076 0.03646778 -0.00051745144 0.010962534
000150 fa dc 99 bd 8a 6a 5b 3d 45 4b f3 bc dd 9c 20 3c
       -0.07512851 0.0535684 -0.029698977 0.009803024
000160 ed af af bd d5 f9 fd 3d 79 bb 45 bd 56 25 ab 3d
       -0.08578477 0.12401167 -0.04827449 0.08356731
000170 e3 f4 44 bb 30 8a 7a 3d 97 f3 8f bd e6 ed 92 bc
       -0.003005319 0.061166942 -0.07028883 -0.017935704
000180 97 ab 8b be 20 3c c7 bc cf 74 f1 bd f3 3d 04 bd
       -0.2727935 -0.024320662 -0.117898576 -0.032285642
000190 29 02 85 bd c8 68 aa bd ad c6 88 3d c6 84 28 be
       -0.06494553 -0.08320767 0.066785194 -0.16456899
0001a0 f7 2a c5 bc 2b 43 d9 3d ee e4 e0 3d e1 5b d4 bc
       -0.024068339 0.106085144 0.10981165 -0.025922718
0001b0 1f d6 f2 3c f8 17 e2 3c ad 14 cb 3b 55 50 a8 3d
       0.029643117 0.02759932 0.006197533 0.08218447
0001c0 01 ea a7 3d f8 50 ee 3d 8f d0 65 3b 2a 3c e6 3b
       0.081989296 0.11636537 0.0035066938 0.007026215
0001d0 49 17 60 bd 7f 7e c4 3d 38 33 59 bc 7b b5 0b be
       -0.054709706 0.0959444 -0.01325684 -0.13643448
0001e0 e4 1f 3c 3d 52 ef 03 3e d8 68 0a 3d fd 73 7e bd
       0.04592885 0.12884262 0.033791393 -0.062122334
0001f0 0a 7a 7d bd 1e 13 59 bd b3 68 96 bd d5 53 a4 3c
       -0.061883964 -0.052996747 -0.073441885 0.020059505
000200 06 6e d8 bd dc c8 ee bc 16 b5 3c bd 1b bd 9f bd
       -0.1056786 -0.029148512 -0.046071135 -0.07799741
000210 65 62 63 bd 37 86 25 bd 2f fd 50 bc cc 73 87 3d
       -0.05551376 -0.0404112 -0.012755676 0.066138834
000220 db 72 d8 3d 38 db 6e 3d c5 56 e9 3d c0 f3 bc 3d
       0.10568782 0.058314532 0.11393503 0.09226179
000230 a0 8f 91 3e 54 71 e0 3d 8f e1 af 3c a7 cf 78 3c
       0.2842989 0.109591156 0.02146986 0.015186227
000240 00 c8 86 3e d4 e5 c3 bd 90 f8 e0 3d 32 1c c6 bb
       0.26324463 -0.095653206 0.109849095 -0.0060458416
000250 71 2b ee 3d 3e 4c 93 bd 12 30 8c bc f3 3f 5a 3e
       0.116293795 -0.071922764 -0.017112765 0.21313457
000260 78 27 da 3d 10 9c b2 bd 23 97 e1 bc 76 bd 91 3d
       0.10652059 -0.08721173 -0.027537888 0.07116215
000270 e7 c8 e1 3c 54 bd 10 bd 4f 41 99 bd 2d 48 b9 bc
       0.027561618 -0.035336807 -0.0748316 -0.022617424
000280 8a e6 48 be 65 2b 9e bd 60 db b1 ba 26 9d 7a 3d
       -0.19619194 -0.077231206 -0.0013569407 0.061185025
000290 2f c8 d2 bd 2b 12 5d 3c a9 4f 6c 3d 2e b3 1d 3d
       -0.10292088 0.013493101 0.057693157 0.038500957
0002a0 32 04 0b be 54 ce bf bd d5 14 01 bd 14 a8 9f bc
       -0.13575819 -0.09365526 -0.031514008 -0.019489326
0002b0 3b cc 8c bd dd 7d 96 3d ad 42 5e bd 24 67 fc 3c
       -0.06874891 0.07348225 -0.054262806 0.0308109
0002c0 b9 36 c4 3d db 5b 84 3d 79 05 af 3d bb 00 80 3d
       0.0958075 0.064628325 0.08545966 0.06250139
0002d0 f7 60 59 bd 90 78 0d bc ee 5b b5 3d 8a 4f a1 3d
       -0.05307099 -0.008634701 0.08855425 0.07876499
0002e0 79 6a 45 bc 23 d1 af 3d 59 e9 e5 3c da 9c 13 bc
       -0.012049311 0.085848115 0.02806537 -0.009009564
0002f0 bb c8 eb 3d 4e 1b 3e bd 40 f8 aa bc 00 d9 52 3c
       0.11512896 -0.04641276 -0.020870328 0.01286912
000300 c9 30 11 3e b5 1b 98 bc 83 75 0e bc f0 37 04 3e
       0.14178766 -0.0185679 -0.008695009 0.12911963
000310 17 7f ca 3d da 64 f0 3d ef dc 91 bd 1b 63 b7 3c
       0.09887522 0.11737986 -0.07122218 0.022386124
000320 70 27 0e 3d 72 57 80 bd c9 f8 72 bd 8a 10 04 bd
       0.03470558 -0.06266679 -0.05931929 -0.032242335
000330 91 2f e1 3d 57 a0 1f 3d b1 f8 87 3d d5 ec d8 3c
       0.10995401 0.03897127 0.06639231 0.026480118
000340 f9 13 f7 bd a5 0b 02 bc cb 44 e7 3d 61 80 31 3e
       -0.12064356 -0.007937347 0.11292418 0.17334129
000350 ab 98 18 3d f0 9e 9e 3d ab 9f 12 3e a8 3a e4 3c
       0.03725497 0.07745159 0.14318721 0.02786
000360 19 07 5a be 94 db e2 bd 49 d7 f4 bc 17 3d 18 3d
       -0.2129177 -0.110770375 -0.029887812 0.037167635
000370 b6 04 bb bd 63 98 a0 3d ee dd 71 3d 9a b1 13 3e
       -0.09131758 0.078415655 0.05904954 0.14423218
000380 5f 91 d9 bc 4b 6d 82 bd 90 97 57 3c 13 99 8e 3b
       -0.026558576 -0.06368502 0.013158694 0.004351744
000390 e1 38 02 be 61 37 06 3d 3d 67 cc 3d 3c a2 65 3d
       -0.1271701 0.032767657 0.09980629 0.056062922
0003a0 c0 e7 b7 bd 3d 08 a7 bd 46 1e 54 39 0e 0d c9 bd
       -0.0897975 -0.08155868 0.00020229173 -0.09816943
0003b0 0f 9d d6 bd cd ae f3 bd 09 cc 46 bd e5 e8 9a 3c
       -0.10479175 -0.11898575 -0.048534427 0.01890988
0003c0 d1 14 1e be b6 be 3d 3d 45 7c d1 3c b1 1d 7a bd
       -0.15437628 0.046324454 0.025571952 -0.061063472
0003d0 a6 d9 e6 3c fc 37 21 3d 9e da 06 bd e1 79 0b 3d
       0.028179955 0.03936003 -0.032923333 0.03405178
0003e0 62 55 91 3d e5 62 57 3d 90 54 39 bd f8 0f 10 be
       0.070963636 0.052584548 -0.04524666 -0.14068592
0003f0 38 4d 06 3e a3 3f 9d 3d 6a d5 d5 bd 72 25 2f bb
       0.13115394 0.07678153 -0.10441096 -0.00267252

bias f4 [32]
000000 8e a0 54 bd e8 c3 db 3d d0 1c bc 3d f7 74 b0 bc
       -0.05191093 0.107307255 0.09185183 -0.021540148
000010 50 c3 79 3d fe 46 d9 3c b3 9f 4a 3e e0 3c 82 bc
       0.06097728 0.02652311 0.19787483 -0.015898168
000020 ef 4c e3 3d 98 6b ca bc 38 9c d2 3d 33 5c 04 3e
       0.11098658 -0.024709508 0.102837026 0.12925796
000030 0a 8c 92 bc 33 ec 15 3c c8 1a 55 3d 16 74 ca 3c
       -0.017889041 0.009150553 0.052027494 0.024713557
000040 81 35 22 bd 56 eb 0e 3d 2c 5f 9e 3d 7c f2 7d 3b
       -0.039601807 0.034892403 0.07732996 0.0038749268
000050 95 c0 55 3e 83 d8 ca 3d 97 ae 1a bd 95 57 00 3e
       0.20874245 0.099045776 -0.037764158 0.1253341
000060 e6 d7 c9 3d 6f d4 e4 3c 86 94 e3 bc ca 16 36 bd
       0.098556325 0.027933327 -0.027780782 -0.044455327
000070 eb e9 63 3d 96 c9 c6 3d d0 e9 a0 3d c7 03 05 bd
       0.055643003 0.09706418 0.07857096 -0.032474305

weight f4 [15, 32]
000000 d5 c6 08 bb b7 ab 1c 3d 3f 1a 26 3c 71 e4 97 3e
       -0.0020870466 0.038249698 0.0101380935 0.29666474
000010 ca 56 11 be 9a ea 72 bd ab d3 2b 3d f7 ba 2f 3e
       -0.14193264 -0.059305765 0.04194991 0.17161165
000020 04 5b 11 3e 03 8e db 3c c2 dc be be 3f 49 63 bc
       0.14194876 0.026801115 -0.372778 -0.013872444
000030 23 ec 86 3e 3d a0 20 bd 8a 33 e8 bc 43 e4 eb bd
       0.26352033 -0.039215315 -0.028344888 -0.11518147
000040 13 52 ea 3e 6a 24 d6 bd bc 1e 2a be d7 2f f7 3d
       0.45765743 -0.10456164 -0.16613287 0.120696716
000050 ab 1c ec 3c a7 42 3b be 6f 7b c8 bd ef 03 67 be
       0.028822264 -0.18287145 -0.09789168 -0.22560094
000060 01 e7 fb bd 86 be 97 bd 3e f9 bb 3d e3 7c b8 3c
       -0.1229992 -0.07409386 0.091783985 0.022520488
000070 b5 1b e2 be d2 ab 22 3e 2d 18 0c 3e ab 4c 32 3d
       -0.44161764 0.15885857 0.13681097 0.043530148
000080 aa 46 e6 bd 08 55 9a bc 33 ee e9 bd 38 69 4d bd
       -0.11243947 -0.018839374 -0.11422386 -0.050149173
000090 27 c4 49 bd e8 48 07 be a5 c2 ff bc 0a c8 cc 3d
       -0.04925933 -0.13211405 -0.031220743 0.09999092
0000a0 25 b1 55 bd 53 f2 42 bd 68 a8 89 3b d4 db 00 3e
       -0.05217089 -0.04759438 0.004200984 0.12583858
0000b0 94 ce 53 bd 83 a4 0c bd 54 0e 94 bd 77 b7 5f bd
       -0.05171068 -0.034336578 -0.072292954 -0.054618325
0000c0 08 87 98 bc a9 d5 05 be 65 59 90 bd a9 57 00 be
       -0.018619075 -0.13069786 -0.07048301 -0.1253344
0000d0 d1 d6 3c bc ae da 2b bd ab 99 4a 3d 27 8b c6 bd
       -0.011525826 -0.041956596 0.049462955 -0.0969451
0000e0 bb 70 2c 3e e5 4c 86 3d 76 3e 9b bd 00 ac 85 be
       0.16839878 0.06557635 -0.07580273 -0.26107788
0000f0 98 b2 22 bd 1c 21 e6 bc 80 56 d3 3c 21 31 3a 3d
       -0.0397211 -0.02809196 0.025798082 0.04545701
000100 dc 88 f3 bc 09 db 79 3d ea aa 96 be bc 04 a1 3d
       -0.029728346 0.060999904 -0.29427272 0.07862231
000110 a6 89 2d 3d 66 30 52 be 99 a5 ac bb d7 26 ab 3c
       0.0423676 -0.20526275 -0.005268764 0.020892544
000120 da 4b 37 be e9 bd 43 3e 82 97 03 3d a5 d2 88 bd
       -0.17900029 0.19115414 0.03212691 -0.06680802
000130 77 e4 a3 bd 64 c6 66 be 8b 74 cc 3d ed 50 40 3e
       -0.080025606 -0.22536618 0.09983166 0.1878087
000140 70 63 f1 bd ad fe 5e 3d f5 ea 9c bd 81 bb 25 3e
       -0.11786544 0.054442097 -0.07662002 0.16184808
000150 1c 2d b3 3c 1b 36 8c 3d 9d 41 c1 3e 59 e2 1c 3d
       0.021872096 0.06846257 0.3774537 0.0383018
000160 b5 15 2e 3d 12 4e 14 3d ba b7 df 3c 5a dd 7c 3e
       0.04250117 0.036207266 0.027309287 0.24693814
000170 db ac f1 3b 45 66 44 3d 17 a6 9f be 89 cc b4 3c
       0.0073753423 0.047949094 -0.31181404 0.022070186
000180 14 87 1d bd ad 91 62 3d 4b 0b 88 3d 4f 97 07 3d
       -0.0384589 0.05531471 0.06642779 0.033103283
000190 ef a6 88 bc ec 26 20 be 25 26 06 bb b0 b8 09 3e
       -0.016681163 -0.15639848 -0.0020469513 0.13449359
0001a0 ba fa 21 3e 5e 08 4a 3d b9 d6 ac be 77 88 fc 3d
       0.15818301 0.049324386 -0.3375757 0.12330716
0001b0 9d b0 ac 3d 74 9c 82 bc e8 6b 1a bd f3 0f 34 be
       0.08432124 -0.015943743 -0.037700564 -0.17584209
0001c0 cf dc 87 3e 86 04 ef bd 44 da ba 3d 2e df 3d be
       0.2653565 -0.11670785 0.09123662 -0.18542168
0001d0 0a ca f0 3c f4 87 0b be 01 84 99 bc 68 cb f6 bd
       0.029393215 -0.13626081 -0.018739702 -0.120505154
0001e0 5d 95 e6 bd 7c e3 74 bd 87 5c 12 3d 7d 47 5e 3e
       -0.112589575 -0.05978726 0.035732772 0.21706958
0001f0 88 78 3b be 8e aa 3c be f7 08 ba 3d 4d 93 0e be
       -0.18307698 -0.18424436 0.09083741 -0.13923378
000200 e7 63 28 3d 16 3b 36 bd e1 14 c3 bd c7 76 a7 bd
       0.0411109 -0.044489942 -0.09525467 -0.08176952
000210 f4 1a 4d bd 71 3b 77 bc 8d 5e 69 3b c9 9b 2c bd
       -0.050074533 -0.0150898555 0.0035609335 -0.042140756
000220 00 c3 91 bb 06 cd 21 3e 93 1c df bb d7 d7 96 3d
       -0.0044482946 0.15800866 -0.0068088262 0.07365387
000230 33 59 7f bc 5f bf 97 bd e3 1b a9 bd f4 fe 23 3d
       -0.015585232 -0.07409548 -0.08257272 0.040038064
000240 90 ea dc bd 93 0f d9 bd f9 12 9a bd 07 11 e9 bb
       -0.10786927 -0.10598674 -0.0752315 -0.0071126255
000250 23 09 ae bc 21 90 7a 3c 6e ce e6 bd 09 89 fd bc
       -0.021244591 0.015293152 -0.11269842 -0.030949133
000260 9e 67 d9 3d 8d 22 cf bd bd e6 4c 3d 2c e7 fb 3d
       0.106154665 -0.10114012 0.050024737 0.12299952
000270 40 7c bb 3b 05 fd 0d bd 96 d1 32 bd 3b 7b 55 bd
       0.005721599 -0.034665126 -0.043656908 -0.052119475
000280 de bf 27 3d 0f 0f 38 bd 1c 92 07 be 9d 72 c6 bd
       0.040954463 -0.044936236 -0.1323933 -0.096898295
000290 38 27 2b be a8 32 c7 bd f5 c6 0f bd 6a 92 ae 3d
       -0.1671418 -0.09726459 -0.03510185 0.0852402
0002a0 29 21 71 bd ce 0a e6 3d c3 69 b6 3d 51 cb 05 be
       -0.058869515 0.112325296 0.08906891 -0.1306584
0002b0 78 e4 72 be cc 00 92 3c 8f 28 d5 bc be f6 68 3d
       -0.23719966 0.017822646 -0.026020316 0.056875937
0002c0 5e 35 68 bd 5a cd d0 3c d6 54 40 bd 2c e4 cb bc
       -0.05669152 0.025488544 -0.046955906 -0.024889074
0002d0 42 df 57 bb 7c 5b ec 3d 55 a8 29 bd ad 0c c2 3d
       -0.0032939469 0.11540887 -0.0414203 0.09475074
0002e0 f4 be 16 bd bc af f3 3a ba ed 9f 3e 63 84 f8 3d
       -0.0368032 0.0018591802 0.31236058 0.12134626
0002f0 4b 1c 85 3d a1 35 66 bd ff 60 39 be 39 da fb bc
       0.06499537 -0.05620349 -0.18103407 -0.030743705
000300 7f 7c 6b 3d 3e 4e eb bd 47 17 33 3c 46 92 07 bd
       0.057491776 -0.11489533 0.010930843 -0.03309848
000310 e6 af cf bd 9a 5d 19 bd 03 3d 1e be 2b 2e 86 bd
       -0.10140972 -0.03744278 -0.15452962 -0.065517746
000320 dd 3e 91 bd 63 8a 2c be ee 56 86 bd 53 55 db bd
       -0.07092068 -0.16849665 -0.06559549 -0.10709634
000330 ce 48 0c bd c2 cf bc bd 44 78 28 be 85 1d fd bd
       -0.03424912 -0.09219314 -0.16452128 -0.12359146
000340 9a 6b 57 bd e2 fc 46 be 11 f9 15 be 9a 2f 29 bd
       -0.05259285 -0.19432405 -0.14645793 -0.041305162
000350 e9 bb d1 bd 6b 79 5d be 68 72 0e be 26 2d fa bd
       -0.10240919 -0.21628349 -0.1391083 -0.12215643
000360 17 64 a8 bd 56 4b 36 be 71 01 d4 3d 1c 16 2f bd
       -0.082222156 -0.17802176 0.103518374 -0.042745695
000370 9c 45 f9 bd 57 93 82 bd df b6 2d bd fb 3a 88 bd
       -0.1217148 -0.06375759 -0.042410728 -0.06651875
000380 c5 68 40 3e 27 bc 09 be a5 8f d1 3d 1c 3f 32 3e
       0.18789966 -0.1345068 0.10232476 0.17406887
000390 02 31 c0 bd 92 ac 02 3e 7c 91 85 bd 64 f9 30 be
       -0.093843475 0.12761143 -0.065218896 -0.17282635
0003a0 17 c7 e1 bd a6 42 6a 3a 51 ca 38 bd a7 62 b1 bd
       -0.110243015 0.0008936323 -0.04511482 -0.086613946
0003b0 aa f9 14 bd 98 6c 7e 3d 2d da 1d be 31 1d d9 bd
       -0.03637091 0.06211528 -0.15415259 -0.10601271
0003c0 74 74 d2 bc f0 05 75 bd c3 9d 70 bd 31 a3 2a 3d
       -0.025690295 -0.059820116 -0.058744203 0.041659538
0003d0 e8 26 da bc b9 26 a4 3c 3b d0 66 be 2c 5a 1a be
       -0.02662988 0.020037996 -0.22540371 -0.1507346
0003e0 be fd 26 be 18 c4 9c bd 3c 28 a1 3d 1d de b8 3d
       -0.16307732 -0.076545894 0.07869002 0.0902674
0003f0 d8 3b 4f bd f3 93 08 be 6a e7 d6 bc b8 39 bb 3d
       -0.05059418 -0.13337688 -0.026233394 0.09141868

bias f4 [15]
000000 8d 87 40 3d 64 db 7e bc ca ce 56 3c d7 2b 3d 3d
       0.04700427 -0.0155552365 0.013110826 0.046184387
000010 79 62 44 3c 9f 27 38 bb 64 0e 7d bd d8 0c 83 bc
       0.011986368 -0.0028099788 -0.061781302 -0.015997335
000020 98 00 02 ba 35 12 f0 3c 77 10 51 bc 47 8e 45 3c
       -0.0004959195 0.029305557 -0.012760273 0.012057847
000030 f6 34 19 3d ce 58 e1 3b 60 19 e6 3b
       0.037404023 0.0068770414 0.007022068

weight f4 [1, 32]
000000 fd 95 50 bc 7c fc 50 3c 40 04 a7 3c 44 c7 4c bb
       -0.0127310725 0.0127555095 0.020387769 -0.0031246701
000010 38 27 27 3c 3e 4a f7 3d 4e 3c b4 3d b5 70 34 3c
       0.010202222 0.120747074 0.08800565 0.0110132
000020 9b ac a9 3d 0d b2 b6 bb ab e3 fb 3c e1 7e 17 3d
       0.08284875 -0.0055754245 0.030748209 0.036986236
000030 cf 66 22 bc 85 ca 14 3c 83 bb 55 bc 07 e0 2c 3c
       -0.009912207 0.009081488 -0.013045195 0.010551459
000040 4b d4 7a bc b9 a6 5c bb 01 63 3e 3d 3a 7a 40 3c
       -0.015309404 -0.003366871 0.046481136 0.011747891
000050 f3 08 98 3d 26 cb d1 3c dc 66 87 bc 9e 43 87 3d
       0.07423582 0.025609564 -0.01652854 0.06604694
000060 69 79 be 3d 12 b8 ab 39 9a 3f 9b 3b 46 cb bc bb
       0.09300501 0.00032752805 0.0047378065 -0.005761537
000070 5b a1 7e 3d 68 4a 42 3d de 53 9c 3c a0 06 58 bc
       0.0621656 0.04743424 0.01908296 -0.013185173
