results_final/generalization/70levels-policy.pt (torch, 443871 bytes, 11 tensors)

weight f4 [32, 3, 8, 8]
-0.18388267 0.1476117 0.20884411 -0.065433 0.082887225 -0.013520312 0.051442035 -0.11449911
-0.17647733 0.046533775 0.04212278 -0.30037865 0.02239398 0.1923683 0.010168933 -0.02182195
-0.00091704464 -0.039406527 0.095417194 -0.15404074 -0.15371005 -0.006307383 -0.08649028 -0.09084165
0.23259915 0.21346004 0.15672533 -0.011882996 0.11496172 0.00073975715 0.010932502 -0.04820603
-0.033090807 -0.05057146 -0.048165683 0.16048582 0.2079955 0.05255422 0.22542854 0.1254605
0.06549685 -0.091101415 -0.013906515 0.025624 0.031661343 -0.098094635 -0.011948617 0.056556012
0.2236984 0.037544556 -0.07293249 0.18376598 0.23389189 -0.07427675 -0.00270195 0.16087689
-0.16572861 -0.035458483 0.18460187 0.12118452 0.26574755 0.11958868 -0.017533612 0.0838249
-0.12746823 0.09984157 0.02825534 0.1403714 -0.09658706 0.18269287 -0.14345407 -0.04016053
-0.29955056 -0.07290873 0.015800914 -0.04056411 -0.012395371 0.16393656 0.12034698 0.032002755
0.12526122 0.050916478 -0.010028812 0.00019759743 -0.13649073 0.0053272764 -0.1063058 -0.081993796
0.29218778 0.061088845 0.225712 0.049026717 -0.009074277 -0.06989482 0.089317665 -0.11096014
0.010357166 -0.05044828 -0.10678613 -0.03800217 0.022176515 0.025266912 0.09577132 0.009054696
0.09644584 0.026362233 -0.21876214 0.12273258 0.072460584 -0.2885283 -0.19325472 0.0848323
0.14682963 0.010429083 -0.0012214793 0.11092476 0.36370587 0.11798458 0.16388851 0.05462102
0.048397675 0.14474621 -0.021252956 0.051876195 -0.0072411243 -0.09791177 0.31845346 0.14907993
-0.037279006 0.014898188 -0.19227086 -0.15417686 -0.14757259 -0.10446178 -0.10372175 -0.23188175
-0.08020165 0.05372506 0.12167381 -0.019287791 -0.071565345 -0.25244665 -0.14584549 -0.042422887
-0.01975695 0.11156623 -0.27423638 -0.09563512 -0.0010659455 -0.0509125 -0.15659617 -0.1967981
0.0139845405 -0.1758666 -0.15731542 0.07653243 -0.08573088 -0.00593283 -0.02913097 0.0671885
-0.1027139 -0.065077946 -0.024261177 -0.07634904 -0.19965804 -0.13055263 0.004585373 0.15100436
0.0035168931 0.1209617 -0.17017354 -0.11761393 -0.33659518 -0.29662508 -0.08388556 -0.062433768
-0.21955107 0.0024480757 -0.24237996 -0.3347632 -0.4773486 0.03063501 -0.10426805 -0.07725732
-0.077767454 -0.086320944 -0.1887777 -0.31369266 -0.17575835 -0.4386529 -0.082958974 -0.22898488
0.13762692 0.064924635 -0.016604064 0.1161429 0.015462561 -0.2721208 -0.10736972 -0.11486583
-0.029463185 0.028771734 -0.07117542 -0.024295572 -0.05868194 -0.12904954 -0.04386047 0.22770482
-0.061740164 0.16282056 -0.05779879 0.122619055 -0.09194288 -0.0102988295 0.07204199 0.039581053
-0.023478359 -0.16979423 -0.25628668 -0.028655661 0.2799397 0.10977257 -0.013236012 -0.1471159
-0.0047238925 -0.08402597 0.14299013 -0.20472854 -0.07137606 0.09014348 -0.04433072 0.05182443
0.019834982 -0.09946773 -0.101816155 -0.06664098 -0.013545202 -0.023816148 0.06173104 -0.020284774
-0.10132593 -0.08275523 -0.28434885 -0.08769944 -0.18889703 -0.07771787 -0.0012121991 0.050057124
0.20993909 -0.12524685 -0.3145821 -0.091550045 -0.35566133 -0.21925001 -0.25518095 -0.49256343
00000000: bd4b 3cbe 8627 173e 3bdb 553e bd01 86bd
00000010: c7c0 a93d 4c84 5dbc e2b4 523d 827e eabd
00000020: 79b6 34be 339a 3e3d f088 2c3d 3bcb 99be
00000030: 9473 b73c 32fc 443e 999b 263c f2c3 b2bc
00000040: d365 70ba bd68 21bd 176a c33d dbbc 1dbe
00000050: 2b66 1dbe 2aae cebb d121 b1bd 300b babd
00000060: 792e 6e3e 4595 5a3e 9b7c 203e e6b0 42bc
00000070: 0d71 eb3d 43ec 413a 3d1e 333c b073 45bd
00000080: 3a8a 07bd 0524 4fbd 6149 45bd 6556 243e
00000090: c6fc 543e 1843 573d bdd6 663e b878 003e
000000a0: 3623 863d 6193 babd 27d8 63bc 6ce9 d13c
000000b0: 53af 013d d7e5 c8bd 22c4 43bc 47a7 673d
000000c0: 3211 653e 52c8 193d a15d 95bd 262d 3c3e
000000d0: 5b81 6f3e 691e 98bd 3313 31bb e9bc 243e
000000e0: c3b4 29be ea3c 11bd 4608 3d3e 972f f83d
000000f0: 1010 883e e9ea f43d a6a2 8fbc 64ac ab3d
00000100: 0887 02be bd79 cc3d be77 e73c 85bd 0f3e
00000110: 70cf c5bd d713 3b3e a0e5 12be 5e7f 24bd
00000120: b15e 99be 2c51 95bd eb70 813c 8d26 26bd
00000130: f415 4bbc fcde 273e 7a78 f63d 5215 033d
00000140: 7a44 003e cc8d 503d e34f 24bc 2832 4f39
00000150: 3ac4 0bbe 6f90 ae3b dbb6 d9bd 5dec a7bd
00000160: a399 953e 4c38 7a3d 0c21 673e 3dd0 483d
00000170: 47ac 14bc 0425 8fbd 2eec b63d 123f e3bd
00000180: 1ab1 293c dba2 4ebd b0b2 dabd 2aa8 1bbd
00000190: 86ab b53c 8efc ce3c c123 c43d 265a 143c
000001a0: 6685 c53d 9cf5 d73c 2f03 60be 385b fb3d
000001b0: 3766 943d fbb9 93be 91e4 45be 8fbc ad3d
000001c0: 825a 163e bfde 2a3c 0b1a a0ba 852c e33d
000001d0: a837 ba3e e6a1 f13d 64d2 273e 4aba 5f3d
000001e0: a43c 463d 5a38 143e ae1a aebc 227c 543d
000001f0: f446 edbb f785 c8bd 550c a33e 69a8 183e
00000200: dfb1 18bd 8817 743c a7e2 44be 8ae0 1dbe
00000210: 451d 17be 0ff0 d5bd 126c d4bd 6972 6dbe
00000220: c340 a4bd cf0e 5c3d 1e30 f93d 6e01 9ebc
00000230: da90 92bd b040 81be 8558 15be 9fc3 2dbd
00000240: 54d9 a1bc d67c e43d b668 8cbe 59dc c3bd
00000250: 32b7 8bba a089 50bd bf5a 20be 7185 49be
00000260: 6a1f 653c 6016 34be 4b17 21be 09bd 9c3d
00000270: ac93 afbd 2f68 c2bb 12a4 eebc 209a 893d
00000280: aa5b d2bd 9647 85bd 60bf c6bc e35c 9cbd
00000290: 2873 4cbe 97af 05be e640 963b e3a0 1a3e
000002a0: ad7b 663b c5ba f73d f941 2ebe 92df f0bd
000002b0: 3456 acbe 3edf 97be 31cc abbd 8dba 7fbd
000002c0: ffd1 60be e56f 203b 7432 78be 1566 abbe
000002d0: 0967 f4be 46f6 fa3c 7d8a d5bd 1639 9ebd
000002e0: 8b44 9fbd 09c9 b0bd f14e 41be 539c a0be
000002f0: fff9 33be 1d97 e0be 65e6 a9bd 037b 6abe
00000300: 12ee 0c3e 35f7 843d 3f05 88bc 54dc ed3d
00000310: ae56 7d3c 6b53 8bbe a8e4 dbbd c73e ebbd
00000320: c75c f1bc b3b2 eb3c 6bc4 91bd 8207 c7bc
00000330: 795c 70bd 9025 04be 09a7 33bd 742b 693e
00000340: 41e3 7cbd 6fba 263e 6dbe 6cbd b31f fb3d
00000350: 8c4c bcbd 6cbc 28bc c08a 933d be1f 223d
00000360: b055 c0bc 8ade 2dbe 0238 83be 47bf eabc
00000370: 4254 8f3e 71d0 e03d dcdb 58bc 8da5 16be
00000380: e2ca 9abb cf15 acbd 016c 123e 5ca4 51be
00000390: 9d2d 92bd 259d b83d 2194 35bd da45 543d
000003a0: f97c a23c bdb5 cbbd fd84 d0bd 117b 88bd
000003b0: b2ec 5dbc 151a c3bc b0d9 7c3d 412c a6bc
000003c0: f883 cfbd 937b a9bd 2c96 91be c49b b3bd
000003d0: 396e 41be 8c2a 9fbd a7e2 9eba b308 4d3d
000003e0: 46fa 563e b640 00be e810 a1be 977e bbbd
000003f0: 3e19 b6be 1383 60be 14a7 82be 4631 fcbe

bias f4 [32]
-0.011520653 1.6757995e-05 -0.0011891971 -0.0049242 -0.013300167 -0.014618128 0.005575684 -0.0013768751
-0.005255132 -0.0135046085 0.050585605 -0.0028178846 0.01871701 -0.0064212084 -0.0020418314 -0.0048486902
-0.012623116 0.0005863634 -0.0046559577 0.0010736946 -0.00039249213 0.0059040682 -0.0046815313 -0.0017230768
-0.0011389446 0.018380102 0.021185957 -0.0045256834 -0.0037965765 -0.006729385 0.0004053435 -0.011188207
00000000: 1fc1 3cbc 8593 8c37 d5de 9bba 2f5b a1bb
00000010: f2e8 59bc df80 6fbc 3ab4 b63b 4378 b4ba
00000020: 3e33 acbb 6f42 5dbc da32 4f3d 42ac 38bb
00000030: 6a54 993c 0069 d2bb 3fd0 05bb c3e1 9ebb
00000040: 30d1 4ebc 2fb6 193a 0191 98bb 36bb 8c3a
00000050: 67c7 cdb9 ea76 c13b 8867 99bb ddd8 e1ba
00000060: a448 95ba de91 963c 2c8e ad3c 2f4c 94bb
00000070: fccf 78bb 2c82 dcbb 4984 d439 be4e 37bc

weight f4 [64, 32, 4, 4]
0.13461098 0.033871572 0.1955407 0.02556604 -0.06800349 0.0064649335 0.037640166 0.0154961245
-0.15605038 -0.015106653 -0.14301547 -0.046558637 -0.24818763 -0.17287669 -0.1104959 -0.0414874
0.08021087 -0.024701718 0.13090774 0.049119722 0.080564715 0.15900247 0.05153329 0.006157788
0.0007291305 -0.04910873 -0.21308316 0.054835528 -0.20424703 -0.16801031 0.0285727 -0.027679197
0.09366289 0.14414611 0.018874958 0.08160771 0.04051938 -0.030151187 0.10263576 0.041746832
-0.08065815 -0.069169156 0.11267338 0.036338024 -0.2727455 -0.29824919 0.11252056 -0.060614675
-0.0072763506 0.23192653 0.20723116 0.12740184 0.057013772 -0.0010954895 0.03355715 0.025462508
-0.25729424 -0.07983947 0.07618144 -0.055308953 -0.14016873 -0.22936842 0.032479323 -0.08572812
-0.026505942 -0.011500697 0.076318845 0.02162462 -0.059615616 -0.039856907 0.04861103 0.02389125
-0.005086115 -0.20919065 0.026394311 -0.04566115 -0.52285147 -0.38110244 -0.13203967 0.037611183
-0.041777696 -0.05312617 0.050679207 -0.07825404 0.055313874 0.029232863 0.012168526 -0.0065214597
0.13445765 -0.4022929 -0.10011901 -0.034683626 -0.22957687 -0.12275681 -0.1333417 -0.11231945
0.0705449 0.0045714867 0.032462653 0.087664045 0.101247355 0.049427766 -0.09681484 0.03174138
-0.17065796 -0.07509942 -0.3501782 -0.17252505 -0.16510645 -0.052972164 -0.060822845 -0.19532958
0.0931456 -0.10420939 -0.028823912 0.036893465 0.03891298 -0.0036969115 0.092019945 0.029266214
-0.06318964 0.066809125 -0.02269955 -0.19034046 -0.16380897 -0.070033185 -0.1683271 0.053114843
-0.05558643 0.03709072 0.011190162 -0.059099987 0.1491223 0.0711383 -0.07267736 -0.06927649
-0.17901604 -0.2375036 -0.06694583 -0.15324159 -0.11116985 -0.18459336 -0.007023055 -0.18907516
0.18662167 -0.02635268 0.1441853 -0.00014816075 0.091463774 -0.15211464 0.02097054 -0.014518421
0.04914035 0.10277771 0.003330638 0.08890721 -0.45628917 -0.16135703 -0.0003040941 0.062325038
0.018328687 0.015914025 -0.037140112 0.09813695 0.18412192 0.089397624 0.005619385 -0.0521803
0.021853063 -0.13821898 -0.015502404 0.028159449 0.055778824 0.06615417 0.12173664 0.15648347
0.18886027 0.11820189 0.08905668 -0.00026995075 0.13267212 0.0036620002 -0.007715771 0.16090856
0.091065384 0.07332993 -0.067177676 -0.05451057 -0.21076441 -0.15811384 -0.053385153 0.09085398
0.0012964356 0.032575786 -0.01726618 -0.0013656501 0.0022163559 0.019846564 -0.02770026 0.036142673
-0.051694453 0.04532335 0.03630658 0.09305554 -0.06288218 0.015428525 0.08744604 0.13302416
0.042385366 0.05120948 0.0071537076 -0.032270174 0.07775127 -0.020934233 0.13949054 0.11714605
-0.08518053 -0.3113057 -0.16835132 -0.14834574 -0.06373292 -0.048745457 -0.060926896 0.066061355
0.004249196 0.06960255 -0.0052223494 0.06627554 0.05624197 0.04612619 -0.14018852 0.0020906576
-0.22292623 -0.08038043 0.034896407 -0.09816701 -0.14491807 -0.08986769 -0.048511114 -0.09665833
0.05605512 -0.053353053 -0.0011388786 0.016427757 -0.01606371 -0.037362784 -0.005379109 -0.017128475
0.035130024 -0.029193493 0.0063000196 -0.047038898 -0.24414496 -0.1071898 -0.08241396 -0.17718174
00000000: 76d7 093e ebbc 0a3d d23b 483e df6f d13c
00000010: 6a45 8bbd cbd7 d33b 932c 1a3d 75e3 7d3c
00000020: accb 1fbe e581 77bc a672 12be 45b4 3ebd
00000030: e624 7ebe 9606 31be ad4b e2bd b1ee 29bd
00000040: 9945 a43d 425b cabc ae0c 063e c331 493d
00000050: 1dff a43d 8bd1 223e 9214 533d 45c7 c93b
00000060: 1f23 3f3a 3c26 49bd 7932 5abe 389b 603d
00000070: 2226 51be e50a 2cbe 4c11 ea3c 7cbf e2bc
00000080: 54d2 bf3d 0a9b 133e a89f 9a3c f121 a73d
00000090: a6f7 253d 9fff f6bc b332 d23d bafe 2a3d
000000a0: 1a30 a5bd 8fa8 8dbd 4dc1 e63d 2ed7 143d
000000b0: 4ca5 8bbe 1eb4 98be 2e71 e63d 1847 78bd
000000c0: 746e eebb 267e 6d3e 6834 543e a175 023e
000000d0: 4687 693d 8796 8fba 3973 093d c096 d03c
000000e0: 12bc 83be e082 a3bd 0405 9c3d a48b 62bd
000000f0: 6488 0fbe 8edf 6abe 0a09 053d 3992 afbd
00000100: fd22 d9bc 6b6d 3cbc 0e4d 9c3d 1d26 b13c
00000110: 812f 74bd ff40 23bd 5c1c 473d 95b7 c33c
00000120: 6da9 a6bb 1336 56be e238 d83c 3007 3bbd
00000130: 98d9 05bf dc1f c3be 6835 07be 2f0e 1a3d
00000140: 171f 2bbd d49a 59bd 0095 4f3d a743 a0bd
00000150: cd90 623d c279 ef3c 7f5e 473c f8b1 d5bb
00000160: 44af 093e 56f9 cdbe 320b cdbd 6b10 0ebd
00000170: 3316 6bbe ec67 fbbd ba8a 08be bd07 e6bd
00000180: d879 903d 69cc 953b 8ff7 043d 3589 b33d
00000190: c65a cf3d c574 4a3d dc46 c6bd 4003 023d
000001a0: f6c0 2ebe bacd 99bd 8f4a b3be 68aa 30be
000001b0: aa11 29be 57f9 58bd 6021 79bd 7a04 48be
000001c0: 1fc3 be3d bc6b d5bd 2020 ecbc 9a1d 173d
000001d0: 3863 1f3d e247 72bb f474 bc3d b3bf ef3c
000001e0: 9269 81bd 39d3 883d 68f4 b9bc 9ce8 42be
000001f0: 8abd 27be 8f6d 8fbd f05d 2cbe f38e 593d
00000200: 99ae 63bd 70ec 173d f156 373c d412 72bd
00000210: 84b3 183e f5b0 913d ded7 94bd d5e0 8dbd
00000220: fb4f 37be 2534 73be e51a 89bd 5deb 1cbe
00000230: 05ad e3bd 0b06 3dbe a821 e6bb eb9c 41be
00000240: c019 3f3e 93e1 d7bc 50a5 133e 995b 1bb9
00000250: 5c51 bb3d f1c3 1bbe 69ca ab3c acde 6dbc
00000260: 6447 493d 1f7d d23d d546 5a3b fc14 b63d
00000270: bc9e e9be c73a 25be d26e 9fb9 8a48 7f3d
00000280: 0b26 963c 215e 823c 3b20 18bd 06fc c83d
00000290: 758a 3c3e 1a16 b73d d122 b83b 03bb 55bd
000002a0: 3205 b33c 4789 0dbe ccfd 7dbc a5ae e63c
000002b0: 5678 643d d67b 873d 0f51 f93d 343d 203e
000002c0: 9664 413e d513 f23d 5963 b63d 2d88 8db9
000002d0: 33db 073e 2bfe 6f3b 94d4 fcbb 37c5 243e
000002e0: 7d80 ba3d 012e 963d 7394 89bd 7a46 5fbd
000002f0: a0d2 57be 98e8 21be 64aa 5abd a711 ba3d
00000300: 29ed a93a 306e 053d ce71 8dbc 9dff b2ba
00000310: 4840 113b 4395 a23c a8eb e2bc 570a 143d
00000320: 90bd 53bd faa4 393d 35b6 143d e793 be3d
00000330: 5fc8 80bd edc7 7c3c e916 b33d 7c37 083e
00000340: 479c 2d3d 08c1 513d a669 ea3b bb2d 04bd
00000350: 0f3c 9f3d 457e abbc 9cd6 0e3e 45ea ef3d
00000360: 2173 aebd 7663 9fbe 4a64 2cbe f2e7 17be
00000370: 6886 82bd 51a9 47bd 7b8e 79bd 2d4b 873d
00000380: d73c 8b3b c88b 8e3d 3e20 abbb 78bb 873d
00000390: fb5d 663d d1ee 3c3d 948d 0fbe 6a03 093b
000003a0: c646 64be 7f9e a4bd 89ef 0e3d c90b c9bd
000003b0: 6765 14be 8d0c b8bd 97b3 46bd cdf4 c5bd
000003c0: 0e9a 653d bb88 5abd 6d46 95ba 8193 863c
000003d0: 0b98 83bc b809 19bd 3d43 b0bb 0451 8cbc
000003e0: 80e4 0f3d 3127 efbc 6570 ce3b dcab 40bd
000003f0: 2301 7abe 5386 dbbd a6c8 a8bd 216f 35be

bias f4 [64]
0.07721646 0.015008602 0.0050193095 0.058732197 0.06336812 0.006809342 0.04268082 -0.025574611
0.020814871 0.010123567 -0.03436584 -0.017888911 0.017878527 0.0063623213 0.031333063 -0.01671444
-0.09711512 -0.029039092 0.06789328 -0.020889364 -0.013140137 0.051758826 0.08266268 0.029793553
0.0223676 0.04314974 -0.035133213 0.094802454 0.05953909 -0.05213344 -0.023301454 0.08630969
-0.13547662 -0.087219216 -0.02595305 0.09794231 0.019905366 0.024421368 0.029239185 0.04905862
0.014034114 0.026145099 0.03435724 -0.04599636 -0.09390373 0.042594496 0.006116868 0.09435653
0.046440486 0.028273487 -0.0029794653 0.02350005 0.021293296 0.06218188 0.018471953 0.0126010645
-0.03711692 -0.017333215 -0.008495296 0.03304387 -0.016796762 0.0396324 -0.028552234 0.02230905
00000000: aa23 9e3d a4e6 753c 0579 a43b 2c91 703d
00000010: 25c7 813d e720 df3b 15d2 2e3d d981 d1bc
00000020: f383 aa3c 51dd 253c 32c3 0cbd c48b 92bc
00000030: fd75 923c 057b d03b 1957 003d b9ec 88bc
00000040: 4be4 c6bd 64e3 edbc a20b 8b3d 2c20 abbc
00000050: bb49 57bc 1001 543d 0d4b a93d 9c11 f43c
00000060: 423c b73c c8bd 303d d8e7 0fbd ca27 c23d
00000070: 43df 733d e089 55bd b1e2 bebc 22c3 b03d
00000080: 62ba 0abe fd9f b2bd 7e9b d4bc fa95 c83d
00000090: 9410 a33c 520f c83c 0487 ef3c b1f1 483d
000000a0: 57ef 653c 3f2e d63c 2dba 0c3d ae66 3cbd
000000b0: 9950 c0bd 9177 2e3d 0270 c83b ff3d c13d
000000c0: 6138 3e3d cd9d e73c 2243 43bb 2d83 c03c
000000d0: 476f ae3c 6db2 7e3d 7e52 973c b274 4e3c
000000e0: e907 18bd 63fe 8dbc db2f 0bbc 0259 073d
000000f0: 5d99 89bc 9555 223d 60e6 e9bc 78c1 b63c

weight f4 [64, 64, 3, 3]
0.012916019 0.11653496 0.09005392 0.21859254 0.119903296 0.051749755 0.037676904 -0.03073162
-0.15417701 0.053811934 -0.12126694 0.0633034 -0.005762734 0.031906232 -0.13483843 -0.100798234
0.03839308 0.08349916 -0.016586434 0.1089116 0.023259703 -0.06498041 -0.09052241 -0.082609974
0.19824356 0.16458479 0.048259404 0.051124647 0.09172507 0.041784946 -0.064669944 0.021450225
-0.028913956 -0.064458564 -0.073089145 -0.08257993 0.1366035 0.16255565 0.08432541 0.035986118
0.10336877 -0.17463383 -0.007850579 0.0054044225 -0.1056508 -0.014592288 0.09749559 -0.14780751
-0.004018463 -0.03420125 -0.08964257 -0.014888163 0.01347135 -0.09168881 0.19842005 0.04336138
0.0030474544 0.09743193 -0.027461298 -0.026489673 0.08069264 -0.05022923 -0.02913395 -0.027331745
0.07667415 0.033192426 0.036430486 -0.14868496 0.049366143 -0.07142435 -0.009329001 -0.05460121
-0.15717945 -0.17716283 0.028089546 0.03100537 -0.012819188 -0.040112443 -0.061825335 0.0643364
-0.10801597 -0.05587757 0.05438662 -0.0023512153 -0.029116651 0.067548126 0.04842026 -0.031537913
0.02603906 0.064813085 0.07961107 -0.06547576 -0.07727685 0.071973085 -0.12670061 0.06709284
-0.013658028 -0.0006746958 0.020753108 -0.08402014 -0.15309516 0.04656179 0.07498311 -0.095433064
-0.062759295 -0.0039313524 -0.0013595918 -0.0068206755 0.11327552 0.01616738 0.014868936 0.16321434
-0.07963608 0.083762325 0.013125532 -0.075657316 -0.048708584 -0.07355036 -0.06479151 -0.07880065
0.08825994 0.052196175 -0.032949883 0.049928796 -0.06446185 0.033152606 -0.08516475 -0.2333506
0.077430956 0.0148217585 -0.036596417 0.08318839 0.12146091 -0.0035428314 0.122573584 -0.15429108
0.019012405 0.040578693 -0.10009381 0.055987723 -0.035517037 -0.044948548 -0.061930165 -0.0504354
-0.12863998 -0.062164947 0.048896834 -0.12069253 0.004140599 -0.07728673 0.08669893 0.2286864
-0.049537744 -0.06669215 0.018494634 -0.01274611 0.08609064 -0.011330395 -0.09302197 0.066406496
0.04267565 -0.14851168 0.07710336 -0.023256462 -0.011883866 -0.0053981175 -0.07454252 0.057946667
0.0516602 0.027873227 -0.037246276 0.0756394 -0.15358113 0.045037802 0.10633165 0.041405223
-0.02380645 0.12811323 -0.011856469 -0.039417658 -0.17096473 0.15902542 0.05033519 -0.112056606
0.013363877 -0.0378601 0.020805668 -0.029569456 -0.17575969 -0.0011630364 -0.0023409394 0.15278184
-0.071315594 -0.09074316 0.06556914 0.041322786 -0.06256383 -0.018832993 -0.040879898 0.09334056
-0.01792144 -0.032112937 0.06469763 0.10600843 -0.033498857 0.0628566 -0.123827815 -0.09310206
-0.017520854 0.023568664 -0.029155137 -0.021707395 0.13615087 -0.009652564 -0.0072594373 0.082498156
-0.0011163309 -0.12952349 0.07696333 0.034250878 0.031966083 0.15848391 -0.053596016 0.060285006
0.011321549 -0.033290643 0.04809845 0.046748575 -0.046771493 -0.009117522 -0.023139903 0.117265254
0.037239898 -0.06120418 0.079877414 -0.19548753 0.10562696 -0.055055257 -0.16768634 -0.008241406
-0.0850919 0.1553584 0.044627436 0.030243512 0.14780866 0.049020845 -0.05832351 -0.01445009
0.025013214 0.043731414 -0.045740806 0.03030867 -0.037056055 0.034518585 -0.032199815 -0.05928576
00000000: b69d 533c e2a9 ee3d 316e b83d b9d6 5f3e
00000010: dc8f f53d 8df7 533d 1953 1a3d e1c0 fbbc
00000020: 94e0 1dbe e769 5c3d cd5a f8bd 37a5 813d
00000030: 51d5 bcbb 1cb0 023d 1613 0abe 4e6f cebd
00000040: 1042 1d3d 9c01 ab3d 46e0 87bc 0c0d df3d
00000050: 228b be3c 7314 85bd d063 b9bd 6b2f a9bd
00000060: 5c00 4b3e ea88 283e a7ab 453d 1468 513d
00000070: 5ada bb3d b126 2b3d ad71 84bd 62b8 af3c
00000080: f6dc ecbc da02 84bd c3af 95bd ab1f a9bd
00000090: cae1 0b3e fd74 263e cdb2 ac3d 2e66 133d
000000a0: 01b3 d33d 36d3 32be b79f 00bc 9517 b13b
000000b0: 725f d8bd 7e14 6fbc c5ab c73d da5a 17be
000000c0: 50ad 83bb 9c16 0cbd 8696 b7bd 7bed 73bc
000000d0: f0b6 5c3c 58c7 bbbd a02e 4b3e b49b 313d
000000e0: cdb7 473b 648a c73d 84f6 e0bc df00 d9bc
000000f0: 2f42 a53d 2abd 4dbd 52aa eebc d3e6 dfbc
00000100: 5607 9d3d c8f4 073d 2238 153d df40 18be
00000110: 2734 4a3d ee46 92bd abd8 18bc 85a5 5fbd
00000120: a6f3 20be 2c6a 35be 0c1c e63c f9fe fd3c
00000130: 9207 52bc f24c 24bd 903c 7dbd cdc2 833d
00000140: 7a37 ddbd e1df 64bd 81c4 5e3d d916 1abb
00000150: 0b86 eebc ac56 8a3d 5354 463d e62d 01bd
00000160: de4f d53c b9bc 843d 210b a33d 2818 86bd
00000170: 5343 9ebd a066 933d cebd 01be f967 893d
00000180: ecc5 5fbc 12de 30ba 6c02 aa3c c012 acbd
00000190: fac4 1cbe 93b7 3e3d bf90 993d 6972 c3bd
000001a0: f287 80bd 93d2 80bb 5534 b2ba f97f dfbb
000001b0: fffc e73d 7471 843c d69c 733c a921 273e
000001c0: 3e18 a3bd 958b ab3d 790c 573c 39f2 9abd
000001d0: a782 47bd 92a1 96bd 69b1 84bd 3c62 a1bd
000001e0: a1c1 b43d a8cb 553d 75f6 06bd 2382 4c3d
000001f0: 9304 84bd 07cb 073d db6a aebd 76f3 6ebe
00000200: 1f94 9e3d f6d6 723c 20e6 15bd ad5e aa3d
00000210: 7fc0 f83d d92e 68bb dc07 fb3d 7bfe 1dbe
00000220: e7bf 9b3c d835 263d fcfd ccbd 6253 653d
00000230: 507a 11bd f81b 38bd 7caa 7dbd 5a95 4ebd
00000240: 33ba 03be aca0 7ebd 0c48 483d a52d f7bd
00000250: ddad 873b 8148 9ebd 358f b13d c52c 6a3e
00000260: 17e8 4abd e595 88bd 0f82 973c 0fd5 50bc
00000270: 4a50 b03d 1fa3 39bc 4d82 bebd 2100 883d
00000280: aacc 2e3d 7213 18be 5ee8 9d3d 5684 bebc
00000290: 8cb4 42bc b1e2 b0bb c0a9 98bd 7c59 6d3d
000002a0: a599 533d 6556 e43c 8d8f 18bd d4e8 9a3d
000002b0: 5f44 1dbe 8f79 383d 68c4 d93d 8698 293d
000002c0: bf05 c3bc 1d30 033e a341 42bc 6974 21bd
000002d0: 6111 2fbe 8fd7 223e 462c 4e3d ef7d e5bd
000002e0: 2af4 5a3c 3113 1bbd a670 aa3c a53b f2bc
000002f0: 59fa 33be 0771 98ba 726a 19bb d872 1c3e
00000300: e90d 92bd 8dd7 b9bd 1d49 863d 1542 293d
00000310: 7721 80bd a647 9abc ae71 27bd 5629 bf3d
00000320: fccf 92bc db88 03bd 3180 843d f31a d93d
00000330: 1936 09bd f6ba 803d 7099 fdbd 4bac bebd
00000340: e587 8fbc 1213 c13c c1d6 eebc b5d3 b1bc
00000350: 226b 0b3e ca25 1ebc 93e0 edbb cbf4 a83d
00000360: d951 92ba cea1 04be f39e 9d3d a64a 0c3d
00000370: deee 023d 9b49 223e 7f87 5bbd 69ed 763d
00000380: 057e 393c c55b 08bd e102 453d 6f7b 3f3d
00000390: 7793 3fbd a961 15bc e58f bdbc c428 f03d
000003a0: dd88 183d 3cb1 7abd c596 a33d e22d 48be
000003b0: f352 d83d 9f81 61bd f8b5 2bbe f606 07bc
000003c0: a944 aebd 4616 1f3e 42cb 363d 3ec1 f73c
000003d0: 275b 173e 15ca 483d a2e4 6ebd 12c0 6cbc
000003e0: 83e8 cc3c b61f 333d b65a 3bbd e349 f83c
000003f0: 17c8 17bd 5c63 0d3d f4e3 03bd a0d5 72bd

bias f4 [64]
0.042835742 -0.042245623 0.042923417 -0.08632727 -0.0130229425 0.027960563 0.035845313 -0.004036961
-0.014114192 -0.06462023 0.013733995 0.009173708 0.012663583 0.056866813 0.03866822 0.01490605
0.019152464 0.07424159 0.018771727 0.011733462 -0.00082126353 0.050328903 0.074635044 0.07944415
0.032873705 0.08714444 -0.028676724 0.09865545 0.07500654 0.058852416 0.0903567 -0.02424404
0.041572295 -0.034351252 0.054632626 0.032568295 0.06688404 -0.040052384 0.030226694 -0.055465207
0.035218652 0.017115233 0.07594055 -0.01204398 0.032375257 0.021439353 0.1035732 -0.015894119
-0.016427293 0.015939036 0.09156349 0.09549993 -0.06620216 0.05973505 0.056596156 0.02584468
0.028367322 0.07355538 -0.032462474 0.06996988 -0.04122189 0.023579389 -0.08179726 -0.060827006
00000000: 8874 2f3d bf09 2dbd 77d0 2f3d 5acc b0bd
00000010: 2e5e 55bc 8d0d e53c 89d2 123d 7c48 84bb
00000020: 363f 67bc 9c57 84bd 8d04 613c 524d 163c
00000030: eb7a 4f3c 2ded 683d 9162 1e3d 8138 743c
00000040: a1e5 9c3c fa0b 983d 2ac7 993c b53d 403c
00000050: 104a 57ba ae25 4e3d 42da 983d 9db3 a23d
00000060: 94a6 063d c978 b23d 73eb eabc de0b ca3d
00000070: 079d 993d 3b0f 713d ef0c b93d 709b c6bc
00000080: b647 2a3d e6b3 0cbd 76c6 5f3d 5566 053d
00000090: 80fa 883d f80d 24bd f99d f73c 7c2f 63bd
000000a0: 6f41 103d 3f35 8c3c b886 9b3d 1d54 45bc
000000b0: eb9b 043d 95a1 af3c 301e d43d 6234 82bc
000000c0: 8892 86bc 9592 823c a485 bb3d 7895 c33d
000000d0: 0095 87bd bdac 743d 5fd1 673d 39b8 d33c
000000e0: 9662 e83c 34a4 963d 5ff7 04bd 5e4c 8f3d
000000f0: 49d8 28bd 9029 c13c 5285 a7bd bd25 79bd

weight f4 [32, 1024]
-0.16854396 0.049906135 -0.09362237 -0.062077932 -0.082710594 -0.05147358 -0.07520108 0.15509133
0.075419135 -0.032046467 -0.0689133 0.13945907 0.034362633 0.044256166 -0.053159025 -0.000479054
0.022100363 0.02082498 0.0237791 0.081637 -0.0897747 -0.025742551 0.08357622 0.16187657
-0.054302506 -0.017698213 0.033317085 0.081239946 0.1118325 0.009966224 0.045592967 -0.23233746
-0.12451348 0.042957496 0.03322527 -0.022487313 -0.2533267 -0.0640794 0.073111005 -0.07005653
0.047903176 -0.0017555853 -0.04235083 0.0328915 -0.115884416 -0.0482993 -0.040955927 0.10808314
-0.013527831 0.056579273 0.036799736 -3.3441414e-05 -0.021191565 -0.022056695 -0.056182686 0.040376425
-0.14719623 -0.09052967 0.06788926 0.004443992 0.015417699 0.02523382 0.0733109 0.059478767
-0.041160867 0.041004136 0.03192483 -0.035607103 0.051674306 -0.041872744 -0.03141903 0.12055281
-0.040231142 -0.02862592 -0.05536604 0.10663951 -0.020201081 -0.06638161 0.050534386 0.09387778
-0.0055172853 -0.038169567 -0.037677072 0.059752744 -0.10053866 -0.07566092 -0.12876633 0.019607171
0.019314984 0.11003187 -0.058938883 0.15170912 0.04313438 0.03290739 -0.008869471 -0.24469207
-0.13734043 -0.072406135 -0.11019009 -0.012203191 0.007876348 -0.005324438 -0.039233103 0.034748994
0.024995515 -0.0056612603 -0.090804525 -0.116866656 0.16050538 0.04080283 -0.101892106 -0.0017597271
-0.01982781 0.15705106 0.017914088 0.034857884 -0.08673988 0.07863697 0.054231796 0.062254738
-0.018677037 -0.04409203 0.06670641 -0.09888979 -0.037484802 0.074250236 0.04272788 -0.085987754
0.012131073 0.09243338 -0.10936067 0.0103416 -0.046925396 0.08120686 0.1166218 0.054422025
0.045884322 0.026270395 0.009379423 0.00061609043 0.059565797 0.048050124 -0.031700756 0.047771502
0.033594053 -0.14807352 0.0761559 -0.026846483 0.02708168 0.00014196768 -0.022293065 0.10124079
-0.016474785 -0.16607186 -0.06668896 0.008812848 0.11487167 0.15245959 -0.010741006 0.020908944
-0.08345263 0.0024401352 0.03199829 0.014022203 -0.0061183656 0.017380692 0.09587366 -0.090405494
0.055034727 -0.061780736 -0.025113242 0.078891344 0.09535667 0.12671103 0.047318365 -0.0025224984
-0.04236395 -0.18941016 -0.033973094 0.016469017 -0.07797147 -0.028989574 0.028200384 -0.04709229
-0.017282972 0.10203783 -0.048722908 0.005505685 0.045888048 0.06084726 0.088748105 0.15435112
0.09353279 0.06163109 0.14140731 0.15784155 -0.09120861 0.036742475 -0.039412048 -0.019684196
0.07636507 -0.028891945 0.058466434 0.13170493 -0.04481076 0.022206768 0.04355026 0.0364446
-0.13115555 -0.084458284 -0.11188346 -0.19799443 -0.07931507 0.093075015 0.0018502583 -0.034439985
0.003336473 0.026624046 -0.099215664 -0.14406607 -0.017698001 0.07458157 -0.06126547 -0.0074966117
0.005529631 -0.028062068 -0.13190871 -0.10873228 -0.26684424 -0.1321601 -0.09357222 -0.04603056
0.0022780716 0.012146935 0.052822564 -0.061733633 -0.10966371 -0.022095334 -0.076281406 -0.038971048
-0.00086830603 0.0041356226 -0.020498581 -0.0036937143 0.080497816 0.09303068 -0.061135713 0.090823285
0.030313341 0.06606224 0.032255832 -0.005364433 0.0143921375 0.079371914 0.0144801615 0.0077485284
00000000: ca96 2cbe 606a 4c3d 16bd bfbd 6e45 7ebd
00000010: 2c64 a9bd f6d5 52bd 0603 9abd 43d0 1e3e
00000020: 5975 9a3d 2843 03bd 6b22 8dbd 5cce 0e3e
00000030: d5bf 0c3d f445 353d 47bd 59bd 8a29 fbb9
00000040: d20b b53c 2699 aa3c 63cc c23c 4d31 a73d
00000050: ccdb b7bd 0be2 d2bc 022a ab3d f9c2 253e
00000060: 4e6c 5ebd d8fb 90bc 7f77 083d 2161 a63d
00000070: 7008 e53d 6049 233c b1bf 3a3d dfe9 6dbe
00000080: ec00 ffbd 33f4 2f3d 3917 083d 5037 b8bc
00000090: 0ab4 81be 0f3c 83bd 39bb 953d cc79 8fbd
000000a0: 1f36 443d ab1b e6ba 1078 2dbd 3db9 063d
000000b0: cf54 edbd 7dd5 45bd 67c1 27bd b15a dd3d
000000c0: d6a3 5dbc abbf 673d 52bb 163d 7243 0cb8
000000d0: ef99 adbc 3eb0 b4bc d11f 66bd c061 253d
000000e0: 9cba 16be 9f67 b9bd 8609 8b3d e89e 913b
000000f0: 849a 7c3c 28b7 ce3c 0624 963d 02a0 733d
00000100: 4c98 28bd f4f3 273d 9cc3 023d c1d8 11bd
00000110: 70a8 533d c182 2bbd 3eb1 00bd 64e4 f63d
00000120: 69c9 24bd e880 eabc 80c7 62bd d165 da3d
00000130: bd7c a5bc 15f3 87bd 25fd 4e3d fe42 c03d
00000140: 58ca b4bb b157 1cbd 4653 1abd 4bbf 743d
00000150: 37e7 cdbd 1df4 9abd 52db 03be 389f a03c
00000160: 753a 9e3c 6458 e13d e669 71bd a359 1b3e
00000170: adad 303d e6c9 063d 4251 11bc 8f90 7abe
00000180: f8a2 0cbe ab49 94bd 58ab e1bd e5ef 47bc
00000190: cc0b 013c a078 aebb e4b2 20bd f654 0e3d
000001a0: 65c3 cc3c 1882 b9bb b9f7 b9bd c957 efbd
000001b0: 865b 243e de20 273d cfac d0bd a5a6 e6ba
000001c0: ee6d a2bc fed1 203e 91c0 923c 24c7 0e3d
000001d0: aea4 b1bd 6b0c a13d 2922 5e3d d3fe 7e3d
000001e0: 9600 99bc d899 34bd 5f9d 883d bb86 cabd
000001f0: aa89 19bd 8210 983d 6e03 2f3d 591a b0bd
00000200: 68c1 463c b64d bd3d 7df8 dfbd d06f 293c
00000210: d834 40bd c84f a63d 69d7 ee3d a1e9 5e3d
00000220: 33f1 3b3d 0335 d73c 27ac 193c 2181 213a
00000230: 44fb 733d 35d0 443d a7d8 01bd 0dac 433d
00000240: eb99 093d 96a0 17be a0f7 9b3d 28ed dbbc
00000250: 66da dd3c 29dd 1439 f29f b6bc 5557 cf3d
00000260: 21f6 86bc be0e 2abe 3994 88bd c363 103c
00000270: d741 eb3d 5e1e 1c3e 0bfb 2fbc 3c49 ab3c
00000280: 36e9 aabd adea 1f3b a410 033d 62bd 653c
00000290: 927c c8bb f461 8e3c 6959 c43d 8426 b9bd
000002a0: 186c 613d cc0d 7dbd 49ba cdbc c991 a13d
000002b0: 5c4a c33d 89c0 013e e7d0 413d 8050 25bb
000002c0: d285 2dbd bdf4 41be 5f27 0bbd 08ea 863c
000002d0: 82af 9fbd 8b7b edbc 7e04 e73c d8e3 40bd
000002e0: 0595 8dbc 36f9 d03d ac91 47bd 0969 b43b
000002f0: 1bf5 3b3d fa3a 793d 91c1 b53d 380e 1e3e
00000300: 1f8e bf3d e270 7c3d 14cd 103e 37a1 213e
00000310: 94cb babd 477f 163d 876e 21bd c040 a1bc
00000320: 4a65 9c3d cdae ecbc 807a 6f3d a8dd 063e
00000330: 7d8b 37bd f8ea b53c c261 323d ef46 153d
00000340: a44d 06be 77f8 acbd 2823 e5bd 0dbf 4abe
00000350: f06f a2bd 1d9e be3d 5e84 f23a f110 0dbd
00000360: baa8 5a3b ac1a da3c 9531 cbbd 0e86 13be
00000370: 66fb 90bc 39be 983d 80f1 7abd 23a6 f5bb
00000380: e831 b53b 6ce2 e5bc 1413 07be 08af debd
00000390: cf9f 88be fa54 07be cba2 bfbd 8a8a 3cbd
000003a0: b34b 153b f003 473c 795c 583d 68dc 7cbd
000003b0: 5e97 e0bd 4601 b5bc 6d39 9cbd 1ba0 1fbd
000003c0: 089f 63ba 1e84 873b a4ec a7bc 3e12 72bb
000003d0: 0adc a43d df86 be3d 7169 7abd 8f01 ba3d
000003e0: af53 f83c a44b 873d b11e 043d 20c8 afbb
000003f0: 00cd 6b3c be8d a23d 333e 6d3c 5ee7 fd3b

bias f4 [32]
-0.022154544 0.07143453 0.0939192 -0.06953517 0.101994514 0.04422972 0.0726908 -0.023602031
0.059390355 0.0007567946 0.066927694 0.11852225 -0.0029101633 -0.051146314 0.017040262 0.014495437
-0.08223072 0.018021775 0.09512842 -0.014552002 0.20446156 0.15634826 -0.04411812 0.10882041
0.14378752 0.041043703 -0.05575782 -0.044560943 0.019294744 0.09747848 0.06435138 -0.061738275
00000000: 727d b5bc 444c 923d b658 c03d 7568 8ebd
00000010: 80e2 d03d 392a 353d eade 943d 0c59 c1bc
00000020: 4d43 733d a063 463a 6311 893d cbbb f23d
00000030: 70b8 3ebb cc7e 51bd 0598 8b3c 457e 6d3c
00000040: 9468 a8bd 67a2 933c b0d2 c23d 856b 6ebc
00000050: 5f5e 513e c219 203e 34b5 34bd 3cdd de3d
00000060: 093d 133e 711d 283d 5062 64bd 8985 36bd
00000070: 0310 9e3c cca2 c73d a8ca 833d 46e1 7cbd

weight f4 [15, 32]
-0.2890236 0.1087484 0.106850624 -0.04726331 -0.055330615 -0.025782704 -0.25666383 0.11290323
0.010918709 0.4160556 0.005098739 0.054621726 -0.3737915 0.33265647 0.024829166 0.073992945
0.27163076 0.03942928 0.19906425 0.09652551 -0.04054164 0.020797664 -0.0041371225 -0.28343314
-0.236679 0.09073094 0.24774006 0.07549758 -0.11183368 -0.101648636 0.09976274 0.0665716
0.13379177 -0.0148829175 0.013845886 0.055496622 -0.0153246205 0.012551459 -0.10408378 0.010132294
0.068056464 0.1646233 0.079611585 -0.096530646 -0.067139484 -0.072851114 0.0023991282 -0.06438467
0.00086087734 0.013765113 -0.10706342 0.10221721 -0.03261919 0.04810416 -0.24140729 0.046285085
-0.048283257 0.07791231 0.097325824 0.03818058 0.09554767 -0.04664198 -0.0784143 -0.003682166
0.3507889 0.043310143 0.034035414 -0.109947644 -0.16354527 -0.2395082 -0.030122072 -0.14572859
-0.29637936 0.163175 -0.031600416 -0.1122946 0.16134992 0.034920763 -0.09386761 0.20646228
-0.3414478 0.11258993 -0.3046717 0.11746112 0.072970875 0.11036545 0.30036572 0.12676251
0.06847619 0.04664708 -0.2267249 -0.039612625 -0.19505417 -0.1933336 -0.27008402 -0.30082953
-0.1155784 -0.13182366 -0.22517581 0.096820876 0.11722071 -0.31892422 -0.21304893 0.18690944
0.058399774 0.12911972 0.07123288 0.043686002 -0.2392838 -0.115749925 -0.052482344 -0.12255922
0.33039445 -0.026090765 0.17967956 0.09033539 0.0002710006 -0.06609918 0.06694836 -0.1102322
-0.04813367 -0.08760796 0.37824696 0.18295023 0.012423716 0.041375287 0.10383371 0.050086692
0.12854654 -0.10650671 -0.036016963 0.011294426 -0.082710624 -0.11889498 -0.07718732 -0.027141038
-0.112708 -0.019084733 -0.04770409 -0.056085043 -0.088400245 -0.07563566 0.055064704 -0.014145233
0.13827595 -0.07031919 0.04061181 0.049610298 0.0031312166 -0.050693054 -0.075763464 -0.036813617
-0.12978043 -0.033046186 -0.003351334 -0.069138564 0.0134234475 0.0019930943 -0.011334464 0.19759598
-0.04608562 -0.10401121 -0.103507996 0.23870836 -0.31984454 -0.16727538 -0.16354236 -0.22543977
-0.17500858 -0.0875758 -0.18512641 -0.06941357 0.1642818 0.04815389 -0.22350727 0.16724554
-0.20666358 -0.05092769 -0.29875812 0.06571908 0.05729701 -0.00643009 0.053956058 0.038848907
0.10732638 -0.1957738 0.08682262 -0.009398552 -0.014085581 -0.09242989 -0.134714 0.10020974
-0.14807005 -0.03700201 -0.13268508 0.1339062 -0.039658595 -0.22986531 -0.17630787 0.03518938
-0.033737693 0.09558183 -0.094373204 -0.12658507 -0.074116796 0.15961772 0.009063903 -0.01774241
0.10210893 -0.09577715 0.056985177 -0.043999642 -0.06448425 -0.13576005 0.11208029 -0.17013648
-0.2323087 0.01602185 0.120425865 0.10264551 -0.04030884 -0.13851833 0.15086564 -0.055216122
0.0012829202 0.02815937 -0.09068097 0.048605796 -0.0959961 -0.0070456485 -0.15867957 0.03741337
-0.0069101076 0.02008874 -0.011347289 -0.1097382 -0.029540734 0.12854676 -0.006613536 -0.15351225
-0.07536215 -0.13783418 -0.096363865 -0.096690506 -0.08457357 -0.14379255 0.053849798 -0.056259017
-0.028514076 -0.04626116 0.08683323 -0.10740882 0.0041505457 -0.14503634 0.03757082 0.083253734
00000000: e7fa 93be 7bb7 de3d 80d4 da3d 2c97 41bd
00000010: 5ba2 62bd 4036 d3bc 7169 83be cf39 e73d
00000020: 63e4 323c 3d05 d53e 5313 a73b 08bb 5f3d
00000030: 9961 bfbe f351 aa3e 8966 cb3c 9d89 973d
00000040: 3013 8b3e 9980 213d 80d7 4b3e 2baf c53d
00000050: fe0e 26bd dd5f aa3c b390 87bb 261e 91be
00000060: fb5b 72be 25d1 b93d 92af 7d3e 7a9e 9a3d
00000070: 0e09 e5bd 292d d0bd 6850 cc3d b156 883d
00000080: b600 093e 7bd7 73bc dbd9 623c 6d50 633d
00000090: 1e14 7bbc a2a4 4d3c e029 d5bd ec01 263c
000000a0: 3061 8b3d 0393 283e 660b a33d dcb1 c5bd
000000b0: 6d80 89bd f732 95bd b13a 1d3b 1cdc 83bd
000000c0: 80ac 613a 1287 613c 1144 dbbd 4257 d13d
000000d0: b39b 05bd de08 453d 7933 77be 6e95 3d3d
000000e0: aac4 45bd 7d90 9f3d c352 c73d 3d63 1c3d
000000f0: 7fae c33d a90b 3fbd ad97 a0bd 7f50 71bb
00000100: 9a9a b33e fa65 313d b868 0b3d 3b2c e1bd
00000110: 6978 27be a341 75be 90c2 f6bc e039 15be
00000120: 09bf 97be 5917 273e 706f 01bd b6fa e5bd
00000130: ea38 253e 1309 0f3d a93d c0bd d96a 533e
00000140: 3fd2 aebe 8d95 e63d eefd 9bbe 758f f03d
00000150: c171 953d 4807 e23d 89c9 993e 08ce 013e
00000160: 3f3d 8c3d 0211 3f3d 922a 68be d940 22bd
00000170: 48bc 47be 3ef9 45be 7448 8abe 5406 9abe
00000180: 5eb4 ecbd c8fc 06be 7d94 66be 064a c63d
00000190: 6911 f03d 094a a3be 8029 5abe 3065 3f3e
000001a0: 9a34 6f3d f637 043e 8be2 913d 18f0 323d
000001b0: d006 75be 4c0e edbd baf7 56bd 5400 fbbd
000001c0: 7629 a93e 4dbc d5bc ebfd 373e c301 b93d
000001d0: 1615 8e39 025f 87bd 391c 893d 6bc1 e1bd
000001e0: d027 45bd cd6b b3bd 96a9 c13e 4e57 3b3e
000001f0: d78c 4b3c 2279 293d c5a6 d43d b427 4d3d
00000200: b4a1 033e 3120 dabd 8686 13bd 420c 393c
00000210: 3064 a9bd 367f f3bd 6314 9ebd e256 debc
00000220: 74d3 e6bd 9657 9cbc 5d65 43bd 6eb9 65bd
00000230: 300b b5bd dee6 9abd 878b 613d 68c1 67bc
00000240: 3698 0d3e 8203 90bd 9258 263d 2b34 4b3d
00000250: 1935 4d3b 85a3 4fbd e029 9bbd e0c9 16bd
00000260: 29e5 04be 705b 07bd 0ea2 5bbb 8598 8dbd
00000270: 05ee 5b3c 939e 023b 30b4 39bc 9a56 4a3e
00000280: 46c4 3cbd d403 d5bd 00fc d3bd f76f 743e
00000290: aac2 a3be 3d4a 2bbe a677 27be afd9 66be
000002a0: 7335 33be f15a b3bd c791 3dbe b428 8ebd
000002b0: 7d39 283e 033d 453d 17df 64be 6a42 2b3e
000002c0: 9e9f 53be 8e99 50bd d3f6 98be ba97 863d
000002d0: 45b0 6a3d 81b3 d2bb 0701 5d3d 0820 1f3d
000002e0: efcd db3d ed78 48be 0fd0 b13d 62fc 19bc
000002f0: 35c7 66bc e24b bdbd 78f2 09be c43a cd3d
00000300: ad9f 17be 6b8f 17bd 99de 07be b51e 093e
00000310: 0d71 22bd d061 6bbe 0d8a 34be bd22 103d
00000320: 8930 0abd 68c0 c33d bd46 c1bd 849f 01be
00000330: 8cca 97bd d472 233e c480 143c 8858 91bc
00000340: 7d1e d13d cf26 c4bd 4a69 693d f838 34bd
00000350: 5210 84bd af04 0bbe 5a8a e53d 4238 2ebe
00000360: 55e2 6dbe 4140 833c d6a1 f63d cf37 d23d
00000370: e21a 25bd c0d7 0dbe 867c 1a3e 4d2a 62bd
00000380: a927 a83a 7bae e63c f2b6 b9bd df16 473d
00000390: 9a99 c4bd 2fdf e6bb e67c 22be c33e 193d
000003a0: 2f6e e2bb 2491 a43c fbe9 39bc 6cbe e0bd
000003b0: 69ff f1bc c3a1 033e 5cb6 d8bb 5132 1dbe
000003c0: 7957 9abd 6724 0dbe 6b5a c5bd ac05 c6bd
000003d0: e834 adbd 5b3e 13be 9b91 5c3d db6f 66bd
000003e0: 5a96 e9bc 587c 3dbd 9fd5 b13d 28f9 dbbd
000003f0: 4d01 883b 6884 14be dce3 193d ef80 aa3d

bias f4 [15]
0.0054239975 0.014281288 0.050958633 0.008381789 0.0376871 0.031209726 -0.024403976 -0.02464683
0.03483581 0.010100184 0.011387748 0.010475167 0.0047194255 0.0048881215 0.020724172
00000000: cabb b13b 10fc 693c 00ba 503d c553 093c
00000010: ca5d 1a3d 8aab ff3c d9ea c7bc 26e8 c9bc
00000020: ffaf 0e3d 3e7b 253c ad93 3a3c 09a0 2b3c
00000030: 69a5 9a3b 892c a03b bdc5 a93c

weight f4 [1, 32]
-0.043678816 0.007231283 0.022291338 -0.02313557 0.07215187 0.06765215 0.014528042 0.008636647
0.058534507 -0.020807788 0.15049727 0.06369168 -0.0055642226 -0.03440235 -0.0022677053 0.011662422
-0.045992557 -0.0008426933 0.064873904 0.0018824901 0.10882334 0.051102325 -0.036171295 0.068475634
0.09992151 -0.0047610025 -0.009115834 -0.00253244 0.15379967 0.040624723 0.020037297 -0.019069863
00000000: 8fe8 32bd 66f4 ec3b 539c b63c cf86 bdbc
00000010: 5cc4 933d 368d 8a3d 0607 6e3c b980 0d3c
00000020: e1c1 6f3d 1875 aabc f51b 1a3e c970 823d
00000030: 1554 b6bb 7be9 0cbd c89d 14bb be13 3f3c
00000040: b162 3cbd 31e8 5cba 9cdc 843d e3bd f63a
00000050: c5de de3d ac50 513d 5a28 14bd f43c 8c3d
00000060: a6a3 cc3d 2f02 9cbb 945a 15bc 4bf7 25bb
00000070: a97d 1d3e 1c66 263d 4225 a43c 6738 9cbc
