results/ppo-vs-trpo/trpo-400-policy.pt (torch, 443871 bytes, 11 tensors)

weight f4 [32, 3, 8, 8]
000000 db b1 6d be 25 94 d2 bd c9 16 f4 3a c6 bd b8 bd
       -0.23212378 -0.102821626 0.0018622513 -0.090205714
000010 f8 28 f7 3d 38 32 0d 3d 4d 0b de 3d 3b 70 21 bd
       0.12068361 0.03447172 0.10841999 -0.039413672
000020 0a 17 8c 3d b8 16 19 be b4 d6 20 be a3 33 bb bd
       0.06840332 -0.14950073 -0.15706903 -0.09140708
000030 58 dd 37 3e 70 00 0d 3e 63 50 7f 3d 84 3c b8 3d
       0.1795553 0.13769698 0.062332522 0.089959174
000040 a5 1b de 3d e3 63 87 bc 76 0e f6 3d 10 cb 33 3b
       0.108451165 -0.016527122 0.12014477 0.0027434267
000050 d3 dd c0 3d 4f b5 81 3e 88 10 44 3d 12 09 aa 3c
       0.094173096 0.2533364 0.047867328 0.020756278
000060 c5 55 54 3e 7d 6a 0f 3e 69 89 f2 3d 3c 03 19 be
       0.20735843 0.14005466 0.11842615 -0.1494264
000070 54 a5 2c 3e cf dd 01 3e 09 24 19 bc bd 2d ee bc
       0.16859943 0.1268227 -0.00934697 -0.029074544
000080 db 17 17 3e 6f 12 55 3d fd 4c 33 3c 5d 7a 0b 3e
       0.14755194 0.052019533 0.010943648 0.13620897
000090 7a 18 05 3e d3 5c ae 3d c1 63 ba 3e 91 32 47 3e
       0.12997618 0.085137986 0.3640423 0.19452883
0000a0 cd 94 2d 3e 07 95 f4 3d f7 54 5f 3e 43 0c 8b 3d
       0.16951294 0.11942487 0.21809755 0.06789448
0000b0 97 75 e2 bd 10 c5 f3 3a 19 87 a9 3c 66 82 1d 3e
       -0.11057585 0.0018598158 0.020694302 0.15381774
0000c0 17 da ae 3e 08 e3 8e 3e a7 18 2b 3e 3c 8b ad 3e
       0.34150764 0.27907586 0.16708623 0.3389529
0000d0 4e e7 39 3b f0 27 55 be a6 9e 21 bd 38 e1 54 3d
       0.0028366628 -0.20816016 -0.03945794 0.051972598
0000e0 f7 c9 00 be 8e bc 8a 3d 5b 67 80 3e a4 e9 00 3e
       -0.12577043 0.06774245 0.25078854 0.12589127
0000f0 3e b6 25 3e ee e4 71 3d a1 5d 7f be 4b ca 9e bb
       0.16182801 0.059056215 -0.2493806 -0.0048458925
000100 2f a6 3c be 5e 41 a1 bd 3b 31 09 be b2 f1 ab 3d
       -0.18422769 -0.07873796 -0.13397686 0.08395709
000110 3a 5c b7 3b e9 ce c0 3e 4e c5 d6 bd 1c 69 10 bd
       0.005595711 0.3765786 -0.10486852 -0.03525649
000120 ce 6f 92 bd 19 6b 5e be a6 ca 3e be e6 56 1e 3e
       -0.07150231 -0.21720542 -0.18631992 0.15462837
000130 03 da 3e 3e b7 6a 03 3e 33 68 22 3e 8d 19 10 3e
       0.18637852 0.12833677 0.15860061 0.14072247
000140 cd c8 6e 3e 40 c0 47 3d 78 62 4c bc 5f 9d af 3d
       0.23318787 0.04876733 -0.012474649 0.08574938
000150 62 dd e7 3d d6 c7 78 3e 0d 93 ff bc f5 a1 8b 3b
       0.11321522 0.24294981 -0.031198049 0.00426125
000160 2d 43 91 3e 5d 99 92 3c 44 23 82 3e 6c ea d4 bc
       0.28371564 0.017895395 0.2541753 -0.025990687
000170 57 40 22 3e 7f ad ff 3d eb 03 d1 bb b4 90 f3 bd
       0.15844856 0.12484264 -0.006378641 -0.11892834
000180 98 c7 00 3e 31 be 5b 3d b9 04 33 bd 22 63 86 bd
       0.12576139 0.053648178 -0.043705676 -0.06561877
000190 00 fb f7 bc a4 cb a0 3d 3b 53 45 3e 5a 48 d5 bc
       -0.030271053 0.07851341 0.19270031 -0.026035476
0001a0 ec 9c 35 3e d2 cb 84 3e 86 94 8f 3d 24 68 3d 3e
       0.17735642 0.25936753 0.070107505 0.18496758
0001b0 b4 59 df bc 0f 88 07 be e6 54 49 be ab a7 1d 3e
       -0.027264453 -0.13235496 -0.19661292 0.15395992
0001c0 42 eb 93 3e 15 bf 84 3e 55 98 7d 3e 26 4b 85 3e
       0.28890425 0.25927034 0.24765141 0.26033896
0001d0 65 23 1b 3e d1 37 00 bd 7c 5c 96 3d 7f 8e 1c bd
       0.1515022 -0.03130323 0.07341859 -0.038221832
0001e0 60 cf 29 3e 80 13 7b 3e 69 40 c4 3d b0 9f a6 3d
       0.16583014 0.24519157 0.09582598 0.08135927
0001f0 9d 95 00 be 35 79 bc bd c0 8f c6 3d 86 c9 8d 3d
       -0.12557073 -0.09202806 0.09695387 0.06923203
000200 56 eb f2 bd 84 f1 36 bd 4e 56 1b be 35 bf 2b be
       -0.11861293 -0.04466392 -0.15169641 -0.16772158
000210 3a dc 3b 3d 09 66 84 3e 27 b2 f2 bc e4 3d 55 be
       0.04586432 0.25859097 -0.029625965 -0.2082439
000220 63 2f 30 3e d3 6c 0a 3d f8 11 23 3d 69 cc bc 3d
       0.17205577 0.03379519 0.03981206 0.09218676
000230 fe 1f 6e 3e 3a 80 bc bd 78 ff a4 bd ed ff db 3d
       0.23254392 -0.09204145 -0.08056539 0.10742173
000240 d7 8e 75 3e 74 10 44 3e d0 f7 4b be 36 cb a1 bc
       0.2398027 0.19146901 -0.19918752 -0.019750219
000250 55 ce aa 3e 39 cb 53 3e 5f 7e 44 bd 2e 2b 32 be
       0.33360544 0.20682992 -0.04797208 -0.17399284
000260 8d c2 3e 3e 15 57 93 bd 10 69 b5 bc b8 5a d2 3d
       0.18628903 -0.07194344 -0.022144824 0.102712095
000270 9f 71 83 3e e9 11 88 3e 02 c4 85 bd b2 5b fe 3d
       0.25672624 0.26576164 -0.06531526 0.12419833
000280 fa f3 9d 3d 6a 3a 0c 3e 83 c9 0b 3e a9 f1 a1 3b
       0.077125505 0.13694158 0.1365109 0.004942138
000290 3b 28 75 bd f1 96 28 3d 79 27 4f 3e b7 d1 35 3e
       -0.05985282 0.041159574 0.20229901 0.17755781
0002a0 a8 dc dd 3d 83 be de 3e 44 03 48 3e b5 19 22 bc
       0.108331025 0.43504724 0.19532496 -0.009893824
0002b0 b0 8d 81 be eb fb a7 bd 46 83 82 bd 9f af dd 3d
       -0.2530341 -0.082023464 -0.06372695 0.10824513
0002c0 ac 56 93 3d 63 ae bb 3e a3 7c db 3d fd 13 9f bd
       0.07194266 0.36656484 0.10717132 -0.07767484
0002d0 46 76 d2 be cc d8 79 3d 51 7a e8 bd 5c ef 49 3d
       -0.4110586 0.06099777 -0.11351455 0.049300537
0002e0 a2 ab 98 3e 9e 01 4b 3e e4 86 48 3e 1c 33 db bc
       0.29818445 0.19824836 0.19582707 -0.02675777
0002f0 ff fb 6e 3c cb b0 87 3c e8 b5 c8 bc e1 b0 ca bc
       0.014586448 0.016563794 -0.024500802 -0.024742546
000300 74 22 15 3e 73 fe 39 3e d6 33 9e 3d 27 e1 9d 3d
       0.14563924 0.18163471 0.07724731 0.0770896
000310 4e b2 f9 3d c9 f3 1f be b3 c1 33 bd 1a d0 ec 3c
       0.12192212 -0.1562034 -0.043885898 0.028907824
000320 bd 41 ff bd e4 f4 71 3d 79 53 21 bd 99 fe 67 3d
       -0.124637105 0.059071437 -0.039386246 0.056639288
000330 24 87 4a be 4d a7 9a bd bd 16 e4 3d eb b9 81 3e
       -0.19778115 -0.07551441 0.111371495 0.25337157
000340 6a b0 05 be 50 04 93 3d 5a 18 89 bd 62 82 ee 3d
       -0.13055578 0.07178557 -0.06694098 0.11645962
000350 62 5d b7 bd 63 76 14 3d 20 a4 15 3e 44 86 6d 3d
       -0.08953358 0.036245715 0.1461339 0.057989374
000360 68 bb 82 3c 0d de 2b be 43 3a e0 bd 1f 5c cc 3d
       0.015958503 -0.16783924 -0.109486125 0.09978508
000370 48 d9 a7 3e 9d 79 3e 3e b0 a1 90 3d 3d 98 a3 bd
       0.3278296 0.1860108 0.070620894 -0.079880215
000380 b7 8f 19 3d 6c 33 d2 bd 24 1f 8b 3e e4 80 a5 3d
       0.037490573 -0.10263714 0.27172196 0.080812246
000390 c7 9d 1f 3e 1d 91 a2 3e 09 9d 0f 3e 44 51 2f 3e
       0.15587531 0.31751338 0.14024748 0.17120844
0003a0 55 2f 23 3d cf 36 ad bd 9d 02 23 be 67 64 25 bd
       0.03984006 -0.084577195 -0.15918966 -0.040378954
0003b0 91 b2 c0 3d 84 6c 21 3e 00 ee c9 3d 5f 89 de 3d
       0.09409059 0.15764052 0.09859848 0.10866045
0003c0 57 85 a0 bd 40 ba 07 3d d4 ed 26 be 97 51 89 3e
       -0.078379326 0.033136606 -0.16301662 0.2682006
0003d0 e3 8b ab 3d e8 73 87 bd 9b 6a da 3d b2 47 76 3d
       0.08376291 -0.06613904 0.10664865 0.060126968
0003e0 58 10 1f 3e 5f e7 97 bd 9f d3 62 bb 3f fe 1d 3e
       0.15533578 -0.074171774 -0.0034611 0.15429018
0003f0 98 90 ad 3d f5 6b 80 3e 32 89 c5 3d a8 00 b4 be
       0.08474845 0.25082365 0.096453086 -0.3515675

bias f4 [32]
000000 20 43 d9 3b 41 77 77 bb 77 1f 0a bc 96 ae 8e bc
       0.0066303164 -0.003776029 -0.008430353 -0.017417233
000010 1e 69 15 3d 79 42 15 bd 0b 2e 14 bb 39 42 8c bc
       0.0364772 -0.036440346 -0.0022610452 -0.017121421
000020 01 14 1b bc 31 6b a0 bc 61 19 ac b9 99 a6 02 bd
       -0.0094652185 -0.019582363 -0.00032825305 -0.03189716
000030 96 ed e2 3b 41 7d 0f bc f2 87 ae bc 31 6d c1 ba
       0.006925295 -0.00875789 -0.021305058 -0.0014757273
000040 c1 82 da bc eb 13 01 bc 5a cb 8b 3c 77 44 25 3c
       -0.026673676 -0.007878284 0.017064739 0.010087124
000050 14 e7 43 3c 24 5d 9a 3c 5c 00 55 3b 64 79 e0 bc
       0.011956949 0.018843241 0.0032501435 -0.027401634
000060 cb b3 49 3c eb 1e ff bb 1b 23 42 bc f6 39 20 3d
       0.012310932 -0.007785668 -0.01184919 0.039117776
000070 3c 2a c9 bc 81 d4 83 3c 5d c5 48 bc 2d cf 92 bb
       -0.024556272 0.01609254 -0.012254086 -0.0044802637

weight f4 [64, 32, 4, 4]
000000 bd fb 04 3e c2 99 c9 3d a3 f0 2b 3e 4b ff a4 bd
       0.12986656 0.0984378 0.16791014 -0.08056506
000010 a9 4d bb bd 38 a5 63 bd a9 c4 a8 3d ae 0c 3f bd
       -0.09145672 -0.055577487 0.08240635 -0.04664295
000020 e6 e5 9d bc a2 95 72 bd 82 27 f8 bd 4c 51 99 bd
       -0.019274663 -0.059224732 -0.121169105 -0.07486209
000030 75 77 48 be 0d a2 cb 3c f5 72 d7 bd fb 71 be bc
       -0.19576819 0.024857545 -0.10519973 -0.02324771
000040 f9 cf 63 3c 98 26 97 bc fc 63 16 3e 49 5d 3d bd
       0.013904565 -0.01845102 0.14686579 -0.04623154
000050 79 37 cd 3c f4 98 aa 3d ac 6d 71 bc b8 49 c0 39
       0.025050865 0.08329955 -0.0147356205 0.00036676018
000060 3e d7 fa bd 28 2b 6a bd 0d 14 41 be 62 6c 84 3d
       -0.122480854 -0.057170063 -0.18855305 0.06465985
000070 c9 4b d1 3d 93 7b b7 3d 89 16 42 3e 6e 6c 23 3e
       0.10219533 0.08959117 0.18953909 0.15959331
000080 88 2d 24 3e e0 39 0a 3e 6f 6f 54 3d 08 5a 29 3e
       0.16032994 0.1349864 0.051864084 0.1653825
000090 6b ee 54 bd 48 4f 28 be 06 b0 ac 3d 9d 1d 42 3e
       -0.051985186 -0.16436493 0.08432011 0.18956609
0000a0 42 74 d2 bc bf 7d 49 be c5 d9 6a 3d fa 63 a0 3d
       -0.025690202 -0.19676875 0.057336587 0.07831569
0000b0 c6 a5 27 3c 4d 40 3e bc fb d7 ef 3d 58 f4 ec bd
       0.010232395 -0.01161201 0.11711117 -0.11570042
0000c0 d1 ba 7a 3c ea ce dd 3d e5 0d 9c 3e f4 e7 43 be
       0.01530333 0.10830481 0.3047935 -0.19131452
0000d0 7c b8 d4 3b 37 7a 49 be 0e c4 e0 bc 3c f7 36 bc
       0.006491719 -0.19675528 -0.027437236 -0.011167344
0000e0 c7 2b 1f be 3d 8a a3 bd cc be 38 bd 0e 64 ee 3b
       -0.15544043 -0.07985351 -0.045103833 0.007275111
0000f0 3f d8 87 bc 54 b3 f3 bd ae 09 d5 bc 7f 90 74 bd
       -0.016582606 -0.118994385 -0.026005592 -0.059708115
000100 1a b4 1e bc 57 db c2 3d d4 1b fb 3d 62 b4 96 3c
       -0.009686494 0.09514492 0.12261167 0.01839656
000110 44 36 ad bd e2 e5 7d bc e9 de 59 bd 9c 10 01 bd
       -0.08457616 -0.015496703 -0.0531911 -0.03150998
000120 af e0 b5 bd 70 95 93 be 61 03 f9 bb 53 1a 94 be
       -0.088807456 -0.2882495 -0.0075992798 -0.28926334
000130 89 0a 97 bd f1 13 31 3d f1 d7 82 3b 05 4a ac 3c
       -0.07375056 0.04323191 0.0039930274 0.021031389
000140 4f b1 c3 3d a7 6f 3a 3e dc d1 00 3e 95 96 d6 3b
       0.09555303 0.18206654 0.12580055 0.0065487125
000150 e3 a0 19 be c9 d2 c5 3c 27 d0 5f bc bc f2 00 bd
       -0.1500278 0.024148362 -0.013660467 -0.03148149
000160 93 32 1b 3d 60 40 ad be b8 2e 13 be 82 a3 ba bd
       0.03789003 -0.33838177 -0.1437329 -0.09113218
000170 08 b7 ad bd 8c b1 4d 3d 66 ed 91 bd 61 86 91 bd
       -0.08482176 0.05021815 -0.07125358 -0.07105709
000180 2e 34 50 3d c6 a9 12 3e b8 cf 69 3d c0 a8 9b 3c
       0.050831012 0.14322576 0.05708286 0.019001365
000190 55 28 37 bd eb a0 a2 bc 5b e9 84 be b6 6e ab bc
       -0.044716198 -0.019852122 -0.25959286 -0.020926815
0001a0 ad 79 9a ba 99 65 00 be d8 4a 57 be 8d 4f eb bd
       -0.001178553 -0.12538756 -0.21024644 -0.114897825
0001b0 e9 74 03 be ba f9 4c bc 02 a7 29 3c 08 7b 37 bd
       -0.12837566 -0.012510711 0.010354759 -0.044795066
0001c0 96 c8 3a 3e fb dd d9 3c e7 f0 97 3d 6b 16 ab 3c
       0.1824058 0.026595106 0.07418995 0.020884713
0001d0 d1 b7 c5 bd 02 1c 20 3c 96 35 91 3d 8f 30 6d 3d
       -0.09654201 0.009772303 0.07090299 0.057907637
0001e0 a2 89 99 bd 22 bb 93 3d b5 d6 d6 bd 68 6d 0b be
       -0.074969545 0.07213427 -0.10490171 -0.13615954
0001f0 02 57 25 bd cd 88 bb 3d b5 d8 94 bd e3 7d c3 3d
       -0.04036618 0.09156952 -0.07267896 0.09545495
000200 76 99 7b 3d d7 c6 5e 3d 7f b8 91 3d c0 53 bb bd
       0.06142565 0.054388847 0.07115268 -0.091468334
000210 27 92 3b bd 12 4a 00 bd 6c 60 15 be b7 17 95 bd
       -0.04579368 -0.03132064 -0.14587563 -0.07279914
000220 d8 06 7e bd ef 73 6e be 62 05 17 be 6d fb 73 be
       -0.062018245 -0.23286413 -0.14748147 -0.2382638
000230 eb 08 bc bd 7c db c4 3c a3 14 19 3d 22 e0 1c 3d
       -0.091813885 0.02403044 0.037373196 0.038299687
000240 d7 84 b5 3e cd 0f 80 3e 5d 8b ed 3d bc 4a f3 bb
       0.3545291 0.25012055 0.11598847 -0.0074246805
000250 c3 bc 09 be 91 55 1c be 37 84 07 bd 59 c0 d5 bc
       -0.13450913 -0.15267016 -0.033085074 -0.026092695
000260 08 83 9f 3c 0e 61 b3 3c 0a 58 af bd 27 3f 7c 3d
       0.01947166 0.021896865 -0.08561714 0.061583664
000270 16 96 74 be a5 be 75 bd 32 3a 23 3d fc 32 c4 3b
       -0.23885378 -0.059996266 0.03985042 0.005987523
000280 52 6b c2 3d 5b fa 27 3e 3d 5e bf 3d d5 52 30 3d
       0.09493126 0.16404097 0.093441464 0.043047745
000290 42 d9 2c 3e c9 ad ec 3c d7 ca a7 bc cb ce ad bd
       0.16879752 0.028891461 -0.020482464 -0.08486708
0002a0 e5 98 22 be 7e 08 96 be dd 83 22 bd 26 fa f8 bc
       -0.15878637 -0.29303354 -0.039676536 -0.030392718
0002b0 63 fe cd ba c5 05 31 bd 42 45 32 3d ec 53 32 3e
       -0.0015716072 -0.043218393 0.04352308 0.17414826
0002c0 32 94 66 3e 0a df 3f 3e 63 67 97 3d 54 b8 f1 bb
       0.2251747 0.18737426 0.07392766 -0.00737671
0002d0 4f 50 1a be 8c 2f 35 be fd 19 f2 bd fc 11 56 3d
       -0.15069698 -0.17693919 -0.11821363 0.052263245
0002e0 51 7e a0 3d b5 bb 44 3c c8 5c e6 bd 31 72 bb bd
       0.07836593 0.0120076435 -0.11248165 -0.0915264
0002f0 6d dc 2d be 36 50 c7 bc 40 89 10 3c 58 fc 9e 3d
       -0.16978617 -0.02433024 0.008821785 0.077629745
000300 36 22 30 3d 55 09 5e 3e d6 85 b3 3d 5f c2 60 3d
       0.043001376 0.21683247 0.087657616 0.054872867
000310 c9 10 34 bd 72 7e 0e bd 5f 99 13 bc 0f f3 df 3b
       -0.04396132 -0.034788556 -0.0090087345 0.0068343948
000320 c7 e1 10 be cb 27 10 be 03 50 54 bd 71 da a8 bd
       -0.14148627 -0.1407768 -0.051834118 -0.082447894
000330 b0 05 87 bd 04 93 fa bd 16 49 93 3b f4 d8 c1 3d
       -0.06592882 -0.12235072 0.0044947965 0.09465209
000340 33 01 38 3e 9f 70 30 3e 86 08 64 3d c3 82 3d bd
       0.17969207 0.17230462 0.05567219 -0.046267282
000350 ee 16 2f 3b 97 c6 a2 bc b1 58 a5 3d e6 18 41 3e
       0.0026716548 -0.019870086 0.08073557 0.18857154
000360 26 bd 60 bd 68 a1 30 be 7d fa ba bd 28 26 de bd
       -0.054867886 -0.17249072 -0.09129808 -0.108471215
000370 04 7f 10 be 88 2a 3d 3d 43 61 82 bd e0 11 99 3d
       -0.14110953 0.04618314 -0.063662075 0.074741125
000380 6c 29 4e 3e 65 db 52 3e 82 88 0a 3e bc 9c 82 3d
       0.20132989 0.20591505 0.13528636 0.06377551
000390 a4 4f b7 3c 23 52 63 bd f5 64 e1 bd 08 97 14 3d
       0.022376843 -0.055498254 -0.11005584 0.036276847
0003a0 83 10 1c be 4e 77 79 bd fc d1 c1 bd e2 5c 1f be
       -0.15240674 -0.060904793 -0.094638795 -0.15562776
0003b0 42 31 ad bd 76 e8 52 3b 7f a7 c1 3d 9f 53 2e bd
       -0.08456661 0.0032182015 0.094557755 -0.042560216
0003c0 30 69 3e 3e 95 8e fa 3d 82 d0 e2 3d be 62 f6 3d
       0.18594813 0.122342266 0.11074926 0.12030552
0003d0 1e 08 05 be 5d 6f 02 bd 5b 0c 87 bd 12 17 ce bc
       -0.12991378 -0.031844486 -0.065941535 -0.025157485
0003e0 df 0a 10 bc e1 e8 ae bd 93 1d a7 bb f7 65 cb bd
       -0.008791654 -0.08540512 -0.005099961 -0.099315576
0003f0 e4 d2 78 3d dc 83 0a 3d 47 a4 ed bd 8b 51 06 bd
       0.060747996 0.033817157 -0.11603599 -0.03279261

bias f4 [64]
000000 b6 21 28 bd c6 76 f4 bd d7 28 48 3c 54 4f 1f bd
       -0.041047774 -0.11936717 0.012216768 -0.038894013
000010 b5 db 26 bd 60 78 c2 3c 21 0f 5d 3d 76 15 97 3d
       -0.040736873 0.02373904 0.053969506 0.0737714
000020 1e 06 20 bd de 26 ad bd 88 00 80 bd b5 1d d3 3d
       -0.039068334 -0.08454679 -0.06250101 0.103084005
000030 61 ea 9f bb 15 d9 0a bd 4a 17 e9 3d 0e 6e 6e bd
       -0.004880235 -0.03389843 0.11381395 -0.058210425
000040 6e 77 72 bc f1 3c 83 3d 82 ca b9 bd 33 29 63 3e
       -0.014798982 0.06408108 -0.090718284 0.22183685
000050 98 50 a9 3b 0f 6e a3 bc 29 4f 67 bc 58 68 2c 3c
       0.005167078 -0.019949941 -0.014117994 0.010522924
000060 94 bc 9f bd a3 b7 f2 3d 1e cf 1f bd 9e 81 12 bd
       -0.0779964 0.11851432 -0.03901588 -0.035768144
000070 05 2b 0a bd b6 b4 c8 bc 47 22 90 3c 33 96 c9 3c
       -0.033732433 -0.024500232 0.01759447 0.024607753
000080 04 f9 a7 bc 69 e8 42 3b dd f6 96 bd 39 58 df bc
       -0.020504482 0.0029740578 -0.07371304 -0.027263748
000090 a9 14 54 3d d2 6f 11 bd ee 09 9d 3d c3 dd 2a bd
       0.051777516 -0.03550703 0.076679096 -0.041715395
0000a0 e6 36 05 be b0 8a 28 bd 63 f1 08 bd b8 2d 1c 3c
       -0.13009223 -0.041147888 -0.03343333 0.009532385
0000b0 b1 f8 5c bc 44 c1 27 3e 2f 2e 42 bd c1 6e 12 bd
       -0.013487027 0.16382319 -0.047407325 -0.035750154
0000c0 a3 2f 9f 3d 48 d5 59 bd 26 e4 28 bd 32 f1 94 bd
       0.07772758 -0.053181916 -0.041233204 -0.07272567
0000d0 f5 bb 43 bd 5e 2b 04 bd 50 16 6b bc 3b 77 cb bc
       -0.04778667 -0.03226792 -0.014348581 -0.024837127
0000e0 81 ab 5e bd ea 97 b0 bd 59 b2 44 bd 07 6c 50 3e
       -0.054362778 -0.08622725 -0.048021648 0.20353709
0000f0 5a a6 fd 3c 4b 0d ad 3d 90 ce 6a bd 62 f1 13 3e
       0.030963112 0.08449801 -0.0573259 0.14447549

weight f4 [64, 64, 3, 3]
000000 5d 1d 7d bd 50 02 f8 3b 97 3e 44 3d d1 fc 5b 3e
       -0.06179558 0.007568635 0.047911253 0.2148316
000010 d2 4f 1e 3e cf ce c0 3d e0 2e 56 3d f9 1b 0a 3d
       0.15460137 0.094144456 0.052290797 0.033718083
000020 bb 44 16 be 25 4d 27 3d 1d e5 c2 bd 86 95 e4 3d
       -0.14674656 0.040845055 -0.09516356 0.11161332
000030 20 e0 87 3c ca 47 b6 bc f4 bc ae bd 8b 3a 8a bd
       0.016586363 -0.022251029 -0.08532134 -0.067494474
000040 69 2c 19 bd 7b a0 b8 3d fb 44 87 3d 84 ba 48 3c
       -0.03739587 0.09014984 0.06604954 0.0122515
000050 0e df 16 3d a2 0a 9b bb 15 08 6d bd 42 70 7c bd
       0.036833815 -0.004731492 -0.057869036 -0.061630495
000060 b3 97 78 3d d3 bb 5f 3d c6 22 bf bb 08 5e 27 3e
       0.060691547 0.054622483 -0.0058330027 0.16344464
000070 d7 aa b8 3d 21 8c a9 3d 2c 50 d7 bd f4 b0 9f 3c
       0.0901696 0.082786806 -0.105133384 0.019493558
000080 79 63 88 bd 6b 83 23 be 84 a0 b2 bd 16 c9 4d be
       -0.06659598 -0.159681 -0.08722022 -0.2009624
000090 3b c8 3a 3e 4a 20 24 3e b1 4e a7 3d 0f 55 b6 3c
       0.18240444 0.16027942 0.08169306 0.022257356
0000a0 53 0f da 3c ac 35 70 bd 29 89 ea 3d ad a7 66 bd
       0.026618635 -0.058644935 0.114519425 -0.05631225
0000b0 a4 5a c0 bd de f6 94 bd ed b0 dc 3d b1 6b 2b bd
       -0.09392288 -0.07273649 0.107759334 -0.04185075
0000c0 c6 c4 91 bd 8a 2b 4f bd f6 4d 45 3e c0 e3 f8 bd
       -0.0711761 -0.05057863 0.19268021 -0.12152815
0000d0 07 07 1d bd 8f bc 2d be 8d d2 2e 3d e5 fa e8 bb
       -0.03833678 -0.1696646 0.042681266 -0.007109987
0000e0 60 43 a6 bc 23 c9 bb 3d 0b 6f 85 bd 13 ba 9b 3b
       -0.020295799 0.09169223 -0.065153204 0.0047524064
0000f0 f1 2c 06 3e 2d 78 70 3d 79 fb 5b bd 1c 10 94 bd
       0.13103081 0.05870836 -0.05370662 -0.07229635
000100 d7 11 da bc c5 a6 05 3e 9c d5 b0 3d c1 79 bb bd
       -0.026619835 0.13051899 0.08634493 -0.09154082
000110 32 bf d5 3d 24 34 e1 bd b1 32 32 3d b9 3a 4e bd
       0.10436858 -0.10996273 0.043505374 -0.05034897
000120 36 e9 1a be 07 55 c5 bd 52 1a 08 bc a4 29 8e bc
       -0.15128025 -0.09635358 -0.0083070565 -0.01735384
000130 e9 f3 70 bd fd a1 06 be d5 45 06 bd 51 fc 01 3d
       -0.05882636 -0.13147731 -0.03278144 0.03173477
000140 56 5c 38 be ea ec e3 bd 0d fd 22 3d 90 71 ae bd
       -0.18003973 -0.11129172 0.03979211 -0.08517754
000150 d6 77 96 3c b0 87 2d bd f7 a7 8f 3d 93 68 89 bd
       0.01836769 -0.04236573 0.070144586 -0.06709399
000160 fb 0a ee bd 34 86 0f be b8 52 a4 3d c6 dd 84 3d
       -0.11623188 -0.14016038 0.0802359 0.064876124
000170 7f a4 6e bc b4 27 ad 3d 09 71 26 be dc 46 eb 3d
       -0.014565586 0.084548384 -0.16254057 0.11488125
000180 ba 90 80 bd ed 81 34 bc dc 84 ea bc 95 e8 35 3d
       -0.062776044 -0.011017305 -0.028627805 0.04441126
000190 8a 10 27 bd be 16 39 bd ff 04 52 3d 42 6e a4 bd
       -0.040787257 -0.045187704 0.051274296 -0.080288425
0001a0 0f 7d a0 bd 19 71 c3 bd df 72 a2 bd 53 43 76 bd
       -0.07836353 -0.09543056 -0.07932066 -0.0601228
0001b0 ed 6f 21 3e cc 0e 54 bb 3b f8 06 3d b1 f8 25 3e
       0.15765353 -0.0032357452 0.032951575 0.1620815
0001c0 a8 a8 36 bc 10 21 e7 3c 5e 97 66 3d 4f 08 f3 bd
       -0.011148609 0.028214008 0.0562967 -0.11866819
0001d0 3a 09 81 bd 46 35 0e 3d 30 e8 93 3c 43 b3 87 3c
       -0.06300588 0.034718774 0.018055052 0.01656497
0001e0 80 ac ce 3d 30 e7 5d bb 4a e9 6c 3c 1c 89 cd 3d
       0.100914955 -0.0033859722 0.014459917 0.10035917
0001f0 34 bd 85 bd b0 c7 33 bd e1 fc 1d be a5 b5 39 be
       -0.06530228 -0.04389161 -0.15428497 -0.18135698
000200 32 0d e3 3c b0 c8 5c bd 60 86 17 bd b1 80 a8 3d
       0.027716253 -0.053902328 -0.036993384 0.08227671
000210 82 4b 79 3e 0e 40 87 bd 78 20 84 3d 79 3a 94 bd
       0.2434521 -0.06604014 0.064515054 -0.07237715
000220 77 11 e5 3c 75 86 39 3c d6 34 42 3c b0 98 c3 ba
       0.02796243 0.011323561 0.011853417 -0.0014922824
000230 ca f2 7d bc 58 67 af bd 6b a4 34 bd a7 79 b9 bd
       -0.01549978 -0.08564633 -0.044102114 -0.090564065
000240 19 ab 83 ba 87 41 ba 3b f8 8d fd bc 5d bf d6 bd
       -0.0010045498 0.005684081 -0.030951485 -0.104857184
000250 5b 7e d2 3d d0 63 11 bd 1b 1f e8 3d 67 f7 2a 3e
       0.10278007 -0.03549558 0.11334058 0.16695939
000260 c5 50 f6 bc 57 f0 8f bd 5b f6 9d bc 65 0b 92 3d
       -0.03006781 -0.07028263 -0.01928251 0.071310796
000270 d0 00 aa 3d 98 01 ed bd 4b 3a b6 bd 93 d7 df 3d
       0.08300936 -0.115725696 -0.08897837 0.109297894
000280 40 28 d3 3c 09 eb f3 bd b7 62 a2 3d b8 a1 03 3b
       0.025776029 -0.11910064 0.079289846 0.0020085406
000290 59 ab 9a bd bc 7d 97 bd 4b 41 5c be 4d 46 d5 3c
       -0.07552213 -0.07397029 -0.21509282 0.026034499
0002a0 a0 01 52 3d a0 db 0d bd 1a e2 7b 3c 69 e0 27 be
       0.05127108 -0.03463328 0.015373731 -0.163942
0002b0 05 a4 8c be 5c ee 03 bd cf 9d 1f 3e ca 0a bf 3a
       -0.27468887 -0.03220974 0.15587543 0.0014575359
0002c0 89 a2 b0 bd 77 14 82 3d 0d 9f 19 bd 5f 6c 5a bd
       -0.08624751 0.063515596 -0.0375052 -0.053326007
0002d0 36 f1 2b be b6 d2 a9 3d 4b 6c 08 3e dc a8 21 be
       -0.16791233 0.08292143 0.1332256 -0.15787071
0002e0 58 a5 ae bc e9 8d bf bd 0b d7 b6 3c b8 a9 f4 bd
       -0.021319076 -0.09353239 0.022319337 -0.11946434
0002f0 f1 e3 44 bd ad d1 90 bd 1d a6 6e bc 8d 49 2c 3e
       -0.048068944 -0.070712425 -0.014565972 0.16824932
000300 7e 4f 6d bd 20 7f 57 bd fd b1 d9 3d 76 c7 cb 3d
       -0.057937138 -0.05261147 0.10629652 0.099501535
000310 63 35 e4 bd 80 65 a2 bc 6b c0 e2 3d c2 2f 67 3d
       -0.11142995 -0.01982379 0.11071857 0.05644203
000320 20 9e 90 3d 00 db 6f bc eb 37 e9 3d b9 cb d0 3d
       0.0706141 -0.014639616 0.11387619 0.10195107
000330 e9 5b 63 bc 88 e0 1b bd 9e e9 05 be a6 7e b3 bc
       -0.013876894 -0.038055927 -0.13077399 -0.021910977
000340 aa 01 06 bd f7 35 f5 3d f8 23 e6 bd 48 c2 91 bd
       -0.03271643 0.119731836 -0.11237329 -0.07117134
000350 0e 0e f3 3d 6c 65 dd bd b3 13 04 be e2 9f 6f bc
       0.11867915 -0.1081036 -0.1289814 -0.014625521
000360 b8 66 12 3d f5 73 d8 bd ba 9f aa bc a7 d2 73 3d
       0.03574249 -0.10568992 -0.020828117 0.059527066
000370 e4 49 bc bc 52 a2 2e 3e 3c b2 05 be d8 2b cc bd
       -0.022984453 0.17054108 -0.13056272 -0.099693
000380 09 b2 04 be 69 45 69 3d cb d8 83 3c 89 be 43 bd
       -0.1295854 0.05695096 0.016094586 -0.04778913
000390 19 30 1e be 2a 81 0e bd a8 69 02 bd 91 9f 04 be
       -0.15448035 -0.03479115 -0.031839043 -0.12951495
0003a0 52 23 7f bd 89 ad fa bc 8c 16 b6 3d 61 f7 49 be
       -0.062289543 -0.030600326 0.08891019 -0.19723274
0003b0 6d b4 77 3b ff 82 5f 3c c8 b5 d9 bd ff c1 33 3e
       0.003779675 0.013642072 -0.10630375 0.17554472
0003c0 49 e4 a3 3d ae cf bd 3c c7 89 5e bd 32 cd 16 3d
       0.08002526 0.023170318 -0.054330613 0.036816783
0003d0 97 ba f1 3d f1 9b 1f 3d e1 52 a5 bd be bf 5e 3d
       0.11803167 0.038967077 -0.080724485 0.05438208
0003e0 4e ba 5b 3d a4 c4 59 bd 8f e9 9f bc 76 b7 8c 3d
       0.05364447 -0.053166047 -0.01952055 0.0687093
0003f0 71 19 11 be d9 4a 37 3c 2f 61 e1 3d 63 be 14 bd
       -0.14169861 0.011187279 0.110048644 -0.03631438

bias f4 [64]
000000 83 4a 25 bd 06 e8 43 3c 9d a9 92 3d f9 da f7 3d
       -0.040354263 0.011957174 0.071612574 0.121023126
000010 c4 5d 24 ba 13 3f 5e 3d d3 a7 84 bd 12 22 e8 bd
       -0.00062700757 0.05425937 -0.064773224 -0.113346234
000020 7e 1e c1 bd c2 88 93 3d 87 32 72 bc 80 10 77 3d
       -0.09429644 0.07203819 -0.0147825545 0.06031847
000030 84 4b 62 bc b1 b8 85 3b b4 21 87 3e 0c 9d bc 3b
       -0.01381195 0.004080855 0.263929 0.005756026
000040 cd 40 26 3d 89 a5 e6 3c 8f 66 fd 3d 21 2a 12 3d
       0.040589143 0.028155105 0.12373077 0.03568471
000050 c9 f7 ce 3d 88 cc a9 3d e6 3b 4b 3d 83 f0 e2 3d
       0.10105855 0.08290964 0.04961767 0.1108103
000060 a9 e6 1c bd 83 87 91 bc 32 d6 03 3e 62 b5 06 bd
       -0.038305912 -0.017764812 0.12874678 -0.032887824
000070 37 90 01 3e 81 23 e8 bc 24 d1 01 bc 52 d0 ff 3b
       0.1265267 -0.028337242 -0.007923398 0.007806816
000080 4f 64 14 3c 54 6f 64 3d af f5 3d bd 58 3c 9d 3d
       0.009057119 0.055770233 -0.04637688 0.07677525
000090 05 1e ae 3d ca 54 ab bc 65 18 2f 3c be 5e cf bb
       0.085018195 -0.020914454 0.010686968 -0.006328433
0000a0 a4 02 c1 3b 28 3b 5a 3d 5e 1d 11 3e 07 e3 68 b9
       0.0058902074 0.053279072 0.14171359 -0.00022209818
0000b0 d0 29 39 ba 26 fc 82 bc 9c ab 79 bc 0e 36 87 3e
       -0.00070634205 -0.015989374 -0.015238669 0.26408428
0000c0 57 56 c5 3c de 3d 00 3c f4 70 d5 bc 34 61 80 3e
       0.024089022 0.00782725 -0.026054837 0.2507416
0000d0 02 94 09 bc a1 e1 1c 3d fc 87 73 bd d2 fb 70 3d
       -0.008397104 0.038301114 -0.059455857 0.058833905
0000e0 cb 51 cd 3d d1 f5 e9 3c 9a ba b3 3d 52 a1 2f 3d
       0.100253664 0.028559597 0.08775826 0.042878456
0000f0 d1 b2 e7 bd fa 3c aa 3e 71 0c 98 3c 79 77 7c bd
       -0.113134034 0.33249646 0.01856062 -0.061637376

weight f4 [32, 1024]
000000 1e f4 61 bd 01 9f 65 3d b7 22 32 bd 80 05 37 bd
       -0.05516445 0.05605984 -0.043490138 -0.04468298
000010 9c f2 f3 3d 57 95 4d bd ea ed 80 3d eb c3 ee 3d
       0.119115084 -0.05019125 0.062953785 0.11658462
000020 80 a6 d9 bc cc 18 be bc 65 b4 0e be d5 f9 e2 3d
       -0.026568651 -0.023205183 -0.13936003 0.11082808
000030 7f ac 19 bd 1c 12 ef bc a9 ce e7 3c cf b0 59 3d
       -0.03751802 -0.02918344 0.028296785 0.053147133
000040 63 bb e5 3d f9 46 73 bb 76 6c 10 3d a4 38 0d bd
       0.11217382 -0.003712116 0.035259686 -0.034477845
000050 97 97 0d 3e 2c df 08 3e 64 6a 0a 3c 5a 96 bf 3d
       0.13827358 0.13366383 0.008448217 0.09354849
000060 81 6c c8 bc 33 56 35 bd ec 54 ca bd 85 c5 ba 3b
       -0.024465801 -0.04427166 -0.09879479 0.0056998157
000070 4b 7d 96 bc fa e9 96 bd a6 50 1f be 5a 5f 6e 3d
       -0.018370291 -0.07368846 -0.15558109 0.058196403
000080 d0 5b 8c 3d 96 ff d3 3c 77 c7 82 3d 5d 64 f3 bc
       0.06853449 0.025878709 0.06385701 -0.029710943
000090 e3 47 eb 3d 13 10 ac bd 46 84 cc 3b 00 b8 42 3d
       0.11488321 -0.084015034 0.006241354 0.047538757
0000a0 24 f2 8b 3d 9c c6 b0 3d 43 4b 48 bd 9a aa e6 bc
       0.06833294 0.08631632 -0.0488999 -0.028157521
0000b0 0a 7d 57 3d 5f 80 cd bd 09 16 37 bd 79 6c c0 bb
       0.05260948 -0.100342505 -0.04469875 -0.005872306
0000c0 88 26 91 3d 68 e0 b4 3a cf 28 2c 3c cc c7 04 bd
       0.070874274 0.0013799788 0.010507776 -0.032417104
0000d0 ac 08 00 3e 8c c8 93 3d 9f f3 8c 3b d0 23 e5 3d
       0.12503308 0.07215986 0.004301503 0.11188471
0000e0 8d a3 af bd ae 73 0a bd 4b 85 9c 3d 02 9d c5 bc
       -0.08576117 -0.033801727 0.07642611 -0.024122719
0000f0 ca 01 b9 bc 27 0e 01 bd 58 ac 4c 3d c5 93 10 3e
       -0.02258386 -0.031507637 0.049969047 0.1411887
000100 8d 0d 07 3d a6 40 d5 ba e2 3f e8 3d 90 42 d6 3d
       0.032971907 -0.0016269877 0.1134031 0.104619145
000110 a9 5d b4 3d 6d c0 e9 bd 3c f2 3c bd a1 0c 28 3e
       0.08806927 -0.114136554 -0.04612945 0.16411068
000120 d6 ea 08 bd 95 4b c4 bc 92 39 bb 3d 79 d6 17 3e
       -0.033427082 -0.023961822 0.0914184 0.14827909
000130 2b d5 d2 bc d3 d4 53 bb dc 0a 91 bd 0f 72 be bc
       -0.025736412 -0.0032322898 -0.070821494 -0.023247747
000140 91 27 17 3e 34 8c 64 3d 30 7b af 3d bd ff 94 3d
       0.14761187 0.05579777 0.08568418 0.07275341
000150 27 0c d4 bd e7 0d b9 3d 8e 87 2a bc 25 e0 ae 3c
       -0.103538804 0.09035855 -0.010408295 0.021347115
000160 f7 ff ae 3d 1b d6 c7 3d 7c 23 be bd 63 65 98 3d
       0.08544915 0.09757634 -0.09284112 0.07441213
000170 0f 71 ad bd d9 0e fd 3c 7b a2 92 bd 56 d6 5e be
       -0.0846883 0.030890869 -0.07159897 -0.2176145
000180 74 31 d4 3d c6 d2 c4 3d ea 1d 83 bd 04 99 54 3c
       0.10360995 0.09610514 -0.0640219 0.012975935
000190 db bb 66 bc 8a e6 8a bb 31 99 2b bd 3b e9 d3 bd
       -0.014082874 -0.004238908 -0.04189414 -0.103472196
0001a0 3e 98 81 bd 8e 6c 07 be 10 e3 63 bc dd b8 63 bd
       -0.06327866 -0.13225004 -0.013909116 -0.05559622
0001b0 9e 74 7b 3c 19 b3 3f 3d cc f1 81 bd 31 ed b5 3d
       0.015347628 0.04680166 -0.06344947 0.08883131
0001c0 a6 6b d1 3d 86 a5 66 3e fe 74 6e 3b 20 ec b4 3d
       0.102256104 0.2252408 0.003638565 0.088341
0001d0 42 31 93 3c 5c a1 27 3c d6 d7 44 bb b8 d2 b2 bd
       0.017967824 0.010231342 -0.0030035875 -0.08731598
0001e0 75 13 cc bc 0a 8e 9f 3d a5 51 b0 3d e6 2e ec bc
       -0.024911622 0.07790764 0.086093225 -0.028830957
0001f0 6c 2e ba bd f2 3c c5 3d 05 fe ba bc 7f 3d a0 bd
       -0.090908855 0.09630765 -0.022826204 -0.078242294
000200 35 0c ef 3d 63 0c cc 3d d4 0c 7e bd 12 f8 9b 3d
       0.1167225 0.099633 -0.062023953 0.07615675
000210 80 24 6b bd 5f 22 1c bd cd ec ee 3d ae a9 f9 bd
       -0.057407856 -0.038118716 0.1166626 -0.12190567
000220 15 dc fa bd d2 4c af bc 5f 35 0d be 9a 06 94 3d
       -0.122490086 -0.021398935 -0.1378989 0.07227822
000230 26 6b 76 3d 68 07 3d 3c ef aa 0b be 9a 50 01 bd
       0.06016078 0.01153741 -0.13639425 -0.03157101
000240 ee a5 07 3d d7 60 90 bb 26 96 61 3d 2b 31 cf 3d
       0.033117227 -0.0044060755 0.055074833 0.101168
000250 8b bc 05 3d 02 18 00 bd d0 97 3c 3d 5b 8c cf 3d
       0.03265051 -0.031272896 0.046043217 0.101341926
000260 2b 76 3a 3d 9b a0 b6 bd a5 69 84 3d 27 ed 8d bd
       0.04552285 -0.08917352 0.064654626 -0.06929999
000270 9a ea 01 bd b7 89 2b bd f0 85 0f bd 81 6c e0 3c
       -0.031717874 -0.041879382 -0.035039842 0.027395489
000280 5e 88 ab bd e8 ce 38 3b cf 32 66 3c 22 be 36 3e
       -0.08375619 0.0028199498 0.0140502 0.17845967
000290 ec 06 d2 bd 29 09 90 bd fd 23 0b 3e 36 18 9c 3c
       -0.102552265 -0.07032997 0.13587947 0.019054513
0002a0 38 ff d9 3d 2d 3c ab bd 1b 63 8a 3d 33 86 83 bd
       0.10644382 -0.08361087 0.06757184 -0.06422081
0002b0 33 a1 7a bd 3e c2 d5 3c 07 f0 79 bb 05 7c 0a bc
       -0.061188888 0.026093598 -0.0038137452 -0.00845242
0002c0 b8 d2 cf bb 90 98 c9 bd f9 73 8a 3d 86 1e 52 3b
       -0.0063422583 -0.09843552 0.06760401 0.003206165
0002d0 a1 7e 80 3c 3e 0a b8 3d f0 b5 a9 3d 40 53 a4 bc
       0.015685381 0.089863285 0.08286655 -0.020059228
0002e0 a6 e8 76 3d a7 9e 1c 3d ba d8 54 bd 51 55 e7 bc
       0.060280465 0.03823724 -0.0519645 -0.028238924
0002f0 e5 c1 8e 3c 3d 9d b0 3c 8b 11 7a bd 16 74 4f 3c
       0.01742644 0.021559352 -0.061051887 0.012661954
000300 5d 8c b1 3e e5 e9 98 3d d3 19 a7 3c c0 2c ca bc
       0.346774 0.07466487 0.020398056 -0.024679542
000310 23 ea c7 3d d2 f3 c8 bc 84 dd b4 bd 91 9c be 3c
       0.09761455 -0.024530325 -0.08831313 0.023268016
000320 63 3e 89 bd 8c 36 32 bd 77 e2 25 be 30 29 b4 3d
       -0.067013524 -0.04350905 -0.1619967 0.087969184
000330 7b 28 24 3d ad bc 72 bd 4c c0 08 3d 4e 63 28 3c
       0.040077668 -0.059261966 0.033386514 0.010277582
000340 f0 3c df 3d b7 2c a4 3d d2 ec 6b 3d a9 8a f1 bd
       0.10900295 0.08016341 0.057598896 -0.117940255
000350 c3 04 ce 3d 5c 19 0a 3e 00 63 dc 3d 4d 98 4a bd
       0.10059502 0.13486236 0.1076107 -0.04946165
000360 1c 9e 08 bd 5e b4 50 bd 7e 49 09 bd 5a 18 dc 3a
       -0.03335391 -0.05095326 -0.033517353 0.0016791925
000370 07 0c 2f bb 97 10 c5 bc e0 f7 bd 3d 0d bd 84 bd
       -0.002671005 -0.024055762 0.09275794 -0.06481371
000380 5e db f3 3d 82 31 8b 3c 79 ca 43 ba 20 fb 89 3c
       0.11907075 0.01699138 -0.00074688304 0.016843379
000390 57 b5 fa 3c 9c 5d 9b 3d 32 51 8d 3d f3 6d 05 3e
       0.030604048 0.07586214 0.069002524 0.13030224
0003a0 f1 d3 a2 3d 04 64 8e bd fc f6 4d bd ef 78 65 bc
       0.07950581 -0.0695267 -0.05028437 -0.014005884
0003b0 f6 7b 82 3d 26 b4 a7 3e 74 be b8 3c 2c ea 9d 3d
       0.063713 0.3275463 0.022551753 0.0771068
0003c0 cf 30 10 3e 35 c1 09 3e bb f9 78 3d 44 62 c6 bd
       0.14081119 0.13452609 0.060785037 -0.096867114
0003d0 45 1d 39 bd 12 c0 4f 3d 55 eb a9 bd 07 f9 bd 3c
       -0.04519393 0.050720282 -0.08296839 0.023190035
0003e0 e2 f7 2b bd a8 1f 1c 3c de a4 ba 3d 67 50 1b 3d
       -0.041984446 0.009529032 0.09113477 0.037918475
0003f0 15 3c e9 3c 71 5d d0 3c c0 4d d4 bd aa 92 58 bd
       0.028471032 0.025435181 -0.10366392 -0.052874245

bias f4 [32]
000000 a5 46 00 3e 2e 94 a0 3d e4 f3 db bc 89 bf 5e 3d
       0.12526949 0.07840763 -0.026849695 0.05438188
000010 f4 65 55 3d 77 47 9b bc d3 2e 91 3d f5 a6 1d 3e
       0.052099183 -0.018954976 0.07089009 0.1539572
000020 9e 9b d7 3c 0a 10 76 3e 2d d1 ae bd 69 49 22 3e
       0.026319321 0.24029556 -0.08535991 0.15848316
000030 43 04 fb bd be 37 64 3d fe 09 18 3e 03 cb 5d bd
       -0.12256672 0.055717222 0.14847562 -0.054148685
000040 d9 7b b3 3d 1f c0 03 3e 96 e6 4f 3d f1 a5 53 3e
       0.087638564 0.12866257 0.050757013 0.2066877
000050 c5 35 ef 3c 63 de 53 bd b2 7f 3a 3d 02 e9 8f 3d
       0.029200444 -0.051725756 0.045531936 0.070268646
000060 7d 01 93 bd 65 24 09 3e fe b6 e2 3d 2b 90 2f 3d
       -0.07178018 0.1339279 0.11070059 0.0428621
000070 3c 0c a5 3d 66 5e b6 bb 3e c0 2d 3d 11 43 71 bd
       0.08058974 -0.0055654524 0.042419665 -0.05890185

weight f4 [15, 32]
000000 f8 1f 0f 3e 08 95 09 3d 4e 67 60 be 50 25 1e be
       0.13977039 0.033589393 -0.21914408 -0.15443921
000010 35 4f fc bc a6 c3 1a 3e b8 e6 06 3e fd e4 bf bc
       -0.030799488 0.15113696 0.1317395 -0.02342462
000020 e2 1d 79 be 0e e8 dd 3d f3 60 d9 bc 9c 11 e2 bd
       -0.24327806 0.108352765 -0.026535487 -0.11038515
000030 54 85 c7 bd c7 3f 79 bb 24 a6 ac 3a 26 69 11 be
       -0.09742227 -0.00380324 0.0013172072 -0.14200267
000040 1c 19 c0 3d a8 0c 78 3d 51 ad 88 3d ad 67 40 bd
       0.09379789 0.060558945 0.066736825 -0.046973873
000050 6d 08 98 3d 93 0c cb 3c 27 aa 1d be 5f c9 17 3c
       0.07423482 0.02478627 -0.15396939 0.009264319
000060 4c c5 c3 bd de 53 f7 bd 11 9b ad 3d 1c 19 8b bc
       -0.09559116 -0.12076543 0.08476842 -0.016979747
000070 76 22 4a be 2d 30 15 be 81 0a e9 3d fb cf 23 bd
       -0.19739708 -0.14569159 0.113789566 -0.039993268
000080 c9 46 3a bd 63 8c 30 bc 3e e6 4c 3d 36 f9 06 bd
       -0.045477662 -0.010775658 0.050024264 -0.03295251
000090 a2 bc 0d bd d0 6e dc 3d 9f 9d ab 3a de db 01 bd
       -0.034603722 0.10763323 0.0013093239 -0.031703822
0000a0 a8 46 f6 3c 57 6a e4 3d ad e6 f5 bc 23 58 07 3e
       0.030062988 0.11153095 -0.030017221 0.13217215
0000b0 1f 08 d8 bb 9d 82 aa 3d 21 1e ac bc 0f 87 98 3c
       -0.006592765 0.08325694 -0.02101046 0.018619088
0000c0 0a 01 e7 bd cd 03 b9 3d 93 2c 89 3d 17 3c 34 3d
       -0.11279495 0.09033928 0.06697955 0.04400262
0000d0 a0 7f b8 3c d1 5c 3e be d4 39 c7 bd ee 52 29 bc
       0.022521794 -0.18590094 -0.09727827 -0.010334713
0000e0 44 a3 4e bd d3 7c 8d 3c 11 c4 50 3d 39 98 0a bd
       -0.05044867 0.017271435 0.050968233 -0.033836577
0000f0 db 17 28 be 37 c6 f7 bd 33 99 f9 bd 08 73 2a 3d
       -0.1641535 -0.12098353 -0.121874236 0.04161361
000100 83 b9 de bd 42 12 9a 3d 9b 66 4c be 7c 1a 25 3d
       -0.10875227 0.07523014 -0.19961016 0.04030846
000110 7f 70 68 3d bb 97 09 be 7b 13 99 3d 8a 46 d0 3d
       0.05674791 -0.13436787 0.07474419 0.10169704
000120 69 02 74 3b c7 30 7c 3d c4 20 06 be 22 47 7f 3d
       0.0037232882 0.061569955 -0.13098437 0.062323697
000130 dc 4d 3e bd 3a 6f 17 be b5 ab 0e 3e b1 4c 0e bd
       -0.04646097 -0.14788523 0.13932689 -0.034741107
000140 90 59 f3 3c 34 26 f1 3d fe 16 bb 3c ee 1d 0d 3e
       0.029705793 0.11774865 0.022838112 0.13780949
000150 62 ba 16 bd de b4 a4 bc d3 18 86 3d d7 23 92 bb
       -0.036798842 -0.020105775 0.065477036 -0.004459839
000160 d4 2d 04 be 6e 2c 1b 3e 22 56 c7 3d 87 32 a1 3d
       -0.12908107 0.15153667 0.097332254 0.078709655
000170 0b d4 ae 3c 3d 67 76 3c 10 32 70 be ab 25 be bd
       0.021341344 0.015039262 -0.23456597 -0.09284528
000180 87 d2 90 3d 88 72 21 3d 9e da a6 bd 7e 1b 51 be
       0.07071405 0.039415866 -0.08147167 -0.20420644
000190 95 12 86 be 3e 1d 01 bc 05 48 76 bd ae aa 8b bd
       -0.26186052 -0.007880507 -0.060127277 -0.06819664
0001a0 58 8a b0 3c 1a d7 da 3d 3d c9 71 3b ca e7 31 be
       0.021550342 0.106855586 0.003689363 -0.17373577
0001b0 53 01 d2 3d 8f 55 1c 3e 80 10 8d bd 03 be 3e 3d
       0.10254159 0.15267013 -0.06887913 0.046567928
0001c0 4e e3 03 be 6c 41 63 bd 3e d7 be 3d ef 14 a0 bb
       -0.12879679 -0.055482313 0.09318398 -0.004885308
0001d0 28 68 91 bd 08 3d 37 bc cd 53 d5 bd 9f 84 e1 3d
       -0.07099944 -0.011183985 -0.10416374 0.110116236
0001e0 7b 32 2d be 96 08 cc 3d 97 9b 3a be 67 c4 b1 bd
       -0.16913788 0.09962575 -0.18223415 -0.08680039
0001f0 88 9a 1d bc b7 c8 b1 3d 9e a9 49 3d 8e e2 1b 3d
       -0.009619363 0.086808614 0.049234025 0.038057856
000200 cd 9f be bd 5e 99 97 bd b3 83 0c 3e 3e 4b c3 3d
       -0.09307823 -0.07402299 0.13722114 0.09535836
000210 c3 8e 52 3d fa f2 bf bd 87 01 19 3e bf b5 8c bd
       0.05140568 -0.09372516 0.14941989 -0.06870603
000220 c4 89 45 bd 75 65 60 be 79 76 64 3d 8c 96 e7 bb
       -0.048227087 -0.21913703 0.055777047 -0.007067507
000230 24 0a 57 3c 94 d8 1d 3d 0e 25 a3 bc 65 db 1f bd
       0.013124976 0.038536623 -0.01991513 -0.03902759
000240 eb ca 5b 3d f5 10 4c bd ee 16 1e 3c c3 9c fe 3c
       0.053660315 -0.04982086 0.009649022 0.03108061
000250 cf 6f eb bc f8 2b 20 bc 23 6e 99 bd 4c 32 6e 3c
       -0.028739838 -0.009776108 -0.0749171 0.014538359
000260 dc cc 07 bd d9 1a d0 3c 80 f8 2b be d2 44 59 bd
       -0.033154353 0.025403427 -0.16794014 -0.053044148
000270 38 ec 1b 3d 06 b9 3f 3d fa 7d 1c be d5 d7 04 bd
       0.038067073 0.04680731 -0.15282431 -0.032432396
000280 8b 90 19 be 3f 7a ac bc a8 e5 db bd 6c bf c5 3d
       -0.14996545 -0.021054385 -0.10737163 0.096556515
000290 1b b9 b0 3d 18 61 d9 3c 36 79 8f bd e4 d2 3f 3d
       0.08629056 0.026535556 -0.07005541 0.04683198
0002a0 6f 81 8c bd a0 8a 8d 3c e4 d0 66 3d 12 63 c4 3c
       -0.06860625 0.017278016 0.056351557 0.023973022
0002b0 df 12 5b be 89 cf 88 3d d3 38 63 3d 06 2f 0e 3e
       -0.21393918 0.06680209 0.055474114 0.13885126
0002c0 dd 27 09 3d 20 d8 c3 bd 2c 42 a2 be 02 c5 79 3d
       0.033485282 -0.09562707 -0.3169111 0.060978897
0002d0 b8 99 dd bd c3 77 9a 3d 94 cb a0 3d f9 e0 cf 3c
       -0.10820335 0.07542374 0.078513294 0.02537583
0002e0 8d 5c 20 3b 8b 9b 59 bd f3 2d 9a 3d fa 1e 10 bd
       0.0024469227 -0.053126853 0.07528295 -0.03518579
0002f0 74 d8 52 3d 34 36 0b 3d bc 28 1b be 7e e8 bd bd
       0.051475957 0.03398724 -0.15152258 -0.0927286
000300 ee f9 0d 3e db b7 b5 3c 44 53 ec bd 37 9e e8 3d
       0.13864872 0.022182396 -0.11539319 0.11358302
000310 13 a6 34 3d 6c 6e 92 bd 92 15 cf bd b0 90 f4 bd
       0.044103693 -0.071499676 -0.10111536 -0.119416595
000320 4c 8d ec 3c bd 01 91 3d ad d6 74 bd 32 99 f6 3d
       0.02887597 0.0708041 -0.059775043 0.120409384
000330 6d 7a a5 bd 87 8f 2b 3d ef 59 36 bd f0 fd 13 3d
       -0.080799915 0.041884925 -0.04451936 0.036130846
000340 3e c6 bd bc 1d 1c 5c be 77 da 92 3b e6 e7 4e be
       -0.023165818 -0.214951 0.0044816094 -0.2020565
000350 87 09 e1 39 04 b6 aa bd b0 f7 72 be 43 9c e4 3b
       0.00042922443 -0.08335498 -0.23727298 0.0069766357
000360 26 ea 01 3d 49 0e 8d bb 6c d6 45 be 07 1e 73 be
       0.031717442 -0.0043046814 -0.19320077 -0.23741923
000370 af 9f 0e be ca b5 83 3d 2e 6f a4 3d a9 8a 13 bd
       -0.13928102 0.06431158 0.08029018 -0.03602091
000380 7e 56 57 3d bf b7 86 3c b5 d6 46 bd 3c 25 00 3e
       0.05257272 0.016445039 -0.048544604 0.12514204
000390 6f ff f3 bd 9d 99 9e bd 63 f1 85 3d 6f 50 00 3d
       -0.119139545 -0.07744143 0.065401815 0.031326707
0003a0 8b 53 c2 bd 26 c7 0b bd ad 84 2b 3d 10 54 19 be
       -0.09488591 -0.03412547 0.041874576 -0.14973474
0003b0 46 fe 29 bc 08 50 f5 3c c5 8e 85 bd 71 fa b8 bc
       -0.010375565 0.029945388 -0.06521372 -0.022580357
0003c0 4d 03 19 3e c6 7e 22 be ca 34 e7 bd 55 ea 28 be
       0.14942665 -0.15868673 -0.112893656 -0.1649564
0003d0 b7 0e d2 bc 01 2f 23 be fb 53 d7 bc 5c 1a 3a 3c
       -0.025641782 -0.159359 -0.026285162 0.011358824
0003e0 98 0d 9e 3b 19 f8 40 3d 5c 32 e7 bd 89 5c 2d 3e
       0.004823398 0.047111604 -0.11288902 0.1692983
0003f0 ed 52 01 bd d8 8a b8 3d b1 68 c0 bc 8c 24 a3 bd
       -0.031573225 0.09010857 -0.02348742 -0.07965955

bias f4 [15]
000000 79 f4 c1 3d 4a ae 81 3d 6d e2 13 3e d7 ae 51 bc
       0.094704576 0.06332071 0.14441843 -0.012798033
000010 d7 28 16 bd ac c7 52 bd 7d 6e 92 3d 20 e6 18 bd
       -0.03666004 -0.051459953 0.0714998 -0.03732884
000020 7f d4 38 3d 4a c9 23 bc 5a cf 4b bd c0 56 e7 bc
       0.045124527 -0.0099967215 -0.049758293 -0.028239608
000030 fe 13 5d bd 2f 0b 87 bc 09 2d 85 bd
       -0.053974144 -0.016484825 -0.065027304

weight f4 [1, 32]
000000 b8 5e 32 3e a8 08 6e be 57 8c 89 3e ee fe bc 3d
       0.17418945 -0.2324549 0.26864883 0.092283115
000010 07 08 65 be 65 bb fe bc 86 7b af bb 56 fe 9e 3d
       -0.22366343 -0.031095216 -0.0053553013 0.077633545
000020 16 10 0d bd 35 36 7e be 97 cc 3c 3d 64 c0 87 3e
       -0.03443917 -0.24825366 0.04609355 0.2651397
000030 04 c6 d0 bc fa 59 50 3e 65 ca 0d 3e 01 18 59 3e
       -0.025485046 0.20346823 0.13846739 0.21200563
000040 57 3d 9b bd 86 6b 82 3d 7e a3 78 be 89 ef 04 3e
       -0.07580059 0.06368165 -0.24281117 0.12982
000050 3e 95 4e 3e 91 e8 65 bd bb 3b 8c 3d 6f 95 ce be
       0.20174119 -0.056129996 0.0684733 -0.40348384
000060 d3 60 f1 3d 6b 2a 85 be 9c d4 9d be 9c 75 5d 3d
       0.11786046 -0.26008925 -0.3082627 0.05406724
000070 41 60 63 3e 0b 89 de bb 6b 10 e4 3b 18 48 d3 3d
       0.22204687 -0.006791239 0.006959965 0.10316485
