results/500levels-policy.pt (torch, 443935 bytes, 11 tensors)

weight f4 [32, 3, 8, 8]
000000 8f 5e de bd 68 87 d9 bc e7 74 b9 3d c4 f9 c6 bc
       -0.10857879 -0.026553825 0.090555005 -0.02428902
000010 04 44 f3 3c 2b 31 c8 bc 5f c0 ae 3d ef 28 b9 bc
       0.029695518 -0.024437508 0.085327856 -0.022602526
000020 cc 41 cc 3c d7 ac ba bb a3 e4 10 be 08 91 77 be
       0.024933718 -0.0056968736 -0.14149718 -0.24176419
000030 15 7d 29 bd 0f 42 07 3e 35 2f c0 bd b9 b1 ba bc
       -0.041379053 0.13208793 -0.09384004 -0.022789823
000040 a7 f2 c7 3b ea 4d 6f 3c 0f 10 29 3e 64 d7 fd bc
       0.0061019245 0.0146059785 0.16510032 -0.030986495
000050 d7 0c c7 bd d8 59 5b bd 0e 7f 1a be 0e c2 3a be
       -0.09719246 -0.05355248 -0.1508753 -0.18238088
000060 93 87 3b 3e cb 39 2b 3e 91 2b 18 3d 65 7b 22 bc
       0.18313436 0.16721265 0.037150923 -0.009917115
000070 21 53 a5 3d b2 b5 11 bd f5 39 6d bd 6b a2 0e be
       0.08072496 -0.03557367 -0.0579166 -0.13929145
000080 e4 60 c0 bd 31 eb ea bd 39 88 09 3d 9e 82 0b 3e
       -0.093934804 -0.114706405 0.033577178 0.13624045
000090 12 07 22 3e 03 3f fa 3d 8e 2e 84 3e c3 67 fb 3d
       0.1582301 0.1221905 0.25816768 0.1227565
0000a0 42 bd 25 3d 7c ec 5f bd 88 fb 52 3d 2b c1 8b 3d
       0.040463693 -0.05466889 0.05150941 0.06823953
0000b0 30 fd 85 3c 75 91 2a bc a1 1b 7f bc 1d 67 b0 3d
       0.01635608 -0.010410656 -0.015570552 0.08613417
0000c0 f4 f5 4c 3e 59 bc 78 3d 45 f1 4a bd 88 fd df 3d
       0.20015699 0.060726497 -0.0495465 0.10937029
0000d0 84 5a f1 3d de f3 78 be 14 18 e4 bd 85 ae 54 3d
       0.117848426 -0.24311778 -0.11137405 0.051924247
0000e0 5f 40 6a be 58 cc d7 3b eb ab 09 3e 85 ef 84 3d
       -0.22876118 0.006585639 0.13444488 0.06490997
0000f0 64 42 97 3e c5 05 0b 3e d7 43 c3 bd a5 3b 98 3d
       0.2954284 0.1357642 -0.09534424 0.07433251
000100 75 98 4d bd 5c c1 73 bd cb 20 a7 bd 7f 5b 53 3d
       -0.050194222 -0.059510574 -0.08160552 0.05160093
000110 89 46 16 be f5 a9 85 3e 71 3d fe bd 18 8b d3 bb
       -0.14675345 0.2610623 -0.12414063 -0.0064557903
000120 4a b6 b0 bd 11 20 63 bd de ba 24 be 35 1d a3 3d
       -0.08628519 -0.055450503 -0.16086909 0.07964555
000130 84 3e c7 3a 8a 61 f5 3d 53 6c 0e 3c 11 6f 7e 3c
       0.0015201126 0.11981495 0.008692819 0.01552941
000140 cb 8f 09 3e f9 39 70 3d 3e d0 cb 3d 27 d8 0b 3e
       0.13433759 0.058649037 0.099518284 0.13656674
000150 f7 a6 14 bd 2f df 45 bd f3 ef 4c be 56 9a 23 be
       -0.036292043 -0.048308548 -0.20013408 -0.15976843
000160 6e 9f 69 3e 8f a3 da 3c e4 e6 0e 3e 9f 45 d8 3d
       0.22814724 0.026689319 0.13955265 0.10560154
000170 94 1d f9 3c 75 f7 0f bd 31 8f 81 3c ee 07 61 be
       0.030409612 -0.035148103 0.01581535 -0.21975681
000180 ab 58 08 bd 00 bf ae bd 95 2e 4d bd 8e 59 96 bd
       -0.033287685 -0.08532524 -0.050093252 -0.073413
000190 8f cf 3c 3b ef 1e 46 3d c8 dc c6 3d 75 6c 90 bd
       0.0028810238 0.048369344 0.097100794 -0.070519365
0001a0 bf f0 83 3d 40 cd e5 3c 16 b9 3b be c0 b6 09 3e
       0.06442403 0.028051972 -0.18332323 0.1344862
0001b0 f8 22 98 3d 80 ba 28 be 48 2a 35 be c4 6c 84 3d
       0.07428545 -0.16477394 -0.1769191 0.06466058
0001c0 56 fb 1f 3e 4e 0e c6 3c 68 bb 48 3d fa 67 bb 3d
       0.15623221 0.024176743 0.04900685 0.09150691
0001d0 ac fa 87 3e ae be a8 bd 4d a2 92 3d f6 b9 ee bc
       0.26558435 -0.08239494 0.07159863 -0.029141407
0001e0 f0 5c 7d 3d 42 11 53 3e b2 29 35 bd ed a1 cb 3c
       0.06185621 0.20612052 -0.044229217 0.024857486
0001f0 a4 5d 97 3b eb 19 ea bc a0 cf 87 3e 8a 45 df 3d
       0.004619317 -0.028576812 0.26525593 0.109019354
000200 8e 73 80 bd 80 35 98 bd ac ce 3c be 67 b7 85 be
       -0.0627204 -0.07432079 -0.18438214 -0.26116487
000210 76 60 c5 bd fa 0b 94 3d b7 48 95 bd 6f 7d 82 be
       -0.09637539 0.07228847 -0.0728926 -0.25486323
000220 f0 4e c9 3d 31 a2 b8 3d 7b 62 5b bd 2d c1 28 3d
       0.09829509 0.090153106 -0.053560715 0.04119985
000230 a4 d6 86 3b 3d b5 23 be 6f 5e 85 be 84 39 66 bd
       0.0041149426 -0.15987106 -0.2604861 -0.056207195
000240 c7 c9 a7 bc c2 c2 ea 3c 44 2c 46 be a4 e5 19 3d
       -0.020481957 0.02865732 -0.19352823 0.037572518
000250 fd 5b 89 3d 1a f0 04 be 8f e4 95 be e0 6e d0 be
       0.067069985 -0.12982216 -0.2927594 -0.4070959
000260 07 a4 ca bc 3c 1b 54 be 8c 05 9b be 41 e5 1c 3e
       -0.024736417 -0.20713514 -0.3027767 0.15321828
000270 b1 1a 85 bb 9e 1e 85 bd 81 a2 1b be a0 f3 a1 bd
       -0.0040620198 -0.064999804 -0.15198709 -0.07907796
000280 cf 78 c6 bd 18 c0 3f bd 58 35 e3 bd af 98 c2 bd
       -0.09691011 -0.046814054 -0.11094159 -0.09501778
000290 7c bc 65 be 73 fe 3a be 68 b7 c7 3c a2 3f 1d bd
       -0.22435182 -0.18261127 0.024379447 -0.038390763
0002a0 88 bf 95 bc e5 21 da 3d 2a ca 80 be 99 b8 0b be
       -0.018279806 0.10650996 -0.2515424 -0.13644637
0002b0 69 8e b5 be 5d 28 a4 be ce 46 d2 bd 31 4a f4 bd
       -0.35460213 -0.32062045 -0.10267411 -0.119282134
0002c0 67 2f 2e bd 3c f8 b5 3d ff e1 2a be 7d b1 76 be
       -0.042525675 0.088852376 -0.16687773 -0.24091144
0002d0 ea 41 ef be 10 c7 41 be 4b 8f 26 be 2f d7 ce bd
       -0.46729976 -0.18923593 -0.162656 -0.10099637
0002e0 35 b0 2a 3e a6 32 c3 3d 04 ee 90 bd 85 01 88 be
       0.1666878 0.09531145 -0.07076648 -0.2656366
0002f0 91 54 d2 bd 75 57 5d be 8b e4 c2 3c 53 0a 5f be
       -0.10270036 -0.21615393 0.023790618 -0.21781282
000300 a6 fb 6f 3c ec 76 8a bd 0f c7 74 be d3 d3 bf bd
       0.0146474 -0.06760964 -0.2390406 -0.09366574
000310 f6 ee 8d 3d 9f 71 a4 be 25 fe 01 be 87 c7 6a be
       0.06930344 -0.32117936 -0.12694605 -0.22927676
000320 96 90 e0 be 8b ae 3e be d4 43 86 be 90 8a 86 be
       -0.4386031 -0.1862127 -0.26223624 -0.2627759
000330 0e 64 8d be 99 4f aa be 1f b9 b7 bd 30 90 25 bd
       -0.27615398 -0.33263853 -0.08970856 -0.04042071
000340 91 38 82 be 28 77 04 be 9e b3 34 be 94 51 b2 bd
       -0.25433782 -0.1293608 -0.17646644 -0.08706966
000350 59 25 95 be bc c2 89 bd 36 d2 28 3a 42 56 ac bd
       -0.29130057 -0.06726596 0.0006440015 -0.0841489
000360 4b 3d ae 3c d5 d6 26 be 0b 20 87 be 17 e9 be bd
       0.021269461 -0.1629289 -0.26391634 -0.09321802
000370 36 63 6d 3e 74 18 8b bd 38 e6 b0 bd 9c c8 81 be
       0.23182377 -0.067917734 -0.08637661 -0.25348365
000380 1a be 82 3d 78 52 05 bc 4c 97 58 3e d3 b6 95 bd
       0.06383915 -0.008137338 0.21151465 -0.073102616
000390 b7 b1 18 3d bd c2 87 3d e0 e8 17 bd d6 26 0d 3d
       0.037278857 0.0662894 -0.03708732 0.034460865
0003a0 01 14 28 3d 02 c2 24 bd da 0f 15 3c 3b 68 ab bb
       0.041034702 -0.040224083 0.009098018 -0.005230931
0003b0 77 18 07 bd 0e 1f 92 bd ff 5e e5 bc 2b e2 85 bc
       -0.032982316 -0.071348295 -0.0279994 -0.016343197
0003c0 98 7a 5d be 4c a9 0b be 40 22 87 be 9b 78 7d bd
       -0.21628797 -0.136388 -0.26393318 -0.061882596
0003d0 47 5f 84 be 1f 59 88 be 4c a8 09 3d 50 76 b8 3d
       -0.2585394 -0.26630494 0.033607766 0.09006941
0003e0 df fb 7d 3e f1 e5 3f bd 7a 0e b4 be 91 80 ec bd
       0.24803112 -0.04685015 -0.35167295 -0.115479596
0003f0 ff 01 a0 bd 99 8a 00 bd 51 ab 08 3e b4 01 24 be
       -0.07812881 -0.031382177 0.13346602 -0.16016275

bias f4 [32]
000000 ad 36 e7 bb 34 f7 08 bc e9 cd b5 bb dd b5 73 bc
       -0.0070560784 -0.008359719 -0.005548228 -0.014874903
000010 9b 27 a4 bb b8 70 f5 bb e7 8f f1 b9 dc d0 9a bc
       -0.005009604 -0.0074902438 -0.00046074318 -0.01889842
000020 fc de db ba 69 82 c5 ba d1 72 5a bc fc b6 9c bc
       -0.0016774829 -0.0015068772 -0.013333038 -0.019130222
000030 c5 be 87 bc 1b 41 0f bc 12 77 fa 3b fb eb 03 bb
       -0.016570458 -0.00874355 0.007643589 -0.002012967
000040 c9 db 80 ba fe 2b 2c bb d5 3f 0b bb 69 71 39 3c
       -0.0009831126 -0.0026271339 -0.0021247764 0.011318543
000050 ea ee 9d bc 25 07 81 bb ed bd 34 3d 4c a0 e5 3a
       -0.019278962 -0.0039376193 0.04412644 0.0017519086
000060 f7 8c 97 ba bc 19 64 bc f0 67 78 bd c3 7d 86 b9
       -0.0011562397 -0.013922151 -0.060645998 -0.00025652171
000070 60 50 d0 bc 9b 85 1d bb 0e 8a 9e bb 0a bb da b8
       -0.02542895 -0.0024035934 -0.0048382347 -0.00010429889

weight f4 [64, 32, 4, 4]
000000 48 98 08 3e 96 f2 4b 3d 2f ba 2b 3e 2a 3e 49 3d
       0.1333934 0.049791895 0.16770242 0.04913155
000010 7f 24 c7 bc 04 de 23 3e 99 56 a2 3c f3 4a 81 3c
       -0.024309395 0.16002661 0.019816684 0.015782809
000020 ae 58 8d bd 83 26 88 3b 37 6a 36 be d8 66 d1 bd
       -0.0690168 0.0041549816 -0.17813955 -0.10224694
000030 43 d6 a1 be 73 1f 55 be b7 7b 18 be 36 82 ce bd
       -0.3160878 -0.20812778 -0.14890943 -0.100834295
000040 a6 72 bc 3d 2e bf 91 3d 0a 8b 0b 3d 65 9d de 3d
       0.09201555 0.07116543 0.034068145 0.108698644
000050 e3 72 5f 3e 8e fc a1 3e 3c 52 f2 3d 94 29 e1 3d
       0.2182117 0.31637996 0.11832091 0.109942585
000060 62 f2 0e bd 68 d4 19 3e 69 74 ba bd 8d a0 a6 3d
       -0.034899123 0.15022433 -0.09104235 0.081360914
000070 76 df 65 bd 07 3c f5 bc a1 78 26 bd be 84 90 3d
       -0.056121312 -0.02993585 -0.040642384 0.070565686
000080 b6 7a 01 3e c9 c5 48 3e c2 f0 2e 3d 7c e8 a2 3d
       0.12644467 0.19606699 0.042710073 0.07954499
000090 05 df 0f 3e 52 08 b9 3d a8 af 11 3e 8d 03 fa 3d
       0.14049919 0.0903479 0.14227164 0.122077085
0000a0 34 8a de bc 75 eb 22 be e7 46 33 3e c7 f8 25 3e
       -0.02716551 -0.15910132 0.17507516 0.16208182
0000b0 01 af 85 be 05 a4 8f be 25 9e 1a 3d 0a 78 0f be
       -0.2611008 -0.28054824 0.037748475 -0.14010635
0000c0 e2 53 1e 3b c6 c6 bf 3d a8 18 42 3e e3 ea f9 bc
       0.0024158885 0.09364085 0.18954718 -0.03050751
0000d0 bf 33 e9 3d db 15 b0 bb ec 0b 6a 3d 8f d9 bc 3d
       0.11386823 -0.005373699 0.057140276 0.092211835
0000e0 3d 68 e2 bd 9f cf 91 bd 52 e2 c6 3d 55 dc a3 bd
       -0.11055038 -0.07119679 0.09711136 -0.080010094
0000f0 d7 cf 12 be db 74 3a be fd 32 ac bd 30 d7 72 be
       -0.14337097 -0.1820864 -0.08408163 -0.237149
000100 3c c7 8f bc 19 97 50 3d 87 80 b4 3d 5f 30 c3 3d
       -0.017551057 0.050925348 0.08813577 0.095307104
000110 5e 06 9b bd a6 90 a7 bd b5 d5 89 39 5e c3 5b 3d
       -0.07569574 -0.081818864 0.000262899 0.053653114
000120 e6 58 92 3c c9 df ee bd 52 6e c3 3a 33 f4 f5 bd
       0.017864656 -0.116637774 0.0014910197 -0.12009468
000130 49 a5 00 bf 03 ad 57 be 54 d4 0b bd 2f 7a 59 be
       -0.50252205 -0.21062092 -0.03413804 -0.21238016
000140 a8 83 c5 bd c9 32 94 bb 49 05 c9 3c b7 9d 07 be
       -0.09644252 -0.0045226556 0.024538653 -0.13243757
000150 5d 47 1e bd a9 d5 8a bc 43 46 7e bd 32 30 b3 bd
       -0.038642276 -0.016947584 -0.062078726 -0.08749427
000160 d7 ad 8f bb 67 8d 8c be e9 8e 31 be 86 0c 77 be
       -0.004384737 -0.2745163 -0.17339672 -0.24125871
000170 bc 38 f3 bd 5f 61 5e bd 7d 70 e5 bd 3d 3b 0b be
       -0.118760556 -0.05429208 -0.11203096 -0.13596816
000180 c4 9e 05 3d 30 87 09 3e 4f 3d 28 3b c9 e7 17 3d
       0.032622114 0.13430476 0.0025671308 0.037086282
000190 fa 5b 15 3e 44 27 28 3e 59 29 ad bd 2d 21 de 3c
       0.14585868 0.16421229 -0.08455152 0.027115429
0001a0 01 e7 c0 bd b3 4f 05 3c f1 03 85 bd fc 77 a0 bd
       -0.094190605 0.008136678 -0.064948924 -0.07835385
0001b0 b6 36 cc bc f9 4c dd 3d cc d8 59 bd 5d 59 a5 bd
       -0.024928432 0.10805697 -0.05318527 -0.08073685
0001c0 86 6c 24 3d cc 36 fd bd 75 32 48 3c e5 71 30 3d
       0.04014256 -0.12363967 0.012219061 0.04307737
0001d0 88 9e a9 bd b1 88 c8 bc 81 9a 05 3d 17 c9 ce bc
       -0.082821906 -0.024479242 0.03261805 -0.025242371
0001e0 6a 9d 22 be 40 eb a7 3c d1 13 91 bc f9 c7 62 be
       -0.15880361 0.020497918 -0.017709645 -0.22146596
0001f0 c4 f3 3d be b2 a9 03 be 22 b0 c5 bd a1 8d 40 3c
       -0.1855002 -0.12857702 -0.09652735 0.011752517
000200 13 32 19 3d 2e 8f 4c bd e8 0c 95 3d 65 ad ad bd
       0.03740127 -0.049941234 0.07277852 -0.08480338
000210 89 c2 04 3e 35 21 9e 3d 47 b7 b3 bd aa 4b 8a bd
       0.12964834 0.077211775 -0.08775192 -0.06752713
000220 bc 30 a7 bd f3 5b 2e be 40 d4 fe bd 17 91 4c be
       -0.08163592 -0.17027263 -0.12442827 -0.19977222
000230 23 22 1b be ee c7 f8 bd 0c 8e 52 bd f7 e5 81 be
       -0.15149741 -0.121475086 -0.051404998 -0.25370762
000240 4d f0 1c 3e f6 7a 37 3e 7f 50 43 3e be 27 95 3d
       0.15326042 0.17918 0.19073676 0.07282971
000250 09 bb fd 3d ac bb 03 3d 8f ba 41 3c 28 e8 b6 3d
       0.1238919 0.0321614 0.011824264 0.08930999
000260 71 33 09 3e 61 ef 01 3e f2 03 63 3c 5a c7 82 3d
       0.1339853 0.12688972 0.013855921 0.063856795
000270 22 f4 f7 be ca 90 39 be 86 3a 49 bd 43 97 30 be
       -0.48428446 -0.18121639 -0.049128078 -0.17245202
000280 95 b3 e5 3c 03 f8 ac 3d e6 90 0c 3d 10 11 41 3e
       0.028039733 0.08445742 0.034317873 0.18854165
000290 80 3d 0a 3e fd b9 da 3d 3d 6a 48 3c ed be 20 3d
       0.13500023 0.10680006 0.01223236 0.03924458
0002a0 a4 f0 09 3d 84 ef fd bd 11 36 e5 bd 81 c1 6f 3d
       0.03367676 -0.123991996 -0.11191953 0.05853415
0002b0 06 f0 94 be 6a 86 af bc bc d5 99 bc d7 34 bc 3d
       -0.29089373 -0.021426398 -0.018778674 0.09189766
0002c0 a5 53 dd 3d cd 37 00 3e d1 67 9c 3d f1 a3 b9 3d
       0.108069696 0.12521286 0.07636989 0.090644725
0002d0 37 2f cb 3d 5e 68 97 bd a3 fe f2 bc 53 ba 87 3d
       0.09921115 -0.07392953 -0.029662436 0.066273354
0002e0 49 98 8c 3d 7b 8a 5d bc dd 3c b2 bd 24 1f 42 3d
       0.068649836 -0.013521786 -0.08703015 0.04739298
0002f0 b4 c5 94 be 9d f3 2f be a5 da c4 bd 98 23 13 3c
       -0.29057086 -0.17182775 -0.09612016 0.008980654
000300 9f 90 e9 3c f8 a6 a6 3d fd cd 7a 3d c4 b5 e0 3c
       0.028511344 0.081373155 0.061231602 0.027430423
000310 64 ae c2 3c ef cb 28 3b b2 8c 68 bd 86 c7 6b 3d
       0.023764797 0.002575632 -0.056774803 0.057563327
000320 a8 8c 24 be 6e 22 c7 bd 50 47 6f 3d 54 39 ae 3c
       -0.16069281 -0.09723364 0.05841762 0.02126757
000330 8c 5f 80 be 78 70 ed bd 8b ae 33 be fc 52 33 3c
       -0.25072896 -0.11593717 -0.17547052 0.010945078
000340 d0 21 66 3d 3c 93 25 3e 7b dc 50 3d bc 5c f0 3d
       0.05618459 0.16169447 0.050991517 0.11736438
000350 b0 e2 1c 3d cf 9d 32 bd f5 3a 0c 3d 9a 76 f2 3d
       0.038302124 -0.04360753 0.034235913 0.11839028
000360 ae 30 03 be 1c 02 24 be 47 06 87 bd 02 a4 05 bd
       -0.12811539 -0.1601643 -0.06592994 -0.032627113
000370 c1 36 b8 bd 9c 36 75 bd 2c 1a 31 be fe ec 65 3d
       -0.089948185 -0.059866533 -0.1729514 0.056134216
000380 85 43 ac bb 63 62 a8 3b d7 c4 d0 bd 11 45 e0 bc
       -0.0052570724 0.0051386817 -0.10193794 -0.027376683
000390 fe 5a c1 3d 46 42 e6 3d 4c 93 14 bd 0b 72 33 be
       0.094411835 0.112431094 -0.036273286 -0.17523973
0003a0 0f b6 b7 bd ed 8b e0 bd ed f8 02 3d 6d cf 20 be
       -0.08970272 -0.10964189 0.031975675 -0.15704127
0003b0 3b 92 20 be bb 95 1e be 00 b6 16 bd 69 56 8e bd
       -0.15680782 -0.15486805 -0.036794662 -0.06950075
0003c0 93 4f 2c 3e aa 46 9c 3d e3 d4 28 3d 0a e0 d2 3b
       0.1682723 0.076306656 0.04121865 0.006435399
0003d0 57 2e 9b bc 2e b9 07 bd 6f e7 c6 bc a8 e1 e1 3d
       -0.018942995 -0.033135585 -0.024280278 0.11029369
0003e0 12 b9 cc bd 56 61 57 bc f8 86 fd bc 0c 9b 28 be
       -0.09996237 -0.013145765 -0.030948147 -0.16465396
0003f0 b4 f3 84 be 36 41 fa bd 23 03 81 be 41 2e 52 be
       -0.2596718 -0.12219469 -0.25197706 -0.20525457

bias f4 [64]
000000 17 65 df bc 4c da 04 bd 64 51 e3 bc 4b 58 9b 3c
       -0.027269883 -0.032434747 -0.027748771 0.018963
000010 5a fc 7c bc 5a 56 83 bc 2b 87 99 bd 6a 2f 10 bc
       -0.015441025 -0.016032387 -0.07496484 -0.008800367
000020 ec 7d 6c 3b c5 53 ea 3c ce 31 d2 bc e0 90 bf bc
       0.0036085797 0.028604398 -0.025658514 -0.023384511
000030 d0 c2 df 3d d2 43 92 3c b3 b3 28 bd 2b bf 8c bd
       0.109258294 0.017854605 -0.041187 -0.068724
000040 5c 50 16 3d 39 c9 4d bc 99 d1 41 3d 24 90 a1 bc
       0.03669773 -0.012560182 0.04731903 -0.019722052
000050 d3 48 f0 bd be e7 1e bd 63 67 9e 3d fb 1b 5e bd
       -0.1173264 -0.038795225 0.07734563 -0.054225903
000060 55 da 38 bc 8d 78 20 bc 81 61 a8 3d 40 15 aa 3d
       -0.011282523 -0.009794367 0.082217224 0.08304834
000070 5a 01 c1 3d ab 24 48 bd ee 1d 7e 3d a9 0e 3b 3d
       0.09424086 -0.048863094 0.062040262 0.045668278
000080 35 82 19 bd 20 cf 92 bd 5e c7 2d bd c3 18 1a 3d
       -0.03747769 -0.07168412 -0.04242646 0.03762127
000090 96 9f 3c 3d 4b 6b 78 bb bf 7a 8d 3b 71 3b 4a 3d
       0.04605063 -0.0037905748 0.004317611 0.049373094
0000a0 a1 14 37 bc 35 1f 41 bd 5e 3f 83 bd c5 cf 39 bd
       -0.011174352 -0.047148902 -0.06408571 -0.04536416
0000b0 3b b3 aa bc 1b 08 19 3d 7c 74 2b bd c5 c3 af 3d
       -0.020837417 0.037361246 -0.041859135 0.08582262
0000c0 eb 58 cd bc b5 76 e1 3c e0 5e e8 bc b7 67 eb bc
       -0.025066813 0.027522424 -0.028365552 -0.028735979
0000d0 82 54 63 3c f8 58 c7 3b 45 22 3b 3c a9 f5 63 3d
       0.013875129 0.006083604 0.011421745 0.0556542
0000e0 57 db e7 3c 52 48 67 3d aa 5c fb 3b e0 71 9a b7
       0.028302832 0.056465454 0.0076709585 -1.8411258e-05
0000f0 b6 47 cc bd 81 11 83 3c d3 40 7a 3d 37 06 78 3c
       -0.09974615 0.015999557 0.061096977 0.0151382005

weight f4 [64, 64, 3, 3]
000000 05 31 8b bd d8 89 c8 3c 3d 62 ad 3c 10 d6 ea 3d
       -0.06796459 0.024479792 0.021165008 0.114666104
000010 53 3a 23 3e 7f 1d 77 bc 77 e5 68 bd 13 0d b4 3c
       0.15940218 -0.015082716 -0.05685946 0.02197889
000020 a9 0f e2 bd 78 2e 53 bd 45 0c 52 be 80 3b fe 3d
       -0.11038143 -0.051557988 -0.20512493 0.124136925
000030 a9 6a 37 3d 25 a0 63 3d 21 83 d8 bd b4 d3 a1 bd
       0.044779453 0.055572648 -0.10571886 -0.07901707
000040 1b db 15 bd 3d 7c b3 3d a5 45 bb 3d 33 f8 10 3e
       -0.03658591 0.08763931 0.09144143 0.1415718
000050 9e 56 5a 3d 90 4c d9 bd a5 55 f4 bd 00 37 86 bb
       0.05330526 -0.10610306 -0.11930398 -0.004095912
000060 f0 29 9c 3d 04 7b 61 3d e4 96 2d bd 5f 5a 74 bd
       0.076251864 0.055048957 -0.04238023 -0.059656497
000070 03 c0 ce bd d1 78 a5 bc 21 fe af bd 24 4b a0 bc
       -0.10095217 -0.020199211 -0.08593393 -0.01956708
000080 0f ea ea 3b 47 d4 12 be ef 4a cf bd 0d 03 b0 bc
       0.0071690152 -0.1433879 -0.10121714 -0.02148583
000090 59 ca 96 3e f8 4e 27 3e 8d 5f 3a 3d 12 79 30 bc
       0.29451254 0.16338718 0.04550128 -0.010771053
0000a0 b2 f3 84 3d 2e ff bc bd 87 48 2f 3b 0f 65 3d 3e
       0.06491794 -0.09228359 0.002674611 0.18495582
0000b0 9b 03 4b bd 91 ca 1a be 60 10 9f bc 1f c5 1a bd
       -0.049563985 -0.15116335 -0.019416988 -0.037785646
0000c0 18 5e eb 3b 51 ca 22 bd 0e 7b 88 bd f0 49 b7 bd
       0.0071828477 -0.039743725 -0.06664096 -0.08949649
0000d0 3f b2 45 3d 59 9d 1b bd be 23 19 3d 13 67 15 be
       0.04826569 -0.037991855 0.037387602 -0.14590101
0000e0 6f e9 7b 3d b3 c9 59 3e e0 70 58 bc 89 4a 21 bd
       0.061501916 0.21268348 -0.013210505 -0.039377723
0000f0 17 44 bc 3d 27 89 a3 3d 1e c3 b4 bc 80 35 8f 3d
       0.091926746 0.07985144 -0.022065695 0.06992626
000100 8c 10 da 3d 02 1f f8 3c 14 a3 9e bb e8 80 91 bd
       0.10647687 0.030288223 -0.004841218 -0.07104665
000110 ad cb 70 bc 68 ed 0d bd d6 cd b6 3d e8 36 ca 3c
       -0.014696998 -0.034650236 0.08925979 0.024684384
000120 2e 20 b5 bc cc 26 2c 3d ea 16 c2 3d ed c7 f7 bc
       -0.022110071 0.042029187 0.09477027 -0.0302467
000130 7d 82 85 bd be bd df bd bf 13 75 bd 54 19 2f bc
       -0.06519029 -0.10924862 -0.059833284 -0.010687191
000140 23 a3 21 be 6c 04 b9 bd ac a8 3f bd 87 b1 55 3d
       -0.15784888 -0.090340465 -0.046791717 0.052171256
000150 5f 19 2f bd 1a 96 52 3d 97 ef 9f bd b3 f1 1b be
       -0.042748805 0.05141268 -0.0780937 -0.1522892
000160 0a 42 aa bd c7 47 8f bd a0 d7 fd 3c e7 ec 25 bd
       -0.08313377 -0.06996112 0.030986607 -0.04050913
000170 61 d3 21 3c 76 eb a8 3d 6a 55 83 bc 68 b3 ba 3d
       0.009877057 0.082480356 -0.01603194 0.0911625
000180 e7 a9 7c 3b ea 09 22 3d 02 78 5f 3d 50 d5 53 3d
       0.0038553418 0.039560236 0.054557808 0.051717103
000190 83 d0 bb bd ef b9 99 3d f6 5d e3 bb 93 cc b1 bd
       -0.0917063 0.07506167 -0.0069386913 -0.086815976
0001a0 e5 8a a5 bd 90 e3 a6 bd fd d8 8f 3d e2 45 1d bd
       -0.08083133 -0.08148873 0.07023809 -0.038396724
0001b0 f7 cf 49 3e 58 5a 13 be 0e a1 02 bc 7b f5 5c 3d
       0.19708239 -0.14389932 -0.007972969 0.053945046
0001c0 87 79 18 be 32 84 4b 3b 26 c1 1c be c5 98 1e be
       -0.14890109 0.0031054136 -0.15308055 -0.15487964
0001d0 95 b4 9a bd 84 0d fc bd d1 e1 80 3d a5 cb 07 bd
       -0.075539745 -0.123072654 0.06293071 -0.033153195
0001e0 a5 6a 8f 3d 75 dd 75 bd be cc 4b 3d 13 1c 62 3d
       0.07002763 -0.06002565 0.049755804 0.055202555
0001f0 53 ba c0 bc 7f 4c 0d bd 4a 0e 85 be 19 a2 e1 bd
       -0.023526346 -0.03449678 -0.25987464 -0.11017246
000200 95 91 e3 3b 86 50 e3 bc 86 f7 8d bd 1b 8c 0d 3e
       0.006944845 -0.027748358 -0.06931977 0.13822977
000210 1b d0 ec 3d bf eb a8 bd 90 f4 84 bb d8 32 4d be
       0.115631305 -0.0824809 -0.0040574744 -0.20038927
000220 3d c2 57 bd 36 84 7b 3d 07 96 18 bc 47 09 c4 bc
       -0.052675474 0.061405383 -0.009313113 -0.023930205
000230 b3 1f f8 3b 18 ff 49 3d 7b f7 89 bd 20 16 32 bd
       0.007572138 0.049315542 -0.06736656 -0.04347813
000240 25 9e 5d bd 08 ce 58 3d 3f 0e 76 3d 0c 37 24 be
       -0.054105897 0.05293086 0.06007218 -0.16036624
000250 3d 39 95 bc 78 24 aa bd 62 7d 0f 3e 50 2c d4 3b
       -0.01821577 -0.08307737 0.14012673 0.006475009
000260 5c 44 41 be 40 91 1b be 13 09 0d be 18 c0 60 be
       -0.18873733 -0.15192127 -0.13772993 -0.21948278
000270 7f 81 85 3d d1 d5 13 3d b1 40 a9 be bc bf 32 3e
       0.0651884 0.036092583 -0.33057168 0.17455953
000280 d5 82 5a 3d cb 04 88 bd e4 94 b2 bc a2 b6 8d bd
       0.053347427 -0.06641539 -0.021799512 -0.069196
000290 3a a1 15 bd 67 8b c9 bd 57 37 f2 bd 51 24 41 3c
       -0.03653071 -0.09841042 -0.118269615 0.011788444
0002a0 9e 59 57 3d aa 03 9a bc 98 72 eb 3b 9c ad 55 bd
       0.0525757 -0.018800575 0.0071852915 -0.05216752
0002b0 4d 78 82 be da 7f ab bd 59 8b ed 3c 46 7b 0b 3a
       -0.25482407 -0.08373995 0.02899711 0.00053207984
0002c0 60 38 23 bd e4 aa c8 bb 9f 74 2d bd 23 70 5e bb
       -0.039848685 -0.0061238874 -0.042347547 -0.003394135
0002d0 e7 f1 58 be ce f0 8d 3d dc 16 83 3d 84 1c 48 be
       -0.21186028 0.069306955 0.064008445 -0.19542128
0002e0 66 77 7a 3c 82 bd 25 3d 2f 2f 2a 3e ca 5b b1 3d
       0.015287256 0.04046393 0.16619562 0.086600855
0002f0 99 6e dd bd 11 6b da bc 38 f1 bb bd 70 c9 9d 3c
       -0.108121105 -0.026662381 -0.09176868 0.019261092
000300 8f c6 82 bb 7f 26 36 bd 91 65 a8 3d ec 48 4d 3d
       -0.003990955 -0.044470306 0.08222497 0.05011837
000310 2a 7a 1d bd 84 69 65 3c 8f c6 c1 bd 29 a6 9a bb
       -0.038446583 0.014002208 -0.094617 -0.004719515
000320 c9 2f 92 bb 4c 64 f4 bd 48 c6 4b b9 82 fe ae 3d
       -0.004461263 -0.119331926 -0.00019433454 0.08544637
000330 03 1c ae bd 45 0b 0b bd 8f a5 15 be ae 2c 33 3d
       -0.085014366 -0.033946294 -0.14613937 0.04374378
000340 48 8e 4b bc 1f 40 f3 3c 19 87 e6 bc 4e 5f 8a bd
       -0.012424059 0.029693661 -0.028140591 -0.06756459
000350 a3 3f 09 3e 2a 19 cd 3c 99 21 a9 3c ab 8d b6 3d
       0.13403182 0.025036413 0.020645903 0.0891374
000360 51 b4 84 3d 96 c5 42 be 42 63 e0 3d 7c 7b ea bd
       0.06479705 -0.19020686 0.10956432 -0.11449334
000370 4a 91 17 be 06 a6 4f bd 82 f0 1b be ea 44 61 be
       -0.14801517 -0.05069544 -0.15228465 -0.21998945
000380 79 d7 e5 b9 17 da de bd 99 bd 1d be d9 6b 57 bd
       -0.00043838823 -0.10881441 -0.15404357 -0.052593086
000390 f3 00 1b be 61 27 1b 3d 7e b8 0e bd ec 72 d5 bc
       -0.15137081 0.03787935 -0.034843914 -0.026055776
0003a0 28 f4 fd bd a0 ae 1f be 92 41 95 3d 10 bc d0 bd
       -0.12400085 -0.15593958 0.07287897 -0.1019212
0003b0 02 ae 13 3d f4 4d 7e 3c 53 c5 85 be c6 09 ff 3d
       0.03605462 0.015521515 -0.2612711 0.12453036
0003c0 4c 59 93 bd 89 b1 0b 3e 16 4c 3b 3d 20 71 85 3e
       -0.071947664 0.13641943 0.045726858 0.2606287
0003d0 5b 8a 1a 3e 73 b5 05 3e e2 ec 0b 3c eb f2 50 bd
       0.15091841 0.13057499 0.008540364 -0.051012915
0003e0 25 46 f1 bc 99 c7 0d be 44 a8 de bd 7b 96 9a bd
       -0.029452393 -0.13845672 -0.10871938 -0.07548233
0003f0 5a 25 11 be c9 b0 64 bd 28 49 17 be 70 17 3f be
       -0.14174405 -0.055832658 -0.14774 -0.18661284

bias f4 [64]
000000 0d 31 de 3b 03 91 9e bc ea 14 27 3d 7a bd 22 bd
       0.0067807497 -0.019356256 0.04079143 -0.03973148
000010 ff f6 62 bd dd cd a5 3c 7a 5e a4 3c 04 45 82 3c
       -0.055411335 0.020239765 0.020064581 0.01590205
000020 30 38 de bc 3d 24 ff bc 06 15 fc 3d 26 5a 85 bb
       -0.027126402 -0.03114521 0.123086974 -0.0040695844
000030 25 dd 3a bd 2f b3 83 3d 6b 69 08 3d fe 57 18 3c
       -0.045621056 0.06430661 0.03330366 0.009298323
000040 8c e4 81 bd 72 77 4f 3d 22 63 3e bd b9 11 e0 bb
       -0.0634242 0.05065102 -0.04648126 -0.00683805
000050 ef 1f ed 3c 10 0f 69 3d a0 8f 3d 3d 6f d4 97 3d
       0.028945891 0.05689913 0.04627955 0.07413565
000060 b5 08 d5 bd 3b 7f 29 3d 15 d7 db 3a 01 c4 da 3c
       -0.10402051 0.041381102 0.0016772473 0.02670479
000070 1b 25 da 3d 55 c3 55 3d 75 35 31 3d 7e c5 7b 3c
       0.106516086 0.052188236 0.04326387 0.01536691
000080 3f 84 56 3d 99 b5 22 3d b2 02 76 3d b3 60 1b 3d
       0.052372213 0.039723966 0.060061164 0.037934016
000090 30 a7 ec 3d e1 8f 2d bd 38 7d 39 3d d1 2f 29 3c
       0.11555326 -0.04237354 0.045285434 0.010326342
0000a0 4c bb 55 bc 3f 39 ee 3c e7 ac 12 3e 14 05 37 bc
       -0.013045143 0.029080031 0.1432377 -0.011170644
0000b0 8c 20 68 3d 01 05 a7 3d 04 b2 ed bc 91 82 bb bc
       0.056671664 0.08155251 -0.029015549 -0.022889407
0000c0 2d 8a 03 3d 02 6b e1 bd ef 29 78 3d 01 06 39 3d
       0.032114197 -0.11006738 0.060586866 0.04517174
0000d0 b0 41 28 3c c0 4c 0b 3d bc 09 82 3d e3 75 13 3c
       0.010269567 0.03400874 0.06349513 0.009000274
0000e0 94 3a fd 38 b0 c4 89 bc fa 79 06 3d 06 a6 8a 3c
       0.00012074891 -0.01681742 0.03283117 0.01692487
0000f0 9e 59 09 3d 9d f2 aa bd 0e e2 a1 bc ff dc 1c bc
       0.03353273 -0.08347056 -0.019761112 -0.009574174

weight f4 [32, 1024]
000000 c7 fe ba 3c 4b 5e 9e 3d 69 3e 70 bc 26 12 93 bc
       0.022826565 0.07732829 -0.014663317 -0.01795299
000010 84 5c b0 bd 93 45 55 bd 2a 7c 81 3d d9 9b 0d 3b
       -0.08611396 -0.052068304 0.063225105 0.0021607785
000020 e2 21 4e 3d 7f a0 4d bd 8a 4b d8 bd 1b 03 a3 3d
       0.050325282 -0.05020189 -0.10561283 0.07959577
000030 37 9c 1c 3d ec 17 4a bd 2e ab 32 bc 38 21 cb bd
       0.038234916 -0.04933922 -0.01090507 -0.09918445
000040 89 5f 0a 3e e7 79 66 bd 1b d0 98 bd 35 d3 27 3d
       0.13513006 -0.0562686 -0.07461568 0.040972907
000050 b2 2a 0a bc a1 3f 99 bd be 62 01 bc bf 69 0f bd
       -0.008433031 -0.074828394 -0.007897077 -0.035012957
000060 d3 4c db 3c 44 9a 61 3d f4 69 29 be 13 99 d3 3d
       0.026770031 0.05507876 -0.16544324 0.10331931
000070 d7 95 d6 3d 11 c2 8d bc 69 86 d2 3d bc 6a a5 bd
       0.104777984 -0.017304452 0.10279543 -0.080769986
000080 11 dd 09 bc 90 6e a6 bb b8 66 e0 3d fc e3 ea 3c
       -0.008414523 -0.005079098 0.10957092 0.028673165
000090 95 87 7e 3d 3e ef c0 bd 77 50 3e bd de 27 d9 bd
       0.06214102 -0.09420632 -0.046463456 -0.10603307
0000a0 05 80 f8 3d 67 f0 d9 3b 57 b5 dd bc 9d 4a 89 bd
       0.12133793 0.0066509726 -0.027064009 -0.067036845
0000b0 6c 55 3e bd 4d 2c f6 3d d2 9c 74 bd e2 14 15 bd
       -0.046468183 0.120201685 -0.059719868 -0.03639687
0000c0 44 80 8d 3d 02 af 91 bc a2 b3 54 bc 23 d4 98 3d
       0.0690923 -0.017783646 -0.012982281 0.07462337
0000d0 f1 d1 17 3e 59 d5 3d 3e 90 22 02 3d 7b 34 15 bd
       0.1482618 0.18538417 0.031771243 -0.036427002
0000e0 e4 09 cd bd 4f b6 6a bd 88 e5 3f 3c 54 7d 23 bd
       -0.10011652 -0.05730277 0.011712439 -0.039914444
0000f0 f1 a5 f4 3c b6 c7 d2 3d ad b6 b4 3d e7 64 99 3d
       0.029864283 0.10291998 0.08823905 0.07489949
000100 83 15 a1 3c d2 7c 5a bd bd 24 c0 3a 74 cf e9 bd
       0.019663578 -0.053341694 0.0014659386 -0.11416522
000110 79 e7 d6 3d 15 f9 6b bc e7 2d b1 bd 14 70 d5 3d
       0.10493369 -0.0144026475 -0.08651333 0.10421768
000120 46 c6 07 3d 1a 89 01 be f9 8e d0 bd 49 f9 f6 3d
       0.033148073 -0.12649956 -0.1018352 0.12059266
000130 96 fa 18 3e e0 18 9f 3c b0 73 76 bb 41 ef 30 3d
       0.14939341 0.019421041 -0.0037605576 0.04319692
000140 c0 e8 99 3a 0a 95 df bb 94 15 d8 3c 5d ed 9d 3d
       0.0011742339 -0.0068231868 0.026377477 0.07711289
000150 2f 3e 03 bd 0b d9 71 3d 2f 71 07 be 91 aa 62 bd
       -0.032041725 0.05904488 -0.1322677 -0.055338446
000160 73 2b 44 bb e8 ae 3e 3e f7 a0 76 3b a9 ff 26 3d
       -0.0029933124 0.18621409 0.0037632564 0.04077116
000170 2e 40 10 bd b6 0f 70 3d c0 3e 7e bd 97 31 d0 bd
       -0.035217457 0.058608733 -0.06207156 -0.101657085
000180 ba 7a 49 be 90 88 88 3d e5 86 8e bd df 09 81 3d
       -0.19675723 0.06666672 -0.06959323 0.06300711
000190 2f 2e c0 3d 5c 58 d3 bd 35 3b db bd a0 30 15 be
       0.09383809 -0.103195876 -0.10704652 -0.1456933
0001a0 84 1e 66 3b dd 50 aa 3a d6 38 ab bd 9c 1a 21 be
       0.0035113404 0.001299407 -0.0836045 -0.15732807
0001b0 7b 05 3d 3b 26 45 38 3d 7f 73 c8 bd 74 26 9f bd
       0.0028842378 0.04498782 -0.09787654 -0.07771006
0001c0 a1 54 03 3e 7c 98 3c 3e d2 c1 b6 3d 83 a5 5d 3d
       0.12825252 0.18417543 0.08923687 0.054112922
0001d0 00 9e 67 bd 2a 70 de ba 8f dd 60 3d 94 c0 15 be
       -0.056547165 -0.0016970683 0.054898795 -0.14624244
0001e0 d5 46 cd bd 85 95 e1 bc 99 30 a8 3d e9 b3 11 be
       -0.10023276 -0.027537117 0.08212394 -0.14228787
0001f0 dd 7c 23 be bc ff 5e bd 6f dd 27 bb 83 57 bc bc
       -0.159656 -0.054443106 -0.0025614162 -0.022990948
000200 e9 d7 de ba f8 ab 9e 3c 9b 74 73 ba 0f 97 07 3e
       -0.0017001602 0.01936911 -0.000928709 0.13241218
000210 fa 81 b2 3d 5d 80 73 bc 2d 68 9d 3c 93 c0 55 bc
       0.08716197 -0.014862147 0.019214714 -0.013046402
000220 a9 a5 b7 3d 85 a6 ae bd c2 d3 a1 bd fe 78 e1 bd
       0.08967144 -0.08527855 -0.07901718 -0.110094056
000230 a0 46 20 bc 88 a1 c5 3d 89 87 af bd 7d 9d e8 3b
       -0.009782463 0.0964995 -0.08570773 0.007098852
000240 98 10 10 3e 41 f5 43 bd 5c 87 88 3d 26 0e 16 3e
       0.1406883 -0.047841314 0.06666443 0.14653835
000250 ef 8f 3a bd 46 1e 5c bd ea 3b bd bc 66 2c 16 3e
       -0.045547422 -0.05373981 -0.023099858 0.14665374
000260 48 d1 03 be 59 7c 71 be be 06 bc bd 67 e3 26 bd
       -0.12872803 -0.23582591 -0.091809735 -0.04074421
000270 f9 71 bb bd 3c af 10 bc 78 a1 35 3c 4e b8 0e 3d
       -0.09152598 -0.008830842 0.01108586 0.034843735
000280 60 66 e8 bd 96 23 a7 bd 14 72 da bd 0e 42 e3 3b
       -0.113476515 -0.08161084 -0.1066629 0.0069353646
000290 55 32 d9 3c 1b 97 14 3e bb d4 45 3e 06 23 1c 3e
       0.026513258 0.14510767 0.19319431 0.15247735
0002a0 b4 9c 87 bd c8 f0 6b bd 91 cb 6b 3d 1d 38 a1 3d
       -0.066216856 -0.057602674 0.057567183 0.07872031
0002b0 e2 29 8b bc 86 2d 67 bd 54 98 81 bd df 78 3b 3d
       -0.016987745 -0.0564399 -0.063278824 0.04576957
0002c0 45 8f 8e bd d1 96 07 be 81 5b 95 3d 8b 35 29 3c
       -0.0696092 -0.13241126 0.072928436 0.010327707
0002d0 89 5e ba 3d d5 0b 9a 3d f4 b5 ed 3d df 22 3d 3c
       0.091000624 0.07521788 0.116069704 0.011543958
0002e0 9e 08 a8 bd 9d e2 75 3c ab 12 ea bd d6 3f 56 bd
       -0.082047686 0.015007642 -0.11429342 -0.052306972
0002f0 eb f4 33 3d 0f 1b f5 3d a1 27 b3 3d f0 87 bf 3d
       0.043934744 0.11968052 0.08747793 0.093521
000300 5a 46 b0 3e f9 f9 d3 bc 26 97 c4 3d 5e 54 f8 bb
       0.34428674 -0.025876032 0.09599142 -0.0075784167
000310 75 50 84 3c 69 1b 5f 3d ea a8 d3 bd 25 44 ed bb
       0.016151646 0.0544695 -0.10334952 -0.0072407895
000320 0c 55 11 3e 09 94 41 3d ef f0 99 bd c7 6a 51 bd
       0.14192599 0.047260318 -0.075166576 -0.05112722
000330 7f c3 06 3e 96 c7 29 3d 79 11 9e bc b9 ca 29 bd
       0.13160513 0.041450106 -0.019295441 -0.041453097
000340 a0 fc 4a bd 37 42 3c 3e 87 23 14 3e f8 56 f5 3d
       -0.04955733 0.18384634 0.14466678 0.119794786
000350 a8 b7 44 3c b5 c5 15 3e 8b ec 2e 3d ba 05 0c bc
       0.012006678 0.146262 0.042706054 -0.008546287
000360 3d 92 a6 3d 63 5e d2 bc 55 83 9b bb 09 2f f6 3d
       0.081333615 -0.025679773 -0.0047458806 0.1202069
000370 bd d4 87 bd f7 5b 22 3d 29 01 09 3d 64 46 17 bd
       -0.066323735 0.039638486 0.033448372 -0.036932364
000380 6f b2 52 3e 42 5b 50 3c e6 d0 cb bc 34 89 63 3d
       0.2057588 0.01271707 -0.024879884 0.05555077
000390 14 b1 cc 3b b2 00 3d bd 3b 0c 95 3d c8 6e 2d bd
       0.0062466953 -0.04614324 0.072777234 -0.042341977
0003a0 7c 57 bd bb 9b ae 00 be 71 a7 dc bd af a0 60 bd
       -0.005778251 -0.12566607 -0.107741244 -0.05484074
0003b0 fa 7e c0 3d e2 19 54 3d 4d 9c 24 3d f5 7f 8c 3d
       0.09399219 0.051782496 0.040188123 0.06860343
0003c0 1e 20 86 bd 34 c4 01 3d ab 57 d4 3c 86 21 b9 3c
       -0.065490946 0.031681255 0.02592071 0.022598993
0003d0 7e 25 1d bc e1 51 08 bd 19 81 28 bd 95 4b dc 3d
       -0.009591458 -0.03328121 -0.041138742 0.10756604
0003e0 43 fe 83 3d f8 8f 28 bb 32 30 a2 bc 5b 5f bc bb
       0.06444981 -0.0025720578 -0.019798372 -0.005748672
0003f0 eb b6 be 3d 58 16 05 3e 0e 34 72 3c 27 f8 b9 bd
       0.093122326 0.12996805 0.014782919 -0.090805344

bias f4 [32]
000000 b6 7d 02 bd 25 8e 84 3d 74 94 bc 3d 1e 57 c9 bc
       -0.03185817 0.064724244 0.09208003 -0.024577674
000010 e6 bc 43 3e 90 80 3b 3d 05 fa 01 3d 17 db 99 bb
       0.19115028 0.045776904 0.031732578 -0.004695307
000020 36 21 35 3d 8a 5f 7e 3b eb 2b 06 3e ac cb e1 3d
       0.044221126 0.003881427 0.13102691 0.110251755
000030 41 7d 94 3b 64 ba 4e 3c ad bd ae 3c 09 bf 3a 3d
       0.004531533 0.012617681 0.021330679 0.04559234
000040 6f 7a 07 ba 30 1f 1c 39 70 c4 fb 3d a9 80 12 bd
       -0.00051680853 0.00014888938 0.12293327 -0.03576723
000050 bf d3 15 3e 93 39 88 3d 79 9d 92 bd 89 d4 1d 3e
       0.14631556 0.066516064 -0.07158942 0.15413107
000060 45 58 ca 3d e9 ac 2c 3d 2c 07 ec bd 8f 1d be bd
       0.09880117 0.042157087 -0.115248054 -0.092829816
000070 52 7a 31 3b 55 b1 3d 3e 85 b5 98 3d 9c c4 01 bd
       0.0027080965 0.18524678 0.07456497 -0.031681642

weight f4 [15, 32]
000000 82 6a 41 3e d3 3a 6d 3e 3e f6 89 3d fd a3 25 3d
       0.18888286 0.23166971 0.0673642 0.040439595
000010 af af 22 3d eb 41 3b 3d 64 8c 20 be 32 38 8c 3d
       0.039718326 0.04571716 -0.15678555 0.06846656
000020 c5 0e a2 be 4c 1c 27 3e 23 8a 3d be df 98 59 3d
       -0.31651893 0.16319388 -0.18509726 0.053124305
000030 1b 00 85 3d d6 3c 33 bd 16 37 7e bc cb 7b 43 be
       0.06494161 -0.04375919 -0.015516063 -0.19090192
000040 45 1b c3 3e df f8 5f bd f3 fa 81 3b 4b 94 22 3e
       0.38106743 -0.0546807 0.003966683 0.15876882
000050 dc d6 4a bc 35 b3 16 be fc 4d 1e be c5 3f 05 3e
       -0.012380328 -0.147168 -0.15459436 0.13012607
000060 39 7a f0 bc c4 5a de 3d b2 22 88 3e 72 46 34 3e
       -0.029355155 0.10857156 0.2658897 0.17604998
000070 30 89 95 bd 45 b5 b7 bd ff 31 03 3d ac d1 5d 3e
       -0.07301557 -0.08970121 0.032030102 0.21662015
000080 e0 ad 5d 3d 83 9d d5 bd 36 ad 94 3d a5 a3 f0 bd
       0.0541209 -0.104304336 0.072596 -0.11749963
000090 6e 86 c5 3c 89 11 7d bc 11 60 c8 bc 8d a8 bc bd
       0.024111953 -0.015446075 -0.02445987 -0.09211836
0000a0 e9 fb 6d bd 20 b2 c4 bc a2 f1 98 3b 22 ad 9c bc
       -0.05810157 -0.024010718 0.0046674768 -0.019125525
0000b0 6c 24 22 bc 13 c2 c6 bc 7a f7 69 bd 55 61 fd 3c
       -0.009896379 -0.024262464 -0.057120778 0.0309302
0000c0 31 6c 0c 3e c1 a0 73 bb 8f e7 30 bb 80 94 b9 bd
       0.13713147 -0.0037174674 -0.0026993488 -0.09061527
0000d0 bd 84 a3 bd 4c f1 9c bd 66 ca 4b be ef f1 2e be
       -0.07984302 -0.07663211 -0.19901428 -0.17084478
0000e0 d7 53 f4 bd 67 8d 9e bd be 63 71 bb b6 3d 00 3d
       -0.11930054 -0.07741814 -0.0036833133 0.031308852
0000f0 48 d0 8d bd 95 15 39 3d b6 2b f5 bd 7a e3 65 3d
       -0.06924492 0.045186598 -0.11971228 0.05612514
000100 73 0a 25 be 60 8c 9e be 72 75 e2 bd 42 4e 83 3d
       -0.16117267 -0.30966473 -0.11057557 0.06411411
000110 7f 28 96 3d 28 2e a4 be 0a 82 54 be 5d 06 85 3d
       0.07331943 -0.32066464 -0.20752731 0.06495354
000120 8b 2d 4b bd ad 86 1f 3e 00 e6 1d 3e e2 a5 c4 bd
       -0.04960398 0.15578718 0.1541977 -0.09601952
000130 42 b5 2b 3e 28 d1 34 3e 55 74 7b bd b9 a2 67 3e
       0.16768363 0.17657912 -0.06139024 0.22620668
000140 35 34 c9 3d a9 97 9f 3d 26 ff 15 bd fd a0 1e 3c
       0.09824411 0.07792599 -0.03662028 0.009681937
000150 a6 fc d2 3b f8 a5 dd 3b 2f dd a4 b8 d6 db 96 be
       0.0064388094 0.00676417 -7.861328e-05 -0.29464597
000160 f4 29 64 be 85 ae 1e be d5 a9 09 be ee 68 55 3e
       -0.22281629 -0.15496261 -0.13443692 0.20840809
000170 36 12 4a bd 57 9e 36 3d 63 4b 03 be a7 61 2a 3d
       -0.049333774 0.0445846 -0.12821727 0.041597035
000180 fd ca 0b 3d 5a 34 f1 3d 79 0b a6 3c b5 80 15 bd
       0.03412913 0.117775634 0.020269142 -0.036499698
000190 b9 d2 99 bd d3 1b 2a 3e a4 0d 26 3d 55 8d 3f bd
       -0.07510895 0.16612177 0.040540352 -0.046765644
0001a0 bd fd ce bc a8 5d 14 bd 70 2d 09 be 9a 2b a6 bd
       -0.025267476 -0.03622213 -0.1339624 -0.08113785
0001b0 e2 82 88 bd 96 39 93 3e c3 34 63 3c e2 65 af bd
       -0.06665589 0.28754872 0.01386756 -0.085643545
0001c0 71 29 4d 3d f7 e0 61 bc e1 41 99 bc 02 2b 2c 3d
       0.05008835 -0.013786546 -0.018708171 0.042033203
0001d0 57 94 4b bd 02 3f be bd 87 0f ea bd df 57 d8 3d
       -0.049702015 -0.092893615 -0.11428743 0.10563635
0001e0 e2 d9 18 3e 59 49 17 3d 48 40 34 3e 9e ce bf 3d
       0.14926866 0.036935184 0.17602646 0.09365581
0001f0 8f 81 99 3c be 5f 94 bd 30 6e d5 3d 0e d8 13 3e
       0.018738536 -0.07244824 0.10421407 0.14437887
000200 63 61 f4 bd 7f e9 b3 bd d4 6b cc bd bb 78 26 bd
       -0.119326375 -0.0878477 -0.09981504 -0.04064248
000210 c0 3d b6 bc 16 18 41 bd df 57 b7 3d 1d cb e5 bc
       -0.022246242 -0.04714211 0.08952307 -0.028050954
000220 b2 f0 87 bd 04 42 10 3d 27 43 29 bd 15 e7 de bc
       -0.06637706 0.035219207 -0.041323807 -0.027209798
000230 3e 1b 02 be 6c c3 09 bc 0c 40 c6 bd a1 b2 a6 bc
       -0.12705705 -0.008408409 -0.09680185 -0.020348849
000240 28 bc c3 bd 6d 51 53 bd 1e ad c0 bc 60 0d e4 bd
       -0.09557372 -0.051591326 -0.023520049 -0.111353636
000250 8f 4d 56 bd ec 4b 4b bc 55 f3 42 3d b9 6f a0 ba
       -0.05232006 -0.012408238 0.04759534 -0.0012240327
000260 8b ee 6d 3c 57 01 36 bd 7e f7 17 3d d4 55 e2 3d
       0.014522205 -0.04443487 0.03710126 0.11051527
000270 35 55 4d bd d1 9f 31 bd 61 09 50 be 40 d7 88 bd
       -0.050130088 -0.043365303 -0.20316078 -0.06681681
000280 17 b1 95 3e 97 4e 12 be 05 5d 16 be 1c 01 99 3e
       0.2923667 -0.14287792 -0.14683922 0.2988366
000290 0c fb 91 3d fc ac d4 bd b4 8f 66 3d 65 ef 75 3d
       0.071279615 -0.10384557 0.05628939 0.060042758
0002a0 db dc d7 3d bf 56 52 3e 30 3a 7c 3d 3b f8 1f be
       0.10540172 0.20540904 0.06157893 -0.15622036
0002b0 8e d1 a5 3d 99 41 ab 3c c4 dd 80 bd 36 7a 34 3e
       0.0809661 0.020905303 -0.062922984 0.17624745
0002c0 48 d1 5f be fa 49 a0 bd f8 fd 91 be 1e 7d 87 be
       -0.21857178 -0.0782661 -0.28514075 -0.26462644
0002d0 54 30 6d 3d 41 9e 28 bc f2 1a 81 3e 56 1a 5a be
       0.057907417 -0.010291637 0.2521587 -0.21299109
0002e0 3f 70 c0 be 87 a0 e0 bd 5c 47 78 bc 4a 06 fe 3d
       -0.37585637 -0.10968118 -0.015153732 0.12403543
0002f0 46 cd e1 3c 34 20 c3 3c b0 3e 7e bd df 40 81 3e
       0.027563702 0.023819067 -0.062071502 0.25244805
000300 b5 7f ce 3d fa 7d 46 bc b1 c8 6b bd 84 06 6f 3d
       0.10082952 -0.012114996 -0.05756444 0.058355823
000310 94 1b b5 bd 51 0e 1f bd f4 b3 68 bd a0 46 9b 3d
       -0.08843151 -0.038832013 -0.05681224 0.0758183
000320 f5 e0 2a be 57 55 49 3d 0c 9c d1 bd 8b df 6f bd
       -0.16687377 0.049153652 -0.10234842 -0.058562797
000330 99 1b a2 bd 57 e9 f5 bb d0 f2 b9 bd 3f af 18 be
       -0.0791542 -0.007504623 -0.09079516 -0.14910601
000340 6f d6 9c 3c fc fa b7 bd 20 68 cd bb 82 b0 a5 bc
       0.019145219 -0.08983418 -0.006268516 -0.020225767
000350 ad 37 8c bd 4c a6 18 be 79 84 64 3c b9 77 17 3e
       -0.06846557 -0.14907187 0.0139476 0.14791764
000360 88 22 8d bc db b0 62 bc 35 02 16 3e 61 aa 24 3d
       -0.01722838 -0.013836111 0.1464928 0.04020155
000370 7b 3c 9c bd 52 ed c9 bd 92 7b 16 bd 88 cf d2 bd
       -0.07628723 -0.098597184 -0.03673894 -0.1029349
000380 87 d5 05 be 20 85 2e be b8 03 c5 3c 65 6e a0 bd
       -0.13069735 -0.1704297 0.024049625 -0.07833556
000390 21 46 d0 bd ef f4 d4 bd 53 14 4d 3c 26 92 7a bd
       -0.10169626 -0.1039828 0.012517053 -0.061174534
0003a0 3c 25 c9 bd a1 44 fb 3d 47 6d 26 be 72 e1 4f bd
       -0.09821555 0.12268949 -0.16252623 -0.05075211
0003b0 20 bf 6e bd 63 0a 8b 3d 1b 3b 13 be 89 42 a2 bd
       -0.05828774 0.067890905 -0.14378016 -0.07922847
0003c0 c2 d0 06 bd 7c fd e3 bd 82 a1 8d bd 79 fc 12 bd
       -0.03291393 -0.11132333 -0.06915571 -0.035885308
0003d0 16 f1 c6 bd ae 5b e8 bd f7 55 bc bd f4 c3 24 bd
       -0.09713952 -0.113456115 -0.09196084 -0.040225938
0003e0 89 1e b4 bd a9 d5 32 be cb 59 c5 bd c3 59 18 bd
       -0.087948866 -0.17464317 -0.09636267 -0.03719498
0003f0 67 d6 3b bd 48 b0 39 be a7 a4 7e 3d d2 8e 26 be
       -0.045858767 -0.18133652 0.062168743 -0.16265419

bias f4 [15]
000000 cc ea 28 bc 1c 77 5d 3d ab 57 dd 3d f5 2a 72 bb
       -0.010309886 0.05406867 0.10807737 -0.0036951874
000010 dd e2 91 bb 7c 4f 52 3d 7f ea 40 bc 88 ee b6 bd
       -0.004452093 0.051345333 -0.011774658 -0.08932215
000020 2e 99 45 bd f4 69 5d 3c c5 66 e1 3c ad 76 10 3c
       -0.048241787 0.013514031 0.027514825 0.008817357
000030 d9 49 da 3c 11 b4 be 3c 8f af 01 3d
       0.026646541 0.023279222 0.031661566

weight f4 [1, 32]
000000 ee 91 51 bb df b7 81 3c 9b 8c 38 3d f7 76 a2 3b
       -0.003197785 0.015834747 0.045055967 0.0049580294
000010 fd 8c f1 3d 1c 33 ff 3d 10 f1 2c 3d 9d d0 b7 3b
       0.117944695 0.1246092 0.042222083 0.0056095854
000020 66 d7 dd 3d 70 c3 e3 3a c1 a2 18 3d 3b cb 60 3d
       0.108320996 0.001737697 0.03726459 0.054881316
000030 f3 d0 5c 3c 1d 3f d5 bd 3f 6d 02 3b f0 7d 02 3d
       0.013477552 -0.104124285 0.0019901542 0.031858385
000040 ae 3e 15 bd 82 85 6d bb 4a a2 49 3d 67 c6 9f 3b
       -0.03643673 -0.0036242907 0.049227037 0.0048759463
000050 77 af 22 3d 63 63 c2 bb 51 60 36 bd d2 e1 02 3e
       0.039718118 -0.005932258 -0.04452545 0.12781456
000060 cb 84 65 3c 86 2c 0b 3a 49 54 0e bd 52 61 0e bc
       0.014008711 0.00053090637 -0.03474835 -0.008690195
000070 18 2f b1 3e e6 4c e7 3d 8f b2 ac 3c f2 15 47 bc
       0.34606242 0.11293964 0.021081237 -0.012151228
